best_models/NeuralNetwork-2_acc-59.90_loss-0.000002.pth (torch, 184847 bytes, 8 tensors)

network.0.weight f4 [189, 63]
-0.0026443892 -0.061161503 0.051402032 0.03227402 -0.043436192 0.04692347 -0.24696003 -0.034752626
0.119375885 -0.04195104 0.038127378 -0.11357245 -0.0032456696 -0.062155314 -0.12598982 0.07539175
0.06793567 -0.015260146 0.09981486 0.15037869 0.005980876 -0.0897036 0.14042008 0.05677682
0.15411095 0.06786993 0.13448706 -0.09585579 0.011865532 -0.07271621 0.034375597 0.06791859
0.16213278 -0.1479395 -0.039549176 -0.11414599 0.10362815 0.14980981 -0.056656342 -0.060495548
0.0065168794 0.006623301 -0.091803364 0.008260556 -0.012663205 -0.13999563 0.10709026 -0.029184405
-0.049935352 -0.049480546 -0.019720918 0.029635547 -0.060222957 -0.14316374 0.045570087 0.15716232
0.06070505 0.10441941 -0.07013091 0.10942801 -0.18023969 -0.058292698 0.02312153 -0.031285904
0.08070411 -0.006732719 0.05171062 0.14634994 0.10777607 -0.06723619 0.044774987 0.03311057
0.048868164 -0.12735139 0.013136673 -0.07048215 -0.08095867 0.048950493 0.20382413 0.12534335
-0.12950383 0.13627045 -0.10794966 0.10201528 0.10603367 -0.15902537 0.032754928 -0.22292863
-0.0363849 -0.09159704 -0.04700292 0.09963303 0.03707315 0.17039381 -0.29419103 0.16580807
0.082246035 0.0062445113 -0.009636176 0.15082775 0.07076286 0.043713402 0.087473616 -0.07678836
-0.06279264 -0.012946482 0.10109406 -0.06352266 -0.17862348 0.08912333 0.053229585 -0.04918799
-0.035570007 0.07072449 0.0030397365 0.25905764 0.0654369 0.10132548 0.23734163 0.0753097
-0.2497525 0.076602 0.029304583 0.08276955 -0.0019234063 -0.03887862 -0.03833772 0.0168022
-0.03303629 0.002594814 -0.03210001 -0.007576376 -0.06620999 0.01904389 0.06604651 -0.034568705
0.061109785 0.034181476 -0.036460243 -0.050765913 0.018823193 -0.057743948 -0.09721912 -0.05682227
-0.0054374454 0.06316337 0.06396173 0.17261772 -0.010866436 0.19020374 -0.19207413 -0.04304719
-0.011204962 -0.14586936 -0.009378599 0.06314432 0.019470675 0.10134145 -0.02117823 0.031215155
-0.22800307 0.091348805 -0.029984694 0.096556954 -0.09386359 -0.010133567 0.08233804 0.11340564
0.12994945 -0.04941906 0.04456052 0.04670934 -0.23408404 -0.17883685 -0.052922092 -0.24820626
-0.045850314 -0.007972658 -0.19163865 0.11213536 -0.3601793 -0.024932766 -0.0030184456 -0.15321507
-0.19473167 -0.0980079 0.05700721 0.101159155 0.26636127 0.021303013 -0.030196663 0.19905753
0.122226 -0.18061726 0.0064363955 -0.022334632 -0.005831619 -0.06387021 -0.007803956 -0.050518233
0.11592371 -0.08884405 0.032328896 -0.059549313 0.05297434 0.23847088 0.008552878 -0.014296013
-0.10739363 0.10651903 -0.059117302 -0.01973603 0.004651676 -0.15996316 -0.026783507 0.032065958
-0.11721454 -0.10776744 0.13168679 0.047377326 0.036912173 0.21602046 -0.037533857 -0.20393674
-0.0529807 0.031046193 -0.1907353 0.08324095 -0.1766512 0.06450816 0.06997328 0.14970608
0.06456902 0.11401034 -0.04471895 0.1578617 0.043835014 0.13982299 0.18491106 -0.027185237
-0.04111371 0.21466045 0.024557186 0.04733282 0.09533052 -0.080656596 -0.05072004 0.06767842
-0.039830375 0.09614986 -0.04712204 -0.15819725 -0.07903857 -0.11308013 0.026157169 -0.09859302
00000000: 7d4d 2dbb 7c84 7abd f08a 523d c331 043d
00000010: 26ea 31bd d332 403d 17e3 7cbe c558 0ebd
00000020: 587b f43d dbd4 2bbd 742b 1c3d ac98 e8bd
00000030: 4db5 54bb 9296 7ebd 7a03 01be fd66 9a3d
00000040: db21 8b3d b105 7abc bc6b cc3d dffc 193e
00000050: 39fb c33b 85b6 b7bd 48ca 0f3e d08e 683d
00000060: 43cf 1d3e 64ff 8a3d fab6 093e 0a50 c4bd
00000070: a667 423c 3cec 94bd 6dcd 0c3d e718 8b3d
00000080: 2306 263e 747d 17be 51fe 21bd 5fc5 e9bd
00000090: ff3a d43d be67 193e 7b10 68bd 2eca 77bd
000000a0: 8c8b d53b 4708 d93b 6703 bcbd 4857 073c
000000b0: 5579 4fbc 045b 0fbe 2352 db3d 2214 efbc
000000c0: 0389 4cbd 1dac 4abd c38d a1bc 3fc6 f23c
000000d0: 59ac 76bd 8499 12be b3a7 3a3d 29ef 203e
000000e0: dca5 783d d8d9 d53d cba0 8fbd cb1b e03d
000000f0: c190 38be 53c4 6ebd 5d69 bd3c a625 00bd
00000100: 3248 a53d 249e dcbb 84ce 533d c2dc 153e
00000110: b3b9 dc3d 21b3 89bd fa65 373d f39e 073d
00000120: fc29 483d 6768 02be 333b 573c f258 90bd
00000130: a9cd a5bd 5080 483d 46b7 503e 025a 003e
00000140: a79c 04be 7b8a 0b3e b614 ddbd 63ed d03d
00000150: 2e28 d93d 8cd7 22be 082a 063d 6747 64be
00000160: 5508 15bd 3b97 bbbd 2286 40bd 670c cc3d
00000170: 04da 173d b77b 2e3e 35a0 96be 97c9 293e
00000180: 9c70 a83d c29e cc3b 0de1 1dbc 9772 1a3e
00000190: 1eec 903d d30c 333d 5e25 b33d 3743 9dbd
000001a0: 6d99 80bd 7b1d 54bc 670a cf3d 2b18 82bd
000001b0: 13e9 36be 4b86 b63d 4407 5a3d 5979 49bd
000001c0: dbb1 11bd 00d8 903d 5136 473b 34a3 843e
000001d0: c803 863d bc83 cf3d af09 733e f93b 9a3d
000001e0: 1fbf 7fbe 82e1 9c3d 2a10 f03c 1583 a93d
000001f0: ce1a fcba 303f 1fbd 0308 1dbd c4a4 893c
00000200: 1051 07bd c10d 2a3b 4d7b 03bd 4043 f8bb
00000210: 1a99 87bd ef01 9c3c 6543 873d ea97 0dbd
00000220: 414e 7a3d e001 0c3d 5657 15bd ebef 4fbd
00000230: 1933 9a3c eb84 6cbd d11a c7bd 78be 68bd
00000240: 992c b2bb cc5b 813d 5efe 823d b3c2 303e
00000250: 2309 32bc c5c4 423e 15af 44be 4052 30bd
00000260: 0495 37bc c75e 15be b2a8 19bc cf51 813d
00000270: f780 9f3c 1b8c cf3d f87d adbc edb6 ff3c
00000280: a379 69be 1515 bb3d 76a2 f5bc a7bf c53d
00000290: 8e3b c0bd 4307 26bc d9a0 a83d 3741 e83d
000002a0: 7811 053e a46b 4abd 1885 363d 4b52 3f3d
000002b0: bab3 6fbe 0221 37be d6c4 58bd c829 7ebe
000002c0: 8acd 3bbd c09f 02bc ec3c 44be 39a7 e53d
000002d0: 6c69 b8be cd3f ccbc 1dd1 45bb 69e4 1cbe
000002e0: bd67 47be 5eb8 c8bd 6480 693d 882c cf3d
000002f0: 8160 883e a883 ae3c fe5e f7bc bdd5 4b3e
00000300: a051 fa3d bbf3 38be 66e8 d23b 1ef7 b6bc
00000310: 2a17 bfbb 62ce 82bd 54b8 ffbb 35ec 4ebd
00000320: 6969 ed3d dff3 b5bd 4e6b 043d fbe9 73bd
00000330: 9ffb 583d b631 743e 5f21 0c3c d339 6abc
00000340: 31f1 dbbd a626 da3d fc24 72bd 74ad a1bc
00000350: 166d 983b 62cd 23be 1669 dbbc 9857 033d
00000360: 2d0e f0bd 2db5 dcbd e7d8 063e ba0e 423d
00000370: 3831 173d 7834 5d3e 1abd 19bd cbd4 50be
00000380: 4a02 59bd 9654 fe3c 1d50 43be 3b7a aa3d
00000390: 0de4 34be db1c 843d 274e 8f3d 8d4c 193e
000003a0: c33c 843d 417e e93d 382b 37bd 7fa6 213e
000003b0: 588c 333d c22d 0f3e 5359 3d3e 93b3 debc
000003c0: d966 28bd f3cf 5b3e 272c c93c 0fe0 413d
000003d0: a63c c33d 492f a5bd d1bf 4fbd fc9a 8a3d
000003e0: 2d25 23bd 38ea c43d 0a03 41bd 76fe 21be
000003f0: f9de a1bd 8e96 e7bd 8f47 d63c 23eb c9bd

network.0.bias f4 [189]
-1.252289 -0.745361 -1.0147666 -0.6826454 -1.1608475 -0.82030886 -1.0368495 -0.99873006
-0.6176266 -0.848564 -1.116746 -0.8019206 -1.0456566 -1.1807857 -1.2268854 -1.1276847
-1.2465962 -0.77893513 -1.1651378 -1.0056046 -0.6989354 -1.3558836 -1.1191423 -0.97011644
-0.90441614 -1.0160286 -1.1462618 -1.0897229 -1.1928731 -1.079381 -0.7030277 -1.1567696
-0.7854679 -1.0031664 -0.71949935 -0.9955274 -1.0496733 -0.77216446 -0.70881397 -1.0405889
-0.8378016 -1.2988571 -0.80315965 -0.8340029 -0.8106914 -1.3315545 -0.97058254 -1.2525315
-0.9909903 -1.0175256 -0.95141596 -1.1728457 -0.5440732 -1.0660644 -1.4443502 -1.2174149
-1.0499448 -0.80135924 -0.9249887 -0.6377398 -0.77626526 -0.7845173 -0.9275271 -1.2923707
-0.96862125 -0.98822284 -0.6782768 -1.2137293 -0.92798907 -0.73450255 -0.8367772 -0.9559188
-1.010618 -0.97873 -1.1184878 -0.6435278 -1.1128166 -0.998872 -1.1844466 -1.0667641
-1.2031186 -0.8772738 -1.0613991 -0.81260073 -0.91495883 -0.7543069 -0.802373 -1.278144
-0.6625739 -0.63025117 -1.0888169 -0.894606 -1.06002 -1.0474428 -0.7760911 -1.0782216
-1.1259682 -0.9446006 -0.9410354 -1.2159758 -0.6617126 -0.976266 -1.1105746 -0.8965912
-1.0373437 -0.9039275 -0.7653163 -1.2419755 -1.180597 -0.83675516 -0.630348 -1.0790461
-1.0557204 -1.1232738 -1.4314324 -1.0008702 -1.32514 -1.0550699 -1.0031462 -0.7495776
-0.88701206 -0.86720026 -0.89141715 -0.98838294 -0.8045266 -0.45036653 -1.0447791 -0.7566562
-1.0889306 -0.8227426 -1.2358986 -1.1920918 -0.9016663 -1.0179322 -0.9146355 -0.9036729
-0.83663297 -1.0101012 -0.87095505 -0.73964006 -0.9042202 -0.95051664 -0.914924 -0.7463424
-0.66203225 -0.93138975 -0.6448059 -0.852827 -1.2037797 -1.3312025 -0.8607042 -0.7529683
-0.9166825 -0.8980071 -0.9480952 -0.79316 -1.19073 -1.0991665 -1.0441688 -1.1977752
-1.3016101 -0.99326473 -0.8780719 -1.1634687 -1.0039006 -0.87339526 -0.7892406 -0.94926614
-0.64707786 -0.92166436 -1.2792315 -1.0808723 -0.8732225 -0.6664491 -0.751238 -1.1094803
-1.212629 -0.957549 -1.097496 -1.3570006 -1.1386112 -0.88868374 -1.086164 -0.7688808
-0.78686684 -0.8487804 -1.3707621 -0.7370366 -1.1400125
00000000: 024b a0bf facf 3ebf dfe3 81bf d9c1 2ebf
00000010: a796 94bf c3ff 51bf 7cb7 84bf c6ac 7fbf
00000020: c71c 1ebf 7e3b 59bf 88f1 8ebf ab4a 4dbf
00000030: 13d8 85bf fc23 97bf 950a 9dbf f957 90bf
00000040: 7790 9fbf 4b68 47bf 3c23 95bf a7b7 80bf
00000050: 6eed 32bf 988d adbf 0e40 8fbf 8d59 78bf
00000060: d187 67bf 3a0d 82bf b5b8 92bf 0a7c 8bbf
00000070: 11b0 98bf 2829 8abf a0f9 33bf 0711 94bf
00000080: 6d14 49bf c267 80bf 1c31 38bf e2da 7ebf
00000090: b25b 86bf 92ac 45bf d574 35bf 0432 85bf
000000a0: 2a7a 56bf f340 a6bf df9b 4dbf 3781 55bf
000000b0: 7989 4fbf 6170 aabf 1978 78bf f452 a0bf
000000c0: 8ab1 7dbf 473e 82bf ff8f 73bf cf1f 96bf
000000d0: 6248 0bbf cc74 88bf 78e0 b8bf 40d4 9bbf
000000e0: 9764 86bf e125 4dbf 0fcc 6cbf ea42 23bf
000000f0: 52b9 46bf 20d6 48bf 6b72 6dbf 676c a5bf
00000100: 90f7 77bf 2cfc 7cbf 8ca3 2dbf 7b5b 9bbf
00000110: b190 6dbf 5c08 3cbf 0837 56bf 18b7 74bf
00000120: ee5b 81bf 0d8e 7abf 9c2a 8fbf 3dbe 24bf
00000130: c670 8ebf 13b6 7fbf f29b 97bf ba8b 88bf
00000140: caff 99bf 0495 60bf eddb 87bf 9a06 50bf
00000150: be3a 6abf 421a 41bf 5168 4dbf 399a a3bf
00000160: 719e 29bf 2458 21bf 5a5e 8bbf e604 65bf
00000170: bcae 87bf 9b12 86bf e8ad 46bf 2a03 8abf
00000180: ba1f 90bf 58d1 71bf b2e7 70bf 18a5 9bbf
00000190: ff65 29bf 92ec 79bf 4f27 8ebf 0087 65bf
000001a0: aec7 84bf cb67 67bf c5eb 43bf 0ef9 9ebf
000001b0: cd1d 97bf 9635 56bf 7d5e 21bf 2f1e 8abf
000001c0: d921 87bf 70c7 8fbf 2d39 b7bf 841c 80bf
000001d0: 309e a9bf 880c 87bf 1867 80bf 51e4 3fbf
000001e0: 3913 63bf d600 5ebf ea33 64bf aa06 7dbf
000001f0: 75f5 4dbf 7196 e6be 52bb 85bf 39b4 41bf
00000200: 1462 8bbf 429f 52bf ed31 9ebf 7796 98bf
00000210: 9ad3 66bf 9a4b 82bf 8d25 6abf 1b57 67bf
00000220: 942d 56bf ff4a 81bf e9f6 5ebf 0d59 3dbf
00000230: fa7a 67bf 0f55 73bf 7638 6abf 4c10 3fbf
00000240: f27a 29bf 8f6f 6ebf 0012 25bf df52 5abf
00000250: 7415 9abf d864 aabf 1c57 5cbf 88c2 40bf
00000260: b4ab 6abf cbe3 65bf 5eb6 72bf 890c 4bbf
00000270: d769 98bf 7db1 8cbf 53a7 85bf b350 99bf
00000280: 299b a6bf 9946 7ebf 52c9 60bf 8bec 94bf
00000290: d17f 80bf d596 5fbf ac0b 4abf 1b03 73bf
000002a0: e5a6 25bf 32f2 6bbf dcbd a3bf 065a 8abf
000002b0: 828b 5fbf 699c 2abf 2251 40bf 7303 8ebf
000002c0: 6d37 9bbf ee21 75bf c07a 8cbf 32b2 adbf
000002d0: 03be 91bf c780 63bf 6c07 8bbf 5fd5 44bf
000002e0: 1b70 49bf ac49 59bf 2275 afbf 6eae 3cbf
000002f0: eeeb 91bf

network.3.weight f4 [126, 189]
-0.10985248 -0.76190037 -0.06678453 -0.02855673 0.07176428 -0.30354017 0.002614325 -0.18493778
0.049343236 -0.11796908 -0.32683614 -0.04947705 0.13498956 0.10143398 -0.5000438 -0.1465926
0.1307504 -0.23763114 -0.17150812 -0.19390903 0.05227356 0.2109981 0.018263547 0.015396974
0.026647655 0.11927385 0.08425622 -0.036258865 0.014448919 0.044117346 0.009032406 -0.045726966
-0.074318945 -0.17071259 0.10270656 0.04377205 0.042443994 0.0063893027 0.010701205 0.0865735
-0.10363971 0.03481983 -0.04531878 -0.02114047 -0.02904744 -0.0771966 0.048801716 0.047460895
-0.06455321 0.0031501565 -0.030803869 -0.17639676 -0.01916235 -0.028030459 0.016150072 -0.044931304
0.07687721 0.032413073 0.018263964 -0.015392916 0.015139018 0.041428316 0.1125789 -0.00038165748
0.029923849 0.075967155 0.0059764246 -0.12616724 -0.039514307 -0.0043785837 -0.06499412 0.06384722
-0.08531155 0.06719731 -0.009047868 0.028686026 -0.41625595 0.030285269 -0.92152005 0.18883994
0.04230505 0.09009457 -0.050879803 0.16360174 0.06288242 -0.032188695 -0.03450577 -0.02330376
-0.0094641885 -0.058327634 0.018975371 0.020394702 0.044925395 0.015392791 -0.027209619 -0.6454243
0.07203303 0.077505924 0.07663009 0.015443138 0.007934909 -0.14461698 -0.015441961 0.23796648
-0.12808631 0.025055021 0.05651481 -0.13181174 -0.12703319 0.021156738 -0.08106866 0.042081833
-0.42783818 -1.2600429 0.04320747 -0.009508999 -0.13791703 0.026480014 -0.020894151 0.023079023
-0.02012544 -0.044755552 0.0052255243 -0.03409467 0.019152787 0.01361616 -0.031783834 -0.008434851
0.057296623 0.032491285 0.20438954 -0.06262115 0.10149948 0.0037815731 0.03363961 0.06907271
-0.13553007 0.024969487 0.023359975 -0.009412826 0.021634536 -0.029708754 0.15287901 0.017031634
0.0026253243 0.050998423 0.014172201 -0.018158715 -0.13201067 -0.02510548 0.0060966606 0.030151056
-0.020050855 -0.2480007 -0.021082059 0.031896763 -0.2079086 0.038927503 -0.047255587 -0.19284917
0.023211116 0.0072062416 -0.02781995 -0.13637353 0.090700194 -0.052978206 0.05159532 0.03769765
0.033508006 -0.18620308 -0.123832785 -0.09138289 0.059788093 -0.008349465 -0.028826693 0.00774161
-0.0389464 -0.14115055 -0.450767 0.0052059647 0.06330118 -0.07263226 -0.024299344 0.087019354
0.0406942 -0.01133095 -0.16955844 0.046814915 -0.08625625 0.12617029 -0.09752225 -0.09500636
-0.37227166 -0.00013516465 0.06360087 0.14804308 -0.04343311 -0.04575604 -0.007016796 -0.025397353
0.019074949 0.021845087 -0.019490657 0.0509773 0.10580177 -0.0598876 0.1125492 -0.26841897
-0.055726316 0.051272944 0.024392482 0.007081607 0.04687165 0.12102453 0.046739224 -0.051073138
-0.1900936 -0.051335525 0.1038414 0.025061907 -0.19583991 0.02476349 0.03932601 -0.058608204
-0.038720254 0.08140472 -0.025152344 -0.02766445 -0.12850903 -0.05026075 0.15359299 -0.22126414
-0.05963067 0.1620021 -0.07998778 0.062207095 -0.038491163 -0.0471117 -0.12011102 -0.021735542
-0.040730022 -0.111943826 0.010197949 -0.5428363 0.04458965 -0.009033122 0.0659342 -0.10668622
-0.02642169 0.025702538 0.048491724 -0.11447267 0.109983176 -0.13507405 -0.24659641 0.08054937
00000000: 56fa e0bd e70b 43bf 54c6 88bd ceef e9bc
00000010: 27f9 923d 9e69 9bbe 1855 2b3b 5460 3dbe
00000020: 221c 4a3d c699 f1bd 1157 a7be 72a8 4abd
00000030: b43a 0a3e 9ebc cf3d df02 00bf 5f1c 16be
00000040: 6fe3 053e 9455 73be d39f 2fbe 1790 46be
00000050: cd1c 563d e30f 583e 6f9d 953c 9743 7c3c
00000060: 2f4c da3c d945 f43d 868e ac3d 2d84 14bd
00000070: 29bb 6c3c 64b4 343d a8fc 133c 334c 3bbd
00000080: 8834 98bd 48cf 2ebe d157 d23d 524a 333d
00000090: c1d9 2d3d 5b5d d13b 1b54 2f3c 724d b13d
000000a0: 0e41 d4bd 3d9f 0e3d 2fa0 39bd c72e adbc
000000b0: e6f4 edbc 4019 9ebd 4fe4 473d 5b66 423d
000000c0: 7934 84bd db72 4e3b 6558 fcbc 5aa1 34be
000000d0: 5cfa 9cbc 22a0 e5bc 284d 843c e309 38bd
000000e0: cc71 9d3d 92c3 043d 4f9e 953c 9232 7cbc
000000f0: a509 783c bdb0 293d c48f e63d 3319 c8b9
00000100: dc22 f53c ab94 9b3d e2d5 c33b fc31 01be
00000110: c1d9 21bd 397a 8fbb a31b 85bd 55c2 823d
00000120: d2b7 aebd be9e 893d 823d 14bc f5fe ea3c
00000130: 801f d5be d018 f83c bde8 6bbf 425f 413e
00000140: 0f48 2d3d 8083 b83d 5767 50bd 3787 273e
00000150: 80c8 803d 4bd8 03bd ec55 0dbd 87e7 bebc
00000160: af0f 1bbc f5e8 6ebd 3d72 9b3c ca12 a73c
00000170: b103 383d 0b32 7c3c b5e6 debc 873a 25bf
00000180: 0e86 933d 6dbb 9e3d 3df0 9c3d 3705 7d3c
00000190: 6c01 023c 7916 14be 4700 7dbc 7cad 733e
000001a0: 0f29 03be 3040 cd3c 137c 673d a8f9 06be
000001b0: fd14 02be e550 ad3c 5307 a6bd 005e 2c3d
000001c0: 9b0d dbbe 1649 a1bf 51fa 303d a2cb 1bbc
000001d0: 1f3a 0dbe 9dec d83c 362a abbc 3810 bd3c
000001e0: 1bde a4bc 9951 37bd e03a ab3b daa6 0bbd
000001f0: 4ee6 9c3c 5016 5f3c c42f 02bd 5432 0abc
00000200: ddaf 6a3d 9515 053d 7e4b 513e 843f 80bd
00000210: f6de cf3d 45d4 773b b0c9 093d fe75 8d3d
00000220: 65c8 0abe cf8c cc3c 6b5d bf3c 4138 1abc
00000230: e93a b13c c65f f3bc 518c 1c3e ed85 8b3c
00000240: a20d 2c3b b9e3 503d 8532 683c 96c1 94bc
00000250: ce2d 07be 02aa cdbc 7fc6 c73b 59ff f63c
00000260: b141 a4bc e5f3 7dbe 48b4 acbc 2ea6 023d
00000270: fee5 54be 7272 1f3d 138f 41bd 417a 45be
00000280: 3d25 be3c 5622 ec3b aae6 e3bc 81a5 0bbe
00000290: 06c1 b93d adff 58bd 9d55 533d da68 1a3d
000002a0: b13f 093d 05ac 3ebe 0b9c fdbd f426 bbbd
000002b0: 5ce4 743d 32cc 08bc f525 ecbc 55ad fd3b
000002c0: 4386 1fbd c589 10be efca e6be cc96 aa3b
000002d0: 0da4 813d 39c0 94bd 6b0f c7bc 3437 b23d
000002e0: f6ae 263d 73a5 39bc baa0 2dbe ffc0 3f3d
000002f0: 1ea7 b0bd c932 013e bfb9 c7bd b292 c2bd
00000300: 649a bebe fcba 0db9 2c41 823d 9b98 173e
00000310: ebe6 31bd af6a 3bbd 27ed e5bb 1c0e d0bc
00000320: 1143 9c3c 78f4 b23c dfaa 9fbc 93cd 503d
00000330: 99ae d83d b34c 75bd 3280 e63d 366e 89be
00000340: 4741 64bd 9403 523d bed2 c73c d30c e83b
00000350: 7dfc 3f3d b5db f73d a171 3f3d 1132 51bd
00000360: e6a7 42be 3345 52bd cdaa d43d a14e cd3c
00000370: 428a 48be cddc ca3c 4f14 213d 280f 70bd
00000380: 2199 1ebd 85b7 a63d 4a0c cebc 8fa0 e2bc
00000390: df97 03be 37de 4dbd 7b47 1d3e 1193 62be
000003a0: 4a3f 74bd e1e3 253e a2d0 a3bd decc 7e3d
000003b0: e9a8 1dbd 33f8 40bd c4fc f5bd bc0e b2bc
000003c0: 86d4 26bd ce42 e5bd 4c15 273c 52f7 0abf
000003d0: a3a3 363d a9ff 13bc 8308 873d 4e7e dabd
000003e0: 4d72 d8bc 218e d23c 429f 463d a670 eabd
000003f0: dc3e e13d da50 0abe c583 7cbe 11f7 a43d

network.3.bias f4 [126]
0.008509208 0.19290613 0.0080269445 -0.08400012 0.19582719 -0.040049363 -0.1801843 0.022436786
0.2234954 -0.12684262 0.3343404 -0.27673608 0.28204685 0.43283448 -0.029117573 -0.012856255
-0.10662692 0.07310526 0.10559677 0.14215122 -0.14037953 0.04674659 -0.04692515 0.18407086
-0.007683588 0.18598916 0.1870133 0.15481523 -0.11631127 -0.18929052 -0.040824108 -0.09350382
0.13024221 0.0718973 -0.047071014 0.02033181 -0.05903208 0.23691727 -0.04885002 -0.16365933
0.32079232 0.012781078 -0.122900896 0.09056527 -0.1557985 0.0140553545 0.15686883 0.38572985
-0.0012830121 -0.040742815 -0.11743706 0.17053519 0.11182534 0.38196185 0.30229577 -0.13828224
0.0023489841 0.17545334 0.1991247 0.096841976 -0.038131114 0.13732782 0.17026584 0.17156151
0.14067098 0.051351786 0.11124033 0.40032607 0.25031123 -0.051636547 -0.071127504 0.14412254
0.26896432 0.37501976 0.15802568 -0.21596605 0.057394747 0.2148107 -0.16634747 -0.09707313
-0.11177713 0.41159195 0.10273058 0.12861747 0.17358972 0.031071013 0.12840836 0.3045567
0.02196276 -0.3083085 0.020801095 -0.04041775 -0.3251508 0.2057723 0.24327503 -0.26781046
0.017607754 0.061349094 -0.19733422 0.15352978 -0.13229278 -0.110406645 0.13166387 0.057214808
0.2806411 -0.088126816 0.097518355 0.46533364 0.1506638 0.28306594 -0.058279794 0.27491948
-0.2277241 -0.23223947 0.12443272 -0.12127365 0.014288932 0.2731394 -0.025912786 -0.19438209
0.096423864 0.08626201 -0.012300423 0.04470509 0.24074535 0.20156385
00000000: 356a 0b3c 2f89 453e 7283 033c 4108 acbd
00000010: ec86 483e cd0a 24bd 3c82 38be 5acd b73c
00000020: fadb 643e 08e3 01be aa2e ab3e 5ab0 8dbe
00000030: 7268 903e 7b9c dd3e fa87 eebc 0ba3 52bc
00000040: 375f dabd 36b8 953d 1f43 d83d 1790 113e
00000050: a7bf 0fbe 5a79 3f3d 9634 40bd 127d 3c3e
00000060: 9cc6 fbbb f173 3e3e 6a80 3f3e e287 1e3e
00000070: 9a34 eebd 60d5 41be 2e37 27bd ee7e bfbd
00000080: 375e 053e e43e 933d 89cd 40bd e58e a63c
00000090: 9fcb 71bd 719a 723e f516 48bd 5096 27be
000000a0: e43e a43e ba67 513c 77b3 fbbd 497a b93d
000000b0: a489 1fbe 6e48 663c 39a2 203e 627e c53e
000000c0: be2a a8ba f0e1 26bd d782 f0bd c7a0 2e3e
000000d0: af04 e53d 8190 c33e 83c6 9a3e dc99 0dbe
000000e0: 6af1 193b 0aaa 333e 58e7 4b3e 1655 c63d
000000f0: 5f2f 1cbd aa9f 0c3e 2b5a 2e3e d2ad 2f3e
00000100: 0e0c 103e 4056 523d f8d1 e33d 8af7 cc3e
00000110: cb28 803e d880 53bd 4cab 91bd dc94 133e
00000120: b1b5 893e 9702 c03e 7cd1 213e 3426 5dbe
00000130: c116 6b3d 56f7 5b3e fe56 2abe 47ce c6bd
00000140: 68eb e4bd 2ebc d23e 6964 d23d 4cb4 033e
00000150: 81c1 313e a388 fe3c 7b7d 033e dbee 9b3e
00000160: 3feb b33c 9dda 9dbe 0f67 aa3c 158d 25bd
00000170: 2a7a a6be f9b5 523e 171d 793e 741e 89be
00000180: 233e 903c 3049 7b3d fb11 4abe e936 1d3e
00000190: c277 07be e11c e2bd e5d2 063e 135a 6a3d
000001a0: 31b0 8f3e d57b b4bd b4b7 c73d 3640 ee3e
000001b0: 9c47 1a3e 05ee 903e cbb6 6ebd 3fc2 8c3e
000001c0: 8230 69be 2fd0 6dbe 95d6 fe3d 525e f8bd
000001d0: 201c 6a3c edd8 8b3e 0d47 d4bc 190c 47be
000001e0: e079 c53d 23aa b03d b787 49bc af1c 373d
000001f0: f385 763e c166 4e3e

network.6.weight f4 [63, 126]
0.5058321 -0.02687801 0.008380736 0.05335095 0.004167795 -0.2029506 -0.14383069 0.18294086
-0.37919077 -0.29217735 0.20219731 -0.45926228 -0.06676739 0.19452946 -0.06466255 -0.03148992
-0.42246336 -0.06090065 -0.13286334 -0.22761169 -0.01400884 -0.1242985 -0.028330982 -0.16228908
-0.118514486 -0.4985742 -0.18042578 0.28658056 -0.51783264 -0.15033685 -0.5567741 -0.042078752
-0.036120586 0.14898881 0.30105743 0.13421674 0.07379838 -0.278269 -0.22939451 0.3566127
-0.0378363 -0.13286412 -0.67315483 -0.16775842 -0.3737432 -0.06989662 -0.088838 0.068537526
-0.16395007 0.32644647 0.006046999 0.3509481 0.015428719 0.19342205 0.51583695 0.11390001
-0.37048668 0.12387826 -0.08046899 -0.16887233 -0.3810821 0.082743526 -0.013490659 0.020945039
-0.009315012 0.17389625 0.11843685 0.40255883 0.16993651 0.17758249 -0.0052818656 -0.06878917
0.061609864 0.21479607 0.14947557 -0.204712 -0.06813035 0.10118406 0.27721408 0.01249669
-0.29468602 -0.025941476 0.12904397 -0.4585252 -0.1580373 -0.44216537 0.23164956 0.09736792
-0.22698098 0.046033893 0.09431662 -0.32031462 -0.03748342 0.097392835 0.13820149 -0.09248597
-0.021480285 -0.20427778 -0.0764789 0.2747183 -0.14496686 0.006240918 -0.053621773 0.20351109
-0.00765034 -0.007818809 0.15217148 0.38603693 0.09532235 -0.05097957 0.022813318 0.0052165873
-0.28270915 0.003639163 0.116650715 0.07752952 -0.49118263 -0.13054015 0.24684033 -0.012046862
0.26079077 0.1878 -0.056355722 -0.06388691 0.13134189 0.041369427 0.13304195 -0.37840414
0.18501893 -0.049854085 -0.07194191 0.0483378 -0.082740285 0.25524563 -0.01427882 -0.2951905
0.57738036 -0.16440974 0.05807315 -0.15396668 0.16910784 -0.39566103 -0.20058511 0.044239137
-0.3369844 0.22523141 -0.34616622 0.02519382 -0.09305108 0.34872875 0.1500531 0.05317317
-0.18886095 -0.18720579 0.23061737 -0.119047515 0.31641135 -0.08599705 -0.0036435295 0.23714681
0.15290892 -0.05444878 -0.58381826 0.04890934 0.038818415 -0.199561 0.14736028 -0.16823496
-0.09104908 -0.058286775 -0.16574056 -0.28867203 0.019496063 -0.0100569455 -0.0004974577 0.016388565
0.32621524 0.07716211 0.09893415 -0.15913872 0.046115234 -0.26820895 0.09463337 -0.05634017
-0.083244234 0.003719912 0.21366538 -0.025413625 -0.1440059 0.008310029 0.112198785 -0.5259807
-0.16925608 0.10990886 -0.1826098 0.033914298 0.1340697 0.15135232 -0.070500724 0.41155028
0.3527048 -0.16187304 0.0530358 -0.08832483 -0.19133466 -0.15717499 -0.3310382 0.32529676
0.017490355 -0.20595358 0.19565915 0.4402812 0.04352167 -0.22691418 0.024598904 0.026342422
0.1255094 0.10813355 0.038825344 0.011138748 0.04766277 0.1325341 0.257627 -0.17608629
-0.1523745 -0.32806867 -0.2085961 -0.40030795 -0.003948308 -0.06791078 -0.07775543 -0.46035108
-0.005943108 -0.0841206 0.13321166 0.013481456 0.044922296 0.14475054 0.119771354 0.081220955
-0.027755992 -0.33373892 -0.25238726 -0.086626 -0.0043200976 -0.04240812 -0.45962182 -0.010273833
0.15903047 0.002131265 0.03579449 0.03507066 -0.009362588 -0.13921243 -0.061356682 0.31644198
00000000: 367e 013f 462f dcbc 5b4f 093c 8786 5a3d
00000010: 0092 883b 48d2 4fbe 5a48 13be d954 3b3e
00000020: 4b25 c2be 4598 95be d00c 4f3e 6d24 ebbe
00000030: 57bd 88bd bb32 473e cd6d 84bd 93fb 00bd
00000040: 1e4d d8be f672 79bd 540d 08be 0a13 69be
00000050: 5585 65bc 3690 febd 6016 e8bc 1c2f 26be
00000060: b9b7 f2bd 1e45 ffbe 89c1 38be b0ba 923e
00000070: ae90 04bf e7f1 19be bf88 0ebf c55a 2cbd
00000080: 2ef3 13bd 8690 183e 3324 9a3e 1d70 093e
00000090: 9b23 973d 4679 8ebe 65e6 6abe f195 b63e
000000a0: 3cfa 1abd 880d 08be e053 2cbf ddc8 2bbe
000000b0: 455b bfbe f625 8fbd b3f0 b5bd 675d 8c3d
000000c0: 87e2 27be fe23 a73e e725 c63b 78af b33e
000000d0: bdc8 7c3c 6e10 463e e40d 043f 6944 e93d
000000e0: 6eb0 bdbe e3b3 fd3d edcc a4bd deec 2cbe
000000f0: 311d c3be 7075 a93d ed07 5dbc ee94 ab3c
00000100: fe9d 18bc dc11 323e 058f f23d 311c ce3e
00000110: d603 2e3e 2fd8 353e 8013 adbb 56e1 8cbd
00000120: a05a 7c3d 80f3 5b3e 2010 193e 06a0 51be
00000130: ed87 8bbd 9739 cf3d 01ef 8d3e ebbe 4c3c
00000140: 16e1 96be 3883 d4bc 1a24 043e d1c3 eabe
00000150: 88d4 21be 8063 e2be 8b35 6d3e d568 c73d
00000160: b46d 68be 098e 3c3d 1229 c13d 4700 a4be
00000170: 3788 19bd e575 c73d b184 0d3e 4969 bdbd
00000180: 6cf7 afbc 322e 51be f8a0 9cbd e1a7 8c3e
00000190: 3172 14be 9d80 cc3b 81a2 5bbd 3665 503e
000001a0: b4af fabb 761a 00bc d7d2 1b3e a2a6 c53e
000001b0: 5d38 c33d f4cf 50bd ffe2 ba3c e8ef aa3b
000001c0: 41bf 90be 067f 6e3b 92e6 ee3d ccc7 9e3d
000001d0: 4a7c fbbe 51ac 05be b6c3 7c3e 3460 45bc
000001e0: 5e86 853e a54e 403e 42d5 66bd 24d7 82bd
000001f0: 7d7e 063e fd72 293d 263c 083e 30be c1be
00000200: 9a75 3d3e cc33 4cbd 4856 93bd dbfd 453d
00000210: bd73 a9bd 8eaf 823e b6f1 69bc 3623 97be
00000220: 33cf 133f 075b 28be 1dde 6d3d 71a9 1dbe
00000230: 9b2a 2d3e 1594 cabe 2f66 4dbe 1934 353d
00000240: 3889 acbe 10a3 663e b33c b1be 4563 ce3c
00000250: 9191 bebd 938c b23e 85a7 193e 1ccc 593d
00000260: c464 41be e0b2 3fbe f626 6c3e 2fcf f3bd
00000270: ab00 a23e 391f b0bd 48c8 6ebb 9dd6 723e
00000280: 2894 1c3e af05 5fbd 1d75 15bf 2955 483d
00000290: 0f00 1f3d b859 4cbe 9de5 163e c945 2cbe
000002a0: f177 babd 1dbe 6ebd e5b7 29be d2cc 93be
000002b0: 35b6 9f3c e3c5 24bc d267 02ba 5041 863c
000002c0: af05 a73e 2b07 9e3d fd9d ca3d 43f5 22be
000002d0: 54e3 3c3d af52 89be 24cf c13d f3c4 66bd
000002e0: f47b aabd c4c9 733b 19cb 5a3e 3c30 d0bc
000002f0: 4876 13be ca26 083c 7ac8 e53d aca6 06bf
00000300: 7751 2dbe e517 e13d 10fe 3abe b8e9 0a3d
00000310: 9149 093e 1afc 1a3e af62 90bd b8b6 d23e
00000320: b995 b43e 0cc2 25be 113c 593d a6e3 b4bd
00000330: 3ced 43be 7bf2 20be d77d a9be 4c8d a63e
00000340: ef47 8f3c 7fe5 52be df5a 483e 8a6c e13e
00000350: c743 323d 315c 68be a483 c93c 10cc d73c
00000360: 8985 003e 1f75 dd3d 5307 1f3d 4c7f 363c
00000370: 093a 433d 05b7 073e b0e7 833e f74f 34be
00000380: 1008 1cbe 9ef8 a7be 379a 55be 2af5 ccbe
00000390: cf60 81bb cf14 8bbd 3d3e 9fbd 23b3 ebbe
000003a0: 67be c2bb 6c47 acbd a368 083e 53e1 5c3c
000003b0: 7100 383d 7c39 143e af4a f53d 2c57 a63d
000003c0: 8960 e3bc d4df aabe e738 81be f968 b1bd
000003d0: 9b8f 8dbb 23b4 2dbd 8d53 ebbe 9453 28bc
000003e0: e2d8 223e b1ac 0b3b 3e9d 123d 41a6 0f3d
000003f0: 8a65 19bc b48d 0ebe 2551 7bbd af04 a23e

network.6.bias f4 [63]
0.4342716 0.660565 0.3599411 0.3370688 0.5416434 0.22210957 0.31682917 0.26373842
0.18323453 0.3318451 0.48636118 0.38959637 0.39805263 0.3477884 0.3031449 0.5324811
0.34994617 0.27853587 0.59277916 0.6353167 0.3266599 0.46421188 0.009945125 0.3594942
0.120586514 0.18077292 0.3255519 0.45429668 0.49845323 0.24200992 0.24199829 0.51984876
0.35123312 0.27800295 0.24302696 0.4653015 0.3999445 0.28451172 0.24952368 0.21065971
0.23852555 0.5163362 0.45231402 0.33158034 0.44842133 0.3156621 0.4279193 0.4794659
0.41477042 0.46715412 0.29515818 0.37283403 0.16367993 0.67017853 0.10383187 0.572415
0.103531554 0.38689855 0.66556805 0.13228321 0.44884577 0.62236184 0.41109055
00000000: d958 de3e ca1a 293f 334a b83e 4894 ac3e
00000010: 24a9 0a3f b170 633e 6f37 a23e b908 873e
00000020: d5a1 3b3e 9ae7 a93e 5504 f93e 2d79 c73e
00000030: 8ecd cb3e 5211 b23e cf35 9b3e ae50 083f
00000040: 252c b33e 419c 8e3e 60c0 173f 1ea4 223f
00000050: f73f a73e 2ead ed3e e1f0 223c a00f b83e
00000060: 10f6 f63d 891c 393e bdae a63e 9399 e83e
00000070: 4335 ff3e 73d1 773e 66ce 773e cf14 053f
00000080: d4d4 b33e 6756 8e3e 0fdc 783e 003c ee3e
00000090: 87c5 cc3e 85ab 913e 2383 7f3e 2eb7 573e
000000a0: 0b40 743e 9c2e 043f b495 e73e e6c4 a93e
000000b0: 7b97 e53e 769e a13e 3d18 db3e 8e7c f53e
000000c0: ca5c d43e d32e ef3e f91e 973e 1ae4 be3e
000000d0: b69b 273e d290 2b3f cea5 d43d ca89 123f
000000e0: 5a08 d43d 9117 c63e ab62 2a3f 4075 073e
000000f0: 1dcf e53e 1b53 1f3f 767a d23e

network.9.weight f4 [21, 63]
-0.49434754 0.20980234 -0.7259035 0.082741655 0.09081043 -0.51839316 0.37768963 0.534761
-0.9872585 0.18784922 0.27570736 0.111056946 0.36715433 0.23582563 -0.7312721 -0.19940388
0.21412712 0.040626302 0.04073045 -0.49025944 0.088434294 -0.11816611 -0.05490523 -0.15020649
-0.5753989 0.1467626 0.3165449 0.26916084 0.12943065 0.13661984 -0.7132787 -0.39921638
-0.13036625 0.20124346 0.18972853 0.16484654 -0.6956305 -0.012211981 -0.06780368 -0.66534734
0.21427651 0.24291426 -0.043297704 -0.07864533 0.14341982 -0.51037896 -0.09300109 0.24807304
-0.8530195 0.07090001 -0.20052193 -0.58305514 0.09889206 0.33921456 -0.592911 -0.2931047
-0.86261916 -0.050886944 -0.7784718 -0.9564696 0.08006998 -0.4967127 -0.520238 0.22281325
-0.64564645 -0.06578739 0.22842164 0.16714104 -0.5973576 -0.21644168 -0.32611692 0.032105118
-0.51141405 0.012267649 0.13803922 -0.676388 -0.6367151 -0.45225012 -0.016696434 0.16647185
-0.45232773 0.17701392 0.2668551 0.047573097 0.23768128 -0.81286883 0.1396084 -0.26975188
-0.7572455 0.17691575 0.14322956 0.12965074 -0.0050085383 0.13945834 0.18969983 0.057459813
-0.44017717 0.18097295 -0.7927032 0.077858135 0.1518311 -0.054369237 -0.5707487 -0.83064127
-0.70055264 0.19013447 -0.70707345 0.17213152 -0.17928529 -0.92523044 0.23324889 0.10803498
0.054151386 0.17162496 -0.8896572 -0.2569957 0.24991554 -0.18451755 -0.03751394 -0.47655424
0.27374384 -0.17040022 -0.40664828 0.1070865 0.11735248 -0.63631636 -1.0757632 0.16146024
-1.1772087 -0.6416031 -0.5828609 0.15395957 0.15320778 -0.3612706 0.11260262 0.11766427
-0.43336418 0.13102555 0.2178355 -0.7645321 0.15173028 0.12201047 0.09173726 -0.40422446
0.08416969 -0.79828495 -0.9147051 0.18756396 0.21388234 0.13310048 0.2204094 -0.82514286
-0.9218531 -0.3026276 -0.97300416 -0.017706642 0.18860114 0.14388804 0.18800245 -0.20616317
-0.68903655 0.34695104 -1.0745054 0.12953684 0.2620498 0.20364778 0.15518817 -0.24823323
0.06552315 0.19317214 0.15239213 -0.3839064 -0.31692618 -0.8233555 -0.9818266 -0.4402371
0.12754147 0.2893185 -0.88370144 -0.025301699 0.09117045 -0.04897148 0.16763541 0.16595748
-0.39887175 0.112992436 -1.1051215 0.16817118 0.2059554 0.1356816 -0.5976235 -0.46668833
-0.943054 0.21851704 -0.5159104 -0.49552888 -0.5252553 0.10802666 -0.48180035 0.096350014
-0.028257929 0.16794942 -0.24804069 -0.2676237 0.16568393 -1.1552465 0.14153254 -0.27605343
0.30995238 0.02808273 0.12546478 -0.041550625 0.02105744 -0.5485315 -0.864666 -0.35998625
0.08780499 0.05443892 0.114863716 -0.4493557 0.020442463 0.13672735 -0.34735182 0.16012642
-1.0711263 -0.60162646 0.123221025 0.24340919 0.10895561 -0.6514409 -1.0436189 0.1547075
0.16316599 0.07292845 0.21651556 -0.60088843 0.1842814 0.13299835 0.2027743 0.081979394
0.1761318 -0.36599073 -0.67750955 0.10564146 -0.9274689 0.21916226 0.18612619 0.4400644
0.08542105 -0.3885436 0.0977335 0.23491764 0.0071835574 -0.93700314 0.20389393 0.12615961
00000000: 1f1b fdbe 6dd6 563e d0d4 39bf 7574 a93d
00000010: d2fa b93d 6ab5 04bf 8960 c13e 19e6 083f
00000020: f9bc 7cbf 8c5b 403e 8429 8d3e d371 e33d
00000030: a7fb bb3e 467c 713e a634 3bbf 8830 4cbe
00000040: 2444 5b3e c467 263d f9d4 263d 4903 fbbe
00000050: 0a1d b53d 1301 f2bd 4ee4 60bd bbcf 19be
00000060: 584d 13bf ef48 163e 2c12 a23e 73cf 893e
00000070: 7889 043e 12e6 0b3e 6f99 36bf 1766 ccbe
00000080: bb7e 05be c412 4e3e 3248 423e 88cd 283e
00000090: d714 32bf c314 48bc a8dc 8abd 3454 2abf
000000a0: 4d6b 5b3e 84be 783e ef58 31bd ce10 a1bd
000000b0: a5dc 123e 32a8 02bf 5b77 bebd dc06 7e3e
000000c0: 7c5f 5abf 0634 913d 9f55 4dbe 1a43 15bf
000000d0: ec87 ca3d 88ad ad3e 04c9 17bf d211 96be
000000e0: 9cd4 5cbf d46e 50bd ee49 47bf 31db 74bf
000000f0: bbfb a33d 2151 febe 512e 05bf 2829 643e
00000100: 1649 25bf 8abb 86bd 5de7 693e 0527 2b3e
00000110: 6dec 18bf e3a2 5dbe ccf8 a6be a880 033d
00000120: 08ec 02bf 40fe 483c 275a 0d3e c427 2dbf
00000130: c3ff 22bf 548d e7be f6c6 88bc 9977 2a3e
00000140: 8097 e7be 2343 353e 3ba1 883e 02dc 423d
00000150: b962 733e 2c18 50bf 81f5 0e3e eb1c 8abe
00000160: d7da 41bf 6729 353e c5aa 123e 2ac3 043e
00000170: aa1e a4bb 2bce 0e3e ac40 423e fb5a 6b3d
00000180: e75e e1be f950 393e 99ee 4abf 1674 9f3d
00000190: 9d79 1b3e 47b2 5ebd 961c 12bf e8a4 54bf
000001a0: 6b57 33bf 9cb2 423e c402 35bf 3f43 303e
000001b0: 9096 37be e7db 6cbf ccd8 6e3e 7241 dd3d
000001c0: d8cd 5d3d 74be 2f3e 93c0 63bf f194 83be
000001d0: dce9 7f3e 2bf2 3cbe 38a8 19bd ebfe f3be
000001e0: 2728 8c3e 657d 2ebe 3434 d0be 2b50 db3d
000001f0: 7f56 f03d a1e5 22bf 9cb2 89bf d555 253e
00000200: c6ae 96bf 1a40 24bf 5f36 15bf 94a7 1d3e
00000210: 80e2 1c3e 76f8 b8be 349c e63d f7f9 f03d
00000220: e9e1 ddbe 902b 063e 4510 5f3e 60b8 43bf
00000230: 2f5f 1b3e a0e0 f93d bfe0 bb3d 82f6 cebe
00000240: 2961 ac3d 675c 4cbf 1d2a 6abf c410 403e
00000250: f903 5b3e 7e4b 083e 00b3 613e 903c 53bf
00000260: 91fe 6bbf 01f2 9abe cd16 79bf 850d 91bc
00000270: a820 413e 6357 133e b783 403e 701c 53be
00000280: b364 30bf 91a3 b13e 6589 89bf 4ea5 043e
00000290: 642b 863e 0b89 503e a6e9 1e3e da30 7ebe
000002a0: 0031 863d ebce 453e af0c 1c3e 618f c4be
000002b0: 2644 a2be 6dc7 52bf fd58 7bbf c266 e1be
000002c0: 3b9a 023e 8e21 943e 423a 62bf 8245 cfbc
000002d0: 93b7 ba3d 5296 48bd 9ea8 2b3e c2f0 293e
000002e0: eb38 ccbe 9468 e73d 9f74 8dbf 1135 2c3e
000002f0: f9e5 523e 1ef0 0a3e dbfd 18bf c6f1 eebe
00000300: fd6b 71bf eec2 5f3e b412 04bf f6b5 fdbe
00000310: 2277 06bf 153d dd3d 89ae f6be 2853 c53d
00000320: 2c7d e7bc effa 2b3e 61fe 7dbe f905 89be
00000330: 0ca9 293e 1edf 93bf e8ed 103e e056 8dbe
00000340: 14b2 9e3e c10d e63c d779 003e fd30 2abd
00000350: a780 ac3c 8f6c 0cbf c05a 5dbf 1e50 b8be
00000360: 1ad3 b33d 58fb 5e3d ab3d eb3d f311 e6be
00000370: f476 a73c 4102 0c3e 19d8 b1be 2ef8 233e
00000380: ab1a 89bf 3104 1abf 4e5b fc3d 4240 793e
00000390: 1e24 df3d d5c4 26bf 4e95 85bf a56b 1e3e
000003a0: fc14 273e 835b 953d 41b6 5d3e d3d3 19bf
000003b0: 43b4 3c3e b830 083e 11a4 4f3e d0e4 a73d
000003c0: e55b 343e 2363 bbbe 4471 2dbf 8d5a d83d
000003d0: 9a6e 6dbf 126c 603e dd97 3e3e 1f50 e13e
000003e0: 3bf1 ae3d 30ef c6be 8028 c83d 408e 703e
000003f0: 0c64 eb3b 70df 6fbf 92c9 503e fc2f 013e

network.9.bias f4 [21]
0.28363925 0.37983072 -0.2245981 0.056972302 0.27721587 0.24246398 -0.054305285 -0.26870385
-0.7225462 0.5338064 0.25513843 -0.4317027 -0.0748387 0.25816935 -0.21598203 -0.4306255
-0.66730636 -0.015951212 -0.026853405 0.05006725 -0.37637848
00000000: 2a39 913e 2c79 c23e 0bfd 65be ca5b 693d
00000010: 3def 8d3e 7a48 783e 386f 5ebd 8d93 89be
00000020: caf8 38bf 89a7 083f 81a1 823e 2308 ddbe
00000030: 0845 99bd c62e 843e 652a 5dbe f27a dcbe
00000040: 97d4 2abf 1eac 82bc acfb dbbc 5113 4d3d
00000050: aeb4 c0be
