models/NeuralNetwork-1_acc-60.19_loss-0.000003.pth (torch, 753472 bytes, 20 tensors)

network.0.weight f4 [512, 30]
0	0xbee58727	-0.44829676
1	0xbde0e2dc	-0.1098077
2	0xbd96e8a4	-0.073685914
3	0xbdd10b4c	-0.10207233
4	0xbd9238e4	-0.07139757
5	0x4047fe57	3.1248987
6	0xc03fe9d3	-2.9986465
7	0xbee418fd	-0.44550315
8	0x3f3844a9	0.7197977
9	0x3e24d073	0.16095142
10	0xc029dd8c	-2.6541471
11	0xbfe89118	-1.8169279
12	0x3e9f040f	0.31057784
13	0xbcaf6b1d	-0.02141338
14	0xbed92e8c	-0.42418325
15	0xbe051bca	-0.12998882
16	0xbe15974f	-0.14608501
17	0xbdf56db3	-0.11983814
18	0x3d3a6e33	0.04551525
19	0x3ed542ab	0.41652426
20	0xbe9484c3	-0.2900754
21	0x3f9dd7a2	1.2331431
22	0xbcef6db1	-0.02922711
23	0x3f2270e0	0.63453484
24	0x3ee3e38d	0.44509545
25	0xbfea5d4f	-1.8309726
26	0x3fb8606d	1.4404427
27	0x3e6d5a7d	0.2317905
28	0xbeee7305	-0.46572128
29	0xbf93733e	-1.1519544
30	0x3d5ccbdd	0.053905357
31	0xbe5a675a	-0.21328488
32	0x3ef8f8a8	0.4862721
33	0xbedac5d9	-0.4272907
34	0xbf32aa2c	-0.6979091
35	0xbb1578a1	-0.0022807496
36	0x3f6316b6	0.8870653
37	0x3e2f23af	0.17103456
38	0xbf7c750b	-0.98616093
39	0xbd4046a1	-0.046942357
40	0x3f1f9410	0.623353
41	0xbf11999a	-0.56875
42	0xbeab2630	-0.33427572
43	0xbf495a0a	-0.78653014
44	0xbff0f55f	-1.8824881
45	0xbf678097	-0.9043059
46	0x3e46ac1d	0.19401594
47	0x402c6a82	2.6940007
48	0xbd7337f8	-0.059379548
49	0x3d302086	0.042999767
50	0x3f296aa2	0.66178334
51	0x3f67c354	0.9053242
52	0xbe297526	-0.16548595
53	0xbf3275a2	-0.69710743
54	0xc08dc7ba	-4.4306307
55	0x3fb76e90	1.4330616
56	0xbff0d406	-1.8814704
57	0xbf83b94b	-1.0290922
58	0xbf6d38f8	-0.9266505
59	0x400041ad	2.0040085
60	0xbf227284	-0.63455987
61	0x40071085	2.1103833
62	0xbdf10630	-0.11768758
63	0xbff612bb	-1.9224466
64	0x3e217344	0.15766627
65	0x3f18f83c	0.59753776
66	0x3f2c62e8	0.6733842
67	0x3f011165	0.50417167
68	0x3f4a7bd2	0.79095185
69	0x3f9cf585	1.2262427
70	0xbf3b8f5c	-0.73265624
71	0x3e0632d0	0.13105321
72	0xbec86a72	-0.3914371
73	0xbf8e7fa1	-1.1132699
74	0x3e866bfd	0.26254264
75	0x3f310e9c	0.6916292
76	0xbe88b28e	-0.26698726
77	0xbd242216	-0.04007157
78	0xbeb16982	-0.3465081
79	0x3f98f7ef	1.1950663
80	0xbf67c8de	-0.90540874
81	0xbfac3a1b	-1.3455232
82	0xbf8d5b9a	-1.104358
83	0x402adcd9	2.6697295
84	0xbf840f99	-1.031726
85	0x3f612815	0.87951785
86	0x40045992	2.067967
87	0x3fc18afd	1.5120541
88	0x3f65fd8c	0.89840007
89	0x3ee0d99d	0.43916026
90	0x3e836e60	0.25670147
91	0x3da1dcdc	0.07903454
92	0xbe09589b	-0.13412707
93	0xbe9d1237	-0.3067796
94	0x3eb34d68	0.35019994
95	0x3f5e9562	0.8694669
96	0xbff40840	-1.9065018
97	0x402d30cb	2.706103
98	0xbec2e4f7	-0.3806531
99	0xbe789e70	-0.24279189
100	0x3fb85dd6	1.4403636
101	0x3f7bd20a	0.9836737
102	0x3e04907a	0.12945738
103	0x3fc08326	1.5040023
104	0x400a94c0	2.165329
105	0xbe0a75aa	-0.13521448
106	0xbf456edf	-0.771223
107	0x3f5c72f7	0.8611292
108	0xbf0ee252	-0.5581409
109	0xbfbae331	-1.4600583
110	0xbf57bdc6	-0.84273946
111	0xbf81ccec	-1.0140662
112	0xc007abef	-2.119869
113	0x3cb48e56	0.022040527
114	0x3faa1f15	1.3290735
115	0x401b30fa	2.4248643
116	0xbf77d4c4	-0.9680903
117	0xbf376246	-0.7163433
118	0xbdd9031e	-0.10596298
119	0x3f0fd696	0.5618681
120	0xbebebf3c	-0.37255275
121	0x3ea96a80	0.33089066
122	0x40149539	2.3216078
123	0xbed62bdd	-0.4183034
124	0xbfacd60e	-1.3502824
125	0x3d7e2572	0.06204743
126	0xbf1a8e8c	-0.6037376
127	0xbce4de76	-0.027938109
128	0x3f778bbb	0.96697587
129	0xbea02c5b	-0.3128384
130	0xbcbeed5d	-0.023306543
131	0xbf0eb853	-0.55750006
132	0xc0113872	-2.2690701
133	0x3f4498b0	0.7679548
134	0xbf9a131f	-1.2037085
135	0xbfe8e64c	-1.8195281
136	0xc0121b7e	-2.282928
137	0xbfc6924d	-1.5513397
138	0x3f1bb5f9	0.60824543
139	0x3f5d8964	0.86537766
140	0xbf8c1f0e	-1.0946977
141	0x3eea488f	0.45758483
142	0xbf5cc79d	-0.86242086
143	0x3f9b6da6	1.2142837
144	0x3fc3ee94	1.5307183
145	0xbd9073f0	-0.07053363
146	0x3f49c71b	0.78819436
147	0xbe92088f	-0.28522155
148	0x3f2ac08f	0.6670007
149	0x3ea1ae97	0.31578514
150	0x3f0ba060	0.5454159
151	0x3da28728	0.07935935
152	0xbf0e38c1	-0.5555535
153	0x3f3300cc	0.6992309
154	0xbfe06167	-1.7529725
155	0x3f90ce95	1.1313044
156	0x3f8f6a28	1.1204271
157	0x3e15b0db	0.14618246
158	0x3f40cc7e	0.7531203
159	0xbf392ae2	-0.7233106
160	0x40297dae	2.6482959
161	0xbf85fd2e	-1.0467889
162	0x3e0d6ca1	0.1381097
163	0x3e712326	0.23548564
164	0xbff4d914	-1.9128747
165	0xbfca16d7	-1.578822
166	0xbfe4056b	-1.7814153
167	0xbf217d9a	-0.6308228
168	0xbfaf3a43	-1.3689655
169	0x3f9df80d	1.2341324
170	0x3edd1f86	0.43188113
171	0x3ea27487	0.31729528
172	0x3de421a1	0.11139227
173	0xbfeaf24b	-1.8355192
174	0xbf9c0fe9	-1.2192355
175	0x3b5e4c5d	0.0033920028
176	0x3e025a13	0.12729673
177	0xbf75f29c	-0.9607332
178	0xbf3cac76	-0.73700655
179	0x401c1306	2.438661
180	0xbe95c808	-0.29254174
181	0x3ec69a80	0.3878975
182	0xbfd59c3f	-1.6688308
183	0x3f38b717	0.7215437
184	0x3e5d8df9	0.2163619
185	0x40020f7b	2.0321949
186	0x3fe1d58f	1.7643298
187	0xbf5e36e7	-0.86802524
188	0x3e87188c	0.26385915
189	0x3eeac40d	0.458527
190	0xbdb49e83	-0.08819296
191	0x3bf7026a	0.0075381296
192	0x3eb84f8c	0.3599819
193	0xbebc863f	-0.36821172
194	0xbf596ce8	-0.849318
195	0xbf696063	-0.911627
196	0xbfd380d3	-1.6523689
197	0x3fcda9b3	1.6067413
198	0xbfe3681e	-1.7766149
199	0x3ff15d87	1.8856667
200	0xbff2ba61	-1.8963128
201	0xbcb9954f	-0.022654204
202	0xbef5c178	-0.47999167
203	0x37132a00	8.771662e-06
204	0x3f1bffc8	0.60937166
205	0xbebef39f	-0.37295243
206	0x3ed7bbfc	0.42135608
207	0x3eb19241	0.34681895
208	0x406cbf82	3.6991887
209	0x3f3fb90e	0.74891746
210	0xbf21ef15	-0.63255435
211	0x3e35edac	0.17766446
212	0x3e26a8b6	0.16275296
213	0xbe042327	-0.12904035
214	0xbcd31e43	-0.025771266
215	0x3f0d1b2d	0.5511959
216	0xbfb71649	-1.4303676
217	0xc0721a42	-3.7828526
218	0x3e269a1e	0.16269729
219	0x3f2bfaec	0.6717975
220	0x3f629e78	0.88523054
221	0xc007c55d	-2.121421
222	0x3f08aa0f	0.5338449
223	0x3fd6851e	1.6759374
224	0x3f4a3c7a	0.7899853
225	0x3d11a0ae	0.035553627
226	0x3f278da8	0.65450525
227	0xbf897c32	-1.0741026
228	0x3f5b784a	0.8573042
229	0xbf8fa383	-1.1221775
230	0xbfd24d7a	-1.6429894
231	0xbf1966c1	-0.59922415
232	0xbf8f8179	-1.1211387
233	0xbde16273	-0.11005106
234	0xbfa166e0	-1.260952
235	0x400b932b	2.1808574
236	0x3ec21fd8	0.3791492
237	0xbedcc895	-0.43121782
238	0x3e57388a	0.21017662
239	0x3e92cfb4	0.2867409
240	0xbf1dbca8	-0.6161599
241	0x3ea6b040	0.32556343
242	0x3fd7a6d8	1.6847792
243	0xbee681e1	-0.45020965
244	0xbf5ca029	-0.86181885
245	0xbf015ed2	-0.5053531
246	0xbf0cea04	-0.5504458
247	0xbea683f1	-0.32522538
248	0xbf43dd51	-0.7650958
249	0xbe41dad9	-0.1893114
250	0x3ea347f0	0.3189082
251	0xbeba5f27	-0.3640072
252	0xbecd3754	-0.40081275
253	0xbe7690b1	-0.24078633
254	0x3f382ec2	0.71946347
255	0xc00fc29d	-2.2462533

network.0.bias f4 [512]
0	0xbe3297d3	-0.17440729
1	0xbe1d78b0	-0.1537807
2	0xba0523bb	-0.00050788716
3	0xbd73bffe	-0.05950927
4	0xbda5702b	-0.08078035
5	0xbe2fa6b5	-0.17153437
6	0xbe0bd537	-0.13655554
7	0xbc4cce64	-0.012500379
8	0xbe2cf250	-0.1688931
9	0x3daf19b8	0.08549827
10	0xbd0674e2	-0.032826312
11	0xbd1b83ab	-0.037967365
12	0xbe1932e2	-0.14960817
13	0x3cf8faa9	0.030392962
14	0x3e1ed0e6	0.15509376
15	0x3e1f6365	0.1556526
16	0x3d5ec625	0.054388184
17	0xbe3253e1	-0.1741481
18	0x3d21ac5d	0.03947102
19	0xbd11b914	-0.035576895
20	0xbe01c15d	-0.12671418
21	0xbca18967	-0.019718839
22	0xbb942752	-0.004521289
23	0x3c7b0b17	0.015322468
24	0x3e247afa	0.16062537
25	0xbc1b1ba2	-0.009467037
26	0x3e07a2f0	0.1324575
27	0xbd5df391	-0.05418736
28	0x3c6aab9e	0.014323143
29	0xbcd07e4c	-0.025450848
30	0x3b823f75	0.00397485
31	0x3d3b0c4b	0.04566602
32	0xbd3db357	-0.04631361
33	0xbd26bbf1	-0.04070658
34	0x3d780bdf	0.060558196
35	0xbe1b84eb	-0.15187423
36	0xbdf268e9	-0.11836416
37	0x3e3037bd	0.17208762
38	0xbd11d150	-0.035600007
39	0xbddc5242	-0.10757877
40	0x3da9bab9	0.08287568
41	0x3e160e71	0.14653946
42	0x3d9db3ae	0.07700287
43	0x3d2ca865	0.04215278
44	0xbe1019fb	-0.14072411
45	0x3de6b6a0	0.11265302
46	0xbd261f5f	-0.04055726
47	0xbe32430c	-0.17408389
48	0x3dc45d50	0.095881104
49	0x3ddfb7cd	0.10923729
50	0x3d6d90ac	0.057999298
51	0xbda0544e	-0.0782858
52	0x3e2e0a6c	0.16996163
53	0x3c908db1	0.017645689
54	0x3e368a60	0.17826223
55	0x3dc55817	0.096359424
56	0xbd805ee0	-0.06268096
57	0xbe033826	-0.12814388
58	0x3e0bc64d	0.13649864
59	0x3ce4056a	0.027834613
60	0xbe385609	-0.1800157
61	0xbd917d0e	-0.071039304
62	0x3e050e48	0.12993729
63	0x3df9ab82	0.12190916
64	0xbe38cad1	-0.18046118
65	0x3e0fb3c9	0.14033426
66	0xbd6d8767	-0.057990458
67	0x3d9a04b9	0.07520432
68	0xbd182a70	-0.037149847
69	0xbe0f79cf	-0.1401131
70	0x3e339212	0.1753619
71	0xbcacb475	-0.021082142
72	0x3d6b76ca	0.057486333
73	0x3e18c6c1	0.14919569
74	0xbd147f90	-0.036254466
75	0xbe01b342	-0.12666038
76	0xbe2b7092	-0.16742161
77	0x3d29d55c	0.04146324
78	0xbdbaef66	-0.09127693
79	0xbd73a552	-0.059483834
80	0x3d16ed11	0.036847178
81	0xbdb58bab	-0.0886453
82	0x3e2b1244	0.16706187
83	0xbc448096	-0.011993548
84	0x3df49b50	0.11943686
85	0x3bc671b4	0.006056035
86	0x3e1b2043	0.15149026
87	0xbe1beec5	-0.15227802
88	0xbd41114e	-0.047135644
89	0xbdb27e63	-0.087155126
90	0x3d60e88e	0.05490928
91	0x3d666b7b	0.056254845
92	0x3df2b667	0.11851197
93	0x3e11216c	0.14172906
94	0x3d4ecdd0	0.050489247
95	0x3cd9d4bc	0.026590697
96	0x3e186ce2	0.14885285
97	0xbe1fc6df	-0.15603207
98	0x3d1735d7	0.03691658
99	0xbd9901dd	-0.074710585
100	0xbe0fc3e2	-0.14039567
101	0xbcec4abb	-0.028844228
102	0xbdd20d65	-0.10256461
103	0xbd8d39e2	-0.06895806
104	0x3e37fbf3	0.17967205
105	0xbdd47f4a	-0.10375841
106	0x3d83451c	0.06409666
107	0xbde9e8e0	-0.114213705
108	0xbd958c73	-0.07302179
109	0xbda2e081	-0.07952977
110	0xbe201ed9	-0.15636767
111	0x3ded0df5	0.11574928
112	0xbe256ee6	-0.16155586
113	0x3e20441c	0.15650982
114	0xbe146412	-0.14491299
115	0x3cd4d5a8	0.025980785
116	0xbd21d42a	-0.039508976
117	0xbe35e8b2	-0.17764547
118	0x3e15bf00	0.14623642
119	0xbde4adc6	-0.11165957
120	0xbe2bcf57	-0.16778313
121	0xbcf80529	-0.030275898
122	0xbe395976	-0.18100533
123	0xbe2bd344	-0.1677981
124	0xbc69bb76	-0.014265886
125	0x3cf1b750	0.029506356
126	0x3e1d47f4	0.15359479
127	0xbd3993d7	-0.045307007
128	0x3daa62de	0.08319639
129	0x3d02c826	0.031929158
130	0xbe212c16	-0.15739474
131	0xbdbc1593	-0.091838025
132	0xbdcd2cb8	-0.10018295
133	0x3e2d1a2f	0.1690452
134	0xbcc22446	-0.023698937
135	0x3de8762a	0.11350663
136	0xbe149fe7	-0.14514123
137	0x3c02d141	0.00798446
138	0xbe28a4c3	-0.16469102
139	0x3c7cdbf9	0.015433305
140	0xbdaf98a0	-0.08574033
141	0x3e048c38	0.12944114
142	0x3c845843	0.016155368
143	0xbe208497	-0.15675579
144	0x3c95354e	0.018213894
145	0x3b5df4f7	0.0033867934
146	0x3d9f2fc4	0.077727824
147	0x3df53b87	0.119742446
148	0xbdeff78d	-0.117171384
149	0x3d3139a1	0.04326785
150	0x3e03ee17	0.12883793
151	0xbdb48ce0	-0.08815932
152	0x3d9de9a3	0.07710578
153	0x3c3b22ce	0.011421872
154	0x3d5b48d8	0.053536266
155	0x3e158671	0.14602067
156	0x3d14c785	0.03632309
157	0xbe38ea50	-0.18058133
158	0xbda24b1b	-0.079244815
159	0xbdfcfa4b	-0.12352427
160	0x3e0daa66	0.13834533
161	0x3e12479a	0.14285126
162	0x3d902505	0.07038311
163	0x3cd16cb7	0.025564535
164	0xbd287373	-0.041125726
165	0x3ca1794b	0.019711157
166	0x3d80519b	0.06265565
167	0x3dcdf53e	0.10056542
168	0x3e12e0d0	0.14343572
169	0xbd430361	-0.047610644
170	0xbcff1bd5	-0.031141201
171	0xbc7aaf36	-0.015300563
172	0xbd8c18c9	-0.06840665
173	0xbd34fcea	-0.04418651
174	0x3e0caaa2	0.13736966
175	0x3d17b022	0.037033208
176	0x3dc7542a	0.0973285
177	0xbd7dd203	-0.06196786
178	0xbe07a810	-0.13247705
179	0x3e149f35	0.14513858
180	0x3d7d6fba	0.06187413
181	0xbd58442b	-0.052799385
182	0xba6d12bf	-0.0009043626
183	0xbe08c8d8	-0.13357866
184	0x3d3b1212	0.04567153
185	0x3d82e3b1	0.06391085
186	0x3e154863	0.14578395
187	0x3d6f16f4	0.0583715
188	0xbdd029da	-0.101642326
189	0xbe02afff	-0.1276245
190	0xbdac06df	-0.08399748
191	0xbdc8a98a	-0.09797962
192	0xbd5f93d1	-0.054584328
193	0x3dfb13e2	0.12259652
194	0xbd685272	-0.05671925
195	0xbceef05c	-0.029167347
196	0xbe07c19b	-0.13257448
197	0x3e208b5f	0.15678166
198	0xbdbaf279	-0.09128279
199	0xbe1485e6	-0.14504203
200	0xbdb7a9c6	-0.089679286
201	0x3e139b42	0.14414695
202	0x3dde53c9	0.108558245
203	0xbd1f4798	-0.038886636
204	0xbdea0d7e	-0.11428355
205	0x3caecd1e	0.021338042
206	0x3e1186cd	0.14211579
207	0xbd060282	-0.032717235
208	0xbd84ef93	-0.06491008
209	0xbe358177	-0.17725168
210	0xbdc2f96d	-0.095202304
211	0xbe249bd3	-0.16075067
212	0xbe2beb7c	-0.16789049
213	0x3dab778e	0.083724126
214	0x3a7f2c80	0.0009734109
215	0xbdd900d7	-0.10595863
216	0xbd95557b	-0.07291695
217	0x3e302e54	0.17205173
218	0x3e380182	0.17969325
219	0xbde71c8a	-0.1128474
220	0xbdb95ef6	-0.090513155
221	0xbe264ad6	-0.16239485
222	0x3d50ca39	0.050974105
223	0xbd8a97fa	-0.067672685
224	0xbe27b60b	-0.16378038
225	0xbdc81dd7	-0.097713165
226	0xbcd5935d	-0.026071245
227	0xbdaa4b38	-0.08315128
228	0xbdd00156	-0.10156505
229	0x3bd7ad3d	0.006581931
230	0x3c6d778d	0.014493835
231	0x3dc81e96	0.09771459
232	0xbd26e0c4	-0.040741697
233	0xbcebb6c9	-0.028773682
234	0xbd6e58fb	-0.058190327
235	0xbd832c49	-0.06404931
236	0x3e21566c	0.15755624
237	0xbe300fe1	-0.17193557
238	0x3db8920f	0.090122335
239	0x3ca7f44c	0.020502232
240	0x3d3a517a	0.04548786
241	0xbd7e03ab	-0.062015217
242	0xbdb9afb3	-0.09066715
243	0x3dd85f16	0.10565011
244	0x3dcbe30a	0.09955414
245	0x3e0f55e5	0.1399761
246	0x3e16d134	0.14728242
247	0x3dcad3dc	0.0990369
248	0xbdf8f9c3	-0.12157013
249	0x3d8042f4	0.0626277
250	0x3e2a0924	0.1660505
251	0xbe098eed	-0.13433428
252	0x3d42c098	0.047546953
253	0x3e02e82e	0.12783882
254	0x3d7eb6ff	0.062186237
255	0xbe0deaff	-0.13859175

network.1.weight f4 [512]
0	0x4117b553	9.481769
1	0x41160f39	9.378716
2	0x4118bd84	9.546268
3	0x41166c52	9.401445
4	0x41055ff5	8.335927
5	0x4111f354	9.121906
6	0x4124860b	10.282725
7	0x4115ea46	9.369696
8	0x4112f9a9	9.185952
9	0x411f5110	9.957291
10	0x411b9684	9.724247
11	0x41174962	9.455416
12	0x4113cb79	9.237176
13	0x4117bc31	9.483445
14	0x41132105	9.195561
15	0x410b67c5	8.712834
16	0x410e2705	8.884526
17	0x411f4020	9.9531555
18	0x41125d31	9.147752
19	0x41120e5d	9.128507
20	0x410fc394	8.985249
21	0x4124ef71	10.308457
22	0x4107badf	8.483123
23	0x41054aad	8.330731
24	0x411f22e1	9.946015
25	0x410f0114	8.937763
26	0x411359bc	9.209408
27	0x4115a174	9.351917
28	0x410a319c	8.637112
29	0x411ed198	9.92617
30	0x411038d9	9.013879
31	0x41266c33	10.401416
32	0x41157c56	9.342855
33	0x4104478e	8.267469
34	0x4125f8b5	10.3732195
35	0x412088d8	10.033409
36	0x4112ac2c	9.167034
37	0x411b0e1e	9.690947
38	0x41086fdb	8.527308
39	0x410b09ba	8.689875
40	0x411e5f4f	9.898269
41	0x41137704	9.216557
42	0x4107a91a	8.478785
43	0x41189949	9.537423
44	0x41104e60	9.0191345
45	0x4111deeb	9.116923
46	0x411daed0	9.855179
47	0x41114555	9.079427
48	0x41089380	8.536011
49	0x410a4fff	8.64453
50	0x411a6c08	9.651375
51	0x4118e626	9.556189
52	0x411795a8	9.474037
53	0x411b5e79	9.710565
54	0x411618c6	9.381048
55	0x40f0e5fc	7.5280743
56	0x40fa6649	7.824986
57	0x4112d549	9.177072
58	0x411112dd	9.067105
59	0x411af4e8	9.684792
60	0x41162808	9.384773
61	0x41168b12	9.408953
62	0x4128668f	10.525039
63	0x41212fda	10.0741825
64	0x410f7541	8.966126
65	0x41144ec3	9.269229
66	0x41031715	8.193135
67	0x411bfe74	9.749622
68	0x411e0eaa	9.87858
69	0x4100aa80	8.041626
70	0x411475e9	9.278787
71	0x41056858	8.337975
72	0x411e2691	9.884416
73	0x41216b3a	10.088678
74	0x411a2b59	9.635583
75	0x410e0f8e	8.878798
76	0x410f4ee6	8.956762
77	0x41039d22	8.2258625
78	0x4126db39	10.428521
79	0x410d7cd1	8.842973
80	0x41146227	9.273963
81	0x41161eae	9.38249
82	0x411a8957	9.65853
83	0x4118478e	9.517469
84	0x412b225c	10.6958885
85	0x410e6f49	8.902169
86	0x41218c71	10.096787
87	0x4117b389	9.481332
88	0x4116fa2d	9.436078
89	0x41171b6a	9.444193
90	0x410f4e80	8.956665
91	0x4118af53	9.542804
92	0x41170bbc	9.440365
93	0x41193f07	9.577888
94	0x410c3346	8.762518
95	0x411ddcc7	9.866401
96	0x411a3c8b	9.639781
97	0x4109f8d7	8.623252
98	0x41344f1a	11.269312
99	0x411e0af6	9.877676
100	0x41094e5a	8.581629
101	0x41185f1b	9.523219
102	0x41117246	9.090399
103	0x411bf467	9.747169
104	0x4110855d	9.032559
105	0x411d98e1	9.849824
106	0x412d0eba	10.816095
107	0x411340c8	9.203316
108	0x4117781d	9.466825
109	0x410d325d	8.824796
110	0x41177463	9.465915
111	0x411e7010	9.902359
112	0x41145bd7	9.272422
113	0x41179dc5	9.476018
114	0x41154659	9.329675
115	0x410f20c5	8.9455
116	0x410a299b	8.635158
117	0x41241ef5	10.257558
118	0x410ec51b	8.923121
119	0x410a0d37	8.628226
120	0x412cf83c	10.810604
121	0x411c92d1	9.785844
122	0x4103cb36	8.237112
123	0x4115350f	9.325454
124	0x41016440	8.086975
125	0x4127b39d	10.481351
126	0x411331fe	9.199705
127	0x4109cfbd	8.613217
128	0x410d52d4	8.832722
129	0x41281aea	10.506571
130	0x410c2da2	8.761141
131	0x41074c70	8.4561615
132	0x41024832	8.142626
133	0x4105bc30	8.358444
134	0x4113b000	9.230469
135	0x41197a84	9.592411
136	0x411482c7	9.281928
137	0x4119dbf5	9.6162
138	0x4112bb99	9.1708
139	0x411f6589	9.962289
140	0x412999c3	10.6000395
141	0x41044da6	8.268957
142	0x41115878	9.084099
143	0x4110a0fd	9.039304
144	0x412002e9	10.0007105
145	0x41101f8a	9.0077
146	0x41146aa4	9.276035
147	0x411960f9	9.586175
148	0x411130b7	9.074393
149	0x4114316d	9.262067
150	0x40fff59d	7.998732
151	0x41145b00	9.272217
152	0x4120c4b7	10.048026
153	0x411df546	9.872381
154	0x411c0abc	9.752621
155	0x41186527	9.524695
156	0x41234ea5	10.2067
157	0x4119f4c0	9.622253
158	0x4124b2d6	10.293661
159	0x4108c50c	8.548107
160	0x411c97b2	9.787035
161	0x4101d70d	8.115003
162	0x41250c20	10.31546
163	0x411b8b29	9.721475
164	0x41147d45	9.280583
165	0x411891cd	9.535596
166	0x410ddda3	8.866611
167	0x411ae1b1	9.6801
168	0x40f90270	7.7815475
169	0x411bb169	9.730813
170	0x411bd8da	9.740442
171	0x411fb1d4	9.980915
172	0x410f4194	8.95351
173	0x40fe545a	7.947797
174	0x410c3101	8.761964
175	0x41211196	10.066793
176	0x41169f90	9.413956
177	0x41031b81	8.194215
178	0x4113f573	9.247424
179	0x410c9602	8.786623
180	0x41101798	9.00576
181	0x4123412e	10.203413
182	0x41290ba8	10.565346
183	0x411d4e5f	9.831634
184	0x4109aeed	8.6052065
185	0x411ac2ca	9.672556
186	0x4117ff9e	9.499907
187	0x410de574	8.868519
188	0x412f65be	10.962339
189	0x411418ae	9.256025
190	0x411dd0f7	9.863517
191	0x411639dd	9.389127
192	0x41159ddc	9.35104
193	0x411220ba	9.13299
194	0x410ce5f2	8.806139
195	0x41182e59	9.511315
196	0x4112f7f0	9.185532
197	0x4113560f	9.20851
198	0x411a4b8d	9.643445
199	0x41278666	10.470312
200	0x4126b5b9	10.419366
201	0x41022686	8.134405
202	0x412c8989	10.783578
203	0x4126142e	10.379927
204	0x4125f837	10.373099
205	0x410fb9b4	8.982838
206	0x41094d8e	8.581434
207	0x41149105	9.285405
208	0x41208d30	10.03447
209	0x4102cba8	8.174721
210	0x411e5c79	9.897576
211	0x4118f846	9.560614
212	0x4118414d	9.515943
213	0x412093cc	10.036083
214	0x41130847	9.189521
215	0x410af3eb	8.68455
216	0x41177ea5	9.468419
217	0x4119e2c6	9.617865
218	0x41134b6b	9.205913
219	0x41172bd8	9.448204
220	0x412271ed	10.152814
221	0x412161da	10.08639
222	0x410f8d3d	8.971982
223	0x41136fde	9.214811
224	0x410ce031	8.804734
225	0x411937de	9.576139
226	0x410872df	8.528045
227	0x41165694	9.396137
228	0x410d674e	8.837721
229	0x4104884b	8.283275
230	0x411c557d	9.770871
231	0x411b521e	9.707548
232	0x4108dbb4	8.553638
233	0x4113749d	9.21597
234	0x411c8fa0	9.785065
235	0x410afc6b	8.6866255
236	0x412196f9	10.099359
237	0x4110ded0	9.054398
238	0x41168e74	9.409779
239	0x41244d9c	10.268948
240	0x411b263c	9.696835
241	0x411e787f	9.904418
242	0x411b8b83	9.7215605
243	0x410ca6bd	8.790708
244	0x410c7427	8.7783575
245	0x411f1c56	9.944418
246	0x4101695a	8.088221
247	0x4105ffc1	8.37494
248	0x411c7697	9.778953
249	0x411a4077	9.6407385
250	0x4121e860	10.119232
251	0x412e4658	10.892174
252	0x40f1dc0e	7.558112
253	0x411e75ca	9.903757
254	0x41019411	8.098649
255	0x4111ffcf	9.124953

network.1.bias f4 [512]
0	0xc072fb74	-3.7965975
1	0xbfcb3278	-1.5874777
2	0xc087d8ee	-4.2452307
3	0xc0869939	-4.206204
4	0xc084c5bf	-4.149139
5	0xc09e9002	-4.955079
6	0xc05f30aa	-3.4873452
7	0xc0a3f50a	-5.123662
8	0xc0769388	-3.8527546
9	0xc09f46f1	-4.97741
10	0xc0ab94be	-5.361907
11	0xc03f9f0b	-2.9940822
12	0xc098b4f2	-4.772088
13	0xc0a6e938	-5.215969
14	0xc0ac1996	-5.3781233
15	0xc08a497e	-4.321471
16	0xc09d7d62	-4.9215555
17	0xc079eca0	-3.9050674
18	0xc0909acd	-4.5188966
19	0xc09bd7ca	-4.8700914
20	0xc0bcfe11	-5.906014
21	0xc0b5f5d1	-5.686257
22	0xc09465ae	-4.637412
23	0xc0a7e702	-5.246949
24	0xc099b6e4	-4.8035755
25	0xc07eb919	-3.9800475
26	0xc04a37bb	-3.1596515
27	0xc0ba7d15	-5.827769
28	0xbfe518a6	-1.7898147
29	0xc09dac39	-4.9272733
30	0xc081a9bc	-4.0519695
31	0xc0c4dbcb	-6.15183
32	0xc0838e41	-4.111115
33	0xc0995904	-4.792116
34	0xc0b547ba	-5.6650057
35	0xc08603f2	-4.1879816
36	0xc0a0e252	-5.027627
37	0xc0a3a6ab	-5.114095
38	0xc0aec43c	-5.4614544
39	0xc0a09ca7	-5.0191226
40	0xc07ad94a	-3.9195123
41	0xc08bb058	-4.3652763
42	0xc0afe1a4	-5.496294
43	0xc02e7e7c	-2.72647
44	0xc0a06c9a	-5.013257
45	0xc0648040	-3.5703278
46	0xc0af6d30	-5.4820786
47	0xc066b2c6	-3.6046615
48	0xc09a1a50	-4.815712
49	0xc017cd46	-2.371904
50	0xc0af0bcf	-5.4701915
51	0xc08a22bf	-4.3167415
52	0xc0a7a6fa	-5.239133
53	0xc086b502	-4.2095957
54	0xc00106db	-2.0160434
55	0xbf19a27c	-0.60013556
56	0xc02cfba8	-2.7028599
57	0xc0ad6126	-5.418109
58	0xc0af3be6	-5.476062
59	0xc0215a57	-2.521139
60	0xc04ce587	-3.2015092
61	0xc04b53dc	-3.1769934
62	0xc0ba4a0b	-5.8215384
63	0xc0b45b86	-5.6361723
64	0xc0b25a1e	-5.5735006
65	0xc0c1d63e	-6.0574026
66	0xc07d0496	-3.953405
67	0xc057ae5f	-3.3700178
68	0xc0a99b2b	-5.3001914
69	0xc0a21a25	-5.0656915
70	0xc0a75a77	-5.229793
71	0xc0450aba	-3.0787797
72	0xc0272713	-2.61176
73	0xc07142f2	-3.769711
74	0xc0acec35	-5.403834
75	0xbfd40b8d	-1.6566025
76	0xc0b33f4e	-5.6014776
77	0xc0c06e6a	-6.0134783
78	0xc0764da9	-3.84849
79	0xc0a54a49	-5.165318
80	0xc0b17ee4	-5.5467396
81	0xc099cc44	-4.806185
82	0xc0862923	-4.1925216
83	0xc021c357	-2.5275476
84	0xc09162ce	-4.543311
85	0xc0a7dbf9	-5.245602
86	0xc0915fe1	-4.542954
87	0xc0875a4e	-4.2297735
88	0xc0969748	-4.705967
89	0xc09ad4b5	-4.838465
90	0xc0908e31	-4.5173573
91	0xc0a6291f	-5.1925197
92	0xc0b169c6	-5.544162
93	0xc05de39a	-3.4670167
94	0xc09925ac	-4.7858486
95	0xc0415393	-3.020726
96	0xc093f75f	-4.6239467
97	0xc01776f7	-2.366636
98	0xc0bb7fd4	-5.859354
99	0xbffbb3f6	-1.9664295
100	0xc08123e9	-4.0356336
101	0xc0ae9a01	-5.4562993
102	0xc0b0d4e3	-5.525987
103	0xc07224f6	-3.783506
104	0xc0ab143e	-5.346221
105	0xc0a8ac09	-5.2710004
106	0xc0b2973c	-5.580961
107	0xc041ff18	-3.0311947
108	0xc09299b1	-4.581261
109	0xc0b77e71	-5.7341847
110	0xc0b463c7	-5.63718
111	0xc08d6536	-4.418605
112	0xc0965f46	-4.69913
113	0xc080817f	-4.0158076
114	0xc0ac9f40	-5.3944397
115	0xc0b27749	-5.577061
116	0xc0d382c4	-6.6097126
117	0xc053d893	-3.3100936
118	0xc092d733	-4.5887694
119	0xc064d8d5	-3.5757344
120	0xc0c83ec1	-6.2576604
121	0xc0b2c559	-5.5865903
122	0xc0187ccd	-2.3826172
123	0xc01b4318	-2.42597
124	0xc05f98ff	-3.4937131
125	0xc08e2c88	-4.442936
126	0xc087e8e6	-4.24718
127	0xc07c3e4a	-3.9413018
128	0xc0947c41	-4.6401677
129	0xc08c0498	-4.3755608
130	0xc0a4978c	-5.1434994
131	0xc0696cf5	-3.6472752
132	0xc0a09a86	-5.0188627
133	0xc064d1e8	-3.5753117
134	0xc06414cf	-3.56377
135	0xc0a9df86	-5.3085356
136	0xc0cb698f	-6.3566356
137	0xc0869902	-4.2061777
138	0xc0605c1a	-3.5056214
139	0xc0b24c01	-5.571778
140	0xc0864de8	-4.19701
141	0xc08639a1	-4.194535
142	0xc0519cc9	-3.2751944
143	0xbfc0ed65	-1.5072447
144	0xc0a3ec16	-5.122569
145	0xc096339d	-4.6938004
146	0xc098e264	-4.7776356
147	0xc08df29a	-4.4358644
148	0xc062f23f	-3.5460355
149	0xc0a32c98	-5.0991936
150	0xc06f34e6	-3.7376037
151	0xc092b30a	-4.5843554
152	0xc0b36291	-5.605782
153	0xc0b827a7	-5.7548404
154	0xc0c8991e	-6.268691
155	0xc0595256	-3.3956504
156	0xc0744332	-3.8166013
157	0xc0a6e579	-5.215512
158	0xc097e5ba	-4.746793
159	0xc036affb	-2.854491
160	0xc0811e68	-4.0349617
161	0xc0219515	-2.5247242
162	0xc0c3bf82	-6.1171274
163	0xc0428d64	-3.0398798
164	0xc05abe6e	-3.417873
165	0xc0acb61b	-5.3972297
166	0xc06b1495	-3.6731312
167	0xc0889955	-4.2687173
168	0xc0313ae0	-2.7692184
169	0xc0958915	-4.6729836
170	0xc0b6cb1d	-5.712294
171	0xc08e3c90	-4.444893
172	0xc09df7b2	-4.9364862
173	0xc08b1280	-4.3460083
174	0xc0589cc3	-3.384568
175	0xc07d987e	-3.9624324
176	0xc094df08	-4.6522255
177	0xc0929516	-4.580699
178	0xc0a088af	-5.016685
179	0xc0810674	-4.0320377
180	0xc085aeec	-4.177603
181	0xc0becf0c	-5.9627743
182	0xc08f10c5	-4.470797
183	0xc0ad7767	-5.4208255
184	0xc064a509	-3.572573
185	0xc0a71c3b	-5.222196
186	0xc083f3c8	-4.1235085
187	0xc0812bc0	-4.0365906
188	0xc05ab063	-3.4170158
189	0xc0783f75	-3.878873
190	0xc02367a0	-2.5531998
191	0xc05397a4	-3.3061304
192	0xc0a19dcf	-5.0505137
193	0xc058007d	-3.3750298
194	0xc09ee514	-4.9654636
195	0xc09c6d44	-4.888338
196	0xc097e9da	-4.7472963
197	0xc09615e7	-4.6901736
198	0xc0b29293	-5.5803924
199	0xc02f78ca	-2.7417474
200	0xc0813b6e	-4.0385046
201	0xbd898057	-0.06713932
202	0xc07bd759	-3.9350188
203	0xc07ea1bb	-3.9786212
204	0xc0681f4f	-3.626911
205	0xc0763cd2	-3.8474622
206	0xc023ff4c	-2.562457
207	0xc0b85e8d	-5.761542
208	0xc068b82b	-3.6362407
209	0xc022e75c	-2.545371
210	0xc0d91642	-6.783967
211	0xc08b46cf	-4.3523936
212	0xc05bc66c	-3.4339857
213	0xc0c3d121	-6.1192784
214	0xc0c961fa	-6.29321
215	0xc0877420	-4.2329254
216	0xc077fbef	-3.8747518
217	0xc08f0afb	-4.4700904
218	0xc048a489	-3.1350424
219	0xc02ab33d	-2.6671898
220	0xc0bf2191	-5.9728475
221	0xc0be437c	-5.945738
222	0xc086bc1d	-4.210463
223	0xc0ad3057	-5.412151
224	0xc0a6d606	-5.213626
225	0xc0915b99	-4.5424314
226	0xc0a9ee8c	-5.3103695
227	0xc08d5652	-4.416787
228	0xc09287fc	-4.5790997
229	0xc0537220	-3.3038406
230	0xc07d84d6	-3.9612327
231	0xc0c14f08	-6.0408974
232	0xc02cad46	-2.6980758
233	0xc09c1f2e	-4.878806
234	0xc0c52b44	-6.1615314
235	0xc036989e	-2.853065
236	0xc032d003	-2.793946
237	0xc050b14c	-3.2608213
238	0xc087cfa0	-4.244095
239	0xc0930d9b	-4.595411
240	0xc068cef9	-3.6376326
241	0xc08c0cf2	-4.37658
242	0xc07de781	-3.9672549
243	0xc053da6e	-3.310207
244	0xc0213ff2	-2.519528
245	0xc0862735	-4.192286
246	0xc025402d	-2.582042
247	0xc00ba954	-2.18221
248	0xc0554d84	-3.3328562
249	0xc0d09bb2	-6.519006
250	0xc0211017	-2.516607
251	0xc0a9dbf3	-5.3080993
252	0xc08bb926	-4.366351
253	0xc0a27b9c	-5.077589
254	0xc0a1c33c	-5.0550823
255	0xc0834a29	-4.1028028

network.1.running_mean f4 [512]
0	0xbd067368	-0.032824904
1	0xbf18f830	-0.59753704
2	0x3f0406a7	0.5157265
3	0xbe0bddaa	-0.13658777
4	0xbe43eb42	-0.19132712
5	0xbf0d4a12	-0.5519115
6	0xbf25c5b9	-0.64754826
7	0xbe7252ff	-0.23664473
8	0xbf126297	-0.57181686
9	0x3db3e1de	0.08783315
10	0x3f03007a	0.511726
11	0x3f2946cb	0.66123646
12	0x3e7d4396	0.24732813
13	0xbef7a2f2	-0.48366505
14	0x3dd4320e	0.1036111
15	0xbe6926f6	-0.22768769
16	0xbe996b8a	-0.29964858
17	0x3c2f87e0	0.0107135475
18	0xbe9d6142	-0.30738264
19	0xbd8aa08a	-0.06768902
20	0x3f13533c	0.5754888
21	0xbf3b8654	-0.73251843
22	0x3e855514	0.26041472
23	0x3f01d581	0.50716406
24	0x3f29209c	0.6606538
25	0x3eb425d5	0.35185114
26	0xbd8f81f9	-0.07007212
27	0xbe95c476	-0.2925145
28	0x3dec69e0	0.115436316
29	0x3ec36bd5	0.38168207
30	0x3f080bf0	0.53143215
31	0xbead582f	-0.3385634
32	0x3d288798	0.041144937
33	0xbe015cdc	-0.1263308
34	0x3edd891f	0.43268678
35	0x3f354c71	0.70819765
36	0xbf05c7a2	-0.5225774
37	0x3f0bffd2	0.54687226
38	0x3ee453b5	0.44595113
39	0x3d172058	0.03689608
40	0x3f12c5bb	0.5733296
41	0x3ebae887	0.3650553
42	0x3f38fa1c	0.72256637
43	0x3f6b2eb3	0.9186813
44	0xbe26e632	-0.1629875
45	0x3cbba5e0	0.022906244
46	0xbe2657b4	-0.16244394
47	0xbec50cf2	-0.3848644
48	0xbe7ff2f4	-0.24995023
49	0x3f80c4e7	1.006009
50	0x3efa5ade	0.4889745
51	0x3d9b3f6b	0.075804554
52	0x3e44829f	0.19190453
53	0x3df7a064	0.12091139
54	0x3ec570d6	0.3856265
55	0xbecdf589	-0.4022639
56	0xbf0ecac0	-0.5577812
57	0xbf275c3d	-0.6537512
58	0xbe1c25bc	-0.1524877
59	0x3eba6209	0.3640292
60	0x3e75a45f	0.23988484
61	0x3d1d43e1	0.038394812
62	0x3ea4ebdf	0.32211205
63	0x3f2e95f4	0.6819756
64	0xbeff354a	-0.49845344
65	0xbe8202ef	-0.25392863
66	0xbe903513	-0.28165492
67	0x3ebee1c3	0.37281618
68	0xbe564c4c	-0.20927542
69	0xbeaa34f6	-0.3324353
70	0xbe69672b	-0.22793262
71	0x3e9bdc4f	0.3044152
72	0x3d5ce820	0.05393231
73	0x3e058106	0.130375
74	0x3ef311ce	0.4747452
75	0xbeb2708a	-0.34851485
76	0x3dc99b90	0.09844124
77	0xbd24021c	-0.040041074
78	0x3eaf7902	0.3427201
79	0x3de4104d	0.111359216
80	0xbebf4fdc	-0.37365615
81	0x3ef711f7	0.48255894
82	0xbe42ca1a	-0.19022408
83	0x3f281634	0.6565888
84	0x3e00a8de	0.12564418
85	0xbe34e191	-0.17664172
86	0x3f02ec75	0.51142055
87	0x3d653231	0.05595607
88	0xbea4c2dd	-0.3217992
89	0x3ee037e8	0.43792653
90	0x3ecf44e4	0.40482247
91	0xbf217faf	-0.63085455
92	0xbd9ace08	-0.075588286
93	0x3dcc8d40	0.09987879
94	0x3ef557d4	0.4791857
95	0x3f1be52a	0.6089655
96	0x3d864bde	0.06557439
97	0xbe051328	-0.12995589
98	0xbdc1ed64	-0.09469107
99	0xbdd6b02d	-0.104828216
100	0x3de9c1c0	0.11413908
101	0x3e0892a8	0.13337195
102	0x3e94c595	0.29056993
103	0xbcab0130	-0.02087459
104	0x3f866b7d	1.0501553
105	0x3ea5af52	0.3236032
106	0xbea8997b	-0.32929596
107	0x3e320112	0.17383221
108	0x3d2e5464	0.04256095
109	0xbe31c77f	-0.17361258
110	0x3f15bf78	0.58495283
111	0x3e561046	0.20904645
112	0xbe9790ac	-0.29602563
113	0xbe3c9a5d	-0.1841826
114	0xbef7fdbd	-0.48435774
115	0xbca7f938	-0.020504579
116	0xbee5a264	-0.44850457
117	0xbdfab146	-0.122408435
118	0x3e8aa450	0.27078485
119	0xbd77d64e	-0.06050711
120	0x3cfed72a	0.031108458
121	0x3e4c8576	0.19972786
122	0x3ceca148	0.028885499
123	0xbf3396e5	-0.7015212
124	0xbf14b8da	-0.5809456
125	0x3cef2144	0.029190667
126	0x3da6b21c	0.081394404
127	0xbecb0270	-0.39650297
128	0x3e565ace	0.20933077
129	0x3dff551c	0.12467405
130	0x3eaa9643	0.33317766
131	0x3dbc6dd8	0.092006385
132	0xbe03ed73	-0.12883548
133	0x3e6ea148	0.23303711
134	0xbecd8a03	-0.40144357
135	0x3e453564	0.19258648
136	0x3ebc4c69	0.36777046
137	0x3e9f4b2f	0.31112048
138	0x3ed0b786	0.40765017
139	0xbe284583	-0.16432767
140	0xbe402574	-0.18764287
141	0xbd37b945	-0.04485442
142	0x3e1b0704	0.15139395
143	0xbafc2f00	-0.0019240081
144	0x3f1b70e9	0.6071916
145	0xbe953234	-0.29139864
146	0x3d1b8a1c	0.03797351
147	0xbe2cca4b	-0.16874044
148	0x3ed7c7e4	0.42144692
149	0xbf06b3ab	-0.526179
150	0x3eaeab12	0.3411489
151	0xbd63b15d	-0.05558907
152	0xbf02406c	-0.5087955
153	0x3ea494b9	0.32144716
154	0x3eae6132	0.3405853
155	0x3e10dd63	0.14146952
156	0x3ee7109d	0.45129862
157	0xbe15faa9	-0.146464
158	0x3ed72428	0.42019773
159	0x3e30b15c	0.17255157
160	0x3ea0e6b2	0.31426007
161	0xbd0b405a	-0.033996917
162	0x3e7b0f8c	0.2451765
163	0x3e1b1efa	0.15148535
164	0xbd13a2ff	-0.036044117
165	0xbf71dee9	-0.9448076
166	0xbe13e70c	-0.14443606
167	0x3ef6794c	0.48139417
168	0x3e365944	0.1780749
169	0xbef25b3a	-0.47335225
170	0x3f039053	0.51392096
171	0xbf165d4c	-0.5873611
172	0x3e63a810	0.2223208
173	0xbebe9831	-0.37225488
174	0xbe82c9d1	-0.255446
175	0x3f43bade	0.7645701
176	0x3ebc9761	0.36834243
177	0xbf03f9b8	-0.51552916
178	0xbd00ef78	-0.031478375
179	0xbd749b5c	-0.059718475
180	0xbd82dff3	-0.06390371
181	0x3e796558	0.24355066
182	0xbe54b427	-0.20771848
183	0x3e59224a	0.21204486
184	0x3f01a5f1	0.5064383
185	0x3e8d366d	0.27580586
186	0x3ea98de4	0.33116066
187	0x3dbd1ac2	0.09233619
188	0xbf02865a	-0.50986254
189	0xbf109851	-0.56482416
190	0x3e11e072	0.14245775
191	0xbdb40ddb	-0.08791705
192	0x3dfb4e2e	0.12270771
193	0xbeb97b38	-0.3622682
194	0xbd5e3af6	-0.05425545
195	0x3f021caf	0.5082502
196	0x3f1df939	0.6170841
197	0xbea93637	-0.33049175
198	0xbcc1fb30	-0.023679346
199	0xbe159e60	-0.14611197
200	0x3e826d0f	0.2547383
201	0x3c2b0a90	0.01043953
202	0xbd80d390	-0.06290352
203	0x3edd1ec2	0.4318753
204	0x3eb884a0	0.36038685
205	0x3f470050	0.7773485
206	0x3f45e036	0.77295244
207	0xbca44920	-0.0200544
208	0x3e7bec37	0.24601828
209	0xbdad1450	-0.0845114
210	0xbda3fe6b	-0.08007511
211	0xbed0ff57	-0.4081981
212	0xbe20d240	-0.15705204
213	0x3eb90463	0.3613616
214	0xbe887559	-0.2665203
215	0xbda66bf4	-0.08126059
216	0x3eaddfab	0.33959708
217	0x3f580e63	0.8439695
218	0x3ed0e92d	0.408029
219	0x3e5289da	0.20560399
220	0x3e80e5c7	0.25175306
221	0xbf0393ad	-0.5139721
222	0x3e285af4	0.16440946
223	0x3c4ec420	0.012620002
224	0x3be3f140	0.0069562495
225	0x3ded558a	0.11588581
226	0xbe176256	-0.14783606
227	0xbeb4672a	-0.35234958
228	0xbec9057c	-0.39261997
229	0xbd29db28	-0.04146877
230	0x3ed7c23a	0.4214037
231	0x3de259c4	0.11052278
232	0xbe156c52	-0.14592102
233	0xbea02da0	-0.3128481
234	0xbea6d50a	-0.3258441
235	0xbec9fd87	-0.3945124
236	0xbea17d11	-0.3154073
237	0xbe7bbe98	-0.24584424
238	0x3ea68133	0.32520446
239	0x3d9d02dd	0.07666562
240	0x3f4a8150	0.79103565
241	0x3dd972f4	0.10617629
242	0xbed6ec4b	-0.41977152
243	0x3e312f03	0.1730309
244	0x3ce70f00	0.028205395
245	0x3ee24520	0.44193363
246	0x3e2a3f15	0.16625626
247	0x3ec3aa31	0.38215783
248	0xbe9c0d92	-0.30479103
249	0x3ee668e4	0.450019
250	0xbe19d0a8	-0.15021002
251	0xbde40d23	-0.11135318
252	0xbea49052	-0.32141358
253	0x3ef3493a	0.47516805
254	0xbdf67de7	-0.12035733
255	0xbea97ad0	-0.3310151

network.1.running_var f4 [512]
0	0x442486fa	658.109
1	0x43e4d72f	457.68112
2	0x44568608	858.09424
3	0x44046760	529.61523
4	0x44211670	644.3506
5	0x440c02ea	560.04553
6	0x440f3cf8	572.95264
7	0x441d2fd0	628.7471
8	0x440eaecb	570.73114
9	0x441c94df	626.3261
10	0x43e562f4	458.77307
11	0x442090f3	642.26483
12	0x4415c9fb	599.15594
13	0x443d02e1	756.045
14	0x4425c1e1	663.02936
15	0x4400226d	512.5379
16	0x444137f8	772.8745
17	0x441feb65	639.67804
18	0x44127ebb	585.98016
19	0x444851ec	801.28
20	0x43fbc1c8	503.51392
21	0x442cf801	691.87506
22	0x4403a0fa	526.51526
23	0x44275b26	669.4242
24	0x4418491b	609.1423
25	0x44207881	641.8829
26	0x440fc1f5	575.0306
27	0x4403b646	526.848
28	0x440c3d7c	560.9607
29	0x44224e58	649.2241
30	0x4413da87	591.4145
31	0x4426dffd	667.4998
32	0x442354c2	653.32434
33	0x4411cdde	583.2167
34	0x441a5b87	617.4301
35	0x43fa9ea8	501.2395
36	0x4403c35e	527.0526
37	0x443e95ab	762.33856
38	0x4425f14f	663.77045
39	0x442fa677	702.601
40	0x44258199	662.02496
41	0x441857a0	609.36914
42	0x4430b4d1	706.82526
43	0x43f8c679	497.55057
44	0x43ef75d1	478.92044
45	0x443f4dc9	765.2154
46	0x44204d3e	641.2069
47	0x43f94cef	498.60104
48	0x441c9e64	626.47485
49	0x441774d1	605.82526
50	0x442ed450	699.3174
51	0x43fd41c6	506.51385
52	0x44035f83	525.4924
53	0x4474f531	979.8311
54	0x44171e5b	604.4743
55	0x44210620	644.0957
56	0x440f4d8f	573.21185
57	0x44588140	866.01953
58	0x442adbbe	683.4335
59	0x441e538f	633.3056
60	0x442a94f2	682.3273
61	0x440bd335	559.3001
62	0x44198963	614.14667
63	0x444382a7	782.04144
64	0x441eb3c8	634.8091
65	0x44409bb5	770.4329
66	0x442503ea	660.06116
67	0x4437e7ea	735.62366
68	0x43e179d8	450.9519
69	0x447ca8e1	1010.63873
70	0x44602e69	896.72516
71	0x4435b672	726.8507
72	0x440c6e8c	561.7273
73	0x43faf3aa	501.90363
74	0x44503473	832.8195
75	0x4411bbbb	582.9333
76	0x4433ff05	719.9847
77	0x441e4ebc	633.2302
78	0x440a101e	552.25183
79	0x4402eb8f	523.6806
80	0x442ef728	699.8618
81	0x4416d1e7	603.2797
82	0x440dd8d1	567.38776
83	0x43f9fa98	499.95776
84	0x444f9f84	830.49243
85	0x441668d9	601.63824
86	0x43f0f962	481.9483
87	0x440dbc18	566.93896
88	0x43e4592d	456.6967
89	0x44310155	708.0208
90	0x4435bb79	726.92926
91	0x43dfaf37	447.36887
92	0x443ac3f3	747.0617
93	0x43f46ece	488.86566
94	0x440afa51	555.9112
95	0x4414a021	594.502
96	0x44562305	856.5472
97	0x44267bec	665.9363
98	0x4412986c	586.3816
99	0x441b4842	621.129
100	0x440afe5d	555.9744
101	0x4432e8c1	715.6368
102	0x442438e6	656.88904
103	0x442d63b2	693.55774
104	0x44133aca	588.9186
105	0x43da76a7	436.92697
106	0x440f1348	572.3013
107	0x441dabb0	630.6826
108	0x441c3c05	624.9378
109	0x44306308	705.54736
110	0x442a613c	681.5193
111	0x445e5810	889.376
112	0x43f40019	488.00076
113	0x4404db00	531.4219
114	0x4419b7a4	614.8694
115	0x4439fca8	743.94775
116	0x44206e2c	641.72144
117	0x44182881	608.6329
118	0x43ec903d	473.12686
119	0x440a7230	553.7842
120	0x4410c7e2	579.12317
121	0x4428e244	675.5354
122	0x44416be6	773.6859
123	0x440c9ca6	562.44763
124	0x44224ba8	649.1821
125	0x441117c3	580.3713
126	0x440e132b	568.2995
127	0x44217bb9	645.93317
128	0x442159d1	645.4034
129	0x44451d62	788.4591
130	0x4418830a	610.0475
131	0x442231fd	648.78107
132	0x43f87931	496.9468
133	0x440f2381	572.55475
134	0x43ee0f3f	476.1191
135	0x442adcf7	683.4526
136	0x4411ac39	582.691
137	0x442571a6	661.77576
138	0x443f2e84	764.7268
139	0x4409f7e2	551.87317
140	0x442bb25c	686.78687
141	0x4405d3b7	535.30804
142	0x44130adb	588.1696
143	0x4422ee93	651.7277
144	0x44256be4	661.6858
145	0x4418520f	609.28217
146	0x4427fbd3	671.93475
147	0x44011a54	516.4114
148	0x44128fe7	586.2485
149	0x4422c430	651.0654
150	0x44178e64	606.22485
151	0x43f6cbc1	493.59183
152	0x44686439	929.566
153	0x440c165c	560.34937
154	0x44041001	528.25006
155	0x441b2069	620.5064
156	0x441fbc79	638.9449
157	0x4411200a	580.5006
158	0x43eeedc4	477.85754
159	0x449a9e06	1236.9382
160	0x4413ef56	591.7396
161	0x43faaf65	501.37027
162	0x44357b1a	725.92346
163	0x44082968	544.647
164	0x44090b3a	548.1754
165	0x4406a94b	538.6452
166	0x4410d087	579.25824
167	0x44174e2c	605.22144
168	0x4429be62	678.97473
169	0x440cc498	563.0718
170	0x442bf8a8	687.88525
171	0x440f8d98	574.2124
172	0x44117332	581.7999
173	0x43fcaf13	505.36777
174	0x4442912e	778.26843
175	0x4411613d	581.51935
176	0x44202598	640.5874
177	0x4455b274	854.7883
178	0x43d9ff98	435.99683
179	0x442c9b52	690.4269
180	0x44192b4c	612.6765
181	0x44126026	585.5023
182	0x4489241f	1097.1288
183	0x44107f3f	577.9882
184	0x442ae2f6	683.54626
185	0x44049cbc	530.449
186	0x4412ef5d	587.74005
187	0x44235a23	653.4084
188	0x441ce33a	627.5504
189	0x442ad5cb	683.3405
190	0x4421df53	647.48944
191	0x4403c92e	527.14343
192	0x441c6542	625.58215
193	0x441a4b36	617.1752
194	0x444132ad	772.7918
195	0x44052e7a	532.7262
196	0x442c46f6	689.10876
197	0x441de7fe	631.6249
198	0x4433d50e	719.329
199	0x4437c299	735.0406
200	0x442d4a12	693.15735
201	0x443c695a	753.6461
202	0x441b051f	620.08
203	0x441301c1	588.0274
204	0x4413cfcf	591.247
205	0x4475aaa7	982.66644
206	0x43ed3f3c	474.49402
207	0x4415a468	598.56885
208	0x441f00c4	636.01196
209	0x43f6c49a	493.53595
210	0x444b66c1	813.6055
211	0x443f051b	764.0798
212	0x44284cfa	673.20276
213	0x441150ec	581.2644
214	0x44397859	741.88043
215	0x43e0a5ed	449.2963
216	0x441dfd95	631.9622
217	0x441dde4b	631.4733
218	0x44302437	704.56586
219	0x44377b2a	733.92444
220	0x44282aa6	672.6664
221	0x4421b3d0	646.8096
222	0x4439fab4	743.91724
223	0x441ed484	635.32056
224	0x441eeb71	635.6788
225	0x440e9508	570.3286
226	0x4416e539	603.5816
227	0x442a3a17	680.90765
228	0x44230fed	652.24884
229	0x442aed82	683.71106
230	0x442e2acd	696.66876
231	0x4427a78a	670.6178
232	0x440403f6	528.0619
233	0x4438299d	736.6502
234	0x442d11a9	692.27594
235	0x44042d1f	528.705
236	0x44100573	576.08514
237	0x43e26e1a	452.86017
238	0x443f3064	764.7561
239	0x4407e2fe	543.54675
240	0x441e6cbd	633.69904
241	0x44470ca6	796.19763
242	0x445a0d6f	872.2099
243	0x442ee9c2	699.65247
244	0x440bcad7	559.1694
245	0x441b60f3	621.51483
246	0x4449b00a	806.7506
247	0x44034b74	525.17896
248	0x4444dee9	787.483
249	0x44085cac	545.448
250	0x443d5460	757.31836
251	0x43f76488	494.7854
252	0x443db700	758.8594
253	0x441d5446	629.3168
254	0x4434db97	723.4311
255	0x44021446	520.3168

network.4.weight f4 [256, 512]
0	0x3f872ef3	1.0561203
1	0x3f163506	0.5867466
2	0x3eb9d1c3	0.36292848
3	0x3f06062f	0.52353185
4	0xbf216c8c	-0.63056254
5	0xc0124b88	-2.28586
6	0xbe63aa72	-0.22232988
7	0x3f9de870	1.2336559
8	0x3f9b6d92	1.2142813
9	0x400f9d22	2.2439656
10	0xbf80c195	-1.0059077
11	0xbec559a9	-0.38544968
12	0xbee02fdf	-0.43786523
13	0xbfacb504	-1.3492742
14	0xbf902565	-1.1261412
15	0x3e004488	0.12526143
16	0x3da2914e	0.07937871
17	0x3f5dd134	0.86647344
18	0x3fdc3727	1.7204331
19	0x4001aac2	2.0260472
20	0xbf0247dc	-0.508909
21	0xbfde184f	-1.7351168
22	0x3ea72afa	0.32649976
23	0x3e5b5700	0.21419907
24	0xbe7012d3	-0.23444681
25	0x3fa7c943	1.3108295
26	0x3f1d919b	0.615503
27	0xbf87bbe8	-1.060422
28	0x3f758eb5	0.9592088
29	0x3f099823	0.5374777
30	0x3f18f518	0.59748983
31	0x3f83d4c6	1.0299308
32	0xbf12000d	-0.5703133
33	0xbf49f489	-0.78888756
34	0xbf466178	-0.77492476
35	0xbf8beba6	-1.0931289
36	0xbe319df1	-0.17345406
37	0x3e6f012b	0.2334029
38	0x3f913166	1.13432
39	0x3f160edc	0.58616424
40	0x3e90b614	0.28263915
41	0x3fa887c0	1.3166428
42	0x3fa90963	1.320599
43	0xbf1844dd	-0.5948008
44	0x3f74a394	0.955621
45	0xbe900050	-0.28125238
46	0xbebd36e6	-0.36955947
47	0xc002e4ed	-2.0452225
48	0xbf964b98	-1.1741819
49	0x3f00926f	0.5022344
50	0xbe6aa785	-0.22915466
51	0xbfa5f02f	-1.2963923
52	0xbfb75642	-1.4323199
53	0x3e815fd0	0.25268412
54	0xbf7fe8a3	-0.9996435
55	0xbf3de391	-0.74175364
56	0xbee97182	-0.45594412
57	0xbefdb7d6	-0.49554318
58	0x4048c199	3.1368163
59	0xbb7d3830	-0.0038638227
60	0xbed9303b	-0.4241961
61	0x3eec59d2	0.46162277
62	0x3f45da2c	0.7728603
63	0x3ee0610f	0.4382405
64	0x3fd86acb	1.6907591
65	0xbcd8f53d	-0.026484126
66	0x3eb9c6cb	0.3628448
67	0x3fb65bd0	1.4246769
68	0xbf089658	-0.53354406
69	0x3f8a4c92	1.0804617
70	0x3ecc12ae	0.39858
71	0xbf79461e	-0.97372615
72	0x3f8b7a18	1.0896635
73	0x3f73e2be	0.95267856
74	0xbe5fc08d	-0.21850796
75	0xbe3f347f	-0.1867237
76	0xbf1e6290	-0.61869144
77	0x3fcba92f	1.5911006
78	0x3d8f7306	0.07004361
79	0xbf8f41bb	-1.1191934
80	0x3fbcc868	1.4748659
81	0x3dff383a	0.12461896
82	0xbdb838fc	-0.08995244
83	0x3da55e56	0.08074634
84	0xbfaf4107	-1.369172
85	0xbecadc17	-0.3962104
86	0xbf0fc8cf	-0.56165785
87	0xbfbb1d95	-1.4618403
88	0x3ea3039f	0.318387
89	0x3d33650a	0.04379753
90	0x3f25e50c	0.6480262
91	0xbd2a7a75	-0.04162069
92	0x3f91057b	1.1329798
93	0xbe0c9458	-0.13728464
94	0xbf1c96f2	-0.61167824
95	0xbf9e313f	-1.2358779
96	0x3f85a48b	1.044084
97	0x3d82c7f3	0.063857935
98	0xbd907b4c	-0.07054767
99	0x3d8d2888	0.06892496
100	0x3f20afce	0.62768257
101	0x3f168e6a	0.58811057
102	0xbd76279d	-0.060096372
103	0xbf20b099	-0.62769467
104	0x3f3ddcc7	0.74165004
105	0xc0010214	-2.0157518
106	0x3f86b38f	1.0523547
107	0xbe6b7c69	-0.22996677
108	0xbf92a072	-1.1455214
109	0x3feae1cc	1.8350158
110	0x3f3b626d	0.7319706
111	0x3facfccc	1.3514647
112	0xbf3c605a	-0.7358452
113	0xbfda6b67	-1.7064027
114	0x3f49b469	0.7879091
115	0x3f733e87	0.95017284
116	0x3f6516a7	0.8948769
117	0x3e8e8a99	0.27840117
118	0x3f39a132	0.7251159
119	0x3ed40b65	0.41414943
120	0xbf8deb13	-1.1087364
121	0x3f0a4ef0	0.540267
122	0xbf0d8e17	-0.55294937
123	0xbec6a4ad	-0.38797513
124	0x3d9b80eb	0.075929485
125	0xbe0e5eec	-0.13903397
126	0x3ea0f511	0.3143697
127	0x400c9347	2.196489
128	0x3e8882df	0.26662347
129	0xc0108a0d	-2.258426
130	0xbf6163e7	-0.88043064
131	0x3f2bfc1d	0.6718157
132	0x3f759651	0.9593249
133	0xbeb51305	-0.35366073
134	0x3dd878db	0.10569926
135	0xbb6a1328	-0.0035716984
136	0x3f94ba75	1.1619402
137	0x3ec782f3	0.38967094
138	0x3d5ccb6e	0.053904943
139	0x3ee3249f	0.44363877
140	0x3f6d39fa	0.9266659
141	0x3f42859a	0.7598511
142	0x3e9fdba6	0.31222266
143	0x3fb2cd53	1.396891
144	0x40129c75	2.2907994
145	0x3f903a24	1.1267743
146	0x3fba9134	1.4575562
147	0x3f51ac36	0.819034
148	0x3fadec10	1.3587666
149	0xbed3a9c6	-0.41340464
150	0x3f9cd4f7	1.2252492
151	0xbf0dfbf1	-0.5546256
152	0x3f39c56e	0.7256688
153	0x3df46d9f	0.11934971
154	0xbe664a0f	-0.22489189
155	0x3f3490c8	0.7053342
156	0x3f1045ee	0.56356704
157	0x3eb0354c	0.34415662
158	0x3f52e1af	0.82375616
159	0x3fb8b151	1.4429113
160	0xbdec27c2	-0.11531021
161	0x3dd5ff09	0.10449035
162	0xbd47ed19	-0.0488101
163	0x3fb2ee46	1.3978965
164	0x3eba01f4	0.36329615
165	0x3ffafd0f	1.9608477
166	0xbfbe4283	-1.4864048
167	0xbf21ecec	-0.6325214
168	0x3da9212e	0.08258282
169	0xbe912ad1	-0.2835298
170	0x3fcf1900	1.6179504
171	0x3db78aac	0.089619964
172	0xbf5760f6	-0.84132326
173	0x3e235283	0.15949444
174	0x3f2529ba	0.64516795
175	0x3fb7e2f8	1.436614
176	0x3f842084	1.0322423
177	0xbe7b26a7	-0.24526463
178	0x3a8729fa	0.0010312193
179	0x3f55392e	0.83290374
180	0x40006ceb	2.0066478
181	0xbfa0b24d	-1.2554413
182	0xbee8a5fa	-0.4543913
183	0x3da5b359	0.080908485
184	0xbea12eb1	-0.31480935
185	0xbed41547	-0.41422483
186	0x3f07cc03	0.5304567
187	0x3dd7c988	0.10536486
188	0xbf7c3eb3	-0.9853317
189	0x3f6898cc	0.9085815
190	0xbf8320ca	-1.0244381
191	0xbf4fbbc3	-0.81145877
192	0xbf7ab1a5	-0.97927314
193	0xbb3d9aae	-0.0028931308
194	0x3fc7a44e	1.5597017
195	0x3ee162f3	0.44020805
196	0x3f7820c3	0.9692499
197	0x3f26428a	0.6494528
198	0xbe5483c3	-0.20753388
199	0x3db8c6da	0.09022303
200	0x400e2e66	2.221582
201	0x3ebac16e	0.364757
202	0xbf13345a	-0.5750176
203	0x3fe3c848	1.7795496
204	0x3e83d36a	0.25747234
205	0x3f8de10d	1.1084305
206	0x3d9b9351	0.07596458
207	0x3fa2dbae	1.2723291
208	0xbf306f5f	-0.6891994
209	0x3f01b1b3	0.5066177
210	0x3f89bac6	1.0760124
211	0x3f7923ff	0.9732055
212	0x3e2da083	0.16955762
213	0xc0209503	-2.509095
214	0x3fa6f76f	1.3044261
215	0xbf0b40eb	-0.5439593
216	0x3f60f5c2	0.87874997
217	0x3ecbe5c8	0.39823747
218	0xbe1401c7	-0.14453803
219	0x3fcb2d1a	1.5873139
220	0xbd13996f	-0.036034998
221	0x3fb09928	1.379674
222	0x3fe66516	1.7999599
223	0xbf7a19b2	-0.9769546
224	0x3fd87221	1.6909829
225	0x3f0c7bba	0.5487629
226	0x3fb94e64	1.4477048
227	0x3ea7d869	0.32782295
228	0x3fdfee85	1.7494665
229	0xbf0152cb	-0.5051696
230	0xbfa3fb0d	-1.281099
231	0x3fe2892b	1.769811
232	0x3f4732b3	0.77811736
233	0xbfc6989b	-1.5515321
234	0x3faf927d	1.371658
235	0x3fc244d4	1.5177255
236	0x3fb5ba9b	1.4197572
237	0x3e237d59	0.15965785
238	0xbf8cc6ce	-1.099817
239	0xbfc07f66	-1.5038879
240	0xbfe54b29	-1.7913562
241	0xbf6b3ec1	-0.9189263
242	0x3e26656f	0.16249631
243	0xbe63726e	-0.2221162
244	0x3f1e9e00	0.6195984
245	0x3e8fb686	0.28068942
246	0x3e57e351	0.21082808
247	0x3eca6107	0.3952715
248	0xbf7c7671	-0.9861823
249	0x3f97be0a	1.185487
250	0xc0148899	-2.3208373
251	0xbf0556c1	-0.520855
252	0xbf004783	-0.5010912
253	0xbd1d8716	-0.038458906
254	0xbee4ab0d	-0.4466175
255	0xbdac7f12	-0.08422674
