models/NeuralNetwork-1_acc-58.48_loss-0.000001.pth (torch, 802127 bytes, 8 tensors)

network.0.weight f4 [512, 63]
000000 0a e6 8d bb 33 22 b9 3d 3c e0 44 3d f3 88 0f bc
       -0.0043304013 0.09039726 0.04806541 -0.008760679
000010 91 61 11 3d 81 c6 86 3e 8e 0b 4a 3e 3d 5d 79 3d
       0.035493437 0.2632332 0.1973097 0.060879935
000020 af ed ff 3c ad 84 e8 3c 4d fa a0 3c 1a a2 1b 3e
       0.031241266 0.028383577 0.019650603 0.15198556
000030 0b ab 1c bd 89 65 e6 bd 31 6b 16 be 2a 12 ef 3d
       -0.038249057 -0.11249835 -0.14689328 0.116733864
000040 01 36 13 bd b6 aa 5a 3d ed 36 04 3e a1 36 64 3e
       -0.035940174 0.05338546 0.12911578 0.22286464
000050 68 ad 37 be e9 4b b4 3d f2 0a 77 3c 45 46 8b 3d
       -0.17937243 0.08803541 0.015078293 0.06800512
000060 42 cd ec ba f7 44 8c 3b 12 73 b8 3d fe c8 5f 3d
       -0.0018066543 0.004280682 0.09006323 0.05463504
000070 f8 ba a2 3d 58 51 cd bd 70 f7 4b bd b0 39 b7 bb
       0.07945818 -0.10025281 -0.04979652 -0.0055915937
000080 0c ac 8c 3d 88 26 de bd dc 6d 7d 3d e2 32 f4 bd
       0.06868753 -0.10847193 0.06187235 -0.119237676
000090 19 2c 71 3d 28 73 b8 bd f3 99 ed bd a4 dd 18 bd
       0.058879945 -0.09006339 -0.11601629 -0.037320748
0000a0 07 78 65 bc 93 93 7f bd d0 0b 92 3d c1 df 3f 3d
       -0.0140056675 -0.062396597 0.07131159 0.046844248
0000b0 87 0e 47 3c e6 4f 0b be 9a 5d 1a 3d 37 8d 09 be
       0.01214946 -0.13604698 0.03768692 -0.13432775
0000c0 30 67 be 3c 57 4b 91 3d 5d e0 ea bb 86 57 00 3e
       0.023242563 0.07094448 -0.0071678595 0.12533388
0000d0 1d 3c 09 3d 00 b8 bc 3d ec 2c c5 bd 77 b1 a5 bd
       0.033504594 0.09214783 -0.09627709 -0.08090489
0000e0 bd 7b 24 be 38 41 55 3d bf 20 3d bd d2 13 0a 3e
       -0.16062827 0.05206415 -0.046173807 0.13484123
0000f0 bb b7 57 bd 45 7d b3 bd 1b fd de 3d 96 ab 23 bd
       -0.052665453 -0.08764128 0.1088812 -0.03995856
000100 36 aa fa bb af c6 ed 3d a5 8e 01 be 39 ea 36 be
       -0.0076496853 0.116101615 -0.12652071 -0.17862786
000110 9e e1 8c 3d 29 56 8b 3d 1c dd 83 bd 5d 8a 16 bc
       0.068789706 0.06803543 -0.06438658 -0.009188262
000120 ac bb bb 3d 07 ff 75 3d fe 08 c9 bc 3c dd 24 bd
       0.09166655 0.060057666 -0.02454042 -0.040250048
000130 e3 78 08 3e f6 f9 bb bc 83 ec 87 bd 41 59 af bc
       0.13327365 -0.02294634 -0.06636908 -0.021404864
000140 28 6c 67 3c 73 58 44 bd 14 87 05 3e 9a 19 0e bc
       0.014124908 -0.047935914 0.1303981 -0.008673096
000150 de 3f 48 3d 6f d5 0d be ea 2e d5 3d af aa cb 3d
       0.048889033 -0.1385095 0.10409339 0.09944665
000160 0c 09 1c 3e 78 2f 0b 3e 11 89 d4 bd 53 b2 e9 3d
       0.15237826 0.13592327 -0.10377706 0.11410966
000170 15 dd 1b 3e cb 22 32 bd 3b 9a b9 3d c5 96 0e 3c
       0.15221055 -0.043490212 0.0906262 0.008702938
000180 49 da 94 bd fe 2e f9 bc d6 be 5c bd 39 8a bd 3b
       -0.07268197 -0.030417915 -0.053892933 0.0057842997
000190 95 a4 e3 bd 9d e2 1e 3c 04 74 83 bb 64 45 80 3d
       -0.11115376 0.0096975835 -0.004011633 0.06263235
0001a0 32 5a 11 bd 62 3c 99 bd 94 69 c6 3d 34 8f 9f bd
       -0.035486408 -0.0748222 0.09688106 -0.07790986
0001b0 ce 0e e4 3d 29 10 0e 3e 97 1b 1d 3e 48 29 05 3e
       0.11135636 0.13873352 0.15342556 0.13004029
0001c0 de b6 33 bd 0a 55 de bc bc 7f 43 3d e5 db 9e 3d
       -0.043875568 -0.02714016 0.04772924 0.07756785
0001d0 27 c1 8d bd 3f 36 05 be a2 68 e6 bc 19 c1 f5 3c
       -0.069216065 -0.13008974 -0.028126065 0.029999303
0001e0 29 88 2d 3d 13 dd 80 3d b8 b1 da 3c 4c b7 4c 3d
       0.04236618 0.062921666 0.026696071 0.049979493
0001f0 74 5d 81 bd d3 39 47 3d bb 14 97 bd f2 1b 12 3d
       -0.06316653 0.04863913 -0.07377001 0.035671182
000200 85 10 dd bc 8d 7f 13 3e ad 74 02 3e 4e d5 dc 3d
       -0.026985416 0.14404126 0.12739821 0.10782872
000210 29 93 aa bd aa b7 a4 3d f8 13 95 3d 03 5c b0 3d
       -0.0832885 0.08042844 0.07279199 0.086113
000220 f9 8e 5c 3d 37 13 9d 3d 0c 6d 38 bc 33 b2 1c 3d
       0.053847287 0.076696806 -0.011256468 0.03825588
000230 8f 9e 44 3d 20 ee eb 3d 19 a6 d3 3d 16 c5 44 bd
       0.048002776 0.11520028 0.10334415 -0.04803952
000240 b9 cf 88 3d 37 3f fc bd 9e 01 29 3e e9 f0 29 3d
       0.06680245 -0.12316745 0.16504523 0.041489515
000250 c0 57 1d be 9a 1d e2 3b d1 9b 9c 3c 47 3c 15 3d
       -0.15365505 0.0069005014 0.019117268 0.036434438
000260 91 ea a0 bd 22 34 56 3d 28 82 94 bb 3f 01 17 3c
       -0.0785724 0.05229581 -0.0045321174 0.009216606
000270 75 b0 c9 bd 05 aa fe 3c b8 60 1f 3d 31 ab d3 3d
       -0.0984811 0.031086931 0.038910598 0.103353865
000280 8f bf 6e 3e 1f 6b 13 bd d6 ec 05 3e 4c 5d e5 3d
       0.23315261 -0.03599083 0.13078627 0.111994356
000290 bd b0 b8 3d ee 13 2b 3e 0f a2 65 3d fa ac 1c 3e
       0.09018085 0.16706821 0.056062754 0.1530036
0002a0 a6 85 04 3d 23 4b 46 3e f4 12 b8 bd bb 3b df bd
       0.03235402 0.193646 -0.0898799 -0.109000646
0002b0 94 32 14 3e 25 da 1a bd f1 98 06 be 64 c3 7c 3d
       0.14472419 -0.037805695 -0.1314428 0.061709777
0002c0 f7 fd 76 3d 88 88 37 3e 51 dd 5f be ab a2 93 bd
       0.060300793 0.17923176 -0.2186177 -0.07208761
0002d0 a2 71 b6 3c 6f d9 ae bc 4f 71 e1 3d 98 48 8a 3d
       0.022270981 -0.021343915 0.1100794 0.067521274
0002e0 e1 dd fe 3d 87 4f 83 3d d5 70 fd bc cc eb b9 3c
       0.12444664 0.06411653 -0.030937592 0.022695445
0002f0 73 77 c5 3c a2 55 30 3c 0d d6 fc 3d 4e 3d 94 bc
       0.02410481 0.010762604 0.123455144 -0.018095639
000300 d3 9b 02 bd 2c ab 81 bc 65 04 51 bd 51 eb 27 bd
       -0.031886887 -0.015828691 -0.05102958 -0.0409959
000310 c1 11 8c bc 82 97 80 bd 72 2a 00 3e a6 fa c2 3c
       -0.01709831 -0.06278898 0.12516192 0.02380116
000320 29 ef 00 be 61 24 6f bd 9a a0 11 3c fe 5e df bc
       -0.12591232 -0.058384303 0.008888388 -0.027266975
000330 bf 11 f0 bd e0 d9 11 bd 6f 7d ba bd 6c 03 30 be
       -0.11722135 -0.035608172 -0.09105956 -0.17188805
000340 9a 2a 0e be 23 2e 1c 3e 85 c9 13 bd 14 63 a5 3d
       -0.13883439 0.15251975 -0.036080856 0.08075538
000350 4b 6f ec 3d ac b3 eb 3c 3a ad c6 3d b2 90 6f 3d
       0.11544665 0.028772198 0.09701009 0.0584876
000360 e7 65 fd bb 19 a2 36 3e 1c f4 c5 bd 99 f6 b8 bd
       -0.007733095 0.17835273 -0.09665701 -0.0903141
000370 e7 38 00 bd 8e d2 dc bd fc 04 b8 3d 10 2b 20 be
       -0.031304266 -0.107823476 0.08985326 -0.15641427
000380 ce f5 97 bd 5d 07 aa bc 73 f6 13 3e 4b fc cd bc
       -0.074199304 -0.020755464 0.14449482 -0.025144717
000390 66 4d d8 bd 78 ec b6 3d 57 40 17 bd 90 44 1f 3e
       -0.105616376 0.089318216 -0.036926594 0.15553498
0003a0 44 ad 11 3e 15 ed 85 bd 7a e9 53 3d 70 a5 93 3d
       0.14226252 -0.065393604 0.051736332 0.07209289
0003b0 b6 2a 1d be 2e 54 0b be 64 28 3f 3c c7 08 ed bc
       -0.15348324 -0.13606331 0.011667345 -0.02893485
0003c0 29 11 1f 3e 39 a7 03 bd b5 7a 9d bd 18 46 2d 3e
       0.1553389 -0.032141898 -0.0768942 0.1692127
0003d0 d0 22 93 bd 74 46 d1 3c 15 21 3d 3d b6 17 59 be
       -0.07184374 0.02554629 0.046174128 -0.21200451
0003e0 19 6f a0 3d 5e 7a 2c be 02 83 9a 3d 00 75 51 bd
       0.0783369 -0.16843554 0.07544519 -0.05113697
0003f0 04 1b 4e bc 3d 76 e5 3b e2 60 f9 3b fb 82 95 3d
       -0.012579683 0.0070026205 0.0076104263 0.07300373

network.0.bias f4 [512]
000000 4b 91 7d be 73 e3 9d bd 89 ab 1c be 7f 35 2f be
       -0.24762456 -0.07709398 -0.1529981 -0.17110251
000010 25 08 41 bd 09 99 60 bd f5 3b d8 bd 1c c4 41 3d
       -0.047126908 -0.054833446 -0.10558311 0.047306165
000020 87 8e a2 bc 57 e8 40 bd cd 27 4e be cc c7 b6 bd
       -0.019843353 -0.047096577 -0.2013237 -0.08924827
000030 cd a2 38 be 1b 17 15 bd ca 1b 2d be 5b 6d 59 be
       -0.18030854 -0.03639899 -0.16905132 -0.21233122
000040 d6 f7 6c be 50 64 03 3d 68 bb 00 be 48 c5 86 bd
       -0.23141417 0.032078087 -0.1257149 -0.06580597
000050 79 af 09 be 60 8c 66 bc 0e ca a8 bd 79 37 bb bd
       -0.13445844 -0.014071554 -0.08241664 -0.0914144
000060 ef c0 c7 3d 29 6a ba ba c3 1a a1 bd d5 e5 8b bc
       0.09753596 -0.0014222312 -0.078664325 -0.017077366
000070 c3 16 11 be 5e ba 1b bd af 2b dc bc 24 eb 0c be
       -0.14168839 -0.03801953 -0.026876299 -0.13761574
000080 a1 00 ae bd d5 15 2a be 5d 1e 0c be f4 f5 30 be
       -0.08496214 -0.16609891 -0.13683458 -0.17281324
000090 7e 2c 52 bd b5 ab 72 bd fa 93 3e be 8e 39 91 bc
       -0.051311962 -0.059245784 -0.18611136 -0.01772764
0000a0 a0 fa e9 bc 4f ea cd bb fe 7f 5d 3c a9 18 83 bd
       -0.02856189 -0.0062840353 0.013519285 -0.06401188
0000b0 b1 17 0c 3c 71 fb 66 bd 41 94 0d be d7 ce 80 bd
       0.00855057 -0.056392137 -0.13826086 -0.062894516
0000c0 59 6b 91 3d e6 d2 f6 bd e5 4d 25 be f7 65 ea bd
       0.07100553 -0.120519444 -0.16142996 -0.114452295
0000d0 56 a6 45 3c d1 67 00 be 13 8e 58 be 42 3a 1c bd
       0.012063583 -0.12539603 -0.21147947 -0.038141496
0000e0 78 15 27 be ed f1 de bc 0f db 59 bd a0 d3 78 3c
       -0.16316783 -0.027214969 -0.053187426 0.015187174
0000f0 6b 9b 00 be e3 f6 9f bd 32 f2 73 bd 0f 33 06 be
       -0.12559287 -0.07810762 -0.059557147 -0.13105415
000100 10 6b d6 bc 54 c6 48 be dc 0d 30 3d 16 3d a2 3c
       -0.026174098 -0.19606906 0.042981967 0.019804519
000110 86 03 92 bd 8f c3 13 be 13 98 26 be 14 4c 18 bd
       -0.07129578 -0.14430068 -0.16268949 -0.03718193
000120 17 9d ea bd ed 8a 96 bd 8c 1f 60 bc f7 25 68 bd
       -0.11455744 -0.07350717 -0.013679396 -0.05667683
000130 d9 ca 4a be 20 66 de bd 04 6e 83 be c5 7c 6a 3c
       -0.19803943 -0.108593225 -0.25669873 0.014311974
000140 8e d3 8b bb c0 8b 81 bd e3 24 ef bd 95 4d 1d be
       -0.0042671626 -0.06325483 -0.116769575 -0.15361626
000150 2c b4 a0 bd 0a c3 49 be 34 86 b2 bd 04 cf d7 bd
       -0.07846865 -0.19703308 -0.087170035 -0.10537532
000160 51 9b da bd 0f b7 e3 bd 12 37 8c 3c a9 ee fc bd
       -0.106741555 -0.111189 0.017116103 -0.12350208
000170 62 e4 79 3d 83 8e 36 bc 6e b0 0f bd 7a 67 dd bc
       0.06100882 -0.011142376 -0.035080366 -0.02702688
000180 7f 60 8f 3d 91 89 e7 3c eb 4b f9 bd 7c 2a 96 bd
       0.07000827 0.028263839 -0.12172683 -0.07332322
000190 e9 2c 6e 3d 53 0e ea bc a1 c8 30 be 44 28 d8 3d
       0.0581483 -0.028571283 -0.17264034 0.10554555
0001a0 d8 cd 7d be 58 7b a5 bc 91 eb 53 bc 33 50 4a be
       -0.24785554 -0.020200416 -0.012934581 -0.19757156
0001b0 61 5b 54 be a9 bb aa bc 61 cd cc 3b 55 a1 f2 3d
       -0.20737983 -0.020841436 0.006250069 0.11847178
0001c0 eb 12 14 3c 38 b7 d6 bd 8a d8 9b bd 5a 3f 35 bd
       0.0090377135 -0.10484165 -0.07609661 -0.04424987
0001d0 46 4e a1 bd 64 2c d9 bd 94 4d c4 3c 39 f7 6a be
       -0.078762576 -0.1060417 0.023962773 -0.2294587
0001e0 6d 57 90 bd e7 f1 7d 3c 9e 27 d4 3c 40 b1 3b be
       -0.07047925 0.015499569 0.025897797 -0.18329334
0001f0 15 62 d9 bd 8e 2f 6c 3d 24 05 df 3d e8 4a 0d be
       -0.10614411 0.05766254 0.10889652 -0.13798106
000200 65 55 a2 bd aa 69 32 be d4 e5 9a bd 0b 4e a8 bb
       -0.07926444 -0.1742312 -0.075633675 -0.0051362566
000210 f5 a2 41 bd 4b b5 c6 bd a4 5d 8e 3b fd 06 c1 ba
       -0.04727455 -0.09702548 0.004344659 -0.0014726814
000220 bc 93 ae 3d 5a f4 47 be 41 29 9b bd 89 1f 00 bb
       0.08524272 -0.19526806 -0.07576228 -0.0019550046
000230 6a a7 42 3c 68 ae 9b bd 9e 1b f6 bd ab b3 96 3d
       0.011880735 -0.07601625 -0.12016986 0.07358488
000240 ad d3 a2 bd d6 81 10 3c 60 5a 07 bd 35 db 19 be
       -0.0795053 0.008820018 -0.033045173 -0.15025027
000250 06 3d 12 bd 7b f6 d7 bd 0e 21 dd bd a8 41 9f 3d
       -0.035702728 -0.10545059 -0.1079732 0.07776195
000260 25 df 89 bc b0 08 6a bc 65 73 07 be 77 f9 6f 3c
       -0.016830036 -0.014284298 -0.13227613 0.014646879
000270 3f 40 75 3d 02 51 49 3d 2a 16 3e be 73 3f 70 3d
       0.059875723 0.04914952 -0.18563142 0.05865426
000280 b2 e9 dc bd 23 d0 67 be 0c a3 91 3d 97 40 58 be
       -0.10786761 -0.22637992 0.07111177 -0.21118389
000290 cf e1 a3 3c fc 30 eb bd df b6 87 3c f5 1a f1 bd
       0.020005135 -0.114839524 0.016566692 -0.1177272
0002a0 af 2e 0e bd 35 71 24 be 46 28 ba bd 2a 11 59 be
       -0.03471249 -0.1605881 -0.09089713 -0.21197954
0002b0 11 2f d7 bd dc 54 05 be c7 c7 0b be d6 e8 3d bc
       -0.10507024 -0.13020653 -0.13650428 -0.011591157
0002c0 ec c8 6e 3d a3 88 ba bd 67 a1 59 be e5 be 3b bc
       0.058297083 -0.09108093 -0.21252976 -0.011459087
0002d0 a0 21 80 bd 7a 68 30 bb 30 a4 5c be d0 6e cc bd
       -0.062564135 -0.0026917742 -0.21547008 -0.09982073
0002e0 fb 58 d7 bc 3c 45 91 bc 77 5c 99 bc 69 e1 4e be
       -0.026287546 -0.017733209 -0.018720848 -0.20203175
0002f0 22 a1 60 bd e5 31 39 be 98 99 36 be 75 6e c8 3d
       -0.05484117 -0.1808544 -0.17832029 0.09786693
000300 7e 66 94 bc 12 62 ca 3c 45 51 3b 3d b2 21 71 be
       -0.018115278 0.024704967 0.0457318 -0.2354801
000310 9d 81 2a be bc 80 73 be f1 db ec bd 15 82 53 bd
       -0.16651006 -0.23779577 -0.11565388 -0.051637728
000320 31 28 84 bd d9 33 5f be a1 f3 5f be be f3 09 be
       -0.064529784 -0.21797122 -0.21870281 -0.13471887
000330 b0 32 9e bd 0f 2e 22 be f0 08 b6 3d f4 8b 51 bd
       -0.077245116 -0.15837882 0.088884234 -0.05115886
000340 62 62 b7 bd f2 ac 53 3c 6f 22 1c 3d 8a eb b3 bd
       -0.08954312 0.012919651 0.038118776 -0.0878516
000350 94 f8 d2 bd 2e a9 05 bd 5b 36 48 be 9b c5 26 3d
       -0.10301319 -0.032632045 -0.19551985 0.040715795
000360 94 af 50 3c a0 22 06 be d9 e0 d2 bd 3f 41 02 bd
       0.012737174 -0.13099146 -0.102967925 -0.031800505
000370 34 bb 4a be 3d 9c b8 bd 4b b3 63 be bb b2 62 bc
       -0.19797975 -0.09014175 -0.22236364 -0.013836558
000380 7b 25 fe bc b3 f6 5e be 7a 19 90 3a 86 67 e4 bc
       -0.031023731 -0.21773796 0.0010993921 -0.027881395
000390 ab 73 26 3b 66 fb 5a be a0 06 a8 bd ba 06 c2 bd
       0.0025398533 -0.21384963 -0.082043886 -0.09473939
0003a0 78 44 48 be f7 81 de bd e7 2b 23 bd ad 2a b6 bd
       -0.19557369 -0.108646326 -0.03983679 -0.088948585
0003b0 48 71 d0 bd ca f4 e5 bb dd 69 ab bd 2e f7 7e bd
       -0.10177857 -0.0070177065 -0.08369801 -0.062247448
0003c0 f8 16 ae bd 73 44 27 be 3d ab 43 be 70 df eb bd
       -0.08500475 -0.16334705 -0.19108291 -0.11517227
0003d0 85 e3 a5 bc 54 6d ce bd 60 ab 48 bd ac 8c 57 be
       -0.020250091 -0.100794464 -0.04899156 -0.21049756
0003e0 cb f9 f7 bd eb df 7f be 4b de 09 be 32 72 60 bd
       -0.12108191 -0.24987762 -0.13463704 -0.054796405
0003f0 b6 7a 66 be a5 ac 49 be 0b cf be bd 32 c5 e8 bd
       -0.22507748 -0.19694765 -0.09316834 -0.11365737

network.3.weight f4 [256, 512]
000000 86 3e 62 bd e4 a8 c0 bd ed d7 30 bd 3a 3b e8 bc
       -0.05523541 -0.09407213 -0.043174673 -0.028348554
000010 fc 91 d9 bc d4 8b 25 bd 99 e7 88 3d f3 c4 91 bd
       -0.026558869 -0.040416554 0.06684799 -0.07117643
000020 21 37 45 bd 82 0a 18 3d eb 0b 33 bd d2 98 b1 bd
       -0.04814828 0.037119396 -0.043712538 -0.08671726
000030 a0 e6 14 3c 5e f3 0e bd 0c fc 39 3d ff 30 7a 3d
       0.009088188 -0.03490006 0.045406386 0.061081883
000040 36 c3 1f 3d 29 49 3d 3d f7 ca 98 3c 5d 7d 35 3d
       0.039004527 0.04621235 0.018651469 0.04430901
000050 2b f9 79 3b db 57 31 3d ed 5e ba 3c ca f9 29 bd
       0.00381429 0.043296676 0.022750342 -0.041497983
000060 73 67 6a 3c 23 6f de bc 98 dc af b8 e8 92 0a bd
       0.014306891 -0.027152603 -8.385739e-05 -0.033831507
000070 51 9e 6c bc 01 ef 9a 3c 9c a3 60 bc 86 f4 31 3d
       -0.014442042 0.018912794 -0.0137108825 0.043446086
000080 0f 7e 4f 3d 17 a0 be 3c 7f 58 ea 3c 03 03 0e bd
       0.05065733 0.023269696 0.028606651 -0.03467084
000090 89 42 2b 3a 7a 12 cd bc 89 82 98 3d 8e 90 11 3d
       0.0006533047 -0.025033224 0.074467726 0.03553825
0000a0 ce 23 f3 bb 2b 82 18 bc 1d f3 4d bc d2 f1 82 bd
       -0.0074200397 -0.009308378 -0.01257017 -0.0639378
0000b0 fd 6a 9b 3c ae 51 ab 3c 0c cc 14 bd a2 b3 7e bd
       0.018971914 0.020912971 -0.036327407 -0.06218303
0000c0 98 ab 4d bc 57 c0 85 3d 1d 8d e9 bc 9a b5 40 3d
       -0.012553118 0.065308265 -0.02850967 0.04704819
0000d0 00 84 11 bd 39 84 9d ba 50 c1 64 bd 15 76 5e bd
       -0.035526276 -0.0012017555 -0.05584842 -0.05431183
0000e0 17 34 67 3b 87 59 7f 3d 99 ba 09 bd bf e0 c9 3c
       0.003527885 0.06234124 -0.03362522 0.0246433
0000f0 9d 43 12 3c 44 2e 3d 3d b1 32 92 3d 2a fb d9 bc
       0.008927253 0.0461867 0.07138575 -0.026609022
000100 29 61 6e bb 6b 6c 9d 3d 2d 29 13 bc 23 c6 03 be
       -0.003637383 0.07686695 -0.008981985 -0.12868552
000110 8c 3c b8 bd 7f e6 51 b9 b5 c6 83 3c de 98 5e bd
       -0.089959234 -0.0002001766 0.016085962 -0.054345004
000120 7c 6d 58 3d fb ea b7 3a 51 a8 9d bc f6 9c 18 bd
       0.052838787 0.0014031822 -0.019245299 -0.037259065
000130 bc df b5 3c 27 89 90 3c 03 2c 32 3d 68 52 55 3d
       0.022201411 0.017643524 0.043499004 0.05208054
000140 7c a5 ad 3c 8f 82 e4 bb 1b ce 6e bb ce 09 ba 3c
       0.021197073 -0.0069735716 -0.0036438766 0.022709753
000150 8a 0c a9 bc 89 25 27 3d 00 cc 0a bd 7c 0a 1e 3d
       -0.020635862 0.04080728 -0.033885956 0.038584217
000160 e5 91 a6 3d d8 24 46 3d bc 4a d2 bc 64 ca b2 ba
       0.08133296 0.04837498 -0.025670402 -0.0013640639
000170 8c fa 82 bc f7 7d be bd 5a 40 20 be 9a a2 ca 3d
       -0.01598861 -0.0930137 -0.15649548 0.09894295
000180 96 62 a2 3c ce 8f 3f bd ba d8 95 3c 9f 83 97 3d
       0.0198224 -0.046768002 0.01829182 0.073981516
000190 1a a5 32 bd d2 45 4d 3d 4d 02 06 be ba 00 d5 bc
       -0.043614484 0.050115414 -0.13086815 -0.026001323
0001a0 74 05 18 3d 63 ec 6a bd 02 66 25 3c b3 c7 5d 3d
       0.037114576 -0.057354342 0.010095121 0.054145526
0001b0 54 6e a0 3d c7 21 12 bd 44 91 99 bd 32 c3 c0 bd
       0.078335434 -0.035676744 -0.0749841 -0.094122306
0001c0 d7 08 25 3c 95 e5 8e bb 34 03 0b be c0 63 f8 bd
       0.010072908 -0.0043608644 -0.1357544 -0.12128401
0001d0 9b c9 df 3c db 15 97 3c 98 e8 08 3d cd bf 11 3c
       0.027317813 0.018443039 0.033424944 0.0088958265
0001e0 d3 0c 90 3d aa b8 14 3c 69 bf 66 bc 96 84 21 3d
       0.07033696 0.0090772305 -0.014083722 0.039433084
0001f0 54 25 5e bd 4f 61 6c bc 04 b2 0a bd 59 1f 59 bc
       -0.054234818 -0.014427497 -0.033861175 -0.013252103
000200 05 92 25 3d b0 61 37 3d 1c c7 11 3b 61 cf c5 3c
       0.04042246 0.044770896 0.0022243923 0.024146738
000210 25 c4 b4 3d bc 4a 17 bd 64 5b 6b 3d 1d ac ba bd
       0.08826474 -0.036936507 0.057460204 -0.09114859
000220 f5 51 6b 3d 99 7a 24 bd 70 37 16 bd 7d bb d4 ba
       0.057451207 -0.04015598 -0.036673963 -0.0016230192
000230 12 ea 5e bd 64 0a 0a 3d 63 d7 ff bc bf 67 22 bd
       -0.054422446 0.033701316 -0.031230634 -0.03964972
000240 11 2e c7 bc 7b a3 0e 3c c0 ca 07 3d 6f 62 27 3d
       -0.024313958 0.008705969 0.03315234 0.040865358
000250 81 00 ff 3c 83 01 fe bb 59 34 2f bd 39 55 b4 bd
       0.03112817 -0.007751645 -0.042774532 -0.088053174
000260 65 ec 55 3d bd ff af 3c 18 f7 51 3d 1a ba 0d be
       0.052227397 0.02148425 0.051261038 -0.13840523
000270 17 bc 10 3d 76 13 0a be d1 2f 78 3c 69 79 b2 3c
       0.035335626 -0.13483986 0.015148119 0.021786408
000280 4d f5 3b 3c d4 4b a9 ba a7 30 bd bd 3e 63 f8 3c
       0.0114720585 -0.0012916275 -0.09237795 0.03032076
000290 b3 06 27 3c 6d e0 02 bd c0 ff 0b bd d4 ba cf 3c
       0.010194468 -0.03195231 -0.03417945 0.025357641
0002a0 57 69 01 3c 7f d6 1f bd f1 b8 bb bd d8 28 a4 bd
       0.00789865 -0.03902292 -0.09166134 -0.08015603
0002b0 ea 20 02 3d 9d 3d 3b bc d3 81 10 3d 32 6a 93 bd
       0.03176967 -0.011428264 0.03528006 -0.071979895
0002c0 3b 41 a2 3c 59 91 e8 bc 08 e5 70 3d ce ec 60 bd
       0.019806495 -0.02838962 0.05881217 -0.054913335
0002d0 d2 c8 02 3d 57 2f 8c 3c 4d 8b f7 bb cb 0c 82 3c
       0.0319298 0.017112417 -0.0075544477 0.01587524
0002e0 4a 35 5d bd 7c 67 96 bc aa cc 40 3d 1e 20 3e 3d
       -0.0540059 -0.018359892 0.047070183 0.046417348
0002f0 09 b7 90 3d 19 dd 0a 3d 40 b3 e8 bc cb b5 07 3d
       0.07066161 0.03390226 -0.028405786 0.033132356
000300 41 36 9a bd 36 be 69 bc 83 a2 06 3d a4 ad 07 bc
       -0.07529879 -0.014266541 0.032869827 -0.008281145
000310 06 a2 67 bd 51 78 05 bd b1 21 70 bc ee f1 94 3d
       -0.056551002 -0.032585446 -0.01465647 0.07272707
000320 8c bf 5e bd 4f bd 23 3d 7f 58 6c 3d 59 ee b1 bc
       -0.054381892 0.03997546 0.057701584 -0.021720098
000330 f4 5a 6c 3d 3a bb 87 bd c7 18 2a 3d ef f1 5e bc
       0.057703927 -0.066275075 0.041527536 -0.013607486
000340 21 5c 22 bd 32 b0 0c 3d e5 54 31 bd 85 26 96 bc
       -0.039638642 0.03434772 -0.043293852 -0.018328914
000350 60 16 d0 3c 7b 8a 19 bd ab e1 ab 3c f4 f7 b7 3d
       0.025401294 -0.03748558 0.02098163 0.0898284
000360 8d 6b ba bd 7c ce 23 bd c9 a3 d9 bc 6b 76 23 3c
       -0.09102545 -0.03999184 -0.026567357 0.0099769635
000370 1b e1 40 3d 81 ba 01 bd 83 ea d7 3a 46 ad 2b bd
       0.047089677 -0.031672005 0.0016473088 -0.041913293
000380 f3 8b 0c 3d 75 cf b7 3c b2 79 5f bc e4 87 33 3c
       0.034313153 0.02243779 -0.013639854 0.010957692
000390 1a 7d 8e bd b0 39 84 3c 30 bf ac bd 3f 61 4e 3d
       -0.06957455 0.016140789 -0.084349036 0.05038571
0003a0 d3 3b 53 3d d1 18 33 bd 33 d1 fc 3c e2 69 05 bd
       0.051570725 -0.04372484 0.030861473 -0.03257168
0003b0 7a 39 74 3d 8b 87 af bc 4f 76 9e 3c 11 26 11 bb
       0.059625126 -0.021426937 0.019343523 -0.0022147933
0003c0 1d 89 25 bc 5a d4 1b 3c 9d e4 17 3c bf f2 40 bd
       -0.010103491 0.009511078 0.009270814 -0.0471065
0003d0 d7 30 2a 3d 87 46 38 3d 06 52 65 bc 80 e1 cc ba
       0.041550484 0.044989135 -0.013996607 -0.0015631169
0003e0 0f 24 a2 3b b2 d5 15 3c 27 75 32 bd e5 80 8b 3c
       0.004948146 0.009145187 -0.043568756 0.017029235
0003f0 ad b1 a3 3d 1c f4 d2 3c 2f 12 17 3d e9 2b 3f bc
       0.07992873 0.025751166 0.036882576 -0.011668184

network.3.bias f4 [256]
000000 7c 20 59 bd 34 c1 a6 bb 43 8b 8f bc 1a 15 8a bd
       -0.053009495 -0.0050889496 -0.01752246 -0.06742306
000010 99 35 4a bd 25 12 34 bd 15 a2 4c 3d 85 0a 42 3c
       -0.04936752 -0.043962616 0.04995926 0.011843328
000020 da c9 6f bc ac a5 96 3d 05 0f 77 3c 5d a4 99 3c
       -0.0146355275 0.07355818 0.0150792645 0.018755132
000030 c2 78 2c 3d 60 76 81 3c 37 ab 8e bd 12 04 80 bd
       0.04210735 0.015803516 -0.069662504 -0.06250776
000040 ca e2 0b 3d 51 41 76 bd 36 cf 3b 3c 31 d3 34 bd
       0.03415183 -0.060120884 0.011462977 -0.04414672
000050 56 0a 53 3b 5b e9 85 3d 2e 3f 82 bc 74 1f 6b 3d
       0.0032202206 0.0653865 -0.015899267 0.057403043
000060 8c d4 b9 3c 26 a3 9c 3c 90 35 46 3c 53 fd 00 3d
       0.022684358 0.019120764 0.012097731 0.03149159
000070 7e a6 83 bc 51 62 cd 3b 60 47 5d bc 6e b1 c3 3d
       -0.0160706 0.0062678237 -0.013505787 0.095553264
000080 52 d0 04 bd d6 20 b0 3c c9 19 27 3b 16 2a 0f 3d
       -0.032425232 0.021500032 0.0025497547 0.034952246
000090 60 95 97 bc 90 3e 8f bd 24 65 08 bc 1a 5e c3 3c
       -0.018503845 -0.06994355 -0.008324895 0.023848582
0000a0 34 4a 10 bd d0 53 30 3d 81 fc 3c bd f3 a2 1f bc
       -0.035227016 0.04304868 -0.046139244 -0.00974344
0000b0 69 69 08 3d 6a c6 93 3d 61 2f 56 3d 97 cf 47 3d
       0.033303652 0.07215579 0.052291278 0.048781957
0000c0 d9 0b 4d 3d 70 e9 07 3b cf c3 9e 3d 67 21 7b 3d
       0.050060127 0.0020738505 0.07752191 0.06131115
0000d0 29 fa 38 3c 38 f1 73 3d e1 73 8f bc eb 58 1b 3d
       0.011290112 0.059556216 -0.01751131 0.037926596
0000e0 c8 c7 bd bb 07 4a 72 3c a2 fe 30 3b 3a 12 f5 b8
       -0.005791638 0.014788157 0.0027007242 -0.00011685905
0000f0 16 15 e8 ba a3 c7 0e bd 9b ce 5e 3c 82 12 8e 3c
       -0.0017706479 -0.034858357 0.013599063 0.01734281
000100 46 e5 63 bc fd 8c 2f 3d 6f c7 f9 3c 09 43 20 bd
       -0.0139096435 0.042859066 0.030490605 -0.03912643
000110 94 bb 45 3c ea bd 50 3d 38 21 4a bc d6 db 3c bb
       0.012068648 0.050962366 -0.0123370215 -0.0028817556
000120 04 10 08 3d d8 6c ad bc b3 50 2e bc 36 9a fe 3b
       0.0332184 -0.021170065 -0.010639357 0.007769848
000130 b6 3a 23 3c 8e c7 32 3c 4d 4b 22 3d 43 af 23 bd
       0.009962728 0.010911835 0.039622594 -0.039962064
000140 9a 31 39 bd 1e 9b ea 3c 27 fb d0 3c bc 9a 05 bd
       -0.04521332 0.028638419 0.025510384 -0.03261827
000150 fa cb d1 bb 26 32 8b 3b fb 73 34 3b 7b 19 91 3b
       -0.0064024897 0.0042479215 0.002753495 0.0044280863
000160 19 6a a3 bc 90 2b 88 bd 4e 55 b3 bc 29 70 0e 3d
       -0.019948052 -0.06648934 -0.021891262 0.034774933
000170 e3 e0 d4 3c f8 67 77 bc cb 7e 04 bd 8b 97 29 3d
       0.02598614 -0.015100472 -0.03234748 0.04140429
000180 12 de 37 3c 1c 6d 19 bb bb 6c 56 3c fb 84 9e 3b
       0.011222379 -0.0023410982 0.013087447 0.00483763
000190 d4 76 1b 3d 91 41 8c 3d 9b de 3f bd 62 00 07 ba
       0.03795512 0.06848443 -0.046843152 -0.00051498984
0001a0 86 56 ab bc b5 aa fb 3b 69 af 67 3d ff c2 cf bc
       -0.020915281 0.007680262 0.05656377 -0.025361536
0001b0 4b 38 3b 3c 87 fa 3b bc cc b0 97 3c 17 99 8d 3b
       0.0114269955 -0.011473305 0.01851692 0.0043212282
0001c0 14 52 87 3d da 37 1a bc 5d 5a b0 3d e5 b2 55 3d
       0.06607452 -0.00941273 0.086109854 0.05217256
0001d0 b2 6e c2 bc a9 e6 55 bc d3 92 a5 3d 0f 83 e3 3b
       -0.023734424 -0.013055482 0.08084645 0.0069431136
0001e0 c0 20 21 3d 23 7f 53 3d 96 be d8 3c 9b 11 99 bc
       0.039337873 0.05163492 0.026458066 -0.018685153
0001f0 28 6b 9e 3c f4 42 48 3d f1 31 60 3d 32 49 54 bd
       0.019338205 0.048891976 0.054735128 -0.051827617
000200 81 53 1d 3c d9 2e c5 bb bd 21 06 bd 78 c3 09 3c
       0.009602428 -0.0060175476 -0.03274702 0.00840842
000210 45 3c 0a 3d a3 12 a3 3c bf f9 03 bd c5 c3 e2 3c
       0.033748884 0.019906348 -0.0322206 0.02768124
000220 1e 01 2c 3d 23 a0 f2 bc 4e 91 38 3d fd 9b 90 3c
       0.041993253 -0.029617375 0.04506045 0.017652506
000230 fa f3 6f 3c ee 42 74 3b 6a 25 01 bc 3d 21 72 3c
       0.014645571 0.0037271339 -0.007882455 0.014778432
000240 78 bd 2b 3d bd fe fb bc 53 9f b4 3c db 15 81 3d
       0.04192874 -0.030761117 0.022048628 0.06302997
000250 2e 27 14 bc d3 e6 d5 3d 55 82 59 3c 53 02 79 bc
       -0.009042544 0.10444417 0.0132757025 -0.015198308
000260 15 1c 4b 3d 40 bd bb 3c 7c a7 cf 3c 4f e9 05 bd
       0.049587328 0.02291739 0.025348417 -0.032693204
000270 c8 0f 32 bd 3e 2d b1 bc 3a 45 a9 ba 05 38 7a 3c
       -0.04347208 -0.021628018 -0.0012914308 0.015272145
000280 e7 12 05 bc a4 0b 23 3d 5b 24 29 bd 8b a1 a4 3b
       -0.008122182 0.039806023 -0.041294437 0.0050241402
000290 be 68 fa 3c 27 83 53 3d 9a a8 41 3d a1 d5 8d 3d
       0.030567523 0.05163875 0.04727993 0.06925512
0002a0 76 ad 57 3c 4e f6 0b bd 98 1f 8b 3d 53 25 0d 3c
       0.013163915 -0.03417044 0.067931354 0.008614856
0002b0 00 a2 1a 3d 1c 8f 96 36 cb 33 be 3b 78 92 79 bc
       0.03775215 4.4870085e-06 0.005804514 -0.015232675
0002c0 d4 6a a3 bb d5 b9 85 bc b1 b2 e8 ba c2 c4 59 3d
       -0.0049871 -0.016323963 -0.001775345 0.05316616
0002d0 fc 20 99 bc 49 d4 10 bd f1 49 9e 3d 2e d8 3e 3b
       -0.018692486 -0.0353587 0.07728947 0.0029120552
0002e0 97 4a 15 3d 6a 3c 1f 3d 3d 1f a8 bd ff 03 ca bb
       0.036448088 0.038875975 -0.08209083 -0.006165027
0002f0 d0 e7 f4 bc 7c 08 4a bc 9f 57 12 3d 0c 53 6f bd
       -0.029895693 -0.012331124 0.035728093 -0.05842881
000300 d4 2a 30 3d e2 8a 11 bc 69 b8 93 3b bc b9 8b 3c
       0.043009594 -0.00888321 0.0045080674 0.017056338
000310 7d 23 1c 3d 95 4d a0 3d 1c 68 d3 bc 04 86 1d 3d
       0.03811978 0.078272976 -0.02580648 0.038457885
000320 d1 3b dc bc 91 61 49 3c 47 a2 71 bd 8d e6 c5 bd
       -0.026883991 0.012291328 -0.05899265 -0.09663115
000330 50 ab 8e 3d 82 a6 9f 3c cb e8 85 bd 64 6a fa bc
       0.06966269 0.019488577 -0.06538542 -0.03056831
000340 78 f7 94 bc 47 9b 8d 3d d2 ec c5 bc 44 d9 4c 3d
       -0.018184409 0.069143824 -0.024160776 0.05001189
000350 6e c8 6a bc 04 5e a0 3c 41 f7 0e 3c 6d 7b bc 3c
       -0.014330013 0.01957608 0.008725942 0.023008073
000360 f8 97 42 bd 5b 35 80 3b ec 23 ad bb 53 51 d6 3c
       -0.04750821 0.0039126105 -0.0052838232 0.026161825
000370 bc f2 3a bd 30 e8 b3 3c 47 2b 37 3b f3 a8 85 bb
       -0.045641646 0.021961302 0.002794938 -0.004078978
000380 38 ce e8 bb 93 c4 98 bc 5a 95 99 3a d4 e2 0c 3d
       -0.0071046613 -0.018648421 0.0011717484 0.034396008
000390 d0 14 85 3d 2b a4 34 3d e7 05 3f 3b d1 e0 08 3c
       0.0649811 0.044101875 0.0029147805 0.008354382
0003a0 01 aa 2c 3d 7e cc 77 bd fb 98 27 3d a0 1b 73 bc
       0.042154316 -0.060497753 0.040917378 -0.014838129
0003b0 da d6 fa bc 2f 79 1c 3d c2 09 8c bc 73 b1 24 3d
       -0.030620027 0.038201507 -0.017094497 0.04020829
0003c0 61 1c a7 bc 4d 55 89 3d ab 66 bb 3d 0c 01 46 3b
       -0.020399274 0.06705723 0.09150442 0.0030213026
0003d0 9d 1c a9 bc ee 32 01 3d 60 e9 05 3d 78 13 34 3d
       -0.020643527 0.03154271 0.032693267 0.04396388
0003e0 6c ae a1 bc 75 14 d0 bd 86 10 85 3d fe 04 66 3d
       -0.019736491 -0.10160152 0.06497292 0.056157105
0003f0 3d 31 0e 3d 06 c8 12 3c b8 64 f9 b7 0c 05 ed 3c
       0.034714926 0.008958822 -2.9730014e-05 0.02893307

network.6.weight f4 [128, 256]
000000 5e b4 95 bb fe fc 9b 3c 62 6b d3 bc 66 7a 52 3c
       -0.0045686206 0.019041535 -0.02580804 0.012846565
000010 e2 18 01 3e 50 1b ac bc 89 89 03 bd cc 20 f6 3c
       0.12607148 -0.021009117 -0.032113586 0.030044936
000020 1c 0b 58 bd e9 15 28 3e 70 e1 ef 3c 53 92 a2 bd
       -0.05274497 0.16414608 0.029282302 -0.079380654
000030 0d 22 10 bc 25 69 24 bd de 17 5e 3d d2 cb ca 3c
       -0.008797181 -0.040139336 0.05422198 0.024755392
000040 72 14 79 3d b4 47 3d ba 1a 40 7c 3d 11 6e ee 3c
       0.060810514 -0.00072204624 0.06158457 0.029105218
000050 d1 5e 3f bc 5d 04 8b 3d 22 13 46 3c c4 ba 34 3d
       -0.011680321 0.067879416 0.012089523 0.044123426
000060 cb c4 4b bb 71 92 ac bd 18 8f c4 3d 05 93 65 3c
       -0.003109264 -0.08426369 0.095976055 0.014012103
000070 9c 7d a0 3c 2a f9 8c 3d 5a cf 65 bc 30 16 5d 3d
       0.019591145 0.06883462 -0.014026487 0.053976238
000080 6b 88 59 bd 46 7e c7 bc e5 b8 5f 3d 5b 66 70 bd
       -0.053108614 -0.024352204 0.05461969 -0.058691364
000090 72 53 6b 3d 79 c3 df bd 76 d5 1a 3d 2e f4 38 bd
       0.057452627 -0.10925955 0.03780123 -0.045154743
0000a0 6f 94 20 bd d6 eb 9d bd 51 71 64 bd c8 b9 32 bd
       -0.039204057 -0.07710998 -0.05577213 -0.043634206
0000b0 e7 35 9b ba 0c e8 47 bd 46 5e e6 3c f8 04 1a 3c
       -0.0011841626 -0.04880528 0.028121125 0.009400599
0000c0 84 73 62 bc bf f7 e6 bb 0c 6e 60 3d d9 06 f7 3d
       -0.013821486 -0.0070485766 0.05479245 0.12061853
0000d0 9d 0e ed 3c ef 44 01 bc e5 e7 a7 bb c8 c0 97 3c
       0.028937632 -0.00788997 -0.0051240795 0.018524542
0000e0 56 4b ac 3c e8 d8 49 bd a3 d5 92 3c a3 cc 00 be
       0.021032017 -0.049279124 0.017924136 -0.12578063
0000f0 bb ff 12 bd 99 f0 bb bc f2 eb 97 bb f3 9e 80 bb
       -0.035888415 -0.022941874 -0.004636281 -0.003925198
000100 0e e6 46 3d 0e 0a ca bd 9f b1 90 bd 66 d4 8d bd
       0.04855924 -0.09865199 -0.070651285 -0.069252774
000110 a5 83 3f bd 66 10 e7 3c 15 64 63 3c 94 02 1a 3d
       -0.046756405 0.028206062 0.013878842 0.037600115
000120 47 67 09 3b 4a 00 0a bd 79 e5 93 bd 89 b1 f3 bc
       0.00209661 -0.033691682 -0.07221503 -0.029747741
000130 e2 7a 01 be 62 d0 d3 3d 1f 73 09 3d 4e f2 3d 3d
       -0.12644532 0.1034248 0.033557054 0.046373658
000140 64 17 1a bd 30 ce 08 bd 18 8e 4c 3d 3f 0c 19 3e
       -0.037619963 -0.03339976 0.0499402 0.14946078
000150 52 cc 2e 3c 65 fe 69 bd 7d 83 ad bd db 0e 2c 3d
       0.010668831 -0.057127375 -0.08472345 0.042006355
000160 1d e0 af 3d d6 e6 07 3e cf ae d0 3d b7 e8 59 bc
       0.08587668 0.1327165 0.10189592 -0.013300112
000170 45 4e 85 bd 17 33 1e 3d ec fb 88 bd 59 e8 17 3e
       -0.06509069 0.03862294 -0.06688675 0.14834727
000180 46 1d 82 bd 64 27 78 bd e8 ed 80 bd b8 1e ae bd
       -0.0635324 -0.06058444 -0.06295377 -0.08501953
000190 5c 26 93 bd 87 4f 1c bd 35 f3 7a bd b6 0e 7e 3c
       -0.07185051 -0.03816178 -0.061267097 0.015506437
0001a0 8c 9b 78 3d c0 c3 f2 bc 8b ec 9b ba c8 81 bd 3d
       0.060695216 -0.029634356 -0.0011896057 0.092532694
0001b0 55 de a3 3d f8 3e 35 be e4 67 3c 3d b9 87 97 3c
       0.08001391 -0.17699802 0.045997515 0.018497335
0001c0 70 d9 1d 3e 34 5c 0f 3d c4 56 82 3c bf 00 e8 3c
       0.15414977 0.03500004 0.015910514 0.028320668
0001d0 39 5c 9a 3c ae 91 e0 3c 74 12 e8 3c ff b5 0d 3e
       0.018842803 0.027413215 0.028329112 0.13838957
0001e0 54 d9 21 3d 38 39 00 bd 04 4a 4a bd 7f e2 fe 3c
       0.0395139 -0.031304568 -0.049386993 0.031113861
0001f0 e5 61 ba 3d 41 93 34 bd 6e 0c 42 3d 0c f2 9b 3d
       0.09100703 -0.044085745 0.047375135 0.07614526
000200 ce 7d 06 3c b5 d9 93 3c 0b 5e 4e bd 52 7a 19 bb
       0.008208705 0.018048147 -0.050382655 -0.0023418856
000210 92 d5 ce 3c 6d ee c5 3d 00 aa 52 bd 21 56 17 3e
       0.025248323 0.09664617 -0.051431656 0.1477895
000220 34 4f 44 bc 1b a7 8e bd 30 05 c0 bc ed 10 ad 3c
       -0.011981774 -0.069654666 -0.023439974 0.021126235
000230 e2 f5 38 3d 31 52 51 3d ee 72 f9 bc f6 f1 4a bd
       0.045156367 0.051103774 -0.03045031 -0.04954716
000240 45 c7 b8 3d 44 ca 4b 3d a5 40 a5 bc 78 29 17 3e
       0.09022383 0.049753442 -0.020172426 0.14761913
000250 a8 2d 30 3d ff 9f 2e 3d 99 68 06 3e de 9c 88 3d
       0.04301229 0.042633053 0.13125838 0.06670545
000260 f2 0c d0 3d 39 3b 12 bd e2 8e 9f bb e3 5e eb 3c
       0.10158719 -0.03570101 -0.004869328 0.028731769
000270 22 c5 03 be e5 0b 85 bb 3f 9b c0 bd 36 78 8a 3d
       -0.12868169 -0.004060256 -0.09404611 0.0676121
000280 f8 73 4e 3d 9f 71 1f 3e f5 aa b4 3c 37 22 ca 3b
       0.050403565 0.15570687 0.022054175 0.0061686295
000290 28 2f a9 3d 90 e4 17 3d a1 7c a9 3d 3a ae 7e 3d
       0.082609475 0.03708321 0.08275724 0.062177874
0002a0 05 4c 1b bc 8a c5 08 bb 6a 64 f5 3d 6c 69 fb bc
       -0.009478574 -0.0020869696 0.11982043 -0.030689918
0002b0 c4 07 e2 3c f6 f9 76 3d 1f 62 6e 3d 97 34 27 bc
       0.027591594 0.060296975 0.058199044 -0.0102054095
0002c0 1f ca 9f 3d 4b b9 0b bd ad 8f 24 bd c7 45 ab bc
       0.078022234 -0.034112256 -0.040176082 -0.020907296
0002d0 e9 07 7e bd 44 26 a6 3d 35 5c 8b 3c fb 8c ed bc
       -0.062019262 0.08112767 0.017011741 -0.028997889
0002e0 fe b2 dd 3c 6d a9 a5 bd 1e b1 22 be e6 1e 98 3d
       0.02706289 -0.08088956 -0.15887877 0.074277684
0002f0 14 a9 d2 3c 86 e2 aa bd 60 dc 83 3d 77 a1 a3 bc
       0.025715388 -0.08343987 0.064385176 -0.019974453
000300 35 16 6a 3d 37 0f 48 3e 05 51 81 3b d7 41 83 3c
       0.057150085 0.19537054 0.003946426 0.016022606
000310 bd 4d 05 3d 81 2b 7a 3d 5f 77 2f 3c 90 be 6f bd
       0.03254484 0.061076645 0.010709613 -0.058531344
000320 29 73 0d 3d c9 aa 37 bd cb 43 17 3d 98 18 53 bd
       0.034533653 -0.044840608 0.036929887 -0.051537126
000330 0e 0e 86 3d 91 c9 5d 3d c1 8e a3 bd 81 d6 bb 3d
       0.065456495 0.054147307 -0.079862125 0.09171773
000340 35 f8 e1 3c fc e5 01 3d e4 90 c3 bd 90 ce 30 3d
       0.027584175 0.03171347 -0.0954912 0.043165743
000350 17 55 0a bd 64 2d c8 bc e0 ad cb bd 5e 83 8f 3d
       -0.033772554 -0.024435706 -0.099452734 0.07007478
000360 c7 e6 12 bd b9 9e bc 3d d1 68 a6 ba 1e bd 4d 3d
       -0.035864618 0.092099614 -0.0012696033 0.050229184
000370 8d 94 6e bd f9 8b 9c bd 96 bc 7d 3b 3f cc c4 3d
       -0.058247138 -0.07643885 0.0038717142 0.09609269
000380 73 bd a3 3d 18 d7 f2 3c ac 02 73 3d 60 94 d9 3d
       0.07995119 0.02964358 0.05932872 0.106240034
000390 6c f0 06 3d d1 3b 83 3d b6 62 50 bd d5 9b 14 bd
       0.032944128 0.064078934 -0.050875388 -0.036281426
0003a0 29 72 01 bd ce df 60 3d 91 94 d8 3d 63 d2 83 bc
       -0.031603012 0.054900937 0.10575212 -0.016091531
0003b0 09 47 a5 3c 97 e7 29 bc 5f 0c 08 be ff 19 40 bd
       0.020175474 -0.010370157 -0.13285969 -0.04689979
0003c0 65 ef 07 3d e7 a9 e4 bc 48 e5 06 bd 6c e1 e3 3c
       0.03318729 -0.027913047 -0.032933503 0.02781745
0003d0 8f 5c a7 bb 3d e0 14 bd 80 20 6d bd f0 6b d7 3b
       -0.0051074694 -0.036346663 -0.057892323 0.0065741464
0003e0 e7 3e ef 3d 8b b6 3a bd 1d 4b 1d 3d dc 45 88 3d
       0.116819195 -0.045584243 0.03840171 0.066539496
0003f0 2f 71 da bd 42 74 a7 3d e8 da 3e be 8b c5 35 3d
       -0.10666119 0.08176471 -0.18638194 0.044377845

network.6.bias f4 [128]
000000 a6 c3 61 3c fb 67 27 bd 79 06 54 3d ab 82 40 3d
       0.013779556 -0.040870648 0.051763985 0.046999615
000010 d8 64 9c bd 2a e6 cc 3d 90 b9 a3 3c e7 9a 84 3d
       -0.07636422 0.10004838 0.019985944 0.06474858
000020 3c 31 30 3b 75 da 83 3c c5 57 4f bc d8 3d b1 3d
       0.0026884815 0.01609538 -0.012655203 0.08654374
000030 11 2a 6c 3b d0 42 ad 3d c2 5b a6 bc fc 60 df bc
       0.0036035816 0.08460009 -0.020307425 -0.027267925
000040 32 8f fe 3d a6 32 dc 3d 4a ec f3 3d e3 86 91 3c
       0.12429656 0.10751848 0.11910303 0.017764514
000050 9a 24 ae bd 4c 29 97 3b 12 2b c0 3d 22 9f 73 3d
       -0.08503075 0.0046130773 0.09383215 0.059477933
000060 56 30 20 3d bf 24 93 3d 2b e5 d4 3d 02 77 dd 3b
       0.039108597 0.07184743 0.10395273 0.0067585716
000070 72 a8 36 3d ea 15 ff 3c e9 8a 0c 3d 4a 0b 83 3d
       0.044594236 0.03113838 0.034312163 0.063986376
000080 52 8d d8 3c 90 a4 e8 3d 29 d7 bc 3c af 57 d6 3c
       0.026434574 0.11359513 0.023051815 0.026164858
000090 17 81 7e 3d 3a eb 3f 3c 13 69 87 3d 78 86 b8 3c
       0.06213483 0.011713797 0.06611838 0.022525057
0000a0 4a 31 4c 3c fc 2d 35 3d f1 1f be 3d 81 88 88 3c
       0.012462923 0.044233307 0.09283436 0.016666653
0000b0 f3 11 7c 3c b6 23 bd bc e0 a6 3e 3b f7 44 ca bb
       0.015385139 -0.023088317 0.0029091164 -0.006172772
0000c0 49 0b ec ba 78 a6 c9 bc bb 47 a3 3d 9a 21 4c bd
       -0.0018008734 -0.024615511 0.07972666 -0.049836732
0000d0 a6 a0 8c bc ac a3 a7 3c 83 71 12 3d b0 6e 94 3c
       -0.017166447 0.020463787 0.035752784 0.018119186
0000e0 8f e1 98 bc f7 6a e7 bc 04 33 dd 3c 85 0a 4b bc
       -0.018662242 -0.028249247 0.027001865 -0.012392645
0000f0 98 86 4b 3d cc 8b b9 3d f7 27 5f 3b 19 c8 c6 ba
       0.049688905 0.09059867 0.003405092 -0.0015165835
000100 20 8b b9 3d 50 69 d5 bc ed aa 90 3d 7d d9 67 3c
       0.09059739 -0.026051193 0.070638515 0.014150974
000110 7a 4c ae 3c 26 32 67 bc 1d 60 0f 3c 37 0a 6b bc
       0.021276701 -0.014111077 0.008750943 -0.014345697
000120 e9 b3 58 bc fe 68 2c bd 24 06 36 3d 65 79 01 bc
       -0.013226488 -0.042092316 0.04443945 -0.007902478
000130 e8 79 81 bd ca 3a ac 3c b3 65 12 bc 87 4a b6 3d
       -0.0632208 0.021024127 -0.00893538 0.08900934
000140 5c 22 a2 bc 4c 44 41 3c 53 1b a9 3c aa e9 21 bc
       -0.019791774 0.011796068 0.020642912 -0.00988237
000150 f7 a8 8b 3d 73 53 e8 3c 3c 96 82 3c 90 22 01 bd
       0.06819337 0.028360104 0.015940778 -0.031527102
000160 2c a7 e2 3c 7a c3 a8 3d 17 2b ab 3d 46 02 d1 3d
       0.027667604 0.08240409 0.08357828 0.10205512
000170 39 a6 5d 3d 17 96 ff 3d ad e2 44 bd 7f 4a ea 3b
       0.0541136 0.12479799 -0.048067737 0.007149994
000180 08 3c 05 3d 9c ef 9a 3d b6 86 af 3b eb 12 a5 3d
       0.032527953 0.07565233 0.005356635 0.08060249
000190 9e b7 9c 3c 8c bb 5e bd 17 82 3f 3d 0d 68 46 3c
       0.019130524 -0.054378077 0.046754923 0.012109769
0001a0 4b fe 16 3d bf 19 b3 bb 5a 05 39 3d ce 57 06 bd
       0.036863606 -0.0054657157 0.04517112 -0.03279858
0001b0 b5 f7 96 bb 19 12 a3 bb 96 ae 95 3c 0c 72 7a 3c
       -0.0046071657 -0.0049765226 0.018271726 0.01528598
0001c0 9d 5b c0 3c c0 16 6b bd 64 1e 87 3d 21 ba 38 3d
       0.023481185 -0.057394743 0.065975934 0.04509938
0001d0 9a 33 94 bd bd a1 52 b8 1b 33 d2 bd 8f a1 cc bd
       -0.07236405 -5.0218532e-05 -0.10263654 -0.09991752
0001e0 7b e7 1f 3c 47 3d 5f 3d fb d3 8a 3c 3a 77 cd 38
       0.009759779 0.054501798 0.016946783 9.7973694e-05
0001f0 c5 45 bf 3d 64 57 07 bd ab 49 e3 ba b9 42 66 3d
       0.09339479 -0.033042327 -0.001734068 0.056215975

network.9.weight f4 [21, 128]
000000 4b 6f ce 3d f1 38 02 3e 9e ec a5 bc 4e f2 5c 3d
       0.10079821 0.12717034 -0.02025443 0.053942017
000010 0e 52 0f 3d aa 7d 5e bd 0a 45 d6 3d a4 23 33 bc
       0.034990363 -0.05431906 0.10462387 -0.01093379
000020 69 3d 5f be d2 d8 b8 bb 90 ac a4 3d 71 ae 81 be
       -0.2180077 -0.0056410814 0.08040726 -0.253284
000030 dd a9 3c be fd f7 34 3d df 5f de 3c 32 04 12 3e
       -0.18424173 0.044181813 0.027145324 0.14259413
000040 38 d5 3c bd 98 79 c9 3d 2e 26 1b be 5b 8a f7 bd
       -0.04610178 0.09837645 -0.15151283 -0.12086936
000050 0c 9a 4c 3d 36 8d c3 3d 08 23 5c 3c 4e b7 45 be
       0.049951598 0.09548418 0.0134360865 -0.19308206
000060 30 85 8c 3d 47 5b 19 be fe 75 dd 3d 8a be 3b be
       0.06861341 -0.14976226 0.10813521 -0.18334404
000070 9b de 3f be d1 c8 10 be 4a ff 77 be 83 8c 5f bd
       -0.18737261 -0.14139105 -0.24218479 -0.05457736
000080 2e e4 a5 bd db a3 7d 3d 25 b6 86 3d cc 36 23 3d
       -0.081001624 0.061923843 0.0657771 0.03984718
000090 3c 13 b5 bd a9 72 45 be 9b a6 a4 bc 0e cc 78 be
       -0.08841559 -0.1928202 -0.020098975 -0.2429659
0000a0 22 0c 27 be 19 49 c3 3d 93 ee a7 3d af 8f 21 be
       -0.16313222 0.09535427 0.08199801 -0.15777467
0000b0 ec 6f fc 3d f1 0a 40 3c 80 c1 86 be 12 2b 96 3b
       0.12326035 0.011721359 -0.26319504 0.004582771
0000c0 75 5d 22 3d c2 09 fb bd fa 9f b4 3b e5 05 d5 3c
       0.03963991 -0.122577205 0.0055122348 0.026003787
0000d0 fc a4 47 be 7c 16 7e bd 0d 7f c9 3d 81 61 89 bd
       -0.1949653 -0.06203316 0.09838686 -0.067080505
0000e0 53 57 b9 bd 6a c2 00 3e 3e 8f a3 bd 28 00 91 3d
       -0.09049859 0.12574163 -0.07986306 0.07080108
0000f0 3e 3b d7 3d 8f 82 c3 bd 9d 80 0a 3e ac de 31 3d
       0.105093464 -0.095463865 0.13525625 0.043425247
000100 60 a2 02 3d ca c5 b1 3d 93 83 63 be 4e 86 90 3d
       0.031893134 0.086803034 -0.2221816 0.070568666
000110 42 79 16 be 57 b0 af 3c b9 eb fc bd 84 c7 94 3d
       -0.14694694 0.02144639 -0.12349648 0.07264617
000120 ed 58 02 3e 10 b2 59 be 34 d2 df bd 92 88 82 bd
       0.12729235 -0.21259332 -0.10928765 -0.06373705
000130 63 0b 94 3d da f6 82 bc 0b a6 5f be 1d 69 8c bd
       0.07228734 -0.015986849 -0.21840684 -0.06855986
000140 63 12 35 be 58 b4 d6 bb f0 0f cb 3d 6c 07 e2 3d
       -0.17682795 -0.0065522604 0.09915149 0.11036572
000150 60 c2 1e be cc 72 ba bb 3f 47 8b 3d 4c 8a 88 bc
       -0.15503836 -0.0056899544 0.068006985 -0.016667508
000160 31 ab 08 3c f8 73 4b bd 96 9d b8 3d 5f fe b7 bb
       0.008341596 -0.049671143 0.09014432 -0.00561504
000170 68 41 d2 3d b8 4c 55 be ca 32 09 3e 05 20 61 3d
       0.102663815 -0.20830047 0.1339828 0.054962177
000180 cc 20 27 3d d6 f7 c9 3d bc 1e 7c be 80 97 c9 3d
       0.040802762 0.09861724 -0.24621099 0.098433495
000190 b8 09 b6 3d fb eb 09 bc 75 5a e7 3b 5a 64 c0 bd
       0.088885725 -0.0084180785 0.007060344 -0.093941405
0001a0 87 2e 0a be a1 0d 99 3c 7d 34 33 3d cf 1f ab be
       -0.13494311 0.018683257 0.04375123 -0.33422706
0001b0 d6 0b 65 be ab d4 75 3d 16 cb 6d 3c 3c 4e e9 3d
       -0.22367796 0.06001727 0.0145137515 0.11391875
0001c0 42 d9 1b 3d d8 e8 b8 3b 71 5f a2 3d ec 33 93 3d
       0.03804899 0.0056429915 0.0792836 0.07187638
0001d0 dc 5a a2 3d a8 f7 78 bb 9e f4 58 be ce a8 36 bd
       0.07927486 -0.0037989412 -0.21187064 -0.04459458
0001e0 9e ff 1f bd 54 11 de 3d 2c b0 42 be 2c a2 a7 3d
       -0.039062135 0.10843149 -0.19012517 0.08185229
0001f0 95 f1 33 3d 6c 6e a5 3d cf 4a db 3a e3 bb 28 3c
       0.043931562 0.08077702 0.0016730669 0.010298702
000200 e4 9f 99 3d 7b 65 8f be ed e5 9d 3c 60 7a dc 3c
       0.075012 -0.2800711 0.019274676 0.026913822
000210 91 e1 4f be 48 71 9c 3d c4 99 6f be f4 59 af bd
       -0.2030089 0.07638794 -0.233985 -0.08562079
000220 6b c2 f4 bd 45 43 86 3d 3a db b8 3c cd dc bf 3d
       -0.11951145 0.065557994 0.022565473 0.09368286
000230 8e e9 e1 3d 76 c5 2f 3d 7e 03 b9 bd 18 e2 6e be
       0.11030875 0.042912923 -0.09033869 -0.23328435
000240 5a d0 0c 3e 0a 69 26 be d5 bb 1b 3e b4 81 bc 3b
       0.13751355 -0.16251007 0.15208371 0.0057527665
000250 2b 79 a7 be 76 7b d7 3b ac 9b 11 3e 5d 71 c4 3c
       -0.3270963 0.006575997 0.1421954 0.023979837
000260 0f 0a 46 be 3c 0f 89 bc a1 00 c5 3c d2 75 02 be
       -0.19339775 -0.016730897 0.024048151 -0.12740257
000270 34 22 08 3d 53 15 cf 3c 42 87 e0 bc 9a 76 f6 3d
       0.033235744 0.025278723 -0.027408246 0.1203434
000280 09 fd a1 3d 12 bc f5 3d 02 43 19 3e fc cb a8 3d
       0.07909591 0.11998762 0.14966968 0.08242032
000290 3a ef c0 3d db ce 43 be cf d0 57 be c0 a8 e6 bd
       0.09420629 -0.19121878 -0.21075748 -0.11262655
0002a0 2b 8a b6 3d 14 47 a2 3d 6b 9e ba 3d 36 7b 71 be
       0.08913072 0.07923713 0.09112247 -0.23582157
0002b0 d5 19 20 bc 51 19 b0 bd 26 15 83 be 45 9c 36 3d
       -0.009771784 -0.08598579 -0.25602072 0.044582624
0002c0 80 21 58 3d ce 8e ba 3d 78 22 91 3d b0 5e aa bd
       0.052766323 0.09109269 0.070866525 -0.083188415
0002d0 da f7 2e bd 0e 86 69 3d 13 f1 45 be 98 3f 2f be
       -0.04271684 0.05701261 -0.19330244 -0.17114103
0002e0 61 b2 9d 3d bd eb 73 3d 7b 16 83 3d e3 29 c8 3d
       0.07700039 0.05955099 0.06400772 0.09773614
0002f0 e1 75 4c be aa 68 f0 3d b2 db 80 bd 87 b9 08 bc
       -0.19966842 0.11738713 -0.062919036 -0.008345014
000300 88 42 ba 3c e5 eb 13 be bb 13 11 be ec 0d 9c 3d
       0.022736803 -0.14445455 -0.14167683 0.07619843
000310 9a d8 09 3e 1b 8a eb bd c0 02 95 3d 89 b4 da bd
       0.13461533 -0.11500951 0.07275915 -0.106789656
000320 fa e7 65 bd 0e 22 4c be 20 22 2a 3e 9b 99 ed 3c
       -0.056129433 -0.19934866 0.1661458 0.029003909
000330 f8 3a 29 be c5 f5 fe 3d c5 fd 8a bd 5f cc aa bd
       -0.16526401 0.124492206 -0.06786684 -0.08339762
000340 30 b4 8d bd 31 e4 82 3d f1 d9 e9 bd 94 b7 34 be
       -0.06919134 0.0639118 -0.11418522 -0.17648154
000350 d9 4a 30 be 75 a9 a2 3c 14 2e df bc 2c 78 b5 3d
       -0.17216052 0.019856194 -0.027243651 0.088608116
000360 8e ac e3 3d 23 85 2d 3e c7 1f 68 3c dc 6d af 3d
       0.111168966 0.16945319 0.014167733 0.08565876
000370 c3 dd c7 3d cf f2 01 3e c6 6b 5a 3d 30 7d 26 be
       0.097590946 0.1269028 0.053325437 -0.16258693
000380 8a 6c 3d 3d 2e 82 8c 3d 69 3e 27 3d 72 5d 96 3d
       0.04624609 0.06860767 0.040831003 0.07342042
000390 4f 68 83 bd be b8 fb 3c 16 64 2c be 6a f3 e4 3d
       -0.0641638 0.03072774 -0.16835055 0.1117924
0003a0 11 73 c4 3d 3f 02 25 3d e0 a2 7c be fa f5 06 be
       0.0959226 0.040285345 -0.24671507 -0.1317977
0003b0 af d8 fc bd b0 c2 ae bb 79 d9 ad 3c b5 3a fa bd
       -0.123460166 -0.005333267 0.021221863 -0.12218229
0003c0 7d 3e d0 ba fe 46 39 be bf 36 8f bd 59 1a 48 3d
       -0.0015887764 -0.18093488 -0.06992864 0.048853252
0003d0 b3 93 95 be 22 da a6 3d de d3 47 bd ea 22 96 be
       -0.29214248 0.08147074 -0.048786037 -0.29323512
0003e0 fe 46 24 be f8 46 93 bd 2d 45 b4 3d 3f 47 fd bd
       -0.16042706 -0.071912706 0.08802257 -0.12367105
0003f0 e7 9c 07 3e 84 d1 9b 3d ca 2f a7 bd 84 23 bd 3c
       0.13243447 0.07608321 -0.08163412 0.023088224

network.9.bias f4 [21]
000000 58 16 80 3d cb f8 b8 3d c5 9e 31 bd 24 3c 3b bd
       0.06254262 0.090318285 -0.043364305 -0.04571165
000010 bd 39 86 3d 8b 2f 9a 3d ec fc af 3c 0c d9 d7 bb
       0.065539815 0.07528599 0.021482907 -0.0065871533
000020 3c 19 04 be ac f1 dd 3d c5 86 01 bd d7 b2 40 3d
       -0.12900251 0.10837111 -0.031622667 0.047045555
000030 aa f4 5a 3c d7 f0 ee 3d 4c e1 ca 3c c6 1a 38 3a
       0.0133639965 0.1166703 0.024765633 0.00070230325
000040 fb d2 ca bd 96 b0 8b 3d 41 54 56 bd d6 61 1a 3d
       -0.099035226 0.068207905 -0.052326445 0.03769096
000050 94 61 af bc
       -0.021408834
