models/NeuralNetwork-1_acc-58.38_loss-0.000001.pth (torch, 802127 bytes, 8 tensors)

network.0.weight f4 [512, 63]
000000 c0 a3 72 bb 2a c1 ba 3d 1a db 40 3d b6 c3 34 bc
       -0.0037023872 0.09118874 0.04708395 -0.011032989
000010 46 59 1a 3d 0c 2d 86 3e 15 b9 48 3e cf df 77 3d
       0.037682794 0.26206243 0.19601853 0.060516175
000020 f1 e1 04 3d 65 8c ef 3c d8 21 a3 3c 9e ae 1a 3e
       0.032442037 0.02924175 0.019913599 0.15105674
000030 8e 72 18 bd bb 87 e8 bd 2a 18 17 be aa 6a f2 3d
       -0.037218623 -0.113540135 -0.14755312 0.11836751
000040 31 97 0b bd 26 d6 63 3d a1 37 06 3e 11 e2 61 3e
       -0.034079734 0.05562415 0.13107158 0.22058894
000050 3b ac 39 be 10 63 bb 3d 8b d2 90 3c e7 15 8e 3d
       -0.18132107 0.09149754 0.01767852 0.06937771
000060 22 44 03 bb c6 f2 ad 3b f0 b8 bd 3d 3b 9b 60 3d
       -0.0020029624 0.005308482 0.0926379 0.05483554
000070 9e 30 a7 3d 53 35 cd bd 4f 34 4d bd e4 1b b5 bb
       0.0816357 -0.100199364 -0.050098713 -0.0055270065
000080 02 d4 8a 3d ea 0d db bd 26 2d 7d 3d 29 ef f2 bd
       0.067787185 -0.10696013 0.061810635 -0.118620224
000090 4b 0d 6d 3d 83 33 b9 bd 02 0e ef bd bb 79 14 bd
       0.057874005 -0.09043028 -0.11672594 -0.036248904
0000a0 bd 80 8d bc 87 48 7f bd ff 36 8e 3d dc e5 46 3d
       -0.017273301 -0.062325027 0.069440834 0.048559055
0000b0 ec 64 29 3c c6 86 0a be a6 b0 29 3d 5b 9a 06 be
       0.010339003 -0.13527974 0.04142823 -0.1314482
0000c0 70 0f a9 3c 7e fa 8d 3d 30 70 a7 bb cd ff fc 3d
       0.020637244 0.06932543 -0.0051098093 0.123534776
0000d0 1d 77 0c 3d b9 f1 b7 3d a2 57 c6 bd 8a 66 a3 bd
       0.034293283 0.08981652 -0.096846834 -0.07978542
0000e0 e8 8c 24 be 8b 31 51 3d 32 de 3e bd 45 4d 0a 3e
       -0.16069376 0.05107264 -0.04659862 0.13506038
0000f0 32 ce 5a bd 66 0c b4 bd a1 25 dd 3d 34 0c 21 bd
       -0.0534193 -0.08791427 0.10798193 -0.03931828
000100 a9 eb 0d bc c4 f0 ed 3d e7 ef 01 be 61 1b 39 be
       -0.008662143 0.11618188 -0.12689172 -0.1807685
000110 bf dc 8e 3d ee f4 88 3d 6b fa 84 bd 55 4c 0d bc
       0.06975698 0.06687342 -0.06493076 -0.008624156
000120 5e 78 ba 3d 54 b1 7e 3d 4a fb c0 bc 0e aa 29 bd
       0.091049895 0.062180832 -0.023557324 -0.041421942
000130 90 11 08 3e 3c 4f ba bc 40 b7 89 bd a8 ec ba bc
       0.1328795 -0.02274286 -0.06724405 -0.022817925
000140 3a fb 50 3c f7 c5 3e bd 1b d3 06 3e e5 0a 04 bc
       0.01275521 -0.046575513 0.13166468 -0.008059238
000150 d7 27 41 3d 63 a1 0e be 3d 6a d0 3d e8 d1 c3 3d
       0.047157135 -0.13928752 0.10176513 0.09561521
000160 95 2d 1d 3e 2e c3 09 3e ce 56 ce bd b3 c2 eb 3d
       0.1534942 0.13453361 -0.100751504 0.11511745
000170 14 b3 1b 3e 67 db 30 bd 25 ee be 3d b0 e3 3a 3c
       0.15205032 -0.04317799 0.09322766 0.011406824
000180 a5 e3 96 bd 3a ce ff bc 8d 7f 61 bd 8e 77 4b 3b
       -0.073676385 -0.031226266 -0.055053283 0.0031046602
000190 27 00 e4 bd e3 ff 15 3c ac 92 13 bb c8 e8 80 3d
       -0.111328416 0.009155246 -0.0022517843 0.062943995
0001a0 f5 63 1d bd 21 70 98 bd 3a 08 c5 3d 56 77 9e bd
       -0.038425405 -0.07443262 0.0962071 -0.07737605
0001b0 b2 fb e2 3d a7 33 0f 3e d2 0d 1c 3e a1 2d 06 3e
       0.11083163 0.13984548 0.15239647 0.13103344
0001c0 f8 a6 29 bd 40 a0 d5 bc 8b 99 40 3d 00 2b 9d 3d
       -0.041419 -0.02607739 0.04702143 0.07674217
0001d0 5c 7e 85 bd 53 0e 07 be 7d 2e ee bc d8 48 f6 3c
       -0.06518242 -0.13189058 -0.029074902 0.030064031
0001e0 37 05 27 3d 34 33 7f 3d 1a b7 c1 3c 0e 93 57 3d
       0.040776458 0.06230469 0.02364688 0.052630477
0001f0 9e 11 79 bd 19 2c 4a 3d 90 c8 99 bd 08 a9 10 3d
       -0.060807817 0.04935846 -0.075089574 0.03531745
000200 71 02 dc bc 6c 1f 14 3e 3f 68 00 3e 8b ac dd 3d
       -0.026856633 0.14465111 0.12539767 0.108239256
000210 27 e9 ab bd bb 87 a1 3d b7 82 92 3d 31 86 ac 3d
       -0.0839408 0.07887217 0.07153838 0.084240325
000220 5b cf 53 3d f6 05 9c 3d 1d f9 f1 bb 03 b6 21 3d
       0.05171142 0.076183245 -0.007384433 0.03948022
000230 d0 1d 4f 3d 10 29 e9 3d 92 be ce 3d f8 4e 46 bd
       0.05056554 0.11384785 0.10094942 -0.048415154
000240 15 d9 89 3d 20 7c f9 bd 0a 96 29 3e ee 02 2e 3d
       0.06730858 -0.12181878 0.16561142 0.042483263
000250 08 ab 1d be e1 a3 f3 3b 75 bb 99 3c d6 a7 1e 3d
       -0.15397274 0.0074353074 0.018766144 0.03873428
000260 2c fc a2 bd 54 03 4c 3d ff 01 14 bb 38 f9 19 3c
       -0.07958254 0.04980786 -0.0022584198 0.009397797
000270 56 f6 c5 bd 89 51 05 3d 4b 2b 23 3d 6e 12 d5 3d
       -0.096661255 0.03254846 0.03983621 0.10403906
000280 46 11 6c 3e 3b 05 14 bd 42 63 05 3e 24 72 e2 3d
       0.23053464 -0.0361378 0.13026145 0.11056927
000290 e3 1b b9 3d c6 e8 28 3e 3c af 62 3d bf e3 1e 3e
       0.09038522 0.16495046 0.055342898 0.15516566
0002a0 de 49 05 3d dc 62 43 3e bc e1 bb bd 66 a4 de bd
       0.03254115 0.1908068 -0.09173915 -0.108712
0002b0 50 85 13 3e 47 d3 14 bd b3 54 03 be fe 45 7f 3d
       0.14406323 -0.036334302 -0.12825279 0.06232261
0002c0 30 0a 7b 3d 7e fd 34 3e f4 62 5f be 38 a4 8e bd
       0.061289012 0.17674825 -0.21815091 -0.06964916
0002d0 81 e2 ca 3c 11 8a a6 bc 8b 92 d8 3d 63 00 8a 3d
       0.024766209 -0.020329507 0.10574826 0.06738355
0002e0 8c d1 fd 3d c6 e4 7b 3d 46 c1 ee bc d9 70 b3 3c
       0.123934835 0.061497472 -0.029144894 0.021904396
0002f0 a0 26 c5 3c 0e a4 42 3c 66 92 fb 3d 64 e9 9a bc
       0.02406627 0.011879934 0.12283783 -0.018910117
000300 8d 00 09 bd f7 1b 99 bc 58 12 49 bd 47 91 2a bd
       -0.03344779 -0.018690092 -0.04908976 -0.041642454
000310 66 a9 95 bc fd e6 7d bd b9 c0 00 3e 05 6e dc 3c
       -0.018269252 -0.061987866 0.12573518 0.02690793
000320 55 06 02 be f7 84 73 bd 8e 94 23 3c 55 bd c9 bc
       -0.12697728 -0.059452977 0.009984149 -0.024626413
000330 d3 c2 f3 bd f6 ce 13 bd 63 08 bb bd e3 91 32 be
       -0.11902394 -0.036086045 -0.09132459 -0.17438464
000340 da 33 0e be 5d 00 1d 3e 72 66 09 bd e3 41 a3 3d
       -0.13886967 0.1533217 -0.033544965 0.07971551
000350 8b 02 ed 3d f3 d5 00 3d fa 4f c7 3d dc 41 72 3d
       0.11572751 0.031454038 0.09732051 0.05914484
000360 92 66 0a bc 1d 3f 34 3e 70 e8 c3 bd e0 d5 b6 bd
       -0.008447306 0.17602201 -0.09565818 -0.08927512
000370 71 30 04 bd 24 e6 d7 bd 9d ca bc 3d 76 45 22 be
       -0.03227276 -0.10541943 0.09218333 -0.1584681
000380 6d 9d 98 bd 2c bc af bc dc ad 12 3e 93 68 d3 bc
       -0.074519016 -0.021452032 0.14324135 -0.0258067
000390 41 4b da bd c9 eb b8 3d b9 3a 15 bd c5 0b 1d 3e
       -0.10658885 0.090293474 -0.036432955 0.15336521
0003a0 98 0e 11 3e 71 5f 83 bd 22 2d 49 3d 11 28 98 3d
       0.14165723 -0.064146884 0.049115308 0.07429517
0003b0 fc 19 1d be 4c 99 09 be 7d 80 5b 3c 50 95 e5 bc
       -0.15341944 -0.13437384 0.013397333 -0.0280253
0003c0 7b 62 20 3e 42 48 0e bd 9e 45 9a bd 74 78 2f 3e
       0.15662567 -0.03473688 -0.0753281 0.17135793
0003d0 92 ff 93 bd a3 37 dc 3c 53 90 3a 3d ff 70 56 be
       -0.072264805 0.026881998 0.045547795 -0.20941542
0003e0 ef 8c 9b 3d 35 80 2a be cb b8 9c 3d 9a 9d 54 bd
       0.0759524 -0.1665047 0.07652434 -0.051908113
0003f0 79 7a 54 bc 06 ca 0f 3c d6 06 03 3c 0c a9 92 3d
       -0.012968653 0.0087761935 0.007997235 0.071611494

network.0.bias f4 [512]
000000 21 91 7a be a6 37 99 bd 89 a7 19 be 40 f6 2d be
       -0.24469425 -0.07481317 -0.15005316 -0.16988468
000010 9e 9a 36 bd 5a f0 5f bd de 23 d9 bd 8e 49 43 3d
       -0.04458105 -0.054672576 -0.10602544 0.04767757
000020 a6 65 8d bc b4 73 35 bd 94 bd 4b be d6 51 b7 bd
       -0.017260384 -0.044299796 -0.19896537 -0.08951156
000030 b8 85 38 be 47 a2 06 bd 05 d0 29 be ac bf 57 be
       -0.1801976 -0.032869603 -0.1658326 -0.21069211
000040 25 c6 68 be 21 aa 09 3d f5 54 f9 bd b2 3b 84 bd
       -0.22731836 0.033609513 -0.121744074 -0.064566985
000050 24 10 09 be 3b 57 29 bc a6 f4 a0 bd 73 33 b8 bd
       -0.13385063 -0.010335739 -0.07859163 -0.08994188
000060 47 09 cb 3d 68 88 7f ba 54 2f 9a bd 93 70 76 bc
       0.09913879 -0.0009747804 -0.075285584 -0.015041488
000070 2b 8c 11 be 1d 6d 13 bd f6 12 d4 bc b3 28 0b be
       -0.14213626 -0.03599273 -0.025887948 -0.13589744
000080 66 e6 ab bd f2 a4 28 be 50 77 09 be 48 c4 2e be
       -0.083935544 -0.16469172 -0.1342442 -0.17067063
000090 74 ac 48 bd c7 f7 6b bd fc 3e 3c be 4f 53 7b bc
       -0.04899259 -0.057609346 -0.18383402 -0.015339687
0000a0 9c 9e dd bc 19 4b de bb 5f f1 7a 3c cc 19 80 bd
       -0.02705317 -0.0067838547 0.015316336 -0.0625492
0000b0 61 4a 34 3c 1f 77 5d bd a5 1e 0a be 6a aa 7d bd
       0.011004061 -0.05406868 -0.13488252 -0.061930098
0000c0 04 65 8f 3d cd fc ee bd 61 4b 24 be c0 74 e7 bd
       0.07001689 -0.11669312 -0.1604438 -0.11301565
0000d0 d5 6a 4e 3c 46 56 fe bd 0b 8e 56 be aa 01 16 bd
       0.012598713 -0.12418799 -0.20952623 -0.03662268
0000e0 69 85 25 be d7 46 bd bc a7 af 4f bd dd 7b 62 3c
       -0.16164173 -0.023105068 -0.050704625 0.013823477
0000f0 4c 10 01 be 97 7a 9d bd 8b b5 66 bd 7b 66 04 be
       -0.12603873 -0.07689398 -0.056325477 -0.12929718
000100 4f f5 c7 bc f9 49 47 be ba 1f 36 3d c9 74 ad 3c
       -0.024408964 -0.19461812 0.04446385 0.021173852
000110 5f bf 8e bd ad d1 12 be 8b 93 22 be c0 55 0e bd
       -0.06970095 -0.14337797 -0.15876596 -0.034749746
000120 1e 82 ec bd c1 a5 94 bd 6e cc 63 bc 8b 3a 65 bd
       -0.115482554 -0.072581775 -0.01390372 -0.055964034
000130 62 a0 49 be fb cf dc bd e0 a2 82 be 7c 14 8d 3c
       -0.19690087 -0.107818566 -0.2551489 0.017221682
000140 7b 97 82 bb 4e 14 79 bd 0a 1f ea bd 5c b0 1c be
       -0.003985343 -0.06081038 -0.114317015 -0.15301651
000150 f2 11 9e bd 09 aa 47 be b9 de b1 bd c9 05 d4 bd
       -0.077182665 -0.19498457 -0.08685059 -0.10352666
000160 a6 c5 d7 bd 23 0b d9 bd 97 98 87 3c 0e 26 fd bd
       -0.10535745 -0.10597827 0.016552253 -0.12360774
000170 a3 79 7c 3d bf e1 3f bc dc 66 07 bd 15 22 c6 bc
       0.06163944 -0.011711537 -0.03305708 -0.024186173
000180 7b 6b 93 3d f1 b6 f5 3c 31 c0 f5 bd 5b 91 98 bd
       0.07198235 0.02999446 -0.11999548 -0.07449599
000190 18 da 79 3d de 75 c8 bc b8 66 30 be b4 83 d9 3d
       0.060999006 -0.024470266 -0.17226684 0.106208235
0001a0 e1 cf 7a be 6b 00 94 bc b7 0c 44 bc 0b ba 48 be
       -0.24493362 -0.018066606 -0.011965922 -0.1960222
0001b0 b6 73 50 be a7 ee 9b bc 7e 04 04 3c 5a 06 f5 3d
       -0.2035664 -0.019034697 0.008057712 0.11964102
0001c0 77 d8 1f 3c 87 15 d4 bd 02 04 9f bd a8 d3 2f bd
       0.009756199 -0.103556685 -0.07764436 -0.04292646
0001d0 2c 53 9e bd d9 73 d6 bd ce 1a c7 3c e5 e3 68 be
       -0.077307075 -0.10471315 0.024304774 -0.22743185
0001e0 ab 0e 89 bd 2c 50 97 3c 4a d5 f5 3c 09 9f 39 be
       -0.06692251 0.018470846 0.03000893 -0.18127073
0001f0 3a 1d d6 bd 97 c2 75 3d 7a 9f e2 3d 1b ca 0c be
       -0.10454793 0.06000003 0.11065574 -0.13748972
000200 b5 f4 9e bd fc 9a 31 be a9 c1 98 bd dc 19 5e bb
       -0.07761518 -0.17344278 -0.07458813 -0.0033889925
000210 0a 42 3e bd a7 c9 c0 bd 5d 86 e3 3b 64 e2 af 3a
       -0.0464497 -0.09413462 0.0069435076 0.001341891
000220 5c fa b4 3d 2e 21 47 be 0b c3 99 bd 7c a5 37 3b
       0.08836815 -0.19446251 -0.075079046 0.002802222
000230 cb 46 66 3c d6 8c 94 bd 76 e9 f2 bd ee 20 99 3d
       0.014054964 -0.07253425 -0.118609354 0.07476984
000240 60 68 9f bd 97 4c 09 3c 54 36 06 bd e0 57 16 be
       -0.0778358 0.008380077 -0.032766655 -0.14681959
000250 d9 22 07 bd e5 17 d6 bd 41 e1 db bd 6e 1b a2 3d
       -0.032992218 -0.10453776 -0.10736323 0.07915388
000260 71 bd 78 bc 37 ad 67 bc 6d 44 06 be ac e4 94 3c
       -0.015181885 -0.014140419 -0.1311204 0.018175445
000270 5a af 7d 3d b2 1a 53 3d c6 b7 3a be 28 b0 73 3d
       0.061934806 0.05153913 -0.18234167 0.059494168
000280 c8 3c df bd a2 fb 63 be 1d 03 92 3d cf 2c 56 be
       -0.10900265 -0.22263959 0.071295 -0.2091553
000290 f6 54 b7 3c 5d 7d e7 bd e7 bf 97 3c 44 8d ea bd
       0.02237938 -0.11303208 0.018524123 -0.114527255
0002a0 0e 8a 06 bd 50 23 23 be ba d2 b1 bd 1e 0c 57 be
       -0.032846503 -0.1593144 -0.08682771 -0.21000716
0002b0 66 3b d4 bd ae 54 03 be 65 3d 09 be 85 bd 36 bc
       -0.10362892 -0.12825271 -0.13402326 -0.011153583
0002c0 2b 58 6e 3d 30 5a b7 bd c4 67 55 be b8 c8 27 bc
       0.058189552 -0.08952749 -0.20840365 -0.010240726
0002d0 e8 44 80 bd 20 25 d3 39 ff 0c 5a be c2 9d cb bd
       -0.06263143 0.00040272716 -0.2129402 -0.09942199
0002e0 6c bf d5 bc 59 f1 8d bc 89 c7 8d bc ff 74 4e be
       -0.026092254 -0.017326998 -0.01730706 -0.20161818
0002f0 af 23 5a bd 02 a8 38 be c0 f4 35 be 72 aa cf 3d
       -0.053256687 -0.1803284 -0.17769146 0.10139932
000300 bc 03 7c bc 06 5e e1 3c 57 d4 3c 3d e0 dc 70 be
       -0.01538175 0.027510654 0.04610094 -0.23521757
000310 2d da 28 be eb 36 72 be 4e 39 eb bd da 0e 53 bd
       -0.16489477 -0.23653762 -0.114855394 -0.051527835
000320 4a 10 7c bd 50 7e 5f be 66 11 60 be dc 5f 09 be
       -0.061538972 -0.21825528 -0.21881637 -0.13415474
000330 6c 1d 9e bd 46 49 23 be b7 32 b8 3d de 65 44 bd
       -0.077204555 -0.1594592 0.08994048 -0.04794871
000340 73 11 b2 bd a6 e0 85 3c 41 d4 1e 3d 3c 43 b4 bd
       -0.086947344 0.016342472 0.03877664 -0.088018864
000350 8e 33 d3 bd e6 ed ff bc e7 a9 48 be e4 d1 2b 3d
       -0.10312568 -0.031241369 -0.19596063 0.041948214
000360 48 3d 4e 3c f6 fc 01 be cf 9b ce bd 13 29 f4 bc
       0.012587853 -0.12694153 -0.10088312 -0.029804742
000370 49 c3 47 be 90 ee b7 bd d4 40 61 be 98 a1 53 bc
       -0.19508089 -0.08981049 -0.21997386 -0.012916945
000380 5e 76 e2 bc ea 37 5d be fe 22 7a 3b 9d 3b e0 bc
       -0.027644332 -0.21603361 0.003816783 -0.027372176
000390 6c 88 10 3b 72 53 5a be b7 54 a3 bd bf 11 c2 bd
       0.002205397 -0.21320894 -0.079751424 -0.09476041
0003a0 4f 5f 45 be e9 f8 dc bd eb a9 1e bd d3 65 b1 bd
       -0.19274639 -0.10789663 -0.038736265 -0.086619996
0003b0 6e 6e ca bd 41 f7 c5 bb 32 ee a8 bd 54 79 7a bd
       -0.09884344 -0.006041438 -0.08248557 -0.061150864
0003c0 f0 3c ac bd 57 28 26 be 8e 43 3e be d8 be eb bd
       -0.084100604 -0.16226326 -0.18580458 -0.1151101
0003d0 f3 01 8b bc 3c 2c c7 bd 5f 9c 3e bd 39 44 57 be
       -0.016968703 -0.09725234 -0.046535846 -0.21022119
0003e0 81 ba f4 bd 7a 1a 7a be f6 4f 08 be 14 f3 5a bd
       -0.11949635 -0.24424163 -0.13311753 -0.053454474
0003f0 2f 9f 62 be 4d 7a 48 be 34 1b bc bd b5 92 e7 bd
       -0.22131036 -0.19577904 -0.09184876 -0.11307279

network.3.weight f4 [256, 512]
000000 4a fe 5b bd 8c a2 be bd c1 80 34 bd bb 77 e8 bc
       -0.053709306 -0.09308347 -0.0440681 -0.028377404
000010 88 87 cd bc dc d7 23 bd 13 4b 85 3d 76 41 93 bd
       -0.02508904 -0.04000078 0.0650846 -0.0719022
000020 6b 0b 46 bd 69 85 1d 3d 00 ba 35 bd 7a 78 ac bd
       -0.048350733 0.038457308 -0.044366837 -0.084214166
000030 9d 69 12 3c 6e 93 11 bd 15 4f 46 3d a6 dd 7c 3d
       0.008936313 -0.03554099 0.048415262 0.061734818
000040 84 7d 1d 3d af 00 3a 3d c8 95 8c 3c b6 76 2f 3d
       0.03844978 0.04541081 0.017161265 0.04283782
000050 80 75 25 3b a0 ca 29 3d db 25 ae 3c 86 89 28 bd
       0.0025247037 0.041453004 0.021258285 -0.041146778
000060 d6 53 47 3c 2a c2 f1 bc 83 66 2d ba 51 e3 11 bd
       0.012165984 -0.02951153 -0.00066147017 -0.035617176
000070 70 28 73 bc 31 ab 8f 3c ea e5 3f bc 4f 9b 2e 3d
       -0.014841184 0.017537685 -0.011712531 0.042628583
000080 2b 7f 49 3d bf 0b aa 3c 12 87 e6 3c b7 5c 15 bd
       0.049193542 0.020757554 0.028140578 -0.036465373
000090 da d9 4e 3b 5f 02 e5 bc 84 c7 9a 3d 7b db 15 3d
       0.0031562955 -0.027955232 0.07557586 0.036586266
0000a0 7f 47 14 bc ed 2d 12 bc 25 83 76 bc 7c 4c 86 bd
       -0.009050249 -0.008922082 -0.015045916 -0.06557557
0000b0 cf f8 9e 3c 38 a5 a0 3c a1 7f 0c bd 79 40 81 bd
       0.01940575 0.019610032 -0.034301404 -0.06311125
0000c0 7a 60 53 bc ae 66 85 3d 64 7f ec bc e3 2c 37 3d
       -0.01290142 0.06513725 -0.028869338 0.04472054
0000d0 7e be 18 bd 29 17 10 bb fc d8 5c bd 9f 70 5a bd
       -0.037291043 -0.002198646 -0.05391787 -0.05333006
0000e0 8e 5c d3 3a 86 17 7e 3d 57 e4 07 bd 09 1e b7 3c
       0.0016125606 0.062034152 -0.033176746 0.022353189
0000f0 e8 87 bc 3b 7c 31 3e 3d dd d2 8f 3d 38 a1 f3 bc
       0.005753506 0.04643391 0.07022641 -0.029739961
000100 fc 5f 42 bb 98 ff 9e 3d b4 60 d8 bb 8a 1e 03 be
       -0.0029659262 0.077635944 -0.006603325 -0.12804618
000110 53 04 ba bd 34 a2 95 ba 9d 26 81 3c 9b c7 60 bd
       -0.09082856 -0.0011416138 0.015765483 -0.05487786
000120 7e 6c 5a 3d 0c 17 08 3b 7d 97 a8 bc d2 6b 1c bd
       0.053326122 0.002076569 -0.020580048 -0.038188763
000130 fb 93 aa 3c 7e 9d 92 3c 6b fe 31 3d e5 50 48 3d
       0.020822516 0.017897364 0.043455523 0.048905272
000140 64 f5 a9 3c 3c 57 03 bc cb 58 4a bb d3 e1 b7 3c
       0.020746894 -0.008016404 -0.0030875679 0.022446549
000150 0f f8 b4 bc b0 7c 28 3d a1 33 0d bd 2b 0b 1e 3d
       -0.02209094 0.041134536 -0.034473065 0.03858487
000160 1e 91 a7 3d a2 64 4b 3d d2 ff e5 bc 09 97 39 39
       0.08181976 0.049656518 -0.028076086 0.0001769924
000170 57 5b 78 bc b4 64 c0 bd 51 b5 1e be b2 be c9 3d
       -0.015158496 -0.093942076 -0.15498854 0.09850825
000180 0e 50 94 3c fa 5b 3b bd d1 9f 80 3c ee 50 90 3d
       0.01810458 -0.045742013 0.015701206 0.07046686
000190 4e 87 3a bd 34 2c 46 3d ea 71 04 be 8e 12 e5 bc
       -0.045539193 0.048382 -0.1293408 -0.02796295
0001a0 3f 58 1f 3d 62 5b 73 bd 00 f8 24 3c 8c c5 54 3d
       0.038902517 -0.05941332 0.010068893 0.051946208
0001b0 d7 29 a4 3d 01 05 0d bd 0d 99 98 bd 27 fd bf bd
       0.08015793 -0.0344286 -0.07451067 -0.09374457
0001c0 d4 44 11 3c 93 23 a8 bb 67 1c 0b be 1f e8 fb bd
       0.008866508 -0.005131194 -0.13585053 -0.12300133
0001d0 ef f2 e6 3c 63 0c 89 3c 8f a9 06 3d a2 0e 0a 3c
       0.028192012 0.01672954 0.032876547 0.00842634
0001e0 ca a3 92 3d b7 e7 02 3c 77 4a 80 bc 6b a9 24 3d
       0.071601465 0.007989815 -0.015660508 0.040200632
0001f0 74 89 61 bd b1 ba 5e bc 64 4d 0f bd 14 80 42 bc
       -0.055062726 -0.013594315 -0.034985915 -0.0118713565
000200 14 c0 17 3d d0 cf 25 3d 41 76 9e 3a 7f 54 ca 3c
       0.037048414 0.04048139 0.0012089686 0.024698494
000210 fd 3c b0 3d 67 26 0d bd 41 a8 6f 3d a0 33 b8 bd
       0.086053826 -0.03446045 0.05851007 -0.08994222
000220 fe 13 6c 3d ae 2e 22 bd ab 06 13 bd 94 38 8b ba
       0.057636254 -0.0395953 -0.03589503 -0.001062172
000230 e1 33 5a bd 1a 55 f7 3c 98 91 00 bd 9a 70 23 bd
       -0.05327213 0.030191947 -0.03138885 -0.039902307
000240 93 27 dc bc fa 84 db 3b d0 5d 04 3d e1 09 26 3d
       -0.02687434 0.0066992017 0.03231603 0.040536765
000250 5b e8 01 3d d6 12 d9 bb 3e 69 30 bd 9b ab b8 bd
       0.031715732 -0.00662456 -0.043069117 -0.09017106
000260 eb dc 4d 3d 6b 50 c1 3c 0d 52 48 3d 23 fb 0d be
       0.050259512 0.023597917 0.048906375 -0.13865332
000270 90 a2 04 3d 54 ec 0b be 44 40 8c 3c 88 0e b8 3c
       0.032381594 -0.13664371 0.017120488 0.022467867
000280 94 03 3c 3c 5c f3 2f bb 4d 3d be bd 9f e8 ec 3c
       0.0114754625 -0.0026847934 -0.09289036 0.028919516
000290 e3 b4 06 3c f0 56 05 bd f1 b2 0f bd 7f 9a d8 3c
       0.008221838 -0.032553613 -0.03508276 0.026440857
0002a0 f8 0c 0d 3c 3d b9 22 bd ed d8 bc bd 2c 65 a8 bd
       0.008609049 -0.03972744 -0.09221063 -0.08222422
0002b0 98 fa 07 3d 8e 5a 3f bc e0 86 0b 3d 9f c2 90 bd
       0.03319797 -0.011679305 0.034064174 -0.07068371
0002c0 f9 da a0 3c c9 8a f3 bc d3 ea 6d 3d 90 c4 5a bd
       0.019635664 -0.029729264 0.058085274 -0.053410113
0002d0 21 cc fe 3c 23 49 83 3c 3b 29 e8 bb 68 63 71 3c
       0.031103196 0.016026085 -0.007084993 0.014733173
0002e0 87 ec 5a bd 97 32 8c bc 9b e5 3b 3d c7 a7 32 3d
       -0.053448226 -0.017113967 0.045873266 0.043617036
0002f0 aa 3a 8d 3d 08 e2 08 3d a2 70 f4 bc 46 e6 04 3d
       0.06895955 0.033418685 -0.029838864 0.03244617
000300 c8 1b 99 bd 89 53 6a bc 57 1e 03 3d b4 ef e1 bb
       -0.07476002 -0.014302143 0.032011356 -0.00689503
000310 5a 82 6a bd 3c 2b 08 bd 5b ee 88 bc eb 76 93 3d
       -0.05725322 -0.033244357 -0.01671522 0.07200416
000320 cf dd 50 bd 50 c5 28 3d d0 49 71 3d 91 43 b6 bc
       -0.050992783 0.041203797 0.058908284 -0.022249015
000330 fa 8c 69 3d 5c d3 84 bd 20 f1 22 3d de db 5b bc
       0.05701921 -0.06485626 0.039780736 -0.01341912
000340 34 6f 24 bd 21 1c 12 3d 2e dd 3a bd 48 ac 91 bc
       -0.040145114 0.035671357 -0.04562109 -0.017782345
000350 01 e9 b3 3c 08 93 18 bd 60 9b b7 3c d5 78 ba 3d
       0.02196169 -0.037249595 0.022412956 0.09105078
000360 07 63 b7 bd 21 48 29 bd 07 4c c8 bc 4b fa 16 3c
       -0.08954435 -0.041328553 -0.024450315 0.009214948
000370 71 6a 40 3d 93 d9 06 bd da 30 28 3a b7 59 30 bd
       0.04697651 -0.03292234 0.0006415971 -0.04305431
000380 be 6a 03 3d 0d 1b b4 3c 60 b5 6e bc d0 74 13 3c
       0.03208422 0.021985555 -0.01456961 0.009000018
000390 b6 cc 8c bd 91 a9 6e 3c 4c e1 ae bd 8a 09 44 3d
       -0.06874983 0.014566795 -0.08539066 0.04786066
0003a0 6d 5f 51 3d 1c 74 37 bd 27 d6 05 3d ad cf 0d bd
       0.051116396 -0.044788465 0.032674935 -0.034621883
0003b0 d1 fe 71 3d cc 77 aa bc f9 fd 9b 3c ef 72 db ba
       0.059080902 -0.020809077 0.019042002 -0.0016742627
0003c0 2b f9 ff bb 96 9b 1c 3c dc 68 19 3c b2 69 3f bd
       -0.0078116856 0.009558579 0.009363379 -0.04673166
0003d0 f8 2c 20 3d 48 b1 3c 3d 2e 22 62 bc 87 18 27 38
       0.039105386 0.046067506 -0.013802094 3.9838746e-05
0003e0 72 3c ea 3b 34 51 30 3c ea 44 34 bd 62 8b 8f 3c
       0.007148319 0.010761548 -0.044011034 0.017522518
0003f0 f7 29 a2 3d e3 5a d0 3c a9 2a 13 3d 6b f8 27 bc
       0.079181604 0.025433963 0.035929356 -0.010252099

network.3.bias f4 [256]
000000 2e 68 5d bd 67 35 c2 bb aa 58 84 bc 5e 6b 8a bd
       -0.05405443 -0.005926776 -0.01615556 -0.0675876
000010 66 f0 4a bd 15 2f 3a bd bd 9d 4c 3d 91 95 45 3c
       -0.049545668 -0.045455057 0.04995512 0.012059585
000020 4d 14 6a bc b1 e5 9a 3d 77 94 5f 3c ae 4a 99 3c
       -0.014287067 0.075633414 0.013646237 0.018712368
000030 e6 b1 2e 3d 9e 39 8b 3c 4a 6f 8e bd 76 47 7f bd
       0.042650126 0.016995247 -0.069548205 -0.06232401
000040 5c 80 0e 3d 7f b7 74 bd 7c dd 39 3c 04 fe 2e bd
       0.03479038 -0.059745308 0.01134431 -0.042722717
000050 d5 0e 1a 3b f9 0f 83 3d 5d 48 83 bc f8 27 63 3d
       0.0023507376 0.06399531 -0.016025716 0.05545804
000060 d7 b9 c6 3c f4 1b a4 3c d0 1d 4b 3c f8 71 f6 3c
       0.024258537 0.02003286 0.012397245 0.030083641
000070 ba 90 79 bc cd 13 dd 3b 9a 2b 59 bc 72 4d c2 3d
       -0.015232259 0.006746745 -0.013255024 0.09487428
000080 c6 55 00 bd 50 1d b8 3c 18 cb 12 3b cd db 06 3d
       -0.0313318 0.022474915 0.0022398885 0.032924462
000090 44 b6 a5 bc c3 dc 8d bd 6e e3 18 bc 9f d4 b6 3c
       -0.020228513 -0.069268726 -0.009331567 0.022318183
0000a0 d6 22 16 bd e3 cc 33 3d 64 8f 3c bd 27 b2 01 bc
       -0.036654316 0.043896567 -0.046035185 -0.00791601
0000b0 b4 a8 02 3d 3b 3d 91 3d 3d cc 53 3d 74 7d 47 3d
       0.03189917 0.07091757 0.05170845 0.048703626
0000c0 76 dc 4a 3d ae 42 29 3b f6 dd 9c 3d 23 f1 76 3d
       0.049526654 0.0025827098 0.07659523 0.06028856
0000d0 02 46 36 3c 8d f8 6d 3d 97 53 91 bc 14 16 18 3d
       0.01112509 0.058098365 -0.017740054 0.03713043
0000e0 bd 55 6c bb 1d b8 82 3c 31 16 5c 39 c4 87 75 3a
       -0.0036061846 0.015956933 0.00020989102 0.0009366239
0000f0 6e 93 75 bb 00 08 0d bd 4b 24 54 3c bc 73 89 3c
       -0.0037471908 -0.034431458 0.012948106 0.01677882
000100 af 1d 5e bc 33 30 2d 3d 0d 7b f4 3c 72 69 20 bd
       -0.013556882 0.042282294 0.029843831 -0.03916306
000110 47 3f 3f 3c 8f 14 52 3d f7 06 5a bc f2 69 2b bb
       0.011672801 0.051289137 -0.013307325 -0.0026155678
000120 10 33 0a 3d 54 9a b2 bc fd 18 51 bc 53 3a db 3b
       0.033740103 -0.021802105 -0.012762305 0.0066903024
000130 bc 98 22 3c 0d a9 2c 3c fc 74 1d 3d ee 0b 28 bd
       0.00992411 0.010538352 0.038441643 -0.041027002
000140 08 f5 38 bd 99 c0 df 3c de 14 d1 3c 7f 4c 06 bd
       -0.045155555 0.027313517 0.025522646 -0.032787796
000150 70 1a 8a bb 1e e8 9f 3b 05 f5 4c 3b 30 be 7a 3b
       -0.0042145774 0.0048799654 0.0031273973 0.0038260333
000160 6a 6f 9d bc 4e 0c 85 bd f0 35 b1 bc 44 13 0f 3d
       -0.019218165 -0.064964876 -0.021632165 0.034930483
000170 f5 78 c8 3c 6e 6c 68 bc 61 65 06 bd da a5 26 3d
       0.02447174 -0.014186008 -0.032811526 0.040685512
000180 6e 75 33 3c 84 33 34 bb fd b5 56 3c 05 da 5c 3b
       0.01095329 -0.0027496526 0.013104913 0.0033699286
000190 d7 5b 16 3d 70 af 88 3d c0 3c 40 bd f1 c0 b8 ba
       0.03670868 0.06674087 -0.046932936 -0.0014095587
0001a0 48 00 a1 bc c1 8a b6 3b 68 64 6b 3d c1 08 cf bc
       -0.019653454 0.00557074 0.0574688 -0.025272729
0001b0 ac 4c 35 3c a4 f2 40 bc 59 b0 98 3c e0 ee 21 3b
       0.011065643 -0.0117766 0.018638777 0.002470903
0001c0 92 e3 85 3d 8c b7 0c bc ad 80 af 3d e8 7b 51 3d
       0.06537546 -0.008588683 0.08569465 0.051143557
0001d0 f6 00 bf bc 9f 58 64 bc 4a a2 a1 3d 2e 90 ed 3b
       -0.023315888 -0.013937145 0.07892282 0.0072498536
0001e0 53 72 27 3d 77 7b 53 3d 7e 44 d3 3c 2c 3f 9d bc
       0.040880512 0.051631417 0.025789496 -0.019195162
0001f0 6d f6 98 3c 0a 6d 49 3d 6d 3a 5e 3d 76 ec 4e bd
       0.018672192 0.049176253 0.054254938 -0.050518475
000200 a6 38 1c 3c fb df 9f bb ee 46 04 bd a0 65 e4 3b
       0.00953499 -0.0048789955 -0.032294206 0.0069701225
000210 86 1f 0c 3d 54 af 9a 3c 7f 5e 05 bd 25 1c ef 3c
       0.03420975 0.018882431 -0.03256082 0.029188225
000220 07 75 2d 3d 32 1d fe bc 3f e1 38 3d e7 1a 83 3c
       0.042347934 -0.03101978 0.045136686 0.016004039
000230 46 c4 57 3c 0e ef 47 3b 57 95 eb bb b5 27 78 3c
       0.013169354 0.0030507478 -0.0071894336 0.015146186
000240 75 d0 25 3d 93 53 02 bd 02 8d b8 3c d1 91 7b 3d
       0.040482003 -0.031817984 0.022528175 0.06141836
000250 9d 6c 12 bc 23 bd d2 3d 08 73 5f 3c f1 2b 60 bc
       -0.008937028 0.10289981 0.013638265 -0.013682351
000260 02 b7 4a 3d 03 a3 c4 3c c8 c4 cf 3c ad 4c 04 bd
       0.049490936 0.024003511 0.025362387 -0.032299686
000270 dc 47 33 bd 8f 3f a9 bc 5a ec d3 ba 5e be 70 3c
       -0.043769702 -0.02066019 -0.0016168461 0.014693825
000280 76 61 19 bc 65 36 1f 3d 3f 5f 22 bd a5 be 85 3b
       -0.009361615 0.038870234 -0.039641615 0.0040815645
000290 03 18 f5 3c c5 64 54 3d 7b 17 3b 3d b0 ff 8d 3d
       0.029918676 0.051853914 0.04567669 0.06933534
0002a0 03 bc 5f 3c 78 77 0d bd ca 1a 88 3d 4a 5c 17 3c
       0.013655665 -0.034537762 0.066457346 0.009238312
0002b0 99 01 1d 3d 1c 7c a1 ba fe e5 a8 3b 2e 09 85 bc
       0.0383316 -0.0012320313 0.0051543703 -0.016239729
0002c0 20 58 db bb 2c e2 7e bc b2 85 0a bb 9a 0f 5b 3d
       -0.006693855 -0.015556853 -0.0021136818 0.053481676
0002d0 6f ef a8 bc 2c d4 12 bd 64 94 9f 3d 1b 77 45 3b
       -0.020621983 -0.035846874 0.07791975 0.0030130807
0002e0 65 6b 18 3d 36 89 1b 3d b0 cb a6 bd 7e 3f ce bb
       0.037211794 0.03797265 -0.08144319 -0.00629419
0002f0 07 38 fd bc 5c 1e 45 bc af c7 12 3d 25 42 6b bd
       -0.030910505 -0.012031164 0.035834964 -0.057436127
000300 2c bd 2e 3d 77 ee 22 bc d5 6e b4 3b 3c 1f 88 3c
       0.042660877 -0.00994455 0.0055063763 0.016616456
000310 2d 2a 1c 3d b1 e5 9f 3d b7 52 cc bc 68 58 19 3d
       0.03812616 0.07807482 -0.024941785 0.037437826
000320 7e 2a db bc 2b 51 4b 3c fc e4 71 bd 56 d7 c3 bd
       -0.02675366 0.012409489 -0.059056267 -0.095625564
000330 a6 f5 8f 3d 99 27 a1 3c 9d f5 86 bd fd 68 f8 bc
       0.070292756 0.019672202 -0.06589816 -0.0303235
000340 39 86 a2 bc ef 61 8b 3d 6d 92 bc bc df 3b 45 3d
       -0.019839393 0.06805789 -0.02301904 0.0481528
000350 ce ce 84 bc 50 4a 97 3c 16 40 18 3c cb 75 c2 3c
       -0.016211893 0.018468052 0.009292623 0.023737809
000360 34 25 38 bd 92 06 40 3b ba 10 b9 bb 7a 59 d2 3c
       -0.044957355 0.0029300791 -0.005647746 0.025677431
000370 6a 7c 36 bd 6f ec b6 3c 02 2d 35 3b 6f f9 69 bb
       -0.044552244 0.022329537 0.0027645235 -0.0035701653
000380 7e ce ca bb 28 0b 97 bc 18 78 34 3a 02 c3 0e 3d
       -0.0061891666 -0.018437937 0.00068843504 0.034853943
000390 1e a9 83 3d 3e c2 2f 3d 0a 8d da 3a eb 0a fe 3b
       0.06428741 0.042909853 0.0016674113 0.0077527664
0003a0 f9 4a 2a 3d be 2e 76 bd 0a d3 22 3d 87 0a 71 bc
       0.041575406 -0.06010317 0.039752044 -0.014711983
0003b0 29 9a 00 bd 0d db 18 3d c0 f8 77 bc 64 6d 24 3d
       -0.03139702 0.037318278 -0.01513499 0.040143386
0003c0 dc a7 a5 bc a3 3f 87 3d 39 25 b7 3d e6 46 54 3b
       -0.020221643 0.066039346 0.089426465 0.0032390892
0003d0 24 66 ab bc f2 12 01 3d de 14 07 3d a9 38 32 3d
       -0.020922728 0.03151221 0.032978885 0.043511067
0003e0 8f fe b3 bc 47 94 cd bd 18 dd 85 3d 6a 63 66 3d
       -0.021971969 -0.10038047 0.06536311 0.056247152
0003f0 71 a9 0b 3d 8a 5c 00 3c 99 b6 b1 3a c7 4b ec 3c
       0.03409714 0.007834563 0.0013558447 0.028844727

network.6.weight f4 [128, 256]
000000 af d4 c9 bb b4 55 83 3c 33 7b eb bc 8c 17 40 3c
       -0.006159387 0.016032077 -0.02874527 0.011724364
000010 c2 d1 00 3e fd 86 a7 bc a7 5f 05 bd 05 23 fc 3c
       0.12580016 -0.02045011 -0.032561924 0.030778417
000020 20 2d 63 bd 86 dd 25 3e 76 94 dc 3c 50 7e a3 bd
       -0.055462956 0.16197786 0.02692626 -0.079830766
000030 88 10 07 bc b0 69 25 bd 91 94 54 3d cc e0 cf 3c
       -0.008243687 -0.040383995 0.051899496 0.025375746
000040 d2 70 74 3d 1c ef 18 b9 7e 12 82 3d 2f 14 f0 3c
       0.059677906 -0.00014584925 0.06351183 0.0293065
000050 14 4b 63 bc 1c bf 87 3d 1c ef 41 3c 46 85 39 3d
       -0.0138728805 0.06628248 0.011836793 0.045293115
000060 3b b7 9e bb 57 84 a9 bd 5c 1c c7 3d 8c 02 85 3c
       -0.00484362 -0.08277195 0.09722206 0.016236566
000070 76 7a 8b 3c 54 49 89 3d 2b 98 78 bc 72 e1 5e 3d
       0.017026167 0.06703439 -0.015172998 0.05441422
000080 35 3d 53 bd 6d 71 cc bc 11 1d 5f 3d f8 84 72 bd
       -0.051572043 -0.02495643 0.05447108 -0.05920884
000090 d0 28 68 3d c4 84 df bd 8c 33 16 3d f8 73 34 bd
       0.056679547 -0.10913995 0.036670253 -0.04405591
0000a0 94 f5 18 bd dc 24 9d bd 82 bb 67 bd 60 0d 31 bd
       -0.037343577 -0.07673046 -0.056575306 -0.043225646
0000b0 22 96 08 ba 27 7e 49 bd 4c fd e5 3c d0 47 0e 3c
       -0.000521036 -0.049192574 0.028074883 0.008684114
0000c0 2d d9 66 bc d9 e8 eb bb f3 37 5c 3d 17 52 f5 3d
       -0.014089865 -0.0071993885 0.053764295 0.11978548
0000d0 85 33 eb 3c ef 3c 01 bc 0e 1e 97 bb 3b f9 92 3c
       0.02871109 -0.007888063 -0.004611737 0.017941108
0000e0 4a 1b ab 3c 53 85 44 bd af fd a3 3c 66 11 02 be
       0.020887036 -0.04797871 0.020018427 -0.1270195
0000f0 28 bb 13 bd 73 e1 bd bc 2b 9d 2f bb 2b c1 5b bb
       -0.036067158 -0.023178792 -0.002679656 -0.0033531885
000100 63 bb 47 3d a1 c8 c4 bd a9 10 8d bd 82 90 91 bd
       0.04876269 -0.096085794 -0.06887943 -0.07107641
000110 7d f7 44 bd a5 ed de 3c 6b cc 44 3c 43 b6 19 3d
       -0.048087586 0.027212927 0.012011628 0.037527334
000120 b4 48 22 3b be 3a 11 bd b9 d2 94 bd ea 19 05 bd
       0.0024762573 -0.03545641 -0.07266755 -0.032495417
000130 37 37 fd bd a9 44 d6 3d 3d ba 0e 3d 7a 4c 40 3d
       -0.12364047 0.10462315 0.03484558 0.046947934
000140 33 e4 1c bd 83 87 07 bd 3c bf 51 3d 72 bd 17 3e
       -0.038303565 -0.03308822 0.051207766 0.14818361
000150 3a f4 15 3c 56 4e 70 bd d5 84 a6 bd 49 ca 27 3d
       0.009152466 -0.058668457 -0.081308044 0.0409644
000160 29 32 ad 3d a4 66 08 3e 8e 36 d2 3d 80 8d 4c bc
       0.08456833 0.13320404 0.10264312 -0.012484908
000170 50 95 87 bd 94 79 1b 3d 79 83 89 bd cf 24 17 3e
       -0.06620276 0.037957743 -0.067145295 0.14760135
000180 b4 f9 7b bd 00 fa 72 bd 33 5b 85 bd e0 ea b2 bd
       -0.061517432 -0.05932045 -0.065115355 -0.08736205
000190 a6 ca 93 bd 03 c4 1c bd 69 21 7a bd 56 17 78 3c
       -0.072163865 -0.03827287 -0.06106702 0.0151422825
0001a0 af 5a 77 3d 95 b0 e3 bc ee 07 20 ba 06 94 c1 3d
       0.060389217 -0.027794162 -0.0006104697 0.09452061
0001b0 6b f5 a2 3d a3 2f 31 be 00 31 35 3d 72 1a 9d 3c
       0.07956966 -0.17303328 0.044236183 0.01917765
0001c0 e2 67 1f 3e 0e aa 1b 3d d9 02 86 3c 4b f0 ff 3c
       0.15566972 0.038003974 0.01635878 0.03124251
0001d0 9c c6 9e 3c ac a3 e1 3c 48 d9 ec 3c f8 d7 0b 3e
       0.019381814 0.027543865 0.028912202 0.13656604
0001e0 7a f7 1f 3d f4 a3 fe bc a4 0e 44 bd 0b f4 ed 3c
       0.03905437 -0.031084038 -0.047865525 0.029047033
0001f0 1f 86 b9 3d c4 7f 25 bd fc a8 3e 3d 24 54 9b 3d
       0.09058785 -0.04040505 0.046547875 0.07584408
000200 a9 02 c8 3b 5f 41 8d 3c 6c 6b 59 bd 26 01 71 ba
       0.0061038327 0.017243085 -0.05308096 -0.00091935915
000210 07 6d be 3c aa c2 c8 3d b5 d3 53 bd 29 25 18 3e
       0.023245348 0.09802754 -0.05171557 0.14857925
000220 b4 74 5c bc de 62 8a bd 7b 9a d1 bc eb bf b2 3c
       -0.013455559 -0.06757139 -0.025586357 0.02182003
000230 69 bd 42 3d bf a2 4b 3d 5b 1b f8 bc 99 8c 4a bd
       0.047543917 0.049715754 -0.030286482 -0.04945049
000240 f2 21 b9 3d 90 f6 49 3d bc 97 af bc 5b 30 16 3e
       0.09039678 0.049307406 -0.021434657 0.14666884
000250 9e db 2a 3d 87 ca 2f 3d ea 57 05 3e a4 84 89 3d
       0.04171335 0.042917755 0.13021818 0.06714752
000260 5c 4d ce 3d aa b9 13 bd 9c b4 28 bb 0e 5b de 3c
       0.10073349 -0.036065735 -0.0025742417 0.027143028
000270 c8 ac 01 be bf 5f 69 bb bc 9c ba bd 94 55 8a 3d
       -0.12663567 -0.0035610048 -0.09111926 0.06754604
000280 c9 4a 50 3d 53 4a 1d 3e 83 72 b6 3c 8c 78 b7 3b
       0.05085257 0.15360384 0.0222714 0.005599087
000290 c0 a8 a6 3d 65 00 0d 3d de f6 a9 3d 70 c1 7f 3d
       0.08137655 0.034424204 0.08299039 0.062440336
0002a0 2c 92 18 bc f7 a0 20 bb 08 b8 f2 3d 11 f5 f1 bc
       -0.009312194 -0.0024510005 0.118515074 -0.029535802
0002b0 f9 a7 eb 3c 55 3a 75 3d 40 57 69 3d e5 87 20 bc
       0.028766619 0.059870083 0.056967974 -0.009798025
0002c0 85 0b 9a 3d 0c bd 05 bd 92 58 2a bd 7c f7 ac bc
       0.075217284 -0.032650992 -0.041588373 -0.021114103
0002d0 af b7 7f bd f3 38 a5 3d 3e ec 87 3c a1 6d e6 bc
       -0.062431034 0.08067503 0.016592141 -0.028128447
0002e0 06 e6 d3 3c 85 92 a5 bd a7 cb 21 be e9 be 9c 3d
       0.02586652 -0.08084587 -0.15800343 0.07653601
0002f0 85 77 ae 3c ac 55 a8 bd db bf 83 3d ae 74 97 bc
       0.021297226 -0.082194656 0.06433078 -0.018488254
000300 38 b4 6d 3d b9 d7 46 3e 1b 26 80 3a 09 cb 95 3c
       0.058033198 0.19418229 0.0009776981 0.018285291
000310 a2 eb 14 3d 8f ed 75 3d 74 8d 2a 3c c0 4f 71 bd
       0.03635753 0.060041007 0.010409702 -0.058913946
000320 40 13 07 3d 4e 98 41 bd b1 e0 0c 3d 5d db 4d bd
       0.032977343 -0.04726439 0.03439397 -0.05025803
000330 21 a0 83 3d 2f bc 5c 3d 34 8d a2 bd da 1e b7 3d
       0.064270265 0.053890403 -0.079370886 0.08941431
000340 92 f2 e3 3c 68 ca 04 3d c7 cd c0 bd 00 df 32 3d
       0.027825627 0.032419592 -0.09414249 0.0436697
000350 5b 51 02 bd b2 0a cc bc b4 52 cd bd e8 96 8f 3d
       -0.031815868 -0.024907444 -0.1002554 0.07011205
000360 c3 c1 0e bd 48 dc bc 3d fe 99 48 bb 38 ff 54 3d
       -0.034852754 0.09221703 -0.0030609365 0.052001208
000370 c3 de 72 bd 91 64 9c bd f8 cb db 3b b7 06 c1 3d
       -0.059294473 -0.07636369 0.0067076646 0.09425109
000380 48 69 9f 3d b1 e2 f6 3c d8 28 74 3d 42 cb d7 3d
       0.07783753 0.030137392 0.059609264 0.10536815
000390 49 8b 09 3d fb 3f 7d 3d 95 fe 5b bd b2 a6 05 bd
       0.0335801 0.061828595 -0.053709585 -0.032629676
0003a0 09 3d 0e bd f6 a5 5a 3d 26 af d4 3d 78 6f 83 bc
       -0.034726176 0.05338093 0.103849694 -0.016044363
0003b0 cb 7f a2 3c 6e 6b 38 bc 41 0a 08 be d1 e4 43 bd
       0.019836327 -0.011256082 -0.13285162 -0.04782564
0003c0 0d e0 f9 3c 2b 59 d9 bc 41 1b 08 bd ff 08 e1 3c
       0.030502344 -0.026531776 -0.033229116 0.02747011
0003d0 84 84 bc bb 41 1c 19 bd d5 25 6b bd de b0 13 3c
       -0.005753102 -0.03738046 -0.057409126 0.009014336
0003e0 d5 81 e7 3d 7d ba 23 bd 72 d0 1e 3d c6 d8 86 3d
       0.1130406 -0.03997277 0.038773008 0.06584315
0003f0 99 89 dd bd 48 9e 9e 3d 5c 94 3b be 12 69 44 3d
       -0.1081726 0.077450335 -0.18318313 0.047951765

network.6.bias f4 [128]
000000 fe 17 69 3c 03 c8 29 bd 93 0d 4c 3d e3 1e 38 3d
       0.014226912 -0.04145051 0.049817633 0.04495133
000010 c7 de 9b bd 49 f2 ca 3d 46 06 9f 3c 7c 4f 83 3d
       -0.07610851 0.099094935 0.019412171 0.06411645
000020 9f eb e2 3a b8 17 82 3c b7 f8 46 bc c9 34 b0 3d
       0.0017312652 0.01588045 -0.012144259 0.08603818
000030 63 ea 80 3b ce 42 ad 3d 06 26 a5 bc 4d 00 e3 bc
       0.003934191 0.084600076 -0.020159733 -0.027710104
000040 33 f0 fd 3d 52 1b d6 3d d6 ca ed 3d a2 77 8c 3c
       0.1239933 0.1045443 0.116109535 0.01714689
000050 53 d7 ad bd 18 76 7a 3b d7 ee bf 3d 95 14 6f 3d
       -0.084883355 0.0038217362 0.09371727 0.058369238
000060 40 49 24 3d 00 0e 96 3d 1c 7d cf 3d 6a c5 1f 3c
       0.04010892 0.07326889 0.101312846 0.009751657
000070 11 c6 36 3d d3 1f fe 3c 57 36 04 3d 25 03 80 3d
       0.044622485 0.031021034 0.032278385 0.062506
000080 90 26 dc 3c d1 80 ea 3d 49 cd b0 3c a9 58 d0 3c
       0.026873857 0.11450351 0.021582263 0.025432901
000090 95 33 79 3d 84 14 3c 3c 88 85 85 3d d5 9e b0 3c
       0.060840208 0.011479501 0.0651961 0.021560112
0000a0 f9 ef 4d 3c d4 e8 2a 3d e1 81 bb 3d c0 b4 8a 3c
       0.012569421 0.04172595 0.09155632 0.016931891
0000b0 84 aa 5b 3c c5 a4 c1 bc d0 0f 96 3b 77 db af bb
       0.013407353 -0.023638139 0.0045795217 -0.0053667384
0000c0 e3 6e 5b bb c6 35 ca bc e9 0c a0 3d e2 9d 49 bd
       -0.0033482842 -0.024683844 0.078149624 -0.049222834
0000d0 18 b9 86 bc a5 42 9f 3c f4 d8 0e 3d a4 dd 8e 3c
       -0.016445681 0.019440958 0.03487487 0.01743967
0000e0 b0 60 95 bc 4b 90 df bc 55 60 dd 3c 2f c1 5b bc
       -0.01823458 -0.027290484 0.027023474 -0.013412758
0000f0 3f b4 49 3d 39 74 b7 3d 45 4a 16 3b 7b ba 0a bb
       0.04924416 0.089577146 0.0022932452 -0.002116828
000100 bf f6 bb 3d 19 ed d7 bc ab 97 91 3d f7 82 61 3c
       0.091779225 -0.026358174 0.071090065 0.013764135
000110 4b e5 cc 3c eb 02 73 bc 8f 56 f4 3b ef 56 67 bc
       0.02501168 -0.014832239 0.0074566077 -0.014119848
000120 41 ce 68 bc f4 62 30 bd 4d 78 38 3d cb e4 b4 bb
       -0.014209331 -0.04306312 0.045036603 -0.0055204383
000130 29 a6 80 bd af bc 91 3c 81 81 1e bc ed f9 b7 3d
       -0.062816925 0.017790167 -0.009674431 0.089832164
000140 52 24 9f bc 17 2f 5c 3c 1e 2c a6 3c 1a 8f 46 bc
       -0.019426499 0.0134389615 0.020284709 -0.012119079
000150 78 d4 8d 3d 9f 1a e0 3c 84 ca 7e 3c ca 4f ff bc
       0.06925291 0.027356444 0.015551213 -0.031165976
000160 42 46 de 3c b8 79 a9 3d 79 9f a7 3d c6 30 d1 3d
       0.02713311 0.08275169 0.08184714 0.10214381
000170 59 a8 5d 3d c7 b3 fd 3d 1c 2b 45 bd 75 a2 df 3b
       0.054115627 0.123878054 -0.048136815 0.0068247863
000180 08 15 06 3d 2c 13 97 3d a8 81 84 3b 21 4f a8 3d
       0.0327349 0.073767036 0.0040437765 0.08218218
000190 83 01 96 3c 9c ea 5e bd c6 c2 3d 3d f6 67 47 3c
       0.018311268 -0.05442296 0.04632833 0.012170782
0001a0 f2 08 12 3d dd 34 bc bb 46 00 34 3d e1 9f 01 bd
       0.035653062 -0.0057436065 0.043945573 -0.031646613
0001b0 cf 2f a2 bb bb 6e da bb 66 a6 8a 3c d0 82 70 3c
       -0.004949547 -0.006666032 0.016925048 0.014679626
0001c0 b8 fe b7 3c 44 bc 6e bd 86 5f 87 3d ba 51 3c 3d
       0.022460327 -0.058285013 0.066100165 0.045976378
0001d0 b3 cd 91 bd d4 1b c2 ba ae a2 cf bd 5f 05 cc bd
       -0.07119312 -0.0014809319 -0.101384506 -0.09961962
0001e0 73 d0 28 3c c1 56 53 3d 93 33 81 3c 26 8a e6 3a
       0.010303604 0.051596407 0.015771663 0.0017588779
0001f0 2f 4b bf 3d ec ed 01 bd 64 38 2b bb b9 1a 6d 3d
       0.09340512 -0.03172104 -0.002612614 0.057886813

network.9.weight f4 [21, 128]
000000 78 42 cc 3d f5 b4 ff 3d c5 1c 9f bc a0 95 5a 3d
       0.099736154 0.12485687 -0.019422898 0.05336535
000010 e0 ab 0a 3d 15 99 58 bd cc 20 d4 3d 1c 89 3c bc
       0.03385532 -0.052880365 0.10357818 -0.011507299
000020 c2 b5 5b be 7b 98 e7 bb ad 2a a1 3d 13 a4 80 be
       -0.21456054 -0.0070677376 0.07869468 -0.2512518
000030 1f 4f 39 be 96 65 2d 3d 36 7a ca 3c 53 9c 0f 3e
       -0.18096589 0.042333208 0.024716478 0.14024477
000040 5f 0f 3b bd 5d a2 c6 3d 9d 58 18 be 69 f6 f4 bd
       -0.045668956 0.09698937 -0.14877553 -0.119610615
000050 2d 93 49 3d b0 2a c6 3d 8d 7e 58 3c 83 e7 42 be
       0.049212623 0.09676111 0.013213766 -0.19033627
000060 35 ea 89 3d 76 dc 18 be 9e 87 d7 3d 9e eb 3d be
       0.067341246 -0.14927849 0.10523914 -0.18546912
000070 27 74 3e be 03 c8 0c be 7c 0b 73 be b4 38 5e bd
       -0.18598996 -0.13748173 -0.2373485 -0.054253295
000080 27 ba a6 bd b6 ff 76 3d 64 57 85 3d 57 ad 21 3d
       -0.081409745 0.06030246 0.06510809 0.03947195
000090 85 ed af bd 99 2d 43 be 68 61 99 bc 3a 3c 76 be
       -0.08590225 -0.19060363 -0.018723205 -0.24046412
0000a0 7a b7 27 be 37 a2 c1 3d 9a 75 a3 3d cb 77 22 be
       -0.16378585 0.09454768 0.07981415 -0.1586601
0000b0 18 75 f7 3d 30 83 2d 3c 24 79 85 be ac 73 4e 3b
       0.12082881 0.01059036 -0.26068985 0.0031502051
0000c0 e8 bf 1c 3d 61 b7 fc bd e5 71 4a 3b 1e 95 c9 3c
       0.038268954 -0.12339664 0.003089064 0.024607237
0000d0 a0 ae 45 be 90 8d 82 bd 7f 93 c7 3d 42 41 8a bd
       -0.19304895 -0.06374657 0.097449295 -0.06750728
0000e0 5f be b4 bd 19 26 fe 3d 7d 0a a0 bd 4f 0a 8e 3d
       -0.08825373 0.1240961 -0.078145005 0.0693556
0000f0 ba 41 d7 3d b3 e4 c8 bd 80 d5 09 3e fd 0c 2a 3d
       0.10510583 -0.09809246 0.1346035 0.041516293
000100 83 e1 04 3d 6b 15 af 3d 5b c8 5f be 1b 9b 91 3d
       0.032441627 0.08549007 -0.21853773 0.07109662
000110 43 d3 15 be ad a2 90 3c a1 ec f8 bd 14 d0 8f 3d
       -0.14631371 0.017655695 -0.121545084 0.0702211
000120 68 7f ff 3d 08 96 57 be a4 aa db bd f1 7f 81 bd
       0.12475473 -0.21053326 -0.107259065 -0.06323231
000130 c3 43 90 3d b2 a0 86 bc 6e 24 5f be 41 0f 8f bd
       0.070441745 -0.016434047 -0.2179124 -0.06985331
000140 13 e7 37 be ad 51 f0 bb 00 79 ca 3d 82 f6 e1 3d
       -0.17959242 -0.0073339553 0.0988636 0.11033346
000150 7c e0 1e be a6 6f 9e bb f5 56 86 3d 07 e0 96 bc
       -0.15515321 -0.004835087 0.065595545 -0.018417371
000160 04 4e e4 3b 32 bc 47 bd 8d ec b9 3d 12 0d d9 bb
       0.006967308 -0.04876346 0.090783216 -0.0066238726
000170 06 aa d2 3d 14 cb 52 be 73 c2 07 3e 80 fa 5d 3d
       0.10286336 -0.2058528 0.1325777 0.054193974
000180 54 b6 2a 3d fb 94 c7 3d 8f 4f 79 be a0 db c7 3d
       0.041677788 0.09745213 -0.24346755 0.09758687
000190 92 ba b3 3d 10 4d 01 bc c1 6a b1 3b 90 56 bf bd
       0.0877582 -0.007891908 0.0054143374 -0.09342682
0001a0 5b 92 06 be 66 01 8f 3c d7 8d 34 3d 9a ff a9 be
       -0.13141768 0.017456722 0.04408058 -0.3320282
0001b0 19 4e 61 be 4a 30 78 3d 9b 86 85 3c 0c 41 e8 3d
       -0.22002448 0.060592927 0.016299536 0.11340532
0001c0 cd 51 0b 3d 42 fc c2 3b 95 84 a1 3d b3 c8 90 3d
       0.03401356 0.0059504816 0.07886616 0.0706953
0001d0 e8 fe 9c 3d 4c bd 5c bb 52 ad 57 be af 14 33 bd
       0.07665807 -0.0033682166 -0.2106221 -0.043720897
0001e0 2c f6 20 bd 95 0f dc 3d 77 6b 41 be 4e 70 a2 3d
       -0.039297268 0.107451595 -0.18888651 0.07931577
0001f0 a2 65 2c 3d 73 c1 a2 3d 50 82 0e bb 04 8a 09 3c
       0.042089112 0.07947054 -0.0021745153 0.008394722
000200 6c 6e 9c 3d 2e 67 8e be de c7 a1 3c 48 ee e2 3c
       0.07638249 -0.27813095 0.019748624 0.027701512
000210 0e 7b 4c be c3 ca 9c 3d 0d ce 6d be 40 fc a8 bd
       -0.19968817 0.07655861 -0.23223133 -0.08251238
000220 7e 82 f2 bd 86 09 88 3d ff 06 b5 3c 53 65 c2 3d
       -0.11841296 0.066424415 0.022098063 0.09491982
000230 1d ab e2 3d 3f 5e 32 3d ce f8 ba bd 6b a8 6d be
       0.110677935 0.04354691 -0.09129487 -0.23208778
000240 cd e8 0c 3e fc 35 22 be ac 7f 19 3e 66 1a b4 3b
       0.13760681 -0.15840906 0.14990109 0.005496311
000250 cb 63 a5 be ef 79 25 3c a2 c4 13 3e 30 ba cf 3c
       -0.32302698 0.010099872 0.14430478 0.025357336
000260 7f 8c 45 be 5a e2 87 bc 89 e8 cc 3c 99 26 03 be
       -0.19291876 -0.016587425 0.025013225 -0.12807693
000270 b2 07 04 3d 81 ac d6 3c cf 69 dc bc 0d 7a f6 3d
       0.0322339 0.026205303 -0.026905922 0.12034998
000280 a0 0c a5 3d e9 c7 f4 3d e9 14 1b 3e 50 c1 a6 3d
       0.08059049 0.11952192 0.15144695 0.0814234
000290 ae 17 be 3d 8e 01 42 be 9a ef 54 be 1d 17 e4 bd
       0.0928186 -0.18945906 -0.20794526 -0.11137221
0002a0 ae 91 b7 3d 49 ab a4 3d f3 f9 ba 3d c6 f0 6f be
       0.08963333 0.080404826 0.09129705 -0.23431692
0002b0 91 5e f9 bb 67 2b ab bd a6 94 82 be 1e b1 36 3d
       -0.00761015 -0.08357888 -0.25504035 0.044602506
0002c0 80 1b 5d 3d b9 61 bb 3d ce 28 90 3d b0 90 aa bd
       0.053981304 0.091494985 0.07039033 -0.08328378
0002d0 97 2d 2d bd 4b 9d 6f 3d 03 54 43 be 14 17 2f be
       -0.042279806 0.058499616 -0.19075017 -0.17098647
0002e0 61 28 9b 3d 85 b7 71 3d 39 1c 80 3d 0b dd c8 3d
       0.07576061 0.05901291 0.06255383 0.098077856
0002f0 61 29 4a be 6b 42 f0 3d c0 ff 79 bd 0e fd c3 bb
       -0.19742347 0.11731418 -0.061034918 -0.005981094
000300 c8 70 c0 3c 9f 0a 13 be 0b d4 10 be 8d 6d 9e 3d
       0.023491278 -0.1435952 -0.14143388 0.07735739
000310 42 df 0a 3e 90 6f ee bd bc 6f 97 3d 88 0e d7 bd
       0.13561729 -0.116423726 0.073943585 -0.105008185
000320 d5 12 68 bd a9 a8 4a be f3 c8 2a 3e d8 c2 e6 3c
       -0.056658585 -0.19790901 0.16678219 0.02816908
000330 41 ed 26 be 28 d6 fc 3d b1 b0 89 bd 9a 5f a9 bd
       -0.16301443 0.123455346 -0.06723154 -0.08270188
000340 b0 1d 8c bd 35 5f 85 3d 17 b8 e3 bd 79 b5 30 be
       -0.068416 0.065123 -0.11119097 -0.17256726
000350 ed 91 30 be 85 34 aa 3c 3c e7 ec bc 52 b0 b6 3d
       -0.17243166 0.020776996 -0.028918855 0.08920349
000360 c6 83 e4 3d e8 b5 2d 3e 32 c8 87 3c ae ab b1 3d
       0.11157946 0.16963923 0.016574953 0.086753234
000370 9d 71 cd 3d 73 f0 01 3e 57 09 64 3d a1 01 25 be
       0.10031436 0.1268938 0.05567297 -0.16113903
000380 9f 62 43 3d 2c 60 8d 3d 8d 2a 20 3d 7f 10 98 3d
       0.047701474 0.06903109 0.03910308 0.074250214
000390 0a aa 7f bd 84 e3 f9 3c 77 ae 29 be 91 b8 e6 3d
       -0.06241802 0.030503996 -0.1657046 0.11265672
0003a0 f7 b9 c6 3d aa f8 23 3d bc 4d 78 be 3a bd 06 be
       0.09703439 0.040032066 -0.24248403 -0.13158122
0003b0 9e 7c fb bd 40 a7 8f bb 62 01 b5 3c a7 b1 f4 bd
       -0.12279628 -0.0043839514 0.022095386 -0.11947947
0003c0 7c 9d 71 b9 28 9f 35 be 23 98 8d bd 51 54 4b 3d
       -0.00023042219 -0.17736495 -0.069137834 0.049640957
0003d0 19 cb 94 be 9f aa a7 3d 89 36 47 bd 5b f1 94 be
       -0.290612 0.0818684 -0.048635993 -0.2909039
0003e0 6a 14 24 be 8f 62 8e bd e2 dd b3 3d 38 1b fd bd
       -0.16023412 -0.06952392 0.08782555 -0.12358707
0003f0 c4 e3 07 3e d0 25 9c 3d bc 11 a4 bd 47 e2 bd 3c
       0.1327048 0.076244 -0.08011195 0.023179187

network.9.bias f4 [21]
000000 71 a2 73 3d 60 44 ba 3d 12 e9 32 bd b0 d2 36 bd
       0.059481088 0.09095073 -0.043679304 -0.04463452
000010 72 64 87 3d 4f e3 99 3d 66 d9 af 3c 69 36 bd bb
       0.06610955 0.07514059 0.021465968 -0.0057743085
000020 ef ea 02 be 43 8a da 3d 23 ef 01 bd df f2 40 3d
       -0.12784933 0.106709026 -0.0317222 0.04710662
000030 be 8b 56 3c e5 58 ec 3d 63 a1 c8 3c bb 95 07 3a
       0.013094841 0.11540393 0.024491018 0.0005172153
000040 08 8f cc bd 4a f9 89 3d 4b d0 43 bd b3 c4 1b 3d
       -0.099882185 0.06737001 -0.047806066 0.038029384
000050 04 49 b4 bc
       -0.022007473
