models/NeuralNetwork-2_acc-54.86_loss-0.000002.pth (torch, 893391 bytes, 8 tensors)

network.0.weight f4 [423, 141]
0.0053841216 0.028114118 -0.04143327 0.020621082 0.032349233 -0.0954547 0.031727888 0.04189873
-0.016124997 -0.036083482 -0.018567579 -0.11834987 -0.018116422 -0.012091188 -0.065455146 0.038026944
0.0051794797 0.019276116 0.06555901 -0.06403933 0.04387618 -0.04452868 -0.066294394 -0.03026151
-0.01667944 0.039071307 0.006811683 -0.056676757 0.017862331 -0.23322994 -0.09778871 0.07305653
0.06326574 0.031020612 -0.03213902 0.04587432 0.049068414 -0.052454602 -0.05004517 -0.0128504615
-0.10803778 0.043209326 0.002646467 0.039251313 -0.037909586 0.059101477 0.06767727 0.08829955
-0.06199903 0.08102402 0.056030218 0.04060366 -0.07488458 -0.037989117 -0.02353805 0.114466935
-0.04285979 0.098860554 0.016041761 0.01616354 -0.083351985 0.049147394 0.01457597 -0.122442715
-0.07181734 0.010549879 0.10486943 0.0603044 -0.065854646 0.029495249 0.059640538 -0.051475525
-0.040597435 -0.012951057 -0.06808975 0.015610079 0.11363275 0.004620051 0.018995523 0.028775703
0.056313504 -0.07451778 0.04149463 -0.051957827 0.013583416 -0.08894678 0.12243717 -0.027095003
0.0029948626 -0.029151214 -0.05463031 0.111256436 -0.12523447 -0.033655096 -0.008648838 -0.034477036
0.15920565 -0.04600921 -0.051504176 -0.041081782 0.048444383 0.030727565 0.015033705 -0.035656035
0.023239369 -0.09910239 0.020743277 0.0027511623 0.014817697 -0.06633269 -0.009956609 -0.07590642
0.12883636 0.03380239 -0.059835613 0.095843524 -0.034936547 0.109169684 -0.050646577 0.045410037
0.035463944 -0.023723718 -0.06861292 -0.02543051 -0.029502232 -0.10007981 0.022348844 -0.07036757
-0.066104755 0.10804081 0.007603174 0.057716053 -0.0012728465 0.0408509 0.071092054 -0.057916094
0.12662451 0.026595477 -0.009834767 -0.005578247 -0.030271733 0.028322283 0.0059919623 0.018508079
-0.018193576 0.03058307 -0.03303461 -0.041667514 0.004222924 0.010947101 0.012189195 -0.037839096
-0.059072886 -0.048534885 0.00076972303 -0.0022471752 0.15735321 -0.062142666 0.0019828947 0.008212008
0.08898983 -0.06573643 -0.10342719 0.015066826 -0.108452134 0.11245455 0.00978209 0.051300228
0.082462445 -0.0018528375 -0.13303952 -0.081426404 0.08004018 0.010533547 0.154332 0.040778734
-0.0069641136 -0.0029756578 -0.013482734 -0.035620067 0.09439561 0.0109285535 -0.058638927 -0.05952124
0.031518042 -0.038159877 0.022138352 -0.058836106 -0.031979695 0.17048475 0.019644044 1.1436599e-05
0.09123901 -0.051882517 -0.056358673 -0.0026666971 0.09418972 -0.0400625 0.10697037 0.023737984
0.22429818 -0.044807483 -0.0411885 0.074030355 0.027852887 -0.049353156 0.047790114 0.1494455
-0.015283872 0.086743064 0.06974936 -0.061576 0.033093248 0.08217236 0.08545768 -0.07994246
0.028807139 0.010870177 0.031228544 0.06146149 0.037442893 0.0742417 0.044749413 -0.023092607
-0.055616505 0.040320586 -0.010678319 0.07156946 0.0058584874 0.045713484 -0.037291974 0.030783942
0.024354558 -0.004472144 -0.057102285 -0.0041525424 0.08100681 -0.07380956 -0.031848256 0.027656859
-0.03327787 -0.04393684 -0.015931148 0.08138427 -0.07424739 -0.031030081 0.06533786 -0.08435821
-0.0523807 -0.16235408 0.020474557 0.013665263 0.048350114 -0.0068445466 0.087360136 -0.05664456
00000000: 496d b03b 944f e63c efb5 29bd 8bed a83c
00000010: a180 043d c17d c3bd 1af5 013d 019e 2b3d
00000020: 9218 84bc 46cc 13bd 091b 98bc 6b61 f2bd
00000030: e468 94bc 1e1a 46bc 590d 86bd 24c2 1b3d
00000040: a0b8 a93b f2e8 9d3c cd43 863d 0d27 83bd
00000050: 82b7 333d b563 36bd 5bc5 87bd fce6 f7bc
00000060: 52a3 88bc 3c09 203d 8a34 df3b e325 68bd
00000070: 0654 923c d4d3 6ebe 7245 c8bd a99e 953d
00000080: 7891 813d f01e fe3c 34a4 03bd b6e6 3b3d
00000090: f6fb 483d a3da 56bd 2afc 4cbd be8a 52bc
000000a0: e942 ddbd 43fc 303d 5970 2d3b fcc5 203d
000000b0: 1547 1bbd 6414 723d 619a 8a3d 65d6 b43d
000000c0: b2f2 7dbd ecef a53d f17f 653d 0650 263d
000000d0: 165d 99bd 7a9a 1bbd ded2 c0bc a46d ea3d
000000e0: bf8d 2fbd 6777 ca3d 036a 833c 6669 843c
000000f0: 72b4 aabd c74e 493d 0dd0 6e3c 3fc3 fabd
00000100: f814 93bd 66d9 2c3c c9c5 d63d bf01 773d
00000110: cdde 86bd 05a0 f13c a349 743d 00d8 52bd
00000120: 7f49 26bd ac30 54bc a472 8bbd 6bc1 7f3c
00000130: 4ab8 e83d cc63 973b 809c 9b3c 06bb eb3c
00000140: fda8 663d c79c 98bd 46f6 293d bbd1 54bd
00000150: fa8c 5e3c bb29 b6bd 57c0 fa3d 57f6 ddbc
00000160: 7545 443b 87ce eebc 08c4 5fbd 6ada e33d
00000170: 773d 00be edd9 09bd dbb3 0dbc cb37 0dbd
00000180: ce06 233e 2774 3cbd 0bf6 52bd 5f45 28bd
00000190: 9e6d 463d 60b8 fb3c ee4f 763c 100c 12bd
000001a0: 7d60 be3c 32f6 cabd ceed a93c d84c 343b
000001b0: edc5 723c 6fd9 87bd 0c21 23bc d374 9bbd
000001c0: aeed 033e 6074 0a3d 3016 75bd 9c49 c43d
000001d0: a019 0fbd 5b94 df3d c972 4fbd e0ff 393d
000001e0: a442 113d 3e58 c2bc ee84 8cbd a553 d0bc
000001f0: aaae f1bc a5f6 ccbd ec14 b73c df1c 90bd
00000200: ee61 87bd 8044 dd3d 0c24 f93b ab67 6c3d
00000210: a4d5 a6ba 4653 273d b698 913d 6d39 6dbd
00000220: dba9 013e c2de d93c 0122 21bc bac9 b6bb
00000230: 6dfc f7bc 2204 e83c 3958 c43b 419e 973c
00000240: b20a 95bc 5989 fa3c 4d4f 07bd 8eab 2abd
00000250: 7460 8a3b 785b 333c 30b5 473c 2bfd 1abd
00000260: 69f6 71bd 84cc 46bd 3dc7 493a 5845 13bb
00000270: 3321 213e 4f89 7ebd 74f3 013b a88b 063c
00000280: 4d40 b63d d2a0 86bd a2d1 d3bd d9da 763c
00000290: 271c debd 924e e63d 0f45 203c 3020 523d
000002a0: 12e2 a83d e9da f2ba 833b 08be e3c2 a6bd
000002b0: 1bec a33d e694 2c3c 3509 1e3e 9a07 273d
000002c0: 3833 e4bb 4103 43bb afe6 5cbc 59e6 11bd
000002d0: 7c52 c13d ad0d 333c 5f2f 70bd 8bcc 73bd
000002e0: 1019 013d 884d 1cbd 7d5b b53c 21fe 70bd
000002f0: 24fd 02bd 8e93 2e3e 8cec a03c d2df 3f37
00000300: 85db ba3d c382 54bd 5ad8 66bd c1c3 2ebb
00000310: 8ae6 c03d 9318 24bd 4813 db3d 2976 c23c
00000320: 6cae 653e 0d88 37bd 46b5 28bd 3a9d 973d
00000330: bd2b e43c 8926 4abd 91bf 433d 3e08 193e
00000340: 3569 7abc 59a6 b13d c1d8 8e3d 1e37 7cbd
00000350: c98c 073d fb49 a83d 7004 af3d dfb8 a3bd
00000360: f3fc eb3c d418 323c 01d3 ff3c 0bbf 7b3d
00000370: b85d 193d 080c 983d 294b 373d b52c bdbc
00000380: 22ce 63bd 3327 253d 1ef4 2ebc 0293 923d
00000390: 8ef8 bf3b 103e 3b3d 78bf 18bd 9b2e fc3c
000003a0: 3683 c73c 108b 92bb 16e4 69bd 0d12 88bb
000003b0: e6e6 a53d 7729 97bd 5173 02bd a390 e23c
000003c0: 604e 08bd 1ef7 33bd 0a82 82bc ccac a63d
000003d0: 040f 98bd cc32 febc dbcf 853d ffc3 acbd
000003e0: 258d 56bd 2640 26be 42ba a73c 44e4 5f3c
000003f0: c50a 463d 3848 e0bb dfe9 b23d 2004 68bd

network.0.bias f4 [423]
-0.142394 -0.05764681 -0.147677 -0.15679799 -0.15108287 -0.30633837 -0.09840048 -0.23489134
-0.13324174 -0.1424282 -0.22369322 -0.17412372 -0.06844645 -0.20735952 -0.061066013 -0.09238968
-0.120124675 -0.1618467 -0.2240174 -0.26767722 -0.09712435 -0.2109887 -0.16388507 -0.122769766
-0.15284573 -0.1906674 -0.28650215 -0.030320702 -0.06753153 -0.18893774 -0.08083938 -0.041587878
-0.20184456 -0.15708187 -0.06325825 -0.08757875 -0.043527253 -0.12062722 -0.19071813 -0.15832056
-0.14139281 -0.11586484 -0.14464173 -0.1143523 -0.11573826 -0.23171608 -0.18809383 -0.11012515
-0.10700067 -0.114744686 -0.09202142 -0.18170714 -0.15798429 -0.09338251 -0.16951564 -0.055086628
-0.15303087 -0.14168641 -0.12582669 -0.22190407 -0.15831341 -0.16359305 -0.14278132 -0.087805025
-0.019929389 -0.24179494 -0.20289446 -0.18796864 -0.16963325 -0.12259262 -0.13887423 -0.18728279
-0.2115171 -0.24415785 -0.17326023 -0.054647624 -0.03807719 -0.14950208 -0.13823792 -0.039096776
-0.10718808 -0.13419774 -0.033048976 -0.12820226 -0.055288415 -0.251388 -0.120596536 -0.16659887
-0.10721639 -0.15479222 -0.09316729 -0.1185056 -0.1559459 -0.12041612 -0.15149501 -0.040773638
-0.16141792 -0.099807896 -0.14728454 -0.09988136 -0.14387108 -0.14277056 -0.079753034 -0.14506668
-0.120312944 -0.14751862 -0.16882162 -0.13786574 -0.075515665 -0.08555385 -0.1753281 -0.14677273
-0.069982365 -0.090891644 -0.1041268 -0.13415377 -0.15812507 -0.080466874 -0.08339562 -0.12072955
-0.24681897 -0.19739372 -0.2594565 -0.20412228 -0.12018905 -0.18074869 -0.18160251 -0.24056041
-0.15005541 -0.18279257 -0.10650481 -0.19562235 -0.23484321 -0.12706232 -0.19488679 -0.18406537
-0.109380715 -0.17520863 -0.2584729 -0.12747702 -0.06692185 -0.11615224 -0.21465378 -0.06811107
-0.12966014 -0.16377847 -0.099989064 -0.17195101 -0.20422797 -0.1693028 -0.040449105 -0.10699588
-0.097904555 -0.11922236 -0.08169591 -0.17581442 -0.02743694 -0.12309433 -0.14559846 -0.07645992
-0.10289823 -0.20251326 -0.22095665 -0.17895737 -0.055169247 -0.027030585 -0.16429077 -0.31110916
-0.2232593 -0.08611336 -0.065998696 -0.117456526 -0.083884634 -0.11371561 -0.113180175 -0.25630808
-0.16487923 -0.042159986 -0.11514967 -0.11873379 -0.048207447 -0.094620325 -0.25976682 -0.11257591
-0.04585496 -0.18242279 -0.047264855 -0.065989636 -0.21272883 -0.2114028 -0.2181373 -0.20930086
-0.17816482 -0.1936184 -0.15501167 -0.0032103856 -0.12975733 -0.2037544 -0.20530793 -0.068421856
-0.20032403 -0.061745435 -0.2289619 -0.2516176 -0.18900241 -0.13653117 -0.13577944 -0.17689826
-0.056810025 -0.08826407 -0.24149899 -0.25059924 -0.15922543 -0.20265001 -0.07080552 -0.21592751
-0.07774844 -0.1288159 -0.17585674 -0.118624784 -0.058549833 -0.19925645 -0.19460806 -0.16745548
-0.18288368 -0.15430228 -0.17514992 -0.046982277 -0.13913353 -0.14161704 -0.120857455 -0.1298312
-0.18068542 -0.098871484 -0.08813983 -0.1487583 -0.2856538 -0.055471543 -0.1065671 -0.27986872
-0.17829302 -0.13122012 -0.22106948 -0.12143044 0.0016810014 -0.1367492 -0.15887585 -0.26074213
-0.09216279 -0.16375151 -0.2673227 -0.22214851 -0.12326166 -0.13654983 -0.14019662 -0.25294054
00000000: bccf 11be 101f 6cbd a438 17be a78f 20be
00000010: 78b5 1abe 62d8 9cbe 3186 c9bd 5b87 70be
00000020: 8670 08be b3d8 11be d60f 65be 7d4d 32be
00000030: a72d 8cbd 0e56 54be 5b20 7abd cd36 bdbd
00000040: ed03 f6bd 24bb 25be d164 65be fd0c 89be
00000050: 22e9 c6bd 6c0d 58be 7dd1 27be b76e fbbd
00000060: 9783 1cbe 513e 43be 69b0 92be 1f63 f8bc
00000070: f94d 8abd e578 41be 1e8f a5bd 0d58 2abd
00000080: 57b0 4ebe 12da 20be 8b8d 81bd 7d5c b3bd
00000090: a249 32bd 670b f7bd 9d4b 43be c91e 22be
000000a0: 47c9 10be 8c4a edbd f61c 14be 8a31 eabd
000000b0: 2e08 edbd fb46 6dbe ab9b 40be 4b89 e1bd
000000c0: 2b23 dbbd 43ff eabd ba75 bcbd 7011 3abe
000000d0: a2c6 21be 543f bfbd 8295 2dbe 84a2 61bd
000000e0: 20b4 1cbe 3e16 11be b6d8 00be d23a 63be
000000f0: e91c 22be f084 27be 4435 12be 1fd3 b3bd
00000100: f542 a3bc 1899 77be 91c3 4fbe da7a 40be
00000110: 57b4 2dbe d711 fbbd 0c35 0ebe 0fc7 3fbe
00000120: f097 58be 8404 7abe 216b 31be 30d6 5fbd
00000130: d4f6 1bbd 1317 19be 3e8e 0dbe f123 20bd
00000140: 6d85 dbbd 226b 09be 5d5e 07bd 7447 03be
00000150: 1b76 62bd eeb5 80be 51fb f6bd e598 2abe
00000160: 4494 dbbd da81 1ebe 7ece bebd 10b3 f2bd
00000170: 48b0 1fbe ba9c f6bd 8221 1bbe 4202 27bd
00000180: bd4a 25be 1568 ccbd c2d1 16be 998e ccbd
00000190: f152 13be 7232 12be 8f55 a3bd 5c8c 14be
000001a0: a266 f6bd 1f0f 17be 93df 2cbe ad2c 0dbe
000001b0: f5a7 9abd db36 afbd 3689 33be 974b 16be
000001c0: ea52 8fbd 6625 babd 6f40 d5bd 9b5f 09be
000001d0: 8aeb 21be d1cb a4bd 53cb aabd 0e41 f7bd
000001e0: 1dbe 7cbe 9421 4abe 7bd7 84be 6e05 51be
000001f0: ad25 f6bd 2f16 39be 02f6 39be 7855 76be
00000200: 20a8 19be fa2d 3bbe 321f dabd 3a51 48be
00000210: bd7a 70be a01c 02be 6790 47be a27b 3cbe
00000220: ff02 e0bd e469 33be 8f56 84be 5689 02be
00000230: 530e 89bd 3ae1 edbd 33ce 5bbe d17d 8bbd
00000240: a1c5 04be 8bb5 27be 11c7 ccbd ed13 30be
00000250: 2321 51be b75d 2dbe f6ad 25bd a820 dbbd
00000260: 2f82 c8bd da2a f4bd 2f50 a7bd b208 34be
00000270: 6fc3 e0bc e118 fcbd c317 15be 0597 9cbd
00000280: 4fbc d2bd a35f 4fbe 7642 62be 9a40 37be
00000290: 26f9 61bd 3f6f ddbc d73b 28be b349 9fbe
000002a0: 169e 64be 345c b0bd 532a 87bd 0c8d f0bd
000002b0: b5cb abbd bbe3 e8bd 02cb e7bd d03a 83be
000002c0: 1ad6 28be f3af 2cbd 97d3 ebbd b42a f3bd
000002d0: 2c75 45bd 4dc8 c1bd 2800 85be 338e e6bd
000002e0: 69d2 3bbd 0acd 3abe cb98 41bd 9325 87bd
000002f0: 96d5 59be fa79 58be 625f 5fbe f752 56be
00000300: d770 36be e743 46be 61bb 1ebe 5565 52bb
00000310: 1bdf 04be fea4 50be 3e3c 52be c220 8cbd
00000320: be21 4dbe c8e8 7cbd fd74 6abe 06d4 80be
00000330: d989 41be d4ce 0bbe c409 0bbe d124 35be
00000340: a1b1 68bd cbc3 b4bd 834b 77be 8b4e 80be
00000350: fe0b 23be 7c83 4fbe 7c02 91bd 1a1c 5dbe
00000360: 933a 9fbd 51e8 03be ca13 34be 8df1 f2bd
00000370: f3d1 6fbd e209 4cbe 5647 47be 7379 2bbe
00000380: dc45 3bbe 6b01 1ebe 805a 33be 7d70 40bd
00000390: 0579 0ebe 0f04 11be 1d84 f7bd 78f2 04be
000003a0: 9905 39be 227d cabd a882 b4bd 1954 18be
000003b0: 3741 92be 2136 63bd da3f dabd f44a 8fbe
000003c0: 7292 36be 915e 06be 0a60 62be 86b0 f8bd
000003d0: 0c55 dc3a fb07 0cbe 5ab0 22be fe7f 85be
000003e0: d8bf bcbd 7aae 27be 85de 88be e67a 63be
000003f0: 9c70 fcbd b8d3 0bbe b48f 0fbe 6c81 81be

network.3.weight f4 [282, 423]
-0.049183063 -0.0052280673 0.035271876 -0.028931282 -0.025394833 0.017521732 0.060715932 0.04929914
0.0473375 -0.02613081 0.065819055 0.041556824 -0.044920538 0.037827037 -0.04486436 -0.03792708
-0.002576518 0.039500054 -0.09893248 0.0120785525 0.018506883 0.02926181 0.014731167 0.018059965
0.040915217 0.031150486 0.007604257 0.071055464 -0.077354446 -0.06225055 0.05980889 0.018463517
-0.017470423 0.026991528 0.010014404 -0.008533632 0.008738795 0.043853696 0.03045152 -0.009340586
0.017021634 0.044889476 -0.027340591 0.09962403 -0.038137555 -0.07032069 -0.032581985 -0.013851968
0.031343788 -0.004396102 -0.020664614 -0.019532338 0.03712094 0.036123376 0.02729823 -0.021872146
0.01939837 -0.09892461 0.055042166 0.11982402 -0.04329672 0.005193467 0.00836659 -0.05877369
-0.053499483 0.003513417 -0.06324532 -0.021451818 -0.008709243 -0.055512406 -0.018499838 0.08064683
0.018901506 -6.598038e-05 -0.018312046 -0.0050917426 -0.06689721 -0.005681919 -0.0017749553 0.0035839109
-0.050556067 0.0496186 0.03796742 -0.10685672 -0.017730756 0.01191822 -0.011903255 0.03353056
-0.0424329 0.017667398 0.018142058 0.0780565 -0.002503723 0.00201935 -0.026847534 -0.004358572
-0.01732251 -0.058780123 0.051472437 -0.018033288 -0.007109167 -0.004804959 0.019377684 0.024795422
-0.0060084937 0.033717588 -0.008183119 -0.010464151 -0.014301869 0.026200127 0.052169565 -0.038937956
-0.055692513 -0.076228045 0.048706837 0.044576596 0.04370224 -0.023299627 0.010512928 -0.01167798
-0.03151723 0.020506734 -0.018008698 0.019535791 -0.016122885 -0.051688597 0.043208305 0.07201704
0.003934808 -0.0040577296 0.005428851 0.05910541 -0.117255494 -0.042942636 -0.039292987 0.012902711
0.0053091734 -0.09365406 -0.041493833 0.004873449 0.021836495 -0.022663845 -0.037910238 0.0858638
-0.048695233 -0.008209503 0.008014058 -0.068087496 -0.045314007 0.0674208 -0.07662407 0.03551405
0.006376659 0.028929995 -0.004127761 -0.056673095 -0.030690644 -0.09416326 0.005307133 -0.047799032
-0.05050305 0.007190762 -0.003864528 0.015192302 -0.10639505 0.06324468 -0.056521293 0.025740514
0.0070185424 -0.036420785 0.018126542 0.0016575826 -0.03230453 0.007069379 -0.020857122 0.097385675
-0.042946294 0.018413331 -0.03110969 -0.01887128 0.026243584 0.08735587 0.117355764 -0.0025465593
-0.045986466 0.0069640125 0.07314461 -0.02531006 -0.010841383 -0.020464826 -0.0018370639 0.00909064
-0.052399587 0.04060957 -0.0049420916 0.013506415 -0.08569173 -0.07642444 -0.07961758 0.058717474
0.032524653 0.027337225 0.028104661 -0.051867146 0.036982976 0.021130987 0.027594732 -0.0110781435
-0.07177533 -0.014663154 -0.0070012654 -0.08798793 -0.0033109763 -4.1250216e-05 0.052446477 -0.02161991
0.032560885 0.032411937 0.080295295 -0.0018813444 0.039134532 0.053888783 -0.021692721 0.10320897
-0.048601557 -0.028701385 0.015679605 0.07603611 -0.010405806 0.065478645 0.006267673 -0.040726535
0.08192642 0.021384778 0.0060164495 0.067892715 0.047327176 0.034854677 0.037116956 0.03564373
-0.0917534 -0.04516507 -0.08120611 0.020539394 0.061157715 0.06221437 0.039127685 0.023944397
-0.0063144085 0.018590799 -0.026123114 -0.09493431 -0.0005616685 0.015110905 0.054533977 -0.004200688
00000000: 2e74 49bd 3550 abbb 3e79 103d 4c01 edbc
00000010: d308 d0bc bc89 8f3c 45b1 783d e5ed 493d
00000020: f7e4 413d 4810 d6bc 24cc 863d 7d37 2a3d
00000030: 99fe 37bd 86f0 1a3d b1c3 37bd 6d59 1bbd
00000040: cdda 28bb cfca 213d 1d9d cabd 1fe5 453c
00000050: bf9b 973c 77b6 ef3c fe5a 713c 7ef2 933c
00000060: b796 273d 4e2f ff3c 222d f93b 8785 913d
00000070: 026c 9ebd 6ffa 7ebd 2bfa 743d cd40 973c
00000080: 221e 8fbc 561d dd3c 7413 243c a6d0 0bbc
00000090: 2a2d 0f3c ef9f 333d 7775 f93c 4209 19bc
000000a0: f470 8b3c 07de 373d 60f9 dfbc af07 cc3d
000000b0: 2036 1cbd 4b04 90bd b074 05bd 5df3 62bc
000000c0: 5862 003d 2d0d 90bb d648 a9bc 4802 a0bc
000000d0: 200c 183d 1bf6 133d 8aa0 df3c 372d b3bc
000000e0: 55e9 9e3c fc98 cabd e573 613d 4c66 f53d
000000f0: e757 31bd f52d aa3b 0614 093c aebc 70bd
00000100: 4622 5bbd 5b41 663b c386 81bd b9bb afbc
00000110: 36b1 0ebc fa60 63bd f98c 97bc 2a2a a53d
00000120: 55d7 9a3c f25e 8ab8 2503 96bc a2d8 a6bb
00000130: 6801 89bd 642f babb 9ea5 e8ba 0ce0 6a3b
00000140: e113 4fbd e03c 4b3d ba83 1b3d b2d7 dabd
00000150: 1740 91bc a344 433c df05 43bc 5757 093d
00000160: 1fce 2dbd 38bb 903c a79e 943c 16dc 9f3d
00000170: 8015 24bb 1257 043b 5cef dbbc 5ad2 8ebb
00000180: f0e7 8dbc 6dc3 70bd c3d4 523d 8cba 93bc
00000190: 04f4 e8bb eb72 9dbb f3bd 9e3c c51f cb3c
000001a0: e6e2 c4bb 741b 0a3d 7d12 06bc d571 2bbc
000001b0: 6352 6abc a6a1 d63c c1af 553d 687d 1fbd
000001c0: d51d 64bd 731d 9cbd d280 473d f395 363d
000001d0: 1f01 333d dcde bebc 6a3e 2c3c 0055 3fbc
000001e0: 3618 01bd bdfd a73c fa86 93bc 8609 a03c
000001f0: 2414 84bc 6cb7 53bd 31fb 303d ab7d 933d
00000200: 90ef 803b b4f6 84bb 81e4 b13b 8418 723d
00000210: a623 f0bd 9ee4 2fbd aff1 20bd e465 533c
00000220: 93f8 ad3b b3cd bfbd 70f5 29bd 74b1 9f3b
00000230: 73e2 b23c 87a9 b9bc c447 1bbd 5cd9 af3d
00000240: a774 47bd 2781 06bc 654d 033c 7571 8bbd
00000250: 2e9b 39bd eb13 8a3d 15ed 9cbd 2e77 113d
00000260: 4bf3 d03b 99fe ec3c 2b42 87bb 0c22 68bd
00000270: f26a fbbc abd8 c0bd 75e7 ad3b ebc8 43bd
00000280: 49dc 4ebd 7ca0 eb3b 0544 7dbb 22e9 783c
00000290: a6e5 d9bd 6d86 813d df82 67bd c5dd d23c
000002a0: cdfb e53b f62d 15bd 1d7e 943c 3e43 d93a
000002b0: c151 04bd 40a6 e73b 8edc aabc 2472 c73d
000002c0: 74e8 2fbd 8ed7 963c c0d9 febc f197 9abc
000002d0: c9fc d63c a2e7 b23d 3858 f03d 2de4 26bb
000002e0: 4e5c 3cbd 5f32 e43b d7cc 953d 0b57 cfbc
000002f0: 0ea0 31bc daa5 a7bc a3c9 f0ba e8f0 143c
00000300: f3a0 56bd 3856 263d 45f1 a1bb 034a 5d3c
00000310: 257f afbd 6b84 9cbd 8b0e a3bd bc81 703d
00000320: 9238 053d 51f2 df3c bf3b e63c a572 54bd
00000330: 767b 173d e41a ad3c 590e e23c 1a81 35bc
00000340: f2fe 92bd ba3d 70bc df6a e5bb 0433 b4bd
00000350: f7fc 58bb 1504 2db8 1ed2 563d 3d1c b1bc
00000360: 905e 053d 61c2 043d dc71 a43d 7197 f6ba
00000370: 884b 203d 7cba 5c3d efb4 b1bc 395f d33d
00000380: 6d12 47bd 2b1f ebbc 8472 803c d2b8 9b3d
00000390: 1d7d 2abc ab19 863d 0d61 cd3b ded0 26bd
000003a0: 0ac9 a73d 212f af3c a325 c53b 560b 8b3d
000003b0: 24da 413d c7c3 0e3d f307 183d 29ff 113d
000003c0: 35e9 bbbd 02ff 38bd 644f a6bd 3b42 a83c
000003d0: 8380 7a3d 7fd4 7e3d 5a44 203d 0a27 c43c
000003e0: 19e9 cebb bb4b 983c 2400 d6bc eb6c c2bd
000003f0: ef3c 13ba bb93 773c 055f 5f3d eda5 89bb

network.3.bias f4 [282]
0.031192426 0.039131954 -0.023791514 0.021459157 0.020916846 0.02281997 -0.044308774 -0.034244172
0.05848669 0.050335564 -0.03714276 -0.02045626 0.054308612 -0.015204327 0.01817009 0.03694199
-0.04783766 0.023703007 0.090045094 0.012144217 -0.027237669 0.0006954321 0.013638252 -0.03880596
0.017399538 -0.025551548 0.011144852 -0.0030750735 0.010286177 0.020676013 -0.009399373 0.0025311313
0.04056379 0.02781712 -0.00025717038 0.0006941629 0.07543973 0.0037744592 0.002352874 -0.011113163
-0.013694329 0.021488853 0.058725838 0.07963764 -0.024013674 -0.002175501 -0.0093806265 0.04555639
0.038821194 0.036712155 -0.008961317 0.022174895 0.021809412 0.053423446 0.014070884 0.040664397
0.053090896 0.029784262 0.057480905 -0.022015488 0.010396778 0.024477327 -0.017987272 0.013930761
-0.04011696 -0.009136163 0.032340907 0.014851686 0.010090273 0.009209988 -0.027200803 0.021365825
0.015566908 -0.038885362 0.042928487 0.067176424 0.06807091 -0.054959167 0.005113682 -0.00037087416
0.051689036 -0.00373244 0.08694161 -0.0060017486 -0.03402231 -0.08341627 0.021472402 0.012650903
-0.036246497 0.02775559 -0.039503425 -0.03290455 0.006647995 0.03695557 0.010340148 -0.04695297
0.06658717 -0.017521763 0.0034528768 -0.043302216 -0.056311887 0.085880056 0.031421248 0.05080936
0.010724368 0.051628903 0.03246614 0.041076507 -0.03893782 0.024907338 -0.017297743 0.027511084
0.039132856 -0.013112781 0.0129257925 0.009442802 0.044757698 -0.04037989 0.057114877 0.007889023
0.050492626 0.010062211 -0.0045494367 0.0069531975 0.0034840445 0.024374874 -0.05792206 -0.011161076
-0.0064531136 0.023018958 0.008540984 0.042858012 0.024300722 -0.045776278 0.0007026824 0.05617947
0.038489457 -0.048915718 0.036372427 0.08992854 0.0060287053 0.007899696 0.05752158 0.028742189
-0.042494558 -0.012004779 -0.03074528 0.0019255913 0.10591271 0.01074961 0.086862355 -0.02114345
0.05738733 0.007566734 0.044858623 -0.021263046 0.07758051 0.010738589 0.056978427 0.09235012
0.093768604 -0.013630006 0.039667152 0.024711045 0.06366318 0.00065666693 0.08827852 -0.04635024
-0.027400494 -0.07408869 -0.022581533 -0.013236099 0.026641885 -0.030265251 0.056854755 -0.012646044
0.03159331 0.010222911 -0.0044815997 -0.06596662 -0.065035984 -0.0027101925 0.066656746 0.05941518
0.025612626 -0.071726 -0.029224591 0.000580495 -0.012961606 0.069436416 0.021886475 0.012009321
-0.016373616 -0.030686308 0.02890986 0.03319972 -0.033162467 -0.014658649 -0.011280048 0.06765559
0.020046704 -0.014606383 0.025220621 0.054467898 -0.06145589 -0.030372096 0.03199683 0.02647388
0.005374568 -0.013219037 0.010998691 -0.012832925 -0.028557593 -0.02915933 -0.054227483 -0.0070545427
0.076534316 0.009320018 -0.049419157 0.05876059 -0.038503673 0.03421875 0.016607517 0.04587352
-0.0039701024 0.038336452 0.05144349 0.0017260411 0.05581553 0.031135647 -0.030784499 -0.0039291293
-0.017699957 0.0954235 -0.042805776 -0.01637546 -0.0010092644 0.003031569 -0.022641588 0.05480911
0.002291828 0.019862264 -0.04885091 0.04257536 0.03690775 0.018319009 -0.0074327844 -0.06629498
0.04022987 -0.03667655 0.031284768 -0.0031419678 0.05929661 0.05558241 -0.010253574 0.012011179
00000000: 4287 ff3c d448 203d 6ce6 c2bc 1dcb af3c
00000010: ce59 ab3c f2f0 ba3c 1e7d 35bd 9e43 0cbd
00000020: bd8f 6f3d aa2c 4e3d 0223 18bd e393 a7bc
00000030: b572 5e3d 921b 79bc 71d9 943c 7c50 173d
00000040: 6cf1 43bd cf2c c23c 9069 b83d 8af8 463c
00000050: 8821 dfbc a94d 363a fa72 5f3c 00f3 1ebd
00000060: 7a89 8e3c 7b51 d1bc e698 363c 2c87 49bb
00000070: 5a87 283c be60 a93c d4ff 19bc 56e1 253b
00000080: 3726 263d bbe0 e33c d3d4 86b9 7cf8 353a
00000090: 2580 9a3d eb5c 773b ad32 1a3b fc13 36bc
000000a0: 2e5e 60bc 6409 b03c 818a 703d 0f19 a33d
000000b0: 53b8 c4bc da92 0ebb 33b1 19bc 5699 3a3d
000000c0: f902 1f3d 7c5f 163d 7dd2 12bc 20a8 b53c
000000d0: a7a9 b23c 8bd2 5a3d 9189 663c b68f 263d
000000e0: d775 593d 20fe f33c 1971 6b3d d359 b4bc
000000f0: 3f57 2a3c ad84 c83c 0b5a 93bc d93d 643c
00000100: ae51 24bd d8af 15bc e677 043d 7c54 733c
00000110: ac51 253c 7de5 163c 38d4 debc 6207 af3c
00000120: 580c 7f3c 4246 1fbd c8d5 2f3d cb93 893d
00000130: c368 8b3d dd1c 61bd ac90 a73b e371 c2b9
00000140: e2b7 533d f49b 74bb 710e b23d 51aa c4bb
00000150: fa5a 0bbd 26d6 aabd e4e6 af3c bc45 4f3c
00000160: 3577 14bd b15f e33c 58ce 21bd ecc6 06bd
00000170: 6dd7 d93b b95e 173d b969 293c c251 40bd
00000180: db5e 883d cd89 8fbc a949 623b aa5d 31bd
00000190: 4ba7 66bd e2e1 af3d 91b3 003d 7a1d 503d
000001a0: 42b5 2f3c d478 533d 37fb 043d d73f 283d
000001b0: 437d 1fbd 790a cc3c ffb3 8dbc ed5e e13c
000001c0: c649 203d fdd6 56bc b4c6 533c fbb5 1a3c
000001d0: d953 373d 6265 25bd 4af1 693d f640 013c
000001e0: 5bd1 4e3d f9db 243c 7113 95bb a6d7 e33b
000001f0: 9154 643b d1ad c73c af3f 6dbd f2dc 36bc
00000200: a474 d3bb 4192 bc3c 7cef 0b3c e28b 2f3d
00000210: 4f12 c73c e87f 3bbd 3834 383a 721c 663d
00000220: 1fa7 1d3d d95b 48bd 41fb 143d 742c b83d
00000230: 728c c53b ba6d 013c c09b 6b3d bd74 eb3c
00000240: c60e 2ebd b1af 44bc 87dd fbbc 1f64 fc3a
00000250: c3e8 d83d 221f 303c e4e4 b13d 0735 adbc
00000260: fa0e 6b3d 5ef2 f73b adbd 373d d72f aebc
00000270: 88e2 9e3d e8f0 2f3c 3662 693d 0f22 bd3d
00000280: c109 c03d 6450 5fbc 067a 223d d16e ca3c
00000290: d761 823d 2c24 2c3a 5ecb b43d c0d9 3dbd
000002a0: 0077 e0bc d0bb 97bd e8fc b8bc 39dc 58bc
000002b0: 1540 da3c d5ee f7bc 88e0 683d 5a31 4fbc
000002c0: fd67 013d ff7d 273c 62da 92bb 8219 87bd
000002d0: 9631 85bd 7c9d 31bb 5583 883d 555d 733d
000002e0: 92d1 d13c 15e5 92bd 6968 efbc 5c2c 183a
000002f0: ea5c 54bc ae34 8e3d 444b b33c bec2 443c
00000300: f621 86bc da61 fbbc 5fd4 ec3c 6efc 073d
00000310: 5ed5 07bd d52a 70bc f3cf 38bc 048f 8a3d
00000320: fc38 a43c 9c4f 6fbc 7a9b ce3c bb19 5f3d
00000330: 2cb9 7bbd e7ce f8bc 1c0f 033d c0df d83c
00000340: 251d b03b a994 58bc db33 343c 3041 52bc
00000350: 9df1 e9bc 8cdf eebc a31d 5ebd cb29 e7bb
00000360: 06be 9c3d fdb2 183c be6b 4abd f2ae 703d
00000370: 07b6 1dbd f628 0c3d 7d0c 883c dfe5 3b3d
00000380: a217 82bb af06 1d3d 69b6 523d 543c e23a
00000390: d39e 643d 2f10 ff3c c62f fcbc edbf 80bb
000003a0: 80ff 90bc 656d c33d 1c55 2fbd d425 86bc
000003b0: 4b49 84ba 4aad 463b da7a b9bc 847f 603d
000003c0: 7e32 163b 30b6 a23c e417 48bd 8063 2e3d
000003d0: 952c 173d bf11 963c b78e f3bb aac5 87bd
000003e0: 13c8 243d 263a 16bd 7524 003d 79e9 4dbb
000003f0: 01e1 723d 62aa 633d 9bfe 27bc 89ca 443c

network.6.weight f4 [141, 282]
0.023098422 -0.025159696 0.0594709 0.019767068 0.10901715 0.033635523 -0.10367779 0.11416235
-0.0015846922 -0.041760202 0.08221696 -0.02323966 -0.06037638 0.01050253 0.08151056 0.017158356
0.026116349 -0.13202177 -0.059615098 -0.016019918 0.08707888 0.020942695 0.1342793 0.022012018
-0.060252413 0.17178413 -0.052202463 0.12799577 0.071638465 0.08064594 0.1099355 -0.07396048
0.04625017 -0.053671498 0.17194007 -0.06720703 0.01550183 0.059326112 0.015405344 -0.062199246
-0.053962495 -0.034815025 -0.1327861 -0.03396647 0.032775197 0.058107484 -0.0009692159 0.09942951
0.045078654 -0.03881084 0.07640671 0.06509182 0.08041705 0.045651663 -0.06251197 0.0071027013
-0.008896969 0.0200682 -0.07349836 0.0033533773 0.10884533 -0.06416588 0.0013967395 0.012998213
-0.03233604 -0.023903549 -0.18213719 -0.011175599 0.08056891 0.0040087234 0.0457278 -0.031371433
-0.018360626 -0.10229989 -0.16300093 -0.008165131 -0.05695161 -0.068460815 0.00041699706 0.055339348
0.13338876 -0.0728184 -0.01882626 0.08044841 0.027808998 0.07504049 0.08662601 0.09991601
0.08891629 0.07055841 -0.0043414435 0.100314096 0.07360649 -0.026832093 -0.025594322 0.07685295
-0.11978665 0.055331837 -0.013600164 0.11204051 0.08804491 0.07047032 0.07663421 -0.062086355
0.06019474 -0.07316841 -0.070923865 0.015494164 -0.064370885 0.08146784 0.06525163 0.047853317
0.054985598 0.064286314 0.025628721 0.10457282 0.13080998 0.091552824 -0.043496948 0.022745637
-0.039319422 0.035313122 -0.009077652 0.00088515255 0.07928303 -0.025962805 0.06980184 -0.066621736
0.06835289 0.020927515 0.024089972 -0.085873395 -0.010969805 0.07513724 0.034050576 0.014035031
0.0033735617 0.04121797 0.110110775 -0.16793503 0.0069368766 0.013539961 -0.05308666 -0.031169752
0.1539203 -0.0022067623 -0.0054631988 0.03863265 -0.07382661 0.11447511 -0.030522471 0.034352556
0.030890025 -0.046433426 -0.019318683 0.0068855854 0.02763328 -0.06096224 0.011172809 -0.082289785
0.10052811 0.09136398 0.008897342 0.12626423 -0.0386774 0.0007087679 -0.12580237 -0.027410071
0.0074573928 -0.024471397 -0.037160106 0.07399764 0.01802271 0.044036184 -0.02945566 -0.033841114
0.012291811 -0.14978844 0.009381513 0.120387495 -0.0018801672 0.04355928 0.15884651 -0.075088196
0.010679341 0.04181786 0.002337527 -0.0036149393 0.04601514 -0.054049093 0.047895446 -0.08894079
0.061674 -0.091599025 -0.06711341 0.056539092 0.015413083 0.061825063 -0.13260688 -0.12835602
0.07904069 0.060596906 0.09596734 -0.03963127 0.117477156 0.020209977 -0.045116354 0.00026405937
0.0049034953 -0.028290123 0.124574475 -0.13245106 0.030482717 -0.0021074698 -0.01734096 -0.10672653
-0.10955412 -0.041534953 0.029425904 -0.014612038 0.03659346 0.0959979 0.04477634 -0.004663527
0.11307923 -0.12800598 0.07167295 -0.019259699 -0.018245785 -0.021195434 0.041666966 -0.024345813
0.106772155 -0.05936006 0.05572333 -0.107173145 -0.006252881 0.08114058 -0.06517793 -0.011688516
-0.075631805 0.042984538 0.034112677 -0.01274918 -0.024252104 -0.06878696 -0.029330764 0.11298513
-0.04063998 0.13736099 0.066437855 0.071012676 -0.08404732 0.01834713 0.06299411 0.097167015
00000000: e738 bd3c b51b cebc c297 733d 8cee a13c
00000010: 6244 df3d 67c5 093d 0555 d4bd f3cd e93d
00000020: 72b5 cfba bf0c 2bbd 5e61 a83d 1961 bebc
00000030: 394d 77bd ce12 2c3c 02ef a63d ae8f 8c3c
00000040: f4f1 d53c b730 07be f62e 74bd 343c 83bc
00000050: 6956 b23d 0490 ab3c 8380 093e 8c52 b43c
00000060: 3ccb 76bd 2ee8 2f3e 40d2 55bd 5311 033e
00000070: 30b7 923d b329 a53d dd25 e13d 9878 97bd
00000080: d170 3d3d a5d6 5bbd 0f11 303e d7a3 89bd
00000090: 63fb 7d3c f0ff 723d b266 7c3c a3c4 7ebd
000000a0: c707 5dbd 339a 0ebd 14f9 07be 6d20 0bbd
000000b0: 493f 063d 1d02 6e3d fa12 7eba b3a1 cb3d
000000c0: 65a4 383d 1ef8 1ebd 1f7b 9c3d dc4e 853d
000000d0: b2b1 a43d 3dfd 3a3d 4706 80bd c7bd e83b
000000e0: 98c4 11bc 1166 a43c 4f86 96bd 56c4 5b3b
000000f0: 4dea de3d 6769 83bd cd12 b73a 75f6 543c
00000100: cc72 04bd 60d1 c3bc 2c82 3abe dc19 37bc
00000110: 5001 a53d 9c5b 833b 134d 3b3d 557f 00bd
00000120: 0669 96bc 9b82 d1bd b7e9 26be 0bc7 05bc
00000130: 1746 69bd 2f35 8cbd 66a0 da39 83ab 623d
00000140: 1097 083e d021 95bd 8739 9abc 23c2 a43d
00000150: b2cf e33c d4ae 993d fa68 b13d c4a0 cc3d
00000160: be19 b63d ed80 903d ab42 8ebb 7a71 cd3d
00000170: 00bf 963d face dbbc 2fab d1bc 1465 9d3d
00000180: b452 f5bd a3a3 623d 39d3 5ebc 7f75 e53d
00000190: e450 b43d be52 903d 66f2 9c3d 434e 7ebd
000001a0: c28e 763d 52d9 95bd 8840 91bd 3cdb 7d3c
000001b0: e2d4 83bd 9cd8 a63d a6a2 853d d701 443d
000001c0: 9438 613d 8ba8 833d 53f3 d13c 462a d63d
000001d0: 0df3 053e 0c80 bb3d db29 32bd 0f55 ba3c
000001e0: 670d 21bd 7ea4 103d 6fba 14bc 9509 683a
000001f0: 245f a23d f3af d4bc 44f4 8e3d fa70 88bd
00000200: 9afc 8b3d 2e70 ab3c 5558 c53c 64de afbd
00000210: b2ba 33bc 8ee1 993d 9e78 0b3d 30f3 653c
00000220: f916 5d3b 2dd4 283d c281 e13d 29f7 2bbe
00000230: bd4e e33b b6d6 5d3c 6671 59bd b557 ffbc
00000240: 489d 1d3e 549f 10bb a204 b3bb 453d 1e3d
00000250: 6832 97bd ed71 ea3d 430a fabc 44b5 0c3d
00000260: 140d fd3c fa30 3ebd 3742 9ebc 7aa0 e13b
00000270: 305f e23c 8bb3 79bd 280e 373c 8c87 a8bd
00000280: afe1 cd3d 0a1d bb3d 28c6 113c 694b 013e
00000290: 326c 1ebd 9ccc 393a 56d2 00be 168b e0bc
000002a0: 255d f43b 3d78 c8bc 3235 18bd 138c 973d
000002b0: 5da4 933c 495f 343d ff4c f1bc fb9c 0abd
000002c0: 9863 493c 2462 19be ebb4 193c b88d f63d
000002d0: f16f f6ba 376b 323d a9a8 223e d7c7 99bd
000002e0: 67f8 2e3c 3449 2b3d 3231 193b 9ee8 6cbb
000002f0: 5f7a 3c3d 9562 5dbd 042e 443d 9726 b6bd
00000300: e09d 7c3d 4598 bbbd c172 89bd 8995 673d
00000310: 2887 7c3c 473c 7d3d 19ca 07be c36f 03be
00000320: 16e0 a13d 7634 783d 868a c43d 6654 22bd
00000330: dd97 f03d 658f a53c edcb 38bd 7371 8a39
00000340: 80ad a03b b0c0 e7bc e720 ff3d 40a1 07be
00000350: e4b6 f93c 7a1d 0abb a10e 8ebc 7093 dabd
00000360: e95d e0bd 8e20 2abd 980e f13c 5467 6fbc
00000370: 06e3 153d 8c9a c43d 6567 373d 80d0 98bb
00000380: 1596 e73d 0014 03be 45c9 923d 84c6 9dbc
00000390: 2f78 95bc 0ca2 adbc fbaa 2a3d df70 c7bc
000003a0: 5cab da3d 8923 73bd 253e 643d 987d dbbd
000003b0: f8e4 ccbb 082d a63d 027c 85bd 3081 3fbc
000003c0: d9e4 9abd 8e10 303d bcb9 0b3d f0e1 50bc
000003d0: 59ac c6bc 2de0 8cbd 1247 f0bc bf64 e73d
000003e0: 1c76 26bd 5ca8 0c3e 9210 883d 186f 913d
000003f0: 0021 acbd b84c 963c 0e03 813d 80ff c63d

network.6.bias f4 [141]
0.045882575 -0.038919985 0.03615131 -0.038758922 0.0024451346 0.06636423 0.017856091 -0.029738646
0.040992763 0.023046866 0.07680406 0.045386177 -0.039585825 0.021027336 0.0055762464 -0.039604846
0.10120501 0.021017665 0.013956697 0.079796106 -0.01378005 0.022304133 0.042864468 0.07887645
-0.03789062 -0.008989535 0.027694164 -0.03524543 -0.0675694 0.10259131 0.07291449 0.04615401
0.024189254 0.1008915 0.019447068 0.102617055 -0.021943912 0.04017153 0.07985768 0.034263153
0.054122776 0.037437763 -0.044925123 -0.008637955 0.00034149273 0.024114672 -0.00014572547 -0.005915447
-0.014147374 -0.006574463 -0.04588685 0.06896173 0.032737378 0.017497674 -0.025858868 0.036456425
0.054155704 0.07893648 -0.07194152 0.10550359 0.0154104885 -0.0046210885 0.049062304 0.05974415
0.015136426 -0.0027807525 0.04177061 0.0006297539 0.023129914 0.04411294 0.08890129 -0.0131565
-0.052304085 0.058707293 -0.0039935317 0.040647134 0.087781124 0.04811723 0.05175532 0.04127639
0.071769156 0.13855112 0.115173995 0.067409776 0.0842631 0.04525364 -0.043943264 -0.00083231035
0.032727093 0.025360243 0.00030765685 0.06208107 0.0722645 0.023746043 0.103886716 -0.00672189
0.007502392 0.011065568 0.015285274 0.079390205 0.02061448 0.040597506 0.061412606 0.051199317
0.060581256 0.09537237 -0.007512531 0.05273286 -0.030898606 0.036489815 0.07142239 0.009477831
-0.0010603392 -0.014617321 -0.0012360545 0.053591166 0.041594002 0.029629558 0.018074358 0.032104544
0.039451115 0.06550659 0.09825412 0.010265205 0.101258874 0.0857852 -0.06486301 0.09741816
0.0044200416 -0.0011200354 0.03970967 0.030308973 -0.043229945 0.019046552 0.106985316 0.083311506
-0.033185083 -0.04233969 -0.014705808 0.057662737 0.015897723
00000000: 5eef 3b3d 906a 1fbd 6513 143d adc1 1ebd
00000010: 8d3e 203b f8e9 873d f046 923c 769e f3bc
00000020: 07e8 273d c8cc bc3c 724b 9d3d dbe6 393d
00000030: bf24 22bd 8541 ac3c f2b8 b63b b138 22bd
00000040: 9344 cf3d 3d2d ac3c a1aa 643c 246c a33d
00000050: b8c5 61bc 28b7 b63c a792 2f3d fa89 a13d
00000060: 3233 1bbd d848 13bc dfde e23c 835d 10bd
00000070: d361 8abd 651b d23d 3154 953d fd0b 3d3d
00000080: 8b28 c63c 34a0 ce3d 754f 9f3c e428 d23d
00000090: b8c3 b3bc e78a 243d 6c8c a33d 8557 0c3d
000000a0: d8af 5d3d 5758 193d 6803 38bd 3686 0dbc
000000b0: 610a b339 228c c53c e2cd 18b9 5ed6 c1bb
000000c0: 63ca 67bc 986e d7bb daf3 3bbd cf3b 8d3d
000000d0: a117 063d 4857 8f3c fad5 d3bc 5553 153d
000000e0: 5fd2 5d3d 73a9 a13d 1356 93bd 4412 d83d
000000f0: 467c 7c3c 806c 97bb 8ef5 483d 48b6 743d
00000100: c6fe 773c 493d 36bb a917 2b3d 1216 253a
00000110: f27a bd3c c5af 343d e111 b63d 5c8e 57bc
00000120: cf3c 56bd 0f77 703d 2cdc 82bb 9c7d 263d
00000130: 97c6 b33d 9316 453d 63fd 533d 6f11 293d
00000140: b5fb 923d 58e0 0d3e 58e0 eb3d 230e 8a3d
00000150: 2292 ac3d e15b 393d dafd 33bd 672f 5aba
00000160: d80c 063d 49c0 cf3c 014d a139 b848 7e3d
00000170: 69ff 933d 1087 c23c 8fc2 d43d 4d43 dcbb
00000180: a0d6 f53b 5b4c 353c 166f 7a3c 5597 a23d
00000190: b3df a83c 9249 263d c98b 7b3d 60b6 513d
000001a0: 0d24 783d 9752 c33d ad2b f6bb 69fe 573d
000001b0: 131f fdbc 5876 153d e745 923d e848 1b3c
000001c0: 14fb 8aba 7d7d 6fbc 1b03 a2ba 6982 5b3d
000001d0: 795e 2a3d b0b9 f23c ad10 943c 0e80 033d
000001e0: 7e97 213d 5228 863d 7539 c93d 642f 283c
000001f0: d060 cf3d 27b0 af3d e6d6 84bd 2c83 c73d
00000200: ffd5 903b 27ce 92ba 9ba6 223d 864a f83c
00000210: e211 31bd 8407 9c3c 1e1b db3d 399f aa3d
00000220: 15ed 07bd 626c 2dbd a1f0 70bc c32f 6c3d
00000230: f13b 823c

network.9.weight f4 [21, 141]
0.1213884 0.10481098 -0.25917524 -0.111131236 0.0927394 0.07535155 0.10972537 0.13138363
-0.14436622 0.09589592 -0.03141763 0.015903568 -0.11335157 -0.0017347214 -0.15093791 0.020977534
-0.075565845 0.027565002 0.16275603 0.03849309 -0.21553189 -0.1346024 -0.08749601 0.10718311
-0.14939572 -0.1407499 -0.13360833 0.12747642 0.13589552 0.01921326 -0.003449278 -0.04848091
-0.083502516 -0.02494296 -0.06305869 0.06427388 -0.30014485 0.055760603 0.085645586 0.034034915
-0.05782795 -0.091235824 0.10079368 -0.16380186 -0.22460943 0.07729307 0.037398174 0.07353059
-0.26616392 -0.24982381 -0.13808142 -0.32206032 -0.049189303 0.10765845 -0.18854211 -0.07424397
-0.026177239 -0.013463825 -0.23722865 0.08625266 -0.07564522 0.07566076 -0.11232139 0.01388159
0.103269115 0.088206924 -0.17589022 -0.15340234 0.0194423 -0.24905305 0.09416903 -0.16563646
-0.18072867 -0.14587973 0.090041794 -0.1945082 -0.1909697 0.14150761 0.053762056 0.081819676
0.07629636 0.033502117 0.042632796 0.01907887 -0.015223405 0.10294242 -0.20223145 -0.0064592543
-0.18572512 0.23220833 0.088283576 -0.033949398 0.09933852 0.119738385 -0.12812902 -0.20158806
0.019055812 0.12975138 0.08349815 0.065423615 -0.18024078 -0.0930089 -0.061208446 0.053822324
0.14335836 0.04295945 0.07848938 -0.26117224 -0.0027073848 -0.085644364 0.078658596 0.050896764
-0.13074557 -0.21586062 0.0726745 -0.1544883 -0.23294763 0.06644974 0.001327998 -0.23877275
0.068061054 0.11505634 0.124132335 0.092328005 0.106376804 -0.1347173 -0.19722281 -0.20807575
0.013378291 0.041816335 -0.21252495 -0.26128867 0.033607595 0.02527774 0.03817318 0.090865165
-0.084902756 -0.0032728072 0.069612175 0.047267802 0.00016288509 -0.27148208 0.06986672 -0.18649906
-0.14976026 -0.176028 -0.16344565 0.09370852 -0.21443813 0.04588905 0.05371436 0.069531105
0.078761235 -0.0669917 -0.05927372 0.032702558 -0.055482805 0.122278914 0.026630301 0.074905604
0.076773174 0.072939 -0.08826513 0.06902005 -0.23180914 -0.19883525 -0.20623848 -0.017169597
-0.20540322 -0.23322886 0.088712364 -0.04329802 0.14873928 0.060401075 0.005932601 0.069964156
0.081980996 0.013487568 0.080039665 0.08378718 0.05923744 0.135684 0.02007654 -0.19107555
-0.20776996 0.08682976 0.08268107 0.071930654 -0.022693858 -0.34409752 -0.05347458 -0.11654956
0.041982524 -0.043499086 -0.26095194 -0.1621992 0.100623466 0.0030458553 0.055568434 -0.17619206
0.060713984 -0.122601554 -0.16015692 -0.18745665 -0.052668057 -0.08639655 0.05475018 -0.14761327
-0.14089121 -0.18200631 -0.08603477 0.081247255 0.10541037 -0.23859437 0.095180646 -0.1525974
-0.03510807 -0.12012909 -0.008715944 -0.032784015 -0.22519508 -0.07609302 0.09601044 0.12504515
0.06381524 0.08327852 0.11785829 0.10548197 -0.29252896 -0.018107418 -0.15970641 0.10175327
0.10452654 0.041329842 -0.09113964 0.02255482 -0.060086794 -0.15985854 -0.108184025 0.083867714
-0.02055263 0.14010087 -0.15742218 -0.052008327 0.09858321 -0.05951354 0.10271609 -0.060251027
-0.1710613 -0.0742472 -0.2534534 0.00263251 -0.011807334 0.07887287 0.09881795 0.09298252
00000000: 7b9a f83d 24a7 d63d 9eb2 84be c698 e3bd
00000010: 28ee bd3d ea51 9a3d b2b7 e03d 6e89 063e
00000020: bdd4 13be 1565 c43d c6af 00bd 3348 823c
00000030: de24 e8bd 975f e3ba 788f 1abe 14d9 ab3c
00000040: 44c2 9abd 00d0 e13c 84a9 263e eeaa 1d3d
00000050: 64b4 5cbe 36d5 09be 1c31 b3bd d282 db3d
00000060: 31fb 18be be20 10be 9fd0 08be 2e89 023e
00000070: 3228 0b3e 2065 9d3c 480d 62bb eb93 46bd
00000080: 5e03 abbd 2e55 ccbc ea24 81bd 06a2 833d
00000090: 96ac 99be 3b65 643d f466 af3d 3268 0b3d
000000a0: 00dd 6cbd d9d9 babd eb6c ce3d adbb 27be
000000b0: 0400 66be d44b 9e3d d42e 193d 3597 963d
000000c0: a346 88be d0d1 7fbe 3765 0dbe 17e5 a4be
000000d0: b97a 49bd 097c dc3d 2f11 41be 390d 98bd
000000e0: a671 d6bc 6097 5cbc 11ec 72be 3ca5 b03d
000000f0: e2eb 9abd 07f4 9a3d c208 e6bd 9c6f 633c
00000100: c27e d33d d5a5 b43d 911c 34be 8115 1dbe
00000110: 7545 9f3c c307 7fbe b1db c03d 9b9c 29be
00000120: f010 39be 7f61 15be d567 b83d 282d 47be
00000130: 908d 43be 5fe7 103e 9a35 5c3d 1391 a73d
00000140: 4441 9c3d 8439 093d ba9f 2e3d 4a4b 9c3c
00000150: 976b 79bc 7ad3 d23d c315 4fbe 27a8 d3bb
00000160: ba2e 3ebe 05c8 6d3e 05ce b43d 860e 0bbd
00000170: fe71 cb3d 6639 f53d 4134 03be 1a6d 4ebe
00000180: ef1a 9c3c 8cdd 043e 1401 ab3d d1fc 853d
00000190: 0a91 38be 737b bebd b5b5 7abd cc74 5c3d
000001a0: 89cc 123e 40f6 2f3d 0abf a03d 5eb8 85be
000001b0: 616e 31bb 5066 afbd c217 a13d 2079 503d
000001c0: 2be2 05be 910a 5dbe 5ed6 943d 2e32 1ebe
000001d0: d389 6ebe cd16 883d 3810 ae3a d880 74be
000001e0: 9863 8b3d a9a2 eb3d 1839 fe3d 7716 bd3d
000001f0: 15dc d93d 55f3 09be c7f4 49be cf11 55be
00000200: 9f30 5b3c 9b47 2b3d 24a0 59be a1c7 85be
00000210: 1ea8 093d 4313 cf3c 7b5b 1c3d 8417 ba3d
00000220: 7fe1 adbd 987c 56bb d490 8e3d e29b 413d
00000230: 22cc 2a39 b3ff 8abe 4816 8f3d 9cf9 3ebe
00000240: c15a 19be af40 34be 4c5e 27be 41ea bf3d
00000250: ab95 5bbe 28f6 3b3d 9703 5c3d 5366 8e3d
00000260: 924d a13d f232 89bd 00c9 72bd 1ef3 053d
00000270: f041 63bd 5e6d fa3d ca27 da3c 1c68 993d
00000280: 413b 9d3d 0b61 953d 59c4 b4bd 625a 8d3d
00000290: 605f 6dbe 789b 4bbe 2e30 53be 41a7 8cbc
000002a0: 3955 52be 8cd3 6ebe d4ae b53d 4459 31bd
000002b0: 1c4f 183e 1e67 773d 4466 c23b 5e49 8f3d
000002c0: a7e5 a73d f6fa 5c3c d6eb a33d 9d98 ab3d
000002d0: f5a2 723d bff0 0a3e 8e77 a43c 4fa9 43be
000002e0: a6c1 54be cdd3 b13d b154 a93d 6150 933d
000002f0: 78e8 b9bc 8d2d b0be 2908 5bbd 89b1 eebd
00000300: def5 2b3d 192c 32bd 7e9b 85be 8c17 26be
00000310: ad13 ce3d f99c 473b ba9b 633d b16b 34be
00000320: 3aaf 783d 8616 fbbd 2d00 24be a3f4 3fbe
00000330: 76ba 57bd adf0 b0bd ba41 603d ef27 17be
00000340: c945 10be dd5f 3abe ff32 b0bd f664 a63d
00000350: 64e1 d73d 1552 74be 12ee c23d 7e42 1cbe
00000360: 7bcd 0fbd 3e06 f6bd 52cd 0ebc 8848 06bd
00000370: 8a99 66be a8d6 9bbd 1fa1 c43d d60b 003e
00000380: 91b1 823d ee8d aa3d b05f f13d ee06 d83d
00000390: 5bc6 95be 0256 94bc 148a 23be 0564 d03d
000003a0: 0312 d63d 7b49 293d 6ba7 babd e3c4 b83c
000003b0: 921d 76bd f5b1 23be 968f ddbd d6c2 ab3d
000003c0: fd5d a8bc 9a76 0f3e 4833 21be af06 55bd
000003d0: fee5 c93d 78c4 73bd d05c d23d c8c9 76bd
000003e0: b22a 2fbe ea0e 98bd a5c4 81be 3086 2c3b
000003f0: 8c73 41bc 1988 a13d 1161 ca3d 9f6d be3d

network.9.bias f4 [21]
-0.003899086 0.008909177 0.05534643 0.033517428 0.04471382 -0.042283714 0.04936837 -0.08908598
-0.09354354 0.101662524 0.07408231 0.065308616 -0.068078585 0.081566155 0.030465953 -0.03392525
-0.04359941 -0.05824557 -0.099482745 -0.041963942 -0.11544198
00000000: cf87 7fbb ccf7 113c f0b2 623d 9249 093d
00000010: d725 373d b031 2dbd 7d36 4a3d b672 b6bd
00000020: c193 bfbd 7134 d03d 77b8 973d 86c0 853d
00000030: c96c 8bbd 280c a73d bc93 f93c 34f5 0abd
00000040: 4c95 32bd e892 6ebd 9cbd cbbd 62e2 2bbd
00000050: d86c ecbd
