models/NeuralNetwork-1_acc-55.62_loss-0.000001.pth (torch, 101455 bytes, 8 tensors)

network.0.weight f4 [138, 46]
0.009692699 0.004860109 0.20907348 0.057564612 -0.34074295 -0.05813407 0.18883276 -0.03364012
-0.10507627 -0.035375316 0.09553021 -0.017695256 0.0070398105 -0.023347216 -0.012616268 -0.051610522
-0.07211715 -0.04125769 0.08835762 -0.10083881 0.06262494 -0.053457767 0.009887273 -0.012871269
0.022603726 -0.051514912 0.13090993 -0.084021114 0.09274553 0.11435632 0.1291656 0.13666263
-0.053230807 -0.08716274 -0.08752936 0.120923586 -0.022234619 -0.041096855 0.032768644 -0.18717426
-0.09809122 0.0891371 0.0023949554 0.05005304 -0.06465062 0.037626117 -0.085626446 -0.14888342
-0.07872461 -0.05828062 0.091898374 0.014656238 -0.15452181 -0.010078047 -0.022878543 0.020089377
0.09325027 -0.08806455 -0.061043046 0.13476223 0.05252007 0.32582805 -0.07784838 -0.28799567
0.01047762 -0.048795614 -0.06415682 0.0069678724 0.04434748 0.054150403 -0.16848172 0.09030156
0.011921226 0.15852392 0.10975483 0.025402168 -0.0025339955 0.027169531 0.011236203 -0.021407558
-0.18744163 0.11865175 0.0831461 -0.08754997 -0.2155889 0.06225503 0.06784047 0.07125681
0.11703023 0.01505483 -0.05951034 -0.04537043 0.01940258 -0.057761155 -0.049352538 0.06198678
-0.1817614 -0.020908587 0.1471316 0.07467814 -0.114982545 -0.019007593 0.08959612 0.048899814
-0.24682187 -0.23320356 0.27225488 -0.27458194 -0.0019138539 0.054294094 0.024836173 0.11730807
0.002492967 -0.06830079 -0.06409628 0.014001343 0.011401224 -0.051714446 -0.00022974875 0.11879916
0.07272658 0.02145416 -0.11338391 -0.032844834 0.05324158 -0.08099935 -0.22713171 0.030680228
-0.10830619 -0.14724158 -0.26140264 -0.013219181 0.1470146 0.0741478 -0.104970515 -0.20774928
0.056885235 0.013379186 -0.043255653 -0.102177374 -0.13432676 -0.13606696 0.081573434 0.14609899
-0.0665341 -0.09241573 0.08529655 0.07104104 -0.059534922 -0.028363002 0.11415208 0.10320293
-0.106185906 -0.1351517 -0.30367026 0.18334386 -0.16638845 -0.0016248714 -0.1332288 -0.015961234
0.15653333 0.15521362 0.10306766 -0.014859066 -0.0055522383 -0.08396545 0.09491833 -0.07350883
-0.049519453 0.062496956 0.108577915 -0.009744385 -0.07953842 0.21177852 0.1867385 -0.09297389
-0.0057167 -0.09245025 0.06456664 -0.1536405 0.14634341 0.09054499 -0.036967665 -0.118930005
0.08456739 0.081362136 0.31030053 0.14572755 -0.023250718 -0.0014711298 -0.1169138 -0.05505177
-0.02361254 -0.05099737 0.04224307 -0.05546 0.04909622 0.09750209 -0.058182646 -0.1298519
0.17439044 0.014275174 -0.032145828 -0.03930516 0.007999576 0.020106826 0.012762534 0.06018662
-0.068840876 -0.08728367 0.16672237 -0.029088436 -0.13138849 -0.047096707 -0.181135 0.027387833
0.016914317 0.035202783 -0.06485651 -0.067475714 -0.27301624 0.15646501 -0.041662876 0.0543893
-0.001611311 0.07245911 0.09693035 -0.002388485 -0.0025741355 -0.014723991 -0.008769458 0.012119169
0.018560793 -0.02774532 -0.06024145 0.111044675 0.13714653 -0.43429384 0.04717331 0.0045005786
-0.21013841 -0.07360495 0.09585041 0.10465064 0.24733616 -0.07289645 -0.0067300727 0.016630467
0.07244607 -0.083210915 -0.07800128 0.08114744 -0.05278539 0.01828644 -0.12861691 -0.11119698
00000000: 20ce 1e3c 8d41 9f3b 5c17 563e dfc8 6b3d
00000010: dc75 aebe fe1d 6ebd 605d 413e 39ca 09bd
00000020: 3a32 d7bd b5e5 10bd 58a5 c33d a4f5 90bc
00000030: 36ae e63b a942 bfbc 77b4 4ebc 8e65 53bd
00000040: 28b2 93bd d3fd 28bd d7f4 b43d 9484 cebd
00000050: 8141 803d 88f6 5abd 3bfe 213c 04e2 52bc
00000060: 732b b93c 4d01 53bd 410d 063e 4313 acbd
00000070: 5ef1 bd3d a533 ea3d fd43 043e 4af1 0b3e
00000080: 8c08 5abd 6182 b2bd 9842 b3bd c9a6 f73d
00000090: 6025 b6bc 2d55 28bd 6a38 063d 9caa 3fbe
000000a0: 0de4 c8bd 838d b63d aff4 1c3b 6b04 4d3d
000000b0: 8b67 84bd d81d 1a3d eb5c afbd e574 18be
000000c0: 5e3a a1bd a9b7 6ebd 3735 bc3d b820 703c
000000d0: f73a 1ebe 651e 25bc c86b bbbc 7a92 a43c
000000e0: fff9 be3d 305b b4bd 4608 7abd 1cff 093e
000000f0: 491f 573d efd2 a63e f96e 9fbd 2b74 93be
00000100: 53aa 2b3c e9dd 47bd a764 83bd c052 e43b
00000110: b4a5 353d d0cc 5d3d 7986 2cbe 06f0 b83d
00000120: 3f51 433c 1854 223e 24c7 e03d 3518 d03c
00000130: 6411 26bb a392 de3c 0d18 383c e75e afbc
00000140: b3f0 3fbe b0ff f23d 8148 aa3d 664d b3bd
00000150: 56c3 5cbe 21ff 7e3d f2ef 8a3d 17ef 913d
00000160: 8cad ef3d 89a8 763c 1dc1 73bd 58d6 39bd
00000170: 29f2 9e3c f696 6cbd e325 4abd dae5 7d3d
00000180: a91f 3abe 7c48 abbc aba9 163e daf0 983d
00000190: f87b ebbd d0b5 9bbc 2c7e b73d 2c4b 483d
000001a0: dfbe 7cbe eacc 6ebe fe64 8b3e 0196 8cbe
000001b0: 48da faba 7c63 5e3d 3b75 cb3c 373f f03d
000001c0: 0c61 233b 49e1 8bbd e944 83bd e465 653c
000001d0: 33cc 3a3c 87d2 53bd b6e8 70b9 f94c f33d
000001e0: acf1 943d a2c0 af3c d335 e8bd 4e88 06bd
000001f0: d813 5a3d fde2 a5bd 3795 68be 1a55 fb3c
00000200: a3cf ddbd 7fc6 16be 91d6 85be 4495 58bc
00000210: ff8a 163e cdda 973d c8fa d6bd 3abc 54be
00000220: 7e00 693d 6034 5b3c d72c 31bd 5f42 d1bd
00000230: f48c 09be 2355 0bbe f90f a73d f99a 153e
00000240: 0843 88bd 7544 bdbd f5af ae3d f77d 913d
00000250: e4da 73bd 8759 e8bc 91c8 e93d 0f5c d33d
00000260: ff77 d9bd 3565 0abe ab7a 9bbe 7ebe 3b3e
00000270: bc61 2abe a3f9 d4ba 216d 08be 22c1 82bc
00000280: 464a 203e 52f0 1e3e 2315 d33d 7173 73bc
00000290: 8def b5bb 14f6 abbd 8b64 c23d cc8b 96bd
000002a0: e9d4 4abd cffc 7f3d 195e de3d eaa6 1fbc
000002b0: 0ae5 a2bd 78dc 583e 6138 3f3e 1869 bebd
000002c0: 2853 bbbb 8f56 bdbd 843b 843d ef53 1dbe
000002d0: 0cdb 153e a76f b93d 686b 17bd 9391 f3bd
000002e0: ab31 ad3d 31a1 a63d b6df 9e3e 9a39 153e
000002f0: 4a78 bebc edd2 c0ba 8170 efbd f77d 61bd
00000300: 166f c1bc 9ee2 50bd 1207 2d3d 062a 63bd
00000310: 1e19 493d 2daf c73d ed50 6ebd e5f7 04be
00000320: 6893 323e 6be2 693c 58ab 03bd 73fe 20bd
00000330: a710 033c 12b7 a43c f319 513c 3f86 763d
00000340: 72fc 8cbd c8c1 b2bd 45b9 2a3e df4a eebc
00000350: b48a 06be 7ae8 40bd 747b 39be 735c e03c
00000360: e58f 8a3c cb30 103d 7dd3 84bd b530 8abd
00000370: c9c8 8bbe 5d38 203e b1a6 2abd 51c7 5e3d
00000380: a032 d3ba 7165 943d 6b83 c63d 2188 1cbb
00000390: d4b2 28bb e53c 71bc c6ad 0fbc 7b8f 463c
000003a0: ce0c 983c 274a e3bc bdbf 76bd 646b e33d
000003b0: 2470 0c3e c35b debe cd38 413d 9779 933b
000003c0: 862e 57be 31be 96bd 384d c43d 1353 d63d
000003d0: b145 7d3e bc4a 95bd f187 dcbb 9e3c 883c
000003e0: 9b5e 943d 7c6a aabd 23bf 9fbd a130 a63d
000003f0: 7e35 58bd 72cd 953c 27b4 03be 3ebb e3bd

network.0.bias f4 [138]
-0.33053094 0.039152265 -0.16154945 -0.15515561 -0.22894993 -0.45337433 -0.42624778 -0.26413026
-0.3713882 -0.37524587 -0.15695848 -0.34716585 0.011073792 -0.15001185 -0.22218925 -0.13034438
-0.23926745 -0.25504375 -0.072458714 -0.07552011 -0.17839773 -0.058834407 -0.10330056 -0.28330225
-0.34512693 -0.29740122 0.09428443 0.009104357 -0.20398524 -0.046399042 -0.051909193 -0.08566716
-0.15432592 -0.17767604 -0.23965913 -0.22309715 -0.37290254 -0.3689273 0.015678737 -0.16234723
-0.1921907 -0.17585424 -0.21237606 -0.4394285 -0.073501505 -0.23955876 -0.19740139 -0.5246768
-0.1682553 0.025746465 -0.60483235 -0.29704782 -0.0469657 -0.35552618 -0.26132533 -0.18553023
-0.20486578 -0.33685693 -0.110383585 -0.0686616 -0.48834035 -0.0136150485 -0.07621238 -0.2132013
-0.31201863 -0.478866 -0.20628971 -0.34056935 -0.18211107 -0.35214305 -0.19824144 -0.21823047
-0.10341615 0.07494138 -0.16373706 0.116815835 -0.30089536 -0.18097086 -0.33606794 0.0043396847
-0.2189746 -0.100546755 -0.31428617 -0.012008744 -0.33382085 -0.016224762 -0.23475654 -0.50821376
-0.31759277 -0.34687924 -0.33665 -0.24135543 -0.34060407 0.14204757 -0.18734996 -0.23850739
-0.36321533 0.015960008 -0.32548508 -0.42224476 -0.2435777 -0.105832055 -0.1430287 0.04365469
-0.05283322 -0.19981056 -0.029191822 -0.21418044 -0.55552185 -0.4039065 -0.06689784 -0.19683354
-0.13302071 -0.09074832 -0.5582671 -0.24633916 -0.024145678 -0.025244135 -0.028429382 -0.49471372
-0.30925566 -0.092922665 -0.4456079 -0.095500775 -0.31899303 -0.2644476 -0.17549197 -0.16636619
-0.31935114 -0.11980012 -0.32484847 0.034249242 -0.2530943 0.007001739 -0.05188704 0.058441296
-0.33408642 -0.0076083085
00000000: 5a3b a9be 205e 203d 386d 25be 1de1 1ebe
00000010: da71 6abe ae20 e8be 263d dabe 153c 87be
00000020: 9826 bebe 3a20 c0be b9b9 20be b9bf b1be
00000030: da6e 353c b59c 19be 9485 63be ff78 05be
00000040: 8702 75be 1895 82be 3c65 94bd 4aaa 9abd
00000050: e5ad 36be 59fc 70bd 3e8f d3bd fe0c 91be
00000060: 7ab4 b0be f944 98be 3218 c13d 712a 153c
00000070: 82e1 50be ec0c 3ebd bc9e 54bd 4472 afbd
00000080: 9d07 1ebe b5f0 35be 3469 75be 9473 64be
00000090: 15ed bebe 0ae4 bcbe b270 803c 5a3e 26be
000000a0: a4cd 44be 2213 34be 1c79 59be c6fc e0be
000000b0: f587 96bd e44e 75be 9723 4abe 3851 06bf
000000c0: 1e4b 2cbe 40ea d23c 4bd6 1abf a716 98be
000000d0: 1b5f 40bd 8707 b6be 6fcc 85be a3fb 3dbe
000000e0: 56c8 51be 8378 acbe ca10 e2bd 749e 8cbd
000000f0: bf07 fabe a711 5fbc 3c15 9cbd 7151 5abe
00000100: e8c0 9fbe ed2d f5be 9c3d 53be 1b5f aebe
00000110: 537b 3abe 184c b4be ceff 4abe cf77 5fbe
00000120: d9cb d3bd de7a 993d b0aa 27be 243d ef3d
00000130: f50e 9abe 6d50 39be 1911 acbe ea33 8e3b
00000140: e13a 60be 75eb cdbd 1eea a0be 53c0 44bc
00000150: 91ea aabe cbe9 84bc 0564 70be 4c1a 02bf
00000160: 859b a2be 289a b1be 645d acbe e125 77be
00000170: a863 aebe eb74 113e abd8 3fbe 483b 74be
00000180: 5cf7 b9be 90be 823c fba5 a6be 7730 d8be
00000190: 6f6c 79be 7abe d8bd 1e76 12be 43cf 323d
000001a0: a667 58bd 249b 4cbe b023 efbc 1e52 5bbe
000001b0: ae36 0ebf d5cc cebe bc01 89bd bb8e 49be
000001c0: 9536 08be 41da b9bd 98ea 0ebf 5540 7cbe
000001d0: 28cd c5bc cacc cebc bce4 e8bc 1e4b fdbe
000001e0: c256 9ebe 3d4e bebd b826 e4be e995 c3bd
000001f0: 0e53 a3be ad65 87be 2bb4 33be e65b 2abe
00000200: fe81 a3be c459 f5bd 8a52 a6be ef48 0c3d
00000210: 9395 81be d86e e53b 8187 54bd 2460 6f3d
00000220: 600d abbe 1e4f f9bb

network.3.weight f4 [92, 138]
0.081132494 -0.018097976 0.024665918 0.002610343 0.017312625 -0.03683993 -0.12503465 -0.16124518
-0.08858154 -0.06334313 -0.08525877 0.046008762 -0.04114525 -0.039866675 -0.01125272 -0.057421543
0.003125541 -0.05523504 0.1448323 -0.05040624 -0.12960342 0.015456156 0.038359098 0.072724156
0.13354915 -0.01682124 0.22875653 -0.06534861 -0.037465453 -0.08112751 0.017774975 0.04590331
-0.06628642 -0.05837679 -0.006944187 0.07106958 -0.051496707 -0.08319903 0.04261745 0.032481737
-0.10982884 -0.07493076 -0.036581166 0.12683639 -0.024899945 0.056883708 0.018313752 -0.031633124
-0.037821524 0.09269392 -0.079164 0.07245031 0.012379564 -0.022328516 0.11727611 0.0005782521
0.087151155 0.083919644 0.04938913 0.019421427 0.072736844 0.059382934 0.07039001 0.043355405
-0.057083752 -0.06417583 -0.052500617 -0.16183795 0.091122776 -0.032544997 -0.013062403 0.0099989325
0.06697261 0.014041278 -0.007600129 0.013499346 0.07418058 0.0010370585 0.013732099 0.04446092
0.06708113 -0.028463915 -0.10948759 -0.010776471 -0.03292383 0.11127901 0.11736609 -0.08459683
0.068142086 -0.09115988 0.121860094 0.15732135 0.15300463 -0.050280772 -0.024047915 0.020199995
-0.027741538 0.036747638 0.0820371 -0.027305506 0.1103686 0.0164277 -0.026041863 -0.0017132956
0.022210918 0.028535856 -0.010175211 -0.054725982 -0.26526523 -0.014247561 -0.050925512 0.10482046
-0.15004662 0.009590012 -0.099398226 -0.024680402 0.06469792 0.06885089 0.07320263 -0.056268953
-0.035677712 -0.006539694 -0.10396904 0.023221685 0.018020138 -0.022972746 -0.03242411 0.09299251
-0.03729006 0.040702567 0.08432366 -0.0146372365 -0.03760016 0.017429996 -0.0041684904 -0.059045803
-0.008894683 0.03445835 -0.042663537 0.083634965 -0.13349587 -0.12100653 0.061544996 0.029614124
0.08143321 0.014981008 -0.0139985485 -0.028400382 -0.035799347 0.09200872 -0.12615182 0.03557256
-0.037798103 0.027994126 -0.049945425 0.020803276 -0.045803588 -0.0037876903 0.04089846 0.12795559
-0.092294306 -0.005966086 -0.08989533 0.094547756 -0.07708006 -0.105605625 -0.0630102 0.108299054
0.020913 0.018892577 -0.0033758332 -0.10568031 -0.009936265 0.113393195 0.016802715 0.048875332
0.012754975 -0.015198787 -0.08247973 0.051500086 0.037286714 0.15226987 0.022011071 -0.08649529
-0.01233324 -0.015876437 -0.13842401 -0.11120327 -0.094003454 0.083419874 0.05517321 0.07097752
-0.09620674 -0.12326499 0.0054380023 0.047000635 0.11467262 0.04258668 -0.1172226 -0.017581236
0.015400295 -0.18833257 -0.021343 -0.04111844 -0.01145327 -0.047781873 0.05443094 0.0920605
0.073916815 0.0144811915 0.07534598 -0.035856698 0.16869867 -0.026134312 -0.009799549 -0.029248273
0.14383331 0.01968517 0.021816494 0.0012430595 0.00891989 -0.276591 0.013114784 0.1184423
0.21074401 -0.07140144 0.018212661 -0.17689876 -0.1106726 0.04671463 -0.100593925 -0.026114598
0.042303953 0.038841452 0.032377366 0.14854501 -0.08276797 0.11472812 -0.14067996 0.036279008
0.06548682 -0.062422507 -0.0037779103 -0.008994423 0.012224771 0.10131844 -0.019288484 0.09674264
0.00096975645 0.100118674 0.08907078 0.03810396 0.05599789 -0.030208832 0.008918623 0.06915817
00000000: cb28 a63d 3542 94bc 2e10 ca3c 4a12 2b3b
00000010: 35d3 8d3c 77e5 16bd 1509 00be 751d 25be
00000020: 3d6a b5bd 0bba 81bd 269c aebd af73 3c3d
00000030: ec87 28bd 3d4b 23bd 545d 38bc da32 6bbd
00000040: e0d5 4c3b 233e 62bd eb4e 143e c676 4ebd
00000050: c2b6 04be d13b 7d3c 6e1e 1d3d 67f0 943d
00000060: 1cc1 083e b2cc 89bc 273f 6a3e 7ed5 85bd
00000070: 6075 19bd 2e26 a6bd d39c 913c 1c05 3c3d
00000080: 2dc1 87bd 801c 6fbd 108c e3bb ee8c 913d
00000090: 36ee 52bd 4164 aabd a38f 2e3d 920b 053d
000000a0: f1ed e0bd 4c75 99bd 22d6 15bd 66e1 013e
000000b0: f8fa cbbc e4fe 683d b906 963c bc91 01bd
000000c0: beea 1abd 4fd6 bd3d bc20 a2bd d460 943d
000000d0: a8d3 4a3c 4bea b6bc 752e f03d d795 173a
000000e0: 4e7c b23d 10de ab3d 424c 4a3d af19 9f3c
000000f0: 0ef7 943d 853b 733d a328 903d 7095 313d
00000100: a7d0 69bd 9e6e 83bd e30a 57bd d9b8 25be
00000110: 949e ba3d e74d 05bd b003 56bc 90d2 233c
00000120: f028 893d 630d 663c 810a f9bb 5c2c 5d3c
00000130: fdeb 973d e9ed 873a 99fc 603c a71c 363d
00000140: d561 893d 282d e9bc 083b e0bd cc8f 30bc
00000150: 23db 06bd 40e6 e33d a25d f03d 1a41 adbd
00000160: 148e 8b3d 08b2 babd c991 f93d d918 213e
00000170: 3fad 1c3e 36f3 4dbd 2200 c5bc 767a a53c
00000180: 3942 e3bc b184 163d 1103 a83d ccaf dfbc
00000190: ef08 e23d 6293 863c bf55 d5bc a990 e0ba
000001a0: acf3 b53c 07c4 e93c eeb5 26bc 5a28 60bd
000001b0: d8d0 87be 9a6e 69bc 4597 50bd 1cac d63d
000001c0: d2a5 19be 6d1f 1d3c 4c91 cbbd 8e2e cabc
000001d0: 5880 843d b201 8d3d 43eb 953d 467a 66bd
000001e0: cb22 12bd ee4a d6bb b8ed d4bd 673b be3c
000001f0: f89e 933c 5731 bcbc 25cf 04bd db72 be3d
00000200: 76bd 18bd bcb7 263d e2b1 ac3d 05d1 6fbc
00000210: a002 1abd 5ac9 8e3c d597 88bb 03da 71bd
00000220: 01bb 11bc 3324 0d3d f6bf 2ebd cf48 ab3d
00000230: 24b3 08be 46d2 f7bd 9b16 7c3d 5299 f23c
00000240: 74c6 a63d e772 753c 2b5a 65bc eba7 e8bc
00000250: 56a2 12bd 116f bc3d f12d 01be 88b4 113d
00000260: 2fd2 1abd f053 e53c 9393 4cbd a26b aa3c
00000270: 8b9c 3bbd e63a 78bb 2585 273d ca06 033e
00000280: cc04 bdbd 287f c3bb 0b1b b8bd 41a2 c13d
00000290: 27dc 9dbd c347 d8bd 7e0b 81bd e5cb dd3d
000002a0: bd51 ab3c 9bc4 9a3c 153d 5dbb eb6e d8bd
000002b0: b7cb 22bc b13a e83d d9a5 893c 8031 483d
000002c0: 3efa 503c 5504 79bc 22eb a8bd c1f1 523d
000002d0: f4b9 183d a2ec 1b3e 9050 b43c 7124 b1bd
000002e0: 5c11 4abc 4d0f 82bc 06bf 0dbe 8abe e3bd
000002f0: e284 c0bd 0ad8 aa3d 4efd 613d a95c 913d
00000300: 0a08 c5bd 5b72 fcbd 4531 b23b bd83 403d
00000310: 7bd9 ea3d 5f6f 2e3d 6712 f0bd 8606 90bc
00000320: 8551 7c3c 41da 40be 84d7 aebc cf6b 28bd
00000330: 7fa6 3bbc edb6 43bd faf2 5e3d 378a bc3d
00000340: b361 973d 8542 6d3c fe4e 9a3d 79de 12bd
00000350: 58bf 2c3e a017 d6bc 4a8e 20bc 139a efbc
00000360: 0a49 133e cb42 a13c 81b8 b23c 28ee a23a
00000370: bb24 123c 569d 8dbe 64df 563c e091 f23d
00000380: 47cd 573e eb3a 92bd b832 953c f324 35be
00000390: 51a8 e2bd d757 3f3d 3004 cebd 48ee d5bc
000003a0: e946 2d3d 3718 1f3d 219e 043d 2f1c 183e
000003b0: 4182 a9bd 94f6 ea3d 680e 10be 4c99 143d
000003c0: f41d 863d beae 7fbd d196 77bb 585d 13bc
000003d0: 684a 483c 0b80 cf3d e202 9ebc 0121 c63d
000003e0: 4137 7e3a 050b cd3d be6a b63d e612 1c3d
000003f0: 0b5e 653d 8378 f7bc 6b1f 123c cca2 8d3d

network.3.bias f4 [92]
0.18269764 -0.03506918 0.05255656 -0.07810053 0.02240564 0.14587212 0.037863318 -0.098040536
-0.020132864 0.100419864 0.020629723 0.050239645 0.030209213 0.18618989 -0.095608115 -0.04486583
0.0041582193 -0.19566208 0.10017321 -0.020638341 -0.10035542 0.13754547 0.07903785 -0.022128755
-0.06830227 0.08705123 0.16367413 -0.08887336 -0.106393285 0.07847818 -0.23495455 0.030218046
-0.027680976 -0.00852266 -0.0029958442 0.15111609 -0.004596002 0.04269799 -0.017662173 0.0016674874
0.15654087 -0.08187135 0.30644637 0.15610707 -0.11085602 -0.0117256325 0.061998826 0.06845915
0.04033185 0.034480743 -0.038727827 -0.08141616 0.13568227 -0.055895068 0.29358733 0.15202461
0.024203952 -0.20293434 -0.0386738 0.07858904 0.07085786 0.046966296 0.01838711 -0.14165126
-0.07674545 0.044028923 0.11148389 0.066391535 -0.07102313 -0.028310565 0.20026363 -0.06867314
0.041623026 -0.029863385 -0.23147903 -0.10170151 -0.08353393 0.10364326 0.06684488 -0.03990304
0.06987648 -0.03895483 0.05719497 -0.1571043 -0.040301714 0.06578209 -0.07177847 0.19299583
0.15816621 0.10445872 -0.08150429 0.07922186
00000000: 1715 3b3e b3a4 0fbd 8c45 573d 2cf3 9fbd
00000010: 088c b73c 805f 153e 9116 1b3d 7ac9 c8bd
00000020: aded a4bc eea8 cd3d aaff a83c 16c8 4d3d
00000030: 5079 f73c 90a8 3e3e 30ce c3bd 3cc5 37bd
00000040: ac41 883b a45b 48be 9d27 cd3d bd11 a9bc
00000050: 2487 cdbd b8d8 0c3e 99de a13d 5d47 b5bc
00000060: 0fe2 8bbd ea47 b23d 319a 273e 3c03 b6bd
00000070: b9e4 d9bd 2bb9 a03d ed97 70be d68b f73c
00000080: 37c3 e2bc a0a2 0bbc ed55 44bb 2dbe 1a3e
00000090: 0f9a 96bb 16e4 2e3d 43b0 90bc 988f da3a
000000a0: 404c 203e 2bac a7bd 8ae6 9c3e 88da 1f3e
000000b0: 7b08 e3bd de1c 40bc 7bf2 7d3d 5034 8c3d
000000c0: 0333 253d ae3b 0d3d 12a1 1ebd 84bd a6bd
000000d0: 4bf0 0a3e 3af2 64bd 1451 963e 57ac 1b3e
000000e0: 5e47 c63c 05ce 4fbe 6b68 1ebd 4af3 a03d
000000f0: ed1d 913d bb5f 403d 91a0 963c 070d 11be
00000100: b82c 9dbd ac57 343d aa51 e43d 49f8 873d
00000110: 9374 91bd 8feb e7bc e911 4d3e 81a4 8cbd
00000120: e87c 2a3d 0fa4 f4bc d708 6dbe e248 d0bd
00000130: d613 abbd eb42 d43d f8e5 883d 5f71 23bd
00000140: 661b 8f3d 1a8f 1fbd 4645 6a3d f3df 20be
00000150: 6913 25bd c3b8 863d 9700 93bd b3a0 453e
00000160: 53f6 213e 74ee d53d b9eb a6bd 123f a23d

network.6.weight f4 [46, 92]
0.10151909 -0.071522154 0.105305724 -0.028691085 -0.041552927 -0.017068662 0.023610974 0.11915809
0.04362809 0.11169627 0.061383072 0.034984894 0.29082283 0.15326807 0.17167495 -0.10450282
0.0757526 -0.046054605 0.1647197 0.15795635 -0.03863271 0.35273114 0.1296 0.17803238
0.043550387 0.13332847 0.12978838 -0.13106747 0.05504255 0.1117202 -0.016257891 0.21795775
0.021994613 -0.005848722 -0.095678136 -0.000787645 0.053823274 -0.028052803 -0.065810725 -0.034241688
0.086586885 0.027588937 0.10424094 0.08751822 -0.026295038 -0.21187417 -0.029176945 0.17033438
0.18357103 -0.025852982 -0.08620987 -0.139447 0.15359247 -0.0772657 0.16618966 0.38362893
-0.023980537 -0.035897683 -0.16566549 0.15020874 0.12874715 0.31170508 0.08841111 -0.062895015
-0.04297805 -0.14271246 0.029909631 0.059158627 -0.10851209 0.00069872214 0.28662282 0.080688104
0.1366091 -0.08197673 -0.098072045 0.076877974 -0.20454587 -0.009069272 0.36406884 0.0031276545
0.1886421 0.13205005 -0.03111515 -0.037621304 -0.034083124 0.1235076 -0.15401715 0.09214215
0.005374485 -0.07317846 0.020865286 0.023599783 -0.0075221173 -0.06341215 0.3886669 -0.04948826
0.19396086 -0.035151713 0.057060227 -0.07659483 -0.13173592 0.059493124 0.07048588 0.27172154
-0.024122246 0.0753476 0.06179519 -0.10524482 -0.13198307 -0.14990547 0.08225201 -0.08929992
-0.16413203 -0.051067322 0.12865347 0.060238473 0.05715051 -0.038198803 0.18742725 -0.017053071
0.105459385 -0.04452562 -0.022312663 -0.077063926 -0.20503242 0.021887496 0.28745314 0.18087786
0.0005153644 -0.06094228 -0.019601295 -0.06297284 0.09195172 -0.037311323 0.18204266 -0.0006822452
-0.026760979 -0.09908411 -0.046509743 -0.00917841 0.12795682 0.2610294 -0.26256225 0.070039496
-0.07394298 -0.11546732 0.18430355 -0.05004467 -0.008583196 -0.18848643 -0.16021572 -0.019002894
0.015593 0.07275856 -0.06843715 0.05786707 0.046612136 0.09892023 -0.15887934 -0.10644129
-0.18718547 0.18166752 0.063203536 0.10344329 -0.09273307 -0.0051919064 -0.078419484 0.03493424
-0.15932438 0.14844906 0.007130941 -0.00764562 -0.04046889 0.0064340197 -0.08535351 -0.20992519
-0.24462143 -0.038988538 -0.097454146 0.16177543 0.029588975 0.042324048 -0.0034118863 -0.008131948
0.008506193 0.08824825 -0.0009406134 0.050578933 -0.12598017 -0.023341909 0.03363171 -0.2602248
-0.035656527 -0.046793412 -0.18539609 -0.2112467 0.002777653 -0.069625586 -0.053944953 -0.01663741
0.066805065 0.021455264 0.033276085 0.01215218 0.15533623 0.18792692 -0.008347093 0.08831518
0.060992025 0.17658448 0.047467608 0.21650378 -0.10065413 0.18167779 -0.117056794 -0.33604366
-0.2416069 0.0898244 -0.24371447 -0.21059714 0.04473783 0.02964139 -0.21971616 -0.04314676
-0.05947175 0.050077267 0.06947448 0.14355676 -0.098536044 -0.01404376 0.13270053 0.00536679
-0.29666874 -0.09539174 0.31812868 -0.20654318 0.09293437 0.07489453 -0.06095352 0.0021507852
0.04861281 -0.19808485 0.1392893 0.03557256 -0.1142978 0.0007118435 -0.04119224 -0.013264652
0.15105857 0.044180024 0.17127949 0.1276083 0.10135553 -0.1211178 -0.014647256 0.075397246
00000000: 3ee9 cf3d 357a 92bd 87aa d73d 9109 ebbc
00000010: 6733 2abd 94d3 8bbc cd6b c13c 2809 f43d
00000020: 5eb3 323d 04c1 e43d d16c 7b3d 524c 0f3d
00000030: bbe6 943e 4ef2 1c3e 8fcb 2f3e 9305 d6bd
00000040: 2e24 9b3d c1a3 3cbd 48ac 283e 4fbf 213e
00000050: 553d 1ebd 2d99 b43e ddb5 043e 1f4e 363e
00000060: e461 323d 4287 083e 3fe7 043e 8d36 06be
00000070: 4c74 613d 8fcd e43d 452f 85bc 5130 5f3e
00000080: 0c2e b43c a3a6 bfbb e6f2 c3bd f679 4eba
00000090: cb75 5c3d fece e5bc c6c7 86bd 0341 0cbd
000000a0: 7754 b13d 3202 e23c 467c d53d c13c b33d
000000b0: b168 d7bc 8bf5 58be 7d04 efbc 236c 2e3e
000000c0: 0bfa 3b3e a2c9 d3bc cd8e b0bd 32cb 0ebe
000000d0: 5847 1d3e 7b3d 9ebd 9f2d 2a3e 036b c43e
000000e0: d572 c4bc 7309 13bd 37a4 29be 52d0 193e
000000f0: 4bd6 033e cf97 9f3e e210 b53d 1acf 80bd
00000100: c009 30bd 3723 12be 0b05 f53c 5150 723d
00000110: 963b debd 732a 373a 3ac0 923e ce3f a53d
00000120: 42e3 0b3e 6ae3 a7bd ffd9 c8bd 3372 9d3d
00000130: 7974 51be 4997 14bc 3b67 ba3e 56f9 4c3b
00000140: 652b 413e 2138 073e 33e5 febc cc18 1abd
00000150: bf9a 0bbd 8df1 fc3d acb6 1dbe 06b5 bc3d
00000160: 731c b03b 97de 95bd aded aa3c 5554 c13c
00000170: 187c f6bb 3bde 81bd 59ff c63e 34b4 4abd
00000180: ad9d 463e 3efb 0fbd fcb7 693d c0dd 9cbd
00000190: c8e5 06be 10af 733d e75a 903d 161f 8b3e
000001a0: 049c c5bc d84f 9a3d f41c 7d3d 998a d7bd
000001b0: 9226 07be d280 19be be73 a83d e0e2 b6bd
000001c0: 3a12 28be f82b 51bd bcbd 033e 9ebc 763d
000001d0: a716 6a3d 5976 1cbd eeec 3f3e e2b2 8bbc
000001e0: 17fb d73d 7f60 36bd 0cc9 b6bc b1d3 9dbd
000001f0: 05f4 51be 684d b33c 0f2d 933e 0c38 393e
00000200: 8519 073a 9d9e 79bd e592 a0bc e8f7 80bd
00000210: 2f51 bc3d c2d3 18bd 6469 3a3e b3d8 32ba
00000220: d739 dbbc 9cec cabd 0081 3ebd 0b61 16bc
00000230: 1d07 033e a5a5 853e 8f6e 86be de70 8f3d
00000240: 6b6f 97bd 217a ecbd 12ba 3c3e a4fb 4cbd
00000250: 89a0 0cbc 9602 41be 970f 24be f5ab 9bbc
00000260: c879 7f3c 7102 953d c728 8cbd 0506 6d3d
00000270: 5eec 3e3d b196 ca3d 44b1 22be e4fd d9bd
00000280: 8cad 3fbe 0d07 3a3e db70 813d 13da d33d
00000290: d6ea bdbd de20 aabb 659a a0bd 3517 0f3d
000002a0: ee25 23be 0803 183e abaa e93b 1c88 fabb
000002b0: b5c2 25bd 78d4 d23b d2cd aebd a1f6 56be
000002c0: 0a7e 7abe 72b2 1fbd 0a96 c7bd 75a8 253e
000002d0: 9464 f23c fb5b 2d3d f499 5fbb dd3b 05bc
000002e0: 8f5d 0b3c 80bb b43d 7f93 76ba db2b 4f3d
000002f0: f200 01be 8837 bfbc 67c1 093d 2f3c 85be
00000300: 940c 12bd 73aa 3fbd 79d8 3dbe 0e51 58be
00000310: 4909 363b dc97 8ebd 62f5 5cbd 2d4b 88bc
00000320: 18d1 883d f3c2 af3c 814c 083d f019 473c
00000330: 7610 1f3e ea6f 403e 3fc2 08bc 97de b43d
00000340: c6d2 793d 90d2 343e 656d 423d 2bb3 5d3e
00000350: c123 cebd be09 3a3e 79bb efbd ea0d acbe
00000360: cd67 77be dbf5 b73d 4990 79be c7a6 57be
00000370: 043f 373d 80d2 f23c 46fd 60be a8ba 30bd
00000380: a698 73bd d21d 4d3d a348 8e3d 8b00 133e
00000390: 44cd c9bd cc17 66bc a6e2 073e e6db af3b
000003a0: f7e4 97be bf5c c3bd c3e1 a23e 0e80 53be
000003b0: 6054 be3d 4e62 993d 66aa 79bd 30f4 0c3b
000003c0: 3a1e 473d c1d6 4abe dba1 0e3e 88b4 113d
000003d0: f714 eabd 029b 3a3a 32b9 28bd fc53 59bc
000003e0: 19af 1a3e 1df6 343d e463 2f3e c0ab 023e
000003f0: 7d93 cf3d 9c0c f8bd 0bfb 6fbc df69 9a3d

network.6.bias f4 [46]
0.0765788 0.25433493 -0.078928515 -0.004938149 0.008407469 0.14320678 -0.0075436104 0.18649566
-0.024697535 -0.10927499 0.017689811 0.111840695 -0.12284229 0.13969596 0.1509397 -0.07666006
0.16377598 0.11421666 0.07289218 0.022302516 -0.02326701 -0.0019406016 0.016503025 -0.11757564
0.14270033 -0.09585036 -0.06150975 0.2107182 0.19047557 0.0067606824 -0.021085247 -0.11897714
0.1596876 0.036214996 0.044700235 0.032032248 0.31749496 0.14302154 0.131954 0.25471315
-0.11403395 -0.056275513 0.20799285 -0.00028803598 0.035387658 -0.06459482
00000000: 59d5 9c3d 3038 823e 46a5 a1bd 32d0 a1bb
00000010: 7bbf 093c cca4 123e 6430 f7bb b8f8 3e3e
00000020: 7c52 cabc 91cb dfbd 39ea 903c bc0c e53d
00000030: bd94 fbbd 750c 0f3e f08f 1a3e f3ff 9cbd
00000040: e4b4 273e 6dea e93d 7f48 953d c4b3 b63c
00000050: 759a bebc c95b feba 5a31 873c 7fcb f0bd
00000060: 0920 123e 324d c4bd a6f1 7bbd 83c6 573e
00000070: 070c 433e b788 dd3b f8ba acbc 49aa f3bd
00000080: 2585 233e 2d56 143d 9817 373d 3f34 033d
00000090: b38e a23e 3d74 123e f31e 073e c369 823e
000000a0: a28a e9bd 2781 66bd 14fc 543e 8903 97b9
000000b0: a6f2 103d 4a4a 84bd

network.9.weight f4 [21, 46]
-0.1712905 -0.20684427 -0.052570775 -0.33490577 0.16679993 0.10932935 0.13396679 -0.023863874
-0.09209178 0.12721191 -0.23212925 0.0991085 -0.25491306 0.03742342 -0.082082696 0.044655196
-0.37584114 0.18496518 -0.1355822 0.036354687 0.05301736 -0.16673373 -0.016598461 -0.02699511
-0.14546053 -0.03657667 -0.073209435 0.04244089 -0.01517673 0.04558444 0.023320211 0.027978888
0.1783312 0.12092651 0.1494461 0.12525901 0.14954306 -0.2661107 -0.18277907 -0.26357383
0.093883544 -0.1689264 -0.092908904 -0.0853165 0.0894275 0.099501565 0.06558536 0.06947686
0.14412794 -0.3644786 0.040799998 0.10642032 -0.08873717 0.12664178 0.1789044 -0.13964853
-0.21714053 0.022494957 -0.2499703 0.20177603 -0.063147694 -0.2205843 0.036442325 -0.21776168
0.10663102 -0.10933057 -0.25054625 -0.195048 -0.14641412 -0.1642633 0.0355851 0.07080736
0.07146024 0.11194405 0.10206024 -0.14761999 -0.39935583 -0.15053101 0.1390378 -0.22610725
0.1184624 0.105117425 0.15442723 0.13070253 0.124700464 0.119478635 -0.14191964 -0.18721075
-0.061375324 0.06493111 0.06070887 -0.42592195 0.10558889 -0.2588274 0.23325719 0.06995912
-0.3701804 0.08764479 -0.2495626 -0.4904609 -0.02062282 0.10480427 0.08269425 0.08806989
-0.010447571 -0.1677481 -0.08761687 -0.11306832 0.07615432 -0.21087016 -0.1503547 -0.20198534
0.02922126 0.04593572 -0.49396175 0.14419806 0.13176556 0.021503817 0.16912246 -0.44712025
0.07452336 0.11442584 0.03565186 0.1141088 -0.17889693 -0.29580593 -0.22331776 0.12719466
-0.11925636 0.13408017 0.12133105 -0.21220955 -0.27840346 0.15465441 0.08047998 -0.017015336
-0.27132106 0.017479427 0.018793344 0.09269551 0.27584898 -0.11864346 -0.3119102 -0.017080529
-0.24692649 0.10263851 0.022819847 -0.26733345 0.08661128 -0.04554606 0.103280775 0.19336018
-0.2278131 -0.031096622 0.032249287 -0.24368545 0.11695583 0.14084141 -0.033457812 -0.28168932
0.10927701 0.1159368 0.038175475 0.055300467 0.07556658 -0.098901175 -0.21229893 -0.14984033
-0.31428626 0.14629193 -0.38843933 0.057187285 -0.20482145 0.08565303 -0.035832472 0.04185941
0.18469884 0.15725729 -0.014869579 -0.3448645 0.09724949 -0.25671482 0.14303605 0.08734663
-0.16982742 -0.22656219 -0.13718954 -0.20973314 -0.27489495 -0.34194133 -0.14453177 -0.062990814
-0.14883275 -0.06614391 -0.16597676 -0.2551712 -0.13129479 -0.20385724 -0.09472608 -0.17959036
-0.2809228 -0.22349454 -0.17649858 -0.26059172 -0.17149377 -0.22516672 -0.19243588 -0.15366602
-0.04382963 0.008528723 -0.02451429 -0.34654957 -0.095104225 -0.11946624 -0.18546376 -0.10861101
-0.24127409 -0.008703025 -0.32742587 -0.20430803 -0.27660486 -0.2816823 -0.08071262 -0.04788097
-0.00524806 -0.117380045 -0.25166696 -0.13120487 -0.16409129 -0.20380042 0.107251756 0.15509543
-0.2835736 0.05626616 -0.2532298 0.091399506 -0.22610389 0.06772478 0.1305223 -0.17794879
-0.2113896 0.10500317 -0.14868966 0.122889265 0.039212115 -0.16728044 0.12370305 -0.24630944
-0.085996166 0.07058062 0.07323216 -0.08573894 -0.18621176 -0.3353612 0.09178151 0.10487058
00000000: c766 2fbe fcce 53be 7454 57bd c578 abbe
00000010: 9acd 2a3e 11e8 df3d 972e 093e 2c7e c3bc
00000020: 9d9a bcbd d743 023e 4ab3 6dbe 66f9 ca3d
00000030: f783 82be 4d49 193d f91a a8bd 5ee8 363d
00000040: 406e c0be 8367 3d3e 0fd6 0abe a7e8 143d
00000050: bb28 593d 3fbc 2abe 7ff9 87bc d924 ddbc
00000060: 9bf3 14be 6bd1 15bd d4ee 95bd 80d6 2d3d
00000070: d2a7 78bc c0b6 3a3d 070a bf3c fb33 e53c
00000080: 749c 363e 51a8 f73d 6608 193e e643 003e
00000090: d121 193e a93f 88be 702a 3bbe 26f3 86be
000000a0: 0446 c03d 0bfb 2cbe 0647 bebd 6bba aebd
000000b0: c425 b73d 7ac7 cb3d 9e51 863d e249 8e3d
000000c0: 4696 133e f09c babe e61d 273d e6f2 d93d
000000d0: d5bb b5bd 62ae 013e b732 373e 0600 0fbe
000000e0: 165a 5ebe 5847 b83c 37f8 7fbe 609e 4e3e
000000f0: 9453 81bd dae0 61be 8c44 153d ebfc 5ebe
00000100: 5d61 da3d b5e8 dfbd 9947 80be aaba 47be
00000110: 95ed 15be a334 28be afc1 113d 7303 913d
00000120: bf59 923d ec42 e53d f604 d13d b229 17be
00000130: 5e78 ccbe cd24 1abe ed5f 0e3e a988 67be
00000140: 6a9c f23d ce47 d73d 2c22 1e3e e2d6 053e
00000150: f562 ff3d 37b1 f43d 6253 11be 2db4 3fbe
00000160: b164 7bbd 9afa 843d dda9 783d 7112 dabe
00000170: fd3e d83d 0685 84be f9da 6e3e ba46 8f3d
00000180: 4988 bdbe 1d7f b33d 578d 7fbe b11d fbbe
00000190: 30f1 a8bc 9fa3 d63d 9a5b a93d fd5d b43d
000001a0: 4a2c 2bbc 28c6 2bbe 7970 b3bd 5d90 e7bd
000001b0: ccf6 9b3d 59ee 57be 95f6 19be 3fd5 4ebe
000001c0: 6d61 ef3c 1827 3c3d 8ee8 fcbe a8a8 133e
000001d0: 8ded 063e c628 b03c 702e 2d3e f2ec e4be
000001e0: b49f 983d 1858 ea3d af07 123d e0b1 e93d
000001f0: c230 37be e073 97be 69ad 64be 513f 023e
00000200: ae3c f4bd 504c 093e 6a7c f83d 764d 59be
00000210: e68a 8ebe ba5d 1e3e b0d2 a43d bf63 8bbc
00000220: 98ea 8abe 0431 8f3c 80f4 993c 25d7 bd3d
00000230: 143c 8d3e 58fb f2bd b2b2 9fbe 77ec 8bbc
00000240: 4cda 7cbe 2434 d23d b0f0 ba3c eedf 88be
00000250: 4161 b13d 818e 3abd df84 d33d 3600 463e
00000260: d647 69be 58be febc d417 043d ae88 79be
00000270: 8a86 ef3d bb38 103e 0f0b 09bd 9539 90be
00000280: a0cc df3d 4670 ed3d e35d 1c3d be82 623d
00000290: a7c2 9a3d b38c cabd e464 59be be6f 19be
000002a0: 21ea a0be 8dcd 153e 85e1 c6be 373d 6a3d
000002b0: b7bc 51be db6a af3d 12c5 12bd c674 2b3d
000002c0: b121 3d3e 0e08 213e 899f 73bc 1492 b0be
000002d0: be2a c73d 2070 83be 0b78 123e cae2 b23d
000002e0: 3de7 2dbe ebff 67be 6a7b 0cbe 49c4 56be
000002f0: 08bf 8cbe ef12 afbe 2300 14be 5401 81bd
00000300: 9d67 18be 7576 87bd d0f5 29be cda5 82be
00000310: 2472 06be f4bf 50be bfff c1bd 89e6 37be
00000320: 1dd5 8fbe c1db 64be 0bbc 34be 476c 85be
00000330: 109c 2fbe 1b92 66be e90d 45be a05a 1dbe
00000340: b386 33bd 0fbc 0b3c 31d2 c8bc f26e b1be
00000350: 01c6 c2bd b7aa f4bd 36ea 3dbe 736f debd
00000360: 8e10 77be 2297 0ebc 5da4 a7be 2036 51be
00000370: 279f 8dbe aa38 90be a84c a5bd d61e 44bd
00000380: ebf7 abbb f364 f0bd 7eda 80be 925a 06be
00000390: 8c07 28be 0fb1 50be cfa6 db3d 56d1 1e3e
000003a0: 8f30 91be 5877 663d 56a7 81be aa2f bb3d
000003b0: c787 67be 4ab3 8a3d a3a7 053e 3538 36be
000003c0: 8476 58be e70b d73d 1a42 18be 5ead fb3d
000003d0: e29c 203d 904b 2bbe 0658 fd3d 8b38 7cbe
000003e0: c21e b0bd 928c 903d befa 953d e697 afbd
000003f0: 4cae 3ebe 77b4 abbe f2f7 bb3d 63c6 d63d

network.9.bias f4 [21]
-0.060547978 0.29928648 -0.14815661 0.17109233 -0.11658523 0.15427415 -0.04545797 0.0028216562
0.013592442 0.21811427 0.007661923 -0.12710723 -0.15441355 0.24524014 -0.07734225 -0.053065658
0.039544396 -0.011277467 0.16956449 0.2884554 -0.20858666
00000000: 2801 78bd 143c 993e 5eb6 17be d432 2f3e
00000010: 3dc4 eebd 0bfa 1d3e 2332 3abd 89eb 383b
00000020: d5b2 5e3c 5959 5f3e de10 fb3b 6628 02be
00000030: 961e 1ebe 3b20 7b3e 9d65 9ebd 605b 59bd
00000040: 4ef9 213d 20c5 38bc 50a2 2d3e 6db0 933e
00000050: be97 55be
