models/NeuralNetwork-1_acc-61.33_loss-0.000005.pth (torch, 792384 bytes, 20 tensors)

network.0.weight f4 [512, 49]
000000 3f 55 13 bf 0c dd 9c 3e 04 77 9d bf 8e 79 96 3f
       -0.5755195 0.30637395 -1.2301946 1.1755846
000010 0e 65 8e bf 81 61 ce 3f c8 dd d9 bf b5 86 f4 bf
       -1.112459 1.6123506 -1.7020807 -1.9103609
000020 29 32 2a 3f 74 8b 93 3e b3 cd 4a c0 31 7e 4c 3f
       0.6648279 0.28817332 -3.168805 0.7988005
000030 05 af f1 be 07 79 18 3f 11 c9 22 40 6c 68 01 40
       -0.47203842 0.59559673 2.5435221 2.0219984
000040 05 e8 6f bf c8 aa 94 bf da a0 30 bd 28 83 8d c0
       -0.9371341 -1.1614618 -0.04312215 -4.4222603
000050 3e 11 75 bf 13 46 ff 3f 36 c9 49 c0 e0 90 44 3e
       -0.95729434 1.994326 -3.152906 0.1919589
000060 0d 16 ae bf 87 55 01 40 23 a3 20 3f de bd 03 40
       -1.3600479 2.0208452 0.62748927 2.0584636
000070 11 f1 fd be 87 4a d7 3e e4 30 b3 3f f0 31 22 40
       -0.49597982 0.42049047 1.3999295 2.534298
000080 3a 01 b1 3f da 3a ae bf 96 3f 20 c0 7e fa 63 c0
       1.3828499 -1.361171 -2.503881 -3.5621638
000090 28 6d aa c0 70 25 d3 3f 27 f1 9c 40 a0 9e 30 c0
       -5.3258247 1.64958 4.9044375 -2.7596817
0000a0 d5 2b 50 40 11 69 0b 40 9e 67 39 3e af 47 95 3f
       3.2526753 2.1782877 0.18105933 1.1662501
0000b0 1c 29 f6 bf 86 34 dd 3f 10 61 23 3f 77 16 c3 c0
       -1.9231296 1.7281654 0.6381998 -6.0964923
0000c0 07 78 6f c0 b7 3b 12 be 95 c3 e2 3e 4d 2e 33 3f
       -3.741701 -0.14280592 0.44289842 0.69992524
0000d0 40 d1 30 bf 9d bd 24 3f b8 6a 91 bf b9 2e c8 bf
       -0.6906929 0.64351827 -1.1360693 -1.5639259
0000e0 af 26 d6 3f 92 44 b1 3e 57 43 36 bf b2 97 86 3f
       1.6730555 0.34622627 -0.711965 1.0515044
0000f0 89 80 87 bf b4 dd 8a 3f 69 0d 47 3f 63 4f 06 be
       -1.0586101 1.0848908 0.7775484 -0.13116221
000100 2f 27 8b be 48 eb ac 3f 09 25 3c 40 13 75 92 3f
       -0.27178332 1.3509302 2.9397604 1.1441978
000110 e2 cf e5 3f 9b a1 20 c0 35 ba 3d c0 3d 7c 6e c0
       1.7954066 -2.5098636 -2.9644902 -3.726333
000120 de 3f 8b 3e 1b 74 dd 3f af 3c 3e c0 fc 0d 59 3f
       0.27197164 1.7301058 -2.9724538 0.84786963
000130 13 71 1f c0 35 f2 c6 3f c3 bf 80 c0 05 02 6e 3f
       -2.4912765 1.5542666 -4.0234084 0.9297183
000140 d0 b6 c3 bf 23 90 49 bf 05 55 4c bf f2 47 8c 3f
       -1.5290165 -0.7873556 -0.7981723 1.0959456
000150 35 0c ad 40 6c ce 97 3f a1 67 c5 bf d2 15 06 40
       5.40774 1.185987 -1.542225 2.0950818
000160 46 9d c1 c0 e5 4b 48 3f e6 ac 79 bd 19 16 b7 40
       -6.0504484 0.78240806 -0.060955904 5.7214475
000170 60 c3 21 c0 76 25 4e 40 19 e8 a1 c0 48 60 1b bf
       -2.5275497 3.2210364 -5.059582 -0.6069379
000180 48 d2 f6 bf 6b 5b 38 40 37 8f ed 3d aa d5 27 be
       -1.9282923 2.8805797 0.11599582 -0.163901
000190 d2 d4 07 40 d2 98 a8 bf ad c1 df bf b7 9c 08 40
       2.1223645 -1.3171637 -1.748098 2.134565
0001a0 97 05 7f 40 dd 01 3e c0 26 1b 28 40 2b f1 0a 40
       3.9847162 -2.9688637 2.626657 2.1709697
0001b0 07 ed ce 3f fe 57 dd bf fe 53 b6 3f 1f e1 73 bf
       1.6166085 -1.7292478 1.4244382 -0.9526538
0001c0 35 f2 c8 bf a0 9d 57 c0 93 99 41 40 5d a9 73 bf
       -1.5698916 -3.3689957 3.0249984 -0.951803
0001d0 b2 00 df 3f e2 eb 3a 3f d5 ad 45 3f 74 bb 29 bf
       1.7422087 0.7301618 0.7721837 -0.66301656
0001e0 83 08 88 bf 79 e6 04 40 cd fa 1f 40 88 22 12 bf
       -1.0627598 2.076567 2.4996827 -0.5708394
0001f0 d8 90 16 bf 9a e1 16 c0 f2 e6 86 3f 2e 7f 34 3e
       -0.58814764 -2.3575196 1.0539229 0.1762664
000200 ca 83 0b c0 f4 6c 4b c0 f7 de 06 bf c7 ea ff 3f
       -2.1799188 -3.178525 -0.5268397 1.9993523
000210 7f 7b e4 bf 49 79 5a c0 62 48 0e 3f 43 c2 94 3f
       -1.7850188 -3.4136527 0.555792 1.1621784
000220 d1 86 0b 40 64 70 50 be fa b8 87 3f e8 6c 33 40
       2.1801035 -0.20355374 1.0603325 2.803522
000230 c1 74 4c c0 9b ac 55 40 89 94 4d 40 5a b7 17 bf
       -3.194626 3.33866 3.2121909 -0.5926415
000240 d9 b8 c0 bf ab ef f4 3f d0 d8 a2 3f cb 06 e4 bf
       -1.5056411 1.9135641 1.2722416 -1.7814573
000250 09 d2 72 3e 7f ed ce bf 7d e7 db 3f 9e b7 67 40
       0.23712935 -1.6166228 1.718002 3.620582
000260 f0 4d 7e 40 ce ac d3 bf 7e f5 f3 3f 71 8c cc 3f
       3.973507 -1.6537111 1.9059293 1.5980359
000270 ef 21 77 3d 91 6f 0c 3e ad 93 17 40 a4 f9 97 3f
       0.060335096 0.13714434 2.3683884 1.1873059
000280 71 a9 0d 40 27 3d 7e 3e bb 4d df be 93 a8 a9 3f
       2.213467 0.24828015 -0.4361399 1.325457
000290 b8 44 f3 bf 99 b2 41 c0 d9 43 0c c0 6c f8 4b c0
       -1.9005346 -3.0265257 -2.191641 -3.1870375
0002a0 ea 17 60 c0 55 23 63 bf 31 60 83 bf 31 9d bb bf
       -3.5014596 -0.8872579 -1.026373 -1.4657346
0002b0 97 5a b5 bf 66 00 83 bf 76 f3 da bf fe b3 90 3f
       -1.4168271 -1.0234497 -1.7105548 1.1304929
0002c0 6b 53 c7 3f bd ab 86 c0 c6 d2 13 40 96 8f ba 3f
       1.5572332 -4.208464 2.3097396 1.4575069
0002d0 93 68 ab bf 29 cf 59 be e9 62 19 c0 ee ba 9d 3e
       -1.3391289 -0.21270432 -2.396662 0.3080668
0002e0 74 a8 28 c0 91 c7 ff bf c8 d5 a2 3c f9 45 33 c0
       -2.6352816 -1.9982778 0.01987733 -2.8011458
0002f0 08 5e fc 3e a7 20 8c 3e 56 34 ad 3f 2b ec 09 3f
       0.4929049 0.27368662 1.3531597 0.5387599
000300 27 cf 47 3f 21 93 04 3f ec 69 93 bf cd 5c 40 c0
       0.78050464 0.51787 -1.15167 -3.005664
000310 e5 78 6b bf 81 c6 04 bf f9 16 a9 be 67 2b f4 3e
       -0.91981345 -0.5186539 -0.3302534 0.47689363
000320 ab b3 8e bf 9e b5 61 40 bc 7f 18 c0 d1 da b3 40
       -1.114858 3.52671 -2.3827963 5.620461
000330 b3 2e a3 bf 24 f2 bc bd 59 60 14 c0 50 eb ce 3f
       -1.2748626 -0.09225872 -2.3183806 1.6165562
000340 14 12 e9 bd 38 d2 3d 40 15 3e 29 40 a8 4d de bf
       -0.11380401 2.9659557 2.6444142 -1.7367449
000350 6b 4e 7b be d1 44 e5 bf 94 10 86 be 19 68 d7 bf
       -0.24541633 -1.7911626 -0.26184523 -1.6828643
000360 3b 86 13 3f c2 bf 43 bf ed b1 14 c0 ca 2b d6 3c
       0.57626694 -0.76464474 -2.3233597 0.026143927
000370 43 6a 7d 3f a6 63 9b bf 16 10 df bd 46 10 0a c0
       0.9899027 -1.2139785 -0.1089174 -2.1572433
000380 fa cb a1 bf 67 2c 89 3f fc 85 ae bf 36 0e bc bd
       -1.2640374 1.0716676 -1.3634639 -0.09182398
000390 82 94 0f 40 22 fe b1 3f 46 a4 11 c0 b3 27 b9 c0
       2.2434392 1.390568 -2.2756515 -5.786096
0003a0 5a 50 22 bf e3 7b 84 c0 f3 e2 4c 40 5b 64 bd 3f
       -0.63403857 -4.140123 3.201352 1.4796251
0003b0 cc ee 9d 3f d3 0f 97 bf 59 a4 74 be ca 31 25 3f
       1.23385 -1.1801704 -0.23890819 0.645291
0003c0 6c 89 e0 bf c4 51 12 be 6f 4a c8 be 42 38 90 c0
       -1.7541938 -0.14289004 -0.39119288 -4.5068674
0003d0 f5 61 4c 40 87 f9 52 bf a5 55 29 c0 a3 04 ab 3e
       3.1934788 -0.82412 -2.6458523 0.33401975
0003e0 ba cd 7d be 47 76 d9 be 1e 6a 4d 3e 06 44 06 c0
       -0.2478551 -0.4247305 0.20060012 -2.0979018
0003f0 83 c6 05 bf 82 b2 08 3e 63 6a 0e 40 f9 46 24 40
       -0.5225603 0.13349345 2.2252433 2.5668318

network.0.bias f4 [512]
000000 4a f4 c1 3d 66 a1 a9 3d ba 78 d0 bd 76 7d 01 bd
       0.094704226 0.082827374 -0.10179277 -0.03161379
000010 2f f8 49 bd 07 e6 d2 3d 6f cd 25 3c 5c 30 17 3c
       -0.049308952 0.102977805 0.01011978 0.009227838
000020 25 16 a1 3d b0 61 07 be 92 28 a5 bd a7 9c ef bd
       0.07865552 -0.13220859 -0.08064379 -0.11699801
000030 6f 89 56 bd 52 a7 f4 3d 71 ae ec 3d ca ff 48 3d
       -0.05237716 0.11945976 0.115567096 0.049072064
000040 2c cc 60 3d d0 b6 06 be 96 93 30 bd 31 0f 03 3e
       0.054882213 -0.13155675 -0.0431095 0.12798764
000050 9f 1f 12 bc ad 12 d6 bc ec c6 e8 bd 1f 8f ca 3d
       -0.008918672 -0.026131952 -0.11366066 0.098905794
000060 b5 96 17 bd 95 bf 48 3d b3 8f 0e 3e a5 90 e9 bd
       -0.03700896 0.049010832 0.13922004 -0.11404542
000070 20 e0 e0 3d 06 ca 59 3a 6e 0d c4 3d ee 3b 34 bd
       0.109802485 0.0008307997 0.09572874 -0.044002466
000080 0c 1f 00 3e 09 ff 6d 3c d7 99 f6 3d 21 52 88 3d
       0.12511843 0.014526137 0.12041061 0.0665629
000090 d9 d0 cc bd fb e3 da 3d 05 38 03 be d7 59 5a bd
       -0.10000772 0.10688015 -0.12814339 -0.053308334
0000a0 9e ce 2b bd 27 f3 1f 3c 09 58 92 bd 9a e8 e2 3d
       -0.041945092 0.009762562 -0.071456976 0.110795215
0000b0 f6 e5 ef bd ba bf 9c 3d fd 94 d1 3d 6b 27 76 3d
       -0.117137834 0.076537564 0.102334954 0.060096186
0000c0 41 59 33 3d ea 6c 16 3d 51 3f af 3c ec 40 9c 3d
       0.04378629 0.036724962 0.021392496 0.0762957
0000d0 43 e1 ff 3d 63 0b 07 3e f0 98 91 3d 6c 61 ea bc
       0.12494137 0.13187937 0.07109249 -0.028610907
0000e0 b6 96 92 3d 93 b3 02 3e 7f 32 02 3d 5f 1b 9a 3d
       0.07157652 0.12763815 0.031786438 0.07524752
0000f0 ec 62 b9 bc 5b a1 d2 3d 9a af a5 bc e3 cf 4c 3d
       -0.022630177 0.10284682 -0.020225335 0.050002944
000100 4e be 46 bd 10 2b 0a 3e ee 56 7b bb 43 97 10 3e
       -0.048521332 0.1349299 -0.0038351375 0.14120202
000110 ec 97 fa bd 33 a4 f2 bc 23 65 f6 bd 7e 43 8b bd
       -0.12236008 -0.029619312 -0.12031009 -0.067999825
000120 73 ed 8a bd 4b e6 1e 3d 25 37 75 3d cf df bd 3d
       -0.06783571 0.038793843 0.059867043 0.09271204
000130 7c 50 53 bb ad 90 fb bd 2d 26 09 be 2a b0 d5 bd
       -0.0032244017 -0.12283454 -0.13393469 -0.10433991
000140 30 2a d5 3c 3a 04 1a bd dc 23 11 be 78 ba 43 bd
       0.026021093 -0.037601687 -0.14173836 -0.047785252
000150 26 29 f8 3d ee b8 8b 3d e0 73 57 3b a4 f2 0d be
       0.121172234 0.06822382 0.0032875463 -0.13862091
000160 ee 09 9f 3c d1 3f d5 3d a4 9f 46 bd 93 71 c5 3b
       0.019413915 0.10412563 -0.04849209 0.006025502
000170 3a 49 a9 3d 48 33 a4 3c c5 03 0f 3e 60 52 82 bd
       0.0826592 0.020043984 0.13966282 -0.06363368
000180 c0 99 0a 3e 19 71 af 3d 68 1b 01 be aa 95 28 3d
       0.13535213 0.085664935 -0.12608111 0.041158356
000190 11 a4 83 bd 88 74 28 bc bc 16 4f bc 7b 56 02 be
       -0.064277776 -0.010281689 -0.012639698 -0.12728302
0001a0 2d ee 92 3d fe c4 4b 3d 8e c9 01 3d da b8 03 be
       0.07174335 0.049748413 0.03168636 -0.12863484
0001b0 a6 13 48 3d 16 63 a8 bd fe ed eb bd fe e1 a8 bd
       0.048846863 -0.08222024 -0.11520003 -0.082462296
0001c0 81 f8 db 3d f0 d7 0e be 29 cf cd bc 4b 53 45 3c
       0.10740758 -0.13949561 -0.025123196 0.012043784
0001d0 ba c3 56 3d 96 ad f9 3d 30 48 ef 3d a8 12 b6 3b
       0.052432753 0.12191312 0.116836905 0.005556423
0001e0 68 70 6c 3a dd 7e d1 3d 1e 41 46 3c 6c af 9a 3c
       0.00090194354 0.102292754 0.012100486 0.018882476
0001f0 5c 17 22 3d 4b 40 e5 bc 1e 94 3c 3d 32 a7 d4 bd
       0.03957306 -0.027984759 0.046039693 -0.103834525
000200 cd d7 41 bd bb d1 03 3e c2 56 af bd ac bc e0 3d
       -0.047324944 0.12872975 -0.085614696 0.10973486
000210 06 d5 fd 3d a8 d3 fa bc 9b a3 08 3e 51 9e 1e bb
       0.123941466 -0.030618504 0.1334366 -0.002420325
000220 ac 68 0b 3e 61 98 d8 3d 71 70 05 3d 19 d8 a6 3d
       0.13614148 0.10575939 0.032577936 0.08146686
000230 07 77 87 bd 97 ba 03 3e ef 70 f0 3c 37 a9 48 39
       -0.066144995 0.12864147 0.029350726 0.00019136524
000240 90 36 83 bd a1 e9 58 bd 50 ee 50 bd 8a 30 4b bd
       -0.06406891 -0.05295718 -0.051008523 -0.049606837
000250 0e 92 97 bd b8 88 ed 3d 1b ff 00 be ac 3e 06 3c
       -0.074009046 0.11598343 -0.12597315 0.008193653
000260 ea b6 16 bd 27 73 50 3d 6e 46 fd bc 8a 4a e0 bd
       -0.036795534 0.050891068 -0.030917373 -0.10951717
000270 29 74 04 be b5 ea d9 bd b6 99 4d bd 7e d1 89 3d
       -0.12934937 -0.1064047 -0.05019542 0.067294106
000280 18 b3 7e 3d 0e d3 c6 3c e5 d7 f5 bb 48 30 fc 3d
       0.062182516 0.02427056 -0.0075025433 0.123138964
000290 fb bd ca 3d 51 ae ae 3d 27 fa 42 bd 68 eb 0e 3c
       0.09899517 0.08529342 -0.047601845 0.008723117
0002a0 ac 5d 11 be cc 2e 47 bc e2 21 f0 3d a5 3f 71 bd
       -0.14195889 -0.012157153 0.11725213 -0.058898587
0002b0 54 a3 79 bd a7 22 ee bd 4d a3 a6 3d 8b b6 f2 3d
       -0.060946777 -0.11627703 0.08136616 0.118512236
0002c0 7d cf 25 bd b3 26 ce 3c 1a 87 92 bd 43 d6 52 bd
       -0.04048108 0.025164938 -0.07154675 -0.051473867
0002d0 66 66 aa 3d e9 54 b1 3d 7d a9 c4 bd 88 f1 65 3d
       0.08320312 0.086587735 -0.0960264 0.056138545
0002e0 db d7 c7 bd c2 cb 37 bd 6b 13 af bd fd ce d3 3d
       -0.09757968 -0.044872053 -0.085486256 0.10342214
0002f0 5c 59 0a be 7b 0b a1 bd f1 4b fd bd c1 1e 3d ba
       -0.1351065 -0.07863518 -0.12368 -0.00072143605
000300 30 3c 7e 3d 2b 61 9a bc c4 a8 85 bc ed eb 03 3d
       0.062069118 -0.018845161 -0.016315825 0.03220742
000310 e5 14 6a bd cf c6 05 be 26 74 13 bd 80 75 a5 bb
       -0.057148833 -0.1306412 -0.03599944 -0.0050494075
000320 fc 93 8c bd 18 b1 87 bd dd aa 91 bd e0 18 b0 bd
       -0.06864163 -0.06625575 -0.07112668 -0.085984945
000330 cc 63 f1 3d b4 2f a5 3d 10 d1 6c bd 40 a6 d4 bd
       0.11786613 0.08065739 -0.057816565 -0.10383272
000340 2d e0 f7 bd 23 49 91 bd 47 52 09 3e 5a dc 3b 3d
       -0.12103305 -0.07094028 0.13410293 0.04586444
000350 76 e7 57 3c 63 91 48 bd 51 a7 03 ba 34 4b bf bd
       0.013177743 -0.048966777 -0.00050221855 -0.09340516
000360 3d 06 d9 bd 95 b2 ff bd 82 bf 93 3c f9 52 0a be
       -0.10596893 -0.12485234 0.018035654 -0.13508214
000370 9e 64 ab 3d 18 48 ac 3d b3 b5 c2 bc 87 20 c3 bc
       0.083688006 0.08412188 -0.023768282 -0.023819221
000380 04 3f c3 3d 0b 54 db bd 3a c5 3a 3d 8a 49 54 bc
       0.09533504 -0.10709389 0.045598246 -0.012956986
000390 fd 3e 0d be 1f 0f 01 3e a5 39 bf 3b 73 3f 0f be
       -0.1379356 0.12603424 0.005835729 -0.13989048
0003a0 9d 20 cc bc 64 24 10 be 9c 63 ad 3d 2f cf d8 3c
       -0.024917895 -0.14076382 0.084662646 0.02646598
0003b0 2d 57 e0 bd 33 c6 e3 bd 3d 0b 91 3d 5a a9 16 bc
       -0.109541275 -0.11121788 0.07082222 -0.00919565
0003c0 19 d9 bb bd 4a dc b0 bd 63 b2 0e be 7e ab 25 3d
       -0.091722675 -0.08635767 -0.13935237 0.04044675
0003d0 40 d9 e2 bd d1 ed bc 3d fe df 23 bd 4c 4b 4b bc
       -0.110765934 0.092250474 -0.040008537 -0.012408089
0003e0 29 6b ad 3c ba ae 0b 3e f1 0b 9e bc c6 de c9 3d
       0.021169262 0.13640872 -0.019292803 0.09856944
0003f0 ad 96 bc bd 6f 9b 96 3d 4a ce bf 3d 62 d2 2e bd
       -0.092084266 0.07353865 0.093655184 -0.042681105

network.1.weight f4 [512]
000000 f4 d7 71 41 fb 60 76 41 15 42 76 41 dd e0 81 41
       15.115223 15.398677 15.391133 16.234797
000010 44 86 8e 41 7e 53 89 41 1e 15 89 41 da be 80 41
       17.81556 17.165768 17.135311 16.09319
000020 02 2f 7c 41 78 46 95 41 9f a1 81 41 f1 ab 88 41
       15.7614765 18.659409 16.203917 17.083956
000030 17 80 86 41 36 d9 81 41 86 87 82 41 72 2e 91 41
       16.812544 16.23106 16.316174 18.147678
000040 d8 f1 85 41 5d 6c 6a 41 ba 2d 7f 41 da a2 95 41
       16.743088 14.651456 15.948664 18.704517
000050 50 b5 8c 41 f1 6a 7f 41 a7 6f 86 41 a2 c3 89 41
       17.588531 15.963609 16.804518 17.220524
000060 dd 55 7b 41 7b 18 89 41 32 9d 8b 41 58 cc 81 41
       15.708463 17.136953 17.451756 16.224777
000070 3f 53 82 41 13 4a 8b 41 57 28 81 41 c3 ce 84 41
       16.290648 17.41117 16.144697 16.600958
000080 c5 c7 7b 41 05 60 90 41 14 27 8a 41 64 37 87 41
       15.736272 18.046885 17.269081 16.902046
000090 6c 0a 81 41 2a 91 7c 41 43 3f 8d 41 ca 9e 8b 41
       16.130089 15.78544 17.65589 17.452534
0000a0 32 b0 78 41 c0 1e 82 41 93 ad 8f 41 28 36 7a 41
       15.543016 16.265015 17.959753 15.638222
0000b0 52 b3 84 41 de 22 84 41 83 48 88 41 b7 b8 7e 41
       16.587559 16.517025 17.035406 15.920096
0000c0 70 43 70 41 cc 7a 8b 41 18 2e 81 41 87 50 80 41
       15.016464 17.43496 16.147507 16.03932
0000d0 c3 38 7a 41 db db 7b 41 31 41 82 41 c2 9b 83 41
       15.638858 15.741176 16.281832 16.451054
0000e0 c1 db 7f 41 5d 48 7e 41 7f 30 93 41 96 e1 82 41
       15.991151 15.892667 18.39868 16.36015
0000f0 d1 5a 82 41 77 98 81 41 8b 8d 65 41 5d b6 7e 41
       16.294344 16.199446 14.347056 15.919522
000100 8e 94 89 41 7e 8f 92 41 9a c5 87 41 7e 9f 81 41
       17.197536 18.320065 16.971485 16.202877
000110 79 82 6b 41 30 c3 8b 41 0f 4b 75 41 5e 72 84 41
       14.719354 17.470306 15.330825 16.555843
000120 2c bf 84 41 60 94 87 41 55 13 84 41 96 78 78 41
       16.593346 16.947449 16.50944 15.52944
000130 6c d2 6c 41 e1 e9 88 41 82 f9 80 41 6e a6 8e 41
       14.801373 17.114199 16.12183 17.831264
000140 95 80 91 41 68 01 78 41 42 94 8b 41 59 66 83 41
       18.187784 15.500343 17.447392 16.424974
000150 be 6f 8c 41 b7 89 70 41 51 95 92 41 3c 80 7d 41
       17.554562 15.033622 18.322908 15.843807
000160 c6 c0 84 41 ef 3e 82 41 3b 85 6d 41 a1 44 86 41
       16.594128 16.28073 14.845027 16.78351
000170 d1 0c 6b 41 60 6f 94 41 81 f5 92 41 80 f2 9a 41
       14.690629 18.554382 18.369875 19.368408
000180 d1 0d 68 41 04 33 84 41 5e 32 81 41 92 e2 7d 41
       14.503373 16.52491 16.149593 15.867815
000190 2b b8 84 41 db 76 7a 41 da 84 6c 41 00 53 87 41
       16.589926 15.654017 14.782434 16.915527
0001a0 52 88 7d 41 f2 95 83 41 38 fd 71 41 d0 ea 84 41
       15.845781 16.448215 15.124321 16.614655
0001b0 15 65 88 41 4d ab 8c 41 fc 54 85 41 02 78 71 41
       17.049356 17.583643 16.666496 15.091799
0001c0 f4 ae 87 41 49 45 83 41 cf 40 8e 41 7b 22 84 41
       16.960426 16.40883 17.781645 16.516836
0001d0 06 02 8e 41 01 25 8f 41 f9 18 7e 41 f8 b9 7e 41
       17.750988 17.893068 15.881097 15.920403
0001e0 90 58 84 41 e4 02 77 41 6d 20 72 41 80 63 89 41
       16.543243 15.438206 15.132916 17.173584
0001f0 1a 22 6c 41 10 de 89 41 88 40 9b 41 d2 ec 96 41
       14.758326 17.233429 19.40651 18.865635
000200 e3 16 8b 41 e3 e7 75 41 ca a2 85 41 e1 13 6f 41
       17.386175 15.369113 16.704487 14.942353
000210 65 b3 88 41 a5 75 6b 41 2b fd 8d 41 47 7a 94 41
       17.087595 14.716222 17.748617 18.559706
000220 41 2c 80 41 0e b3 7a 41 0a 48 7a 41 3f 74 85 41
       16.021608 15.668715 15.642588 16.68176
000230 cd e6 96 41 c5 74 8f 41 c5 c5 82 41 bd 1b 8f 41
       18.862696 17.932016 16.346567 17.888544
000240 93 02 8d 41 89 3e 59 41 a8 3a 7c 41 fc 99 8e 41
       17.626257 13.577767 15.76432 17.825188
000250 67 d3 74 41 b4 1e 7f 41 fd 18 8d 41 9a a4 91 41
       15.301612 15.944996 17.637201 18.205372
000260 e3 26 87 41 94 ed 87 41 bb 2d 80 41 94 4c 83 41
       16.893988 16.991005 16.02233 16.412392
000270 a4 ac 74 41 a3 e6 86 41 b1 1f 7c 41 dc 68 72 41
       15.292149 16.862616 15.757737 15.1506
000280 12 8b 8a 41 a5 06 84 41 9b d1 7b 41 a7 29 5e 41
       17.317905 16.503244 15.738673 13.885169
000290 f0 d5 84 41 31 bb 8c 41 95 62 94 41 f5 19 81 41
       16.604462 17.591402 18.548136 16.137674
0002a0 49 a8 8c 41 a5 78 81 41 a7 48 73 41 0c c7 81 41
       17.58217 16.183908 15.205237 16.22219
0002b0 01 87 83 41 ba 2a 83 41 c9 e8 7b 41 6b 86 7f 41
       16.44092 16.395863 15.744332 15.970317
0002c0 66 c6 75 41 1d 88 77 41 6f c2 8b 41 6d 68 81 41
       15.360937 15.470731 17.469938 16.17599
0002d0 62 ad 7e 41 f0 23 83 41 0a 88 88 41 24 18 85 41
       15.91733 16.392548 17.066425 16.636787
0002e0 fa dd 85 41 f1 13 83 41 92 dc 87 41 f7 f4 6b 41
       16.733387 16.384737 16.9827 14.747306
0002f0 67 5c 62 41 d9 c0 87 41 fc fc 84 41 3e 5c 8f 41
       14.147559 16.969164 16.623528 17.92004
000300 87 63 85 41 0c 52 72 41 7c ec 86 41 b0 19 78 41
       16.673597 15.145031 16.86547 15.506271
000310 a2 3b 8f 41 b5 8a 75 41 3e c6 66 41 de d2 86 41
       17.904118 15.346364 14.423399 16.852962
000320 21 5d 87 41 de b3 8a 41 a9 14 8a 41 68 1c 83 41
       16.920473 17.337826 17.260088 16.38887
000330 7a f3 8a 41 4b a4 8c 41 15 50 82 41 1c d0 92 41
       17.368885 17.580221 16.289103 18.351616
000340 7c 0e 89 41 9b 28 84 41 25 33 85 41 4e 24 69 41
       17.132072 16.519827 16.649973 14.571363
000350 35 23 82 41 00 14 8d 41 01 a5 88 41 61 0b 82 41
       16.26719 17.634766 17.080568 16.255556
000360 03 fe 6c 41 27 2d 7b 41 1e 6d 7a 41 69 c4 89 41
       14.812015 15.6985235 15.65164 17.220903
000370 1c e8 7d 41 f0 35 86 41 35 48 87 41 19 cd 6e 41
       15.869167 16.776337 16.910257 14.925073
000380 1e 6b 70 41 e3 b0 83 41 67 9b 8a 41 9b 3e 6a 41
       15.026152 16.46137 17.32588 14.640285
000390 2e 85 85 41 3c 1b 6e 41 d5 62 89 41 40 de 7e 41
       16.69003 14.881649 17.173258 15.92926
0003a0 9a a4 89 41 fe bf 8c 41 56 3d 6f 41 61 d3 6b 41
       17.205372 17.593746 14.952475 14.739106
0003b0 fb d3 75 41 3d ba 89 41 e8 9b 85 41 84 a8 88 41
       15.364253 17.215937 16.701126 17.082283
0003c0 c1 5c 83 41 c4 3d 84 41 fa 82 80 41 84 60 87 41
       16.42029 16.530159 16.063953 16.922127
0003d0 15 1e 84 41 99 24 77 41 f5 6d 78 41 84 fe 81 41
       16.514688 15.446435 15.526845 16.249275
0003e0 87 7a 82 41 45 27 8e 41 1f a8 8d 41 44 85 68 41
       16.309828 17.769175 17.70709 14.532536
0003f0 53 74 92 41 53 fc 81 41 83 bc 88 41 df c2 6f 41
       18.306799 16.248205 17.092047 14.985076

network.1.bias f4 [512]
000000 e4 a3 27 c1 c0 c2 33 c1 72 17 4e c1 b1 19 3d c1
       -10.477512 -11.235046 -12.880724 -11.818772
000010 cd 1c 24 c1 d9 68 36 c1 4f 06 29 c1 69 22 1b c1
       -10.257031 -11.400598 -10.56404 -9.695901
000020 e1 8f 3e c1 d3 ec d8 c0 cf bf 31 c1 f1 d8 4e c1
       -11.910127 -6.778909 -11.109328 -12.927964
000030 5c 0a 1d c1 3a bf 15 c1 2e 3f 3f c1 e9 fd 4c c1
       -9.815029 -9.359186 -11.952925 -12.81199
000040 ce 02 2d c1 86 ba f4 c0 77 80 6a c1 f4 4b 46 c1
       -10.813185 -7.647769 -14.6563635 -12.393543
000050 69 d2 2b c1 c6 36 27 c1 58 0c 44 c1 43 80 3e c1
       -10.73887 -10.450872 -12.253014 -11.906314
000060 ce de 37 c1 f4 28 42 c1 c7 fd 59 c1 d8 e7 17 c0
       -11.491896 -12.134998 -13.624457 -2.3735256
000070 3e 1d 3e c1 41 29 5c c1 00 32 37 c1 8c c4 18 c1
       -11.882139 -13.760072 -11.449707 -9.547985
000080 2d 16 31 c1 5b 20 07 c1 bb ec 44 c1 e7 82 0f c1
       -11.067914 -8.445399 -12.307796 -8.969459
000090 b1 6a 3a c1 09 d7 52 c1 85 07 2f c1 cd 43 24 c1
       -11.651048 -13.177499 -10.939336 -10.266553
0000a0 a1 5a 36 c1 bb ac 17 c1 72 ea 20 c1 55 b2 46 c1
       -11.397126 -9.479671 -10.057238 -12.418538
0000b0 34 97 35 c1 32 46 2b c1 f7 c0 28 c1 96 84 2b c1
       -11.349415 -10.704638 -10.547111 -10.71987
0000c0 2c b3 2c c1 79 25 47 c1 92 ae 57 c1 55 cf 18 c1
       -10.793743 -12.446649 -13.48012 -9.550618
0000d0 6a 59 d1 c0 2f e9 36 c1 df cb 6b c1 67 25 30 c1
       -6.542165 -11.43193 -14.737273 -11.009131
0000e0 1f 41 26 c1 ee 14 3e c1 5a 68 4a c1 a6 df 42 c1
       -10.390899 -11.88011 -12.650476 -12.179602
0000f0 5d 8f 40 c1 8f ea 23 c1 70 c5 45 c1 9a 2d 27 c1
       -12.035001 -10.244765 -12.3607025 -10.448633
000100 c1 a5 3f c1 72 7e e4 c0 3f b8 45 c1 70 76 42 c1
       -11.977967 -7.140435 -12.357482 -12.153915
000110 9b 9b 31 c1 50 9b 5f c1 74 01 d8 c0 66 83 4c c1
       -11.10049 -13.975418 -6.7501774 -12.78208
000120 23 0d f7 c0 37 07 32 c1 f2 b8 50 c1 32 d7 41 c1
       -7.7203536 -11.126761 -13.045153 -12.115038
000130 db 91 37 c1 be e4 0a c1 2b a1 10 c1 4b 99 36 c1
       -11.473109 -8.680845 -9.039348 -11.412425
000140 72 b1 3b c1 ab a5 28 c1 7a e4 40 c1 fd 2c 23 c1
       -11.730822 -10.540446 -12.05578 -10.198483
000150 03 cf 31 c1 97 72 0c c1 da 63 31 c1 e9 d4 0c c1
       -11.11304 -8.777976 -11.086878 -8.80198
000160 9b 0d 39 c1 25 eb 0a c1 77 5d 3c c1 55 ec 11 c0
       -11.565822 -8.682408 -11.772819 -2.2800496
000170 fd 24 d4 c0 b5 ca 1a c1 50 1e 4c c1 39 68 1f c1
       -6.629515 -9.674489 -12.7574005 -9.962945
000180 d2 a5 3a c1 4c 7f 24 c1 a1 4d 54 c1 02 18 37 c1
       -11.665483 -10.281078 -13.268952 -11.443361
000190 48 86 1c c1 07 b5 4b c1 aa 2b 34 c1 d2 48 f3 c0
       -9.7827835 -12.731696 -11.26066 -7.602639
0001a0 59 c0 1b c1 75 e4 13 c1 bc 15 d0 c0 8a 0e 00 c1
       -9.73446 -9.243276 -6.502653 -8.00355
0001b0 ff 5f 2c c1 1b 9c 11 c1 27 1e 58 c1 72 33 49 c1
       -10.773437 -9.100612 -13.507361 -12.57506
0001c0 97 c7 24 c1 aa ca 22 c1 b2 18 67 c1 48 2e 36 c1
       -10.298728 -10.174479 -14.443529 -11.386299
0001d0 c8 06 4d c1 29 a9 42 c1 7d 6e 3b c1 a1 14 41 c1
       -12.814156 -12.166299 -11.714475 -12.067536
0001e0 b1 86 46 c1 29 b6 0e c1 79 a2 31 c1 3e 25 55 c1
       -12.407884 -8.919473 -11.102166 -13.321592
0001f0 b1 92 2e c1 2f ef 37 c1 08 50 31 c1 ec 89 91 c0
       -10.910813 -11.495894 -11.082039 -4.548086
000200 4d df 70 c0 91 f1 12 c1 7d 8c 42 c1 6c 40 26 c1
       -3.7636292 -9.183976 -12.159299 -10.390728
000210 86 12 38 c1 55 6c 2d c1 ab 38 3f c1 19 4a e4 c0
       -11.504522 -10.838948 -11.951335 -7.134045
000220 79 26 3f c1 db 7f 05 c1 93 bf 2a c1 34 0f 49 c1
       -11.946893 -8.343715 -10.671771 -12.566212
000230 18 4e 4c c1 90 d1 32 c1 93 92 4e c1 c9 27 48 c1
       -12.769066 -11.176163 -12.910785 -12.509713
000240 4b 71 3f c1 f8 33 39 c1 13 9f 01 c1 c0 d1 3f c1
       -11.965159 -11.575188 -8.1013365 -11.9887085
000250 52 da 0f c1 78 72 92 c0 3f 0b 56 c1 8b 0f 69 c1
       -8.990801 -4.576473 -13.377746 -14.566295
000260 90 43 0d c1 ce 66 34 c1 0c fd 2a c1 3f e7 1a c1
       -8.828995 -11.275099 -10.686779 -9.681457
000270 9c f4 00 c1 d1 c6 26 c1 84 0a 56 c1 89 9f f3 c0
       -8.059719 -10.423539 -13.377567 -7.6132245
000280 7c 20 3c c1 11 9e 4f c1 2e ef 00 c1 97 61 39 c1
       -11.757931 -12.97609 -8.0583935 -11.586326
000290 0e 98 32 c1 cf 42 3a c1 27 8f 23 c1 0e 17 08 c1
       -11.162123 -11.641311 -10.222449 -8.505629
0002a0 33 83 38 c1 43 43 49 c1 bf 55 10 c1 90 93 20 c1
       -11.532031 -12.578921 -9.020934 -10.036026
0002b0 14 70 45 c1 6b 01 38 c1 01 db 3f c1 43 bc 2f c1
       -12.339863 -11.500346 -11.990968 -10.983462
0002c0 a6 f2 4c c1 11 a7 61 c1 99 79 43 c1 be 44 4c c1
       -12.80924 -14.103288 -12.217187 -12.766783
0002d0 b0 ac 44 c1 3d 37 39 c1 af f5 4c c1 ff 20 46 c1
       -12.29216 -11.575986 -12.809981 -12.383056
0002e0 33 bf 2d c1 bd 1c 55 c1 65 8d d6 c0 d3 8b 13 c1
       -10.8591795 -13.319516 -6.70476 -9.221637
0002f0 e5 ea b4 c0 5c 34 3d c1 d8 f2 67 c1 b4 d6 4d c1
       -5.6536736 -11.825283 -14.496788 -12.864918
000300 2a be 31 c1 43 30 32 c1 1d 16 2e c1 bc bd 42 c1
       -11.108927 -11.136783 -10.880399 -12.171322
000310 0b 8f 32 c1 50 be 45 c1 fb f3 32 c1 44 9f 3c c1
       -11.159923 -12.358963 -11.184566 -11.788883
000320 4d cc 21 c1 3e 1e 13 c1 c1 41 23 c1 3a 9a 19 c1
       -10.112378 -9.194883 -10.203553 -9.600153
000330 1b 16 27 c1 df 20 4f c1 7c 5b 14 c1 c0 a4 14 c1
       -10.442897 -12.945525 -9.272335 -9.290222
000340 6d 5a 34 c1 fd fe 42 c1 56 b3 4a c1 2e c2 61 c1
       -11.272077 -12.187253 -12.668783 -14.109907
000350 35 0a 1c c1 67 f8 21 c1 eb 42 39 c1 cb e2 2b c1
       -9.752492 -10.123145 -11.578837 -10.742869
000360 6f 36 2e c1 35 bb 22 c1 ef 3f 24 c1 dd bc 57 c1
       -10.888289 -10.170705 -10.265609 -13.483609
000370 3c be 41 c1 47 64 18 c1 3f 7b 24 c1 23 51 4f c1
       -12.108944 -9.524482 -10.280089 -12.957309
000380 af 01 4a c1 ab b6 2f c1 9e 9f 24 c1 f1 b3 0e c1
       -12.625411 -10.982097 -10.288969 -8.918931
000390 f0 97 51 c1 43 f6 63 c1 d4 88 2f c1 11 fd 13 c1
       -13.099594 -14.2476225 -10.970905 -9.249284
0003a0 5e 63 1a c1 6f c8 34 c1 a8 3a 1d c1 95 7c 39 c1
       -9.64926 -11.298934 -9.82682 -11.592916
0003b0 15 4c 47 c1 16 ed 51 c1 53 94 40 c1 34 77 1e c1
       -12.456075 -13.120382 -12.036212 -9.904102
0003c0 1f db f3 c0 ca 28 22 c1 51 03 55 c1 46 75 3e c1
       -7.620498 -10.134958 -13.31331 -11.903631
0003d0 41 47 3c c1 06 01 6a c1 b1 f1 3b c1 e8 ea 20 c1
       -11.767396 -14.62525 -11.746507 -10.05735
0003e0 1a 64 2d c1 19 5d 2f c1 1b e2 36 c1 18 8f 21 c1
       -10.836939 -10.960229 -11.430202 -10.097435
0003f0 21 28 23 c1 d0 f7 fb c0 29 e0 5c c1 98 9a 19 c1
       -10.197297 -7.8740005 -13.804727 -9.600243

network.1.running_mean f4 [512]
000000 1a fa 77 3e 98 4d 43 3e e3 8f a9 bf f4 a6 1c 3f
       0.242165 0.19072568 -1.3247036 0.6119225
000010 16 8d 36 3f cc 32 dc be 10 fa d3 bf 0c 5b 67 3f
       0.7130903 -0.43007505 -1.6560688 0.903733
000020 c3 88 d4 3e 8f 88 19 3f aa 6b 2b 3f fe f7 6d 3f
       0.4151059 0.59973997 0.6696116 0.9295653
000030 54 59 22 c0 7a d6 f2 3f 87 c0 81 3f dd 1b 99 bf
       -2.5367022 1.8971703 1.013688 -1.1961628
000040 8f 5a c0 3f 63 f8 d6 3f d8 da 9e 3d fc 98 bf bf
       1.5027636 1.6794552 0.07756585 -1.4968562
000050 c8 c1 de bd 80 ae cc 3f cc c8 45 3e 76 d7 2f bf
       -0.108768046 1.5990753 0.19314879 -0.6868814
000060 3a b4 75 3d c4 b5 3d 3f ca b3 e6 3e e6 74 9c 3f
       0.05998633 0.7410548 0.45059043 1.2223175
000070 0c a5 24 bf 52 53 8b 3e 17 9f f2 3f 46 bd 40 3f
       -0.6431434 0.27212006 1.89548 0.7528881
000080 cc 24 0d 3f 40 dc 28 bf 59 c5 af 3f d3 57 09 3f
       0.5513427 -0.65961075 1.3732101 0.53649634
000090 55 5b 5a 3e ea 6d 65 3f 9a 81 31 40 1a dd 48 bf
       0.21323903 0.8962084 2.7735353 -0.78462374
0000a0 6d df 27 3f 47 2e dd be f8 5c f0 3d 54 28 80 3f
       0.65575296 -0.4319937 0.117364824 1.0012307
0000b0 e1 3b 74 3f 3c c8 a2 3e f0 dc 58 3f cd 60 0d 3f
       0.9540387 0.31793392 0.84712124 0.5522583
0000c0 b2 4a 47 bf 10 6c 4c 3f c0 8f 17 3f d9 13 fe bf
       -0.7784835 0.7985239 0.5920372 -1.9849807
0000d0 69 b7 f0 3d 4b 34 36 3e 0d 76 e7 3e ad a6 87 3f
       0.11753733 0.17793386 0.45207253 1.059774
0000e0 48 45 94 be f3 28 21 3f fc 63 68 3f 77 3c 0a 3f
       -0.28959107 0.6295311 0.90777564 0.5399851
0000f0 b0 ce 20 3f 82 e0 77 be c1 fe 8d bf de d9 97 3e
       0.6281538 -0.24206737 -1.109337 0.29658407
000100 78 e5 4d be 84 04 5e 3f fe de 65 bf c4 ee ec 3e
       -0.20107067 0.8672564 -0.89793384 0.46275914
000110 2a 4f a6 bf 99 f5 86 3e 45 c5 24 bf df 92 32 40
       -1.2992909 0.2635925 -0.6436351 2.7902143
000120 de 5c c4 be 7e 68 80 3f b0 fa c7 bd fe 38 0c be
       -0.38352102 1.0031888 -0.09764612 -0.13693616
000130 05 6b 2b 3e 99 47 8d 3f f0 63 2c bf f1 c9 46 bf
       0.16740043 1.1037475 -0.6733999 -0.7765189
000140 97 bd aa 3e b0 7a 9b 3d 96 29 0c 40 f3 69 4d 3f
       0.3334777 0.0759176 2.1900382 0.8023979
000150 4d e4 8e be 45 45 aa bf 8f 5b 86 3f 1b 00 8f be
       -0.27908555 -1.3302389 1.0496691 -0.27929768
000160 b0 ec d8 3d 79 9c 35 bf e2 b3 7d 3f ac 01 ba 3f
       0.105920196 -0.70941883 0.99102604 1.453176
000170 07 65 18 3f 31 de 67 3f 51 1f 9b bf 90 ca 01 bf
       0.59529155 0.9057341 -1.2118932 -0.5069971
000180 39 c1 3d bf 0a b3 a2 be 28 75 14 bf 16 ca 9f be
       -0.7412296 -0.3177722 -0.57991266 -0.31208867
000190 51 c1 28 3f 9b 34 64 be 62 06 b7 3e 2e 80 87 be
       0.6591998 -0.22285692 0.35747057 -0.2646498
0001a0 7c b6 9c bf dc 34 b0 3f 4f 64 38 3f 8d 24 96 be
       -1.224319 1.3766131 0.7202806 -0.2932476
0001b0 dd b2 05 3f 20 7e 58 bc 37 8a 9b bf a8 a8 a1 3f
       0.5222605 -0.013213664 -1.2151555 1.2629595
0001c0 f3 67 99 3f b9 f1 88 3e 87 14 94 bf 4d 4f c6 3f
       1.1984848 0.2674692 -1.1568764 1.5492951
0001d0 1e 78 01 bf 8c bc 24 bf f0 42 6f 3e 07 d8 2d 3f
       -0.5057391 -0.643502 0.23365378 0.67907757
0001e0 2a d3 20 3f 26 21 70 bf d9 2d b8 3e 41 c2 ec 3e
       0.6282221 -0.9380058 0.3597248 0.46241954
0001f0 b2 f6 e6 bf d2 4d 4d bf 84 2f dd bf c1 f8 1e bf
       -1.8044035 -0.8019687 -1.7280126 -0.6209832
000200 a2 89 a7 3f bc 99 7f be 7c e5 03 bf 16 d6 54 3f
       1.3088877 -0.24960989 -0.5152204 0.8313917
000210 5c 34 0e c0 48 2b 5f bf 67 c5 b7 be 98 0d 48 be
       -2.2219458 -0.87175417 -0.35892794 -0.19536436
000220 a2 1c 8c 3e e2 89 d9 3f da 71 ac 3f 78 80 25 3f
       0.27365595 1.6995203 1.3472245 0.6464915
000230 b8 b8 c0 bc d7 b4 a5 3f 8f 8f 80 3e dc 5c 43 bf
       -0.02352558 1.2945813 0.25109527 -0.7631357
000240 60 0d 4d be 06 dc 18 bf f6 23 78 bf a2 f2 2a c0
       -0.20024633 -0.5971073 -0.9692987 -2.6710591
000250 67 fa ef be a3 de 01 bf e7 72 09 3f 4d d1 27 bf
       -0.4687073 -0.5073034 0.5369095 -0.6555374
000260 06 e9 b5 3f 32 b4 86 3f 80 58 a6 be d0 12 15 be
       1.4211738 1.0523741 -0.32489395 -0.14557958
000270 c6 90 da bd 88 09 aa be 8e ce 15 3e 55 ae 99 3f
       -0.106721446 -0.33210397 0.14629576 1.2006327
000280 5c 3f d2 bf 76 29 6b be 53 5c da bf ed 8c 1b 3f
       -1.6425586 -0.22965035 -1.7059425 0.6076191
000290 09 b7 89 be 86 40 e0 bd b0 f2 fa be ce 4d 04 40
       -0.26897457 -0.10949807 -0.4901328 2.0672488
0002a0 fe c5 e6 bf ec 2a 45 bf d8 1d 35 3f a8 59 3b 3f
       -1.8029172 -0.7701862 0.7074866 0.7318368
0002b0 2c 19 ff bf f7 e6 3e bf d4 22 37 3f 90 19 9e 3f
       -1.9929557 -0.74571174 0.7153752 1.2351551
0002c0 54 c9 80 be d7 2a 0b 3f e8 ab 0f c0 c7 95 e7 3e
       -0.251536 0.54362243 -2.2448673 0.4523146
0002d0 d9 61 05 3f e3 9a c4 3e 38 f2 47 be d7 09 c5 3f
       0.5210243 0.3839942 -0.19525993 1.5393628
0002e0 99 96 d8 3e 26 b1 3a 3e 70 3d 1f 3d 07 0b 74 bf
       0.42302397 0.1823164 0.03887695 -0.95329326
0002f0 d8 d8 c1 3e f9 ee be be 94 eb 10 c0 64 f4 d5 be
       0.3786075 -0.37291697 -2.2643785 -0.41788018
000300 90 cb 6e bd 5e c6 79 bf e7 3b 02 bf 33 fb 96 bf
       -0.0582996 -0.9756831 -0.50872654 -1.179541
000310 d2 e9 94 3f ba 68 ea 3e 4c ed 9c bf 46 f5 4e bf
       1.1633856 0.45783025 -1.2259917 -0.8084301
000320 6e 43 4d 3f eb a0 41 3f 7c 57 b9 bd fa 7e 1f be
       0.80181015 0.75636166 -0.090498894 -0.15575781
000330 ae 4d 93 bf c2 9e f1 3f 38 76 68 3f da 50 97 3f
       -1.1508081 1.8876574 0.9080539 1.1821549
000340 6c 57 df bf aa 09 dd bd 94 96 2b 3f 60 eb 72 bf
       -1.7448554 -0.10792859 0.6702664 -0.94890404
000350 74 45 b3 3f 3c 24 47 3f d3 d3 1e 40 ba ca 0b 3e
       1.400557 0.77789664 2.4816787 0.13651553
000360 8a cd fd 3f e6 f8 0d c0 3c 26 5c bf a6 8b 97 3e
       1.982835 -2.2183166 -0.8599584 0.2959873
000370 b0 48 90 3e f8 90 24 c0 cb 22 ba bf 84 2e 01 3d
       0.28180456 -2.5713482 -1.4541868 0.0315385
000380 ee 1e 88 3f 7a d0 cb be 62 d6 63 bf df ed b6 3f
       1.0634439 -0.39807492 -0.88999 1.4291342
000390 76 2b 8a bf df c7 a8 3f b5 7d d4 3f f5 db 25 40
       -1.0794513 1.3185996 1.6600863 2.59155
0003a0 d3 32 e4 3f 45 91 ed bf 18 85 e0 3e 7f 30 82 be
       1.782801 -1.8559958 0.43851542 -0.25427625
0003b0 44 5f 33 be e2 6a f6 bf 1e 1e 12 3f 65 f0 9d 3e
       -0.1751681 -1.9251368 0.57077205 0.3084747
0003c0 c4 f0 d7 be 3b 95 82 3f 94 81 d1 3f 56 94 96 bf
       -0.42175877 1.0201792 1.6367669 -1.1764019
0003d0 be 6c b7 3f be c2 b1 3f 0a 88 86 3f b7 6b e3 be
       1.433006 1.3887556 1.0510266 -0.44418117
0003e0 6c d1 30 be 6f a8 f9 be cc 14 14 40 3c 57 5f 3f
       -0.17267388 -0.48761317 2.3137693 0.87242484
0003f0 dc 12 48 3f 18 43 15 3f 3b 9f 13 bf 00 bd 10 be
       0.7815378 0.583055 -0.5766484 -0.14134598

network.1.running_var f4 [512]
000000 55 a5 cd 44 0b bf b7 44 95 a0 04 45 99 1b 13 45
       1645.1666 1469.9701 2122.0364 2353.7249
000010 ab a0 0c 45 f3 38 0b 45 b5 27 f9 44 ad 02 d3 44
       2250.0417 2227.5593 1993.2408 1688.0836
000020 3e d1 0a 45 f3 99 33 45 5e 5e 33 45 d1 18 d4 44
       2221.0776 2873.6218 2869.898 1696.7755
000030 76 78 1f 45 b2 f7 11 45 82 cf e1 44 91 85 13 45
       2551.5288 2335.481 1806.4846 2360.348
000040 9b cd 0c 45 dd cc 0b 45 ef 41 0f 45 d2 94 3b 45
       2252.8503 2236.804 2292.1208 3001.3013
000050 7b 61 07 45 a4 c7 ed 44 b4 df 2c 45 a3 f5 32 45
       2166.0925 1902.2388 2765.9814 2863.3523
000060 dc 29 d1 44 ab f1 10 45 ea 60 10 45 dc fb 2d 45
       1673.3081 2319.1042 2310.0571 2783.7412
000070 a8 91 d1 44 92 e6 b2 44 be 5d ef 44 86 8c 10 45
       1676.5518 1431.2053 1914.9294 2312.7827
000080 04 de fe 44 37 5c 16 45 76 a6 1c 45 d9 22 ff 44
       2038.938 2405.7634 2506.4038 2041.089
000090 7b f6 0c 45 c2 8d f6 44 b5 66 1a 45 d3 5e 0a 45
       2255.405 1972.4299 2470.4192 2213.9265
0000a0 f1 93 dd 44 6c 90 18 45 35 70 1d 45 79 61 ca 44
       1772.6232 2441.0264 2519.013 1619.046
0000b0 98 49 db 44 f6 50 ee 44 c7 4f fb 44 91 62 03 45
       1754.2998 1906.53 2010.493 2102.1604
0000c0 2f de 09 45 95 b5 ec 44 ef 35 e9 44 fb 8e 06 45
       2205.8865 1893.6744 1865.6854 2152.9363
0000d0 a5 79 26 45 d4 66 df 44 c6 4a 18 45 aa 42 e4 44
       2663.6028 1787.2134 2436.6733 1826.0833
0000e0 c2 6e 06 45 8e 04 2f 45 72 c5 63 45 8e 5f f0 44
       2150.9224 2800.2847 3644.3403 1922.9861
0000f0 cc a8 e2 44 05 15 0a 45 78 be d7 44 3c fb bd 44
       1813.2749 2209.3137 1725.9521 1519.8511
000100 41 95 d0 44 c1 b7 26 45 fa f3 46 45 ac 8f 17 45
       1668.6642 2667.4846 3183.2485 2424.9795
000110 f2 3f c5 44 cd 2d fe 44 9f 04 20 45 70 71 25 45
       1577.9983 2033.4313 2560.2888 2647.0898
000120 67 32 0c 45 04 cd 13 45 78 3d 08 45 97 23 d2 44
       2243.1501 2364.8135 2179.8418 1681.1122
000130 eb 7f ce 44 f1 92 10 45 ee 99 26 45 26 ba 48 45
       1651.9974 2313.1838 2665.6206 3211.6343
000140 f8 e8 f0 44 35 61 fb 44 4f 97 04 45 c1 9c cc 44
       1927.2803 2011.0377 2121.4568 1636.8986
000150 1c c4 18 45 a7 e4 18 45 14 17 01 45 d3 10 f2 44
       2444.2568 2446.2908 2065.4424 1936.5258
000160 c1 63 22 45 cd 76 10 45 49 8a c2 44 5c df 31 45
       2598.2346 2311.425 1556.3214 2845.96
000170 1c b4 f3 44 04 49 0f 45 81 82 44 45 4c 2d 09 45
       1949.6284 2292.5635 3144.1565 2194.831
000180 60 d1 ef 44 cb 60 38 45 d6 33 ee 44 b6 fe d7 44
       1918.543 2950.0496 1905.6199 1727.9597
000190 86 69 11 45 fc 20 27 45 56 c2 c2 44 2f 0a de 44
       2326.5952 2674.0615 1558.073 1776.3182
0001a0 9f a7 12 45 ef 36 09 45 e2 72 00 45 dc 5b 0a 45
       2346.4763 2195.4333 2055.1802 2213.7412
0001b0 b2 99 07 45 bd 48 11 45 a8 c9 08 45 a4 9a 0c 45
       2169.606 2324.5461 2188.6035 2249.665
0001c0 90 ae 1e 45 37 84 12 45 4f 73 22 45 8f dd 04 45
       2538.9102 2344.2634 2599.2068 2125.8474
0001d0 d4 dd 25 45 1e 6c 09 45 c2 69 d0 44 1a 1f 12 45
       2653.8643 2198.7573 1667.3049 2337.9438
0001e0 73 98 02 45 e4 0d 00 45 66 04 f8 44 f6 57 06 45
       2089.528 2048.8682 1984.1375 2149.4976
0001f0 32 11 1c 45 7f f6 c0 44 3b 25 1d 45 e5 97 03 45
       2497.0747 1543.703 2514.327 2105.4934
000200 15 c5 1a 45 e4 18 01 45 b9 96 c6 44 2b 31 ff 44
       2476.3176 2065.5557 1588.7101 2041.5365
000210 78 7d 22 45 a6 7e ed 44 db 97 08 45 f5 b7 cd 44
       2599.8418 1899.9578 2185.491 1645.7487
000220 49 7f 17 45 5c 7e 04 45 b1 1d 00 45 29 75 d5 44
       2423.9553 2119.8975 2049.8557 1707.6613
000230 b5 d6 ff 44 2d 11 e3 44 fb af f9 44 60 8d db 44
       2046.7096 1816.5367 1997.4994 1756.418
000240 5c 1c ef 44 43 7c 11 45 e0 a6 21 45 30 e5 64 45
       1912.8862 2327.7664 2586.4297 3662.3242
000250 6b 28 16 45 82 26 09 45 6b 9b 2f 45 7a 9b d8 44
       2402.5261 2194.4067 2809.7136 1732.8586
000260 77 06 da 44 8e cc e0 44 67 a7 af 44 1c eb d8 44
       1744.202 1798.3923 1405.2313 1735.3472
000270 09 bb df 44 88 02 13 45 eb d4 05 45 a2 7a e8 44
       1789.8448 2352.1582 2141.3074 1859.8323
000280 21 73 40 45 98 dd 03 45 59 5d ec 44 52 49 c0 44
       3079.1956 2109.8496 1890.9171 1538.2913
000290 41 d3 db 44 8f 87 33 45 1d fa 18 45 b2 a0 00 45
       1758.6017 2872.4724 2447.632 2058.0435
0002a0 e3 7a 37 45 a1 72 10 45 7f 8c dd 44 6d 45 1f 45
       2935.6804 2311.1643 1772.3905 2548.339
0002b0 43 af 2b 45 cd 4f 3c 45 a5 78 01 45 67 cb ea 44
       2746.9539 3012.9875 2071.5403 1878.3563
0002c0 cb 17 e9 44 86 dd e0 44 6c fc fc 44 84 2f 2a 45
       1864.7435 1798.9226 2023.8882 2722.9697
0002d0 2e f2 db 44 dc 2d bd 44 65 4d 11 45 00 b8 23 45
       1759.5681 1513.4331 2324.8372 2619.5
0002e0 14 e3 07 45 bc c0 e4 44 3b 5d 02 45 a6 85 46 45
       2174.1924 1830.023 2085.827 3176.353
0002f0 e4 68 07 45 13 c9 22 45 9e 20 06 45 4c b2 05 45
       2166.5557 2604.5671 2146.0386 2139.1436
000300 08 ca fb 44 a3 09 e4 44 85 0c 0f 45 08 7c 22 45
       2014.3135 1824.3011 2288.7825 2599.752
000310 a9 e1 1b 45 5d 19 12 45 78 be e4 44 c6 1d fc 44
       2494.1038 2337.5852 1829.9521 2016.9304
000320 20 31 ce 44 7c c3 ff 44 10 5c bf 44 c9 62 2d 45
       1649.5352 2046.1089 1530.877 2774.174
000330 e2 df 0f 45 ff 82 20 45 a5 0f 2a 45 aa 2c 0a 45
       2301.9927 2568.1873 2720.9778 2210.7915
000340 c9 90 0d 45 a3 f1 24 45 ea 65 f3 44 5e 3b 08 45
       2265.049 2639.1023 1947.1848 2179.7104
000350 ab ef 18 45 08 79 29 45 38 22 5c 45 c5 c9 c6 44
       2446.9792 2711.5645 3522.1387 1590.3053
000360 99 4f 0b 45 e2 18 1d 45 1c 9b 13 45 5e c3 fb 44
       2228.9749 2513.5552 2361.6943 2014.1052
000370 35 4a dd 44 f3 39 22 45 a0 7c f7 44 bc a5 01 45
       1770.319 2595.6218 1979.8945 2074.3584
000380 13 7f d8 44 01 f5 0f 45 18 57 38 45 c0 7a f0 44
       1731.9711 2303.3127 2949.4434 1923.8359
000390 f3 87 2d 45 54 f6 d3 44 c5 bd 17 45 fc b2 06 45
       2776.4968 1695.6978 2427.8606 2155.1865
0003a0 d7 2b 19 45 70 82 55 45 87 aa 41 45 89 2a fc 44
       2450.74 3416.1523 3098.658 2017.3292
0003b0 42 4b 45 45 64 ac 08 45 a3 27 0e 45 e6 10 05 45
       3156.7036 2186.7744 2274.4773 2129.0562
0003c0 cc 40 08 45 70 14 cf 44 d6 73 f4 44 eb 8d 53 45
       2180.0498 1656.6387 1955.6199 3384.8699
0003d0 65 a5 00 45 47 07 00 45 92 98 bf 44 5a bd 0f 45
       2058.3372 2048.4548 1532.7678 2299.8345
0003e0 af 78 e0 44 98 f0 f1 44 44 22 17 45 a9 88 db 44
       1795.7714 1935.5186 2418.1416 1756.2706
0003f0 7a 46 19 45 23 61 f1 44 41 cb 1c 45 93 74 ed 44
       2452.4048 1931.0355 2508.7034 1899.643

network.4.weight f4 [256, 512]
000000 08 34 a6 3f 5c 49 de bf 86 cf 3d c0 27 7e 81 3f
       1.2984629 -1.7366138 -2.9657912 1.0116624
000010 48 50 29 be f9 11 7e 3e 63 8e 18 40 06 bb b9 3f
       -0.16534531 0.24811544 2.3836906 1.45102
000020 22 c4 23 3f 6c 9b 8b 3e d1 91 f6 3f 70 7e 00 3f
       0.6397115 0.27267015 1.926325 0.5019293
000030 90 e0 9f bf 6a 90 f8 bf 91 10 b0 3f 5f c5 bf 3f
       -1.2490406 -1.9419072 1.3755056 1.4982108
000040 40 ff 8a 3f 91 b0 59 c0 32 86 19 3e e3 91 75 c0
       1.0859146 -3.4014018 0.14992598 -3.8370292
000050 27 a2 69 3f e9 15 ba c0 37 45 1e bf e4 3d cf bf
       0.9126305 -5.8151746 -0.61824363 -1.6190763
000060 c9 b9 3c c0 97 ff 14 c0 48 c2 e1 bf 79 c9 28 c0
       -2.9488394 -2.3281 -1.7637415 -2.637297
000070 52 85 7a 3f 66 86 23 40 39 67 6f 3f 51 97 93 3f
       0.9785968 2.555078 0.9351688 1.1530553
000080 38 21 88 be b6 69 8e 3f d1 2f b2 3f 2a d3 07 40
       -0.26587844 1.112601 1.3920842 2.1222634
000090 05 3c 37 40 d1 7d 80 3f bc 4e 9a 3d 6e 1e a3 3e
       2.8630383 1.0038396 0.07534549 0.31859154
0000a0 f4 2a 95 40 5c 6d f0 3e 84 1e c5 be 0b ce 91 40
       4.6614933 0.46958435 -0.38499844 4.5564017
0000b0 57 ec 41 bf 10 6d 18 3f 7a a5 d0 bf d8 80 aa 3f
       -0.7575125 0.59541416 -1.63005 1.332057
0000c0 ce 63 97 be 14 1c 26 c0 da 9a c1 3f 9e 73 d7 bf
       -0.29568332 -2.5954638 1.5125382 -1.6832159
0000d0 a7 88 81 bf c7 3a ac 3f 4c 3b bd 3e ec 54 70 be
       -1.0119828 1.3455437 0.36959302 -0.23469895
0000e0 0d 16 32 c0 b7 f9 83 c0 2e 59 d5 3f 27 d9 3b 3f
       -2.7825959 -4.124233 1.666784 0.73378223
0000f0 c7 d7 b5 3f 39 10 b7 bf 7f 5b 54 c0 ab 24 e1 be
       1.4206475 -1.4301826 -3.3180845 -0.43973288
000100 4d 7c 36 40 a1 1a 5b 3f 5c 67 b0 3f 6d b1 87 3e
       2.8513367 0.8558751 1.3781543 0.26502553
000110 09 b9 c6 40 e3 7c 3d c0 7e a7 56 be 9a 65 cb 3d
       6.2100873 -2.9607475 -0.2096233 0.09931488
000120 e9 9c 66 bf 6f cd 74 3f 1c 79 a6 bf d1 79 26 40
       -0.90083176 0.95625967 -1.300571 2.601185
000130 61 0c 74 40 0f d2 91 be 6c b3 d1 bf 7c d3 48 3f
       3.8132555 -0.28480574 -1.638288 0.784477
000140 fb 61 82 3f 2b a2 1d c0 8a 17 de bf c2 47 32 3e
       1.0186151 -2.463023 -1.7350934 0.17410186
000150 ca ed fe 3e 75 50 b9 bf 46 f3 c1 3c 97 47 d7 3f
       0.49790794 -1.4477679 0.023675572 1.6818722
000160 94 81 a4 3e d5 77 c1 bf 53 54 03 c0 a3 54 41 c0
       0.3213011 -1.5114695 -2.0520217 -3.0207908
000170 b1 aa 3b c0 a5 ee a3 3e aa ff cf bf 26 73 ac 3f
       -2.9322932 0.3201801 -1.6249897 1.347264
000180 3b a2 15 c0 aa ab df 3f f1 5a 41 bf b5 f1 07 c0
       -2.3380268 1.7474263 -0.7552939 -2.1241276
000190 b8 52 40 c0 f8 5b 25 c0 e2 b9 30 3f 8d 69 0b 40
       -3.0050488 -2.5837383 0.69033635 2.1783173
0001a0 1f c1 b6 3f dd 43 a5 c0 fe e9 31 c0 2e cf 91 3f
       1.4277686 -5.164534 -2.7799067 1.1391351
0001b0 fe 7f 70 bf 0d 5c 05 c0 cb 4a 9d 3d af 73 21 c0
       -0.939453 -2.0837433 0.07680281 -2.5226858
0001c0 96 59 c1 3f 0d 70 bc bf bd 9a d1 bf 52 cb 12 bf
       1.5105464 -1.4721695 -1.6375347 -0.5734149
0001d0 0d 1b 5d be 47 12 42 be ba 93 be 3e 6e 1d b9 3f
       -0.2159235 -0.18952285 0.3722208 1.4462106
0001e0 77 b1 83 3f 36 5c 41 bf 2a 2b f1 3f 68 27 fd 3f
       1.0288533 -0.7553133 1.8841298 1.9777651
0001f0 e0 08 a1 bf 00 64 08 c0 31 a2 82 bf 84 8e e9 3e
       -1.2580833 -2.1311035 -1.0205747 0.45616543
000200 e0 b5 66 c0 c3 45 9b be 51 8d 9d bf 1b c1 74 3f
       -3.6048508 -0.3032666 -1.2308751 0.95607156
000210 23 2a 03 c0 15 22 9a 3f ae a9 17 3f 8a 8b 37 3e
       -2.0494468 1.2041651 0.59243286 0.17924324
000220 d3 5f cd be 47 86 8d c0 b0 c7 2a bf b5 49 e6 3f
       -0.4011217 -4.4226413 -0.6671095 1.7991244
000230 9d e1 01 bf 31 bd a3 3f f7 56 9b bf ef 79 8c bf
       -0.50734884 1.2792112 -1.2135915 -1.0974711
000240 a5 0b 80 be bf 3b 55 c0 1f 83 b7 3e 09 78 6d c0
       -0.25008884 -3.3317716 0.35842225 -3.7104514
000250 a7 06 8e c0 ea 47 09 3f a0 70 29 c0 c7 ad f4 3f
       -4.438312 0.5362536 -2.647499 1.9115533
000260 da d1 0d 40 f3 1d 47 40 44 e0 4d bf ca c4 fe bf
       2.2159333 3.111203 -0.8042033 -1.9903805
000270 f8 fe f4 be 39 69 98 3d 63 cb 5e bf f7 e7 8b bf
       -0.47850776 0.07441945 -0.87029094 -1.0930165
000280 cf fe 91 3f ed 78 f5 bd 2d 3c cf 3e 4b ce d5 bf
       1.1405886 -0.119859554 0.40475598 -1.6703581
000290 89 4c 3a c0 2a 4b db bf 77 ba 90 3f ef 59 c7 3e
       -2.9109213 -1.7132313 1.1306905 0.389358
0002a0 ec 63 18 c0 21 c0 9a bf 75 af 01 40 26 fe 9c c0
       -2.3810987 -1.2089883 2.026334 -4.906024
0002b0 1a fd fb bf 99 e9 4f 3d 07 57 be 3f 3c f3 e5 be
       -1.9686615 0.050759885 1.4870309 -0.44912136
0002c0 21 a2 ca be 51 a9 17 3e 8a fc 96 3f f8 83 74 3e
       -0.3957682 0.14810683 1.1795819 0.23878467
0002d0 42 d9 8e 3e a9 84 1b 3e 6a f5 47 bf 79 69 a9 bf
       0.2790013 0.15187325 -0.7810885 -1.3235313
0002e0 35 49 de 3e b6 5a 65 3e b8 e5 fa be c8 89 7f c0
       0.43415228 0.22397885 -0.49003386 -3.9927845
0002f0 eb 96 9e c0 b8 a5 a0 3d 0e 95 20 40 b7 a4 3c 3f
       -4.9559226 0.07844108 2.5090976 0.73688835
000300 97 96 9c bf ed 95 3a 40 80 42 55 3e c3 c4 f2 3f
       -1.2233456 2.9154007 0.20826149 1.8966297
000310 91 b8 88 c0 91 56 53 c0 23 95 3c 40 85 d6 1a 3f
       -4.27253 -3.3021586 2.9466026 0.6048358
000320 1a 0c 0e bf f8 6d 09 40 27 60 37 40 98 46 f9 bf
       -0.55487216 2.147337 2.8652437 -1.9474669
000330 70 8e 12 3f 43 37 bd be ec 72 9c be 9a f6 38 3f
       0.5724859 -0.36956224 -0.30556428 0.72251284
000340 7d 89 d0 3e 19 ce e4 bd 97 d6 27 40 07 56 33 c0
       0.40729895 -0.111721225 2.6224725 -2.8021257
000350 64 01 96 bf 47 f0 6e 3c 39 9f 23 c0 af f5 1e c0
       -1.1719174 0.014583654 -2.5565932 -2.4837453
000360 4f 65 e0 bf 60 b5 37 3e 3f cc 58 c0 48 f2 4a 3f
       -1.7530917 0.17940283 -3.3874662 0.7927594
000370 3a 51 da bf 3a 18 28 bf 98 ff 2b bf 3d 64 12 bf
       -1.7056038 -0.65661967 -0.6718688 -0.571842
000380 9d 86 1b c0 c2 94 14 bf f3 a5 2e 3f 13 6a 2c 3f
       -2.4300911 -0.58039486 0.6822197 0.67349356
000390 10 51 73 3f 28 35 37 c0 d9 c7 a4 bf 62 63 13 bf
       0.95045567 -2.8626194 -1.2873489 -0.5757352
0003a0 8a 45 38 3f f9 11 b2 bf 80 5d 18 3e 07 14 f0 bf
       0.7198111 -1.3911735 0.14879417 -1.8756112
0003b0 1b c3 e3 3e 31 ad 4d 40 09 92 a5 bf 31 14 63 bf
       0.4448479 3.2136958 -1.2935191 -0.88702685
0003c0 01 7c 83 3f fc 16 92 c0 00 c6 0e 40 38 ee 4d c0
       1.0272218 -4.5653057 2.230835 -3.2176647
0003d0 13 40 c2 3e 0f c6 06 c0 c5 20 a2 3e 78 a7 1f bf
       0.3793951 -2.1058385 0.31665626 -0.6236491
0003e0 db 11 95 bf 26 77 32 40 23 81 a4 3f 12 3a 50 3f
       -1.1646074 2.7885222 1.2851909 0.8133861
0003f0 98 68 85 bf da 2a 67 3f e3 c8 04 c0 90 2f 9f bf
       -1.0422544 0.9029976 -2.0747612 -1.243639
