models/NeuralNetwork-2_acc-56.76_loss-0.000001.pth (torch, 802127 bytes, 8 tensors)

network.0.weight f4 [512, 63]
0	0xbd65c8ec	-0.056099817
1	0x3de16671	0.11005867
2	0x3d46d35c	0.04854141
3	0x3cb843f3	0.022493338
4	0x3dd844f4	0.10560027
5	0x3d1626d8	0.036658138
6	0xbd103665	-0.035208125
7	0xbcd85d8f	-0.0264118
8	0xbda5dad0	-0.08098376
9	0x3e082bdc	0.13297981
10	0xbce9fc54	-0.028562702
11	0x3b93ed99	0.004514408
12	0xbd415ace	-0.04720574
13	0xbc2f42e2	-0.010697098
14	0x3e095385	0.13410766
15	0x3b43492b	0.002979825
16	0x3de4d2bf	0.11173009
17	0x3d5f8150	0.05456668
18	0x3dcb20f5	0.099183954
19	0x3e2693f9	0.16267385
20	0x3e428da1	0.1899934
21	0xbdf57907	-0.11985975
22	0x3d64da2f	0.05587214
23	0x3934a5da	0.00017227922
24	0x3df5ab76	0.11995594
25	0xbd762324	-0.060092106
26	0xbd05a6e3	-0.03262986
27	0xbd9998c4	-0.07499841
28	0x3d542c6d	0.05180018
29	0xbdd6d4f3	-0.104898356
30	0xbdca15d3	-0.09867444
31	0x3d0851c9	0.03328112
32	0x3cb54f76	0.022132616
33	0x3e0ac852	0.13552979
34	0x3c5c7ee3	0.0134579865
35	0x3bf6d19b	0.007532311
36	0x3d43a7f3	0.04776759
37	0x3d252f24	0.04032816
38	0x3c01c76b	0.00792108
39	0xbd2c3a3b	-0.04204772
40	0x3e2e099a	0.1699585
41	0x3da362d3	0.079778336
42	0x3c8d2fb6	0.017234664
43	0x3dec8a2f	0.11549794
44	0x3d5bdcc4	0.053677335
45	0xbd1d1c91	-0.03835732
46	0x3e5415af	0.20711397
47	0x3deccdfd	0.11562727
48	0x3d589595	0.052877028
49	0x3dce763e	0.10081147
50	0xbd5ec043	-0.054382574
51	0x3e17cefb	0.1482505
52	0xbd214b29	-0.03937832
53	0x3d531af1	0.051539365
54	0x3e2a7503	0.16646199
55	0x3d8aaf36	0.067717
56	0xbc0b2c60	-0.008494467
57	0x3dc47871	0.09593285
58	0xbd6663aa	-0.05624739
59	0xbd6f7f68	-0.058471113
60	0xbdd1ed65	-0.102503575
61	0xbd977db1	-0.073970206
62	0xbc16e483	-0.009209755
63	0x3cc0e7cc	0.02354803
64	0xba57d2a6	-0.0008232988
65	0xbcc5ac34	-0.024129964
66	0xbd9a3359	-0.07529325
67	0x3d9f5cb6	0.07781355
68	0xbbc046b2	-0.0058678025
69	0x3c766041	0.015037597
70	0xbd81cc71	-0.06337822
71	0x3d68d776	0.056846105
72	0x3e0b78d2	0.13620308
73	0xbcc1319f	-0.023583231
74	0x3b5c6395	0.0033628691
75	0xbc660732	-0.014039801
76	0xbe049f8d	-0.12951489
77	0xbd9d9e2f	-0.07696187
78	0x3d9d458b	0.0767928
79	0xbe6143ff	-0.21998595
80	0x3cc48b0c	0.023992084
81	0xbb5f4270	-0.00340667
82	0x3c61dd3c	0.013785657
83	0xbde5267a	-0.111889794
84	0xbda2b26a	-0.07944186
85	0x3d112412	0.03543479
86	0x3d26e231	0.040743057
87	0x3e24690b	0.16055696
88	0x3da4cad9	0.080465026
89	0xbe20940d	-0.15681477
90	0x3db012cb	0.085973345
91	0x3c90bb66	0.017667484
92	0x3e11ad70	0.14226317
93	0xbd6a4446	-0.057194017
94	0xbe120576	-0.14259896
95	0xbddb0169	-0.10693628
96	0xbdeba035	-0.115051664
97	0x3d7aad68	0.06120053
98	0x3dafdd57	0.08587139
99	0xbdf190a8	-0.11795169
100	0x3dd60135	0.10449449
101	0x3d9b8931	0.075945266
102	0x3dd6c160	0.10486102
103	0xbe2ac1ba	-0.16675463
104	0xbdf3f4b7	-0.1191191
105	0xbe25defc	-0.16198343
106	0xbc112269	-0.008858302
107	0x3e49b601	0.19698335
108	0x3e238804	0.15969855
109	0xbcc1f0de	-0.023674425
110	0x3d40127c	0.046892628
111	0xbddf567b	-0.10905167
112	0x3ce2d2ca	0.027688403
113	0xbd64c4cc	-0.055851743
114	0x3d4b1f74	0.049590543
115	0x3b805a06	0.0039169816
116	0x3e3f3e38	0.18676078
117	0x3cd6d26c	0.026223384
118	0xbe1d6adc	-0.15372795
119	0x3d335046	0.043777727
120	0xbdeb39fb	-0.11485668
121	0x3cb19dd9	0.021681713
122	0x3de9cfe5	0.11416606
123	0xbddbb662	-0.10728146
124	0x3d021e55	0.031767208
125	0xbd49e2b3	-0.049288463
126	0xbd7bedfe	-0.061506264
127	0xbc6e0a50	-0.014528826
128	0x3cc805cf	0.024416832
129	0xbcfd28ca	-0.030903239
130	0x3d31d438	0.04341528
131	0xbe4b025b	-0.19825117
132	0xbc2630e9	-0.010143497
133	0x3ce90a6e	0.028447356
134	0x3e46de20	0.19420671
135	0xbd942f3b	-0.07235571
136	0x3cd525ee	0.026019063
137	0xbe1b9943	-0.15195183
138	0x3daa7844	0.0832372
139	0xbb5ff221	-0.003417142
140	0x3d481dbe	0.04885649
141	0xbccb939a	-0.024850655
142	0xbe1fecbb	-0.1561765
143	0x3d944ac8	0.07240826
144	0xbd9b6d16	-0.07589166
145	0xbcc30724	-0.023807116
146	0x3d5723d5	0.052524406
147	0x388ab8db	6.614785e-05
148	0x3d94513e	0.07242058
149	0x3dcca837	0.09993022
150	0x3c80c275	0.015717724
151	0x3d74352d	0.059621025
152	0x3c9fc0ba	0.019501079
153	0xbe087f16	-0.1332973
154	0x3d49901b	0.049209695
155	0xbcd0c598	-0.025484845
156	0x3d79f51a	0.061024763
157	0x3e13cb85	0.14433105
158	0x3c55cf8d	0.013049972
159	0xbd95bd09	-0.07311446
160	0x3d593059	0.053024624
161	0x3df40244	0.11914495
162	0x3db4b154	0.08822885
163	0xbdbb7b60	-0.09154391
164	0x3d5fa2cd	0.05459862
165	0xbc9d8dbf	-0.019232629
166	0x3d67d640	0.05660081
167	0x3d37ab65	0.04484119
168	0x3d058402	0.032596596
169	0x3d71ad71	0.059003297
170	0xbd30f1b4	-0.043199256
171	0x3e2f11b4	0.17096597
172	0x3c754cc3	0.014971915
173	0x3d0bdb0e	0.034144454
174	0x3d481228	0.04884544
175	0xbe221311	-0.15827586
176	0xbd46b259	-0.04850993
177	0x3c007cb7	0.007842234
178	0xbdd2b0c7	-0.10287624
179	0xbda2f2c0	-0.07956457
180	0xbe00bd9c	-0.1257233
181	0x3dc3c742	0.0955949
182	0x3d869448	0.06571251
183	0x3c677cb9	0.014128857
184	0xbd49b7bc	-0.04924749
185	0xbd969cd7	-0.073541336
186	0x3dc4db48	0.09612137
187	0xbb1f64d0	-0.0024321564
188	0xbd4a5d89	-0.04940561
189	0x3cb7ddc9	0.022444623
190	0xbcafa821	-0.021442475
191	0x3cff155a	0.03113811
192	0x3ca8dece	0.020614054
193	0xbca41a59	-0.020032095
194	0x3db88215	0.09009186
195	0xbd5b335b	-0.053515773
196	0xbd55b0dc	-0.05217062
197	0x3c8a0336	0.016847234
198	0x3cc2a560	0.023760498
199	0x3d62e5b2	0.055394836
200	0x3e28f87c	0.1650104
201	0xbd33bce2	-0.043881305
202	0x3d882ce6	0.06649189
203	0x3cd99a5f	0.026562868
204	0x3c427263	0.011868092
205	0x3b252341	0.0025198015
206	0xbd457e12	-0.048215933
207	0x3dc150fc	0.09439275
208	0x3d84e4fd	0.064889885
209	0xbe067b6e	-0.13133022
210	0x3d7b8ba1	0.061412457
211	0x3da9be22	0.08288218
212	0xbe2237f8	-0.15841663
213	0xbd2eb83b	-0.042656165
214	0x3dddf1d2	0.10837139
215	0x3bdb9fa6	0.006702381
216	0xbd158d06	-0.036511444
217	0xbda65091	-0.081208356
218	0x3d05212e	0.032502346
219	0xbd14041c	-0.03613673
220	0xbe0ca69f	-0.13735436
221	0xbbcffa29	-0.00634696
222	0x3d6b1d33	0.057400893
223	0x3dff6fc2	0.12472488
224	0xbe172671	-0.14760758
225	0xbce29e50	-0.02766338
226	0xbd6fd65e	-0.058554046
227	0xbdc03282	-0.093846336
228	0xbdf2cc5e	-0.11855386
229	0xbd89b835	-0.06724588
230	0xbd9d4ed1	-0.07681049
231	0xbdc7d582	-0.0975752
232	0x3e3184c7	0.17335807
233	0x3e1bfb1b	0.15232508
234	0xbdb60f53	-0.088896416
235	0x3d6b56a2	0.057455666
236	0x3e5580dd	0.20849939
237	0x3de97f83	0.11401274
238	0xbe0691db	-0.13141577
239	0xbd113ffa	-0.035461403
240	0x3d8b0308	0.067876875
241	0xbe56e367	-0.20985185
242	0x3df9a28f	0.12189209
243	0xbc0e69d7	-0.008692226
244	0xbdaa6e6a	-0.08321841
245	0x3e08fc8d	0.1337759
246	0x3d213856	0.039360367
247	0xbccb6a63	-0.024831003
248	0x3e22be15	0.15892823
249	0xbe292036	-0.16516194
250	0xbd58ed24	-0.05296053
251	0x3e02c971	0.12772156
252	0x3c805588	0.015665784
253	0x3d2c643c	0.04208778
254	0xbd33c6aa	-0.043890633
255	0xbe197d62	-0.14989236

network.0.bias f4 [512]
0	0x3c3d84b5	0.011567284
1	0xbbf071dc	-0.007337792
2	0xbe8a4391	-0.27004674
3	0xbd1a31f5	-0.0376453
4	0xbe6c4f5a	-0.23077145
5	0x3c15ecc9	0.009150692
6	0xbdd5504e	-0.104157075
7	0xbe2d34fa	-0.1691474
8	0xbd79afba	-0.0609586
9	0xbd764839	-0.06012747
10	0xbe081811	-0.1329043
11	0xbdff32f3	-0.1246089
12	0xbd9b2853	-0.075760506
13	0xbe427ea2	-0.18993619
14	0x3db967a1	0.09052969
15	0xbca5f6cc	-0.020259283
16	0xbdce97e1	-0.10087562
17	0xbde5921b	-0.11209508
18	0xbd7adea5	-0.061247487
19	0xbda25f7f	-0.07928371
20	0xbd61947a	-0.05507324
21	0xbdb0301a	-0.08602925
22	0xbb9bd066	-0.0047550676
23	0x3d6b3038	0.05741903
24	0xbdcb219e	-0.09918521
25	0xbd2159df	-0.03939235
26	0x3b75e5eb	0.0037521075
27	0x3d70e59e	0.05881273
28	0xbe2c0b8d	-0.16801281
29	0x3da99bff	0.08281707
30	0x3b72718b	0.0036993946
31	0xbdfc18a3	-0.123093866
32	0xbd3bd562	-0.045857795
33	0xbe0c6bf8	-0.13713062
34	0xbe0ab9e7	-0.13547479
35	0x3b7beb76	0.0038439906
36	0xbdf4b907	-0.11949354
37	0xbe287145	-0.16449459
38	0xbe598101	-0.21240617
39	0x3d0e8aad	0.03480022
40	0x3adadaaa	0.0016697247
41	0xbe49ce50	-0.19707608
42	0xbe5e8caa	-0.21733347
43	0xbe25dc19	-0.16197242
44	0xbdafb963	-0.085802816
45	0xbd9b0e8e	-0.075711355
46	0xbe582895	-0.21109231
47	0xbd9fe22f	-0.07806813
48	0xbe77d8aa	-0.24203745
49	0xbdab0049	-0.08349664
50	0xbe35362b	-0.17696445
51	0xbe0c6d5b	-0.13713591
52	0xbe252a21	-0.16129352
53	0xbd5305b8	-0.051519126
54	0xbda7acc9	-0.08187253
55	0x3b2a6cec	0.0026004864
56	0xbd7d00ba	-0.06176827
57	0x3d15929b	0.036516767
58	0xbcff0cfc	-0.031134121
59	0x3d211dbd	0.039335
60	0xbe43935d	-0.19099183
61	0xbd6e821c	-0.05822955
62	0xbd1ca57f	-0.038243767
63	0xbe26b016	-0.16278109
64	0x3c855231	0.016274543
65	0xbdaa52b5	-0.08316556
66	0xbc66e03c	-0.014091548
67	0xbe6a0d77	-0.22856699
68	0x3d1b5331	0.037921134
69	0xbd971b82	-0.073782936
70	0x3d6ae958	0.05735144
71	0xbde240b4	-0.110474974
72	0xbe4d0e48	-0.20024979
73	0xbd95a6b5	-0.073071875
74	0xbe4cf748	-0.20016205
75	0xbdf2b0f0	-0.118501544
76	0xbd3e2636	-0.04642316
77	0xbdc077ac	-0.093978256
78	0xbe5c7296	-0.21528086
79	0xbd32da20	-0.04366505
80	0xbcd8eba3	-0.026479548
81	0xbe195bea	-0.14976469
82	0xbdb02f2f	-0.086027496
83	0xbde69bc8	-0.11260182
84	0xbd454fc6	-0.04817178
85	0xbe0e009e	-0.13867423
86	0xbde036ea	-0.10947974
87	0xbdecdf95	-0.115660824
88	0xbdb6265d	-0.08894036
89	0xbe1b1f53	-0.15148668
90	0xbcef015c	-0.029175453
91	0x3caed933	0.021343803
92	0xbcf0008a	-0.029297132
93	0xbe10aa68	-0.14127505
94	0xbe0bdd51	-0.13658644
95	0xbdade3ac	-0.084906906
96	0x3c328c9a	0.01089778
97	0xbd68274d	-0.056678105
98	0xbe348c64	-0.1763168
99	0xbce62ffe	-0.028099056
100	0xbd8d36fd	-0.06895254
101	0xbd6213eb	-0.055194777
102	0xbd9eef14	-0.07760444
103	0xbe897bdd	-0.26852313
104	0xbe262223	-0.1622396
105	0xbd81f7c6	-0.06346087
106	0x3cbab1bb	0.022789827
107	0xbe03867a	-0.12844267
108	0xbdba0de5	-0.090846814
109	0xbe402a8b	-0.18766229
110	0xbdbdaeb0	-0.092618346
111	0xbc2ea2ba	-0.010658914
112	0xbd68d02d	-0.056839157
113	0xbd8244ca	-0.06360777
114	0xbe7244bc	-0.23659033
115	0xbd9d534c	-0.07681903
116	0x3dbb705d	0.09152291
117	0xbe25144e	-0.16121027
118	0xbd2522f8	-0.040316552
119	0xbe62a7c4	-0.2213431
120	0xbe5502b2	-0.2080181
121	0xbd4b1445	-0.049579877
122	0xbe61474b	-0.21999852
123	0xbe84793f	-0.25873753
124	0x3c67e4d0	0.014153674
125	0xbe36f080	-0.17865181
126	0xbe5e1f9a	-0.21691743
127	0xbbbf668f	-0.0058410834
128	0xbe1e1c2d	-0.15440436
129	0xbe8ffac0	-0.28120995
130	0xbd26db48	-0.040736467
131	0xbe11e5af	-0.14247774
132	0xbe25b0d8	-0.16180742
133	0xbe0f1ec3	-0.13976578
134	0xbd0ecdc2	-0.034864195
135	0xbdf0aa0e	-0.11751185
136	0xbd2f5512	-0.04280574
137	0x3d732915	0.05936535
138	0xbd6aee33	-0.05735607
139	0xbe10c490	-0.14137483
140	0xbe07033a	-0.13184825
141	0xbd2eb61a	-0.042654134
142	0xbd000412	-0.03125388
143	0x3d174790	0.03693348
144	0xbe54d621	-0.20784809
145	0xbd4f8cf1	-0.05067152
146	0xbdfce0c8	-0.12347561
147	0xbd853d9b	-0.06505891
148	0xbd69d754	-0.05709012
149	0xbc83de3c	-0.01609718
150	0xbe1c2807	-0.15249644
151	0xbd012230	-0.031526744
152	0xbd80e279	-0.06293196
153	0x3d08920c	0.033342406
154	0xbe68e5cb	-0.22743909
155	0xbdadd0c2	-0.08487083
156	0xbe605c64	-0.21910244
157	0xbe2b2c49	-0.16716112
158	0xbe0faee7	-0.14031564
159	0xbe382f82	-0.17986873
160	0xbe24327e	-0.16034886
161	0xbe51205f	-0.20422505
162	0x3cdef3ba	0.027215827
163	0x3d405bee	0.04696267
164	0x3c028bb5	0.007967879
165	0x3d80f107	0.06295972
166	0xbde51fa8	-0.111876786
167	0xbe0c9eaf	-0.13732408
168	0x3c4c823f	0.012482225
169	0xbe066bb2	-0.1312702
170	0x3c8be631	0.017077537
171	0xbd77d334	-0.060504153
172	0x3d7b9079	0.061417077
173	0x3c80a2ff	0.015702723
174	0xbd806823	-0.062698625
175	0x3c92c845	0.017917762
176	0xbcb0dfef	-0.021591155
177	0xbcf0fc90	-0.029417306
178	0xbdb7be78	-0.08971876
179	0xbe295833	-0.16537552
180	0xbe34e719	-0.17666282
181	0x3d356796	0.04428824
182	0x3d7d9f68	0.0619196
183	0xbddaa0af	-0.10675179
184	0xbdc78fe2	-0.0974424
185	0xbe05c82e	-0.13064644
186	0x3c44bfe5	0.012008642
187	0xbdc9fbef	-0.09862506
188	0xbd1584a5	-0.036503453
189	0xbe0b22df	-0.13587521
190	0xbd92e838	-0.071731985
191	0xbd8abcbc	-0.067742795
192	0xbdd4c5c2	-0.10389282
193	0xbd0a2b9c	-0.033732995
194	0xbc8a4460	-0.016878307
195	0xbd242f2e	-0.040084057
196	0xbe450abf	-0.1924238
197	0xbdd27681	-0.10276509
198	0xbe71a592	-0.23598316
199	0xbd01059a	-0.031499483
200	0xbce1c0cb	-0.027557751
201	0x3b790b3b	0.0038001079
202	0xbc22ce0e	-0.009936823
203	0xbe44bc13	-0.1921237
204	0xbe0d37f1	-0.13790871
205	0xbd48517a	-0.048905827
206	0xbd96abbe	-0.07356976
207	0xbdba2a3a	-0.09090085
208	0xbdcc4ec9	-0.099759646
209	0xbdad57fd	-0.08464048
210	0xbda3a769	-0.07990915
211	0xbbff13b3	-0.0077843308
212	0xbe200469	-0.15626682
213	0xbe411cde	-0.18858668
214	0xbc94b4d0	-0.018152624
215	0xbe48d1fd	-0.19611354
216	0x3bdd2dd8	0.0067498498
217	0x3d97c772	0.07411088
218	0xbd3a62a4	-0.045504227
219	0xbd4087f6	-0.047004662
220	0x3d3e281a	0.046424963
221	0xbd965ff3	-0.073425196
222	0xbe7f3d04	-0.2492562
223	0xbe4fe582	-0.20302394
224	0x3d961cf3	0.073297404
225	0xbe399fd2	-0.18127373
226	0xbe26b168	-0.16278613
227	0xbe22ef28	-0.15911543
228	0xbe62e45e	-0.22157428
229	0xbe1d47d6	-0.15359434
230	0xbe6c03a6	-0.23048267
231	0xbde5a509	-0.112131186
232	0xbe2048c1	-0.15652753
233	0xbdb03b6f	-0.08605086
234	0xbe3aaae8	-0.18229258
235	0xbda2e2da	-0.07953425
236	0xbe19a363	-0.15003733
237	0x3db4fbba	0.088370755
238	0xbde44012	-0.11145033
239	0xbc47d039	-0.01219564
240	0xba337d8a	-0.0006847015
241	0xbd8ad7dc	-0.06779453
242	0xbd2f5770	-0.042807996
243	0xbd6a0ffa	-0.057144143
244	0xbe0567c0	-0.13027859
245	0x3d3a770a	0.04552368
246	0x3d61cd3d	0.05512737
247	0xbd225972	-0.039636083
248	0x3c338ed6	0.010959348
249	0xbe1cd1dd	-0.15314431
250	0xbdf38588	-0.118907034
251	0xbda544bb	-0.0806975
252	0xbe0652c7	-0.13117515
253	0x3d307500	0.04308033
254	0xbcbb10fc	-0.022835247
255	0xbd94f710	-0.07273686

network.3.weight f4 [256, 512]
0	0x3d1d451e	0.038395993
1	0xbd612aed	-0.054972578
2	0x3d1752ff	0.036944386
3	0x3d6fa29d	0.05850469
4	0xbd88b35f	-0.06674837
5	0x3d19a29d	0.037508596
6	0xbcb6c238	-0.022309408
7	0x3cf0c282	0.029389624
8	0xbd16c5e9	-0.036809836
9	0xbd312d64	-0.04325618
10	0xb96a061f	-0.0002231826
11	0x3c674e52	0.014117794
12	0xbb71642f	-0.0036833396
13	0x3c1d870c	0.009614717
14	0x3d8fd645	0.070232905
15	0x3bb1bb77	0.005423959
16	0x3cb40fde	0.021980222
17	0xbc9eefd3	-0.019401466
18	0x3c1f221d	0.009712723
19	0xbc8563fd	-0.01628303
20	0x3cd294f6	0.025705796
21	0xbb620fa2	-0.003449418
22	0x3d5aa4dd	0.053379882
23	0x3cf444eb	0.029818019
24	0xbd6ce8d1	-0.05783922
25	0x3b6c3596	0.0036042682
26	0xbbef183e	-0.007296591
27	0x3ca2037a	0.019777048
28	0x3d1a06f4	0.037604287
29	0x3d5df98c	0.054193065
30	0xbc839872	-0.016063903
31	0x3c22c86f	0.009935482
32	0x3d869c93	0.06572833
33	0x3d43e23d	0.04782318
34	0xbd754950	-0.05988437
35	0x3cf6b94d	0.030117655
36	0x3c5d1e3a	0.013495976
37	0xbdc37ee0	-0.09545684
38	0x3d3fc18d	0.046815444
39	0xb9be384c	-0.00036281568
40	0xbca7f7d5	-0.020503918
41	0x3d14451f	0.03619873
42	0x3cd2d090	0.025734216
43	0x3c065ae6	0.008200383
44	0xbd56de92	-0.052458353
45	0x3c4139cf	0.011793568
46	0xbdb86c33	-0.09005012
47	0xbc3b57e1	-0.011434526
48	0x3c959790	0.018260747
49	0x3ce1dbe6	0.027570676
50	0x3d95096a	0.07277186
51	0x3d576ef2	0.05259604
52	0xbcfcbe3b	-0.030852428
53	0x39f8a413	0.0004742449
54	0xbd7dace2	-0.061932452
55	0xbc938714	-0.018008746
56	0x3db03b1f	0.086050265
57	0x3cfbe14d	0.03074708
58	0x3cd6a6d0	0.02620259
59	0x3d044846	0.032295488
60	0x3d240de7	0.04005232
61	0x3d2a2e1a	0.041547872
62	0xbc7f1242	-0.015568318
63	0xbd016452	-0.031589814
64	0x3d3484b3	0.044071864
65	0xbc2d49ff	-0.010576724
66	0xbc3ceda0	-0.011531264
67	0x3dc34e07	0.09536367
68	0x3b099b2a	0.0020997026
69	0xbcb115c3	-0.021616822
70	0xbcf3e418	-0.02977185
71	0x3d7e218e	0.06204372
72	0x3c3d0692	0.011537211
73	0xbce12a4d	-0.02748599
74	0xbcb73d4b	-0.022368094
75	0x3cdd8058	0.027038738
76	0xbccbb3d6	-0.024866026
77	0x3b29bf46	0.0025901361
78	0x3cc432c3	0.023949986
79	0x3d29c0e0	0.041443706
80	0xbdca427d	-0.09875963
81	0x3bc9debb	0.0061605847
82	0x3d0e04b8	0.03467247
83	0xbd4420c7	-0.04788282
84	0x3ccb5177	0.024819119
85	0x3c189a70	0.0093141645
86	0x3c20b4ca	0.0098087285
87	0xbc23491b	-0.00996616
88	0x3c94054e	0.018068936
89	0x3d112995	0.035440046
90	0xbc92a70c	-0.01790192
91	0x3cf82a81	0.030293705
92	0xbd08ed76	-0.033429585
93	0x3d373887	0.044731643
94	0x3d1845a7	0.0371758
95	0xbd1e57e3	-0.038658034
96	0x3d933ee7	0.07189732
97	0xbbea561c	-0.0071513783
98	0x3d839ed3	0.06426778
99	0xbc94a4db	-0.018145015
100	0xbcafb43f	-0.021448253
101	0xbdb07b41	-0.08617259
102	0x3cbfc492	0.023409162
103	0xbcb952f7	-0.022622569
104	0xbd0af1d7	-0.033922043
105	0x3be7134a	0.00705186
106	0xbce9ea7c	-0.028554194
107	0x3ca11312	0.019662414
108	0x3d8277d3	0.06370511
109	0xbd529515	-0.051411707
110	0xbd090080	-0.033447742
111	0x3c674da9	0.014117637
112	0xbd747c71	-0.05968899
113	0xbd19e031	-0.03756732
114	0x3bd64fdb	0.006540281
115	0x3d0b8dc0	0.03407073
116	0x3d113597	0.035451498
117	0x3c77ef33	0.015132713
118	0x3cc5f629	0.02416523
119	0x3d1c3938	0.038140506
120	0xbb57b97e	-0.0032916958
121	0x3d5d3ca8	0.054012924
122	0xbde44b83	-0.11147215
123	0x3ca25abb	0.019818654
124	0xbbd9df66	-0.0066489456
125	0xbc9e6e8c	-0.019339822
126	0x3d6b796e	0.05748885
127	0x3cb34e66	0.02188797
128	0xbc395713	-0.011312264
129	0xbd079aea	-0.033106722
130	0xbd94eaee	-0.07271372
131	0x3cc0184c	0.023449086
132	0xbd7e882b	-0.06214158
133	0x3d822b07	0.06355863
134	0x3d2af37d	0.041736115
135	0x3b6cf85b	0.0036158774
136	0xbddbb66b	-0.10728153
137	0x3c0b0568	0.008485176
138	0xbc2868e3	-0.010278913
139	0xbcbc8751	-0.023013743
140	0xbd0993bd	-0.03358816
141	0x3d203a4a	0.03911809
142	0x3cec6180	0.028855085
143	0x3d86eee6	0.06588535
144	0xbd060a11	-0.032724444
145	0xbca5ca25	-0.020237992
146	0x3cae266c	0.021258555
147	0x3cf052ea	0.029336412
148	0xbc150372	-0.00909506
149	0xbd0b7b35	-0.034053046
150	0x3ce63ebc	0.028106086
151	0x3cc81865	0.024425695
152	0xbc83000a	-0.01599123
153	0x3d2b860a	0.041875876
154	0x3d497366	0.04918232
155	0xbce4a496	-0.027910512
156	0xbccbc93a	-0.024876226
157	0x3c7b4ad8	0.015337668
158	0x3c90e876	0.017688971
159	0xbd372ee5	-0.044722456
160	0xbb26021f	-0.0025330854
161	0x3d2257ea	0.039634623
162	0x3d62624e	0.055269532
163	0xba9e3c9b	-0.0012072505
164	0x3c9609d8	0.01831524
165	0xbb1b8fa2	-0.0023736735
166	0xbdc6888b	-0.09694012
167	0xb8548e42	-5.0677227e-05
168	0xbcc4a9cb	-0.024006745
169	0x3c79ddf0	0.015250668
170	0xbbe70360	-0.007049963
171	0x3d83e8f9	0.064409204
172	0x3c5d972a	0.01352481
173	0xbd7ad155	-0.06123479
174	0x3cdb836d	0.026796067
175	0x3d24f17c	0.04026936
176	0xbccb80d9	-0.024841713
177	0xbc2bb28d	-0.010479582
178	0x3cf58a0b	0.02997305
179	0xbd013a76	-0.031549893
180	0x3c8ff5d5	0.017573277
181	0x3bd54b08	0.0065091886
182	0x3ce953a7	0.028482271
183	0x3d3405ac	0.04395072
184	0xbc821600	-0.015879631
185	0xbc388af2	-0.011263596
186	0x3b8b35ce	0.0042483574
187	0xbb6fa6fa	-0.0036568032
188	0x3d469b3e	0.048487894
189	0x3d4823f9	0.04886243
190	0xbc62493b	-0.013811405
191	0x3c9fbb9f	0.019498644
192	0x3c3e86fb	0.011628862
193	0xbd05daab	-0.03267924
194	0x3c936a9e	0.017995175
195	0x3d28d62b	0.04121987
196	0x3c4086b9	0.01175087
197	0xbca1ad23	-0.019735878
198	0x3d3615fd	0.044454563
199	0x3d3cf725	0.046134133
200	0xbb56060d	-0.0032657415
201	0xbcfd8769	-0.030948358
202	0xbd4ab1d0	-0.04948598
203	0xbd5f65d4	-0.05454047
204	0xba9e9f13	-0.0012101851
205	0x3b89e2c7	0.004207942
206	0xbb9ad918	-0.0047255866
207	0x3d39026a	0.045168318
208	0x3b2ab430	0.0026047342
209	0x3d5e30e4	0.054245844
210	0x3cfab0ed	0.030601943
211	0x3d29235e	0.041293494
212	0xbd32dcdb	-0.043667655
213	0xbdd7c84f	-0.10536253
214	0x3d4b1b06	0.04958632
215	0xbc74d492	-0.014943259
216	0x3c8a06e7	0.016848994
217	0xbce98e3b	-0.028510204
218	0xbce549f0	-0.027989358
219	0x3b46f4af	0.0030358245
220	0x3d2eec43	0.042705785
221	0x3ceaf058	0.028679058
222	0x3d0aaf6b	0.033858698
223	0xbd73d4d8	-0.059529155
224	0xbb854ea8	-0.0040682144
225	0x3c644c1a	0.01393416
226	0xbd95b525	-0.07309941
227	0xbd92d52a	-0.07169564
228	0xbc655659	-0.013997638
229	0x3db16bef	0.08663165
230	0x3c9542ef	0.018220393
231	0xbd3aa395	-0.04556616
232	0x3dab07aa	0.08351071
233	0xbbebc5c3	-0.007195206
234	0x3d9e9d86	0.07744889
235	0xbb9bde6c	-0.0047567394
236	0xbd4690e4	-0.048478022
237	0xbd6decee	-0.058087282
238	0xbd843d8d	-0.064570524
239	0x3aae4565	0.0013295828
240	0x3d18cb0b	0.037303012
241	0x3d70d57e	0.058797352
242	0x3c10ed74	0.008845676
243	0xbc305222	-0.0107617695
244	0xbd8d4432	-0.06897773
245	0xbc3a843d	-0.011384067
246	0x3a6a86af	0.0008946461
247	0xbcd51493	-0.026010787
248	0xbb7a5c2e	-0.0038201916
249	0xbccff71b	-0.025386384
250	0xbbd00279	-0.006347951
251	0x3aec4a17	0.0018027452
252	0x3ccf612a	0.025314886
253	0xbdb39325	-0.087683
254	0x3d0c28e5	0.034218688
255	0xbd0b6dc7	-0.03404024

network.3.bias f4 [256]
0	0xbb3b3c4b	-0.0028569873
1	0x3d1ac06b	0.03778116
2	0x3d2c8dae	0.042127304
3	0x3ca077bb	0.019588342
4	0x3d159bff	0.036525723
5	0x3cff0bfe	0.031133648
6	0x3ca8974e	0.02057996
7	0x3b226e39	0.0024784936
8	0xbae7bc70	-0.001768006
9	0x3d1abdac	0.03777854
10	0x3d2a50c7	0.04158094
11	0x3c85dd58	0.016340896
12	0x3c6ad574	0.014333118
13	0xbd2cc2fb	-0.042178135
14	0xbd5f1eec	-0.05447285
15	0xbd44a0e8	-0.048005015
16	0x3cd3ba5f	0.025845705
17	0xba752e6e	-0.0009352927
18	0x3db682cd	0.08911667
19	0x3d0690ac	0.032852814
20	0xbbeb4a50	-0.0071804896
21	0xbd631d3f	-0.055447813
22	0x3d9b2a03	0.075763725
23	0x3c4fb431	0.012677238
24	0x3d86762d	0.06565509
25	0xbd9787f1	-0.07398976
26	0xbbc93b3c	-0.0061410945
27	0xbd734366	-0.059390448
28	0x3b90e0d0	0.004421331
29	0x3d366ad4	0.044535473
30	0x3c6d9ca1	0.014502675
31	0x3ca0057a	0.019533861
32	0x3d6c373f	0.057669874
33	0x3d37f5da	0.044912197
34	0x3cb9e5f0	0.02269265
35	0x3cb3e667	0.02196045
36	0x3cc3ae48	0.023886815
37	0x3d0c0508	0.034184486
38	0x3d36ba44	0.04461123
39	0xbd415dcf	-0.047208603
40	0x3d4e4b35	0.05036469
41	0xbc5a80d4	-0.013336379
42	0x3c8c9c8a	0.017164487
43	0x3da6808e	0.081299886
44	0x3c8f74c2	0.01751173
45	0xbbcd72f1	-0.0062698056
46	0xbd5c1b8c	-0.05373721
47	0xbd1bf1b7	-0.038072314
48	0x3c0d573f	0.008626758
49	0x3c5b5ef1	0.013389335
50	0x3d63f1df	0.055650588
51	0x3c506aef	0.012720807
52	0xbd0db258	-0.03459391
53	0x3d8ba712	0.068189755
54	0xba5e5869	-0.0008481802
55	0x3ba03bc4	0.004889937
56	0xbc99948c	-0.01874759
57	0x3c60d5b7	0.013722829
58	0x3cba297e	0.022724863
59	0xbcfdaf41	-0.030967357
60	0x3c5544e5	0.013016914
61	0x3cfd0442	0.03088582
62	0x3d7e86da	0.062140323
63	0x3d30b88b	0.043144744
64	0xbd7966c0	-0.060889006
65	0x3cbf0747	0.0233189
66	0xbd5d416c	-0.05401747
67	0x3cc9f973	0.02465508
68	0x3d3a4937	0.04547998
69	0x3d2094da	0.039204456
70	0x3d53af70	0.051680982
71	0x3c8664a8	0.016405419
72	0xbd0ef4bd	-0.03490137
73	0xbcd0ac49	-0.025472777
74	0x39fd451c	0.0004830741
75	0xbd625a63	-0.05526198
76	0xbcb58119	-0.022156285
77	0xbd0b86ea	-0.03406421
78	0xbb53aec5	-0.0032300216
79	0x3d6c21d5	0.057649452
80	0xbbd4a76d	-0.0064896853
81	0x3d929afb	0.071584664
82	0xbd1832e3	-0.037157904
83	0xbcc12368	-0.023576453
84	0x3b971a3f	0.004611283
85	0xbd7f4618	-0.062322706
86	0xbd2b0910	-0.04175669
87	0x3bf88ef0	0.007585399
88	0xbcf2d6e8	-0.02964349
89	0x3c66af5a	0.014079893
90	0xbc2d52e1	-0.010578842
91	0x3b84ff84	0.00405878
92	0xbce72d86	-0.02821995
93	0x3be25cb6	0.0069080247
94	0xbb58f473	-0.0033104687
95	0xbc30d9b1	-0.010794089
96	0x3d32b8e5	0.04363336
97	0x3cf6a23a	0.030106653
98	0x3cb3b936	0.021938901
99	0xbc2bc47e	-0.010483859
100	0xbca8f5d8	-0.02062504
101	0x3c5b6537	0.013390831
102	0x3cc5167a	0.02405857
103	0x3d319eff	0.04336452
104	0x3d421566	0.04738369
105	0x3ce4c120	0.02792412
106	0x3d62cfd6	0.05537399
107	0x3d75f078	0.060043782
108	0x3d06fccf	0.03295594
109	0xbcd194a2	-0.025583569
110	0x3bfc47af	0.007698975
111	0x3c55ea48	0.013056345
112	0x3d991696	0.07475011
113	0xbba23562	-0.0049502114
114	0x3d17045b	0.036869388
115	0xbd12d326	-0.035845898
116	0x3cc883cc	0.024476908
117	0xbc4421cd	-0.011970949
118	0x3d1afe36	0.03784009
119	0xbd796068	-0.060882956
120	0xbc405908	-0.011739977
121	0x3d123d53	0.035703015
122	0x3d6c9a8f	0.057764586
123	0xbcae8bbf	-0.02130687
124	0x3c34ab00	0.011027098
125	0xbc00dacf	-0.007864668
126	0x3d77636d	0.060397554
127	0x3d82edc1	0.06393004
128	0x3d4098c2	0.04702068
129	0xbc1bb1cf	-0.009502842
130	0xbd1adca3	-0.03780807
131	0xbd6633bd	-0.056201685
132	0xbd2d2e81	-0.042280678
133	0xbd6bddb7	-0.05758449
134	0x3da24a22	0.07924296
135	0x3dce05c4	0.100596935
136	0xbc38c4ba	-0.011277372
137	0xbce34bf9	-0.027746188
138	0xba7f1de6	-0.0009731933
139	0xbd756a71	-0.059915964
140	0x3d555b81	0.052089218
141	0x3d8c0c35	0.06838266
142	0xbd3013d1	-0.04298765
143	0x3cf1fa64	0.02953834
144	0x3ca547f0	0.020175904
145	0xbc972b59	-0.018453287
146	0x3d456d2f	0.04819983
147	0x3d910062	0.07080151
148	0xbd4e8bd1	-0.050426308
149	0x3d3ce3f6	0.046115838
150	0x3cb6a1eb	0.022294005
151	0xbd08f7ed	-0.033439565
152	0x3cab7111	0.020927938
153	0xbd1f5124	-0.03889574
154	0xbc82fd29	-0.015989857
155	0xbd7e2b2b	-0.062052887
156	0xbbe49273	-0.006975466
157	0x3c86b7b9	0.016445028
158	0x3c541f61	0.012946934
159	0xbdb299ed	-0.08720765
160	0x3d14cea6	0.036329888
161	0x3ca81694	0.020518579
162	0xbc3e2c94	-0.011607308
163	0x3cac4558	0.02102916
164	0x3c027e04	0.007964615
165	0x3d5cea1e	0.05393421
166	0x3d9405f1	0.07227696
167	0xbcbaa030	-0.022781461
168	0xbd37106d	-0.0446934
169	0xbd545c3d	-0.051845778
170	0xbc9eb1e9	-0.019371944
171	0x3d053fe5	0.032531638
172	0x3dd39a72	0.103321925
173	0xbd6b992f	-0.057519134
174	0x3d3d52b3	0.046221446
175	0xbc969f72	-0.018386576
176	0xbc12c5d5	-0.0089583
177	0xbcab665f	-0.020922838
178	0xbcd7c0ba	-0.026337016
179	0xbd2dc0a8	-0.04242006
180	0xbcf6b577	-0.030115826
181	0xbc9cdcd5	-0.01914827
182	0x3bc83616	0.006109963
183	0xbcb68374	-0.022279479
184	0xbc4a7060	-0.012355894
185	0x3d1dedf1	0.038556997
186	0x3cab3f7d	0.020904297
187	0x3d8281c5	0.06372408
188	0x3b55699c	0.0032564169
189	0x3ca9d50e	0.020731475
190	0xbda95ef0	-0.08270061
191	0x3d709462	0.05873526
192	0x3ca9fcf3	0.020750498
193	0xbcf3bccc	-0.029753111
194	0x3d17a96c	0.037026808
195	0xbd0191c4	-0.031633154
196	0x3d0d8b91	0.03455693
197	0xbd3b9156	-0.0457929
198	0xbcac37fd	-0.021022791
199	0x3cc4acb2	0.024008129
200	0x3c8a5e9c	0.016890816
201	0xbcac7825	-0.021053383
202	0xbce85ec1	-0.028365495
203	0x3d623b9b	0.055232625
204	0x3d19473f	0.03742146
205	0xbccb0b00	-0.024785519
206	0xbd4b7a04	-0.04967691
207	0x3d1861c3	0.037202608
208	0x3cb8738d	0.022516036
209	0x3d60817f	0.054810997
210	0xbc5d3b8c	-0.013502967
211	0xbc705cea	-0.01467059
212	0xbd422bac	-0.04740493
213	0x3c42272b	0.011850159
214	0x3d17cef4	0.0370626
215	0x3c395860	0.011312574
216	0xbc747ebd	-0.014922795
217	0x3d24ab7d	0.040202606
218	0x3d9b9ff7	0.0759887
219	0x3c4c8dfc	0.012485024
220	0x3c10ce00	0.008838177
221	0x3d894e86	0.0670443
222	0x3dba90d9	0.09109659
223	0x3d77bb4f	0.060481366
224	0x3d4aa9dc	0.049478397
225	0x3c2114dd	0.009831634
226	0xbd817d3f	-0.06322717
227	0xbcc9ece5	-0.024649093
228	0xbc185d97	-0.009299657
229	0xbced7525	-0.028986523
230	0x3d80a140	0.06280756
231	0xbcf1f104	-0.02953387
232	0x3af1d9a0	0.0018451698
233	0x3dc36859	0.09541387
234	0xbd25c5d2	-0.04047186
235	0xbd8b74ab	-0.06809362
236	0x3d9631ba	0.07333703
237	0x3da3da05	0.08000568
238	0x3c39796b	0.011320452
239	0x3d6450d9	0.055741165
240	0xbd25faa4	-0.040522233
241	0x3dccc9c6	0.09999423
242	0xbccf96d1	-0.02534047
243	0x3d019ca1	0.031643514
244	0xbd299891	-0.041405264
245	0x3d2f485a	0.04279361
246	0x3cc6fb48	0.024289742
247	0xbd223a9e	-0.039606683
248	0xbba1d6eb	-0.0049389503
249	0xbd98266e	-0.07429205
250	0x3dad4490	0.08460343
251	0x3dd332bd	0.10312412
252	0x3d0dbd41	0.034604315
253	0xbd064f79	-0.032790635
254	0x3c145be1	0.009055109
255	0xbd6c71b3	-0.05772562

network.6.weight f4 [128, 256]
0	0x3d954505	0.07288555
1	0x3d1ad2a1	0.037798528
2	0xbdd28e0a	-0.10280998
3	0xbbdd913f	-0.0067616994
4	0x3d6732ad	0.056444813
5	0xbd80fad7	-0.06297844
6	0x3d35d661	0.0443939
7	0xbd9fdc70	-0.07805717
8	0x3cd70f3b	0.02625238
9	0x3cb933fd	0.022607798
10	0x3c757388	0.014981158
11	0x3d30da6a	0.043177046
12	0x3d3eb539	0.046559546
13	0xbd1763b7	-0.03696033
14	0xbdce26f1	-0.10066021
15	0x3db67927	0.08909827
16	0x3e0070aa	0.12542978
17	0x3ca79902	0.020458702
18	0xbd8b47b5	-0.068007864
19	0xbd740778	-0.059577435
20	0xbd8b016a	-0.06787379
21	0xbdab1841	-0.083542354
22	0xbcc76993	-0.024342334
23	0x3d375733	0.044760894
24	0x3dd06d41	0.101770885
25	0x3cb8703a	0.022514451
26	0x3d2f04e9	0.042729292
27	0xbd44d827	-0.0480577
28	0xbd7d0594	-0.061772898
29	0x3ce85644	0.028361447
30	0x3d7c763a	0.061636187
31	0xbcbac728	-0.022800043
32	0x3d816895	0.063187756
33	0xbbd7d40b	-0.006586557
34	0xbd47bf57	-0.04876646
35	0xbcec9f3c	-0.028884523
36	0x3dc0f736	0.09422152
37	0x3d1adc75	0.0378079
38	0xbd89ad85	-0.06722549
39	0xbdf5340d	-0.119728185
40	0xbe464ee4	-0.19366032
41	0xbb7093dd	-0.0036709227
42	0x3d4a653e	0.04941296
43	0xbdff8f0d	-0.12478457
44	0x3bde93c5	0.006792518
45	0xbb84bf65	-0.0040511363
46	0xbde68fb8	-0.11257881
47	0x3dd4f305	0.10397915
48	0xb8fa30a1	-0.00011929987
49	0x3dac22e3	0.084050916
50	0xbd3033c5	-0.04301812
51	0x3d52b57c	0.05144261
52	0x3cd81eab	0.026381811
53	0x3add4885	0.0016882574
54	0x3d5c9589	0.053853545
55	0xbd6b9193	-0.057511877
56	0xbc156d4c	-0.009120297
57	0x3e132afd	0.14371867
58	0xbd578e10	-0.052625716
59	0x3e6f0790	0.23342729
60	0x3e05462c	0.1301505
61	0xbd7012e2	-0.058611758
62	0xbddb14df	-0.1069734
63	0xbcac7886	-0.021053564
64	0x3d9d2437	0.07672923
65	0xbda02c30	-0.07820928
66	0x3cf3da2c	0.029767118
67	0x3c8b849a	0.017031003
68	0xbd477c49	-0.048702512
69	0x3e1542e4	0.14576298
70	0xbd9a6b7a	-0.07540031
71	0xbd980be8	-0.07424146
72	0x3dd5e15c	0.104433745
73	0xbc8a73c7	-0.01690091
74	0x3d15f7f5	0.036613423
75	0x3d02b205	0.031908054
76	0xbd02ffe5	-0.03198232
77	0x3dbfeb8b	0.09371098
78	0x3d2762c1	0.040865663
79	0x3dc36fb6	0.095427915
80	0x3b8fdd8c	0.004390424
81	0x3c06dbd6	0.008231124
82	0xbd1761be	-0.03695845
83	0x3da7a1ab	0.081851326
84	0xbd01466c	-0.0315613
85	0xbc9cbfae	-0.019134369
86	0x3db79fcb	0.08966025
87	0xbd6d4cbb	-0.057934504
88	0x3cc76614	0.024340667
89	0xbca50b75	-0.020147065
90	0x3e0b2039	0.1358651
91	0xbd88a39b	-0.0667183
92	0x3dd13354	0.10214868
93	0x3ba5143a	0.0050378116
94	0x3c1efdc1	0.009704054
95	0x3dee944e	0.116493806
96	0x3cf5d19f	0.030007182
97	0x3d817e2e	0.06322895
98	0x3c810c49	0.015752928
99	0xbd15b03c	-0.036545023
100	0xbd3eff4f	-0.0466302
101	0x3c8e0c76	0.017339926
102	0x3e0330d8	0.12811601
103	0x3d7ccb9a	0.061717607
104	0xbccc7e48	-0.02496256
105	0x3def86e3	0.116956495
106	0x3c9a4b55	0.01883475
107	0xbc47661c	-0.012170341
108	0x3c39dec8	0.011344619
109	0x3de39ed2	0.11114277
110	0x3cfad606	0.030619632
111	0xbd7453da	-0.05965028
112	0xbd8919ca	-0.06694372
113	0xbd461699	-0.048361395
114	0xbd7e49ab	-0.062081974
115	0x3cc9d26e	0.024636474
116	0xbdf85b34	-0.121267706
117	0xbd19670b	-0.037451785
118	0xbd8c68d5	-0.068559326
119	0xbd6fb233	-0.058519553
120	0x3e27b918	0.16379201
121	0x3cfa6626	0.030566286
122	0xbd66947e	-0.056293957
123	0x3d876543	0.06611111
124	0xbd9ede49	-0.07757241
125	0xbd377735	-0.04479142
126	0xbd0c24b7	-0.0342147
127	0x3dc40b29	0.09572441
128	0x3e1a46cc	0.1506607
129	0xbd5cad08	-0.053875953
130	0xbc569945	-0.013098066
131	0xbc17104c	-0.009220194
132	0x3d2e2322	0.042513974
133	0xbc9e1ad0	-0.019299895
134	0x3ccc8c45	0.02496923
135	0x3d7421e4	0.059602633
136	0xbd147999	-0.036248777
137	0xbcba21c2	-0.022721175
138	0x3cbafbff	0.02282524
139	0x39a5dd6a	0.0003163622
140	0x3bf03438	0.0073304437
141	0xbdccd9b0	-0.10002458
142	0x3d3de478	0.046360463
143	0x3d7649e0	0.060129046
144	0xbbccaea9	-0.006246407
145	0xbd7ea1c4	-0.06216599
146	0x3d97f916	0.07420556
147	0x3d027c53	0.031856846
148	0x3d3d9a3b	0.046289664
149	0xbd62783f	-0.055290457
150	0xbde1b6bd	-0.11021183
151	0xbd8a0ffe	-0.067413315
152	0xbd486ff2	-0.048934884
153	0x3c91919e	0.017769631
154	0xbc993869	-0.018703656
155	0x3e0c744b	0.13716237
156	0xbcca7046	-0.02471174
157	0x3c67ad55	0.014140447
158	0xbdf01f1e	-0.11724685
159	0x3d934f44	0.07192853
160	0x3ce1e010	0.027572662
161	0x3d92a372	0.07160081
162	0xbb4daeb4	-0.0031384649
163	0x3bb416dc	0.005495889
164	0xbc21e07b	-0.0098801805
165	0xbd8f2822	-0.069900766
166	0xbdf50b13	-0.11965003
167	0xbda36324	-0.07977894
168	0x3d9a7d0e	0.075433835
169	0x3dce6ab2	0.10078944
170	0xbd6769d5	-0.056497414
171	0x3bd19dab	0.0063969693
172	0xbd2f2921	-0.042763833
173	0x3defc23f	0.117069714
174	0x3dc870b2	0.0978712
175	0x3cf44a77	0.029820664
176	0x3d2e8e67	0.042616274
177	0x3ce4a1f5	0.027909258
178	0x3cc079ca	0.023495574
179	0xbc1c3c62	-0.009535881
180	0x3d7348eb	0.059395712
181	0x3d81d7ee	0.063400134
182	0xbdb3e76f	-0.08784377
183	0xbd8de2a4	-0.06927994
184	0x3dead6a3	0.1146672
185	0x3ca7e110	0.02049306
186	0x3dabcd4b	0.08388766
187	0xbd92bf22	-0.07165362
188	0xbe03d578	-0.128744
189	0x3de5b32e	0.112158164
190	0x3e20a9d8	0.1568979
191	0xbe0782ed	-0.13233538
192	0xbd11eb2b	-0.035624664
193	0xbde9a1fa	-0.11407848
194	0x3da106fd	0.07862661
195	0x3d7553c0	0.059894323
196	0x3d02d26c	0.031938955
197	0xbd4a21f8	-0.0493488
198	0xbd879d8b	-0.06621846
199	0xbd54528a	-0.051836528
200	0x3de2024f	0.110355966
201	0x3c9184ac	0.017763458
202	0x3d7abb55	0.06121381
203	0xbc80341e	-0.015649851
204	0x3d32d7d7	0.043662872
205	0x3d48f5eb	0.04906265
206	0xbd537b4b	-0.051631253
207	0xbd816c31	-0.06319464
208	0x3dad17df	0.08451819
209	0x3e194b87	0.14970218
210	0xbde72f3e	-0.112883076
211	0xbda9942d	-0.082802154
212	0xbd7d8c45	-0.06190135
213	0x3d49177e	0.04909467
214	0xbdc2d44b	-0.09513148
215	0xbd15e7fd	-0.036598194
216	0x3c9439bc	0.018093936
217	0x3ce78ff3	0.028266883
218	0xbd83be74	-0.064328104
219	0x3d215ee6	0.039397143
220	0xbcedf08e	-0.02904537
221	0xbc85907f	-0.016304253
222	0xbdd1cb85	-0.102438964
223	0x3e050a61	0.1299224
224	0x3cbd34db	0.023096493
225	0x3e28b1ad	0.16474028
226	0xbd6bc87b	-0.05756424
227	0xbd329191	-0.043595854
228	0x3d3c97cf	0.046043213
229	0xbd6e22b2	-0.058138557
230	0xbd9fdf4d	-0.07806263
231	0xbd5a0519	-0.053227518
232	0xbb80946a	-0.0039239423
233	0x3d77c869	0.06049386
234	0xbcb02454	-0.021501698
235	0xbd8d2d5f	-0.068934195
236	0x3ce44250	0.027863652
237	0xbddb62ba	-0.1071219
238	0x3cb843af	0.022493212
239	0xbdb619d2	-0.088916436
240	0x3e16ec54	0.1473859
241	0x3d1a8707	0.03772643
242	0x3d473235	0.048631866
243	0x3ca4bf33	0.020110702
244	0x3d8ec87a	0.069718316
245	0xbcd3ea6b	-0.025868615
246	0xbbdde1b1	-0.0067712893
247	0x3d5cdb23	0.053919923
248	0xbc918994	-0.017765798
249	0x3c7e68fd	0.015527961
250	0xbc02a487	-0.007973797
251	0x3d9be634	0.07612267
252	0xbc41f0f7	-0.011837236
253	0x3d203a5f	0.039118167
254	0xbb824c89	-0.003976409
255	0x3b66cd9e	0.0035217772

network.6.bias f4 [128]
0	0xbca2f1fc	-0.019890778
1	0x3de0968f	0.10966217
2	0xbd21bf8a	-0.039489307
3	0x3d55457f	0.05206823
4	0x3cfa066d	0.030520642
5	0x3db4b2bf	0.088231556
6	0xbc979170	-0.018501967
7	0x3ca63287	0.020287765
8	0x3d2c5c6a	0.04208032
9	0x3c61ee72	0.01378976
10	0x3d656492	0.056004114
11	0x3d98c56b	0.074595295
12	0x3da6ce32	0.081447974
13	0x3dfbaaf6	0.122884676
14	0x3d655e52	0.055998154
15	0xbcfab2ea	-0.030602891
16	0x3c55dc25	0.013052975
17	0xbd3d6b07	-0.046244647
18	0x3d8a4d43	0.06753018
19	0x3daa7af3	0.08324232
20	0x3db9f6c5	0.09080271
21	0x3c8e3266	0.017358016
22	0xb8a051e8	-7.644651e-05
23	0x3e0d1df0	0.13780951
24	0xbc19cfd7	-0.009387932
25	0x3d8b8c4e	0.0681387
26	0x3e367218	0.17816961
27	0xbcb26097	-0.021774573
28	0xbc8ec86d	-0.017429555
29	0x3d80a88a	0.06282146
30	0x3d44da17	0.04805955
31	0xbc07f58a	-0.008298287
32	0x3cf348c5	0.029697785
33	0x3d2cc66c	0.042181417
34	0x3dfc999b	0.123339854
35	0xbbf865b9	-0.0075804857
36	0x3da6c2d1	0.08142627
37	0x3dc3396a	0.09532435
38	0x3dd0d4a4	0.10196808
39	0x3bcac423	0.006187932
40	0x3d1285f8	0.035772294
41	0x3bfe96f6	0.007769461
42	0x3d3a4d24	0.045483723
43	0x3d888c7d	0.06667421
44	0x3d69cdd6	0.057081066
45	0x3d515cf1	0.051114026
46	0xbd125308	-0.035723716
47	0x3a73ec9e	0.0009304973
48	0xbd4215e4	-0.047384158
49	0x3c7abcd5	0.01530381
50	0x3dea9bb0	0.11455476
51	0xbbd08b98	-0.006364297
52	0xbd175a3f	-0.0369513
53	0xbb2624d5	-0.0025351543
54	0xbc6a49dc	-0.014299836
55	0xbd19595a	-0.037438728
56	0x3d6cf0e1	0.057846908
57	0x3db58c88	0.08864695
58	0x3ba32eaf	0.0049799304
59	0x3ddd3d4a	0.108027056
60	0xbd51798b	-0.051141303
61	0x3dace5a6	0.084422395
62	0xbc00e7b5	-0.007867743
63	0x3d3f40c9	0.046692643
64	0x3d24ab1b	0.04020224
65	0xbbb08b1c	-0.005387677
66	0x3cd53a07	0.026028646
67	0x3c5fc55f	0.013657897
68	0x3d6d197d	0.057885636
69	0xbd302f1c	-0.043013677
70	0x3a3ae080	0.000712879
71	0xbca7ca14	-0.0204821
72	0x3d8645a6	0.06556253
73	0x3b67fe19	0.0035399257
74	0x3df0880c	0.11744699
75	0x3c9a62f4	0.018846013
76	0x3d6e5557	0.058186855
77	0x3d642a23	0.055704247
78	0x3c8bf2aa	0.017083485
79	0x3d88d2b9	0.06680817
80	0xbc9fbc4f	-0.019498972
81	0x3da9456f	0.082651965
82	0x3ada328b	0.0016647143
83	0x3dd9cace	0.10634385
84	0xbcd95cb1	-0.026533457
85	0xbca6607a	-0.020309675
86	0xbb693bdb	-0.0035588655
87	0x3d3f6a3f	0.046732184
88	0x3cbb5789	0.022868888
89	0x3d508237	0.050905433
90	0xbcfc68b2	-0.030811641
91	0x3cffb5c6	0.031214606
92	0xbd827b8d	-0.06371222
93	0xbc25bc65	-0.010115718
94	0xbd075dbf	-0.033048388
95	0xbc99c99e	-0.018772896
96	0x3daf96ac	0.0857366
97	0x3da730cb	0.081636034
98	0x3c5f1f77	0.013618342
99	0x3aebda22	0.0017994086
100	0x3c960c5b	0.018316438
101	0x3e049e69	0.12951054
102	0x3d670645	0.056402463
103	0x3db93f76	0.09045307
104	0x3de930c0	0.113862514
105	0x3c3bb596	0.011456868
106	0x3ca9a1ce	0.020707037
107	0xbc7b1eba	-0.01532715
108	0xbd552ec1	-0.05204654
109	0x3c910cab	0.017706236
110	0x3c706d86	0.01467455
111	0xbc87ccf0	-0.016577214
112	0x3d6859a5	0.056726117
113	0x3d748cfb	0.059704762
114	0xbb7d1f48	-0.0038623381
115	0x3d431911	0.047631327
116	0x3d826137	0.063661985
117	0x3dd8ae01	0.105800636
118	0x3c4acc44	0.012377802
119	0x3c9f7735	0.019466022
120	0x3d8cd44a	0.068764284
121	0x3ce37034	0.027763464
122	0x3d4cc9e8	0.04999724
123	0xbce885cd	-0.028384114
124	0x3d39f378	0.045398206
125	0x3d7dca06	0.061960243
126	0x3cf16210	0.029465705
127	0x3dc8ae7a	0.09798904

network.9.weight f4 [21, 128]
0	0x3dae0502	0.08497049
1	0x3d030788	0.031989604
2	0xbe2feffb	-0.17181389
3	0xbbac1c39	-0.005252388
4	0xbd84c974	-0.06483737
5	0xbdc51d1a	-0.09624691
6	0xbe25a846	-0.16177472
7	0xbdafbe0d	-0.08581171
8	0x3dc29867	0.09501725
9	0x3de0d185	0.10977463
10	0x3d328b01	0.043589596
11	0xbc33a8bf	-0.010965525
12	0x3ccdd443	0.025125628
13	0xbd8bf7e9	-0.068343945
14	0xbdbc703b	-0.09201094
15	0xbe431bbb	-0.19053547
16	0x3da4510f	0.08023273
17	0xbd738857	-0.059456196
18	0xbe366ee1	-0.17815734
19	0x3d40d0b6	0.047074042
20	0x3c809a94	0.015698709
21	0xbb882b1b	-0.004155529
22	0x3dd7290c	0.10505876
23	0x3afff8a9	0.0019529063
24	0xbe55d18e	-0.2088072
25	0xbeaa27c7	-0.33233473
26	0xbde847a6	-0.11341791
27	0x3d43ced5	0.047804672
28	0x3db7ba47	0.089710765
29	0x3dbd040d	0.09229288
30	0x3d48269a	0.04886494
31	0xbe8516d3	-0.25993976
32	0xbd2170c9	-0.0394142
33	0xbe6505b5	-0.22365458
34	0xbd246aca	-0.040140904
35	0x3daa79a1	0.0832398
36	0x3d9c17d1	0.0762173
37	0xbb8113aa	-0.0039391117
38	0xbdada7f3	-0.084792994
39	0x3ba9b0ba	0.005178538
40	0xbd360522	-0.04443849
41	0x3df04b6e	0.11733137
42	0xbe4fe7a3	-0.20303206
43	0x3bc9a07f	0.006153166
44	0xbe71595c	-0.23569244
45	0x3dc9ea35	0.098591246
46	0x3dcf23b5	0.101142325
47	0x3cc97b68	0.024594977
48	0x3d55b449	0.052173886
49	0xbc5e0c29	-0.013552704
50	0xbdc90abe	-0.09816502
51	0xbe44424a	-0.19165912
52	0xbbbaa836	-0.005696322
53	0xbe5726e6	-0.21010932
54	0x3d979902	0.07402231
55	0x3d9d41f1	0.07678593
56	0x3cecd26b	0.028908929
57	0x3d82366a	0.06358035
58	0xbe4315a2	-0.19051221
59	0xbe03af03	-0.1285973
60	0xbd134726	-0.035956524
61	0xbdcb4ea9	-0.099271126
62	0xbe48efa0	-0.1962266
63	0xbda5ae50	-0.08089888
64	0x3dbd7fa9	0.09252865
65	0x3e653b30	0.2238586
66	0xbe494b47	-0.19657622
67	0x3d718ef5	0.058974225
68	0xbdc3d566	-0.09562187
69	0x3da25887	0.079270415
70	0x3e0d4cdb	0.1379885
71	0xbc9e9948	-0.0193602
72	0xbe3794c2	-0.1792784
73	0x3d5c59e8	0.05379668
74	0x3d8a1ea8	0.067441285
75	0xbdbbfa89	-0.09178645
76	0x3d553364	0.052050963
77	0x3e51d0d7	0.20489822
78	0xbde2c11f	-0.11071991
79	0xbe767c06	-0.24070749
80	0xbd5de6aa	-0.054175057
81	0x3b662649	0.0035118035
82	0x3dac45d3	0.084117554
83	0x3d18e366	0.03732624
84	0xbd8453e3	-0.064613126
85	0x3cf7c479	0.030245053
86	0x3d7442ea	0.059634127
87	0x3d856237	0.065128736
88	0x3deea8de	0.116533026
89	0xbd8b66a7	-0.06806689
90	0xbe4a27d4	-0.19741756
91	0x3d0078cc	0.0313652
92	0x3c3a0e9e	0.011356024
93	0xbde62f34	-0.11239472
94	0xbe076535	-0.13222201
95	0x3df101e0	0.11767936
96	0x3d987e9b	0.07446023
97	0xbe476cb0	-0.19475055
98	0x3de1794d	0.110094644
99	0x3d86d678	0.065838754
100	0x3e01d9e3	0.12680773
101	0xbe49ea9a	-0.197184
102	0x3dbdb8bb	0.0926375
103	0x3d310192	0.04321439
104	0x3d7fb31c	0.06242667
105	0x3dddcc34	0.10829964
106	0xbd816299	-0.06317634
107	0xbe12f1b9	-0.14350022
108	0xbe3ee5e3	-0.18642382
109	0x3df268cb	0.11836394
110	0xbe1b8147	-0.15186034
111	0xbe14d4d6	-0.14534315
112	0x3d0d46a3	0.034491193
113	0x3ce85790	0.028362066
114	0x3d95a38b	0.07306584
115	0x3cdb52e5	0.026772926
116	0x3d1599fa	0.036523797
117	0xbe60a50c	-0.2193796
118	0xbde426d3	-0.11140218
119	0xbd4686d0	-0.04846841
120	0x3da51aaa	0.080617264
121	0xbd97d99d	-0.07414553
122	0x3d6dfd2f	0.058102783
123	0x3db234d6	0.08701484
124	0x3de42def	0.11141574
125	0x3d2510ec	0.04029934
126	0xbe3819f5	-0.17978652
127	0xbda40d3b	-0.08010336
128	0xbe697067	-0.22796784
129	0x3d9dcc3d	0.07704971
130	0x3db1884a	0.08668573
131	0x3dacc52e	0.084360465
132	0xbd20d1d8	-0.039262623
133	0xbe37aebb	-0.17937748
134	0xbd75a0cf	-0.059967812
135	0x3df14696	0.11781041
136	0x3da54686	0.08070092
137	0x3d7a978a	0.061179675
138	0xbe70d1d9	-0.2351755
139	0x3d8af8c8	0.067857325
140	0x3d1ef6f6	0.03880974
141	0x3e02a8c5	0.12759693
142	0x3da908a6	0.08253603
143	0x3e0e42a7	0.13892613
144	0x3df0fa25	0.11766461
145	0x3c853cd9	0.016264366
146	0x3b1de7d4	0.002409448
147	0x3d24e555	0.04025777
148	0x3dd3e74c	0.10346851
149	0x3d77f0a5	0.06053223
150	0xbe269692	-0.16268376
151	0x3d175748	0.036948472
152	0xbda4975c	-0.08036682
153	0xbdf357e7	-0.118820004
154	0x3dac2feb	0.08407577
155	0xbe241af2	-0.16025904
156	0xbe5fcc31	-0.21855237
157	0xbe5903b1	-0.21192814
158	0xbe43055b	-0.19045012
159	0xbda86657	-0.08222645
160	0x3d9553fd	0.0729141
161	0xbb47664e	-0.0030425969
162	0xbb809f67	-0.0039252522
163	0x3de17da2	0.11010291
164	0x3e07fe2e	0.13280556
165	0x3db2de15	0.08733765
166	0x3c519f81	0.012794376
167	0xbdf5e4e0	-0.12006545
168	0x3dcfd8a8	0.10148746
169	0x3dd3d1c4	0.10342744
170	0xbe21b65c	-0.15792221
171	0xbc503a6c	-0.012709241
172	0xbdbe23af	-0.0928415
173	0xbc4088c6	-0.011751359
174	0xbe1401a0	-0.14453745
175	0x3c94b363	0.018151945
176	0xbd1a704f	-0.037704762
177	0xbde82fc9	-0.11337239
178	0x3d80a430	0.06281316
179	0x3e1c6ede	0.15276667
180	0xbbe1b658	-0.006888192
181	0xbe2cb441	-0.16865636
182	0xbe498270	-0.19678664
183	0xbd78a5b8	-0.060704917
184	0x3de0584f	0.109543435
185	0xbe04524f	-0.12922023
186	0xbe2dd5dc	-0.16976112
187	0x3d7833ed	0.060596395
188	0xbd790c6d	-0.060802866
189	0x3cf1f67f	0.029536484
190	0xbde24363	-0.11048009
191	0x3de20b48	0.11037308
192	0x3e119c5c	0.14219803
193	0x3df54bf5	0.11977378
194	0xbe25d689	-0.1619512
195	0xbdde63a0	-0.10858846
196	0xbcb2a671	-0.021807881
197	0x3dbb8090	0.09155381
198	0xbdba9693	-0.09110751
199	0xbe2d3709	-0.16915525
200	0xbe3ba64b	-0.18325154
201	0xbc4be9fb	-0.012445922
202	0x3df6f312	0.12058081
203	0x3e1181a6	0.14209613
204	0xbd47c734	-0.04877396
205	0xbdce081c	-0.100601405
206	0xbe32d8f8	-0.1746558
207	0xbc9e603d	-0.019333
208	0x3d7c1bc2	0.06154991
209	0x3da82022	0.08209254
210	0xbe1f6d7c	-0.15569109
211	0xbe292233	-0.16516952
212	0x3ce25b9d	0.027631575
213	0x3e023ba6	0.12718067
214	0xbe309f13	-0.17248182
215	0x3e01f4e4	0.12691075
216	0xbdd95edc	-0.10613796
217	0xbd519410	-0.051166594
218	0xbdd39089	-0.10330302
219	0xbd816f12	-0.06320013
220	0xbdb667a1	-0.089064844
221	0x3decdecb	0.11565932
222	0xbeaff1ec	-0.3436426
223	0xbe202a55	-0.15641148
224	0x3d3ed949	0.046593938
225	0xbd5a4432	-0.053287692
226	0x3e1919d3	0.14951257
227	0xbdab0916	-0.083513424
228	0x3e19a1f5	0.15003188
229	0x3e1615a5	0.14656694
230	0x3ded529b	0.11588021
231	0x3d73ce87	0.05952313
232	0x3d05874a	0.032599725
233	0xbe78ad5f	-0.24284886
234	0xbd23f748	-0.040030748
235	0xbc1d318a	-0.009594331
236	0x3d92750a	0.0715123
237	0xbe112c49	-0.1417705
238	0x3dc4acd9	0.096032806
239	0x3c78378d	0.015149963
240	0xbb8b55af	-0.0042521576
241	0x3d84140b	0.064491354
242	0xbd67d2ef	-0.056597646
243	0xbe065dc8	-0.13121712
244	0xbe710641	-0.23537542
245	0x3d85a0f6	0.065248415
246	0xbd35b77c	-0.044364437
247	0xbe91084d	-0.28326645
248	0xbd9c8952	-0.07643379
249	0xbd1eed91	-0.03880078
250	0xbdb4ea91	-0.088338025
251	0xbd1df341	-0.038562063
252	0x3d0981e0	0.033571124
253	0xbc9c01cb	-0.019043824
254	0x3bd9a25b	0.0066416687
255	0x3e17bd0b	0.14818208

network.9.bias f4 [21]
0	0xbcd73326	-0.026269507
1	0xbca4690e	-0.020069625
2	0xbc31a181	-0.010841728
3	0x3d54b2ed	0.05192845
4	0x3db45c77	0.08806699
5	0x3c2e3c5e	0.01063451
6	0xbda6a792	-0.0813743
7	0xbdbb51b6	-0.091464445
8	0xbd426a25	-0.04746451
9	0xbc875033	-0.016517734
10	0x3c5ba98e	0.013407124
11	0xbcfcbc90	-0.030851632
12	0x3b1d1ea4	0.0023974562
13	0x3dd3a804	0.10334781
14	0x3d4d6b74	0.050151303
15	0x3b56f1b4	0.0032797875
16	0x3ba64719	0.0050743935
17	0xbd63036f	-0.055423196
18	0x3bef247a	0.0072980495
19	0x3d9c48a7	0.07631045
20	0xbd016127	-0.031586792
