models/NeuralNetwork-Ensemble_acc-62.57_loss-0.001619.pth (torch, 4995 bytes, 2 tensors)

classifier.1.weight f4 [21, 42]
0.116031095 0.011692489 0.07456357 -0.00729672 -0.048736345 -0.035440538 0.052003417 0.11065763
0.067294896 0.04639895 -0.15200181 0.009957196 0.025661739 -0.06016469 -0.031454064 -0.0742862
0.022786815 -0.013074699 -0.02973673 -0.13334864 -0.10967996 0.029576732 0.011702975 -0.09414592
-0.00801006 -0.21386285 0.03565352 0.012965293 -0.07642657 0.0011227578 0.075124815 0.03234641
0.011532106 0.07401747 -0.0032959909 0.013600611 -0.01785889 -0.17147359 -0.03522372 0.006354293
-0.14543115 0.074769214 -0.11506761 0.07977608 0.040461354 -0.094128884 0.027949462 0.066291116
-0.0023176004 -0.0303199 -0.049211636 -0.10594867 -0.17634526 -0.0034996113 -0.057157956 -0.028893214
-0.011282193 -0.077895895 -0.18344994 -0.04088302 0.003317872 -0.0015638245 0.008164266 -0.033812642
0.052440222 -0.085117266 -0.02741413 0.10073069 -0.083872296 -0.012879737 0.04553825 0.105557896
0.010464186 0.055896368 -0.11328512 -0.14305922 0.05406377 0.033831876 0.08693737 -0.025665144
-0.013132422 -0.11028193 0.057247996 -0.017003914 -0.02529107 0.012522222 0.09368432 0.035164695
0.019492289 0.0055987886 0.032298066 0.07868754 -0.032684337 0.019049885 -0.06722544 0.036631837
-0.082108036 -0.08415588 -0.051948942 0.025997464 -0.15723924 -0.08754648 -0.04629108 -0.1197201
-0.07120617 0.014635917 -0.061556168 0.037118737 -0.13293618 0.047583245 -0.0076118275 -0.048037186
0.00045438486 0.0056190626 -0.043890137 0.03750188 -0.009829162 -0.10346586 -0.14534841 0.05787147
-0.042855583 -0.0025992433 0.10689806 -0.037421282 0.1572746 0.071255445 -0.06128202 -0.0043796017
0.0041082855 0.02828508 -0.028020078 0.047917526 0.08924108 -0.0031026274 -0.0065637 -0.10316484
-0.16076536 0.018994233 0.018937023 -0.024095451 -0.00068175496 -0.026806006 -0.1472572 -0.06310903
-0.05751569 0.04091081 0.0016781766 -0.038470037 -0.063443646 -0.0049468707 0.15304242 0.014371019
-0.029283848 -0.011652131 0.049095906 0.017597973 0.024795517 0.11537704 -0.10025137 0.04334671
0.014610242 -0.017253231 0.0050015426 -0.15010802 0.0628694 -0.03810526 -0.022157263 -0.045871034
-0.15444887 -0.09335939 -0.02507887 0.008616264 -0.013169057 -0.07525221 0.016593812 0.060841236
-0.07451719 -0.040916085 -0.012001532 0.03110307 0.119373076 -0.059231292 -0.08158993 -0.07616193
0.036702562 0.06860925 -0.097524844 -0.034077615 0.052022155 -0.0080153635 -0.011804051 -0.037239965
0.017972853 0.021605136 -0.08331583 -0.12015274 0.050201662 -0.064956635 -0.053456884 -0.040913783
0.09111352 0.032840874 -0.019708483 -0.042205736 0.13568498 -0.016794223 -0.006442117 0.05298475
-0.11297477 -0.053613197 0.060304314 -0.01952185 0.04576233 0.03195754 0.08187015 0.14934306
-0.12697954 -0.09053736 0.061404224 0.08656863 -0.043083966 -0.10973041 -0.04985909 -0.015506532
-0.12496074 -0.100771084 0.034073777 -0.023668364 -0.0570569 -0.11700413 -0.09462176 -0.051843543
-0.03882141 -0.15291637 -0.13982259 -0.03488131 0.14340645 0.011364225 -0.02583907 0.008900491
0.03488968 0.027904725 0.011778003 0.051098693 -0.062450167 0.091729276 0.015218163 -0.016379703
-0.0032339955 0.014435337 -0.08771287 0.039443217 0.0031253786 -0.038729586 0.052960657 -0.03467799
00000000: b6a1 ed3d da91 3f3c c9b4 983d 5319 efbb
00000010: c39f 47bd 192a 11bd 8901 553d 78a0 e23d
00000020: e8d1 893d d30c 3e3d 5da6 1bbe 8223 233c
00000030: 9138 d23c 406f 76bd fad5 00bd 5d23 98bd
00000040: 6aab ba3c 4337 56bc 719a f3bc 8c8c 08be
00000050: e39f e0bd e74a f23c d6bd 3f3c 93cf c0bd
00000060: a03c 03bc ddfe 5abe 6d09 123d 616c 543c
00000070: 8985 9cbd 8029 933a 0adb 993d ab7d 043d
00000080: 29f1 3c3c 7996 973d 8d01 58bb 19d5 5e3c
00000090: cf4c 92bc c696 2fbe bf46 10bd ac37 d03b
000000a0: e7eb 14be 9a20 993d 91a8 ebbd a461 a33d
000000b0: ceba 253d a5c6 c0bd 45f6 e43c a3c3 873d
000000c0: e2e2 17bb 7061 f8bc 2492 49bd 9efb d8bd
000000d0: da93 34be bc59 65bb 761e 6abd 76b1 ecbc
000000e0: f2d8 38bc e287 9fbd 4dda 3bbe f474 27bd
000000f0: a870 593b 3ef9 ccba 6ac3 053c 207f 0abd
00000100: 8fcb 563d f651 aebd 9993 e0bc e44b ce3d
00000110: 3dc5 abbd 8805 53bc 5186 3a3d bd2e d83d
00000120: fa71 2b3c 97f3 643d 0702 e8bd 1e7e 12be
00000130: f971 5d3d 4b93 0a3d 380c b23d b53f d2bc
00000140: 5f29 57bc 7edb e1bd e07c 6a3d cb4b 8bbc
00000150: 382f cfbc 012a 4d3c 91dd bf3d db08 103d
00000160: 4bae 9f3c 0b76 b73b fa4a 043d ef26 a13d
00000170: 03e0 05bd 810e 9c3c 7ead 89bd 440b 163d
00000180: 4228 a8bd eb59 acbd 6ac8 54bd a2f8 d43c
00000190: 5303 21be 924b b3bd b79b 3dbd d02f f5bd
000001a0: 8ad4 91bd 7ccb 6f3c 5222 7cbd d109 183d
000001b0: 6c20 08be a6e6 423d a36c f9bb a4c2 44bd
000001c0: 813a ee39 1d20 b83b 25c6 33bd 929b 193d
000001d0: 7e0a 21bc e9e5 d3bd 37d6 14be a20a 6d3d
000001e0: 5689 2fbd 1158 2abb 5fed da3d 0f47 19bd
000001f0: 980c 213e 60ee 913d db02 7bbd c382 8fbb
00000200: cc9e 863b 1db6 e73c 5d8a e5bc 2b45 443d
00000210: 07c4 b63d 7355 4bbb 4e14 d7bb 1648 d3bd
00000220: ad9f 24be cb99 9b3c d121 9b3c d363 c5bc
00000230: cdb7 32ba 4598 dbbc 97ca 16be 4f3f 81bd
00000240: 9295 6bbd 1892 273d 43f6 db3a c292 1dbd
00000250: beee 81bd 5c19 a2bb 27b7 1c3e 6c74 6b3c
00000260: aee4 efbc 94e8 3ebc ca18 493d a029 903c
00000270: f81f cb3c cc4a ec3d 9750 cdbd 528c 313d
00000280: cc5f 6f3c a656 8dbc fbe3 a33b ebb5 19be
00000290: acc1 803d 4314 1cbd 2683 b5bc 44e3 3bbd
000002a0: d827 1ebe 3533 bfbd 3472 cdbc 3b2b 0d3c
000002b0: 07c3 57bc d51d 9abd bfef 873c a934 793d
000002c0: 789c 98bd a097 27bd 13a2 44bc decb fe3c
000002d0: df79 f43d 839c 72bd 9f18 a7bd c9fa 9bbd
000002e0: 6d55 163d 0283 8c3d 1bbb c7bd f894 0bbd
000002f0: 2f15 553d df52 03bc c765 41bc ef88 18bd
00000300: ce3b 933c 41fd b03c 7da1 aabd a412 f6bd
00000310: 42a0 4d3d fc07 85bd 9bf5 5abd 3695 27bd
00000320: ba99 ba3d 2784 063d af73 a1bc ecdf 2cbd
00000330: 01f1 0a3e 0a94 89bc 6518 d3bb 8a06 593d
00000340: 515f e7bd 8399 5bbd a801 773d 49ec 9fbc
00000350: 4871 3b3d e9e5 023d 8aab a73d 63ed 183e
00000360: ed06 02be a76b b9bd ff82 7b3d e54a b13d
00000370: d078 30bd 56ba e0bd 0c39 4cbd 1c0f 7ebc
00000380: 6beb ffbd 1261 cebd f290 0b3d 28e4 c1bc
00000390: 7fb4 69bd dc9f efbd 0ec9 c1bd e559 54bd
000003a0: 3303 1fbd 1c96 1cbe a72d 0fbe b4df 0ebd
000003b0: 24d9 123e 0431 3a3c 75ac d3bc 5dd3 113c
000003c0: 7be8 0e3d 7398 e43c 86f8 403c dd4c 513d
000003d0: bfcb 7fbd 8fdc bb3d 9a55 793c ba2e 86bc
000003e0: 71f1 53bb 3182 6c3c cea2 b3bd 368f 213d
000003f0: 27d3 4c3b eaa2 1ebd 46ed 583d 820a 0ebd

classifier.1.bias f4 [21]
0.009829233 -0.052166283 -0.070768714 0.037330583 0.2255312 0.14911169 -0.010919294 -0.005102352
-0.15949409 0.033120777 0.1666475 -0.0010525578 -0.047466423 -0.009233824 0.20967397 0.14982027
0.070698164 -0.1725317 -0.108870916 -0.0726416 0.13136388
00000000: cb0a 213c 50ac 55bd 30ef 90bd f4e7 183d
00000010: a7f1 663e bcb0 183e d7e6 32bc a131 a7bb
00000020: 6b52 23be a7a9 073d a4a5 2a3e fbf5 89ba
00000030: 276c 42bd 7749 17bc c6b4 563e 7c6a 193e
00000040: 33ca 903d 26ac 30be b7f7 debd 1fc5 94bd
00000050: 4184 063e
