models/NeuralNetwork-1_acc-56.86_loss-0.000001.pth (torch, 802127 bytes, 8 tensors)

network.0.weight f4 [512, 63]
00000000: ae88 2dbb e8f9 e73d 6973 8a3d 568a f9b9
00000010: 87e3 893d 25e9 673e 67eb 2c3e 64a4 8c3d
00000020: a639 8e3d d783 d13c 95f6 653b 4390 e93d
00000030: 65d5 5cbd b60d 09be 5c30 29be 35e9 d33d
00000040: 75dd e5bc d263 a13d 2413 083e eea1 473e
00000050: 68c3 0dbe d287 723d 9c4b 553d a0f6 783d
00000060: c089 0cbc 3107 a1ba 74a4 d73d d232 8b3d
00000070: 95e6 ab3d f7a8 a9bd 0074 26bd 02e5 05bc
00000080: 1080 5f3d 9db0 bbbd 0d1b 8e3d 69c9 02be
00000090: c0f7 993d 7d49 cfbd bc84 a1bd 3664 7cbb
000000a0: 38d5 98bc 1646 95bd d6e6 0e3d 5708 3c3d
000000b0: 7694 f9bb 50a6 f6bd d3d2 1b3d 6909 c2bd
000000c0: d66a 33bc 457a ca3d 434d 04bc d981 f93d
000000d0: 3a6d 503c ced6 323d bec4 56bd e0b5 a8bd
000000e0: 8490 10be 30c4 71bb 1ee1 73bd 2a09 d03d
000000f0: 3bf4 18bd be33 26bd ec11 d43d 8661 7abd
00000100: a27c 9ebc f2d3 f03d 8fb3 e8bd c6cd 32be
00000110: cf80 3c3d 2225 9d3d d5a6 8fbd d13e d1bb
00000120: 4db8 aa3d 6acd 3d3d 1146 283c bfe3 4bbd
00000130: 2118 b33d 910b 1bbd e31e 85bc 88b2 d53b
00000140: a58e d9bb bede e6bc 2029 ea3d 30a7 bab9
00000150: ad11 483d 73ee bbbd b998 d83d 9445 853d
00000160: bc55 f53d f5d9 f93d 384a f3bd f32b 9f3d
00000170: 98ba e83d 0a98 a5bd a7f4 a43d d2bf 183c
00000180: cbf3 39bd 4a5e 063b e3c9 20bd e914 e03c
00000190: 9abb efbd b370 80bc 1609 e6bb 1240 853d
000001a0: e773 00bd e206 c4bd 72b3 b53d 55bc 3abd
000001b0: 8587 c43d 7b28 033e 198f 043e 768f cb3d
000001c0: a52c 68bc eb25 d8bc 20b4 ca3d 0d61 c93d
000001d0: 1468 7ebd 9fe6 0bbe 29f2 1bbc e025 273d
000001e0: d74e e2bc 23de 053d c70d 803d f52d 693d
000001f0: f8d7 66bd 7151 c23d fe74 cdbd 886b 053d
00000200: 456f 30bd 16f7 1a3e 6b04 053e e09a f93d
00000210: 8605 b5bd ab2d af3d 5f2a 603d 0ce2 a83d
00000220: 9345 673d ed38 a53d b3c6 84bb 0925 aa3d
00000230: 1d98 a73d a061 973d 6352 a63d 3c33 8abd
00000240: a5b6 463d d02f e6bd e631 f43d 1c3b 4c3d
00000250: b409 edbd 86ce 283d 536a 303d b7a2 443d
00000260: 9a1a a9bd 14cd 843d da2b 2c3d e223 a23b
00000270: e31f 95bd bde9 c73c f6d1 3f3d 7083 b43d
00000280: daec 243e 57e3 81bd 3002 e63d d7cc c83d
00000290: 721f 083d 0be2 0c3e 3fea 6a3d a7e9 d53d
000002a0: 8818 8d3d d60f 0a3e 77ac cebd 8081 11bd
000002b0: fe92 073e e454 61bc b132 82bd c22e 323d
000002c0: ed8a 4e3d ed84 023e 6c40 33be eadb a8bd
000002d0: a0fd a73d 242a f4bb 9614 d53d e8d6 553d
000002e0: 5182 c43d 507a a13d 638b e6bc f8bd bdbc
000002f0: 69d5 073d 227d 973c 7ce4 023e 62c0 0dbd
00000300: 8c3c d7bc f9ce 4abd a06b 17bd d2ce 97bd
00000310: 750e f0bc 1afb e3bc e658 113e 8d84 6d3d
00000320: fa2b 03be ca50 a0bd 9ffd 243d 8897 bdbc
00000330: 3916 eabd e376 c03c 44b3 a4bd 7f8e 19be
00000340: 8d35 e7bd e220 113e 25b4 20bd 28e3 6a3d
00000350: 6925 c03d 0984 393d 8fd9 bd3d 12a5 0e3d
00000360: 4cb6 bcba a959 1d3e 747f b6bd 9446 a6bd
00000370: 4479 38bd 7a5a b3bd 19cc d73d b8f9 d1bd
00000380: 8f31 60bd 4bb4 81bc f4ef c33d 8fbf 25bd
00000390: 9be6 0bbe fb2a b13d f742 01bd 6b99 153e
000003a0: b942 013e 42fe aebd e5d1 283d 2912 e53d
000003b0: ca69 07be 1915 07be 4799 2f3d 4433 a8bc
000003c0: 02ff 123e c689 95bc 12c4 2dbd 7691 ff3d
000003d0: 5bbf 83bd f7a7 133d 9cb8 503d 65ef 0cbe
000003e0: 82fb 793d d964 e1bd 397c 803d 3d17 babd
000003f0: 0187 5fbc 1bff 163c ec8a d6ba 1539 883d
-0.0026479173 0.11326963 0.06760294 -0.0004759605 0.067328505 0.22647531 0.16886674 0.068672925
0.06944589 0.025575561 0.0035089601 0.11404469 -0.053914446 -0.13384137 -0.16522354 0.10347215
-0.0280597 0.07880367 0.13288552 0.19495365 -0.13844073 0.05921156 0.05207406 0.060782075
-0.008577764 -0.0012285468 0.10529414 0.067968026 0.083935894 -0.082841806 -0.04063797 -0.0081722755
0.05456549 -0.09164546 0.06938753 -0.12772144 0.07517958 -0.10121439 -0.07886645 -0.0038511879
-0.018656358 -0.072887585 0.03488811 0.04590639 -0.007616575 -0.1204344 0.038042855 -0.09474451
-0.010950765 0.09886602 -0.008075061 0.121829696 0.012721354 0.043661885 -0.05243372 -0.08237815
-0.14117628 -0.0036890619 -0.05954086 0.10157998 -0.03734229 -0.04057669 0.10354981 -0.06112816
-0.019346539 0.11759175 -0.11362373 -0.17461309 0.04602128 0.07673098 -0.070142426 -0.006385662
0.08335934 0.046338476 0.010270611 -0.049777742 0.087448366 -0.037852827 -0.01625008 0.0065215267
-0.006639319 -0.028182384 0.11433625 -0.0003560125 0.048844982 -0.0917634 0.105760045 0.065074116
0.11979243 0.12199775 -0.118793905 0.077720545 0.11363715 -0.0808564 0.08054476 0.009323077
-0.045398515 0.0020502978 -0.039255034 0.02735372 -0.11705704 -0.01567874 -0.007020126 0.06506361
-0.031360533 -0.09571625 0.08872117 -0.045589764 0.09596161 0.12808411 0.12945212 0.099394724
-0.0141708 -0.026385268 0.09897637 0.09832964 -0.062110975 -0.13662194 -0.009518185 0.040807605
-0.027625484 0.03268255 0.06252628 0.056928594 -0.056358308 0.0948819 -0.1003208 0.032573253
-0.043074865 0.15133318 0.12989967 0.12187743 -0.08838944 0.08553632 0.05472791 0.0824624
0.056462836 0.08067498 -0.004052007 0.08307845 0.0818331 0.07391667 0.08121183 -0.067480534
0.048514027 -0.11239588 0.1192358 0.04986106 -0.11574116 0.04121258 0.04307015 0.04800674
-0.08257027 0.06484428 0.042034008 0.004948125 -0.072814725 0.024403447 0.046831094 0.08814132
0.16105977 -0.0634219 0.11230886 0.09804695 0.033233114 0.13758104 0.0573523 0.10444956
0.068894446 0.13482603 -0.10091489 -0.03552389 0.13239667 -0.01375315 -0.06357325 0.043501623
0.05042546 0.1274602 -0.17505044 -0.0824507 0.08202672 -0.0074513126 0.10404317 0.052206904
0.095951684 0.078846574 -0.028142637 -0.023161873 0.03316251 0.018492285 0.12782472 -0.0346073
-0.026273988 -0.04951379 -0.036967874 -0.07412495 -0.029303769 -0.027829695 0.14194068 0.05798774
-0.12809744 -0.07827909 0.040280934 -0.023143545 -0.1143002 0.02349419 -0.08042005 -0.14995764
-0.11289511 0.141727 -0.0392343 0.05734554 0.093821354 0.045291934 0.09270012 0.034825392
-0.001439759 0.15366234 -0.089110285 -0.081189305 -0.045037523 -0.087574914 0.105369754 -0.10252708
-0.054734763 -0.01583304 0.09567252 -0.040465888 -0.13662188 0.08650776 -0.031558003 0.14609306
0.12623109 -0.085445896 0.041215796 0.111851044 -0.13223949 -0.13191642 0.042870786 -0.020532258
0.1435509 -0.018254172 -0.042423315 0.12478916 -0.064329825 0.036048856 0.050957307 -0.13763197
0.061030872 -0.11005563 0.062736936 -0.090864636 -0.013643027 0.009216095 -0.0016368306 0.066515125

network.0.bias f4 [512]
00000000: aa2e 0dbe 840e bdb9 2463 b0bd c4a2 b3bd
00000010: eed6 be39 c647 ba3c ff2b 95bd 69c6 d93d
00000020: 0c1c 773d 620a 903c 6fe3 0cbe d515 b9bc
00000030: d1ff 05be 433c 9a3b ae85 8bbd 5b82 eabd
00000040: 245d f9bd 9b63 8e3d 64e0 c6bd 5638 473d
00000050: a08c 99bc 3d71 623d 8a36 8bba fadd d0bc
00000060: 2a62 0d3e 61a0 5c3c d3de 953c 28ec 883d
00000070: 7302 ddbd 5d3d 123d ae0d 093d 1b0a cbbd
00000080: 0e9e d9bb 4fb8 d5bd 949a 7cbd a883 dcbd
00000090: d59c 833d 3bea 813c 4645 cebd 8dec 483d
000000a0: 6b67 693b 6bf3 8b3d 1b36 a13d f9ae 1c3d
000000b0: be8a 803d 12c2 9b3c 7184 6ebd 0868 60bc
000000c0: 8870 a73d 3d3d 2ebd d73a c5bd 32bd 6bbd
000000d0: 94a4 cd3d 42c4 9bbd dfe8 06be 26ce 113d
000000e0: 6536 b5bd e4fa b33d 1cfa 1b3d 1e6d ab3d
000000f0: 1eea 93bd da38 20bd 64a0 2cbc 2656 d1bc
00000100: fb0a 0b3d bf80 d1bd e59e d63d 7daf 7e3d
00000110: 2f2b 983b 1ede 52bd 3bde a7bd e643 743d
00000120: 45cc 9abc 81cf 26bb bc62 d43c 768a 143d
00000130: 1a6c a7bd 9796 9dbd 9a51 2abe 1f84 ba3d
00000140: c2fe c03d 88b7 3a3d b5ca efbc b6c6 9fbd
00000150: 51d0 39bd 44ee 01be 4de4 5fbd 59ac 0fbd
00000160: 4ca9 c4ba e5eb cfbb 044a 903d 8de0 0dbd
00000170: f42f c93d 7e85 963d 5b32 933d 45fb 7c3d
00000180: cbc9 023e 4eec c83d 21c7 48bd f514 47bc
00000190: bc82 053e ee77 be3d 4f74 c7bd e7e8 fb3d
000001a0: cb42 04be 649a 263d 7c0b e63c 8690 e4bd
000001b0: 6ecf bebd ee77 883d 121b bb3d 0c89 f93d
000001c0: e3ab c53d 8f1f 8ebd a170 04bd e2a6 e73c
000001d0: 72c2 233b 00ba d3bc ff84 a83d 3154 1bbe
000001e0: da53 0bbc ce24 853d 014f e73d 3579 88bd
000001f0: 6a23 10bd 5291 fb3d b5b0 0d3e 293b d0bd
00000200: c1d4 75bc e2cf e5bd abde edbb bceb 253d
00000210: 9eb2 453d 10da 1bbd d8e2 ca3d 625d 353d
00000220: befb fd3d 9fc0 bebd 4ac1 4b3c ab8f 933d
00000230: e663 a53d 852b 953a 5102 67bd 2218 e93d
00000240: 8931 2abd 797c 493d e702 ed3c 73c4 5dbd
00000250: 9376 563d 16fa f9bc 45ef 8cbd e298 ea3d
00000260: d3a0 023d c356 143d b419 a7bd 7e63 8e3d
00000270: fa42 de3d 15bb f03d 9259 e2bd ec34 cd3d
00000280: 79a8 0fbd e6da e6bd 1e0a b93d 6e46 0cbe
00000290: 28eb 9b3d aa2e 41bd 21fd 743d cbc9 c4bc
000002a0: 0182 323d 330a c6bd b203 113b 1e00 d3bd
000002b0: 6c7f 24ba f80f 60bd 543b babd acfc 453d
000002c0: 6e05 bf3d 5f71 1a3c a160 bbbd d07f 4b3d
000002d0: 2fa4 64bd a620 4f3d 3147 fcbd aa85 d1ba
000002e0: cd90 893c 9df1 163d e024 0a3d c56f f0bd
000002f0: 0e7e 9e3c 2864 fdbd e3d4 cbbd 6e1b 163e
00000300: 2faa 323d 56a7 ca3d 859d d43d 9b04 16be
00000310: 9674 adbd 3968 1fbe 14d8 17bd f8fc 563c
00000320: 3f22 713c 82b0 07be ce58 eabd 2441 75bd
00000330: 5e84 8cbb d5f9 f7bd 581c 023e 82fb 533c
00000340: 9aed e13b 562d ac3d f8a6 be3d d49b 70bd
00000350: 8459 ecbc 643a f93c 5c18 0abe 048e c23d
00000360: 7ebc 893d 3676 c0bd 0ec5 4fbd 171a 803c
00000370: 750a a9bd 02ed 1dbd 9e49 f8bd b033 9e3d
00000380: 562c a63d 6d18 19be 9021 a63d a576 083d
00000390: 0d97 6f3d 76fc 0fbe ea8e adbb d6d1 49bd
000003a0: c5b3 a2bd 5eb6 92bd ae2f 553d b99c acbc
000003b0: 1dba cabc 412f 143d b864 2fbd dff6 de3c
000003c0: f09a b2bc 9acb 9cbd b61f abbd 98aa f0bc
000003d0: 1cec 823d d8b0 57bd 43b8 dd3c fb44 04be
000003e0: 613d 443b f415 f5bd c2da eebd f100 853c
000003f0: 8de9 1bbe de8f f0bd 51ec 12bd 7ff3 f2bc
-0.13787332 -0.00036059704 -0.086126596 -0.087712795 0.0003639976 0.022739302 -0.07283782 0.10633547
0.060329482 0.017583076 -0.13758634 -0.022593418 -0.13085867 0.004706891 -0.06812607 -0.114506446
-0.12175968 0.06952592 -0.09710768 0.04863771 -0.018743813 0.055283774 -0.0010621112 -0.025496472
0.13806978 0.013465972 0.018294727 0.06685668 -0.10791483 0.03570305 0.03346031 -0.09914037
-0.006641156 -0.10435545 -0.061670855 -0.10767299 0.06426398 0.01585876 -0.100718066 0.049053717
0.003561462 0.06833538 0.07871648 0.038252804 0.06276463 0.019013438 -0.058231775 -0.013696678
0.081757605 -0.04253887 -0.096303634 -0.057553478 0.100411564 -0.076057926 -0.13174771 0.03559699
-0.088482656 0.08788088 0.03808032 0.08370422 -0.07222389 -0.039116718 -0.010536287 -0.025553774
0.03394602 -0.102296345 0.104795255 0.062179077 0.0046438198 -0.05148136 -0.08196684 0.059635065
-0.018896231 -0.0025453272 0.025925986 0.03626486 -0.081749156 -0.07694738 -0.16632691 0.09107231
0.09423591 0.045585185 -0.029271463 -0.07801573 -0.04536468 -0.12688547 -0.054661084 -0.035076473
-0.0015004068 -0.0063452595 0.07045367 -0.034637976 0.098235995 0.0734968 0.07187339 0.061763067
0.1277229 0.098106965 -0.04901803 -0.012150993 0.13038152 0.093002185 -0.09738981 0.12300282
-0.12916104 0.040674582 0.028081648 -0.11160378 -0.09316908 0.066635 0.091360226 0.12184343
0.096519254 -0.06939613 -0.032333974 0.028277818 0.0024987725 -0.025845528 0.08228492 -0.15168835
-0.0085038785 0.065011606 0.11294366 -0.066637434 -0.035190023 0.12283577 0.1383694 -0.10167534
-0.015004338 -0.11221291 -0.00725921 0.040508017 0.048266046 -0.038049757 0.09906548 0.04427851
0.12401532 -0.09314083 0.01243622 0.07205137 0.08075695 0.0011380768 -0.056398693 0.11381556
-0.041551147 0.049190972 0.028932048 -0.054142427 0.052359175 -0.030514758 -0.068815745 0.11454941
0.031891655 0.036215555 -0.08159199 0.069525704 0.108526185 0.11754433 -0.110522404 0.1001986
-0.035072777 -0.1127222 0.09035133 -0.13698742 0.07613212 -0.047163643 0.059811715 -0.024022004
0.043581013 -0.09669914 0.0022127447 -0.10302757 -0.0006275091 -0.05470273 -0.09093347 0.04833667
0.093272075 0.009426444 -0.0914929 0.04968244 -0.05582064 0.050568245 -0.12318266 -0.001598527
0.01679268 0.036851514 0.033726573 -0.11740068 0.019347217 -0.12372619 -0.09952714 0.14658901
0.04361933 0.09895198 0.10381607 -0.14650194 -0.08469503 -0.15567102 -0.037071303 0.013121836
0.014717638 -0.13250926 -0.114427194 -0.059876576 -0.0042882403 -0.121081986 0.12706125 0.012938382
0.0068947794 0.08407085 0.093091905 -0.05874236 -0.028851278 0.03042335 -0.13485855 0.094997436
0.06725405 -0.09397547 -0.050725035 0.01563744 -0.08253948 -0.038556106 -0.12123416 0.07724702
0.08113925 -0.14950724 0.0811187 0.033316273 0.058493663 -0.1406115 -0.0052965777 -0.04927238
-0.079444446 -0.0716369 0.052047424 -0.021070825 -0.024746949 0.036177877 -0.042820662 0.027217327
-0.021802396 -0.076560214 -0.08355658 -0.02937822 0.063926905 -0.052658886 0.027065402 -0.12916939
0.0029943811 -0.11967078 -0.116628185 0.0162358 -0.15225811 -0.117461905 -0.0358699 -0.029657124

network.3.weight f4 [256, 512]
00000000: cd25 1abd 874a 36bd 3694 2ebd c146 13bd
00000010: d9d8 babc ef2b cabc df33 563d be33 83bd
00000020: e218 adbc ac95 093d 55d1 ffbc 481a 61bd
00000030: 1c37 f53c bd08 c6bc df86 283d 6fc9 643d
00000040: 1a59 133c 4dfa 333d a572 38bc e305 153d
00000050: 81b0 053c 5de1 3f3c 0229 9c3c 6867 0dbd
00000060: a79d df3b 1b20 69bc 9bfe 52ba dc70 54bd
00000070: 1338 22bc c7cc 1a3c bce9 d1b7 dd1c e23c
00000080: 20a6 0a3d a543 92bb 6140 043d ae67 c2bc
00000090: 2ccb 653c c1a1 1fbc 9e4c 693d 73d2 e33c
000000a0: 9660 d7bb 66ca a0bb 975c 27bd 0cb8 50bd
000000b0: c296 abba 9081 1e3c 83e7 073c 0d77 0abd
000000c0: 8df8 40bc 518b ec3c cb80 17bd 8a77 383d
000000d0: 2f0a 21bd aaeb b0bc 03fc 3dbd 1d91 fcbc
000000e0: 37c5 263c 3ac3 443d 89f8 b9bc 2f5b 8c3c
000000f0: 7b79 c53b 3a73 243d 023b 5f3d 66ba 073c
00000100: 7798 2abc 81af 7a3d c3ac 36bc b991 91bd
00000110: 4f13 b2bd ccea 37bc 0c9a 323c 89fc 1dbd
00000120: 3e25 4c3d 8603 7c3c 2701 d2bb 9759 0fbd
00000130: 95e8 113d ef4b 643b c7a2 493d ed6c 5f3c
00000140: dfb9 f0bb 9c7e 27bb 4b26 51bb 7e4b a63c
00000150: ff88 d4bc 8160 5b3d 2698 84bc 6b0e 1d3d
00000160: af52 733d 4554 3d3d ba7e 8dbc c96f 2f3a
00000170: 57e9 d8bb fe7b 82bd f5da b5bd dfcd 383d
00000180: 9ddb 043d 47a4 13bd 8d42 6c3b 5a33 233d
00000190: 6931 a6bc 908d 083d 6f43 4dbd 845b 39bc
000001a0: 53e3 e23c 5b8c 10bd d10d af3c 5d90 5c3d
000001b0: b371 953d fb95 23bd 9c53 37bd f52c 4fbd
000001c0: 469a 163c a76b ba3c 52a7 6bbd 8655 6ebd
000001d0: ed28 cd3c 7393 413d ae6b 413d a582 a73c
000001e0: 17ce 263d 4341 5f3c 7ce8 2dbc 537c 353d
000001f0: 8bdf 6ebd 451f 25bc 91b3 dc3b 34d4 443c
00000200: 7df9 283d fadb 103d 4245 2dbc 1e26 1d3d
00000210: b72c 583d 0285 d1bc faf3 4b3d 78d1 6bbd
00000220: 71ee b73c 7f1c 17bd 9c0f 11bd 72de 38bc
00000230: 32c8 32bd 1049 6139 9a6e 56bd 4560 32bd
00000240: c6da abbc 18ec f33c 9922 203d 2208 093d
00000250: 2023 c53c 19a1 3f3c 7617 a6bc 012b 8fbd
00000260: f235 1a3d f7fb 343d 9213 013d 22d9 9fbd
00000270: 0d55 9b3c 7d68 c3bd a03e c7bb 23f4 b9bb
00000280: 7963 3f3c b6ed 693b 4727 a7bd 5d10 063d
00000290: 919e d63b 9370 42bc 3efe d93b d229 f73c
000002a0: 6bc9 0f3d 6b5d 39bd f059 8ebd 05a3 4ebd
000002b0: 8f0b 163c 50c3 89bc b0f2 663c f818 63bd
000002c0: 6a22 623c e405 92bc a171 d33c dcde aabc
000002d0: 10bf 1c3d 98a2 fe3b 9cb2 ee3b 8442 0f3d
000002e0: ba54 84bd a83f 03bc 78cf 14bc 7d91 8e3c
000002f0: ee7c 903d cc15 883c 4cc4 a3bc 7dac f33c
00000300: 0b5e 52bd c395 6c3a 45a3 1c3d 2a1c 813b
00000310: 370a 27bd ad95 debc 7613 e1bc 73ba c33c
00000320: f5b9 2cbd f14e f03c 2d20 243d 5aff 3fbc
00000330: 2efb 7b3d 40d0 05bd ca9e 2d3d d421 ec3b
00000340: c5dd 11bd 4fb3 0d3d 9464 4ebd e55b 8bbc
00000350: 1bfb 863c 122f d4bc 115d 513c c626 5a3d
00000360: 8c21 21bd bdc8 31bd d70b f23b 4a6d ff3c
00000370: 83a7 b63c 2b16 cbbc 9307 3b3c 387e 8dbc
00000380: 1fdd d43c ae19 b03c bce3 69bc 4b1a 863c
00000390: 4255 8abd 1e40 f33c 439a fabc 0576 2a3d
000003a0: ab93 7c3d d6bb 37bd b86d 323d ca33 6bbd
000003b0: 235f 3e3d b8fc 7fbc 5286 4f3c f919 edbb
000003c0: ef07 de3b 5d28 33bc d79d e33c 3fac 28bd
000003d0: 191d 1e3d 261c 173d 80f4 5cbc a971 103c
000003e0: 356d 16bc b15f 263c 20c3 34bd 446c b0bb
000003f0: 8c5e 983d c194 d33c bb9b 013d 6ec9 2339
-0.037633706 -0.04450467 -0.042621814 -0.035956148 -0.02280848 -0.024679152 0.052295562 -0.064063534
-0.02113003 0.033590004 -0.031227747 -0.054956704 0.029933505 -0.024174089 0.041144248 0.055856165
0.008993411 0.043939877 -0.011257802 0.036382567 0.008159758 0.011711446 0.019062523 -0.034522444
0.0068242135 -0.014228846 -0.00080488034 -0.051865444 -0.009901064 0.009448237 -2.5023583e-05 0.027601654
0.033849835 -0.0044636303 0.03228796 -0.023731079 0.014025491 -0.009743155 0.056957833 0.027810311
-0.0065727932 -0.0049069403 -0.040859785 -0.05095677 -0.0013091194 0.009674445 0.008294943 -0.033804942
-0.011778009 0.028875025 -0.03698806 0.045035876 -0.039316352 -0.021596748 -0.046382915 -0.030830914
0.010178856 0.048037745 -0.022701519 0.017133323 0.0060264445 0.04014895 0.054499634 0.008284187
-0.010412327 0.06120253 -0.011149588 -0.071078725 -0.08695089 -0.0112254135 0.010900985 -0.038570914
0.049840204 0.015381699 -0.006408829 -0.03499755 0.035622198 0.00348353 0.049227502 0.01363681
-0.0073463763 -0.0025557643 -0.0031913694 0.02029967 -0.025944231 0.05355883 -0.016185831 0.03834383
0.059405025 0.046222944 -0.017272342 0.00066923775 -0.006619613 -0.06371306 -0.08879653 0.04511821
0.032436002 -0.03604534 0.003605041 0.039843895 -0.020287232 0.03333813 -0.050113138 -0.011313323
0.027696287 -0.035290103 0.021368893 0.053848613 0.07297077 -0.039937954 -0.04475747 -0.050579984
0.009192055 0.02275641 -0.057532616 -0.05818703 0.025043929 0.04725976 0.047221832 0.020448038
0.040723886 0.013626399 -0.010614511 0.044308018 -0.058318656 -0.010078256 0.006735273 0.012013484
0.041253556 0.035366036 -0.010575594 0.03836643 0.05277702 -0.025576118 0.04979322 -0.05757281
0.022452565 -0.03689241 -0.035415277 -0.011283504 -0.043647952 0.0002148489 -0.05235157 -0.04354884
-0.020978343 0.029775664 0.039095495 0.03345502 0.0240646 0.0116961235 -0.020274859 -0.06990624
0.037649103 0.044185605 0.031512804 -0.07805087 0.018961454 -0.09541414 -0.0060804635 -0.0056748553
0.011681431 0.0035694665 -0.081617884 0.03273045 0.0065496643 -0.01186766 0.0066526225 0.030171309
0.035104197 -0.045255106 -0.06950748 -0.050448436 0.009158029 -0.016816765 0.014095947 -0.055443734
0.01380215 -0.017825074 0.025811018 -0.02085822 0.03826815 0.0077708475 0.0072844755 0.034975544
-0.06461473 -0.008010782 -0.0090826675 0.017403359 0.070550784 0.016611956 -0.019991063 0.029745335
-0.051359218 0.0009025002 0.038241643 0.003940125 -0.040781226 -0.02717098 -0.0274751 0.023892617
-0.04216953 0.029334517 0.040069748 -0.011718595 0.06151884 -0.032669306 0.04238776 0.007206181
-0.035611887 0.03459483 -0.050388888 -0.017011592 0.016477158 -0.025901351 0.012778536 0.053259633
-0.039338633 -0.04340433 0.0073866653 0.031180043 0.022296673 -0.024790844 0.01141538 -0.0172721
0.025984345 0.02149662 -0.0142754875 0.01636996 -0.06754543 0.02969366 -0.030591136 0.04161646
0.061664265 -0.04485687 0.043561667 -0.057422437 0.04647745 -0.015624218 0.012666302 -0.007235762
0.006775848 -0.010934916 0.027785225 -0.04117989 0.03860197 0.03689208 -0.013486028 0.008816161
-0.00918131 0.010154651 -0.0441314 -0.005384 0.074399084 0.025827767 0.031642657 0.0001561993

network.3.bias f4 [256]
00000000: 29de 09bd b3ce 893a 2e78 43bc 8ee4 0abd
00000010: daaf 36bd 7cf3 31bd 22f7 363d 1e40 72bb
00000020: 231a 9dbc 2225 693d 3280 29bb eac2 36bb
00000030: 2378 093d 452c 563c 4afc 5dbd e141 45bd
00000040: da0f 213d ce91 62bd 3996 24bc 5161 dabc
00000050: 0475 92bb a729 433d f821 d9bc 65d4 243d
00000060: 74fc 003d 62fe b03c e5b5 b93b d600 fa3c
00000070: ee06 95bc 0d16 1a3c 40e1 85bc b9b8 883d
00000080: 0ad7 8abc 7f6b a83c 8993 0bbb 5b8e 003b
00000090: 85ef f2bc e1c9 68bd a64f b63b 34c5 5436
000000a0: c007 12bd 126d 303d bf11 13bd 4a13 97bb
000000b0: 98d4 14bb 842f 2f3d 3fdb 253d 6192 033d
000000c0: c1c3 323d cc8b 1a3c e258 3c3d 5cc2 0d3d
000000d0: 0da8 7f3c aa15 393d 9953 b7bc 1d3a 873c
000000e0: b2b7 2bbc 9755 6a3a 98b2 7d37 eed5 1e3c
000000f0: 4612 b2bb ba07 51bc 2e87 1bbc e9cb 8b3b
00000100: 7287 16bb a0e3 213d 90a8 6d3c 8f40 1cbd
00000110: 8b69 273c a998 233d 35b6 9bbb bc96 a6bb
00000120: 907d e83c de0b e2bc f3e5 a9bc 59a7 603c
00000130: 65fc 653c e3f4 ad3b 83ad b43c 2e88 f3bc
00000140: fde3 42bd 6623 803c bf92 cf3c 6c4c 04bd
00000150: dbc2 0cbc bc5f b3bb 4ee0 2e3a d0ee 2f3c
00000160: 41d7 acbc 30da 4abd af70 bd39 b1e2 f73c
00000170: dd29 533b bb3d 10ba 7170 b8bc 60b8 8c3c
00000180: 7055 853c 59db 24bc 8752 113c c4b2 f13a
00000190: f786 903b e1dc 693d 7614 ddbc 05cc 8abb
000001a0: f463 7dbc 6eb6 e0bb 7633 413d c185 bcbc
000001b0: a18a 4b3c fee9 283c 4218 903c cd14 baba
000001c0: 7136 3c3d 9ede e73b d0fc 763d 6643 373d
000001d0: 1d6d 363b a9a6 babb 79d2 7b3d 4053 bd3b
000001e0: cad0 103d 0db2 083d 5eac 373c f5a6 f0bc
000001f0: ff1f a53c 302c 413d 0a94 313d 1e40 43bd
00000200: 15a2 3f3c 29cb 20bc 5dfb bbbc 32f1 1d37
00000210: 3902 f23c aaa2 85b9 da6a 03bc 8e1f 163d
00000220: a830 c83c dda6 edbc 2279 103d 20bf 893c
00000230: 83a6 5c3a 8e07 84bc c629 9bbc cfbd e73c
00000240: f693 0e3d 2148 bdbc 60be 693c e61b 2e3d
00000250: b560 0dbc d367 963d 92eb 5c3c aa35 98bb
00000260: d023 1d3d 453c 9a3c 5372 553c c959 19bd
00000270: c335 a3bc 271c a3bc 5ae1 333c afe7 6b3c
00000280: cea9 28bb 02de 953c 2d67 0cbd 23c2 5dbc
00000290: 596f cc3c 16a7 193d 8680 343d 0325 693d
000002a0: 4f41 aa3b 8d6a 8abc 85f1 4d3d 1953 e43b
000002b0: e40a ec3c c00f 65bb 4721 bdbb 037b 49bc
000002c0: 79f3 c8bc 3c59 7e38 b143 b4bc e308 193d
000002d0: 683a c7bc 5355 13bd ace2 6e3d dbe0 5ebc
000002e0: 509e c53c 3aff f73b f283 85bd db48 3ebc
000002f0: 4d61 e4bc d282 903c a39a b03c de9e 29bd
00000300: f989 113d e61c 81bc dc99 d13b 8e2a 2abc
00000310: f4d6 5f3c 5f4c 813d 1f74 f8bc 9e0b 023d
00000320: ad55 b4bc 886b a83c a47c 1cbd a227 84bd
00000330: c104 253d 3a46 2a3c 9af4 60bd 70dc 5bbc
00000340: b641 a5bc 35ff 713d 72dd b4bc 1e1e df3c
00000350: 61fa 88bc cd23 d8bb 8426 493c ebf0 11ba
00000360: faf6 33bd 5f04 3ebb 6233 1d3c 526f 2e3c
00000370: f1f6 f2bc 3c80 8f3c 206a 4d3c 67fc 97bc
00000380: ec0b 603b acb8 d3bc 5cde a8bc 04cc e73c
00000390: a92d 4c3d 13a7 d13c 73ae 15bc 5ada cc3c
000003a0: 37a4 cf3c a066 50bd 1afe ec3c bf93 b7bc
000003b0: aa52 e7bc 0e3b 113d 6784 59bc ec51 9e3c
000003c0: 47c6 e6bc a8da 223d f69d 8b3d b3d4 98ba
000003d0: 9fa4 dbbc a43f 193d eec0 553c 34d8 d23c
000003e0: 5e46 99bc 5226 a3bd d6fd 273d e285 ef3c
000003f0: 7444 c63c e526 39bc 6f86 2fbb 9aea ed3c
-0.033659134 0.0010513872 -0.011930509 -0.033909373 -0.0446013 -0.043445095 0.044669278 -0.0036964486
-0.019177502 0.05692018 -0.0025863764 -0.0027887174 0.033561837 0.013072078 -0.05419568 -0.04815853
0.039321758 -0.05531483 -0.0100455815 -0.026657732 -0.0044695158 0.047647145 -0.026505455 0.040241618
0.031490758 0.021605674 0.0056674355 0.030517977 -0.01819178 0.009404671 -0.01634276 0.06675858
-0.016948242 0.02055907 -0.0021297655 0.00196161 -0.029655227 -0.05683315 0.005563694 3.170525e-06
-0.035651922 0.043072768 -0.035905596 -0.0046104537 -0.0022709724 0.042769924 0.040492292 0.03212202
0.043643717 0.009432744 0.045983203 0.034609184 0.015604031 0.045186676 -0.02237873 0.016507203
-0.010480808 0.00089391455 1.5121557e-05 0.0096945595 -0.0054343073 -0.01275819 -0.009492679 0.0042662513
-0.0022968915 0.03952372 0.01450552 -0.038147505 0.0102180345 0.03994051 -0.0047519454 -0.005083887
0.028380185 -0.02759355 -0.020739531 0.013711774 0.014037226 0.005308734 0.022055393 -0.029728021
-0.047580708 0.01564188 0.025338529 -0.032299444 -0.008591379 -0.005474059 0.0006670997 0.01073809
-0.021098735 -0.049524486 0.00036132845 0.030259462 0.0032220997 -0.00055023626 -0.022514554 0.01717776
0.016276091 -0.010062062 0.008869774 0.0018440117 0.0044106203 0.057095412 -0.026987296 -0.004235747
-0.015465725 -0.006857685 0.047168218 -0.023012998 0.012423188 0.010309694 0.017589692 -0.0014196873
0.045950357 0.0070760986 0.060299695 0.04474201 0.0027836033 -0.005696137 0.06148002 0.0057777464
0.035355367 0.033372927 0.011210529 -0.029376486 0.020156858 0.04716128 0.04335407 -0.04766857
0.011696358 -0.009814062 -0.022947008 9.414087e-06 0.029542075 -0.0002548893 -0.008021081 0.036651187
0.024437264 -0.02901023 0.03527177 0.016814768 0.0008417146 -0.016116884 -0.018940818 0.02828875
0.034809075 -0.023105683 0.01426658 0.042507075 -0.008629014 0.07344022 0.013483899 -0.004645069
0.03836423 0.018827567 0.013027745 -0.03743914 -0.019923097 -0.019910885 0.010979021 0.014398499
-0.0025735977 0.018294338 -0.034278084 -0.013535055 0.024955438 0.03751286 0.044067882 0.056920063
0.0051957737 -0.01689651 0.05027916 0.006967914 0.028813787 -0.0034952015 -0.0057717892 -0.012297395
-0.02453016 6.0641425e-05 -0.022004934 0.03736199 -0.024319842 -0.035970043 0.05832164 -0.013603414
0.02412334 0.007568267 -0.06519307 -0.01161405 -0.027878428 0.017640505 0.021558112 -0.041411273
0.03553197 -0.01576085 0.0063965153 -0.010386122 0.013662089 0.06313395 -0.030328808 0.03174936
-0.02201351 0.020559087 -0.038204804 -0.06452872 0.040287737 0.01039272 -0.05492077 -0.013419256
-0.020172935 0.059081275 -0.02207825 0.02723604 -0.016720952 -0.0065960647 0.012277249 -0.00055672106
-0.043936707 -0.0028994305 0.00959477 0.010646658 -0.029658766 0.017517202 0.012537509 -0.018552972
0.0034186793 -0.025844894 -0.020613842 0.028295524 0.049848232 0.025592363 -0.00913583 0.025006462
0.025346858 -0.05087912 0.028929759 -0.022409318 -0.02823766 0.03545671 -0.013276196 0.019326173
-0.028170718 0.039759308 0.06817238 -0.0011660069 -0.026811896 0.037414208 0.013046486 0.02573786
-0.018710312 -0.079662934 0.04101356 0.029238645 0.024202563 -0.011300777 -0.002678301 0.02904253

network.6.weight f4 [128, 256]
00000000: 1de7 cb3b d351 97bb 20d8 4b3b 2884 a23c
00000010: e10d c53d 5700 69bc 5f49 ffbc d9a8 f23c
00000020: f5b2 13bd 043b d43d faf1 133d a669 1dbd
00000030: ef95 82bc 3747 23bd aaa6 843c 5a45 843c
00000040: 18a0 573d 93b1 ad3a e8d7 8d3d 2e0c d23c
00000050: 8e10 a8bc 3058 5c3d f17b 983c a556 483d
00000060: f801 983c d302 9dbd f4d3 833c bad5 1d3c
00000070: bd37 3a3c 657a 733d cdf7 ecbb 5deb 713d
00000080: 55f2 63bd 5051 6bbc 83d6 763d e915 53bd
00000090: 7982 f33c 8390 9dbd 15f1 363c b4fd 0cbd
000000a0: 735e 15bd a8d1 36bd 1c9e 3cbd 3696 3bbd
000000b0: c2a5 ee3c 84dc a4bc 18ee 16ba ae76 23bc
000000c0: b6a2 37bc 6619 c73c 8026 263d 3f15 b93d
000000d0: e85f 1e3d d060 dc3c 9ee5 febc 7e78 17bb
000000e0: fee0 053d d17e 99bc 0a4f 3c3c a11f c2bd
000000f0: 193e 6fbd 04c4 0bbc 3579 03bc ee54 a1bc
00000100: ff7f 1b3d dd14 17bd 0ec3 5abd ff9d a2bd
00000110: f282 2fbd 457d f03c 1e8c f83a 859a 4d3d
00000120: 84dc f1bc af5e 17bd 95f0 78bd c893 93bc
00000130: fd8e 7dbd 598b 993d 6813 26bc 1a3f 153d
00000140: 3cd5 08bd abc1 e5bc aaf5 013d 4cf4 b23d
00000150: a142 fabc 750b 0dbd 6b6b 79bd e72a 383d
00000160: ff83 4c3d 1c24 c93d c7a4 553d 526a 13bb
00000170: 418e 8ebd a7e3 4a3b e358 19bd e639 ab3d
00000180: dfe6 babb 3e7f 6abd f94b 8abd 172a 8dbd
00000190: 8a74 f1bc 4f93 31bd 722a f3bc 5248 e93c
000001a0: 7fb7 7d3d 2a0c 33bc 888e 08bc 607a 893d
000001b0: 30a5 873d 4411 b0bd 69fb 2d3c b2d7 103d
000001c0: 32a0 c13d 1934 10bc 5aae 5c39 8b4a 853c
000001d0: 148c 0ebc ca18 1b3d 1a5c f73c 4fb8 973d
000001e0: 58ce 673c b270 cabc 8e96 2fbd ab08 0a3d
000001f0: 2116 663d 567f a3bc 77c1 3ebb 05af f63c
00000200: 16a1 893b d177 2b3c fa77 54bd 35d8 863c
00000210: dbc2 a5bc 4667 913d e2a6 c7bc c2d3 d23d
00000220: 4a41 37bc 2158 31bd cde1 43bd 9180 a93c
00000230: 109a 2a3d d371 583d 48e1 97bc e795 29bd
00000240: c908 8a3d e2a2 683d 0ea2 c5bc 93cc bd3d
00000250: 780a 3e3d 40e8 793d 23dd df3d c3d7 523d
00000260: bd62 ae3d 6460 41bd e8fc b8b8 e7ee e43c
00000270: d551 6cbd 4f13 dc3c 646f 2fbd a4e4 643d
00000280: 5828 433d b60b b03d 2991 ecba 1998 b7bc
00000290: f085 843d c150 083c f3d1 823d 2e4b 6b3d
000002a0: 5f63 12bd ed4e 5b3c 9b3c 7d3d 5659 aebc
000002b0: 511f ff3c 86e4 a43c 3148 803d deae 243d
000002c0: ad42 6e3d 82ec fabb fd75 b9bc 3eb6 4bbd
000002d0: ef86 31bd 698b a83d c8f5 f2bb 2236 00bc
000002e0: 2dae 6c3d d9b7 1fbd 8846 b0bd a2e5 223d
000002f0: ce98 713c f04d 0abd 6b97 233d a31f 08bc
00000300: c305 a13c 1c0e f93d cf64 083b 8fc5 203c
00000310: 46c2 aa3c f17d e33c 9127 22bc 45ca 36bd
00000320: 0124 d73b e4eb 70bd 1e79 2b3d 6383 33bd
00000330: 06c9 453d b4ae 313d 6e40 48bd 1cd3 923d
00000340: dc20 4b3c ef63 b43c 87d7 68bd b19a 403d
00000350: c56e 4bbb 382c 1dbc dcec b2bd 9442 913d
00000360: 59e9 e6bc e53e 773d 6dc8 17bd 4f2a a13c
00000370: c76c 7bbd 0975 7bbd 533c 793b 7c7a 973d
00000380: 612c 353d d8a1 8a3c 34b7 053d 0ed4 a93d
00000390: 4036 e23c 8ea3 d53c aa23 44bd 24b1 ebbb
000003a0: d79f 48bd 06b0 f23c 40e8 aa3d ca20 72bc
000003b0: 2845 ea3c b100 35bd f373 5abd bb60 4fbd
000003c0: c910 77bb 0081 0abd e1ae ddbc 77d6 143d
000003d0: c27c 963c 54c4 0ebd 4600 d9bc 22d3 34bc
000003e0: 040a 8d3d a01d 8abc 10b3 903c 5312 643d
000003f0: e3fe a4bd 38c2 883d 66b2 d6bd f890 803d
0.006222619 -0.0046179085 0.0031104162 0.019838408 0.09621788 -0.014221272 -0.031162916 0.029621528
-0.03605934 0.10362819 0.03611944 -0.038430832 -0.015940635 -0.039862838 0.016192753 0.01614635
0.05264291 0.0013251774 0.069259465 0.025640573 -0.020515706 0.05379504 0.018613787 0.048910756
0.018555626 -0.07666554 0.016092278 0.009633476 0.011365828 0.059442896 -0.0072316886 0.05906235
-0.055651028 -0.014362648 0.060263168 -0.051534567 0.0297253 -0.07693579 0.011165877 -0.034421638
-0.036467027 -0.044633538 -0.046049222 -0.04579755 0.029131774 -0.020124681 -0.00057575246 -0.009977026
-0.011208227 0.024304103 0.04056406 0.090372555 0.038665682 0.026901633 -0.03111535 -0.002311259
0.032685272 -0.018737229 0.011493454 -0.09478689 -0.05840883 -0.0085306205 -0.0080245035 -0.019693818
0.037963863 -0.03688513 -0.053408675 -0.079402916 -0.04284949 0.029356608 0.0018962657 0.05019619
-0.029524095 -0.03695553 -0.060776312 -0.018014804 -0.061903942 0.074972816 -0.010136463 0.03643713
-0.03340648 -0.02804645 0.031728424 0.08738002 -0.03054935 -0.034434754 -0.060893457 0.04496279
0.04993057 0.098213404 0.052159097 -0.0022493792 -0.069607265 0.0030958445 -0.037438285 0.083606526
-0.0057037915 -0.057250254 -0.06752772 -0.068927936 -0.029474515 -0.043353375 -0.029683325 0.028476868
0.061942574 -0.010928193 -0.008334763 0.06712794 0.06623304 -0.08597043 0.010619023 0.035361953
0.09454383 -0.008801484 0.00021045786 0.016270896 -0.008700389 0.037865438 0.030195285 0.07408201
0.014148317 -0.02471194 -0.04286819 0.033699673 0.056173448 -0.01995818 -0.0029107013 0.030112753
0.004200111 0.010465578 -0.05187223 0.016460517 -0.020234516 0.07099776 -0.024371568 0.10294296
-0.011185 -0.043296937 -0.047822762 0.020691188 0.04165083 0.052842926 -0.01854004 -0.041402724
0.06739957 0.056795962 -0.024125125 0.09267535 0.046396703 0.061012506 0.1093085 0.051475298
0.085149266 -0.047211066 -8.820911e-05 0.027945949 -0.05769523 0.026864676 -0.04283084 0.05588211
0.047645897 0.08595984 -0.0018048632 -0.022411393 0.06470859 0.0083200345 0.06387701 0.057444744
-0.0357393 0.013385517 0.061825376 -0.021282833 0.031142863 0.0201285 0.062637694 0.04020583
0.058169056 -0.0076575885 -0.022639269 -0.049734347 -0.043341573 0.082297154 -0.0074145533 -0.007825406
0.057783294 -0.03899369 -0.08607203 0.039769776 0.014745904 -0.033765733 0.039939325 -0.008308324
0.019656068 0.12160894 0.002081204 0.009812727 0.02084459 0.027770014 -0.009897129 -0.044626493
0.0065655713 -0.058818713 0.041863553 -0.043826472 0.048287414 0.0433795 -0.04888957 0.07169172
0.012397971 0.022020308 -0.056846168 0.047022525 -0.0031041366 -0.009593062 -0.087365836 0.07092777
-0.02818744 0.060362715 -0.037056375 0.019673495 -0.061383035 -0.06139091 0.003803034 0.07396409
0.044231776 0.016922876 0.03264542 0.08292399 0.027613759 0.026078966 -0.047885574 -0.0071927477
-0.04898056 0.02962495 0.083450794 -0.014778325 0.02859743 -0.044190113 -0.053333234 -0.05062936
-0.0037699214 -0.03381443 -0.027060928 0.036337342 0.018370036 -0.0348552 -0.026489388 -0.011036666
0.06886676 -0.01685983 0.017663509 0.055681538 -0.08056428 0.06677669 -0.104832456 0.062776506

network.6.bias f4 [128]
00000000: 472f ffbb 4e17 51bd ca38 d73b 054a 803c
00000010: 4715 79bd e716 933d b1b5 cc3b 3256 113d
00000020: 322c fcbb 6649 5c3b 5ffd d5bc 7ab7 9d3d
00000030: 6cea aabc 86e4 573d 857d 0dbc e388 dbbc
00000040: 0c3f b13d c891 973d 9da7 9f3d c805 513c
00000050: 5bae 9bbd b2a2 93bc caa2 923d 5636 123d
00000060: a7dc 3b3d 2f3b 663d 2d49 8d3d 68bb ac3c
00000070: 3d37 de3c cb5d cd3a 8dcf 08bb c2d3 153d
00000080: 3451 ec3c 04b4 973d 6b27 013c b78a a73b
00000090: 2e01 823d be73 ba3c 10a5 d63c 1575 203c
000000a0: d240 70bc 8b3f ea3b d8f1 773d 4515 08bc
000000b0: 379f 48bc 849b c9bc 1821 a43c 1044 d4bc
000000c0: e28f b3bc 17f1 0cbd 1456 823d a5be 55bd
000000d0: 0d1f d7bc 14aa c2ba 606c c23a 0fab 1d3c
000000e0: b64e 74bc 5660 2fbd 71e0 be3c a09a fdbc
000000f0: 5b0b a63c 8200 4f3d 9121 f23a 2c96 8fbc
00000100: c730 913d 68b9 81bc 1026 6d3d db55 a2bc
00000110: 0fe0 693c 2220 213c 5de6 cebb b6eb 8cbc
00000120: f310 babb 841b 6ebd b596 4a3c 413b d63b
00000130: 518b 7fbd b05d 02bc 8652 00bd 52df 9d3d
00000140: 196f 71bd 5ea6 12bc cb7c f43c 24c5 19bd
00000150: 0706 613d 64c0 f0bb 1fed bd3c 337d 20bd
00000160: 9b32 033d cb8f 803d cafa 863d ad8e a63d
00000170: 15b1 fc3c 7e6b ac3d 3adf 6abd cdd4 5fbc
00000180: d76a b93b 91af 063d 6288 bebb 31db 533d
00000190: 4d0d 6fbb a8fa 54bd 8e03 2a3d c917 bbbc
000001a0: e762 313b e1b2 12bd 562b 033d c941 85bc
000001b0: 45b1 baba 10d3 0ebd 617d 94bc da32 5fbb
000001c0: 4960 b83b bf3f 74bd 9fdb 333d 0fe6 5f3d
000001d0: e8cd 7bbd eb55 b5bc ab44 a0bd 82e7 a5bd
000001e0: 6956 2b3c 06e0 f63c 5132 9ebb 3e33 c43b
000001f0: 6fa8 4b3d 99dd c6bc 4f24 95bc fa4a 653d
-0.0077876183 -0.051047616 0.006568049 0.015660295 -0.060811307 0.07182103 0.0062472452 0.035482593
-0.007695698 0.0033613085 -0.026121793 0.07701011 -0.020863734 0.05270817 -0.008635883 -0.026798671
0.08654603 0.074008524 0.077956416 0.012757726 -0.07601615 -0.018021915 0.07159956 0.03569635
0.045864727 0.056208786 0.06898723 0.021085456 0.027125949 0.0015668211 -0.0020875663 0.0365789
0.028847314 0.07407382 0.007882933 0.0051129716 0.06347881 0.022760268 0.026201755 0.0097935395
-0.014663892 0.007148688 0.060533375 -0.008305852 -0.012244991 -0.024610288 0.020035312 -0.025911361
-0.021919195 -0.03440961 0.06364074 -0.052183766 -0.026259923 -0.0014851713 0.0014833324 0.009623303
-0.014911344 -0.042816482 0.023300381 -0.03095752 0.020269087 0.050537594 0.0018473138 -0.017527662
0.07089382 -0.015835479 0.057897627 -0.01981633 0.014274611 0.009834321 -0.0063140825 -0.01720224
-0.00567829 -0.05813171 0.012365033 0.0065378253 -0.06238872 -0.007956907 -0.0313287 0.077086106
-0.05894384 -0.008950798 0.029844662 -0.037541524 0.05493739 -0.0073471535 0.023184357 -0.0391819
0.032030683 0.06277426 0.06590803 0.08132682 0.030846158 0.0841894 -0.05734179 -0.0136615755
0.0056584883 0.032882277 -0.005814598 0.05172271 -0.0036476434 -0.051996857 0.041507296 -0.02283849
0.0027067007 -0.035815123 0.03202375 -0.01626672 -0.0014243504 -0.034869254 -0.018126192 -0.003405741
0.0056267125 -0.059631106 0.04391062 0.05466276 -0.061475664 -0.022135695 -0.078255974 -0.08100797
0.0104576135 0.03013612 -0.0048277755 0.005987554 0.049721178 -0.024275588 -0.01820579 0.055979706

network.9.weight f4 [21, 128]
00000000: 83ce a63d fca4 e03d 5c49 e0bc 6df7 a73c
00000010: bc34 473d ae2a fcbc de54 d53d a0e8 37bc
00000020: 28cb fabd 0d38 9c3c c0ec 763d 1cca 0dbe
00000030: 84f4 dabd 07d7 943c bba1 b63c 991b f73d
00000040: 26b0 b0bc 0a5e b03d 64f3 a3bd d506 cabd
00000050: e398 cf3c 834b af3d 9b08 e3bb 02cc 02be
00000060: 3358 833d 5581 c0bd b00c 4f3d 924c cdbd
00000070: b97c c0bd ff1e c9bd 43e1 36be 4cd6 29bd
00000080: 3eef 70bd 9539 f33c 64d7 0c3d c3e1 893c
00000090: 47e7 4ebd b29f fabd 17c7 0fbc 1c30 0fbe
000000a0: 8da6 adbd bade b73d dc18 a03d 19ad d4bd
000000b0: 58cd a73d e1d3 7cbb a356 02be 63b6 263d
000000c0: 8d2a 143d 838c e3bd 9429 453c 75d3 5f3c
000000d0: aa76 f6bd 354b 26bd 8010 a53d 3eca 00bd
000000e0: c1f9 03bd ff8b ae3d b7c3 04bd 69dd 2a3d
000000f0: 2ae9 df3d 65f7 babd 5049 f03d 34fd f33c
00000100: 8222 b93c def9 873d 3de8 0ebe ac38 9c3d
00000110: 418e e5bd 07f4 f5bb bd31 6abd 37d5 363d
00000120: 4ddf d03d 1a98 0cbe f10b 5fbd b972 3dbd
00000130: 4a01 503d 0294 a7bc 71a8 15be d6cb 1abd
00000140: 40d1 f8bd 4373 f0ba 962f b73d 3287 c83d
00000150: 23f9 dfbd c2fc d4bb 561c 453d 3a04 2bbc
00000160: eca9 113b 8653 05bd cee0 963d 4398 bdba
00000170: 4d19 d23d 29c8 f7bd b728 d13d bcb5 313d
00000180: d501 eb3c 5434 a83d 1073 12be 556d a43d
00000190: 6483 5b3d d105 1e3c ad01 873c e669 28bd
000001a0: d23f cdbd 828e 423c 6fad 743d 8539 4cbe
000001b0: ca29 f4bd 2386 033d c70f 093d 0975 993d
000001c0: 2075 023c 4fa3 3b3c 4860 623d c70b 733d
000001d0: fef4 8d3d 59d1 293c 57e2 d0bd a6d0 29bc
000001e0: 88a9 48bd 300a 853d 5fd9 10be 0e3b a43d
000001f0: 64ad 233d 8b27 803d a23d dabb 545b f1bb
00000200: 941c 4d3d c96f 1dbe 562a b63b 7ad6 d03c
00000210: 9492 06be fdbc 8b3d 98ca 12be d732 95bd
00000220: 9b9a 39bd d21a 4e3d 3766 a53b 165b 9d3d
00000230: d038 b83d 402f 123d 93d6 67bd c597 f9bd
00000240: 5011 d83d 0f7b ccbd af1b e63d cecf 8a3c
00000250: 072d 3fbe 2ecb e13b 1be4 c83d a93d ca3c
00000260: bdcf d4bd ba04 b6bc 488b 36bb 7926 bbbd
00000270: 34d4 b83c 0821 353b f071 ddbc dd86 ce3d
00000280: 6f8a 823d 4fbc b63d 4826 f13d bce6 3c3d
00000290: f100 953d a63b e1bd ab05 a1bd 669a 9fbd
000002a0: c72f 9d3d 0b91 9e3d b34c a73d 6818 0cbe
000002b0: 277d e1bc 3d92 86bd ba6e 21be adbb 5f3d
000002c0: fb8a d33c 7522 4c3d 564f 563d 354d 45bd
000002d0: da4c 03bd cf7c 1b3d f3ad dcbd 0888 d6bd
000002e0: 7d61 8c3d c058 333d f175 1d3d 5b0d a03d
000002f0: 530d febd ef17 bb3d 33ba 9a3a ac9d 853c
00000300: fde5 1f3c 76d2 c6bd 700a c6bd 4351 973d
00000310: 65bf cc3d 856b c1bd 3a5f 893d 088c 78bd
00000320: 9133 0cbc f3fd b7bd 9154 dd3d 9f7a 503c
00000330: 944b d8bd 6ad0 a53d f3f6 48bd ab53 debc
00000340: 38a3 5ebd 259f 613d 0f77 30bd a8d7 ecbd
00000350: b17e 97bd 5e8a d83c 93ce 2ebc 6343 793d
00000360: 51fe 8b3d e17d 0b3e 281b 043d 4c03 393d
00000370: 3850 8e3d fe4d db3d 6b2e 413d f68f bfbd
00000380: 364d cc3c 51db 503d 018c 393d 96b1 5f3d
00000390: c7bb 08bd 5978 333d 59db abbd 7074 b23d
000003a0: 7d4f a83d 10c8 cf3c 17ea 01be bd4a a4bd
000003b0: ef57 8dbd 06cf 64bc 48bc b33c 679c 70bd
000003c0: d529 be3b 5c1f a5bd 428a 10bd 8635 7c3d
000003d0: 0545 26be 5e92 663d ead6 09bc dd9f 2cbe
000003e0: 1c9d c0bd 95aa 38bd f4f2 843d 3f2b 82bd
000003f0: 2f9f e03d 09b1 603d b129 35bd 960a b5ba
0.08144858 0.10968968 -0.02737873 0.020503724 0.048634276 -0.03078207 0.10416578 -0.011224896
-0.1224578 0.019069696 0.060284376 -0.1384663 -0.10691169 0.01816894 0.022293916 0.12065811
-0.02156837 0.086116865 -0.080054075 -0.09864584 0.025341457 0.085593246 -0.006928516 -0.12773135
0.06413307 -0.09399668 0.05054921 -0.1002437 -0.09398789 -0.09820365 -0.17859368 -0.041464135
-0.05882191 0.029690543 0.0343851 0.016831284 -0.050513532 -0.12237491 -0.008775494 -0.13983196
-0.08479033 0.089780286 0.078172415 -0.10384578 0.08193463 -0.0038578438 -0.12728362 0.04070128
0.036173392 -0.11110785 0.012033839 0.013661255 -0.12034352 -0.040599067 0.08059788 -0.031442873
-0.032220606 0.08522796 -0.03241321 0.04171506 0.109331444 -0.09129218 0.11732733 0.029783823
0.022599462 0.06639455 -0.1395578 0.07627997 -0.112087734 -0.007505897 -0.05717634 0.04463693
0.10198841 -0.13729897 -0.054454748 -0.046251986 0.05078248 -0.020456318 -0.14615037 -0.03779205
-0.12149286 -0.0018344898 0.08944623 0.097914115 -0.10936191 -0.0064998576 0.048122726 -0.010438019
0.0022226525 -0.032550357 0.07367097 -0.0014464933 0.10258732 -0.120987244 0.10212844 0.043386206
0.028687397 0.08213106 -0.14301705 0.08028666 0.0535921 0.009644941 0.016480291 -0.041116618
-0.100219384 0.011874797 0.05973571 -0.19943817 -0.11922033 0.032110345 0.033462312 0.07493026
0.007962495 0.01145251 0.055267602 0.059337404 0.06931494 0.010364854 -0.10199421 -0.010364687
-0.048989803 0.06496084 -0.1414542 0.08019076 0.03996028 0.06257542 -0.0066601792 -0.0073656235
0.050076082 -0.15374674 0.005559246 0.025492895 -0.13141853 0.06823156 -0.14335096 -0.072850876
-0.04531346 0.050318547 0.0050475853 0.07683389 0.08995211 0.035689592 -0.05660112 -0.12187151
0.10550177 -0.09984409 0.11235749 0.016944792 -0.1866952 0.006890676 0.09809133 0.024687605
-0.103911854 -0.02221905 -0.0027854014 -0.091381975 0.022562124 0.0027638096 -0.027031869 0.10084317
0.0637406 0.08922636 0.1177488 0.046118483 0.0727557 -0.10997705 -0.07862409 -0.07793121
0.076751284 0.077425085 0.08168926 -0.13681185 -0.027525498 -0.065708615 -0.15764895 0.05462234
0.025823107 0.04983755 0.052321754 -0.048169333 -0.032055713 0.037960824 -0.10775366 -0.10475165
0.06854532 0.04378581 0.038442556 0.07815047 -0.12404885 0.09135424 0.0011804759 0.016310535
0.009759423 -0.09708111 -0.096699595 0.07388546 0.09997443 -0.09444336 0.06707616 -0.06068042
-0.008557216 -0.08983984 0.108071454 0.012724548 -0.105612904 0.080963925 -0.049063634 -0.027139505
-0.054354876 0.055083413 -0.043082293 -0.11564571 -0.07397211 0.026433166 -0.010669368 0.06085528
0.068356164 0.13622238 0.03225246 0.04516916 0.06948894 0.10708235 0.04716341 -0.0935363
0.02493916 0.050990406 0.045299534 0.05461272 -0.033382203 0.043815944 -0.083914466 0.08713615
0.08218286 0.025363952 -0.12686954 -0.08022068 -0.069015376 -0.013965374 0.021940365 -0.058742907
0.0058033266 -0.08062622 -0.035288103 0.06157448 -0.16237266 0.05629193 -0.008413056 -0.16857858
-0.09404966 -0.045084555 0.06491652 -0.06355905 0.10967862 0.054856334 -0.044229213 -0.0013812359

network.9.bias f4 [21]
00000000: 9fc9 3a3d 6de7 a53d f483 25bd 3ffe 50bd
00000010: ceb4 823d 10eb 9b3d d0f9 ea3c 84e1 fcbb
00000020: 803b 9cbd 9cbf a13d 574a c9bc bb92 e63c
00000030: 7003 863c e673 b53d a518 983c 0c68 823c
00000040: 33e9 9cbd 3e60 973d 3520 b8bd 278c 493d
00000050: 30de 66bc
0.045602437 0.081007816 -0.040409043 -0.051023718 0.06382142 0.07613194 0.028683573 -0.0077173132
-0.07628536 0.07897875 -0.02457158 0.028146138 0.016359061 0.088599965 0.018566439 0.015918754
-0.07661667 0.073914036 -0.08990518 0.049205925 -0.01409106
