models/NeuralNetwork-1_acc-60.57_loss-0.000003.pth (torch, 753472 bytes, 20 tensors)

network.0.weight f4 [512, 30]
-0.4509463 0.23434637 -0.058243796 -0.108890645 -0.13571577 3.684912 -3.0981207 -0.8221959
0.1672622 -0.25815833 -3.2648726 -2.110997 -0.19389044 -0.49454054 0.46242246 -0.3482615
-0.45275036 0.41296446 0.4135853 0.5585186 0.46053696 1.2041234 -0.7080446 1.0700384
0.26634583 -3.4437678 2.7352517 0.44442973 -1.9171231 -1.40097 0.039318316 -0.2387249
0.8298882 -0.5584787 -0.91898274 0.42189372 1.1400232 0.016590748 -1.2213154 -0.17348222
0.8630058 -0.77507955 -0.35933828 -1.6542344 -2.2198112 -1.1844451 -0.6003776 3.6376653
-0.14816602 0.4441092 0.57807636 0.31953716 -0.50518245 -1.2083423 -4.6353745 2.4164376
-2.1464689 -1.5428064 -1.1200422 2.5535474 -0.771902 2.3685489 0.25797957 -2.4310658
-0.07389444 0.2778745 1.0438066 0.06395327 1.5757918 1.771831 -0.85047007 -1.005513
-0.84881085 -1.5119156 0.35966462 0.69689566 -0.4819867 0.795513 -0.628384 1.5376885
-0.64173126 -2.1776578 -1.7208774 2.730896 -1.5017473 1.2059857 2.4467313 0.892429
0.6684255 1.5139639 0.42811194 -0.013726201 0.023959707 -0.23532008 0.5593307 1.0173534
-2.7762785 2.9889107 -0.22412011 0.027936982 1.524863 0.5192675 0.1916485 1.8448728
2.710973 -0.38360366 -1.2410097 0.7595983 -0.9826989 -1.3215401 -1.1658648 -0.8908631
-2.2370813 -0.7914888 1.8808073 3.2580953 -2.5764587 -0.8769193 0.78356093 0.80163604
-0.5981821 0.5096648 2.545808 -1.2009436 -1.5184118 -0.5068062 -0.48400164 -0.56333697
1.3872025 0.18753394 -0.83641404 -1.4033278 -3.0935178 0.9272595 -1.1356367 -2.341024
-2.6575239 -2.1727235 0.4287475 1.4408808 -1.0409423 0.5417461 -1.600556 1.1416026
1.4766628 0.17662153 0.88875604 0.13854995 0.53025067 1.209713 0.70030177 0.1278984
-1.0000156 0.49308565 -2.2025518 1.2702013 1.084747 0.0997185 1.2927378 -0.44079927
2.7645912 -1.5513262 -0.16363667 0.24193119 -2.3536394 -2.163433 -2.0375204 -1.0087056
-1.4318129 2.004526 0.57030743 1.1150105 -0.060479075 -2.1599965 -1.5489032 -0.21245246
0.50661886 -1.5613179 -0.91853654 3.2109585 -0.20014603 0.5525919 -2.222278 0.85370404
0.3834246 2.167352 1.8792365 -1.5839256 0.26272988 0.7355363 0.03978425 -0.029264923
-0.0025841729 -0.39778775 -1.0130442 -1.7512839 -1.4897248 1.7538115 -2.4210238 2.491337
-2.1994073 0.6050679 -0.55923426 -0.40975583 1.1337756 -1.0465913 1.053914 0.7925242
4.3540773 0.06375496 -0.8524374 0.48549148 -0.00045274367 -0.17126322 -0.043944538 0.5886123
-1.5530194 -4.2523327 0.35090172 0.43281454 0.8147329 -2.8632984 0.30205476 2.0320048
1.4943013 -0.13882777 0.21186624 -1.2227284 0.45101315 -1.7373554 -2.3905394 -0.90000784
-1.5756758 -0.43379334 -0.863906 3.2978392 1.0365131 0.26003706 0.5082019 -0.031918034
-0.7608621 0.42794293 2.1590626 -0.16562095 -0.81487375 -1.0045768 -0.75733614 -0.44265163
-1.1240029 -0.26186624 -0.02798357 -1.1475097 -0.6347625 -0.6258091 1.0490785 -2.8004193
00000000: 6fe2 e6be 7ff8 6f3e 0c91 6ebd 0f02 dfbd
00000010: 13f9 0abe 99d5 6b40 9c47 46c0 6e7b 52bf
00000020: c846 2b3e 542d 84be acf3 50c0 931a 07c0
00000030: 378b 46be 6b34 fdbe a3c2 ec3e 554f b2be
00000040: e5ce e7be 1470 d33e 74c1 d33e 13fb 0e3f
00000050: 80cb eb3e b720 9a3f 6942 35bf 05f7 883f
00000060: 7b5e 883e b166 5cc0 5d0e 2f40 4b8c e33e
00000070: 4a64 f5bf fc52 b3bf 3e0c 213d 4d74 74be
00000080: 8e73 543f 76f8 0ebf 7442 6bbf 7402 d83e
00000090: 48ec 913f 52e9 873c 1054 9cbf 53a5 31be
000000a0: f3ed 5c3f 9d6b 46bf 30fb b7be f4bd d3bf
000000b0: 6311 0ec0 e69b 97bf 59b2 19bf 82cf 6840
000000c0: d5b8 17be 4862 e33e d0fc 133f 609a a33e
000000d0: a353 01bf f6aa 9abf fd54 94c0 eaa6 1a40
000000e0: bf5f 09c0 ae7a c5bf 8b5d 8fbf 526d 2340
000000f0: 5f9b 45bf 4e96 1740 e615 843e 9596 1bc0
00000100: f855 97bd 9145 8e3e 749b 853f eff9 823d
00000110: 8cb3 c93f 5ccb e23f 68b8 59bf a6b4 80bf
00000120: ab4b 59bf 7386 c1bf f625 b83e c167 323f
00000130: f6c6 f6be bda6 4b3f c6dd 20bf fad2 c43f
00000140: 8048 24bf bf5e 0bc0 b645 dcbf 00c7 2e40
00000150: 4139 c0bf bd5d 9a3f 3f97 1c40 3a76 643f
00000160: ef1d 2b3f 92c9 c13f 7d31 db3e dce3 60bc
00000170: 2647 c43c bff7 70be 4c30 0f3f a338 823f
00000180: 8cae 31c0 504a 3f40 be7f 65be 19dc e43c
00000190: b62e c33f b7ee 043f 813f 443e cb24 ec3f
000001a0: 9580 2d40 b367 c4be 68d9 9ebf 0975 423f
000001b0: 2892 7bbf 3a28 a9bf 0f3b 95bf 9b0f 64bf
000001c0: 572c 0fc0 039f 4abf 4bbe f03f a284 5040
000001d0: b3e4 24c0 c97d 60bf 7397 483f 0538 4d3f
000001e0: 7622 19bf 6479 023f 85ee 2240 85b8 99bf
000001f0: 515b c2bf 0dbe 01bf 10cf f7be da36 10bf
00000200: da8f b13f e608 403e 3b1f 56bf 3fa0 b3bf
00000210: 32fc 45c0 e160 6d3f 8b5c 91bf 56d3 15c0
00000220: df14 2ac0 e70d 0bc0 cb84 db3e c86e b83f
00000230: 993d 85bf dfaf 0a3f 05df ccbf 0920 923f
00000240: 4903 bd3f 46dc 343e 8485 633f 0ae0 0d3e
00000250: 82be 073f e0d7 9a3f fa46 333f ccf7 023e
00000260: 8300 80bf b975 fc3e 9cf6 0cc0 f595 a23f
00000270: fdd8 8a3f 3739 cc3d 6f78 a53f 71b0 e1be
00000280: 10ef 3040 db91 c6bf 5f90 27be cfbc 773e
00000290: 07a2 16c0 b075 0ac0 bc66 02c0 441d 81bf
000002a0: a545 b7bf 274a 0040 abff 113f aab8 8e3f
000002b0: e8b8 77bd 623d 0ac0 7642 c6bf 238d 59be
000002c0: c6b1 013f 44d9 c7bf 3625 6bbf 5880 4d40
000002d0: 15f3 4cbe aa76 0d3f ce39 0ec0 598c 5a3f
000002e0: 3b50 c43e e5b5 0a40 d28a f03f 13be cabf
000002f0: 8884 863e 1b4c 3c3f cff4 223d febc efbc
00000300: 3a5b 29bb d6aa cbbe 6fab 81bf 122a e0bf
00000310: 4daf bebf e57c e03f 0ef2 1ac0 1172 1f40
00000320: 17c3 0cc0 bbe5 1a3f fa29 0fbf 84cb d1be
00000330: 8f1f 913f b4f6 85bf a7e6 863f dee2 4a3f
00000340: 9a54 8b40 f691 823d 5639 5abf 5792 f83e
00000350: 3a5e edb9 a05f 2fbe 30ff 33bd 4caf 163f
00000360: 57c9 c6bf 1c13 88c0 64a9 b33e de99 dd3e
00000370: 5692 503f 4840 37c0 eca6 9a3e 5e0c 0240
00000380: 4445 bf3f de28 0ebe 77f3 583e 5d82 9cbf
00000390: 32eb e63e a961 debf 99fe 18c0 ea66 66bf
000003a0: bfaf c9bf 291a debe f228 5dbf cc0f 5340
000003b0: 76ac 843f 9423 853e 8519 023f 7cbc 02bd
000003c0: dcc7 42bf 561b db3e 152e 0a40 8a98 29be
000003d0: 919b 50bf f995 80bf c8e0 41bf 3ca3 e2be
000003e0: 54df 8fbf 5513 86be cd3d e5bc 99e1 92bf
000003f0: cc7f 22bf 0635 20bf 3448 863f 123a 33c0

network.0.bias f4 [512]
-0.17440209 -0.1537312 -0.00049976335 -0.059507065 -0.08080271 -0.17153502 -0.13655268 -0.012514247
-0.16890077 0.08550654 -0.032824725 -0.03797811 -0.14958756 0.030423373 0.15509093 0.15567249
0.05437024 -0.17417152 0.03949268 -0.035575654 -0.1267434 -0.019703997 -0.004524902 0.015344188
0.16063567 -0.009497653 0.13246909 -0.05414391 0.014316309 -0.025459845 0.0039835125 0.045667265
-0.046309683 -0.040691707 0.060552754 -0.15191685 -0.11835749 0.17210732 -0.03560829 -0.107607886
0.08288385 0.1465742 0.07701691 0.04213776 -0.14070734 0.11264522 -0.040590063 -0.17406619
0.09586673 0.10922471 0.058008134 -0.078377664 0.16997479 0.017637908 0.1782397 0.09633611
-0.06266128 -0.12818103 0.13652012 0.027815396 -0.18002658 -0.07102359 0.1299674 0.12194436
-0.18045253 0.14033352 -0.057982445 0.07519 -0.03717759 -0.14013112 0.17537501 -0.021076297
0.057482224 0.1492451 -0.03626384 -0.12666653 -0.16742896 0.04147949 -0.091280125 -0.059472054
0.036861714 -0.08862158 0.16707128 -0.011981752 0.11945507 0.0060660667 0.1514777 -0.15228453
-0.04716276 -0.08716802 0.054901727 0.056242455 0.11853857 0.14171535 0.050520815 0.026601266
0.14886132 -0.15603654 0.036913674 -0.074687034 -0.14040814 -0.02882923 -0.102545656 -0.06895594
0.17966308 -0.10373497 0.06406644 -0.11425417 -0.07302816 -0.07952508 -0.15637422 0.11574218
-0.16156006 0.1565017 -0.14488517 0.025978936 -0.03949483 -0.17765476 0.14628497 -0.111658484
-0.16780283 -0.030278338 -0.18099646 -0.1678202 -0.014258945 0.029480701 0.15358174 -0.045293387
0.08318612 0.03191436 -0.1573791 -0.09184208 -0.10019362 0.16906123 -0.023705136 0.11351324
-0.14514558 0.008025468 -0.16472514 0.015459618 -0.08576744 0.12944552 0.016154107 -0.15674582
0.018261278 0.0034291504 0.0777566 0.11973769 -0.1171782 0.043255463 0.1288353 -0.08817013
0.07712397 0.011417288 0.053529173 0.14601718 0.036312006 -0.18060489 -0.07924413 -0.123520926
0.1383812 0.14286521 0.07036507 0.025572658 -0.041127067 0.019707162 0.06264442 0.10055772
0.14344792 -0.047616452 -0.031096859 -0.015278437 -0.06839939 -0.044198632 0.13737482 0.03706757
0.09733632 -0.06197091 -0.13247186 0.14513269 0.061862588 -0.052796148 -0.0009351063 -0.13361637
0.045678064 0.06391024 0.14577852 0.058381066 -0.10157949 -0.12761715 -0.084014736 -0.09798383
-0.054505285 0.122605115 -0.05668106 -0.02915433 -0.13255022 0.1567719 -0.09128247 -0.14505556
-0.08966526 0.14415656 0.10855785 -0.038877875 -0.11429954 0.021344418 0.14210293 -0.032688063
-0.06492748 -0.1772448 -0.09521155 -0.1607611 -0.16792782 0.083710246 0.0009755626 -0.1059184
-0.072920494 0.17205393 0.17969571 -0.11285752 -0.0905292 -0.16236456 0.050997615 -0.06764933
-0.16377728 -0.097699866 -0.026073284 -0.08314453 -0.101576224 0.0065766354 0.01456667 0.097678274
-0.040766884 -0.028761987 -0.058202077 -0.064044155 0.15754789 -0.17189464 0.09011581 0.020501303
0.0454759 -0.06205026 -0.0906712 0.10564778 0.09959174 0.1399757 0.14728291 0.09900413
-0.12159329 0.06264029 0.16603355 -0.13431108 0.047518905 0.12779042 0.06218135 -0.13860479
00000000: 7696 32be b66b 1dbe 8d02 03ba aebd 73bd
00000010: e47b a5bd e0a6 2fbe 77d4 0bbe 8e08 4dbc
00000020: 53f4 2cbe 0e1e af3d 3873 06bd ef8e 1bbd
00000030: 7b2d 19be 703a f93c 28d0 1e3e 9c68 1f3e
00000040: 54b3 5e3d 055a 32be 14c3 213d c7b7 11bd
00000050: 06c9 01be 476a a1bc a145 94bb 3066 7b3c
00000060: ad7d 243e 0b9c 1bbc faa5 073e 01c6 5dbd
00000070: f48e 6a3c 2a91 d0bc 2088 823b 990d 3b3d
00000080: 39af 3dbd 59ac 26bd 2a06 783d 1790 1bbe
00000090: 6965 f2bd e73c 303e 00da 11bd 8661 dcbd
000000a0: 02bf a93d 8c17 163e 0bbb 9d3d a598 2c3d
000000b0: 9615 10be 89b2 e63d c441 26bd 683e 32be
000000c0: c755 c43d 34b1 df3d f099 6d3d 7884 a0bd
000000d0: df0d 2e3e 607d 903c 7884 363e de4b c53d
000000e0: 8f54 80bd e341 03be eecb 0b3e 1ddd e33c
000000f0: e358 38be d174 91bd 2d16 053e f7bd f93d
00000100: 8cc8 38be 97b3 0f3e 007f 6dbd 37fd 993d
00000110: 8747 18bd 887e 0fbe 8295 333e 33a8 acbc
00000120: 7b72 6b3d b5d3 183e 6489 14bd dfb4 01be
00000130: 7f72 2bbe 66e6 293d 13f1 babd f898 73bd
00000140: 4ffc 163d 3b7f b5bd bc14 2b3e 1c4f 44bc
00000150: dca4 f43d dbc5 c63b f81c 1b3e 7af0 1bbe
00000160: bd2d 41bd 2685 b2bd a2e0 603d 7d5e 663d
00000170: 5ac4 f23d d41d 113e eaee 4e3d e6ea d93c
00000180: 1a6f 183e 0bc8 1fbe cb32 173d 84f5 98bd
00000190: 27c7 0fbe 472b ecbc 7503 d2bd c638 8dbd
000001a0: 99f9 373e 0073 d4bd 4435 833d 17fe e9bd
000001b0: ca8f 95bd 0cde a2bd 9020 20be 3c0a ed3d
000001c0: 0070 25be fb41 203e c75c 14be c7d1 d43c
000001d0: 55c5 21bd 21eb 35be bacb 153e 34ad e4bd
000001e0: 81d4 2bbe 470a f8bc 2357 39be 0fd9 2bbe
000001f0: 5a9e 69bc 8381 f13c 8844 1d3e 8f85 39bd
00000200: 7c5d aa3d a2b8 023d fd27 21be b317 bcbd
00000210: 5032 cdbd 631e 2d3e 4631 c2bc a179 e83d
00000220: 0ba1 14be 417d 033c b5ad 28be 564a 7d3c
00000230: d7a6 afbd 5e8d 043e 9e55 843c fa81 20be
00000240: ad98 953c 99bb 603b da3e 9f3d 0939 f53d
00000250: 20fb efbd a42c 313d 67ed 033e 8b92 b4bd
00000260: 2cf3 9d3d 940f 3b3c 6841 5b3d 8785 153e
00000270: e6bb 143d 7df0 38be bf4a a2bd 8af8 fcbd
00000280: cdb3 0d3e 424b 123e 901b 903d c07d d13c
00000290: db74 28bd ea70 a13c b84b 803d 35f1 cd3d
000002a0: 03e4 123e 7809 43bd d7be febc 6952 7abc
000002b0: fb14 8cbd a009 35bd fcab 0c3e 2ad4 173d
000002c0: 4458 c73d 35d5 7dbd b4a6 07be aa9d 143e
000002d0: a063 7d3d c640 58bd ec21 75ba bbd2 08be
000002e0: ec18 3b3d 5fe3 823d f746 153e fc20 6f3d
000002f0: e808 d0bd 12ae 02be eb0f acbd bfab c8bd
00000300: ef40 5fbd 6418 fb3d 662a 68bd 10d5 eebc
00000310: 3fbb 07be d088 203e 4ef2 babd 7289 14be
00000320: 6ba2 b7bd c79d 133e 9453 de3d 683e 1fbd
00000330: e115 eabd 7dda ae3c 6e83 113e ebe3 05bd
00000340: b3f8 84bd a97f 35be 46fe c2bd 8f9e 24be
00000350: 45f5 2bbe 4770 ab3d e6bc 7f3a bfeb d8bd
00000360: 5757 95bd e82e 303e 2702 383e d821 e7bd
00000370: 6067 b9bd e542 26be e0e2 503d bb8b 8abd
00000380: 3bb5 27be de16 c8bd a497 d5bc ae47 aabd
00000390: 3207 d0bd d180 d73b 0ba9 6e3c 8c0b c83d
000003a0: 2dfb 26bd 429e ebbc 4d65 6ebd 9529 83bd
000003b0: 3c54 213e 2605 30be a38e b83d 59f2 a73c
000003c0: f044 3a3d 6a28 7ebd d2b1 b9bd dd5d d83d
000003d0: c1f6 cb3d ca55 0f3e 55d1 163e adc2 ca3d
000003e0: e705 f9bd 8d49 803d b304 2a3e d888 09be
000003f0: 2fa3 423d 7edb 023e dfb1 7e3d 6aee 0dbe

network.1.weight f4 [512]
12.094184 11.300302 11.925351 11.553415 10.986391 10.9116 12.750122 11.519174
11.2674 12.196864 12.482731 11.120895 11.50706 11.706894 11.474736 10.20388
11.008984 11.485398 11.115981 11.349003 11.283136 12.218669 10.565453 10.220806
11.767466 10.745745 11.575101 11.429133 10.38327 12.607281 11.294578 12.535871
11.990902 10.356147 12.522217 12.364917 11.233844 12.368542 11.031541 10.7814245
12.083744 11.962034 10.573663 11.879193 10.477847 11.571886 11.930413 11.383869
10.393181 11.155382 11.307564 11.367392 11.29024 12.231641 11.653395 9.7800045
10.000088 11.054882 11.225363 11.723543 11.279617 12.056176 12.797435 12.806276
11.700326 11.045325 9.869504 11.790027 12.375883 10.198679 11.123516 10.410361
12.358022 12.20184 11.911652 10.775743 10.637262 10.457928 12.708151 11.038186
11.504099 11.545804 11.929769 11.172644 12.868966 10.854027 11.94556 11.283856
11.335022 11.474708 10.991311 11.550468 11.0131645 11.398653 10.928258 12.468295
11.672098 10.647186 13.12549 12.113533 10.609366 11.602185 11.189802 11.734825
11.486467 12.0047455 13.092694 11.277716 12.154264 10.803483 11.612583 12.557207
11.201303 11.602525 11.395036 11.232005 10.84966 12.4381485 11.01459 10.931235
12.94836 11.936265 10.32502 11.55025 10.179463 12.397718 11.006022 11.004301
10.930085 13.074157 10.835134 11.07284 9.722072 10.45289 10.819345 12.016492
11.216434 12.184589 10.878256 12.228064 13.265251 10.270045 10.73592 10.471694
11.872932 11.513027 11.812954 11.691967 11.389622 11.467875 10.102634 10.975299
12.096167 11.8326435 11.721176 11.384746 12.177629 11.619985 12.508081 10.198896
11.581129 10.091704 13.02984 11.653772 11.554665 11.357542 10.865597 11.593523
9.964355 12.172614 11.601478 12.796783 10.545082 10.466073 10.545638 12.495698
11.548305 10.542872 11.477828 10.628354 11.593838 12.442844 12.87055 12.093322
11.03779 11.681183 11.305538 11.18804 12.993241 11.389945 12.501909 11.109338
11.683118 10.55891 10.712584 11.835532 10.9978 11.222917 11.859874 12.652428
12.87994 10.285571 12.771783 12.780442 12.411915 11.288805 11.138687 11.822689
12.062083 10.51711 12.615952 12.067713 11.796825 12.087074 10.690563 11.32664
11.479787 12.039549 11.1957245 12.66581 12.290998 12.204416 10.63483 11.3768215
10.321309 11.849177 10.817397 11.443162 11.175646 10.40444 11.334288 11.930951
10.366147 10.974031 11.990327 10.881886 12.276674 11.0573845 12.17844 12.162625
11.975731 11.993971 12.101821 10.570945 10.910504 12.291024 9.793032 10.109528
12.271757 11.41928 12.2938385 12.825842 10.152142 12.188055 10.378806 11.666907
00000000: c781 4141 09ce 3441 3dce 3e41 cada 3841
00000010: 42c8 2f41 ea95 2e41 8000 4c41 894e 3841
00000020: 4547 3441 5b26 4341 44b9 4741 30ef 3141
00000030: eb1c 3841 704f 3b41 8598 3741 1843 2341
00000040: cc24 3041 31c4 3741 0fdb 3141 8495 3541
00000050: ba87 3441 ab7f 4341 180c 2941 6c88 2341
00000060: 8a47 3c41 92ee 2b41 9d33 3941 bbdd 3641
00000070: e021 2641 6cb7 4941 97b6 3441 ed92 4841
00000080: bcda 3f41 c7b2 2541 005b 4841 b3d6 4541
00000090: d3bd 3341 8ce5 4541 3181 3041 b780 2c41
000000a0: 0457 4141 7e64 3f41 b92d 2941 2d11 3e41
000000b0: 43a5 2741 7226 3941 f9e2 3e41 5424 3641
000000c0: 784a 2641 727c 3241 c8eb 3441 d6e0 3541
000000d0: d3a4 3441 cdb4 4341 4e74 3a41 e67a 1c41
000000e0: 5c00 2041 cce0 3041 169b 3341 a293 3b41
000000f0: 5079 3441 19e6 4041 4bc2 4c41 82e6 4c41
00000100: 8934 3b41 a7b9 3041 7de9 1d41 f3a3 3c41
00000110: 9e03 4641 ca2d 2341 ecf9 3141 d790 2641
00000120: 75ba 4541 bd3a 4341 2096 3e41 7169 2c41
00000130: 3a32 2a41 ac53 2741 9654 4b41 699c 3041
00000140: ca10 3841 9dbb 3841 55e0 3e41 26c3 3241
00000150: 49e7 4d41 18aa 2d41 0421 3f41 ad8a 3441
00000160: 405c 3541 6798 3741 69dc 2f41 b8ce 3841
00000170: ec35 3041 e260 3641 25da 2e41 237e 4741
00000180: eac0 3a41 e05a 2a41 0202 5241 08d1 4141
00000190: f7bf 2941 8da2 3941 6e09 3341 d8c1 3b41
000001a0: 92c8 3741 7013 4041 ad7b 5141 8671 3441
000001b0: de77 4241 11db 2c41 24cd 3941 52ea 4841
000001c0: 8938 3341 f1a3 3941 1152 3641 4bb6 3341
000001d0: 3598 2d41 a802 4741 c33b 3041 57e6 2e41
000001e0: 7c2c 4f41 f1fa 3e41 4833 2541 d3cd 3841
000001f0: 15df 2241 0e5d 4641 ab18 3041 9e11 3041
00000200: a1e1 2e41 bf2f 5141 b55c 2d41 5a2a 3141
00000210: 9b8d 1b41 0a3f 2741 0a1c 2d41 8d43 4041
00000220: 8376 3341 14f4 4241 560d 2e41 26a6 4341
00000230: 783e 5441 1b52 2441 54c6 2b41 0f8c 2741
00000240: 88f7 3d41 5c35 3841 dc01 3d41 4c12 3b41
00000250: e43b 3641 6a7c 3741 64a4 2141 d39a 2f41
00000260: e689 4141 8252 3d41 f089 3b41 eb27 3641
00000270: 92d7 4241 75eb 3941 1a21 4841 ae2e 2341
00000280: 4e4c 3941 9f77 2141 3a7a 5041 da75 3a41
00000290: e8df 3841 7eb8 3541 7cd9 2d41 127f 3941
000002a0: 006e 1f41 07c3 4241 a79f 3941 a0bf 4c41
000002b0: a8b8 2841 0975 2741 efba 2841 61ee 4741
000002c0: dbc5 3841 9baf 2841 2fa5 3741 bd0d 2a41
000002d0: 5c80 3941 e415 4741 c6ed 4d41 3f7e 4141
000002e0: ca9a 3041 20e6 3a41 7ce3 3441 3602 3341
000002f0: 51e4 4f41 373d 3641 d207 4841 d9bf 3141
00000300: 0dee 3a41 4cf1 2841 be66 2b41 575e 3d41
00000310: fdf6 2f41 1191 3341 0bc2 3d41 5870 4a41
00000320: 3c14 4e41 b391 2441 3959 4c41 b17c 4c41
00000330: 3497 4641 f29e 3441 1038 3241 bc29 3d41
00000340: 4bfe 4041 1546 2841 f0da 4941 5a15 4141
00000350: ccbf 3c41 a864 4141 8c0c 2b41 eb39 3541
00000360: 35ad 3741 fea1 4041 b021 3341 28a7 4a41
00000370: eea7 4441 4a45 4341 4428 2a41 7607 3641
00000380: 1524 2541 3b96 3d41 0f14 2d41 3117 3741
00000390: 72cf 3241 9678 2641 3e59 3541 2de5 3e41
000003a0: bddb 2541 a295 2f41 61d8 3f41 341c 2e41
000003b0: 426d 4441 0ceb 3041 e4da 4241 1d9a 4241
000003c0: 989c 3f41 4ee7 3f41 0fa1 4141 9722 2941
000003d0: 6d91 2e41 09a8 4441 42b0 1c41 a0c0 2141
000003e0: 1e59 4441 5fb5 3641 90b3 4441 a636 4d41
000003f0: 2c6f 2241 4602 4341 970f 2641 a7ab 3a41

network.1.bias f4 [512]
-4.338673 -2.3730085 -5.709646 -5.8630195 -5.980106 -6.722325 -4.269603 -6.300022
-5.244786 -6.35069 -6.4784803 -4.2447233 -6.4641266 -7.1012635 -6.8172164 -5.9871025
-6.894349 -6.0535345 -6.388253 -6.596628 -7.2889247 -7.6198397 -6.991957 -7.434558
-6.4389873 -5.3292613 -4.0500755 -7.186415 -3.5111048 -6.4199843 -5.617128 -7.846048
-5.7110434 -6.1204224 -7.660198 -5.873425 -8.002186 -6.948604 -7.16524 -6.539897
-5.5856657 -6.0439744 -7.1552925 -3.9013014 -7.6767845 -4.7930512 -7.007686 -5.5981503
-6.7329803 -2.4595332 -7.376229 -5.6305237 -7.6303167 -6.1381993 -3.163533 -1.7145939
-4.3458424 -7.237062 -6.8868184 -3.643178 -5.441848 -4.8479686 -7.5275025 -7.4454484
-7.0295305 -8.097248 -6.3159103 -4.7560596 -7.700818 -6.975715 -7.3341684 -4.302127
-3.6125426 -5.717039 -7.086981 -3.4282699 -6.918387 -7.5874805 -4.962719 -7.05364
-6.682186 -6.454356 -5.0425906 -4.400276 -6.661355 -7.138679 -6.9663844 -5.803929
-6.4443827 -6.3689237 -5.9575896 -7.0780015 -7.435701 -5.245979 -6.0820932 -4.07886
-6.45986 -3.1142142 -8.224842 -2.2109685 -5.875716 -7.265227 -8.063054 -5.666173
-7.272459 -6.029308 -7.0079155 -3.885656 -6.8320713 -7.409618 -7.9373116 -6.378854
-5.6298637 -6.0070887 -7.2416677 -7.2841144 -8.35048 -5.0151086 -6.899344 -5.1780486
-7.972616 -7.2122827 -4.0219793 -3.5399523 -5.387402 -6.0617185 -5.7487097 -4.3996005
-7.082275 -5.712216 -6.693139 -5.2867866 -7.5817513 -4.071633 -6.037156 -7.3575606
-8.557775 -6.4652505 -4.7737336 -7.4091296 -5.67849 -5.33209 -4.8352227 -2.7402265
-7.031803 -5.891356 -5.9206333 -5.6282644 -5.116985 -6.7842317 -5.2263465 -6.389819
-7.3252726 -7.10619 -7.9979987 -5.021547 -5.375695 -7.3220043 -6.7404504 -4.4760423
-5.2362747 -3.6327796 -8.247442 -4.4417596 -5.2099137 -7.376119 -5.658148 -5.579883
-4.0579066 -6.4878554 -7.62669 -5.700656 -6.6224103 -6.3895802 -5.7042418 -5.412948
-6.411263 -6.6206384 -7.0858965 -5.593475 -5.2446127 -7.527599 -6.738762 -7.229302
-5.1445227 -7.2912674 -6.1471887 -5.207296 -4.001238 -5.4593077 -5.1519604 -5.1493278
-6.448316 -4.748714 -6.614386 -7.093402 -5.9778514 -6.4951167 -7.693858 -4.1483593
-5.3630247 -0.82434505 -5.159856 -5.7090926 -5.408853 -5.550865 -3.1179714 -6.8198185
-5.4092183 -3.556425 -8.700532 -6.2356195 -4.772812 -7.6810026 -8.417523 -5.915107
-5.242852 -6.338999 -4.5813546 -4.2755175 -7.705269 -7.8952565 -5.8851385 -7.6505613
-7.7617016 -5.683478 -6.966554 -5.466339 -6.073632 -5.7776523 -4.680653 -8.082847
-4.166584 -7.1664658 -7.594911 -3.2249873 -4.270615 -4.89255 -5.2213345 -5.7742944
-4.33611 -6.058552 -5.274955 -5.3116813 -3.5372036 -5.7210736 -3.7842045 -2.7432945
-5.6982923 -7.9943566 -3.7261548 -8.042516 -5.944389 -6.7583823 -6.570456 -5.5267506
00000000: 69d6 8ac0 5fdf 17c0 6cb5 b6c0 db9d bbc0
00000010: 075d bfc0 491d d7c0 96a0 88c0 c899 c9c0
00000020: 49d5 a7c0 da38 cbc0 b64f cfc0 c6d4 87c0
00000030: 20da cec0 8d3d e3c0 a326 dac0 5896 bfc0
00000040: 829e dcc0 8eb6 c1c0 926c ccc0 9417 d3c0
00000050: df3e e9c0 bad5 f3c0 1dbe dfc0 e6e7 edc0
00000060: 2f0c cec0 4f89 aac0 389a 81c0 1df7 e5c0
00000070: f1b5 60c0 8370 cdc0 83bf b3c0 d312 fbc0
00000080: dec0 b6c0 80da c3c0 5820 f5c0 19f3 bbc0
00000090: f408 00c1 f75a dec0 a549 e5c0 d646 d1c0
000000a0: c6bd b2c0 3d68 c1c0 28f8 e4c0 ecae 79c0
000000b0: 38a8 f5c0 ad60 99c0 f73e e0c0 0c24 b3c0
000000c0: 9374 d7c0 fe68 1dc0 110a ecc0 402d b4c0
000000d0: 8e2b f4c0 216c c4c0 5377 4ac0 d077 dbbf
000000e0: 2411 8bc0 0396 e7c0 d160 dcc0 d429 69c0
000000f0: 9e23 aec0 8f22 9bc0 4de1 f0c0 1d41 eec0
00000100: eaf1 e0c0 548e 01c1 f01b cac0 a431 98c0
00000110: 1a6d f6c0 0f39 dfc0 82b1 eac0 06ab 89c0
00000120: e633 67c0 fcf1 b6c0 8cc8 e2c0 c668 5bc0
00000130: 6d63 ddc0 a4cc f2c0 98ce 9ec0 6bb7 e1c0
00000140: 78d4 d5c0 168a cec0 e75c a1c0 10cf 8cc0
00000150: d229 d5c0 0f70 e4c0 9fec dec0 c9b9 b9c0
00000160: 6238 cec0 39ce cbc0 93a4 bec0 fd7e e2c0
00000170: 43f1 edc0 0fdf a7c0 82a0 c2c0 0586 82c0
00000180: 2cb7 cec0 494f 47c0 f498 03c1 8280 0dc0
00000190: de05 bcc0 bd7c e8c0 4502 01c1 4a51 b5c0
000001a0: fcb7 e8c0 17f0 c0c0 d840 e0c0 97ae 78c0
000001b0: 54a0 dac0 971b edc0 75fe fdc0 921f ccc0
000001c0: d827 b4c0 123a c0c0 bebb e7c0 7717 e9c0
000001d0: 919b 05c1 c57b a0c0 6dc7 dcc0 93b2 a5c0
000001e0: ac1f ffc0 05cb e6c0 0eb4 80c0 948e 62c0
000001f0: 9965 acc0 99f9 c1c0 6ef5 b7c0 87c9 8cc0
00000200: ffa1 e2c0 79ca b6c0 322e d6c0 5b2d a9c0
00000210: b59d f2c0 d14a 82c0 6230 c1c0 2371 ebc0
00000220: a5ec 08c1 55e3 cec0 6dc2 98c0 9717 edc0
00000230: 31b6 b5c0 7ba0 aac0 25ba 9ac0 df5f 2fc0
00000240: 8804 e1c0 fd85 bcc0 d475 bdc0 be1a b4c0
00000250: 57be a3c0 6d18 d9c0 3b3e a7c0 6679 ccc0
00000260: a268 eac0 e965 e3c0 9bef ffc0 83b0 a0c0
00000270: b205 acc0 dc4d eac0 c5b1 d7c0 bd3b 8fc0
00000280: 908f a7c0 767f 68c0 86f5 03c1 e522 8ec0
00000290: 9db7 a6c0 2b09 ecc0 8c0f b5c0 678e b2c0
000002a0: 5fda 81c0 839c cfc0 d80d f4c0 c66b b6c0
000002b0: c9ea d3c0 7177 ccc0 2689 b6c0 df36 adc0
000002c0: 1129 cdc0 45dc d3c0 aabf e2c0 bffd b2c0
000002d0: ded3 a7c0 17e2 f0c0 f0a3 d7c0 7156 e7c0
000002e0: ee9f a4c0 1052 e9c0 c5b5 c4c0 2ba2 a6c0
000002f0: 240a 80c0 a6b2 aec0 dcdc a4c0 4bc7 a4c0
00000300: 9b58 cec0 77f5 97c0 0da9 d3c0 26fd e2c0
00000310: 8f4a bfc0 ffd7 cfc0 1634 f6c0 5cbf 84c0
00000320: e69d abc0 4708 53bf 8a1d a5c0 e3b0 b6c0
00000330: 5315 adc0 b0a0 b1c0 d88c 47c0 f43b dac0
00000340: 5118 adc0 789c 63c0 6135 0bc1 328a c7c0
00000350: e0ba 98c0 c6ca f5c0 2dae 06c1 8e48 bdc0
00000360: 72c5 a7c0 14d9 cac0 759a 92c0 0ad1 88c0
00000370: 9091 f6c0 f1a5 fcc0 0e53 bcc0 66d1 f4c0
00000380: dc5f f8c0 0ddf b5c0 03ee dec0 40ec aec0
00000390: 315b c2c0 87e2 b8c0 e9c7 95c0 5753 01c1
000003a0: a854 85c0 b053 e5c0 8309 f3c0 3166 4ec0
000003b0: e1a8 88c0 c58f 9cc0 2c15 a7c0 05c7 b8c0
000003c0: 6ac1 8ac0 a8df c1c0 6ecc a8c0 4bf9 a9c0
000003d0: 8b61 62c0 0913 b7c0 6830 72c0 2392 2fc0
000003e0: 6958 b6c0 c5d1 ffc0 5279 6ec0 25ae 00c1
000003f0: 6f38 bec0 ab44 d8c0 2d41 d2c0 24db b0c0

network.1.running_mean f4 [512]
-0.12751915 -0.3476321 0.9654326 -0.33680022 0.6518191 0.23235245 -0.08790496 0.6732892
-0.6063484 -1.1726062 0.8300537 0.69479036 0.35664636 -0.49709046 0.13787125 0.20444636
-0.4410417 -0.49761516 0.79528385 0.594514 -0.33671317 -0.73327994 -0.39731288 -0.2587498
0.2634647 -0.14417905 0.17928073 0.4980392 0.14061944 -0.84051615 -0.58336115 0.38796213
0.3247586 -0.42426687 -0.61583203 -0.11696438 -0.47115597 1.4395051 -0.62671375 -1.5605999
-0.5511665 -0.683707 -0.31428808 -0.2905693 -0.11090578 -0.128246 -0.7352629 0.15613918
0.86590534 -0.07907316 0.15805186 0.19283044 0.75110847 0.14289336 -0.25696874 0.28721982
0.2553516 -1.1011263 0.94850045 0.23610276 0.20405158 -0.03963083 0.7997179 -0.009378888
-0.5118554 -0.40011072 -0.4997033 0.15128855 0.2808313 -0.044819385 -0.6750012 0.69321084
0.009923816 0.07359871 0.65758866 0.25431493 0.49765623 0.6974292 0.20637381 -0.46789074
0.61704916 0.30717754 -0.3748418 0.30791554 0.094031036 0.14325255 -0.5797881 0.14801261
-0.32868555 0.08252543 -0.5793481 0.085718155 0.81390834 0.4650689 0.2882907 0.15548319
0.22069487 -0.13770689 0.70671767 0.09184305 -0.03265416 -1.2345014 0.007898718 0.2817738
-0.52209395 0.5696592 0.3420844 -0.42824692 -0.526567 -0.6310414 -0.5792233 0.03808859
-0.46139562 0.05716476 -0.0008458793 -0.091128424 0.19155535 -0.73277414 -0.02267611 0.45796987
-0.18212233 -0.5555329 0.62153804 -0.39662087 0.8422921 -0.40004268 -0.34496662 0.20320053
0.6225892 0.24309352 -0.7725086 0.020223409 0.33067408 0.14478604 -0.5488489 -0.09324224
-1.1529464 -0.5506264 -0.49174428 0.4729312 0.06311933 0.120463476 -0.2332041 -0.26510602
-0.27897367 -0.06347147 -0.97437334 -0.094703645 -0.5553706 0.33934343 0.18450674 -0.51375556
-0.30370143 -0.2828892 0.7987268 0.9903421 -0.6498219 -0.32612994 -0.6802771 -0.53246933
0.18564437 -0.7958329 -0.18479209 0.10879184 -0.36949682 0.060854048 -0.22523093 -0.23859376
-0.3385085 -0.2602646 -0.27534783 -0.065402485 -0.57851404 0.3593163 -0.3740108 -0.19955489
0.3458737 -0.2811903 -0.5424085 -0.08997512 -1.0734079 0.9429544 0.017816033 0.8343938
0.22850865 0.48036537 -0.7134813 0.13435763 -0.0050304756 -0.19415565 0.2631745 0.054244503
0.25247645 0.69226444 -0.068994835 0.6058528 -0.89534146 -0.03537005 0.3382362 -0.2874967
0.09543535 0.15813449 0.3309521 -0.7839137 0.6792237 -1.1318927 -0.09795259 -0.19601583
0.09512827 0.48828194 0.9684073 -0.47477722 0.14806247 0.24600753 0.022947222 -0.42681944
-0.18626904 0.08201285 0.1668529 -0.37606373 -0.73186725 0.21100649 -0.43743718 -0.4381898
-0.1814972 0.11009924 0.18812928 0.47458184 0.32027203 0.2600193 -0.2628214 -0.57596713
0.9511767 -0.7885227 0.49566558 0.10829204 0.18920743 -0.7340327 -0.4119915 0.29731596
0.47392428 -0.32703066 -0.7124687 0.5019313 0.55518377 -0.45668247 0.2904525 0.75127745
0.12534519 0.4537236 0.4158221 -0.5812725 -0.23312886 0.17359623 0.36577463 -0.70724654
00000000: 6194 02be d6fc b1be 9726 773f 1471 acbe
00000010: 9edd 263f cded 6d3e 8407 b4bd ae5c 2c3f
00000020: a639 1bbf f617 96bf 667e 543f c8dd 313f
00000030: 5a9a b63e a482 febe 1f2e 0d3e 635a 513e
00000040: 38d0 e1be 6ac7 febe b997 4b3f 1232 183f
00000050: ab65 acbe 3cb8 3bbf 986c cbbe db7a 84be
00000060: d8e4 863e aca3 13be 5e95 373e fefe fe3e
00000070: 8bfe 0f3e 112c 57bf 2857 15bf f9a2 c63e
00000080: c246 a63e 8239 d9be 2ba7 1dbf 058b efbd
00000090: 5b3b f1be b441 b83f 5070 20bf bdc1 c7bf
000000a0: 3f19 0dbf 6c07 2fbf 5eea a0be 80c5 94be
000000b0: 9222 e3bd eb52 03be 303a 3cbf f3e2 1f3e
000000c0: f9ab 5d3f 1cf1 a1bd 59d8 213e 5875 453e
000000d0: a548 403f a352 123e 6891 83be 7a0e 933e
000000e0: 72bd 823e b5f1 8cbf edd0 723f ecc4 713e
000000f0: e6f2 503e f053 22bd 50ba 4c3f e8a9 19bc
00000100: f508 03bf 50db ccbe 1cd9 ffbe 63eb 1a3e
00000110: 1fc9 8f3e 8894 37bd e1cc 2cbf 4476 313f
00000120: 8097 223c ecba 963d bb57 283f 9135 823e
00000130: cccc fe3e b88a 323f a853 533e 608f efbe
00000140: eff6 1d3f 6046 9d3e 44eb bfbe 1ba7 9d3e
00000150: 5893 c03d ccb0 123e fe6c 14bf 9e90 173e
00000160: 7949 a8be 1803 a93d 2850 14bf 008d af3d
00000170: 4c5c 503f 831d ee3e d79a 933e fc36 1f3e
00000180: d6fd 613e 0903 0dbe 73eb 343f 3618 bc3d
00000190: 5ec0 05bd 2404 9ebf a069 013c a844 903e
000001a0: f3a7 05bf 2fd5 113f b025 af3e 2e43 dbbe
000001b0: 18cd 06bf ee8b 21bf fa47 14bf c802 1c3d
000001c0: 0c3c ecbe 9825 6a3d 00be 5dba 8aa1 babd
000001d0: 1627 443e 1697 3bbf 40c3 b9bc 077b ea3e
000001e0: 477e 3abe 6737 0ebf 1e1d 1f3f e411 cbbe
000001f0: 74a0 573f 65d2 ccbe 779f b0be cd13 503e
00000200: 0162 1f3f 82ed 783e 20c3 45bf 90ab a53c
00000210: 1d4e a93e cb42 143e 5d81 0cbf caf5 bebd
00000220: bf93 93bf daf5 0cbf e8c5 fbbe 0a24 f23e
00000230: b544 813d 8eb5 f63d 0ecd 6ebe fabb 87be
00000240: a3d5 8ebe 54fd 81bd 8870 79bf fcf3 c1bd
00000250: c52c 0ebf 6cbe ad3e 56ef 3c3e 7c85 03bf
00000260: c17e 9bbe dad6 90be 5c79 4c3f 0f87 7d3f
00000270: ba5a 26bf 81fa a6be a426 2ebf e94f 08bf
00000280: 8f19 3e3e b4bb 4bbf 233a 3dbe 42ce de3d
00000290: b02e bdbe 1842 793d f0a2 66be ec51 74be
000002a0: fc50 adbe 6741 85be 64fa 8cbe bdf1 85bd
000002b0: 7f19 14bf 4ef8 b73e 587e bfbe 1e58 4cbe
000002c0: 5c16 b13e 2df8 8fbe 49db 0abf e044 b8bd
000002d0: 6e65 89bf 7665 713f eef2 913c d59a 553f
000002e0: 2cfe 693e 73f2 f53e b6a6 36bf 0c95 093e
000002f0: b0d6 a4bb bdd0 46be cfbe 863e 7c2f 5e3d
00000300: 9844 813e 3e38 313f 2a4d 8dbd 2b19 1b3f
00000310: 1935 65bf 30e0 10bd 4c2d ad3e c432 93be
00000320: 9c73 c33d 02ee 213e 8e72 a93e 91ae 48bf
00000330: 9be1 2d3f dce1 90bf 5e9b c8bd 60b8 48be
00000340: 9cd2 c23d 1700 fa3e 8ae9 773f 0016 f3be
00000350: b09d 173e 66e9 7b3e d0fb bb3c 1488 dabe
00000360: 50bd 3ebe 5af6 a73d 7ddb 2a3e 6d8b c0be
00000370: a75b 3bbf 1612 583e c4f7 dfbe 6a5a e0be
00000380: 67da 39be b67b e13d f6a4 403e 64fc f23e
00000390: b2fa a33e 4021 853e 8790 86be 9572 13bf
000003a0: 5180 733f a0dc 49bf e1c7 fd3e 38c8 dd3d
000003b0: 98bf 413e 91e9 3bbf 8df0 d2be cc39 983e
000003c0: 34a6 f23e 9070 a7be 5964 36bf 927e 003f
000003d0: 8620 0e3f 49d2 e9be 31b6 943e b853 403f
000003e0: 7d5a 003e 764e e83e a2e6 d43e 46ce 14bf
000003f0: 55b9 6ebe 36c3 313e d046 bb3e 1c0e 35bf

network.1.running_var f4 [512]
957.2435 725.0103 1277.699 829.2443 1059.2905 923.20215 919.08325 954.41266
873.05383 1028.204 693.21277 987.2847 958.42633 1072.051 1040.955 742.7545
1256.273 906.7751 892.5564 1115.6973 809.5577 1007.842 874.49 1158.0995
918.265 1046.5645 931.751 849.68304 901.4556 952.53375 913.44275 993.169
1077.8699 858.5244 1027.4104 755.2339 821.07196 1180.854 992.8392 1196.2771
1027.3102 865.84143 1263.608 767.05194 720.13184 1280.0404 1061.3439 812.4594
1072.9236 954.9195 1068.2373 833.54755 907.70325 1475.7665 993.7802 1041.8092
856.1819 1283.243 1036.6221 969.02124 1011.6338 838.2371 998.2728 1232.5671
994.2615 1063.4467 860.0164 1018.2057 745.8564 1513.957 1464.1373 1049.269
958.3347 784.69336 1329.0105 902.80896 1007.0585 962.6014 888.5337 856.563
1128.8834 915.9303 907.2393 746.1222 1343.9465 851.8852 861.34424 906.4646
724.7251 1056.8959 1098.456 723.53906 1218.692 772.07135 874.31494 889.2424
1247.5529 977.2014 869.1778 953.35455 748.2787 1134.8861 1236.3666 982.5962
929.63257 671.7317 879.5647 1090.3495 941.9727 1115.5405 1081.7739 1249.4756
822.55096 841.37305 975.5131 1024.5852 921.99664 914.3411 771.2299 812.4934
840.9609 1076.7386 1140.7112 885.3592 1042.8524 959.8575 876.46967 1050.6906
1006.0257 1192.5111 965.43024 1080.012 762.8289 904.3703 730.7399 1047.796
989.0734 1034.3044 1185.1583 821.3757 1030.8107 822.0643 897.54553 989.95917
1071.9967 933.5523 1160.7401 814.9542 1004.6842 971.61383 897.32446 830.4188
1495.3468 866.6357 821.39606 1010.0887 954.80804 943.5415 761.9602 1628.612
951.3972 809.46387 1014.4861 792.708 800.8383 819.5761 873.4164 1007.3249
996.5626 821.06213 1070.2146 873.7955 886.9164 819.37164 1235.3984 887.0669
983.7053 1262.9082 692.43744 1030.6029 921.14764 999.2976 1712.4119 942.80457
1089.6232 800.1849 907.7428 1019.29407 920.3644 1066.9323 1121.6552 861.1924
891.39294 930.8755 1124.1913 941.1004 1035.1722 863.3423 1054.4045 1032.7885
1120.4412 1181.9493 990.8581 942.5541 967.14465 1364.509 749.63635 1022.2136
955.3823 755.798 1309.5138 1342.1528 1113.4622 890.4107 1189.8345 753.29596
1004.4637 945.5252 1007.04443 1055.7308 1057.243 968.5164 1161.4332 1005.4888
962.7209 930.55145 1062.58 944.32965 944.2135 995.8289 1059.3589 1098.1615
799.1533 1230.65 1094.3934 922.3188 905.6987 777.6756 1093.9772 927.98047
958.23846 1221.4984 1354.7828 1188.0037 865.04614 873.2262 1190.4067 860.2032
1093.0786 893.4164 1036.7961 826.1328 1090.0225 959.8978 1084.6129 825.72363
00000000: 964f 6f44 a940 3544 5eb6 9f44 a34f 4f44
00000010: 4c69 8444 f0cc 6644 54c5 6544 699a 6e44
00000020: 7243 5a44 8786 8044 9e4d 2d44 39d2 7644
00000030: 499b 6f44 a201 8644 8f1e 8244 4ab0 3944
00000040: bc08 9d44 9bb1 6244 9c23 5f44 5076 8b44
00000050: b163 4a44 e3f5 7b44 5c9f 5a44 2fc3 9044
00000060: f690 6544 10d2 8244 10f0 6844 b76b 5444
00000070: 295d 6144 2922 6e44 565c 6444 d14a 7844
00000080: d6bb 8644 90a1 5644 226d 8044 f8ce 3c44
00000090: 9b44 4d44 549b 9344 b535 7844 de88 9544
000000a0: ed69 8044 da75 5844 75f3 9d44 53c3 3f44
000000b0: 7008 3444 4b01 a044 01ab 8444 671d 4b44
000000c0: 8e1d 8644 d9ba 6e44 9887 8544 0b63 5044
000000d0: 02ed 6244 8778 b844 ef71 7844 e539 8244
000000e0: a40b 5644 c767 a044 e893 8144 5c41 7244
000000f0: 90e8 7c44 2d8f 5144 7691 7944 2612 9a44
00000100: bc90 7844 4bee 8444 0d01 5744 2a8d 7e44
00000110: cf76 3a44 a03e bd44 6504 b744 9c28 8344
00000120: 6c95 6f44 602c 4444 5620 a644 c6b3 6144
00000130: bec3 7b44 7da6 7044 2822 5e44 0824 5644
00000140: 451c 8d44 8afb 6444 51cf 6244 d287 3a44
00000150: 4afe a744 a7f8 5444 0856 5744 bc9d 6244
00000160: 682e 3544 ab1c 8444 984e 8944 80e2 3444
00000170: 2556 9844 9104 4144 2894 5a44 834f 5e44
00000180: b1f1 9b44 e44c 7444 614b 5944 b156 6e44
00000190: d611 3b44 5bdc 8d44 bb8b 9a44 28a6 7544
000001a0: 7c68 6844 d4ee 2744 24e4 5b44 2f4b 8844
000001b0: 417e 6b44 4c71 8b44 c438 8744 382f 9c44
000001c0: 43a3 4d44 e057 5244 d7e0 7344 ba12 8044
000001d0: c97f 6644 d595 6444 b7ce 4044 941f 4b44
000001e0: 7f3d 5244 a397 8644 c296 8e44 fd56 5d44
000001f0: 475b 8244 e1f6 6f44 0f1e 5b44 1956 8344
00000200: a581 7b44 5b10 9544 895b 7144 6200 8744
00000210: 0db5 3e44 b317 6244 5baf 3644 79f9 8244
00000220: b344 7744 be49 8144 1125 9444 0b58 4d44
00000230: f1d9 8044 1d84 4d44 ea62 6044 637d 7744
00000240: e5ff 8544 5963 6944 af17 9144 12bd 4b44
00000250: ca2b 7b44 49e7 7244 c454 6044 ce9a 4f44
00000260: 19eb ba44 afa8 5844 5959 4d44 ad85 7c44
00000270: b7b3 6e44 a8e2 6b44 747d 3e44 9693 cb44
00000280: 6cd9 6d44 b05d 4a44 1c9f 7d44 502d 4644
00000290: a735 4844 dfe4 4c44 a65a 5a44 cbd4 7b44
000002a0: 0224 7944 fa43 4d44 dec6 8544 e972 5a44
000002b0: a6ba 5d44 c9d7 4c44 c06c 9a44 48c4 5d44
000002c0: 24ed 7544 10dd 9d44 ff1b 2d44 4bd3 8044
000002d0: 7349 6644 0cd3 7944 2e0d d644 7eb3 6b44
000002e0: f133 8844 d50b 4844 8aef 6244 d2d2 7e44
000002f0: 5217 6644 d55d 8544 f734 8c44 504c 5744
00000300: 26d9 5e44 08b8 6844 1f86 8c44 6d46 6b44
00000310: 8365 8144 e8d5 5744 f2cc 8344 3b19 8144
00000320: 1e0e 8c44 61be 9344 ebb6 7744 76a3 6b44
00000330: 42c9 7144 4a90 aa44 ba68 3b44 ac8d 7f44
00000340: 78d8 6e44 12f3 3c44 71b0 a344 e4c4 a744
00000350: ca2e 8b44 499a 5e44 b4ba 9444 f152 3c44
00000360: ad1d 7b44 9d61 6c44 d8c2 7b44 63f7 8344
00000370: c727 8444 0d21 7244 dd2d 9144 485f 7b44
00000380: 23ae 7044 4ba3 6844 8fd2 8444 1915 6c44
00000390: aa0d 6c44 0df5 7844 7c6b 8444 2b45 8944
000003a0: d0c9 4744 cdd4 9944 97cc 8844 6794 6644
000003b0: b86c 6244 3d6b 4244 45bf 8844 c0fe 6744
000003c0: 438f 6f44 f3af 9844 0d59 a944 1e80 9444
000003d0: f442 5844 7a4e 5a44 04cd 9444 010d 5744
000003e0: 84a2 8844 a65a 5f44 7a99 8144 8088 4e44
000003f0: b840 8844 76f9 6f44 9d93 8744 506e 4e44

network.4.weight f4 [256, 512]
1.4148004 -0.085799746 -0.014239756 0.45175377 -0.7793642 -2.4734814 -0.5616155 1.1397537
0.8124346 2.9434597 -1.0945697 -1.0037621 0.82368416 -2.8194773 -1.8914454 0.6647584
0.56993663 1.3112122 1.9814973 1.8329813 -1.4648073 -2.7555602 0.38531813 1.0211506
0.205872 2.0653236 0.2463271 -1.7860775 0.8057716 0.5041811 0.6029983 0.8283781
-0.23188064 -0.5012707 -1.1139778 -0.06933555 0.9992637 1.1701974 1.7599605 0.46177122
0.12522964 1.9404867 0.8231157 0.7886823 1.2373837 -0.48315626 -0.8941665 -1.5914768
-2.711793 -0.43165898 -0.017246414 -1.4472699 -2.5428543 -0.23808749 -2.134461 -0.3089942
-0.42582512 0.098114 2.139507 -0.74468756 -1.1578561 -0.821106 0.08056647 -0.059581198
1.7286558 0.055379763 0.5437755 0.7126997 -0.79458165 1.3827649 -0.27973 -1.6974223
1.0871328 1.1322349 -0.2878508 0.24838576 -0.77792567 1.3641964 0.028210588 -2.2523336
2.0116084 0.136649 -1.3534313 0.45607886 -1.576497 -0.30347815 0.225459 -0.7997373
0.8279761 0.013177789 1.2288866 0.37591898 1.9107649 -0.022383587 -0.9905416 -2.6203709
1.4250389 0.6102359 -0.54122716 0.96687055 0.031278845 0.6702083 -0.715084 -1.1943276
0.87039405 -2.0247512 1.2241008 1.0973604 -0.26456937 1.822326 0.7750866 1.6443492
-0.41397923 -1.3495958 1.023532 0.70462435 1.0850868 0.33573285 0.41550362 1.1168196
-0.76805884 1.3879579 -0.66215533 -1.0296814 1.1158029 -0.5586704 -0.633955 0.9728288
0.87674385 -3.0237472 -0.8709538 0.30573523 0.5882392 -0.22998625 0.33482638 -0.32993802
1.3320719 -0.14737408 0.2571278 -0.14964546 0.5200633 0.46991426 1.7757609 1.8798137
2.4455516 1.9254647 1.9569378 0.49691558 1.0566802 -0.6733808 0.783742 -0.30336976
1.2116817 0.50733215 -0.86398625 0.26716402 0.9675952 1.0134355 0.6367871 1.9312391
0.31977326 0.7406042 1.1847296 0.491464 0.43416464 1.0536511 -0.57650656 -0.4236268
-0.22416118 -0.2493442 1.1881058 -0.6244708 -1.789697 0.7491538 1.2327963 0.29772547
0.76663834 0.20236863 0.74706465 -0.4597184 2.5696464 -0.84536284 -0.34150997 -0.13778979
-0.033316787 -1.0588483 1.6110513 0.53016216 -0.02265831 -0.28482354 -0.8743536 0.28186548
-1.6077559 0.39287594 1.258562 2.050609 1.2686211 -0.025340233 0.709843 0.28590333
3.9130986 -0.47822505 -0.57374626 2.9206266 -0.17747438 1.3837585 -0.32509872 2.0942945
0.16686979 1.9577532 2.0051744 0.22761635 -0.34842548 -3.4083962 1.4153911 0.17220937
-0.19556634 0.87578714 -0.71359026 1.2019151 0.9425546 1.7158315 2.4749932 -1.0839797
2.697501 -0.43510765 1.772109 0.8095759 1.701622 -0.27785593 -1.8692251 1.3462502
0.7774454 -1.7456173 2.2901204 2.5530756 1.9685177 -0.8483728 -0.51640713 -2.7984986
-2.6710768 -1.0296419 0.48346376 0.62565255 -0.23838957 -0.62001437 -0.011652355 1.3557734
-0.9246747 0.8822762 -2.7871804 -0.073263854 -0.4543401 0.585095 -0.1854814 -1.7531265
00000000: 2e18 b53f c7b7 afbd de4d 69bc 454c e73e
00000010: 6a84 47bf 854d 1ec0 09c6 0fbf 73e3 913f
00000020: b7fb 4f3f a561 3c40 dc1a 8cbf 477b 80bf
00000030: f7dc 523f 5172 34c0 e21a f2bf 9b2d 2a3f
00000040: 5ee7 113f cdd5 a73f b4a1 fd3f 229f ea3f
00000050: ce7e bbbf 195b 30c0 6b48 c53e 10b5 823f
00000060: 1cd0 523e 432e 0440 2c3d 7c3e 309e e4bf
00000070: 0c47 4e3f 0312 013f 195e 1a3f 9610 543f
00000080: 1e72 6dbe 4753 00bf d396 8ebf ccff 8dbd
00000090: bfcf 7f3f 07c9 953f 6346 e13f 476d ec3e
000000a0: 333c 003e de61 f83f b6b7 523f 15e7 493f
000000b0: 9762 9e3f 4260 f7be 19e8 64bf 83b5 cbbf
000000c0: 048e 2dc0 6802 ddbe 5a48 8dbc 2440 b9bf
000000d0: 20be 22c0 35cd 73be 029b 08c0 7d34 9ebe
000000e0: c005 dabe feef c83d afed 0840 d8a3 3ebf
000000f0: a134 94bf 0134 52bf 0900 a53d 6a0b 74bd
00000100: 9844 dd3f e4d5 623d df34 0b3f 7d73 363f
00000110: b469 4bbf 71fe b03f c538 8fbe 2245 d9bf
00000120: 2b27 8b3f 13ed 903f 2e61 93be d658 7e3e
00000130: 2326 47bf fd9d ae3f e419 e73c 3c26 10c0
00000140: 31be 0040 b7ed 0b3e 3d3d adbf 2b83 e93e
00000150: a7ca c9bf 7d61 9bbe b9de 663e 95bb 4cbf
00000160: 3ef6 533f a7e7 573c 284c 9d3f 7478 c03e
00000170: f293 f43f c95d b7bc 2294 7dbf 28b4 27c0
00000180: ad67 b63f 6c38 1c3f dd8d 0abf d484 773f
00000190: 3f1e 003d c592 2b3f bf0f 37bf badf 98bf
000001a0: 25d2 5e3f 8695 01c0 56af 9c3f 4e76 8c3f
000001b0: a375 87be fa41 e93f 136c 463f 097a d23f
000001c0: 16f5 d3be 8ebf acbf 1903 833f 4362 343f
000001d0: 20e4 8a3f 2de5 ab3e e4bc d43e f2f3 8e3f
000001e0: 819f 44bf 9ba8 b13f 0383 29bf 9acc 83bf
000001f0: a1d2 8e3f 0605 0fbf e04a 22bf 4f0b 793f
00000200: 4972 603f 1385 41c0 d4f6 5ebf 5489 9c3e
00000210: d896 163f 8481 6bbe 5d6e ab3e a3ed a8be
00000220: 5581 aa3f 3be9 16be 41a6 833e a93c 19be
00000230: de22 053f 9a98 f03e 224c e33f bc9d f03f
00000240: eb83 1c40 a175 f63f f07c fa3f b86b fe3e
00000250: 4c41 873f af62 2cbf 51a3 483f 4853 9bbe
00000260: 6318 9b3f 85e0 013f 342e 5dbf b9c9 883e
00000270: 52b4 773f 41b8 813f 7b04 233f d832 f73f
00000280: 52b9 a33e 3d98 3d3f 38a5 973f 2ba1 fb3e
00000290: d44a de3e 0ade 863f ef95 13bf 9de5 d8be
000002a0: 828a 65be 1654 7fbe da13 983f 51dd 1fbf
000002b0: cb14 e5bf 8bc8 3f3f 45cc 9d3f 796f 983e
000002c0: 6942 443f b939 4f3e a13f 3f3f 3660 ebbe
000002d0: 1675 2440 b369 58bf 65da aebe c418 0dbe
000002e0: 2f77 08bd 5788 87bf ee36 ce3f b5b8 073f
000002f0: ec9d b9bc 64d4 91be a3d5 5fbf ac50 903e
00000300: f2ca cdbf 0927 c93e 8f18 a13f 2e3d 0340
00000310: 2d62 a23f 5296 cfbc 45b8 353f ec61 923e
00000320: 3570 7a40 ead9 f4be 09e1 12bf 8ceb 3a40
00000330: d8bb 35be 001f b13f 5773 a6be ec08 0640
00000340: eadf 2a3e a897 fa3f c754 0040 4314 693e
00000350: d364 b2be 2a23 5ac0 892b b53f a757 303e
00000360: 8b42 48be 9633 603f daad 36bf 5bd8 993f
00000370: 424b 713f 5ea0 db3f 4a66 1e40 d9bf 8abf
00000380: dba3 2c40 6ec6 debe 78d4 e23f 5e40 4f3f
00000390: c0ce d93f 2243 8ebe c542 efbf ed51 ac3f
000003a0: a906 473f 6370 dfbf 5591 1240 9765 2340
000003b0: 63f8 fb3f f62e 59bf 4233 04bf 9a1a 33c0
000003c0: ecf2 2ac0 4ecb 83bf 9088 f73e c42a 203f
000003d0: 651c 74be 43b9 1ebf 85e9 3ebc fc89 ad3f
000003e0: 7bb7 6cbf dadc 613f 2a61 32c0 5c0b 96bd
000003f0: 449f e8be c9c8 153f d6ee 3dbe 7366 e0bf

network.4.bias f4 [256]
0.014456958 0.041568197 -0.020650072 -0.021096146 0.027678102 -0.0042230845 -0.028733796 0.009592707
-0.032690376 0.004409148 0.029836688 -0.030818587 -0.039120823 0.031476934 -0.023647979 0.01524243
-0.00835547 -0.017172772 -0.01001073 0.003965587 0.00601014 0.030697238 -0.026245112 0.014542295
-0.027264718 0.029834447 -0.0031225465 0.025899688 0.007489912 0.011112071 0.028933221 -0.032556728
-0.0023524752 0.029186742 0.019305453 -0.024885047 0.042987175 -0.0056907535 -0.030015692 -0.008269126
-0.033547178 -0.039440792 0.010064534 0.015680732 -0.017400855 -0.04316703 0.0066596507 -0.022712184
-0.04063154 0.027199537 0.038512688 -0.009037737 -0.013199715 0.014147021 0.038493037 -0.0032431511
0.017766798 -0.010129717 0.038770366 0.037913017 0.019928876 0.008074514 -0.03445902 -0.0060444656
-0.036398493 0.039606933 0.028187688 -0.026336284 0.0133696385 0.019305117 -0.04015702 0.027781153
0.040566076 0.003750714 0.019103484 -0.042062737 0.02575436 0.0062664426 -0.017098166 0.021797957
0.04059292 -0.022476546 0.028128272 -0.004433499 0.028325662 -0.033581853 -0.022633104 0.020192225
-0.0004881721 0.038650874 -0.004083702 -0.020535558 0.0048411503 -0.02534275 -0.0278917 0.024353636
0.019377248 0.036776673 0.020189332 0.03269691 -0.030089479 0.039206725 0.0061711515 -0.00010887199
0.019102054 -0.0036728538 -0.04270215 0.02715493 0.026600236 0.011665739 0.04407557 -0.011785658
-0.04298682 -0.012385728 0.031604823 0.035470985 0.02710992 -0.025434406 0.040475834 0.03403085
0.020032892 0.017247321 0.035532586 0.03901901 0.003813803 -0.04249886 -0.007515815 0.006388432
-0.01245992 -0.010734425 -0.0083537735 0.033500202 0.016695635 -0.020107254 -0.027117299 0.013242726
0.006282308 -0.015447173 -0.012020631 -0.03225718 -0.025944043 0.026221497 0.03772659 -0.013754683
0.03895424 0.005404074 -0.028935421 -0.035329986 0.03605963 0.011533378 -0.038216658 0.027539976
0.011561031 0.000993074 0.019318108 -0.0058528557 0.020288693 -2.6008731e-06 0.012900492 -0.001487437
-0.03757761 -0.021863576 -0.0012081517 0.036983218 -0.00092336367 0.04404505 0.038307663 -0.033852234
-0.018356428 0.002350703 -0.013363132 -0.03765564 -0.029438091 -0.032028913 0.015663836 -0.009246258
-0.04226337 -0.008002445 -0.019701377 -0.025689766 -0.04268707 -0.00011266262 -0.021075921 0.008239816
-0.029426945 -0.010438221 -0.013435845 0.040529966 -0.01919002 -0.030693175 0.0335944 0.0012367422
-0.01568639 -0.04399635 0.025925523 -0.021377094 -0.029630633 0.0079344 0.026560403 0.008230266
-0.003615067 -0.03270691 0.024688514 -0.024961473 0.021723207 0.017433329 0.0072896765 0.028084839
0.007167717 -0.00018194856 0.032783777 -0.022288922 0.014019312 0.03714156 0.031652305 0.008902759
-0.038064815 -0.04115119 -0.037242074 0.029417275 -0.005507779 -0.028756168 0.03288879 0.017874869
-0.01802025 -0.01755656 -0.013318571 0.0055232616 0.008941834 0.009105368 0.0032374403 -0.006910412
0.0029220597 -0.012371787 0.031153604 0.042424247 0.03254648 -0.00040061882 -0.010460407 0.0010061838
0.010199036 0.0346062 -0.029347675 0.00119796 -0.012802413 -0.018252289 0.031702567 0.014411068
-0.03693728 -0.025907526 0.005327363 0.030190673 -0.010916323 0.0031994106 -0.007865858 -0.01877633
00000000: e0dc 6c3c 6a43 2a3d 572a a9bc d3d1 acbc
00000010: 30bd e23c cd61 8abb 2363 ebbc bb2a 1d3c
00000020: 58e6 05bd 9d7a 903b 126c f43c 4377 fcbc
00000030: 283d 20bd f5ed 003d 68b9 c1bc 63bb 793c
00000040: 62e5 08bc eaad 8cbc 0b04 24bc c1f1 813b
00000050: b5f0 c43b c678 fb3c fdff d6bc ce42 6e3c
00000060: 425a dfbc 5f67 f43c a3a3 4cbb 952b d43c
00000070: f06d f53b 670f 363c 5d05 ed3c 345a 05bd
00000080: fc2b 1abb 0919 ef3c 7826 9e3c badb cbbc
00000090: 5213 303d 8079 babb 78e3 f5bc 3a7b 07bc
000000a0: c468 09bd ab8c 21bd b7e5 243c e174 803c
000000b0: 3d8c 8ebc e9cf 30bd 3339 da3b e70e babc
000000c0: 426d 26bd 90d1 de3c 7bbf 1d3d 0413 14bc
000000d0: 9e43 58bc e8c8 673c e0aa 1d3d 0c8b 54bb
000000e0: ad8b 913c 1df7 25bc adcd 1e3d ae4a 1b3d
000000f0: e241 a33c f74a 043c e724 0dbd a710 c6bb
00000100: 9616 15bd e13a 223d dee9 e63c 31bf d7bc
00000110: 540c 5b3c c425 9e3c b07b 24bd 4d95 e33c
00000120: 9d28 263d 8ace 753b e97e 9c3c fa49 2cbd
00000130: cffa d23c bb56 cd3b 7411 8cbc a191 b23c
00000140: c344 263d bc20 b8bc 436d e63c e346 91bb
00000150: 380b e83c 208d 09bd 0f69 b9bc 2a6a a53c
00000160: 5af1 ffb9 6150 1e3d 93d0 85bb 303a a8bc
00000170: 83a2 9e3b 999b cfbc 227d e4bc 4781 c73c
00000180: 09bd 9e3c 23a3 163d 1964 a53c 32ed 053d
00000190: 367e f6bc 3b97 203d 5f37 ca3b 3452 e4b8
000001a0: e97b 9c3c 43b4 70bb 73e8 2ebd 0474 de3c
000001b0: bde8 d93c a821 3f3c 9688 343d a218 41bc
000001c0: f312 30bd 82ed 4abc 0f74 013d 064a 113d
000001d0: 9f15 de3c d15b d0bc fdc9 253d ef63 0b3d
000001e0: 051c a43c 414a 8d3c 9e8a 113d 66d2 1f3d
000001f0: fff0 793b 4913 2ebd 3a47 f6bb 0d56 d13b
00000200: b124 4cbc 71df 2fbc 44de 08bc 8237 093d
00000210: 49c5 883c f8b7 a4bc 1925 debc 05f8 583c
00000220: d2db cd3b 2416 7dbc 2ef2 44bc 1b20 04bd
00000230: 9a88 d4bc 77ce d63c 3287 1a3d 525b 61bc
00000240: 7b8e 1f3d a914 b13b fa09 edbc 2db6 10bd
00000250: 43b3 133d 7ef6 3c3c 1289 1cbd 849b e13c
00000260: 7b6a 3d3c 092a 823a 0241 9e3c 50c9 bfbb
00000270: 7934 a63c a98a 2eb6 965c 533c 1bf6 c2ba
00000280: fbea 19bd 3e1b b3bc d85a 9eba b77b 173d
00000290: e30d 72ba 9568 343d 7fe8 1c3d a4a8 0abd
000002a0: 3860 96bc 410e 1a3b 0af1 5abc cd3c 1abd
000002b0: 2728 f1bc c030 03bd 7251 803c 9e7d 17bc
000002c0: 5b1c 2dbd b01c 03bc c864 a1bc 5873 d2bc
000002d0: a3d8 2ebd 4945 ecb8 69a7 acbc 4b00 073c
000002e0: c710 f1bc 1205 2bbc 0522 5cbc c002 263d
000002f0: 6434 9dbc 4170 fbbc 489a 093d 2f1a a23a
00000300: bf80 80bc 8435 34bd c361 d43c 041f afbc
00000310: f1bb f2bc 49ff 013c 3495 d93c 3dd8 063c
00000320: c3ea 6cbb aef7 05bd 913f ca3c 017c ccbc
00000330: def4 b13c 57d0 8e3c 3dde ee3b 2d12 e63c
00000340: 2bdf ea3b 72c9 3eb9 4848 063d 4297 b6bc
00000350: 42b1 653c c021 183d d9a5 013d e1dc 113c
00000360: dae9 1bbd 268e 28bd 258b 18bd 7ffc f03c
00000370: 997a b4bb 0e92 ebbc 65b6 063d 516e 923c
00000380: 349f 93bc c6d2 8fbc 2336 5abc 7afc b43b
00000390: c580 123c ae2e 153c 3c2b 543b bd70 e2bb
000003a0: 0780 3f3b 09b3 4abc d835 ff3c 0cc5 2d3d
000003b0: 754f 053d 260a d2b9 2062 2bbc ede1 833a
000003c0: dc19 273c 3bbf 0d3d 896a f0bc de04 9d3a
000003d0: 36c1 51bc d385 95bc 8dda 013d 661c 6c3c
000003e0: 8c4b 17bd 053c d4bc 2991 ae3b 6e52 f73c
000003f0: 61da 32bc 34ad 513b cddf 00bc d1d0 99bc
