models/NeuralNetwork-2_acc-53.81_loss-0.000002.pth (torch, 893391 bytes, 8 tensors)

network.0.weight f4 [423, 141]
-0.0039508385 0.034865957 -0.03592841 0.026702108 0.0335212 -0.096153624 0.034286577 0.05325831
-0.015963957 -0.03903101 -0.01529275 -0.11459038 -0.026890993 -0.015088719 -0.06659389 0.03874721
0.0031875707 0.026093917 0.07723024 -0.06478397 0.037289564 -0.037933208 -0.059774254 -0.033513647
-0.012016752 0.029463347 -0.00882391 -0.049086466 0.027334826 -0.2142259 -0.10161707 0.06676497
0.065781586 0.035019204 -0.03198009 0.040678453 0.047901556 -0.040919412 -0.052100826 -0.017579585
-0.11708109 0.04649794 0.008729449 0.038181625 -0.02160425 0.05589468 0.04763315 0.09332764
-0.04930837 0.06394599 0.06317285 0.0292101 -0.057623114 -0.027530963 -0.008196163 0.11825501
-0.04513365 0.07632711 0.0113748675 0.018795602 -0.08560228 0.031455036 0.016135328 -0.12868246
-0.07942841 0.007503696 0.09768645 0.06726359 -0.051510375 0.04647082 0.051110595 -0.07291925
-0.02897526 -0.033125505 -0.046829104 -0.0073158285 0.114421785 0.009633823 0.0152835995 0.03969931
0.06261578 -0.061069835 0.041324653 -0.045381006 0.009053239 -0.077348314 0.10871799 -0.025404433
-0.0068642036 -0.01613137 -0.03482806 0.102316715 -0.12054969 -0.036756758 -0.0089909285 -0.04937414
0.15728019 -0.030834403 -0.045143824 -0.055580825 0.024101416 0.037035186 0.0048768367 -0.049898613
0.004901498 -0.08696705 0.014463204 0.0003959384 -0.010802298 -0.07422832 -0.014233126 -0.07007198
0.12504238 0.03206812 -0.055497486 0.09469859 -0.026256204 0.10500552 -0.05399907 0.06576572
0.03072574 -0.023737414 -0.03876444 -0.014352146 -0.030874679 -0.09742727 0.017119247 -0.069119334
-0.058714237 0.1007722 0.006865267 0.06058454 -0.0105566485 0.030905418 0.06299871 -0.058801867
0.12081696 0.021865446 0.008320991 -0.020030268 -0.024122322 0.029913336 0.007417434 0.023338718
-0.022300407 0.023019621 -0.033350784 -0.038666718 0.00861837 0.019438652 0.009421413 -0.04335373
-0.072915204 -0.055351734 0.0015351413 -0.010148169 0.14215821 -0.053974397 0.008730797 0.0037535962
0.09668631 -0.06763896 -0.10366943 0.005809878 -0.09874135 0.10130922 0.0041950406 0.057490345
0.07957745 0.009944265 -0.122852795 -0.08233813 0.08182859 0.0106033925 0.14083616 0.03787702
-0.009429494 -0.0023168332 -0.007951296 -0.04562934 0.07915529 0.0049812235 -0.06328974 -0.07721125
0.04427981 -0.030655064 0.024501987 -0.047814965 -0.03377521 0.15060334 0.031833712 -0.011489944
0.06794834 -0.05192628 -0.064574316 -0.0073283687 0.10346622 -0.015049448 0.10131918 0.026349887
0.21076818 -0.042284526 -0.04446691 0.06398665 0.02085683 -0.035995133 0.04880384 0.13713212
-0.023423368 0.072343096 0.05608774 -0.06060195 0.03150056 0.06390189 0.08300105 -0.09963588
0.04531308 -2.3553588e-05 0.041512616 0.06954956 0.027042912 0.069503024 0.012644839 -0.039352365
-0.068045825 0.06693905 -0.01090221 0.07323527 -0.015136982 0.05825914 -0.048678063 0.044065293
0.029924287 -0.011878286 -0.06354459 -0.0009003459 0.09093638 -0.061995678 -0.05930015 0.03213308
-0.0508962 -0.03381796 -0.001084903 0.08046206 -0.060542345 -0.03663186 0.053203583 -0.08395579
-0.04244563 -0.1465444 0.017564751 0.03526879 0.038924932 -0.01656761 0.09393275 -0.05671412
00000000: 0976 81bb 9bcf 0e3d ab29 13bd 61be da3c
00000010: 874d 093d 31ec c4bd 1570 0c3d 6325 5a3d
00000020: d8c6 82bc fbde 1fbd 718e 7abc 5cae eabd
00000030: 804a dcbc ad36 77bc 6162 88bd 65b5 1e3d
00000040: 90e6 503b e9c2 d53c e32a 9e3d 75ad 84bd
00000050: f1bc 183d da5f 1bbd d9d5 74bd 9b45 09bd
00000060: e9e1 44bc 1e5d f13c 2992 10bc e40e 49bd
00000070: 49ed df3c 095e 5bbe 9c1c d0bd 13bc 883d
00000080: 7fb8 863d 4c70 0f3d 8efd 02bd 739e 263d
00000090: 6c34 443d 1d9b 27bd ad67 55bd 1003 90bc
000000a0: 36c8 efbd a074 3e3d f605 0f3c 5664 1c3d
000000b0: 65fb b0bc d2f1 643d fa1a 433d 9022 bf3d
000000c0: 93f7 49bd 1df6 823d c460 813d 054a ef3c
000000d0: 3706 6cbd 9d88 e1bc 3349 06bc af2f f23d
000000e0: 10de 38bd 6351 9c3d a75d 3a3c 3cf9 993c
000000f0: 4050 afbd ffd6 003d 3c2e 843c 56c5 03be
00000100: 5dab a2bd 90e1 f53b d50f c83d 7ec1 893d
00000110: 8bfc 52bd 3058 3e3d 5859 513d b056 95bd
00000120: 865d edbc 9cae 07bd e0cf 3fbd 9eb9 efbb
00000130: f855 ea3d 2fd7 1d3c 1068 7a3c be9b 223d
00000140: b43c 803d 5d24 7abd 0a44 293d 6fe1 39bd
00000150: 0954 143c cb68 9ebd 8aa7 de3d f51c d0bc
00000160: 1ded e0bb ef25 84bc dea7 0ebd 6d8b d13d
00000170: c2e2 f6bd 418e 16bd b04e 13bc 8a3c 4abd
00000180: 0f0e 213e 6e98 fcbc bbe8 38bd b8a8 63bd
00000190: 5570 c53c 35b2 173d dfcd 9f3b 7d62 4cbd
000001a0: bf9c a03b c81b b2bd 13f7 6c3c f495 cf39
000001b0: 1ffc 30bc 0405 98bd 0f32 69bc e681 8fbd
000001c0: 1c0b 003e dc59 033d 5551 63bd 56f1 c13d
000001d0: 4017 d7bc 220d d73d 212e 5dbd 2eb0 863d
000001e0: 8cb4 fb3c f774 c2bc 76c7 1ebd 4325 6bbc
000001f0: e5ec fcbc f387 c7bd aa3d 8c3c 708e 8dbd
00000200: 577e 70bd a861 ce3d 09f6 e03b 7f27 783d
00000210: cbf5 2cbc 5c2d fd3c 7805 813d 3ada 70bd
00000220: e26e f73d 2a1f b33c c454 083c 8416 a4bc
00000230: 2d9c c5bc d00c f53c f20d f33b d730 bf3c
00000240: 58af b6bc a593 bc3c d59a 08bd fe60 1ebd
00000250: 1034 0d3c cf3d 9f3c 455c 1a3c ae93 31bd
00000260: 9154 95bd 80b8 62bd cb36 c93a 8144 26bc
00000270: ec91 113e 4214 5dbd 9e0b 0f3c e5fe 753b
00000280: 7903 c63d 4c86 8abd a350 d4bd ca60 be3b
00000290: e838 cabd 357b cf3d 8d76 893b ff7a 6b3d
000002a0: 81f9 a23d 45ed 223c 3f9a fbbd e5a0 a8bd
000002b0: bf95 a73d dab9 2d3c 5b37 103e ef24 1b3d
000002c0: 2a7e 1abc 03d6 17bb 2746 02bc d5e5 3abd
000002d0: 2b1c a23d 8839 a33b 0d9e 81bd ef20 9ebd
000002e0: bf5e 353d 5420 fbbc 64b8 c83c a0d9 43bd
000002f0: e057 0abd c337 1a3e 1164 023d 5140 3cbc
00000300: 8028 8b3d a7b0 54bd 8a3f 84bd d022 f0bb
00000310: 19e6 d33d f691 76bc 6e80 cf3d b8db d73c
00000320: 9dd3 573e 8a32 2dbd ef22 36bd 6f0b 833d
00000330: f1db aa3c a26f 13bd 89e6 473d 5d6c 0c3e
00000340: 5de2 bfbc 9e28 943d 42bc 653d c039 78bd
00000350: bb06 013d fede 823d 74fc a93d e50d ccbd
00000360: 359a 393d f294 c5b7 2209 2a3d 0070 8e3d
00000370: 1989 dd3c 9a57 8e3d 4c2c 4f3c f22f 21bd
00000380: 9c5b 8bbd 5717 893d 2f9f 32bc 60fc 953d
00000390: 1b01 78bc 23a1 6e3d a662 47bd cf7d 343d
000003a0: c723 f53c 249d 42bc aa23 82bd 3105 6cba
000003b0: da3c ba3d 2eef 7dbd b7e4 72bd fa9d 033d
000003c0: 8978 50bd b484 0abd 4e33 8eba 4bc9 a43d
000003d0: 40fb 77bd 4a0b 16bd 00ec 593d 03f1 abbd
000003e0: 78db 2dbd bc0f 16be f4e3 8f3c 0276 103d
000003f0: c06f 1f3d ccb8 87bc d05f c03d 114d 68bd

network.0.bias f4 [423]
-0.09706375 -0.00083078386 -0.11189872 -0.10453267 -0.08500037 -0.24557818 -0.046188727 -0.156761
-0.08036367 -0.10807361 -0.14615005 -0.13698345 -0.025844702 -0.1574935 -0.022671735 -0.05009474
-0.07462133 -0.104717776 -0.1691883 -0.20661156 -0.039088026 -0.1596775 -0.11808008 -0.0680973
-0.105938405 -0.14015709 -0.22676456 0.014998182 -0.014639074 -0.1447576 -0.04926773 0.005161562
-0.14695543 -0.105150945 -0.016819712 -0.040747035 -0.0032382922 -0.07644186 -0.14754078 -0.11292404
-0.08738184 -0.059324767 -0.08067677 -0.056143783 -0.08825233 -0.16818076 -0.14848027 -0.054507587
-0.04811924 -0.0693256 -0.059012644 -0.15019076 -0.105919465 -0.03761444 -0.12469786 -0.012193288
-0.11047521 -0.06325754 -0.084024295 -0.1621703 -0.12365481 -0.10756089 -0.101994 -0.04665227
0.020563314 -0.1931094 -0.14926794 -0.14866143 -0.13098446 -0.084760144 -0.09546643 -0.14347053
-0.14742506 -0.19603753 -0.12630065 0.0014183066 0.001917128 -0.097453184 -0.10615889 -0.0065071406
-0.06627307 -0.098113075 0.0048787766 -0.09209658 -0.012122112 -0.20415473 -0.076367594 -0.1069745
-0.054856822 -0.10339828 -0.04257063 -0.07354922 -0.10881109 -0.063108966 -0.12107455 -0.009627771
-0.09008718 -0.05389443 -0.13208266 -0.058100697 -0.109867334 -0.09458576 -0.035133503 -0.095742755
-0.05470408 -0.094313525 -0.12109816 -0.096287854 -0.035276085 -0.04598621 -0.12440522 -0.092427865
-0.017423593 -0.047310237 -0.0618019 -0.09296728 -0.11813982 -0.0481698 -0.052212514 -0.07974494
-0.19149938 -0.1536728 -0.21508338 -0.147298 -0.06691526 -0.1414785 -0.12426096 -0.19270234
-0.10658085 -0.13692927 -0.075495996 -0.15142858 -0.1806696 -0.07085283 -0.15719952 -0.1378492
-0.06777174 -0.116218284 -0.19668338 -0.07725302 -0.008653929 -0.052313633 -0.1664016 -0.018794894
-0.082001396 -0.113523215 -0.065882415 -0.13024116 -0.1698225 -0.11823898 -0.0026051183 -0.067895606
-0.053601023 -0.07743177 -0.028032906 -0.12432615 0.02091682 -0.09285549 -0.11041695 -0.03479478
-0.06487933 -0.14967196 -0.1691278 -0.11716405 -0.01747457 0.010009935 -0.109986 -0.2538554
-0.15603353 -0.049680267 -0.03283402 -0.07092667 -0.051317688 -0.07283637 -0.075579256 -0.200318
-0.116436735 -0.01333896 -0.059834845 -0.07398719 0.0064628175 -0.05610977 -0.19473276 -0.064549655
-0.0030008992 -0.13844027 -0.004113487 -0.042955026 -0.14081888 -0.16243172 -0.15078121 -0.14764091
-0.14332445 -0.1583466 -0.12737106 0.026043052 -0.079266496 -0.14921367 -0.16301377 -0.034722693
-0.15283962 -0.02103057 -0.1732661 -0.20111306 -0.14960647 -0.083392784 -0.084994145 -0.1265928
-0.01793861 -0.05282622 -0.18045504 -0.18824098 -0.12931775 -0.14304446 -0.03404525 -0.17610775
-0.044624522 -0.084275104 -0.13702326 -0.07081156 -0.015915204 -0.15203318 -0.15306658 -0.11644834
-0.15025121 -0.10599288 -0.12674174 -0.009625696 -0.09659436 -0.07986045 -0.07057342 -0.076672725
-0.13974704 -0.057929404 -0.038536657 -0.10581706 -0.21571063 -0.0058416454 -0.04856994 -0.23355533
-0.123751596 -0.09492638 -0.15932071 -0.06886274 0.032201756 -0.097362846 -0.106559314 -0.21167913
-0.035621013 -0.11776196 -0.20734712 -0.1628637 -0.076486856 -0.07431913 -0.09613153 -0.19496699
00000000: 5cc9 c6bd f6c8 59ba 282b e5bd 3915 d6bd
00000010: ad14 aebd d978 7bbe 6430 3dbd f585 20be
00000020: b595 a4bd b255 ddbd 5ca8 15be 6445 0cbe
00000030: 45b8 d3bc fa45 21be 13ba b9bc 2430 4dbd
00000040: 11d3 98bd 4676 d6bd b33f 2dbe fb91 53be
00000050: c41a 20bd 8082 23be f8d3 f1bd 9976 8bbd
00000060: 3cf6 d8bd 5785 0fbe f834 68be efba 753c
00000070: bad8 6fbc 563b 14be f6cc 49bd 5222 a93b
00000080: 7c7b 16be 6159 d7bd 7ec9 89bc 5de6 26bd
00000090: 8739 54bb 8d8d 9cbd ee14 17be b844 e7bd
000000a0: 40f5 b2bd 87fe 72bd dd39 a5bd 06f7 65bd
000000b0: a3bd b4bd 9437 2cbe 360b 18be 5943 5fbd
000000c0: ae18 45bd 95fa 8dbd 3eb7 71bd 9bcb 19be
000000d0: 4eec d8bd 9911 1abd 9761 ffbd 5bc6 47bc
000000e0: d440 e2bd 2b8d 81bd ee14 acbd f90f 26be
000000f0: bc3e fdbd e248 dcbd 3be2 d0bd 7316 3fbd
00000100: 6574 a83c 78be 45be b2d9 18be b43a 18be
00000110: ca20 06be ba96 adbd e783 c3bd f0e9 12be
00000120: 98f6 16be 10be 48be f554 01be 79e6 b93a
00000130: 2448 fb3a 8995 c7bd d569 d9bd da39 d5bb
00000140: 2dba 87bd 82ef c8bd 25de 9f3b 229d bcbd
00000150: d39b 46bc f00d 51be 9d66 9cbd 7215 dbbd
00000160: 8cb1 60bd 7ac2 d3bd 8a5e 2ebd f9a0 96bd
00000170: 59d8 debd 463f 81bd eff5 f7bd ccbd 1dbc
00000180: a17f b8bd 68c0 5cbd ad40 07be fffa 6dbd
00000190: 2002 e1bd 2eb6 c1bd 26e8 0fbd c714 c4bd
000001a0: 6311 60bd 7327 c1bd 5002 f8bd 9132 c5bd
000001b0: a87d 10bd 095c 3cbd 2ac8 febd d24a bdbd
000001c0: ecbb 8ebc 61c8 41bd fd23 7dbd a165 bebd
000001d0: 4af3 f1bd b24d 45bd cadc 55bd 5151 a3bd
000001e0: 6a18 44be 675c 1dbe d13e 5cbe 49d5 16be
000001f0: de0a 89bd bddf 10be 887c febd c353 45be
00000200: 1047 dabd 3037 0cbe a59d 9abd 1810 1bbe
00000210: 7401 39be 4a1b 91bd e9f8 20be 5728 0dbe
00000220: e9cb 8abd da03 eebd 5e67 49be d536 9ebd
00000230: 36c9 0dbc d246 56bd 2e65 2abe c0f7 99bc
00000240: 59f0 a7bd dc7e e8bd 5ced 86bd f05d 05be
00000250: f3e5 2dbe 4727 f2bd a2ba 2abb da0c 8bbd
00000260: bf8c 5bbd 8c94 9ebd 44a5 e5bc b59e febd
00000270: c059 ab3c 052b bebd 4822 e2bd f984 0ebd
00000280: 74df 84bd 9b43 19be d72f 2dbe b5f3 efbd
00000290: d426 8fbc b600 243c 5740 e1bd 56f9 81be
000002a0: 41c7 1fbe 897d 4bbd f77c 06bd 0142 91bd
000002b0: 7f32 52bd 3c2b 95bd 4cc9 9abd 2920 4dbe
000002c0: 6276 eebd a78b 5abc 6215 75bd 9986 97bd
000002d0: 0bc6 d33b 5cd3 65bd 0668 47be 9c32 84bd
000002e0: bcaa 44bb 49c3 0dbe 6eca 86bb 9cf1 2fbd
000002f0: d332 10be 8054 26be 6466 1abe 2e2f 17be
00000300: a5c3 12be 9c25 22be 8f6d 02be 3d58 d53c
00000310: 7956 a2bd 78cb 18be 15ed 26be 6239 0ebd
00000320: fd81 1cbe 4d48 acbc ab6c 31be 95f0 4dbe
00000330: 7032 19be d6c9 aabd 6911 aebd 8ba1 01be
00000340: fef3 92bc 4e60 58bd 35c9 38be 3ec2 40be
00000350: df6b 04be 3f7a 12be 0873 0bbd 9755 34be
00000360: 34c8 36bd 6d98 acbd d34f 0cbe a705 91bd
00000370: 9a60 82bc 96ae 1bbe 7cbd 1cbe 787c eebd
00000380: 74db 19be cc12 d9bd 96c8 01be 18b5 1dbc
00000390: 44d3 c5bd e08d a3bd cc88 90bd 9706 9dbd
000003a0: d919 0fbe 6247 6dbd 9dd8 1dbd 9db6 d8bd
000003b0: 3fe3 5cbe 466b bfbb 46f1 46bd 2129 6fbe
000003c0: 7a71 fdbd c368 c2bd f824 23be e907 8dbd
000003d0: fde5 033d 2c66 c7bd c53b dabd 6ac2 58be
000003e0: 57e7 11bd 2f2d f1bd ce52 54be bec5 26be
000003f0: 24a5 9cbd a134 98bd 9ce0 c4bd 6da5 47be

network.3.weight f4 [282, 423]
-0.037588768 -0.011739677 0.02484507 -0.009414303 -0.019952511 0.019614419 0.07146242 0.048072975
0.035977714 -0.018555257 0.07223477 0.043493163 -0.04571773 0.04221525 -0.033516333 -0.030975651
-0.004888148 0.021246305 -0.08607551 0.009511894 0.019448198 0.026599692 0.021724405 0.016819937
0.04139433 0.02795154 0.01016351 0.05756251 -0.06228747 -0.07840715 0.055952646 0.02444112
0.00733485 0.02666479 0.012344648 -0.017511047 0.013389532 0.035715394 0.033553414 -0.0054856692
0.027720986 0.058033068 -0.027038872 0.10138792 -0.046893284 -0.07043257 -0.050124403 -0.017823812
0.023008704 -0.0007865836 -0.020378156 -0.019213023 0.032190483 0.04483699 0.03379857 -0.030534271
0.023571769 -0.09380916 0.05907201 0.1056489 -0.04071471 0.0049110316 0.00255222 -0.058745958
-0.039708707 0.001536063 -0.06381339 -0.012220034 -0.011266161 -0.061380114 -0.018238632 0.06824998
0.02406543 -0.0070232153 -0.00055114867 -0.011112446 -0.06958736 0.009290452 0.00041852222 -0.0019380227
-0.044057306 0.04273845 0.03917041 -0.08279971 -0.034422122 0.011859523 -0.016925069 0.050162487
-0.042238604 0.01955373 0.009344435 0.06955344 -0.0044234293 0.019364608 -0.0336276 -0.0028894078
-0.017026214 -0.057867378 0.032632805 -0.010917915 -0.011467141 -0.0016715399 0.012627385 0.007126502
-0.004360027 0.02905157 -0.0058532185 -0.012447344 -0.021282408 0.027532136 0.035127673 -0.041207563
-0.04576619 -0.07817772 0.058746353 0.041434247 0.046541378 -0.023619382 0.0016996462 -0.00975561
-0.033157825 0.031780194 -0.018157301 0.034531083 -0.029359287 -0.053016603 0.042512313 0.0540294
0.006274268 0.006935212 0.011784995 0.05902317 -0.12840697 -0.052509867 -0.04159356 -0.0012723426
0.0013646943 -0.08630835 -0.027775316 0.011513091 0.024105888 -0.024596721 -0.03353674 0.079320654
-0.036981706 -0.0027260648 0.0032560877 -0.055393673 -0.047585055 0.074872024 -0.051852092 0.02650646
0.0036884868 0.023609579 -0.0013283215 -0.051722635 -0.03486918 -0.0735514 -0.0074079605 -0.042474214
-0.054886162 -0.0029581578 0.004769184 0.007186198 -0.08736939 0.04836007 -0.0523768 0.03393058
0.0009974915 -0.03113785 -0.0014671594 -0.0067860996 -0.028245242 -0.0033906172 -0.0046321587 0.07722946
-0.045886207 0.009225283 -0.034208953 -0.02966173 0.021794705 0.076913565 0.09804424 0.0010477593
-0.023021182 0.008297144 0.07017639 -0.022186652 -0.0061953664 -0.01928095 0.010024166 0.019540722
-0.035203956 0.040965736 -0.0006204809 0.01991943 -0.096800834 -0.050134227 -0.075546235 0.054627523
0.030640516 0.016729347 0.035252865 -0.048729163 0.0434524 0.02796047 0.025870468 -0.0025421327
-0.070905104 -0.010849697 0.00017433068 -0.08105186 -0.007864674 0.0014600372 0.036959074 -0.019952562
0.03461207 0.017796416 0.08253307 0.0030661724 0.03757614 0.062247295 -0.028202519 0.0923549
-0.03871564 -0.009439238 0.019880243 0.06719819 -0.006178557 0.06336882 0.00292658 -0.021406144
0.07469278 0.027910255 -0.0019244322 0.06612202 0.050961893 0.02338092 0.01836018 0.043858577
-0.089661166 -0.044749755 -0.07742583 0.023993827 0.061336238 0.06061545 0.03405937 0.019754205
-0.0260775 0.020725638 -0.033877652 -0.088436924 -0.004016056 0.008935913 0.06010192 0.0075822994
00000000: aef6 19bd c657 40bc e387 cb3c 733e 1abc
00000010: 7373 a3bc 6bae a03c e45a 923d 2be8 443d
00000020: 5e5d 133d 3201 98bc d3ef 933d e325 323d
00000030: 8442 3bbd e6e9 2c3d 6c48 09bd a6c0 fdbc
00000040: c22c a0bb bb0c ae3c 5b48 b0bd c6d7 1b3c
00000050: d451 9f3c 99e7 d93c 61f7 b13c f7c9 893c
00000060: 1a8d 293d a1fa e43c da84 263c abc6 6b3d
00000070: 2521 7fbd ee93 a0bd 9a2e 653d be38 c83c
00000080: 2e59 f03b 1e70 da3c 3541 4a3c 5473 8fbc
00000090: c55f 5b3c 4e4a 123d 4e6f 093d 21c1 b3bb
000000a0: 1f17 e33c 15b4 6d3d a080 ddbc 78a4 cf3d
000000b0: 2c13 40bd f43e 90bd 3f4f 4dbd 3e03 92bc
000000c0: c07c bc3c bb32 4eba 17f0 a6bc a164 9dbc
000000d0: 2bda 033d fea6 373d 5f70 0a3d 0223 fabc
000000e0: 9519 c13c 041f c0bd 7ef5 713d 735e d83d
000000f0: 78c4 26bd b8ec a03b 2543 273b 9a9f 70bd
00000100: 99a5 22bd b955 c93a 98b0 82bd 8a36 48bc
00000110: b495 38bc b769 7bbd 2f69 95bc a5c6 8b3d
00000120: dd24 c53c 0023 e6bb f67a 10ba fa10 36bc
00000130: d183 8ebd fb36 183c 1a6d db39 4005 feba
00000140: 6f75 34bd 830e 2f3d 2771 203d e592 a9bd
00000150: 36fe 0cbd 724e 423c 71a6 8abc 2e77 4d3d
00000160: 6302 2dbd 252f a03c 6719 193c 0972 8e3d
00000170: 6af2 90bb 87a2 9e3c 18bd 09bd 385c 3dbb
00000180: 8f7a 8bbc 5806 6dbd faa9 053d 0ee1 32bc
00000190: ade0 3bbc 9217 dbba 17e3 4e3c 6f85 e93b
000001a0: 8fde 8ebb 8ffd ed3c 5bcc bfbb f2ef 4bbc
000001b0: 7258 aebc 138b e13c 09e2 0f3d 43c9 28bd
000001c0: 5475 3bbd a41b a0bd 04a0 703d f5b6 293d
000001d0: 2ca2 3e3d 6f7d c1bc aac6 de3a fed5 1fbc
000001e0: 80d0 07bd f32b 023d 9fbe 94bc 7770 0d3d
000001f0: e382 f0bc f027 59bd 6421 2e3d ef4d 5d3d
00000200: 6098 cd3b c640 e33b da15 413c 48c2 713d
00000210: 1e7d 03be 9614 57bd 025e 2abd bcc4 a6ba
00000220: 8bdf b23a 6fc2 b0bd 0f89 e3bc 67a1 3c3c
00000230: b679 c53c 107f c9bc d25d 09bd de72 a23d
00000240: 217a 17bd c7a7 32bb 1664 553b 7ae4 62bd
00000250: 8ce8 42bd 8156 993d dc62 54bd 1324 d93c
00000260: 8aba 713b e068 c13c 131b aeba 1ddb 53bd
00000270: fcd2 0ebd 1ea2 96bd 7abe f2bb 71f9 2dbd
00000280: 50d0 60bd a7dd 41bb d146 9c3b 337a eb3b
00000290: b9ee b2bd 3515 463d 0e89 56bd cbfa 0a3d
000002a0: 43be 823a ce14 ffbc b34d c0ba ee5d debb
000002b0: 9162 e7bc 1e35 5ebb 5dc9 97bb 7b2a 9e3d
000002c0: 2df3 3bbd a425 173c b01e 0cbd 28fd f2bc
000002d0: cf8a b23c dc84 9d3d 6bcb c83d f854 893a
000002e0: eb96 bcbc bff0 073c a4b8 8f3d c8c0 b5bc
000002f0: 8002 cbbb 15f3 9dbc 663c 243c dd13 a03c
00000300: 0632 10bd b0cb 273d c5a7 22ba 132e a33c
00000310: 843f c6bd 8c59 4dbd fcb7 9abd 1cc1 5f3d
00000320: d201 fb3c fc0b 893c 4f65 103d 3b98 47bd
00000330: 25fb 313d 5b0d e53c 4eee d33c e999 26bb
00000340: b236 91bd edc2 31bc 89cc 3639 84fe a5bd
00000350: d5da 00bc b85e bf3a 6662 173d 8e73 a3bc
00000360: 63c5 0d3d cac9 913c 1907 a93d d6f1 483b
00000370: 70e9 193d 05f7 7e3d f808 e7bc 9124 bd3d
00000380: 4a94 1ebd 09a7 1abc e4db a23c 349f 893d
00000390: 7e75 cabb 83c7 813d ddcb 3f3b f05b afbc
000003a0: 87f8 983d 0ca4 e43c 3b3d fcba fb6a 873d
000003b0: 6bbd 503d 5889 bf3c 1768 963c 0da5 333d
000003c0: 46a0 b7bd 854b 37bd 6f91 9ebd b48e c43c
000003d0: b53b 7b3d e847 783d d781 0b3d 92d3 a13c
000003e0: 7ba0 d5bc d0c8 a93c 4bc3 0abd 6b1e b5bd
000003f0: 1f99 83bb f067 123c 6e2d 763d f074 f83b

network.3.bias f4 [282]
0.02863176 0.033032108 -0.0176917 0.022158006 0.020507906 0.018960584 -0.042515524 -0.024344321
0.05242184 0.042834893 -0.03935687 -0.0239747 0.04871574 -0.015359739 0.009901662 0.03746755
-0.04801078 0.018733878 0.08552236 0.006425802 -0.026579345 -0.004241292 0.014221741 -0.03534796
0.004753822 -0.017218428 0.017316163 -0.0021980586 0.008064094 0.024966286 -0.013360139 0.0040017897
0.029562537 0.017131846 0.00029124273 0.006671222 0.07294621 0.004069889 -0.0012092165 -0.014140706
-0.010911206 0.021359257 0.05054082 0.074994154 -0.017781382 0.001047406 -0.0014809277 0.045650795
0.033709403 0.035644215 -0.0092557315 0.020466127 0.014433678 0.04974808 0.0053185583 0.031634375
0.051590312 0.024993332 0.0533383 -0.02466968 0.009820631 0.02372137 -0.016830798 0.0112091275
-0.040550523 -0.012700619 0.025494028 0.007935075 0.007227148 0.008531368 -0.026215574 0.023507405
0.00966125 -0.041590024 0.037724216 0.05657905 0.06245495 -0.051733453 0.006667224 -0.0076344665
0.04376156 -0.006946865 0.07999231 -0.010274244 -0.025553968 -0.07698528 0.016032541 0.006327075
-0.037883863 0.026586924 -0.036213823 -0.03210709 0.00468679 0.030734861 0.013537703 -0.049110368
0.059265886 -0.024625251 0.0046342695 -0.040761214 -0.050148908 0.07681889 0.029231768 0.04480244
0.014138254 0.051146816 0.029633595 0.03252734 -0.03415928 0.02916493 -0.018428646 0.022886284
0.037823714 -0.009263038 0.01094606 0.015632894 0.039481126 -0.038975783 0.055025794 0.0028327287
0.051412217 0.014091191 -0.008273699 -0.004000241 -0.0030982536 0.02771717 -0.052315287 -0.018311294
-0.0033881322 0.016988667 0.011676368 0.036774863 0.010690515 -0.04464113 -0.0035191546 0.045702197
0.030877676 -0.047860425 0.028729133 0.084511906 0.008401214 0.006088407 0.0542933 0.02202295
-0.0443793 -0.010042641 -0.027456565 0.005127364 0.09571922 0.008872752 0.0819243 -0.018609539
0.05424952 0.003307343 0.04343658 -0.02011941 0.065908454 0.009349925 0.045589775 0.08544128
0.086639576 -0.014987432 0.043343954 0.0248616 0.057731315 -0.0013809345 0.081771865 -0.04162378
-0.025598548 -0.0722625 -0.025877785 -0.010711546 0.022459092 -0.023257494 0.049103998 -0.012991975
0.033357944 0.0068064216 -0.010179936 -0.063692234 -0.05859318 0.006015186 0.059976343 0.054653898
0.015795384 -0.0691818 -0.02462737 -0.0025796604 -0.019417722 0.055282764 0.028285407 0.012124388
-0.0060222927 -0.03296792 0.026900815 0.024464548 -0.03734316 -0.015000078 -0.008368156 0.065213084
0.019076273 -0.01708101 0.022813436 0.039555643 -0.057735022 -0.027206423 0.023232594 0.013984781
0.001667022 -0.010736318 0.007608172 -0.016374113 -0.0318316 -0.028747514 -0.056623526 -0.010512897
0.06745773 0.0054715676 -0.04115396 0.050439168 -0.026810236 0.0306141 0.013915972 0.04595155
-0.009243898 0.029155385 0.05221916 0.004131578 0.052453905 0.032214683 -0.027948825 -0.006614054
-0.016493525 0.08868006 -0.0473997 -0.014323457 -0.012400192 0.009553486 -0.019583197 0.047629733
0.00054934435 0.019843997 -0.052573577 0.034844108 0.04028861 0.006568119 -0.0097239055 -0.064694785
0.04421518 -0.030180428 0.03732042 -0.0021787814 0.056382637 0.052367993 -0.011492229 0.012867575
00000000: 278d ea3c ad4c 073d 2fee 90bc b584 b53c
00000010: 3200 a83c 3a53 9b3c c224 2ebd be6d c7bc
00000020: 49b8 563d a473 2f3d ab34 21bd 9766 c4bc
00000030: 288a 473d 6aa7 7bbc 953a 223c 9377 193d
00000040: f4a6 44bd ca77 993c 5926 af3d 898f d23b
00000050: edbc d9bc 89fa 8abb 4e02 693c 06c9 10bd
00000060: f3c5 9b3b a90d 8dbc a0da 8d3c 4e0d 10bb
00000070: 431f 043c 1986 cc3c 7ce4 5abc 7221 833b
00000080: 222d f23c 1658 8c3c f0b1 9839 449a da3b
00000090: d364 953d b45c 853b 937e 9eba 6bae 67bc
000000a0: eac4 32bc 9cf9 ae3c e403 4f3d 8996 993d
000000b0: 43aa 91bc 1d49 893a b01b c2ba 54fc 3a3d
000000c0: df12 0a3d abff 113d 5aa5 17bc 94a8 a73c
000000d0: 3c7b 6c3c a5c4 4b3d 4d47 ae3b 0c93 013d
000000e0: 5d50 533d d1be cc3c 4379 5a3d 1218 cabc
000000f0: b6e6 203c 5253 c23c bee0 89bc 7da6 373c
00000100: 4e18 26bd 4216 50bc dad8 d03c 1e02 023c
00000110: b6d1 ec3b 27c7 0b3c 0bc2 d6bc 9a92 c03c
00000120: 384a 1e3c 4d5a 2abd b584 1a3d 6fbf 673d
00000130: c3d0 7f3d 75e6 53bd bb78 da3b 8c2a fabb
00000140: 523f 333d 87a2 e3bb 02d3 a33d 4d55 28bc
00000150: 8e56 d1bc 75aa 9dbd ad56 833c 5a53 cf3b
00000160: 1c2c 1bbd d2cc d93c f254 14bd b982 03bd
00000170: a593 993b adc7 fb3c 3ecd 5d3c f427 49bd
00000180: c9c0 723d e5ba c9bc 12db 973b 3bf5 26bd
00000190: f168 4dbd 3953 9d3d 7677 ef3c c382 373d
000001a0: 23a4 673c 537f 513d 27c2 f23c 633b 053d
000001b0: 9aea 0bbd 4beb ee3c acf7 96bc 047c bb3c
000001c0: 0aed 1a3d ffc3 17bc 1a57 333c 8e10 803c
000001d0: f6b6 213d 12a5 1fbd ba62 613d 4da5 393b
000001e0: 9e95 523d bdde 663c 698e 07bc 7414 83bb
000001f0: 120c 4bbb 1e0f e33c 8e48 56bd 9101 96bc
00000200: 6d0b 5ebb d12b 8b3c 3d4e 3f3c 3da1 163d
00000210: 4527 2f3c 9ed9 36bd 9ea1 66bb 3a32 3b3d
00000220: 2ef3 fc3c 4b09 44bd 5c59 eb3c 9414 ad3d
00000230: 3fa5 093c 4281 c73b a762 5e3d 7969 b43c
00000240: 12c7 35bd e489 24bc 97ec e0bc 7203 a83b
00000250: 7008 c43d 055f 113c edc7 a73d 0873 98bc
00000260: bf34 5e3d 02c0 583b 8eea 313d 76d1 a4bc
00000270: 03fb 863d 6e30 193c 58bc 3a3d d6fb ae3d
00000280: 1770 b13d d98d 75bc 6e89 313d 8eaa cb3c
00000290: ac77 6c3d 7900 b5ba 0278 a73d b27d 2abd
000002a0: 0cb4 d1bc 5dfe 93bd a6fd d3bc 7b7f 2fbc
000002b0: 21fc b73c 8086 bebc 4621 493d 4bdc 54bc
000002c0: 57a2 083d 6708 df3b bfc9 26bc 1371 82bd
000002d0: 67ff 6fbd 0a1b c53b c1a9 753d c4dc 5f3d
000002e0: 5265 813c 30af 8dbd 57bf c9bc 850f 29bb
000002f0: ea11 9fbc 2e70 623d ccb6 e73c 5ea5 463c
00000300: a756 c5bb 5f09 07bd 195f dc3c e069 c83c
00000310: 24f5 18bd e3c2 75bc 971a 09bc 708e 853d
00000320: d845 9c3c 79ed 8bbc 3ee3 ba3c 1905 223d
00000330: 8f7b 6cbd 01e0 debc 4852 be3c 6c20 653c
00000340: fa7f da3a 62e7 2fbc f94d f93b 0123 86bc
00000350: da61 02bd e87f ebbc 12ee 67bd 493e 2cbc
00000360: 4727 8a3d d64a b33b 0e91 28bd 4d99 4e3d
00000370: 24a1 dbbc 6cca fa3c d1ff 633c b137 3c3d
00000380: b873 17bc 46d7 ee3c c2e3 553d 3062 873b
00000390: e8d9 563d 8bf3 033d eff4 e4bc b5ba d8bb
000003a0: 6e1d 87bc e49d b53d 3026 42bd efac 6abc
000003b0: 2d2a 4bbc 3986 1c3c f16c a0bc 6517 433d
000003c0: e001 103a e18f a23c 6457 57bd b2b8 0e3d
000003d0: ab05 253d 6039 d73b 0451 1fbc b37e 84bd
000003e0: fa1a 353d f23c f7bc 4cdd 183d e3c9 0ebb
000003f0: 7bf1 663d d27f 563d e749 3cbc 85d2 523c

network.6.weight f4 [141, 282]
0.025425196 -0.030729432 0.050517034 0.021405242 0.097844735 0.04265465 -0.0711061 0.086718805
0.0042879903 -0.026554624 0.074223705 -0.024383422 -0.05521555 0.008151509 0.07280317 0.016433086
0.033990405 -0.13679086 -0.06151881 -0.020724792 0.06975697 0.038771722 0.11781524 0.025524074
-0.041081894 0.15708894 -0.06393788 0.12111166 0.062364534 0.09209508 0.09251464 -0.073902525
0.05092267 -0.040181708 0.16766757 -0.05710295 0.025303734 0.049199264 0.022751097 -0.028364865
-0.04708436 -0.016646951 -0.10817437 -0.034561053 0.046456594 0.026914304 -7.814018e-05 0.076354854
0.033854663 -0.031686947 0.07119693 0.051501274 0.07802761 0.041659053 -0.05595462 -0.00468817
-0.005715118 0.02967701 -0.07430984 -0.0032491267 0.108606935 -0.064639 -0.002904169 0.008425425
-0.025729291 -0.02433003 -0.14820667 -0.011351634 0.08263721 -0.0041819992 0.039359357 -0.030261474
-0.021718608 -0.08729149 -0.1288322 -0.0070538153 -0.057972133 -0.072316706 0.0035943808 0.041471925
0.120656885 -0.05095315 -0.01244395 0.077048935 0.029111175 0.07076903 0.06413139 0.10524994
0.07268483 0.061097134 0.008220522 0.100569464 0.06672721 -0.031601798 -0.03698677 0.081370495
-0.11305603 0.04858004 -0.02292535 0.10506505 0.08227155 0.060813013 0.069220826 -0.04983533
0.049231876 -0.04425726 -0.06552204 0.00846607 -0.053453878 0.06958305 0.054975234 0.049497474
0.059175562 0.068544105 0.023042796 0.09004041 0.12045991 0.079323225 -0.03951143 0.02826677
-0.021341555 0.035168108 -0.002645309 -0.0073260684 0.07773511 -0.025672698 0.06632034 -0.07021916
0.06268725 0.021474134 0.035371557 -0.07645348 0.0062277257 0.07074792 0.032482777 0.013168154
0.0075866682 0.033630617 0.08460824 -0.14075656 0.006812045 0.0111481305 -0.040456124 -0.043181047
0.13449691 5.888416e-05 -0.0080567775 0.020915251 -0.06015739 0.11522554 -0.03813146 0.033956856
0.01898951 -0.041726217 -0.029992793 0.010534765 0.027661502 -0.06206925 0.0064250305 -0.07763882
0.09070041 0.08956631 0.009710449 0.11753874 -0.040381905 0.00819488 -0.10848252 -0.008037349
0.02082266 -0.01653902 -0.04449023 0.07382542 0.023897594 0.03625081 -0.03196321 -0.039076287
0.028273862 -0.11599252 0.01566101 0.096588686 -0.018217674 0.038710076 0.15049991 -0.057557534
0.018086037 0.030084101 0.015606829 -0.0035701795 0.049640983 -0.0673621 0.053179666 -0.08480016
0.054536585 -0.079288125 -0.06398517 0.058989175 0.02443872 0.039896954 -0.12347296 -0.118026786
0.07526123 0.0673691 0.088463716 -0.04329639 0.113632604 0.025500782 -0.035364073 -0.00044680975
0.013092975 -0.015642634 0.115754485 -0.121021666 0.035949554 -0.00035843957 -0.009340751 -0.09680051
-0.1043732 -0.050378866 0.028280355 -0.01366678 0.03363311 0.066934 0.04450216 0.015408597
0.087557964 -0.12052866 0.07247166 -0.020376964 -0.009406172 -0.0114192255 0.051686883 -0.043788474
0.11687073 -0.071037695 0.054093193 -0.09027505 -0.0070779417 0.084420145 -0.043690454 -0.013199351
-0.07374149 0.02919662 0.028610116 -0.00624458 0.0027007908 -0.06500626 -0.044307105 0.100538164
-0.038879346 0.11212213 0.06987596 0.073943354 -0.06958019 0.02147694 0.059231266 0.09782717
00000000: 8048 d03c 4abc fbbc f3ea 4e3d 0c5a af3c
00000010: d262 c83d a4b6 2e3d 13a0 91bd a199 b13d
00000020: 4582 8c3b 1589 d9bc 9902 983d bebf c7bc
00000030: b329 62bd e88d 053c d419 953d ae9e 863c
00000040: 8639 0b3d e712 0cbe 26fb 7bbd 0ac7 a9bc
00000050: bedc 8e3d 19cf 1e3d 1e49 f13d dd17 d13c
00000060: 7d45 28bd ecdb 203e ddf1 82bd 6409 f83d
00000070: f471 7f3d 589c bc3d 5178 bd3d 355a 97bd
00000080: 4a94 503d 9395 24bd 0cb1 2b3e c8e4 69bd
00000090: c749 cf3c 2b85 493d 8260 ba3c 6f5d e8bc
000000a0: 88db 40bd 305f 88bc 868a ddbd e48f 0dbd
000000b0: 4549 3e3d 637b dc3c 31df a3b8 ef5f 9c3d
000000c0: 30ab 0a3d 2cca 01bd b2cf 913d 00f3 523d
000000d0: f1cc 9f3d afa2 2a3d ac30 65bd 389f 99bb
000000e0: e245 bbbb 331d f33c c22f 98bd 4def 54bb
000000f0: 506d de3d 7461 84bd df53 3ebb cb0a 0a3c
00000100: 3cc6 d2bc c54f c7bc 7dc3 17be 34fc 39bc
00000110: b33d a93d 2709 89bb 4737 213d e9e6 f7bc
00000120: 39eb b1bc e1c5 b2bd 97ec 03be b123 e7bb
00000130: 3074 6dbd c81a 94bd b48f 6b3b 77de 293d
00000140: f51a f73d 40b4 50bd b6e1 4bbc d5cb 9d3d
00000150: 8f7a ee3c 5aef 903d 5157 833d 488d d73d
00000160: c9db 943d fd40 7a3d 5eaf 063c 5df7 cd3d
00000170: 47a8 883d e370 01bd 707f 17bd 93a5 a63d
00000180: eb89 e7bd ddfb 463d f2cd bbbc 582c d73d
00000190: fd7d a83d 1117 793d a6c3 8d3d 2220 4cbd
000001a0: 5da7 493d 1a47 35bd 6b30 86bd 45b5 0a3c
000001b0: 74f2 5abd 8f81 8e3d b62d 613d ddbd 4a3d
000001c0: 1362 723d da60 8c3d 3fc4 bc3c 1b67 b83d
000001d0: afb3 f63d 3774 a23d bdd6 21bd b78f e73c
000001e0: 7cd4 aebc 6f0c 103d ec5c 2dbb 840f f0bb
000001f0: 9633 9f3d 8d4f d2bc f5d2 873d 10cf 8fbd
00000200: 2c62 803d 86ea af3c c4e1 103d a493 9cbd
00000210: f311 cc3b 49e4 903d a90c 053d 3ebf 573c
00000220: 9699 f83b 42c0 093d 1647 ad3d 7d22 10be
00000230: 9337 df3b a6a6 363c 52b5 25bd 9cde 30bd
00000240: 8fb9 093e 63fa 7638 9300 04bc 7656 ab3c
00000250: 9867 76bd 5efb eb3d bc2f 1cbd 5816 0b3d
00000260: e48f 9b3c 1ce9 2abd 72b3 f5bc 029a 2c3c
00000270: 609a e23c 533c 7ebd 1089 d23b 1a01 9fbd
00000280: 23c1 b93d 8b6e b73d 9318 1f3c 27b8 f03d
00000290: 7f67 25bd d143 063c 152c debd 16af 03bc
000002a0: 4894 aa3c d77c 87bc 633b 36bd c831 973d
000002b0: e3c4 c33c bb7b 143d dbeb 02bd 750e 20bd
000002c0: 969e e73c 7c8d edbd 854b 803c 4ad0 c53d
000002d0: 3b3d 95bc 758e 1e3d a61c 1a3e 73c1 6bbd
000002e0: 2b29 943c ef72 f63c c9b3 7f3c acf9 69bb
000002f0: 5854 4b3d 24f5 89bd ecd2 593d b5ab adbd
00000300: c161 5f3d d061 a2bd a80a 83bd a29e 713d
00000310: b633 c83c fd6a 233d 64df fcbd 07b8 f1bd
00000320: 8f22 9a3d d0f8 893d 772c b53d 8e57 31bd
00000330: 36b8 e83d 04e7 d03c ebd9 10bd ca41 eab9
00000340: eb83 563c fb24 80bc b010 ed3d 35da f7bd
00000350: d73f 133d f2ec bbb9 f309 19bc 593f c6bd
00000360: 9ec1 d5bd 125a 4ebd 34ac e73c a1ea 5fbc
00000370: dfc2 093d b114 893d e647 363d 5774 7c3c
00000380: 9751 b33d bbd7 f6bd 066c 943d 97ed a6bc
00000390: 581c 1abc b417 3bbc a0b5 533d 8b5b 33bd
000003a0: ec59 ef3d 367c 91bd d390 5d3d 20e2 b8bd
000003b0: 14ee e7bb 78e4 ac3d c3f4 32bd 1742 58bc
000003c0: c705 97bd c02d ef3c c35f ea3c 559f ccbb
000003d0: c0ff 303b 0122 85bd 5e7b 35bd f4e6 cd3d
000003e0: f33f 1fbd 4aa0 e53d 211b 8f3d 9d6f 973d
000003f0: 0f80 8ebd 68f0 af3c 7c9c 723d 9c59 c83d

network.6.bias f4 [141]
0.044706732 -0.042716775 0.035190903 -0.0408771 0.0013782124 0.064297155 0.0074078985 -0.030640341
0.041232552 0.020964924 0.05976785 0.033342782 -0.035997164 0.019166987 0.006403817 -0.043585774
0.08723323 0.018336121 0.0037039118 0.059291746 -0.022757739 0.009651615 0.02856747 0.06944596
-0.034914576 -0.022470156 0.021426674 -0.042947046 -0.06569456 0.09738574 0.058850165 0.030904466
0.013091658 0.08750171 0.002706845 0.08742709 -0.025760228 0.035948463 0.06931152 0.024217743
0.047275502 0.031426433 -0.04607529 -0.015414635 -0.009675321 0.014787442 -0.01596607 -0.016713155
-0.0058131916 -0.008675859 -0.052796073 0.058641676 0.025072144 0.013165691 -0.03655302 0.028399296
0.042381026 0.06562602 -0.0716266 0.090992846 0.016368037 -0.0024236569 0.05239529 0.052896142
0.0112889595 -0.00718243 0.0330333 -0.010795597 0.02556208 0.038378753 0.07759205 -0.019343428
-0.05058598 0.050603308 -0.012863764 0.03258032 0.07746099 0.042482205 0.038724616 0.042279735
0.059642278 0.12200804 0.10501598 0.064084694 0.0686509 0.035529215 -0.050682507 0.006733866
0.02827212 0.01529407 -0.013741224 0.04409416 0.060437605 0.01709143 0.09003008 -0.016777588
0.0070594293 0.010169225 0.0014038528 0.06889548 0.01644063 0.037583094 0.056708846 0.03748077
0.063544095 0.07702064 -0.011718756 0.050013043 -0.03185465 0.03741407 0.0657493 -0.003685628
-0.006355878 -0.02441456 -0.0065577864 0.05593693 0.03278726 0.02840366 0.010237152 0.0285925
0.026582276 0.05176517 0.0850285 -0.0052463925 0.0908348 0.07560332 -0.06359307 0.08942225
-0.010269992 -0.008894894 0.03038559 0.020937616 -0.045445047 0.0075639756 0.09438005 0.074428
-0.034491193 -0.033583146 -0.014244547 0.057989836 0.0063452735
00000000: 681e 373d c9f7 2ebd 5624 103d bf6e 27bd
00000010: 22a5 b43a 3aae 833d f5bd f23b 7401 fbbc
00000020: 77e3 283d a2be ab3c 22cf 743d 7192 083d
00000030: c371 13bd 1604 9d3c 1cd7 d13b ff86 32bd
00000040: 56a7 b23d a235 963c 54bd 723b e7db 723d
00000050: 706e babc cf21 1e3c 5406 ea3c af39 8e3d
00000060: 9602 0fbd 5513 b8bc fe86 af3c 3ee9 2fbd
00000070: df8a 86bd 2d72 c73d df0c 713d 5d2b fd3c
00000080: 657e 563c 1934 b33d 5365 313b f90c b33d
00000090: 1d07 d3bc b23e 133d 33f3 8d3d 4a64 c63c
000000a0: f5a3 413d 01b9 003d 71b9 3cbd aa8d 7cbc
000000b0: 3d85 1ebc 0747 723c 47cb 82bc 07ea 88bc
000000c0: 967c bebb 3125 0ebc b240 58bd 4132 703d
000000d0: 1964 cd3c e9b4 573c 9fb8 15bd a4a5 e83c
000000e0: ba97 2d3d ef66 863d f8b0 92bd 755a ba3d
000000f0: 4316 863c 37d6 1ebb 729c 563d a0a9 583d
00000100: 54f5 383c 975a ebbb ed4d 073d 04e0 30bc
00000110: 9167 d13c 0a33 1d3d 95e8 9e3d 1c76 9ebc
00000120: 3f33 4fbd 6a45 4f3d 89c2 52bc f172 053d
00000130: dea3 9e3d d201 2e3d b49d 1e3d 842d 2d3d
00000140: 764b 743d 5adf f93d 9e12 d73d d63e 833d
00000150: d898 8c3d 1587 113d 7698 4fbd c3a7 dc3b
00000160: ef9a e73c fb93 7a3c df22 61bc 149c 343d
00000170: 6c8d 773d 5403 8c3c b161 b83d 2771 89bc
00000180: c952 e73b d29c 263c 7c01 b83a 1319 8d3d
00000190: 80ae 863c bbf0 193d 8947 683d 7085 193d
000001a0: 6823 823d ffbc 9d3d 0600 40bc 7ada 4c3d
000001b0: 057a 02bd 7f3f 193d 92a7 863d 948a 71bb
000001c0: f844 d0bb 0b01 c8bc b3e2 d6bb 1f1e 653d
000001d0: ef4b 063d cbae e83c bab9 273c d23a ea3c
000001e0: 13c3 d93c b707 543d 6c23 ae3d eee9 abbb
000001f0: 9807 ba3d ead5 9a3d 153d 82bd 0323 b73d
00000200: 7843 28bc e4bb 11bc 33eb f83c 5d85 ab3c
00000210: 9624 3abd 3adb f73b 544a c13d b56d 983d
00000220: a346 0dbd 7b8e 09bd f661 69bc c086 6d3d
00000230: 03ec cf3b

network.9.weight f4 [21, 141]
0.11109041 0.103157826 -0.23306526 -0.10714331 0.094737515 0.06987206 0.09838104 0.1288834
-0.12375552 0.08990959 -0.032011796 0.026298627 -0.10315443 -0.01463644 -0.14612088 0.011554143
-0.059234712 0.023152672 0.14597428 0.035073806 -0.15929975 -0.11896792 -0.06852888 0.10755568
-0.1295466 -0.12587303 -0.10364458 0.12092647 0.11755296 0.01180623 0.0015728222 -0.046361897
-0.08579425 -0.019503297 -0.055307075 0.06584593 -0.25880942 0.046941582 0.08778957 0.03297358
-0.046821147 -0.08753414 0.096293956 -0.14556162 -0.17907377 0.06533294 0.03373734 0.061116673
-0.22978432 -0.22125396 -0.11328538 -0.27700117 -0.04283021 0.11022462 -0.15578827 -0.05982593
-0.03439326 -0.017085476 -0.2136522 0.07489885 -0.05813936 0.07277793 -0.109600015 0.010039026
0.10545888 0.08198613 -0.14858556 -0.13071309 0.01988132 -0.20826134 0.082665436 -0.13711011
-0.15191722 -0.12590969 0.07288274 -0.16157165 -0.1645537 0.13246441 0.04761938 0.082957074
0.07416381 0.036777653 0.04751655 0.017535627 -0.01240303 0.09573564 -0.16846904 -0.008659501
-0.16200109 0.20569482 0.0795526 -0.04992116 0.10160734 0.10583193 -0.10087921 -0.16631502
0.015448485 0.121816814 0.08286502 0.060149964 -0.15465362 -0.089757964 -0.06378789 0.05514768
0.1309335 0.049303327 0.06355921 -0.22123273 -0.0074057174 -0.07842196 0.0740285 0.04721009
-0.11410304 -0.17405581 0.07065037 -0.1339511 -0.19720347 0.05664304 -0.0029729984 -0.20155463
0.073769115 0.10987435 0.109807976 0.08745327 0.09790991 -0.10071736 -0.1703796 -0.17664114
0.016571691 0.04664299 -0.17414308 -0.22440174 0.03260283 0.02133149 0.029706927 0.08220853
-0.06638582 -0.01214581 0.07054679 0.04120443 0.0075040287 -0.22733927 0.054064922 -0.16261195
-0.12728548 -0.14626198 -0.12817028 0.08267848 -0.17602752 0.03638391 0.045391466 0.06425048
0.06180628 -0.061950598 -0.047773406 0.029144641 -0.04865995 0.12313921 0.012137938 0.07186441
0.07156858 0.061116945 -0.0623202 0.059500497 -0.20414792 -0.17248042 -0.16980335 -0.024066245
-0.18267295 -0.20835194 0.07936988 -0.034179177 0.14934601 0.04799211 0.00019374 0.07201432
0.06973554 0.009432824 0.07031859 0.073523484 0.04333435 0.12529229 0.011717652 -0.16412064
-0.181411 0.08109055 0.0724942 0.07258593 -0.025610328 -0.2905782 -0.047274463 -0.102729976
0.044335693 -0.038461033 -0.22621135 -0.1332048 0.096828416 -0.0044105337 0.041035827 -0.15245874
0.053918436 -0.10273938 -0.13207795 -0.15693977 -0.044822127 -0.069304615 0.058689076 -0.13066019
-0.12176952 -0.14690152 -0.07349437 0.07024793 0.10069086 -0.20369178 0.08935312 -0.121606186
-0.028449317 -0.09867633 0.0040135523 -0.019694595 -0.17580289 -0.07565414 0.0976489 0.11182547
0.058401186 0.070616655 0.11431584 0.090280056 -0.25235015 -0.026445054 -0.14143673 0.094852395
0.08981527 0.03470284 -0.05961892 0.019397125 -0.050751634 -0.117751114 -0.094014086 0.082849704
-0.01658881 0.13615891 -0.12386666 -0.048317913 0.10336441 -0.0453015 0.100571714 -0.045990556
-0.14817531 -0.0696865 -0.19831419 -0.0041760523 -0.008891994 0.065551594 0.09455838 0.09126031
00000000: 5e83 e33d 6944 d33d a9a8 6ebe f46d dbbd
00000010: be05 c23d 1519 8f3d 007c c93d 03fa 033e
00000020: 8973 fdbd 8522 b83d cd1e 03bd 3870 d73c
00000030: a142 d3bd aecd 6fbc b6a0 15be 974d 3d3c
00000040: 19a0 72bd acaa bd3c 487a 153e 8da9 0f3d
00000050: 791f 23be 74a5 f3bd df58 8cbd 2746 dc3d
00000060: dda7 04be dce4 00be 9c43 d4bd 4ca8 f73d
00000070: 9bbf f03d eb6e 413c 2827 ce3a f9e5 3dbd
00000080: e5b4 afbd 61c5 9fbc ac89 62bd 3bda 863d
00000090: ab82 84be d145 403d 05cb b33d 4e0f 073d
000000a0: 88c7 3fbd 1945 b3bd c435 c53d 1b0e 15be
000000b0: 1d5f 37be 47cd 853d 2a30 0a3d 7a55 7a3d
000000c0: 954c 6bbe 6690 62be 2a02 e8bd 19d3 8dbe
000000d0: bb6e 2fbd 72bd e13d f686 1fbe 090c 75bd
000000e0: f2df 0cbd d7f6 8bbc a4c7 5abe 9164 993d
000000f0: 8a23 6ebd 980c 953d f975 e0bd ba7a 243c
00000100: d3fa d73d 58e8 a73d d026 18be a7d9 05be
00000110: 26de a23c 7642 55be 7f4c a93d 9866 0cbe
00000120: 3090 1bbe 78ee 00be 8c43 953d 0a73 25be
00000130: c480 28be c0a4 073e 8a0c 433d 66e5 a93d
00000140: 32e3 973d 2aa4 163d b7a0 423d e0a6 8f3c
00000150: 1436 4bbc 0c11 c43d 2683 2cbe 94e0 0dbc
00000160: 9de3 25be aaa1 523e 79ec a23d 217a 4cbd
00000170: 8217 d03d 69be d83d c299 cebd 7c4e 2abe
00000180: a41b 7d3c 187b f93d 23b5 a93d cf5f 763d
00000190: 855d 1ebe 06d3 b7bd 3aa3 82bd 89e2 613d
000001a0: 6e13 063e 49f2 493d 552b 823d d58a 62be
000001b0: a9ab f2bb b19b a0bd 419c 973d 5e5f 413d
000001c0: dbae e9bd b03b 32be 24b1 903d 7a2a 09be
000001d0: b5ef 49be 8802 683d a3d6 42bb 5664 4ebe
000001e0: 4314 973d ce05 e13d 01e3 e03d b31a b33d
000001f0: fe84 c83d e744 cebd fd77 2ebe 6ae1 34be
00000200: 5bc1 873c b80c 3f3d 9052 32be 92c9 65be
00000210: 8c8a 053d 60bf ae3c f15b f33c f25c a83d
00000220: 4af5 87bd 38ff 46bc d67a 903d fac5 283d
00000230: 5be4 f53b a0cb 68be 2e73 5d3d bf83 26be
00000240: 2057 02be b3c5 15be 123f 03be 5653 a93d
00000250: 8f40 34be 4b07 153d 67ec 393d c195 833d
00000260: 9528 7d3d e9bf 7dbd 0cae 43bd bec0 ee3c
00000270: a84f 47bd 6930 fc3d 34de 463c a62d 933d
00000280: 8c92 923d c355 7a3d 7743 7fbd cbb6 733d
00000290: 270c 51be b59e 30be eee0 2dbe 9326 c5bc
000002a0: 9e0e 3bbe 365a 55be ad8c a23d 77ff 0bbd
000002b0: 29ee 183e 6093 443d af26 4b39 3e7c 933d
000002c0: 82d1 8e3d 228c 1a3c 3103 903d 7b93 963d
000002d0: 5c7f 313d 9f4c 003e 65fb 3f3c 3e0f 28be
000002e0: cec3 39be cd12 a63d d777 943d efa7 943d
000002f0: c0cc d1bc aac6 94be dea2 41bd 1864 d2bd
00000300: 5899 353d 5189 1dbd f3a3 67be d766 08be
00000310: fa4d c63d 3d86 90bb 2f15 283d 251e 1cbe
00000320: 94d9 5c3d 0669 d2bd 713f 07be d2b4 20be
00000330: 6897 37bd 94ef 8dbd f563 703d c9cb 05be
00000340: 4c62 f9bd 5a6d 16be 3784 96bd 26de 8f3d
00000350: 0237 ce3d 9494 50be c5fe b63d aa0c f9bd
00000360: 8b0e e9bc d116 cabd 1e84 833b 8f56 a1bc
00000370: ac05 34be 8ff0 9abd 25fc c73d c104 e53d
00000380: 1536 6f3d 779f 903d 6c1e ea3d c0e4 b83d
00000390: 0a34 81be 4ca3 d8bc cad4 10be f941 c23d
000003a0: 11f1 b73d 9124 0e3d f832 74bd b8e6 9e3c
000003b0: f2e0 4fbd 7f27 f1bd 758a c0bd 1bad a93d
000003c0: 42e5 87bc 3e6d 0b3e cead fdbd 01e9 45bd
000003d0: b8b0 d33d 118e 39bd 8bf8 cd3d 9860 3cbd
000003e0: 45bb 17be ccb7 8ebd e012 4bbe 44d7 88bb
000003f0: baaf 11bc ea3f 863d d3a7 c13d afe6 ba3d

network.9.bias f4 [21]
-0.0067587104 -0.004876726 0.05133103 0.029810894 0.046494793 -0.04297512 0.049175188 -0.088838056
-0.078592665 0.10158635 0.067614175 0.066470556 -0.064972915 0.07783075 0.029462326 -0.03074675
-0.035913758 -0.056149326 -0.0908553 -0.043727178 -0.11769727
00000000: 2c78 ddbb f1cc 9fbb 7c40 523d fa35 f43c
00000010: 5371 3e3d ae06 30bd ec6b 493d baf0 b5bd
00000020: 31f5 a0bd 810c d03d 4d79 8a3d b721 883d
00000030: 8510 85bd ba65 9f3d fa5a f13c 9ce0 fbbc
00000040: 4e1a 13bd d6fc 65bd 5812 babd 451b 33bd
00000050: 440b f1bd
