models/NeuralNetwork-1_acc-60.19_loss-0.000005.pth (torch, 780096 bytes, 20 tensors)

network.0.weight f4 [512, 43]
000000 65 69 2d 3f 02 04 07 bf 56 4b 8c 40 0d b1 56 be
       0.67738944 -0.5274049 4.3841963 -0.20965977
000010 de 93 69 bf d8 ca 91 3d c1 61 54 bf 4e 6c 35 3f
       -0.9124125 0.071187675 -0.8296166 0.70868385
000020 0e e7 3c 3e 47 59 93 3d 88 0c 65 bf 74 2a c9 3c
       0.18447515 0.07194763 -0.89472246 0.024556376
000030 02 1a 73 be d8 68 ea be 25 38 85 bf c8 e9 d1 be
       -0.2374039 -0.45783114 -1.0407759 -0.40998673
000040 53 f9 79 bf 65 f6 bc 3e 17 a5 e6 be ce d5 7c 3e
       -0.97646064 0.36906734 -0.4504783 0.24690935
000050 92 86 81 3f c2 b1 0f 40 bf 16 d6 3f 60 38 c3 bf
       1.0119193 2.2452245 1.6725692 -1.5251579
000060 ae 8d c4 3f 31 91 de bf 3b 32 95 3f 11 c0 3a 3f
       1.5355737 -1.7388059 1.1655954 0.7294932
000070 49 41 63 bf 8c 46 eb 3f 12 76 5b bf 7f 27 d1 3f
       -0.8877149 1.8380904 -0.85727036 1.6340178
000080 72 ad 15 40 92 3e d9 bf 32 b9 47 3e 86 d6 0e 3e
       2.3387113 -1.697222 0.1950424 0.13949022
000090 61 ec 6d c0 83 96 37 3e 21 aa 1b 40 90 64 d0 3f
       -3.7175524 0.1792851 2.4322588 1.6280689
0000a0 fe 2f 88 be 6f 8c aa bf 7e 9b 90 3f 89 95 07 bf
       -0.26599115 -1.3324107 1.1297452 -0.5296255
0000b0 c2 0a 20 bf 6d c6 de 3d a2 d3 ba 3c 45 e2 1f 3f
       -0.62516415 0.108776905 0.022805993 0.62454635
0000c0 c1 29 3e 40 f9 a2 0c c0 40 58 9f 3f 86 54 28 3f
       2.9712985 -2.197447 1.2448807 0.6575397
0000d0 a5 7e 98 be 41 03 09 c0 21 fa c8 bf 38 b3 49 3f
       -0.29784122 -2.1408236 -1.5701333 0.7878909
0000e0 00 9f 25 3f 9a e9 09 c0 45 e5 03 40 46 25 4c 3d
       0.6469574 -2.154883 2.0608685 0.049840234
0000f0 a1 bd 6c 3d 5c bf e0 3f 49 8b f7 3f b2 8c 26 c0
       0.05779803 1.7558398 1.9339381 -2.6023374
000100 35 1b ac be b3 61 55 bf 8f 8b d4 be 23 a1 0e be
       -0.33614507 -0.833522 -0.41512725 -0.13928656
000110 09 14 02 3e fc ae a7 3f 87 a2 02 bf c8 fc b7 3e
       0.12702955 1.3100276 -0.5102925 0.35935044
000120 ec 3e 05 bf b6 db 54 bf 7e 4a 5d bf 91 5c ed 3f
       -0.52049136 -0.8314775 -0.8644179 1.8543874
000130 db 51 b5 bf 43 bc 10 3f 0a b5 04 3f 7f 67 41 c0
       -1.4165605 0.56537265 0.51838744 -3.021942
000140 47 ee 05 3f 99 6b 42 bf e2 d1 20 c0 ea cb 55 3f
       0.5231671 -0.7594543 -2.5128102 0.83514273
000150 1b fb 95 bf 37 41 6b 3f 16 36 5e be fd bf f5 bf
       -1.1717256 0.91896385 -0.2170032 -1.9199215
000160 51 1e f9 3e 95 a6 c6 bf 46 34 17 3f 4e 75 1c bf
       0.48655942 -1.5519587 0.5906414 -0.6111649
000170 04 34 a8 be d5 ef c9 be 71 bb 62 3e 9d 03 d1 3f
       -0.32852185 -0.3944079 0.22141816 1.6329228
000180 6e aa 83 3f 48 0f 92 3e 3f 0f ec 3f 1d a0 16 bf
       1.0286386 0.28527284 1.8442153 -0.58838063
000190 27 fc 43 40 bd 5f c7 3f df 1d b2 3d f5 0f 12 bf
       3.0622652 1.5576092 0.08697104 -0.570556
0001a0 a4 cb a3 bf cf d6 70 3f fc 41 39 bf bf 8e ac bf
       -1.2796521 0.9407777 -0.7236631 -1.3481063
0001b0 7f 43 b9 be a4 d7 c9 3f 64 eb 36 bf dd 41 d0 3f
       -0.36184308 1.5768933 -0.7145293 1.62701
0001c0 04 2a 25 3f 6f 2d 9f 3f 31 06 c6 3f 6a 4c 75 be
       0.64517236 1.243574 1.547064 -0.23954931
0001d0 94 7b 49 3e 7d 46 7a 3e 86 27 0a 40 9c ba da 3e
       0.19676048 0.24440952 2.1586623 0.42720497
0001e0 37 15 88 40 9e 26 29 bf 71 2e 3e 3f 31 f3 31 40
       4.2525897 -0.6607455 0.74289614 2.7804682
0001f0 11 2f a1 3f 71 b6 23 c0 3f 0e 6c 3f 46 0b c1 be
       1.2592489 -2.5580103 0.9220924 -0.37703913
000200 f1 73 84 3f d4 df 3b 3f a8 96 0d bf 37 49 54 3f
       1.0347883 0.7338841 -0.5530801 0.82924217
000210 19 7a 23 3e bf 51 28 3e 1f 7c 8e 3f 59 57 74 3f
       0.15964545 0.16437434 1.1131629 0.9544578
000220 02 1d d0 bf 67 8d cb bf ae a3 a2 3d 46 3c ba 3f
       -1.6258852 -1.5902528 0.07941376 1.4549644
000230 e6 3d ff be a9 cc 93 bf 58 4c 98 3e c2 a7 71 3f
       -0.49851912 -1.1546832 0.29745746 0.94396603
000240 fb d7 2c bf 1a 09 4e 3f e1 4b f6 3f c4 6d 84 3e
       -0.6751706 0.8048264 1.9241906 0.25864995
000250 a5 e6 2b 3f 1a 14 a4 bf ab 88 5c 3f 1c 73 92 be
       0.6714881 -1.2818635 0.8614604 -0.28603446
000260 94 3f a8 bf 21 3e a1 c0 8a 4c 1d bf e3 10 16 c0
       -1.3144403 -5.038834 -0.61444914 -2.3447807
000270 a5 ff 15 c0 02 70 b5 bf b7 73 89 3e 9f 14 b6 bd
       -2.3437283 -1.4174807 0.26846096 -0.08890652
000280 f0 74 ce bf 60 83 ca be 32 b8 e4 3f 73 b6 f5 3e
       -1.6129436 -0.39553356 1.7868712 0.4799076
000290 4a 98 65 be 27 15 1d 3f d7 af 21 c0 c2 41 98 be
       -0.22421375 0.613604 -2.5263574 -0.2973767
0002a0 85 be 51 c0 3d 57 0b 40 71 1a 39 bf b9 a5 e0 bf
       -3.2772534 2.1771996 -0.7230597 -1.7550575
0002b0 d7 76 30 be 5c 4c 95 bf b3 50 3c bf 5b 23 b2 3f
       -0.17232834 -1.1663928 -0.7356064 1.391704
0002c0 35 01 d6 3f 05 61 e9 3e 41 03 0f be 41 1d a6 be
       1.6719118 0.45581833 -0.13966085 -0.32444194
0002d0 87 5e 17 c0 0e 45 86 3e 20 28 da bf 5b 2d 99 3f
       -2.3651445 0.2622456 -1.7043495 1.1966966
0002e0 1e 5e bc 3e a5 b2 0d 40 4c 5e 0d 3f 56 16 95 3f
       0.36790556 2.2140286 0.5522201 1.1647441
0002f0 1d 03 d9 be e7 57 d2 3f 81 ee c9 bf 84 49 4b 3d
       -0.42385188 1.6433076 -1.5775911 0.049630657
000300 aa 2a 01 40 05 a0 e1 bf f7 6e 83 bf 99 6f 02 c0
       2.018229 -1.7626959 -1.0268239 -2.0380614
000310 f7 91 2c 40 c5 eb 26 bf 50 e0 36 bf c0 62 d4 b9
       2.696409 -0.65203506 -0.71436024 -0.00040509365
000320 7f f9 b8 bf 86 62 ea be 81 82 28 3f 9f d9 96 bf
       -1.445114 -0.45778292 0.65824133 -1.1785163
000330 d8 e2 8c bf f6 29 91 bf d4 16 c7 bf c9 75 d1 be
       -1.1006727 -1.134093 -1.5553842 -0.40910175
000340 33 18 5b 3f 24 0b 2c bb 94 ff e3 3f 69 9c b3 3f
       0.855838 -0.0026251758 1.7812371 1.4032108
000350 d4 70 4a 3f 88 53 34 c0 b2 13 19 c0 cc 76 b9 bf
       0.7907841 -2.8175983 -2.391827 -1.4489379
000360 8e e7 d4 be f4 f8 ce 3e 88 50 6f 3f 20 be ca 3f
       -0.41582912 0.4042431 0.93482256 1.5839272
000370 61 4a 32 bf 6a 97 42 bf ca ef 46 3f 60 fc 92 bf
       -0.69644743 -0.7601229 0.7770964 -1.1483269
000380 7b 22 22 bf 47 24 31 bf 0a 32 31 3f fb a0 03 3f
       -0.63333863 -0.6919598 0.6921698 0.5141751
000390 ce a1 e2 3e 1f 84 28 be 49 77 ae 3e 64 9c 6f bf
       0.44264072 -0.1645665 0.34075382 -0.9359801
0003a0 26 f8 da 3e 41 fc b7 bf 56 0b 1a 3f 86 7c 79 3f
       0.42767447 -1.4373857 0.6017355 0.9745563
0003b0 6b f3 60 bf 37 33 0a c0 5b b1 ca bf 7c 41 f9 be
       -0.87871426 -2.159376 -1.5835375 -0.48682773
0003c0 6e 3e 36 be c1 17 ba bf 5f 76 a0 3e d5 31 6c 3f
       -0.17797253 -1.4538499 0.3134031 0.9226354
0003d0 6b b1 80 be 83 ff 49 c0 ec 36 1c 40 e4 cd 03 40
       -0.2513536 -3.1562202 2.4408522 2.0594416
0003e0 a5 fc 43 c0 7a 39 85 3f b7 e0 13 c0 32 85 9e 3f
       -3.0622952 1.0408165 -2.3105905 1.2384398
0003f0 5c 19 1d c0 d9 4f 5f 40 29 95 2d be 9c 13 6e 3e
       -2.4546728 3.4892485 -0.16951431 0.23249668

network.0.bias f4 [512]
000000 e7 f9 44 3d 8c d6 36 3b 3c a3 5b bd b8 09 01 3e
       0.048089888 0.0027898876 -0.05362247 0.12601364
000010 2f 5e e1 3d 03 28 e0 3d bd 54 6f bd f8 62 d5 3d
       0.11004292 0.10945132 -0.058430422 0.104192674
000020 8d af 41 3d 26 25 99 3b e6 b3 9e bd be 67 b8 3d
       0.04728656 0.004673618 -0.07749157 0.09004162
000030 79 8c 8f bd 20 dc 0e be cd e5 8d 3c 76 ff b9 bc
       -0.07009215 -0.13951159 0.017321492 -0.022704821
000040 ed d2 68 3c c6 87 14 3e 47 46 13 be 76 e5 bf bd
       0.014210445 0.14504918 -0.14382277 -0.09369938
000050 52 0f ed b9 e0 54 78 3d e0 92 1a 3e d0 11 4c bd
       -0.00045215577 0.060627818 0.15095091 -0.049821675
000060 5c fe c5 3c ad 68 03 3e c2 9f d2 3d a6 78 11 3e
       0.02416914 0.128329 0.10284378 0.1420618
000070 ea 60 a1 3c d4 51 58 bc fb dc f3 3d 1b fa 85 bd
       0.019699533 -0.013203103 0.11907383 -0.065418445
000080 fe 4b 03 3e 55 20 07 3e 73 db 69 bd e7 aa 02 be
       0.12821957 0.13195927 -0.05709405 -0.12760507
000090 20 5a c3 bc 96 05 05 3e 79 4c b4 3b 0a 52 01 3e
       -0.023846686 0.12990412 0.0055022803 0.12628952
0000a0 c5 9c 09 3e 06 29 04 3d eb d4 89 3d 70 df 8f bc
       0.13438709 0.032265685 0.06730064 -0.017562598
0000b0 6d df 4e bc b5 ed 08 3e 34 29 5a bb 78 dd 0b be
       -0.012626511 0.13371928 -0.003328872 -0.13658702
0000c0 34 19 08 be 98 ca 10 be de 12 87 bd a9 cb 5f bd
       -0.13290864 -0.14139783 -0.065953955 -0.054637585
0000d0 79 16 96 bd b5 38 3d 3d 48 6c 14 3e 83 a7 d8 3d
       -0.07328505 0.04619666 0.14494431 0.10578825
0000e0 e4 16 eb 3d 12 31 87 bc d3 02 71 bd ef 2b de 3d
       0.114789754 -0.01650289 -0.058840584 0.108482234
0000f0 d0 18 ed bb 34 d1 f9 bd 3e ef 1e 3d cc 72 e5 bc
       -0.007235624 -0.121981055 0.038802378 -0.028008841
000100 6f 28 b6 3d 77 41 ab 3c 25 7c 2f bd 57 05 e6 bd
       0.08894431 0.02090524 -0.042843003 -0.11231487
000110 8d 3f 14 3d 15 98 15 3e 18 84 18 3e 1a 76 11 3e
       0.03619342 0.14608796 0.1489414 0.14205208
000120 08 5a d5 3a db 05 de 3d 89 c5 89 3d 64 13 0c 3e
       0.0016277442 0.108409606 0.0672713 0.13679272
000130 dc d1 d1 3c ce e7 be 3d 50 29 d7 3d 70 b2 76 bc
       0.025612764 0.09321557 0.105059266 -0.015057191
000140 46 49 4c bd ef 80 13 3e b4 55 f0 3c fe cc d5 bd
       -0.049874566 0.14404653 0.029337741 -0.1043949
000150 b9 0c 00 3d db e8 78 3c e5 19 ee bd 87 1e c0 bc
       0.031262133 0.015192236 -0.11626033 -0.023452057
000160 f4 2b ce 3c 05 ba e2 3d 10 4b af bb 1c a5 f5 bd
       0.025167443 0.11070637 -0.0053495243 -0.11994383
000170 64 f9 0d be 9f 48 07 3e 03 c8 01 3e 87 3d f7 3c
       -0.13864666 0.13211296 0.12673955 0.030180706
000180 e4 e1 b8 bd 82 cd 20 3c d9 2d 87 3a 5a 1b ad 3d
       -0.0902746 0.009814622 0.0010313346 0.084524825
000190 0b 9a d6 3d f5 50 b2 3c 91 12 4a 3d fe 5a c2 bd
       0.104786 0.021767119 0.049334113 -0.09490012
0001a0 aa 4e ff bd b8 2c 16 3e 3d 0e ca 3d 9b 92 cf 3d
       -0.12466176 0.14665496 0.09865997 0.10135385
0001b0 a4 ce 4f bc c0 67 29 b8 3e 64 1b be 19 31 10 3d
       -0.012683544 -4.0389365e-05 -0.15174958 0.035203073
0001c0 c9 1f e7 bd aa 56 d5 bc a5 0c dc bd de 34 10 be
       -0.112853594 -0.026042301 -0.10744599 -0.14082667
0001d0 78 60 db b9 bf bd b8 3c 38 54 0b be 76 a1 a4 bd
       -0.0004184281 0.022551415 -0.13606346 -0.08038609
0001e0 01 65 59 bc a4 30 30 bc 82 e6 b5 bb ec 57 12 be
       -0.01326871 -0.010753784 -0.0055511603 -0.14291352
0001f0 38 1a 05 3e ca eb f5 3d 37 51 d4 bb eb 2e eb 3d
       0.12998283 0.12007864 -0.006479408 0.11483558
000200 17 78 10 3e c8 f8 ce 3d cb 31 d5 3c bf 0b 15 be
       0.1410831 0.10106045 0.02602472 -0.14555262
000210 83 0a 0f 3e ad 95 8a bd 40 a6 6f 3d d7 51 87 bc
       0.13968854 -0.0676683 0.058508158 -0.016518516
000220 3b cb 2c bd 69 08 1b 3e 43 86 63 bd c0 ab 1a 3e
       -0.042186003 0.15139927 -0.055547964 0.1510458
000230 00 a3 92 3b b0 7b d9 3d fc 03 1f 3d 36 20 de bd
       0.0044749975 0.10619295 0.03882216 -0.108459875
000240 4b 0f c2 3c a5 d3 93 3d 7a 7f 00 bc 70 9a 87 bc
       0.023688933 0.07218102 -0.007842893 -0.016553134
000250 94 56 0b ba ff 08 98 3d b7 b4 ad bd 20 95 89 3c
       -0.00053153303 0.07423591 -0.08481734 0.016794741
000260 0b a6 d8 bc 68 2c db bd 08 8c 62 3d 71 c5 aa 3d
       -0.026446363 -0.10701829 0.055309325 0.0833844
000270 4e c7 01 3e c2 cc 03 3e 0b f1 3c 3d c2 f6 11 3e
       0.12673685 0.12871078 0.046128314 0.14254287
000280 4d 34 9f 3d 5b fb 07 3e a0 ce 36 3d f8 b3 86 3d
       0.077736475 0.13279478 0.044630647 0.06577295
000290 51 39 98 bb c2 5f f9 3d 38 02 ef bd 1a ff eb 3d
       -0.0046455045 0.121764675 -0.11670345 0.11523266
0002a0 c8 26 dd 3d bf 99 d8 3a 48 93 3d 3d 65 0b d9 bb
       0.107984126 0.0016525312 0.046283036 -0.006623673
0002b0 b1 fc dc 3c 47 8d 05 3e 11 c5 dd 3d 09 fb ce 3b
       0.026975961 0.13042174 0.10828603 0.006316547
0002c0 e5 48 e0 bd 43 38 00 bd cf ce 88 bd b4 40 d9 3d
       -0.109514035 -0.031303655 -0.066800706 0.10608044
0002d0 a6 16 b9 3d 2c e7 7e 3d 93 99 ec 3c 04 f0 0e be
       0.09037523 0.06223218 0.028881824 -0.13958746
0002e0 fa 34 aa 3d 33 34 3e 3c 9e b0 c4 3d fb 41 1a be
       0.08310886 0.011609125 0.096039996 -0.15064232
0002f0 19 52 71 bc b0 53 21 bd e6 b4 bd bd 3f 08 ea bd
       -0.014729046 -0.03938645 -0.09263019 -0.11427354
000300 e0 75 7a bd 52 52 bd 3d 4c 78 f2 3d 75 a6 e7 bd
       -0.06114757 0.09244217 0.11839351 -0.11311046
000310 8b 91 82 3c 23 6f c3 bb 8d e7 c2 3d 43 ba ce 3d
       0.01593854 -0.0059641763 0.09516821 0.1009412
000320 65 73 90 bd 75 1c 0f 3d a1 e2 0a be 77 4b 82 bb
       -0.0705326 0.034939248 -0.13563015 -0.0039762813
000330 2e 94 87 bd 63 fc 14 3e b3 dc 14 3e 1f 5f a1 bd
       -0.0662006 0.14549403 0.14537315 -0.07879471
000340 f7 4e d3 bc 94 b5 1a 3c cf a2 5e 3c 6d f6 be bc
       -0.02579449 0.009442706 0.013588621 -0.023310864
000350 8c e9 06 3e 9e 6c 0b 3e 27 62 d9 3d 7f 8a a9 3c
       0.13175029 0.13615653 0.10614424 0.020695923
000360 fb 24 b7 3d 6d 48 9b 3d d4 82 6a bd 94 a0 94 3d
       0.089426 0.075821735 -0.057253674 0.0725719
000370 30 62 c3 bd 1e 3a c6 3d 7a ee 09 3e 53 39 c7 bc
       -0.09540212 0.09679054 0.13469878 -0.024319327
000380 47 cb cd 3d 4c 61 4f bd 6a 48 61 3d d1 c7 c7 3d
       0.10048538 -0.0506299 0.0550007 0.09754909
000390 ea e0 ec 3d 83 21 00 be 6a af ed 3d e1 2c 4d bc
       0.115663365 -0.12512784 0.11605723 -0.012522907
0003a0 f4 76 8d 3d 5f ed 6c bd c7 95 1a be 45 34 d0 bd
       0.06907454 -0.057843562 -0.15096198 -0.101662196
0003b0 89 89 dd bd 26 49 7b 3d 1b c3 06 be c9 6f 0d be
       -0.108172484 0.061349057 -0.13160364 -0.13812174
0003c0 7d 3e 67 bc 62 07 93 bd c3 fb 90 3d e5 4e 9e bc
       -0.014114019 -0.071791425 0.0707927 -0.01932473
0003d0 c6 02 08 be f0 f8 6e 3d 14 da eb 3d 18 36 1b 3e
       -0.13282308 0.058342874 0.115162045 0.15157354
0003e0 77 65 aa 3d c4 f7 57 3c 13 ad ee bd ae ea ca bc
       0.08320134 0.0131816305 -0.11654105 -0.024770107
0003f0 42 26 ca 3c a6 ce 4f bd c1 a9 cd 3d 58 2d ae bc
       0.024676446 -0.050734185 0.100421436 -0.021261856

network.1.weight f4 [512]
000000 19 2f 38 41 26 71 3a 41 3a 9b 39 41 6d b7 32 41
       11.511498 11.652624 11.600397 11.169782
000010 7a 91 2b 41 c8 81 11 41 64 49 30 41 47 93 37 41
       10.723017 9.094185 11.017918 11.473456
000020 54 01 33 41 ff 87 35 41 e4 b5 39 41 84 ac 3b 41
       11.187824 11.345702 11.606907 11.729618
000030 49 46 35 41 e1 84 2b 41 c6 a2 3c 41 75 20 3e 41
       11.329659 10.719941 11.78974 11.882924
000040 c9 61 3c 41 3a 58 33 41 0f 38 34 41 fd fe 4b 41
       11.773873 11.20904 11.263686 12.749753
000050 b7 b1 4b 41 4f 74 36 41 98 6e 38 41 8b f5 48 41
       12.730887 11.403396 11.527 12.559947
000060 1e 17 23 41 81 a6 2a 41 37 c7 2d 41 6b dc 27 41
       10.193144 10.66565 10.861136 10.491313
000070 f9 32 26 41 bc d5 44 41 be 9f 3a 41 20 2a 33 41
       10.3874445 12.302181 11.664 11.197784
000080 33 82 21 41 eb 14 20 41 7b 2b 41 41 b1 d1 3b 41
       10.094287 10.005107 12.073115 11.738694
000090 a3 3e 41 41 08 e3 3f 41 00 34 3c 41 d9 1d 55 41
       12.077792 11.992928 11.762695 13.319787
0000a0 21 aa 13 41 12 f1 39 41 32 af 3c 41 ce dd 39 41
       9.229035 11.621355 11.792772 11.616652
0000b0 42 da 2c 41 c9 6b 38 41 94 1d 47 41 ff 0c 3d 41
       10.803286 11.526315 12.444721 11.815673
0000c0 dd 0a 42 41 bf 2e 33 41 97 6a 26 41 23 6f 24 41
       12.127652 11.198913 10.401023 10.277133
0000d0 08 08 35 41 78 be 50 41 09 1f 31 41 93 a4 49 41
       11.314461 13.046501 11.070077 12.602679
0000e0 f3 c2 3a 41 0e e9 38 41 36 41 3f 41 af 39 2b 41
       11.672595 11.556898 11.953421 10.701583
0000f0 bc 48 2d 41 18 f0 3d 41 16 d1 2b 41 44 80 40 41
       10.830257 11.871117 10.738546 12.031315
000100 10 31 32 41 da aa 25 41 06 2d 24 41 5d ee 33 41
       11.136978 10.354212 10.260992 11.245694
000110 20 8f 16 41 7d 41 33 41 d3 96 2c 41 82 e9 3d 41
       9.409943 11.203488 10.786822 11.869509
000120 c9 7a 39 41 49 50 2d 41 c4 1d 22 41 8c 52 34 41
       11.592477 10.832101 10.132267 11.270153
000130 b0 fb 3e 41 cc 7a 35 41 52 d2 42 41 ba f9 33 41
       11.936447 11.34248 12.176348 11.248468
000140 7a d9 49 41 8e 87 23 41 25 7a 3d 41 0d 2c 4f 41
       12.615595 10.220594 11.84232 12.948255
000150 ce a1 44 41 11 16 49 41 1f bd 3d 41 7a 54 3d 41
       12.289503 12.567887 11.858672 11.833124
000160 9b d9 2b 41 35 ed 3f 41 41 ac 3a 41 d6 00 2b 41
       10.740626 11.995412 11.667054 10.687704
000170 18 a3 37 41 e3 8c 48 41 c4 df 30 41 d6 4e 26 41
       11.477318 12.534396 11.05463 10.394247
000180 5f 19 25 41 88 1d 3c 41 2c f5 30 41 2c a7 44 41
       10.318694 11.75721 11.059856 12.290813
000190 eb ce 32 41 81 29 34 41 ba 60 31 41 f8 7b 4c 41
       11.175517 11.260133 11.086115 12.780266
0001a0 66 db 36 41 c6 93 2c 41 00 e5 12 41 7c 48 37 41
       11.428564 10.7860775 9.180908 11.455196
0001b0 d5 97 39 41 05 11 35 41 24 c0 30 41 fd e8 34 41
       11.599568 11.316655 11.046909 11.306882
0001c0 9f 07 2f 41 a6 12 37 41 98 57 25 41 08 96 3c 41
       10.939361 11.442053 10.333885 11.786629
0001d0 fb 77 47 41 3f 27 4e 41 dc f8 38 41 a0 6f 2d 41
       12.466792 12.884582 11.560757 10.839752
0001e0 29 f3 4b 41 ac 67 2e 41 99 c0 20 41 f0 b3 33 41
       12.746865 10.9003105 10.047021 11.23143
0001f0 5f 03 3f 41 69 e7 3b 41 b5 01 3d 41 78 47 37 41
       11.938323 11.743997 11.812917 11.454948
000200 15 18 24 41 fa 90 30 41 12 19 47 41 95 87 41 41
       10.255879 11.035395 12.443621 12.095601
000210 d9 6b 23 41 b5 7a 41 41 48 a7 3a 41 38 f0 2c 41
       10.21383 12.092458 11.66584 10.808647
000220 78 7d 0d 41 6d d6 0e 41 49 25 3d 41 02 d5 33 41
       8.843132 8.92735 11.821603 11.239504
000230 e9 0d 22 41 90 8f 2f 41 56 e9 26 41 6d c3 3c 41
       10.128396 10.972549 10.431967 11.797711
000240 dc 06 46 41 0f 1a 2c 41 58 1a 2c 41 34 78 2e 41
       12.376675 10.756362 10.756432 10.904346
000250 c1 07 2a 41 f3 52 2e 41 0e b4 2e 41 7c 8b 39 41
       10.626893 10.895251 10.918959 11.596554
000260 f7 0b 32 41 c5 e4 40 41 48 86 21 41 19 89 3e 41
       11.127921 12.055852 10.0952835 11.908471
000270 1c 88 36 41 15 14 3e 41 f9 54 3f 41 0a 5b 38 41
       11.40823 11.879903 11.958245 11.522226
000280 69 4c 39 41 35 c0 44 41 1b 2e 41 41 ba a1 1c 41
       11.581155 12.296926 12.073756 9.789484
000290 e6 20 36 41 42 90 34 41 9f cc 2e 41 0a 8a 40 41
       11.383032 11.285219 10.924956 12.033701
0002a0 aa 17 20 41 3f 73 35 41 fd 9b 36 41 79 3e 29 41
       10.005777 11.340636 11.413083 10.577752
0002b0 21 3f 34 41 87 3b 39 41 3c f9 3f 41 d7 30 33 41
       11.265412 11.577033 11.998348 11.199424
0002c0 e6 33 2c 41 35 10 39 41 79 4a 35 41 a0 c7 2f 41
       10.7626705 11.566457 11.330682 10.986237
0002d0 f3 5f 45 41 ab c7 46 41 5b 64 42 41 c6 b9 3c 41
       12.335925 12.423747 12.149501 11.795355
0002e0 bb e6 32 41 10 ac 29 41 e5 70 2b 41 1e 2d 2e 41
       11.181331 10.604507 10.715062 10.886015
0002f0 e0 30 43 41 49 ca 39 41 8b 1a 4e 41 a8 48 55 41
       12.199432 11.611886 12.88148 13.330238
000300 92 8f 30 41 af 43 2e 41 09 97 2a 41 a2 6e 3d 41
       11.035051 10.891524 10.661874 11.83951
000310 6b e8 35 41 0c ba 3e 41 19 47 1f 41 ec cd 32 41
       11.369243 11.920422 9.954858 11.175274
000320 85 71 2e 41 ac a1 2e 41 0f 84 45 41 ea df 31 41
       10.902715 10.914471 12.344741 11.1171665
000330 8a 66 36 41 ce 03 2b 41 69 36 50 41 87 7f 2d 41
       11.400034 10.688429 13.013284 10.843635
000340 8d 06 2d 41 38 4d 2b 41 c3 46 25 41 0f 90 31 41
       10.814099 10.706352 10.329776 11.097671
000350 37 d9 32 41 1d 2f 2b 41 6c 34 25 41 d1 4b 29 41
       11.178031 10.699002 10.325298 10.58101
000360 12 23 3a 41 f9 74 37 41 6b 51 37 41 0f 47 25 41
       11.633562 11.466058 11.457377 10.329848
000370 4f 87 4e 41 87 c9 3e 41 4f 0a 1d 41 2e 67 3d 41
       12.908034 11.924201 9.815017 11.83769
000380 0c 2c 34 41 b0 1f 25 41 3b d1 2a 41 26 05 30 41
       11.260754 10.320236 10.676082 11.001257
000390 6b 8f 37 41 f9 01 41 41 b1 e5 28 41 0d 63 43 41
       11.472514 12.062982 10.556077 12.211682
0003a0 46 95 32 41 55 d5 24 41 ba 23 30 41 cb 72 46 41
       11.161444 10.302083 11.008722 12.403026
0003b0 02 c2 22 41 37 ef 2d 41 1e 5d 35 41 f8 93 3f 41
       10.172365 10.870902 11.335234 11.973625
0003c0 29 ec 2d 41 07 94 43 41 a3 98 45 41 07 84 3a 41
       10.870156 12.2236395 12.349765 11.657233
0003d0 d4 e3 2d 41 0f b6 2d 41 f2 ac 34 41 2c 9e 3c 41
       10.868122 10.856948 11.292223 11.788616
0003e0 96 4a 21 41 13 c9 35 41 e8 85 38 41 04 62 31 41
       10.080709 11.36159 11.532692 11.08643
0003f0 fe bf 3d 41 a0 bd 2c 41 d2 38 3e 41 46 01 38 41
       11.859373 10.796295 11.888872 11.500311

network.1.bias f4 [512]
000000 41 a5 02 c0 4e 29 cd c0 20 39 e6 c0 b1 19 b8 c0
       -2.0413363 -6.411292 -7.1944733 -5.753136
000010 4f 8b c2 c0 b5 4c ee c0 7a 29 c1 c0 a2 46 c8 c0
       -6.0795054 -7.4468637 -6.036313 -6.258622
000020 d5 56 ad c0 4a 8a c9 c0 c8 4b ab c0 cb d2 8e c0
       -5.4168496 -6.298131 -5.3530006 -4.4632316
000030 91 5a db c0 8e ad e8 c0 b4 4a b4 c0 1b 05 ec c0
       -6.8548055 -7.271186 -5.634119 -7.375623
000040 92 d2 a5 bf 58 4e e1 c0 c5 9f e7 c0 02 7f a5 c0
       -1.2954886 -7.0408134 -7.238253 -5.171754
000050 76 4a d3 c0 78 5a f8 c0 8c 1a e2 c0 d6 6a a8 c0
       -6.6028395 -7.7610435 -7.0657406 -5.2630415
000060 80 01 ae c0 e0 0f b0 c0 1d c9 c8 c0 da 6c d2 c0
       -5.437683 -5.501938 -6.27455 -6.5757875
000070 a8 56 ba c0 19 e7 be c0 a2 e0 ad c0 fe 0f 40 c0
       -5.823078 -5.96571 -5.433671 -3.000976
000080 ab d4 9a c0 0e ce cb c0 aa 4d fc c0 f0 dc e4 c0
       -4.8384604 -6.368903 -7.8844805 -7.15197
000090 a9 d1 ab c0 9e fe 96 c0 80 9d b2 c0 3f a1 68 c0
       -5.3693433 -4.718581 -5.581726 -3.6348417
0000a0 60 c9 c4 c0 79 3a db c0 df df d6 c0 46 93 d1 c0
       -6.149582 -6.850888 -6.714828 -6.5492277
0000b0 f0 95 57 c0 89 1a bf c0 5f 31 f3 c0 32 2f db c0
       -3.3685265 -5.971989 -7.5997767 -6.849511
0000c0 40 9f d2 c0 17 3f 02 c1 d7 6c bd c0 35 9a e4 c0
       -6.5819397 -8.140403 -5.919536 -7.143824
0000d0 f6 fd ab c0 6b 49 41 c0 bf 7e f8 c0 6e dd 9e c0
       -5.374751 -3.020106 -7.765472 -4.96453
0000e0 16 f0 8b c0 c2 9b dc c0 28 33 da c0 a3 0c e1 c0
       -4.3730574 -6.8940134 -6.8187447 -7.0327926
0000f0 91 83 c2 c0 29 bf 0c c1 e6 bc b5 c0 55 1c e7 c0
       -6.0785604 -8.79667 -5.679309 -7.2222085
000100 2a 4f e1 c0 e1 a0 99 c0 ec 7c 04 c1 5e ae b4 c0
       -7.0409136 -4.8008885 -8.2804985 -5.646285
000110 e9 36 f4 c0 ea f0 6c c0 c3 34 07 c1 81 f5 bf c0
       -7.631703 -3.7022042 -8.450381 -5.9987187
000120 9e 2c ba bf 4f 67 f2 c0 68 8e c3 c0 af 0e 03 c1
       -1.4544866 -7.575111 -6.1111336 -8.191085
000130 76 19 d2 c0 7c 8c 8f c0 88 77 0a c1 8c 2d bc c0
       -6.565608 -4.485899 -8.654182 -5.88056
000140 4f 41 b8 c0 b2 50 d7 c0 bf be ad c0 8d 5f fe c0
       -5.7579722 -6.7286005 -5.4295344 -7.949164
000150 6b ff 8a c0 1e ba fb c0 23 eb e8 c0 7f 28 d7 c0
       -4.343679 -7.8664694 -7.278703 -6.7236934
000160 35 2c 17 c0 b4 ef aa c0 fe 67 ad c0 2a 19 c3 c0
       -2.3620732 -5.3417606 -5.4189444 -6.096822
000170 a3 3d dd c0 ea b6 8e c0 e4 5f cf c0 9b b5 c9 c0
       -6.913774 -4.4598284 -6.4804554 -6.3034186
000180 77 7c b6 c0 d1 f1 01 c1 da f8 f6 c0 f6 d7 ff c0
       -5.7026935 -8.121537 -7.7178774 -7.9951124
000190 09 09 e7 c0 e9 41 af c0 83 17 bd c0 dc 9b 02 c1
       -7.219853 -5.4767957 -5.90912 -8.163052
0001a0 4a 48 cf c0 f9 cb e8 c0 0b 57 62 c0 77 20 ae c0
       -6.4775743 -7.274899 -3.5365627 -5.441463
0001b0 02 2c b8 c0 35 12 d5 c0 e0 24 d0 c0 d1 f7 f7 c0
       -5.755372 -6.6584725 -6.5045013 -7.749001
0001c0 69 7d b0 c0 20 a6 62 c0 ef ce b8 c0 5e 52 8e c0
       -5.515309 -3.5413895 -5.7752604 -4.4475546
0001d0 bd 54 a0 c0 44 c9 ed c0 25 b6 d4 c0 d7 df b2 c0
       -5.010344 -7.4308186 -6.6472344 -5.589824
0001e0 1b 66 cc c0 fb 56 7b c0 c7 06 cb c0 ff cc d7 c0
       -6.387464 -3.9271839 -6.3445773 -6.743774
0001f0 45 f0 ea c0 68 d4 b8 c0 4b 69 a2 c0 1c b4 cc c0
       -7.34183 -5.7759285 -5.075353 -6.396986
000200 8f 9f 00 c1 51 e1 c1 c0 6a 9c b1 c0 d9 16 a1 c0
       -8.038955 -6.0587544 -5.5503435 -5.034039
000210 f8 f3 a6 c0 a9 fb dd c0 9c 67 01 c1 e8 13 aa c0
       -5.2172813 -6.93697 -8.087795 -5.31493
000220 b3 72 70 c0 df 14 6e c0 40 fe ec c0 51 49 e1 c0
       -3.7570007 -3.7200239 -7.4060364 -7.0401998
000230 ea 86 c9 c0 55 e4 c4 c0 3e 36 9e c0 71 66 e6 c0
       -6.297719 -6.1528726 -4.9441214 -7.200005
000240 6a ac 9e c0 ca 0d f7 c0 b5 99 c0 c0 a8 12 f1 c0
       -4.9585466 -7.720433 -6.018763 -7.5335274
000250 21 e8 c6 c0 90 0b c0 c0 bf b2 bb c0 52 40 d3 c0
       -6.215836 -6.0014114 -5.8655696 -6.6016016
000260 5d d6 e9 c0 b1 1c e1 c0 21 b7 d6 c0 f0 8e e2 c0
       -7.3074174 -7.0347524 -6.7098546 -7.0799484
000270 64 3d c1 c0 2d b4 b1 c0 04 a5 b3 c0 b2 a4 ed c0
       -6.038744 -5.553244 -5.6138935 -7.4263544
000280 e9 96 dc c0 c3 67 05 c1 c8 b3 b3 c0 33 af 0e c1
       -6.8934216 -8.337832 -5.615696 -8.917773
000290 7a b0 0e c1 65 38 84 c0 b3 24 a9 c0 5c 7c 8f c0
       -8.918085 -4.131884 -5.28573 -4.4839306
0002a0 d8 02 ee c0 b9 64 d4 c0 16 12 5c c0 4b 20 b0 c0
       -7.437847 -6.6372952 -3.4386039 -5.503942
0002b0 b0 98 7a bf f4 c2 d7 c0 90 c7 91 c0 3b ef c5 c0
       -0.9788923 -6.742548 -4.5556107 -6.185453
0002c0 cb 73 c2 c0 44 31 e2 c0 37 c6 70 c0 44 d7 c2 c0
       -6.076635 -7.068514 -3.762098 -6.0887775
0002d0 aa 81 f1 c0 fa 05 ae c0 57 08 e8 c0 40 9c 92 c0
       -7.547078 -5.4382296 -7.251018 -4.5815735
0002e0 24 9f ba c0 73 46 a1 c0 62 d7 ec c0 bd 9a e4 c0
       -5.8319263 -5.0398498 -7.401292 -7.143889
0002f0 ae e7 d4 c0 e0 93 e0 c0 12 d1 9e c0 b0 11 ca c0
       -6.653281 -7.018051 -4.9630213 -6.314659
000300 2e ab 26 c0 cb b4 98 c0 d6 af dc c0 e8 1a df c0
       -2.604198 -4.7720695 -6.8964643 -6.9720345
000310 d8 16 0d c1 40 70 a3 c0 9f 43 b7 c0 6a 85 ad c0
       -8.818077 -5.1074524 -5.7270045 -5.422536
000320 fe 75 a0 c0 da 5a 8d c0 0a 77 4f c0 c1 81 a7 c0
       -5.0144033 -4.4173403 -3.2416406 -5.234589
000330 2b ca bf c0 e4 58 d8 c0 f3 b3 c9 c0 f5 c6 f1 c0
       -5.9934287 -6.760851 -6.3032165 -7.5555367
000340 ba e7 06 c1 a4 d5 f7 c0 f7 10 c3 c0 8b 03 e0 c0
       -8.431574 -7.744829 -6.095821 -7.0004325
000350 c2 72 01 c1 0e 94 a4 c0 66 20 10 c1 ab 58 bd c0
       -8.090517 -5.143073 -9.00791 -5.9170737
000360 63 39 e3 c0 e2 38 b6 c0 b7 dd ba c0 e3 f7 fe c0
       -7.100755 -5.6944437 -5.839565 -7.9677596
000370 7b 6b b1 c0 0e 3d e5 c0 c8 cd c9 c0 2f 46 ac c0
       -5.54437 -7.163703 -6.30637 -5.3835673
000380 e1 d2 06 c1 7b 19 b6 c0 75 8a d2 c0 00 57 dd c0
       -8.426484 -5.6906104 -6.5794015 -6.91687
000390 0f 63 e4 c0 21 92 e4 c0 41 d5 fb c0 5b db d4 c0
       -7.137092 -7.142838 -7.869782 -6.651777
0003a0 65 91 c1 c0 7b 93 c8 c0 ac 35 a8 c0 b7 50 62 c0
       -6.0489984 -6.268003 -5.2565517 -3.5361764
0003b0 c8 b0 d0 c0 b6 08 bb c0 19 ad 02 c1 65 5e d3 c0
       -6.5215797 -5.8448133 -8.16726 -6.605273
0003c0 26 41 eb c0 62 0d ef c0 b0 58 d1 c0 81 50 e4 c0
       -7.3517027 -7.4703836 -6.542076 -7.134827
0003d0 fd c3 c9 c0 5e ce c6 c0 62 e6 ea c0 54 af a4 c0
       -6.3051744 -6.2126913 -7.340623 -5.1464024
0003e0 d2 bc cf c0 85 59 b4 c0 c7 08 ed c0 ab 6b e9 c0
       -6.4917994 -5.6359277 -7.4073215 -7.294393
0003f0 a2 44 98 c0 8d 74 d1 c0 75 4d e4 c0 63 ac d2 c0
       -4.758378 -6.5454774 -7.134455 -6.5835433

network.1.running_mean f4 [512]
000000 5c 7a cf be a2 06 9f be 6e 3f b7 3e c5 9d 65 be
       -0.4052304 -0.31059748 0.3579058 -0.22423466
000010 3e c0 ba be c2 25 04 bf 83 b6 07 bf 43 88 c2 3e
       -0.36474794 -0.51620114 -0.53012866 0.37994584
000020 10 0c b1 bc 30 42 73 bd 63 f2 30 bf 91 be 3f 3f
       -0.021612197 -0.059389293 -0.6911985 0.74900156
000030 39 36 dd be 0c 5b af be cb 0e 00 3f bc fa 14 3e
       -0.4320543 -0.3424915 0.5002257 0.14548773
000040 40 38 e9 be 63 06 4e 3f 32 e2 72 3d 44 d9 7e 3d
       -0.45550728 0.80478495 0.059297748 0.06221892
000050 97 72 53 bf ad b2 4f 3f ef 7f 18 3f 72 b5 7d bf
       -0.82596725 0.8113201 0.5957021 -0.9910499
000060 f4 f1 38 3e a3 9c 44 be 6f bd be be b2 a3 50 3f
       0.18061048 -0.19200377 -0.372539 0.8149978
000070 38 52 4e bf dc be 7a 3f a4 76 da 3e 7d 52 0c 3e
       -0.80594206 0.9794748 0.4266864 0.13703342
000080 a8 37 28 bd 13 27 e1 be 6b ff 29 bf 2b e9 da be
       -0.041068703 -0.43975124 -0.6640536 -0.42756018
000090 9e 66 97 3e f1 fd 08 be 00 0a e8 3a 40 9b 5b 3f
       0.29570478 -0.13378121 0.0017703176 0.8578377
0000a0 e6 d8 b1 be 64 0d 45 bd 9b eb 15 3f 5b 79 89 3f
       -0.34735793 -0.048108473 0.5856263 1.074016
0000b0 83 41 86 3e 3c 8c 9b 3d 26 e8 aa 3d 45 ce cf 3e
       0.26221856 0.07595107 0.0834506 0.4058706
0000c0 f0 53 9b 3e 5f 52 8f 3e 48 82 7f be 9a 37 34 3e
       0.30337477 0.27992532 -0.24952042 0.17599335
0000d0 2a 6f 8c 3f c0 07 82 3d 3e 4b 21 3e 58 aa 6b 3f
       1.0971425 0.063491344 0.15751359 0.920568
0000e0 00 62 48 bd 4c 5e ad 3d d4 bb 1e 3e ba b6 97 3f
       -0.048921585 0.08465251 0.15501338 1.1852639
0000f0 85 1a 4d 3e 6f 1a 22 3e 31 53 92 3f 08 fb 6b bd
       0.20029648 0.15830396 1.1431638 -0.05761245
000100 82 24 03 3e 8c f6 58 3e 8a 93 5a 3d 79 b7 1a bf
       0.12806895 0.211878 0.05336336 -0.6043621
000110 07 de 9c 3d ec be 33 3f a4 2b 11 3f 0e 89 f4 be
       0.07659536 0.702132 0.56707215 -0.47760814
000120 bd e0 47 be 2e 47 28 3e 24 ab 47 3e ac 2f 2f 3e
       -0.19519325 0.16433403 0.19498879 0.17108029
000130 ae 88 82 be ed c3 c1 3e 80 fa 9e bc c6 d2 0d be
       -0.25494903 0.37844792 -0.019406557 -0.13849935
000140 50 6a 5b bf b0 ac dd 3e cd 41 02 3f 02 09 33 3e
       -0.85709095 0.43295813 0.50881654 0.17483905
000150 b7 b7 51 3f ed 00 65 3e a0 8a 57 3e f7 b6 e1 3e
       0.8192095 0.22363634 0.21048975 0.44084904
000160 a8 9a c7 be df 70 31 3f 67 38 53 bf 36 0e 61 3f
       -0.3898518 0.6931285 -0.8250794 0.8791231
000170 7c 99 70 bd 28 e0 58 bd d6 fd 13 3d 33 25 9e be
       -0.058740124 -0.052948147 0.03613075 -0.30887756
000180 ed e0 64 3e 6e 29 a4 3e d6 4c 34 3f 02 c0 86 be
       0.22351427 0.32062858 0.7042974 -0.26318365
000190 74 93 11 3e a8 94 ff 3d 52 31 20 3f 1a c9 04 bf
       0.14216405 0.12479526 0.62575257 -0.51869357
0001a0 84 e1 f1 be b8 07 82 be 27 10 0c 3f 30 b6 68 be
       -0.47242367 -0.25396514 0.54712147 -0.22725749
0001b0 ae be 1e 3e ec eb 7a bf cd 09 11 3f b7 1c a9 3e
       0.15502426 -0.9801624 0.5665558 0.3302972
0001c0 7f e3 01 3f ae f2 92 be 8c 0e 3c be 0e 68 ab 3e
       0.50737756 -0.28700775 -0.18364924 0.33477825
0001d0 c7 53 8e be 62 0a d4 be 74 77 c0 3d c4 8a 10 bd
       -0.27798292 -0.4141417 0.09397784 -0.035288587
0001e0 71 26 19 bf 8a 9c 9e be cc 1b 3a 3e ac 33 76 be
       -0.5982428 -0.30978805 0.18174666 -0.24043149
0001f0 e8 58 7e be a4 31 e5 3e 57 a0 23 3f 9b c1 0c 3e
       -0.24838603 0.44764435 0.63916534 0.1374573
000200 9b 90 4f 3e 25 d3 5f be f4 91 4d 3f fb 5e a2 be
       0.20270006 -0.21857889 0.8030083 -0.3171309
000210 3d 32 81 3f 20 2f 99 3d ba ac 42 3f 1a 98 8d 3e
       1.0093457 0.074796915 0.7604481 0.27655107
000220 04 b9 88 bc 29 16 a1 3d 66 2f 88 3e 46 e0 82 3f
       -0.016689785 0.07865555 0.26598662 1.0224693
000230 b6 8e 2f 3f e7 76 20 3e e0 47 b0 bd 59 74 8b 3e
       0.68577135 0.15670358 -0.08607459 0.27237204
000240 5e 04 95 bd 50 94 f1 3e f8 aa e7 be 9b 7d 24 3f
       -0.072762236 0.47183466 -0.45247626 0.6425416
000250 5c 69 35 3f 19 b7 d5 3d 0d f9 12 bf e6 41 e7 be
       0.7086389 0.10435314 -0.5741127 -0.45167464
000260 c6 28 8e 3e 94 4d a6 be ae b2 14 3f e0 0f c2 bb
       0.27765483 -0.32481062 0.58085144 -0.0059223026
000270 ab 73 91 3e 9e 56 a1 bf 62 4e 59 be d4 42 c6 3d
       0.2840856 -1.2604558 -0.21221307 0.09680715
000280 b9 29 16 3e 3e 11 13 3f 68 14 e1 3d fa 37 f5 3d
       0.14664353 0.57448184 0.1099022 0.11973567
000290 f2 51 cd 3e a2 db 9d 3d 2b 30 5f be aa c6 3c be
       0.40101582 0.07707907 -0.21795718 -0.1843516
0002a0 df 85 25 3e 4f 6c f3 3e 73 a4 93 3e 48 c8 4d 3d
       0.16164349 0.4754357 0.28836402 0.05023983
0002b0 73 fc 42 3f 80 4a 61 3e b1 e7 4f 3f 7d 59 5d 3e
       0.76166457 0.22001076 0.8121291 0.21616168
0002c0 f8 f4 e5 3e c0 44 27 3d a6 80 89 bf 3f de 89 3e
       0.4491346 0.04083705 -1.0742385 0.26927373
0002d0 b4 4f f5 be 70 e0 47 3e 08 98 2f 3e 8c a7 f6 3d
       -0.4791237 0.1951921 0.17147839 0.12043676
0002e0 f0 d9 30 3f 4f f0 91 be 04 21 25 3e fa 7b 8c be
       0.69082546 -0.28503653 0.16125876 -0.27438337
0002f0 76 d9 36 3f c4 30 22 3f 10 1a 69 bf 2f 33 d7 be
       0.7142557 0.6335566 -0.91055393 -0.42031237
000300 a3 23 c8 be 76 2c 69 3f 4e c3 f6 3e fc 38 b3 be
       -0.3908969 0.91083467 0.4819588 -0.35004413
000310 70 6d e2 be 60 3e 74 3f 76 69 f3 3d 18 8a 15 bf
       -0.4422412 0.95407677 0.118853495 -0.5841384
000320 4f ad 1b bf f2 40 41 3e 52 1a 95 3e 26 d5 16 bf
       -0.6081132 0.18872431 0.29121643 -0.5891899
000330 8e 66 ca 3d 34 87 7f bf d4 b6 50 3f 93 6f 20 3f
       0.09882842 -0.9981568 0.81528974 0.6267025
000340 87 1c 4d 3f 72 e5 fc be 40 d4 66 3c 7e 81 8a 3e
       0.80121654 -0.49393803 0.01408869 0.2705192
000350 12 3d 01 3f 58 aa 48 3e f8 95 bf be f9 d5 8c be
       0.5048381 0.19596231 -0.37419105 -0.27506998
000360 39 64 a9 be 74 ec d4 3e f0 31 64 3f 5e 8e 33 3f
       -0.33084276 0.4158665 0.891387 0.7013911
000370 a0 df 8b bc 66 cd 1f bf 38 bb 0c bd 75 65 1c be
       -0.017074406 -0.6242279 -0.034358233 -0.15273078
000380 cb 93 53 3f d2 54 44 3f 3e 7d aa 3e 83 12 15 be
       0.8264739 0.76691926 0.33298677 -0.14557843
000390 c2 05 53 3f 03 4d 9e bf e8 1e 8b be 05 7c 05 3f
       0.8243066 -1.2367252 -0.27172017 0.52142364
0003a0 a0 30 b8 3e 70 b2 79 3f c4 03 e5 3c 36 c6 ca be
       0.35974598 0.975379 0.027955897 -0.39604348
0003b0 bf be 18 bf 30 93 0e 3f e6 24 62 be 94 94 e9 3e
       -0.59666055 0.5569334 -0.22084388 0.4562117
0003c0 ba 4a 2f 3f d4 98 84 3e 43 78 d7 3e 7c cd f3 3d
       0.684734 0.2589785 0.4208394 0.119044274
0003d0 af f0 5e 3e 1d 80 b3 be fb e5 c5 be e6 fb b4 3e
       0.21771501 -0.3505868 -0.38652024 0.35348433
0003e0 48 2a 19 3e 8d 05 bf be 5c 9f d9 3e 54 6d 7c bd
       0.14957535 -0.37308922 0.42504394 -0.0616277
0003f0 86 fb 20 3f 3c 98 51 be 59 db 56 3f b4 29 23 bf
       0.62883794 -0.20468229 0.8392845 -0.6373551

network.1.running_var f4 [512]
000000 75 dc b1 44 72 48 5a 44 bf a1 81 44 1c 1e 4a 44
       1422.8893 873.13196 1037.0546 808.47046
000010 2c 9a 66 44 47 31 55 44 ed 47 8b 44 51 ab 53 44
       922.40894 852.76996 1114.2477 846.6768
000020 66 1a 80 44 4b 3d 59 44 af 50 96 44 0d c9 95 44
       1024.825 868.9577 1202.5214 1198.2828
000030 f4 a0 62 44 17 8e 72 44 7e a5 5f 44 ab c9 63 44
       906.5149 970.22015 894.5858 911.15106
000040 e1 78 a0 44 8c 9c 73 44 fb 63 81 44 83 f0 87 44
       1283.7775 974.44604 1035.1244 1087.516
000050 42 25 90 44 cb eb 65 44 85 39 7f 44 d3 ca a1 44
       1153.1643 919.68427 1020.89874 1294.3383
000060 84 cf 48 44 35 93 4f 44 c5 8e 3d 44 de 0a 35 44
       803.24243 830.3001 758.2308 724.1698
000070 01 43 47 44 7e 03 48 44 7b 6b 86 44 ea 24 90 44
       797.04694 800.05457 1075.3588 1153.1536
000080 51 0f 4e 44 4e 9d 52 44 88 6d 44 44 f5 40 66 44
       824.2393 842.4579 785.7114 921.01495
000090 03 64 84 44 1a a8 62 44 73 39 68 44 7b de a2 44
       1059.1254 906.6266 928.89764 1302.9525
0000a0 5e 27 82 44 e8 80 8c 44 41 a2 a6 44 ab ee 62 44
       1041.2302 1124.0283 1333.0704 907.7292
0000b0 6f 05 6c 44 76 aa 80 44 d0 86 8b 44 38 14 59 44
       944.0849 1029.3269 1116.2129 868.3159
0000c0 33 1f 68 44 b3 30 86 44 d5 e8 34 44 b2 3f 76 44
       928.4875 1073.5219 723.638 984.99524
0000d0 60 6e 59 44 8f f2 3e 44 71 24 92 44 8b 76 70 44
       869.7246 763.79 1169.1388 961.85223
0000e0 7e 13 66 44 6e 68 93 44 f7 a1 4e 44 31 63 61 44
       920.30457 1179.2634 826.5307 901.54987
0000f0 35 ee 89 44 ad 8d a2 44 11 39 57 44 bf 49 90 44
       1103.444 1300.4274 860.89166 1154.3046
000100 c3 30 7a 44 d0 54 64 44 d7 e9 43 44 53 eb 3d 44
       1000.7619 913.3252 783.65375 759.67694
000110 a3 1d 4e 44 8f 18 95 44 b3 07 7e 44 84 59 5e 44
       824.4631 1192.7675 1016.1203 889.3987
000120 67 34 6c 44 a0 74 72 44 3e 5b 41 44 ce c4 9a 44
       944.8188 969.82227 773.42566 1238.1501
000130 5c 14 8e 44 bd 84 5f 44 3a a8 87 44 1c 45 72 44
       1136.6362 894.07404 1085.2571 969.07983
000140 3c 3d a3 44 1d 70 8a 44 16 e0 48 44 83 bf 75 44
       1305.9136 1107.5035 803.50134 982.9924
000150 c2 88 8c 44 93 b3 9a 44 cb ee b3 44 ae 62 63 44
       1124.2737 1237.6117 1439.4623 909.5419
000160 da 8b 7f 44 7c ee 7c 44 af 6e 5c 44 0c 44 64 44
       1022.1852 1011.7263 881.72943 913.06323
000170 dd 45 74 44 f3 62 65 44 2f 52 87 44 2e 12 82 44
       977.0916 917.5461 1082.5682 1040.5681
000180 87 87 69 44 76 f3 78 44 9a 92 9a 44 a5 db 8b 44
       934.1176 995.8041 1236.5813 1118.8639
000190 ed d2 80 44 a2 1a 56 44 2e 33 76 44 66 06 77 44
       1030.5914 856.41614 984.7997 988.1
0001a0 ed ae 34 44 ce ba 3a 44 b7 4c 53 44 ff 59 92 44
       722.7332 746.9188 845.19867 1170.8124
0001b0 77 d2 4d 44 c3 7b 4f 44 23 bc 84 44 59 52 6a 44
       823.2885 829.9338 1061.8793 937.2867
0001c0 40 4b 4a 44 77 16 75 44 9d a4 6d 44 88 1b 69 44
       809.1758 980.351 950.5721 932.4302
0001d0 fd b9 53 44 b4 05 77 44 34 50 86 44 25 05 8a 44
       846.90607 988.0891 1074.5063 1104.1608
0001e0 b6 76 7d 44 28 54 64 44 8b 89 72 44 7e 7d ae 44
       1013.85486 913.31494 970.1491 1395.9216
0001f0 d1 de 5e 44 e1 b9 96 44 b9 63 52 44 28 92 87 44
       891.4815 1205.8087 841.55817 1084.5674
000200 ae 2e 88 44 b4 c8 85 44 52 bd 87 44 83 90 a3 44
       1089.4587 1070.272 1085.9163 1308.516
000210 5d e6 98 44 6a ed 6d 44 44 74 30 44 d9 09 59 44
       1223.1989 951.7096 705.81665 868.1539
000220 e5 be 47 44 a8 70 88 44 61 08 8e 44 1f b5 64 44
       798.9827 1091.5205 1136.2618 914.83
000230 5b ae 59 44 81 89 3e 44 48 e1 5a 44 b6 a3 73 44
       870.7243 762.1485 875.52 974.558
000240 2a 31 69 44 2f 09 a0 44 fd 22 92 44 67 f1 9e 44
       932.7682 1280.287 1169.0934 1271.5438
000250 2a a9 4f 44 17 39 70 44 cb 84 7a 44 94 f0 4f 44
       830.6432 960.892 1002.0749 831.75903
000260 0f c9 94 44 cc 5b 42 44 9e 16 5b 44 e2 3d d1 44
       1190.2831 777.4343 876.3534 1673.9338
000270 2f 69 a0 44 e6 96 75 44 7d d4 7e 44 35 1b 54 44
       1283.287 982.3578 1019.3201 848.4251
000280 95 fa 4e 44 1c c4 7a 44 fa 77 8f 44 13 c0 41 44
       827.91534 1003.0642 1147.7493 775.00116
000290 0e aa 55 44 43 e7 7b 44 a1 05 84 44 ca ae 36 44
       854.6571 1007.61346 1056.1759 730.7311
0002a0 d9 16 58 44 f1 aa 90 44 7e ad 78 44 a8 e9 4f 44
       864.357 1157.3419 994.7108 831.6509
0002b0 b8 e3 8d 44 25 b5 63 44 37 7e 65 44 43 b7 83 44
       1135.1162 910.8304 917.9721 1053.7269
0002c0 86 ac 86 44 cf 1b 87 44 ee d1 8d 44 0f 7d 79 44
       1077.3914 1080.869 1134.5603 997.95404
0002d0 02 65 3b 44 ef 2d 47 44 14 eb 92 44 7f 13 99 44
       749.57825 796.7177 1175.3462 1224.6093
0002e0 d6 64 83 44 21 da 6e 44 86 05 68 44 a3 51 4e 44
       1051.1511 955.40826 928.0863 825.2756
0002f0 99 1c a0 44 95 77 6d 44 84 b1 83 44 6a 34 69 44
       1280.8937 949.86847 1053.5474 932.819
000300 2e 23 98 44 3a af 80 44 d3 0e 59 44 b3 a2 3b 44
       1217.0994 1029.4758 868.2316 750.5422
000310 13 55 7d 44 00 39 7a 44 c5 f2 61 44 40 5b 79 44
       1013.3293 1000.8906 903.7933 997.4258
000320 5f de 66 44 d4 e5 5f 44 e8 17 6b 44 88 46 93 44
       923.47455 895.59106 940.37354 1178.2041
000330 68 45 61 44 d6 64 5e 44 02 d7 c3 44 94 c5 4a 44
       901.0845 889.57556 1566.719 811.08716
000340 c6 98 8b 44 5c 04 83 44 6e 15 51 44 9f 58 83 44
       1116.7742 1048.1362 836.33484 1050.7694
000350 65 36 88 44 e6 3f 52 44 7a d5 51 44 02 50 83 44
       1089.6998 840.9984 839.3356 1050.5002
000360 60 93 8c 44 70 82 6c 44 80 6a 5f 44 a8 a9 48 44
       1124.6055 946.0381 893.66406 802.6509
000370 f1 81 89 44 f7 a2 6b 44 27 a1 48 44 6b 01 39 44
       1100.0607 942.5463 802.518 740.02216
000380 0c b1 82 44 26 a5 65 44 56 5d 73 44 ab e3 83 44
       1045.5327 918.58044 973.4584 1055.1146
000390 f9 b8 61 44 8b d7 95 44 bc 8b 57 44 61 11 82 44
       902.8902 1198.7357 862.18335 1040.5431
0003a0 06 56 59 44 d3 81 34 44 e8 0b 6e 44 e6 a3 44 44
       869.3441 722.0285 952.18604 786.5609
0003b0 e3 23 72 44 5a d2 99 44 fa 56 86 44 a6 0c 92 44
       968.5607 1230.5735 1074.718 1168.3953
0003c0 72 7e 55 44 cd d2 95 44 a3 78 5c 44 63 7e 65 44
       853.9757 1198.5875 881.88495 917.9748
0003d0 c2 dc 39 44 0b 65 57 44 1a f9 61 44 1b 5b 81 44
       743.44934 861.5788 903.8922 1034.847
0003e0 87 51 94 44 39 e5 2d 44 5a 85 59 44 36 9a 48 44
       1186.5477 695.5816 870.0836 802.40955
0003f0 0c a6 64 44 09 67 6f 44 8f df 3c 44 a8 10 84 44
       914.5945 957.6099 755.4931 1056.5205

network.4.weight f4 [256, 512]
000000 1e b1 76 3f 90 24 41 3f 93 bd 5c bf df 9c 18 bd
       0.9636401 0.75446415 -0.8622677 -0.03725898
000010 dd 74 f8 bf 37 b6 88 bf 74 cc 98 be 97 27 e6 bf
       -1.9410664 -1.0680608 -0.29843485 -1.7980832
000020 d9 50 bb 3f 3a 95 0a c0 35 3d a1 be e2 a1 b4 bf
       1.4634048 -2.165358 -0.3149201 -1.4111903
000030 97 bc 02 c0 92 24 06 c0 07 d1 19 be cc 57 1c 40
       -2.0427606 -2.095982 -0.15021144 2.4428587
000040 09 83 c0 3f e0 0b 02 3f f6 fe f2 3e 95 9b 32 3e
       1.5039989 0.5079937 0.47460145 0.17442162
000050 0f c2 93 3e 88 c5 5c be 3e b1 c3 3d 2c f3 02 3f
       0.28858992 -0.21559727 0.09555291 0.511523
000060 4e 28 c5 bf 53 2b be be 5f b3 82 bf 30 95 b1 bf
       -1.5402925 -0.3714243 -1.021099 -1.3873653
000070 3e ef 2f 40 e9 45 17 3f 0c 20 cb bf a8 40 1f 3f
       2.7489772 0.5909105 -1.5869155 0.6220803
000080 f4 e3 1a bf a7 a1 71 bd 14 e4 12 c0 c9 19 09 be
       -0.6050408 -0.058992054 -2.2951708 -0.13388743
000090 a9 16 0b 3f e4 d1 b7 bf df b7 b9 3f 04 4b 95 3f
       0.5433145 -1.4360929 1.4509238 1.1663518
0000a0 ea 7c 8b bf fa 3b 64 3f 08 bd 61 3f 71 07 eb bf
       -1.0897496 0.89154017 0.88179064 -1.8361646
0000b0 35 2c e0 3e 08 b6 46 3f 5e 82 1a 3f 23 1a 48 c0
       0.43783727 0.7762151 0.60355175 -3.1265953
0000c0 d9 6f 8e 3f 86 d1 36 3f d9 13 0f be db e0 4d 3f
       1.1127883 0.7141346 -0.13972415 0.8042123
0000d0 d7 e5 83 3f 1c 7e 62 c0 39 98 fb bf da 72 12 bf
       1.0304517 -3.538947 -1.965583 -0.572065
0000e0 ac 0e 09 3c 68 04 14 bf 4a a1 55 bf 37 d1 d5 3e
       0.008365314 -0.57819223 -0.8344923 0.4176118
0000f0 7e 33 39 3e 52 9a c8 3e ca ac e4 be c2 d3 f0 be
       0.18086049 0.39180237 -0.44663078 -0.47036558
000100 a2 b1 e7 3f 71 da 6b 3e a5 0f 06 be 1c 1d 3b bd
       1.8101084 0.23032548 -0.13091905 -0.045682058
000110 bb ec 58 c0 d6 d8 86 3f 5a a1 19 40 25 da eb 3e
       -3.389449 1.0534923 2.400473 0.4606487
000120 cf 01 61 3f 80 54 01 40 f9 0f ec be 8f b7 12 3f
       0.87893385 2.0207825 -0.46105936 0.5731134
000130 9e 36 6f 3f 3c 4a e3 be f8 97 7f 3f 19 ad 1a be
       0.93442714 -0.44392574 0.9984126 -0.15105094
000140 e8 9c 9c be 4a a5 ff 3f e9 76 37 c0 32 fa d2 be
       -0.3058846 1.9972317 -2.8666327 -0.4120651
000150 28 71 24 be 1e 3b f0 bf 5a 3d 12 40 94 dc 5b bf
       -0.1605879 -1.8768041 2.2849946 -0.8588345
000160 31 4f b8 3f a1 ed af 3d 9f 22 61 be 62 05 c9 bf
       1.4399167 0.08590246 -0.21985863 -1.5704768
000170 71 b9 8b 3f 10 1f e9 3f ec bf f1 bd fe 1e 77 c0
       1.0915967 1.8212605 -0.11804184 -3.8612666
000180 05 26 6e bf a7 94 cc bf b7 85 33 3f b6 6c d1 3f
       -0.93026763 -1.5982865 0.7012591 1.6361301
000190 b3 cd 12 3e ee b5 4e 3e 4e 46 6e bd 96 25 1c bf
       0.1433628 0.20186588 -0.058172517 -0.6099485
0001a0 4b 6d 9d 3e 0d 59 83 bf ad b0 81 bf e3 9f 5d 3f
       0.30747446 -1.0261551 -1.0132042 0.8657209
0001b0 6b 0f 1c bd 5d fd bd 3e b9 4e 9e bf 9c 1d cc bf
       -0.03810064 0.37107363 -1.2367774 -1.5946536
0001c0 a5 e9 78 bf ae 05 04 be f5 02 2d 3e bd a1 a9 be
       -0.97231513 -0.12892792 0.1689566 -0.3313121
0001d0 74 4c 91 3f ed 7d 09 3f 14 9e 91 3f f2 e1 03 c0
       1.1351457 0.5370777 1.1376367 -2.0606656
0001e0 8d fb 2b 3f 96 98 ed 3f 05 c6 cd 3f ed 58 5f bf
       0.6718071 1.856219 1.6076056 -0.87245065
0001f0 c1 75 0d 3f a0 18 59 3e 0a 29 0f 3f 27 81 f9 bd
       0.55257803 0.212008 0.55921996 -0.12182837
000200 c8 29 95 3f f3 89 85 bf 39 98 82 3e cf 02 17 3f
       1.1653376 -1.0432724 0.25506762 0.5898866
000210 2e e3 88 3f 5d 16 e6 bf a0 85 29 3f ef 13 6c c0
       1.069433 -1.7975575 0.6621952 -3.6887167
000220 1e d8 a2 3e cf b5 b9 3e 02 38 ae 3f d4 62 d2 3d
       0.3180551 0.3627152 1.3610842 0.10272756
000230 33 c0 b5 bf c7 ad 01 bf 79 11 e1 3f 1c 9b 54 be
       -1.419928 -0.5065579 1.7583457 -0.20762295
000240 1c 8d e2 bf 53 23 0d bf 04 e4 09 3f 6f 67 7c 3e
       -1.7699313 -0.55132025 0.5386355 0.24648832
000250 3f d7 00 c0 7a 8e 9e bf 73 51 39 3e dd 67 94 3f
       -2.0131376 -1.238723 0.18097477 1.1594197
000260 be d0 9d 3e 28 c1 1d 3e 0e f8 22 3f a7 bc 89 bf
       0.3082332 0.15405715 0.6365975 -1.0760697
000270 4a 8d 9c bf 94 a1 87 3f e6 2c 2f bf 46 a6 80 bf
       -1.2230618 1.0596185 -0.68427885 -1.0050743
000280 0d 05 86 bf 35 fc 98 3e 3d ca 9a 3e e3 a6 84 3e
       -1.0470291 0.2987992 0.3023242 0.25908574
000290 a2 06 b5 3d 49 cf d7 3e b0 f0 9f bf bd 27 06 3f
       0.08839156 0.42150334 -1.2495327 0.52404386
0002a0 90 37 0f c0 f9 35 0b bd ba 97 19 c0 61 3c 1d 3f
       -2.2377663 -0.03398702 -2.3998857 0.61420256
0002b0 8d 80 26 3f fd f0 0b be 33 9b 37 bf 01 12 14 3f
       0.650399 -0.13666148 -0.7172119 0.5783997
0002c0 ac 7b c1 3f fc bc 75 bf 1c 3c ed 3e 52 dd 1c 3f
       1.5115867 -0.9599149 0.46334922 0.6127521
0002d0 21 95 53 bf fa 21 5e c0 5c db a2 3d 65 59 25 3f
       -0.8264943 -3.4708238 0.07951996 0.6458953
0002e0 e2 8c c4 bf 30 25 40 40 3f e2 4f c0 d7 47 97 3e
       -1.5355494 3.0022697 -3.248184 0.29546997
0002f0 28 0c 99 bf ec 7b f9 be 95 10 d2 be 63 9d 6d 3f
       -1.1956835 -0.48727357 -0.41028276 0.9281828
000300 b0 b1 f5 3f 18 da 24 bf 1b 9a 78 3f 0a 58 d9 3e
       1.9194851 -0.64395285 0.97110146 0.4244998
000310 f0 be 53 bf 39 c1 bd be 8c b8 81 3f cb 9d ad 3f
       -0.8271322 -0.3706148 1.0134444 1.356378
000320 55 88 1f bf 69 81 5f 3e 70 f9 41 3f cc 6a 44 be
       -0.623174 0.2182671 0.75771236 -0.19181365
000330 d5 13 3e c0 cf 47 22 3f 37 31 27 3d 59 a8 19 40
       -2.9699605 0.6339082 0.04081842 2.4009001
000340 b3 7a c2 3f 46 5c 55 be df e9 54 be 17 02 26 c0
       1.5193695 -0.20835981 -0.2079234 -2.5938776
000350 ec d2 91 3c d6 6e 2b bf 7c 82 9c 3d 53 d6 28 3f
       0.01780077 -0.66966 0.076420754 0.6595203
000360 fd dd e6 bd 51 79 f3 3f a5 05 b0 bf 56 93 a8 3f
       -0.1127281 1.9021398 -1.3751723 1.3169963
000370 4c c9 81 be 38 a5 1f 3f 79 a4 82 bd 39 7d e4 3e
       -0.2534889 0.6236148 -0.06379027 0.44626787
000380 ca 13 c0 be 69 78 dc 3f d0 96 cd 3f ac 47 6c 3f
       -0.37515098 1.7224246 1.6061649 0.9229686
000390 2f 83 9e 3e 18 25 30 3f 22 13 87 3f e4 d9 09 be
       0.3095946 0.688066 1.0552714 -0.13462025
0003a0 3f 8f c2 3f 00 5b 8e bf 38 54 97 3f a7 97 17 c0
       1.5199965 -1.1121521 1.1822577 -2.3686311
0003b0 1a e1 9e bf dd a2 e0 bd 44 01 d4 bf d1 9b 8e bf
       -1.2412446 -0.10968564 -1.6562886 -1.1141301
0003c0 cb f3 45 3e 5f 2b 0d be ae a4 0d c0 62 56 5e 3f
       0.19331281 -0.13786076 -2.2131763 0.8685056
0003d0 d6 68 a7 be a0 3a 26 c0 3f 5b 0d 3f 4e 75 ad bf
       -0.3269717 -2.5973282 0.55217355 -1.3551424
0003e0 a1 45 53 3f 1f 37 1c 3e 54 36 29 3e 8c 43 51 c0
       0.8252812 0.15255402 0.16524631 -3.2697477
0003f0 36 4f 27 3f fd 7c cd 3e ae d3 2f bf 84 dc ee 3f
       0.6535524 0.4013442 -0.6868237 1.8661046
