models/NeuralNetwork-2_acc-60.19_loss-0.000004.pth (torch, 753472 bytes, 20 tensors)

network.0.weight f4 [512, 30]
0	0x3a8ba4d2	0.0010653979
1	0xbf7ec667	-0.9952149
2	0x402fedd0	2.74889
3	0x3f7b9b8c	0.9828422
4	0x3fb28a45	1.3948447
5	0x3f8905f4	1.0704942
6	0x40a45f61	5.136643
7	0xbd453da4	-0.04815449
8	0xbef2dff9	-0.47436503
9	0x3fd403fa	1.6563714
10	0x3f8d8feb	1.1059545
11	0xc0976384	-4.730898
12	0xc0a18054	-5.046915
13	0x401dbf33	2.4647949
14	0xbff3f11a	-1.9057953
15	0xc09331e9	-4.5998425
16	0xbfdb894a	-1.7151272
17	0x40a0733c	5.0140667
18	0x3eda1c17	0.42599556
19	0xbf7aed98	-0.9801879
20	0xbff30739	-1.8986579
21	0x40901d0e	4.5035467
22	0xc0951c28	-4.659687
23	0xc0a7adca	-5.2399645
24	0x40868eff	4.2049556
25	0xbd5b46e6	-0.05353441
26	0x3eb0e3d2	0.34548813
27	0xc0579dc6	-3.3690047
28	0x3e821f26	0.2541439
29	0x3f9aa86a	1.2082646
30	0x3b069166	0.0020533442
31	0xbe899584	-0.26871884
32	0xc01d24c5	-2.4553692
33	0xbebd1ccd	-0.36936036
34	0x40aa6871	5.325249
35	0x3f547a31	0.8299895
36	0xbfafe93a	-1.374305
37	0xc04da2b4	-3.2130556
38	0xc0370d61	-2.8601916
39	0x3f0a9ff3	0.54150313
40	0x3fe045e6	1.7521331
41	0xc04cdd5f	-3.2010114
42	0xbe1bfaf7	-0.15232454
43	0xc085efec	-4.1855373
44	0xc01c5791	-2.4428446
45	0x3fe786f3	1.8088058
46	0x4048ac6d	3.135524
47	0x40b3f6ff	5.623901
48	0x40b290d2	5.5801783
49	0x3f6edc4e	0.9330491
50	0xbf085851	-0.5325976
51	0x4058d861	3.3882067
52	0x40dfd555	6.9947915
53	0xc00a6521	-2.1624224
54	0xbfc97e6a	-1.5741704
55	0x402a7033	2.663098
56	0xc057153d	-3.3606713
57	0xc009edc0	-2.155136
58	0x3f69f95d	0.91396123
59	0x40125a2a	2.2867532
60	0xc02a3e03	-2.660035
61	0xbf36e638	-0.71445036
62	0x3f5a0a0b	0.85171574
63	0xbcacce56	-0.021094482
64	0xbeda2b54	-0.42611182
65	0xbf3bd67c	-0.7337415
66	0xc031641e	-2.7717357
67	0xc0facf01	-7.837769
68	0xc0419be0	-3.0251389
69	0x3feb1f97	1.8369015
70	0x4001cb41	2.0280306
71	0xc11dddf5	-9.866689
72	0x3f9c53c4	1.2213063
73	0x402e7559	2.7259123
74	0x40316cdc	2.7722692
75	0xbf6f054f	-0.93367475
76	0x4010b1f7	2.260862
77	0xbeed9ad9	-0.46407202
78	0x4007aff1	2.1201136
79	0xc05d947a	-3.4621873
80	0xbfa3c472	-1.2794325
81	0x3f5a13db	0.8518655
82	0xbeb19c92	-0.34689766
83	0x3f8b2f73	1.0873855
84	0xbfae41db	-1.3613847
85	0xbe8ab05f	-0.27087685
86	0x3e4fcee9	0.20293774
87	0xc0533d1d	-3.300605
88	0xbda68a79	-0.0813188
89	0x3f675824	0.90368867
90	0xbf8277ae	-1.0192773
91	0x3dd9a22a	0.106266335
92	0x3f9e16fe	1.2350767
93	0x3f1559ee	0.58340347
94	0xc06beb5d	-3.6862404
95	0xbf105803	-0.56384295
96	0xbf88f433	-1.0699524
97	0xbfa6fbe8	-1.3045626
98	0xbfb471d2	-1.4097235
99	0xc088970d	-4.268439
100	0x3fb8c305	1.4434515
101	0x40b3830b	5.6097465
102	0x40838be4	4.1108265
103	0xbffd18fc	-1.977325
104	0x3f36edf9	0.7145687
105	0x3f465b3c	0.7748296
106	0xbf1e4114	-0.6181805
107	0x3eaab024	0.3333751
108	0x409295ba	4.580777
109	0xc04a7d66	-3.1639037
110	0x3f1fe6fe	0.6246184
111	0xc065100c	-3.5791044
112	0xc0170424	-2.3596277
113	0x3f66c4da	0.9014412
114	0x411b4985	9.705449
115	0xbf5c89fe	-0.8614806
116	0x3ff244fa	1.89273
117	0xc0ad3615	-5.412852
118	0xc072c737	-3.793409
119	0x3fe1ddf0	1.7645855
120	0xc029e96f	-2.6548727
121	0x405c8c10	3.4460487
122	0x40846a7f	4.138
123	0xbff5e0cb	-1.9209226
124	0x3f0fd7bb	0.56188554
125	0xbfa3b00f	-1.2788104
126	0xc02d7625	-2.710336
127	0xbebc79e1	-0.36811736
128	0xbf885bfd	-1.0653073
129	0xbfebd377	-1.8423909
130	0xc02afe69	-2.671778
131	0xbf1eb373	-0.6199257
132	0xbf1685c7	-0.5879788
133	0xbf60fde7	-0.87887424
134	0xbf58f834	-0.8475373
135	0xbfb1ad27	-1.3880967
136	0x40ef2c17	7.474132
137	0xbfe87d9a	-1.816333
138	0x40a97859	5.295941
139	0xc02adfc5	-2.6699078
140	0xc004523e	-2.0675197
141	0x3ef0d27f	0.47035596
142	0x3f8a310d	1.0796219
143	0x3efe891a	0.49713975
144	0x4069f611	3.6556437
145	0x407f4313	3.988469
146	0xbf288546	-0.6582836
147	0xc081a2fa	-4.0511446
148	0x3f1906cf	0.59776014
149	0xbf3df61e	-0.7420367
150	0x3f39c211	0.72561747
151	0x3f2ba779	0.6705242
152	0x3f435234	0.76297307
153	0xbfeb02e7	-1.8360261
154	0xc0a079f5	-5.0148873
155	0x3eee665b	0.46562466
156	0xc00e6b73	-2.2253082
157	0x3edd3f5d	0.43212405
158	0x3fe73909	1.8064281
159	0xbec7d603	-0.39030465
160	0x3edc9e44	0.43089497
161	0xc0415778	-3.0209637
162	0xc031a3dc	-2.7756262
163	0xbf25f707	-0.6483006
164	0xc0408b2e	-3.0084949
165	0xc0c818b7	-6.253017
166	0xc07a780c	-3.913577
167	0x3d25b110	0.040452063
168	0xc072af18	-3.7919369
169	0x408d6867	4.4189944
170	0x40652415	3.5803273
171	0xbf2b45c6	-0.6690334
172	0x40f2cd1d	7.5875382
173	0xbfb0b02b	-1.3803762
174	0x3f53898e	0.82631767
175	0xbf91e0a9	-1.1396686
176	0x408e6218	4.4494743
177	0xc08f0254	-4.469034
178	0x4012c257	2.2931116
179	0x40439be3	3.0563896
180	0x3f463aca	0.77433455
181	0xbf07243d	-0.5278967
182	0x3ddad43f	0.10685014
183	0xbef24a72	-0.47322422
184	0x3d06bcf8	0.03289506
185	0xbefef32f	-0.4979491
186	0x406bedcf	3.6863897
187	0x3ff52ca1	1.9154245
188	0xbf567a12	-0.83780015
189	0x4016bd23	2.355294
190	0xbe6637b3	-0.22482185
191	0x3f9367df	1.1516074
192	0x3d97edaa	0.07418378
193	0x405d321f	3.4561841
194	0x3f585fb9	0.8452106
195	0x40254c53	2.5827835
196	0xc0383f29	-2.878855
197	0x40bcd257	5.9006763
198	0xbf9414c8	-1.1568842
199	0xc08220fc	-4.0665264
200	0xbf65e5ba	-0.8980366
201	0xbfcb5f34	-1.5888429
202	0x404d52b9	3.208174
203	0x3fcf9fa7	1.6220597
204	0xc0d49a73	-6.6438537
205	0xc0e06d17	-7.0133166
206	0x40f7e2f4	7.7464542
207	0x3e3f2c72	0.18669298
208	0xc01e4cc2	-2.473435
209	0xc0bce428	-5.902851
210	0xbf00786a	-0.5018374
211	0xbf1a1457	-0.60187286
212	0xbb4a085c	-0.0030827736
213	0xbdda3a25	-0.106556214
214	0xbfe61a12	-1.7976706
215	0xc0b578e1	-5.6710057
216	0x40893663	4.287889
217	0xc019ce4b	-2.4032161
218	0xbf924ccf	-1.142969
219	0xbfcb9cab	-1.5907186
220	0x406614e8	3.595026
221	0x40e1888e	7.0479193
222	0xbfd964c4	-1.6983876
223	0x3ea90437	0.33011028
224	0x40b3dddc	5.6208324
225	0xbf314823	-0.69250697
226	0xc05d3440	-3.456314
227	0xc030aa17	-2.7603815
228	0xc0424b65	-3.0358517
229	0x3f45111e	0.76979244
230	0x3f975b76	1.1824787
231	0xc057055b	-3.3597019
232	0x405aae7e	3.4169002
233	0xbf8a00e7	-1.0781525
234	0xbc10a896	-0.0088292565
235	0xbfa5e902	-1.2961733
236	0xc0bcf9c3	-5.9054885
237	0x3fffc3be	1.9981611
238	0x3f992be5	1.196652
239	0x403618c8	2.8452625
240	0x3eb0a00b	0.34497103
241	0xbfce9620	-1.6139565
242	0x40086947	2.1314256
243	0xbefd7787	-0.49505255
244	0xc0299c01	-2.6501467
245	0xbea96a09	-0.3308871
246	0xbf5d4c80	-0.86444855
247	0x3f8d3846	1.1032798
248	0x4010316f	2.2530172
249	0xc052eb56	-3.2956138
250	0x3ea727cc	0.3264755
251	0xc0208fa1	-2.5087664
252	0xbf6ea8ed	-0.9322651
253	0x4041a4aa	3.0256753
254	0xbfb34ebc	-1.4008403
255	0x40230de2	2.5477223

network.0.bias f4 [512]
0	0xbcbe7dc8	-0.023253337
1	0x3e1e9c85	0.15489395
2	0x3d6db624	0.05803503
3	0xbc9643c0	-0.018342853
4	0x3dfaa88e	0.122391805
5	0xbd568407	-0.052372005
6	0xbcdfb848	-0.027309552
7	0x3d616ed6	0.055037342
8	0xbd59bcb5	-0.05315848
9	0xbd736465	-0.059421916
10	0xbb28ab76	-0.0025736964
11	0x3dedb843	0.11607411
12	0x3e1aca0b	0.15116136
13	0xbe12f31a	-0.14350548
14	0x3da424fa	0.08014865
15	0xbb9e052c	-0.004822394
16	0xbd4e7299	-0.050402258
17	0xbe3a1ce8	-0.1817509
18	0xbd5a598f	-0.053308066
19	0x3e1cb6a6	0.1530405
20	0x3e25e638	0.16201103
21	0xbd56a3d2	-0.052402325
22	0xbbbf5a1d	-0.0058395998
23	0xbd861282	-0.06546499
24	0xbe236748	-0.15957367
25	0xbc7267da	-0.014795268
26	0xbd7d1fde	-0.06179797
27	0xbd714470	-0.058903158
28	0x3e03baeb	0.12864272
29	0xbd2b1f03	-0.041777622
30	0x3d2c1f5d	0.042022098
31	0xbe1848c4	-0.14871508
32	0x3e2c2725	0.16811807
33	0xbdcea576	-0.10090153
34	0x3d2b441b	0.041812997
35	0x3e329d31	0.17442776
36	0xbdca4c83	-0.09877875
37	0xbd778d73	-0.06043763
38	0xbd1c8c64	-0.038219824
39	0xbe01e67d	-0.1268558
40	0x3c7802d1	0.01513739
41	0xbda65554	-0.08121744
42	0xbe07149a	-0.13191453
43	0xbe0ee5dc	-0.13954872
44	0xbd9a7100	-0.07541084
45	0xbd21e15d	-0.039521564
46	0xbdc1c47f	-0.09461307
47	0xbdc8768a	-0.097882345
48	0xbe167248	-0.14692032
49	0xbdf2e107	-0.11859327
50	0x3dcb694b	0.099321924
51	0x3e1d1f39	0.15343942
52	0x3e10306d	0.14080973
53	0xbe2aff91	-0.16699053
54	0x3e25f032	0.16204908
55	0xbdf7b1c8	-0.12094456
56	0xbdebbed6	-0.115110084
57	0xbd1efa00	-0.038812637
58	0xbcf73a42	-0.030179147
59	0xbdf2866c	-0.11842045
60	0x3cd2c837	0.025730236
61	0xbd4bc938	-0.049752444
62	0xbcf48b9b	-0.029851725
63	0xbc2473e4	-0.010037396
64	0x3dc1b934	0.09459153
65	0x3dac2824	0.08406094
66	0x3dbe17ad	0.092818595
67	0x3dd837f1	0.10557545
68	0xbda06492	-0.07831682
69	0x3d9f590e	0.07780658
70	0x3d1b7e37	0.037962165
71	0xbd254bef	-0.04035562
72	0x3e0ce6f0	0.1375997
73	0x3de20035	0.11035196
74	0xbdf6c460	-0.12049174
75	0x3e00d604	0.1258164
76	0xbd0d987a	-0.03456924
77	0xbce06438	-0.027391538
78	0x3e08adc2	0.13347533
79	0x3dccebaf	0.100058906
80	0xbd2c7eac	-0.04211299
81	0x3e004f78	0.12530315
82	0xbdfd1fa8	-0.123595536
83	0xbc940947	-0.01807083
84	0xbd447111	-0.04795939
85	0xbd963fa5	-0.07336358
86	0xbd00b024	-0.03141798
87	0xbd89fe70	-0.06737983
88	0xbe0e5e9a	-0.13903275
89	0x3dd80064	0.105469495
90	0xbd90d06d	-0.07071004
91	0xbe27294e	-0.1632435
92	0x3dd84a06	0.10560994
93	0x3dbf5c34	0.09343758
94	0xbd6f25f1	-0.058385793
95	0x3e165325	0.14680155
96	0x3b2fd7ad	0.0026831434
97	0xbdd160c8	-0.10223538
98	0xbdb3110a	-0.08743484
99	0xbe2cec7a	-0.16887084
100	0x3e25b178	0.1618098
101	0xbd9489f3	-0.07252874
102	0x3dd83689	0.10557277
103	0x3e29c2cf	0.1657822
104	0xbd2dc6a2	-0.04242576
105	0x3d611cb3	0.05495901
106	0xbe3ac791	-0.18240191
107	0xbd13ba12	-0.036066122
108	0xbbb7c694	-0.005608389
109	0x3b3d49bb	0.0028883058
110	0x3d14cda6	0.036328934
111	0x3bc30f4c	0.0059527513
112	0x3e06d5b7	0.13167463
113	0x3db6b8b4	0.08921948
114	0xbaa751dd	-0.0012765486
115	0xbe2203ab	-0.15821712
116	0xbdd6915e	-0.10476945
117	0x3e361da7	0.17784749
118	0xbe0c5d25	-0.13707407
119	0xbc24e088	-0.010063298
120	0x3d1963d8	0.037448734
121	0xbd05d4f2	-0.032673784
122	0xbc916a85	-0.017750988
123	0x3d067060	0.032822013
124	0x3e27fb9a	0.16404572
125	0xbdacfade	-0.084462866
126	0xbe213213	-0.15741758
127	0x3dc98f7c	0.098418206
128	0x3da63f65	0.0811756
129	0xbe178483	-0.14796643
130	0x3e1a018c	0.15039653
131	0x3df5400f	0.11975109
132	0xbd899403	-0.06717684
133	0xbd8d40dc	-0.068971366
134	0xbd6a6415	-0.057224352
135	0xbe1ec634	-0.15505296
136	0x3d9aa168	0.07550317
137	0xbdf0876f	-0.11744582
138	0xbd9e4845	-0.07728628
139	0x3d273ed1	0.04083139
140	0x3e2a9493	0.16658239
141	0xbd9426e4	-0.0723398
142	0xbd94c8e8	-0.07264882
143	0xbd5e4309	-0.05426315
144	0x3d49effe	0.04930114
145	0xbde09207	-0.109653525
146	0x3e069a6e	0.13144848
147	0x3de6eba2	0.11275412
148	0xbe00de6d	-0.12584849
149	0x3e2b869f	0.16750573
150	0xbe1da13b	-0.15393536
151	0xbd15244d	-0.036411572
152	0xbdb62342	-0.08893444
153	0x3b914264	0.004432963
154	0xbd8db954	-0.06920114
155	0x3e173bec	0.14768952
156	0x3da602fa	0.081060365
157	0xbe256327	-0.16151105
158	0xbe0e0a2f	-0.13871072
159	0xbb38e59f	-0.0028213037
160	0x3a5739f3	0.0008210234
161	0x3e1e767d	0.15474887
162	0x3de40f07	0.11135679
163	0xbd039a34	-0.03212948
164	0x3cc9d002	0.024635319
165	0x3d3547a0	0.04425776
166	0x3d3b943e	0.04579567
167	0x3c7be1e1	0.015373678
168	0xbe32832e	-0.17432854
169	0xbc0fe4c5	-0.00878257
170	0xbd67fc36	-0.05663701
171	0xbd6e31ff	-0.05815315
172	0x3b0c17f0	0.0021376573
173	0xbe35cf18	-0.17754781
174	0x3e2afdfe	0.16698453
175	0xbe262856	-0.16226324
176	0x3daa07c9	0.08302266
177	0xbcdbcc49	-0.02683081
178	0xbdb2e40c	-0.08734903
179	0xbe1d9e98	-0.1539253
180	0xbe22450d	-0.15846653
181	0x3dd860f6	0.10565369
182	0xbe362e9f	-0.17791222
183	0xbd117f42	-0.035521753
184	0x3db92c63	0.09041669
185	0xbe155562	-0.14583352
186	0xbe3a1902	-0.18173602
187	0xbd723dae	-0.059140854
188	0x3e14e093	0.14538793
189	0xbe13d03a	-0.14434901
190	0xbde8c4e4	-0.11365679
191	0xbd9df0b5	-0.07711927
192	0x3d691833	0.056907844
193	0x3d9ad3cf	0.075599305
194	0x3e064d82	0.13115504
195	0xbdd8b67e	-0.105816826
196	0xbd91a926	-0.07112341
197	0x3ccdc1d9	0.025116848
198	0xbd281a2e	-0.041040592
199	0xbdb1dac1	-0.08684302
200	0x3d9cbbb0	0.07652986
201	0x3df7b31a	0.12094708
202	0xbe23051b	-0.15919916
203	0x3e233b5a	0.1594061
204	0x3d601957	0.054711666
205	0x3d36bef6	0.04461571
206	0xbdfbdc2a	-0.12297852
207	0xbd5704ac	-0.05249469
208	0x3c9339d5	0.017971912
209	0xbd90a2ed	-0.070623256
210	0xbcd8720e	-0.026421573
211	0xbe2df9f9	-0.16989888
212	0xbe120540	-0.14259815
213	0x3d4b10b8	0.04957649
214	0xbe09d9f8	-0.13462055
215	0xbdedbf1f	-0.11608719
216	0xbe162a8f	-0.14664672
217	0xbdbb9719	-0.09159679
218	0xbe2cd08e	-0.16876432
219	0xbc540541	-0.012940706
220	0xbe2db1b8	-0.16962326
221	0x3c89807e	0.016784903
222	0xbe165c8f	-0.14683746
223	0xbce33d6a	-0.027739245
224	0x3e2197a6	0.15780506
225	0x3e35387e	0.17697331
226	0xbdc9b917	-0.09849756
227	0x3e1c5987	0.15268527
228	0xbdc68eb8	-0.0969519
229	0x3d9b30a2	0.07577635
230	0xbd32ca40	-0.043649912
231	0xbe1ab103	-0.15106587
232	0x3ddb7c47	0.107170634
233	0x3d8870f4	0.06662169
234	0x3df26322	0.11835314
235	0xbe0fe636	-0.14052662
236	0xbe368cbc	-0.17827123
237	0xbd82437d	-0.063605286
238	0xbe109343	-0.14118676
239	0x3ccaad81	0.024740936
240	0x3e21753f	0.15767382
241	0x3e35e78f	0.17764114
242	0xbe2bff07	-0.16796504
243	0x3dc58541	0.09644557
244	0x3da46ef7	0.08028977
245	0xbd740481	-0.059574608
246	0xbd263874	-0.04058118
247	0x3db18778	0.08668417
248	0xbe0b8587	-0.13625155
249	0x3dfa0780	0.12208462
250	0x3e377cde	0.17918727
251	0xbd4508ce	-0.0481041
252	0x3e29392d	0.16525717
253	0xbe245b38	-0.16050422
254	0xbbd03afa	-0.006354687
255	0x3e2644e0	0.16237211

network.1.weight f4 [512]
0	0x41aa7531	21.307222
1	0x41a1e18a	20.235126
2	0x41aa2ca4	21.271797
3	0x41afdd77	21.983137
4	0x41a5a3f5	20.705057
5	0x41a4e277	20.610579
6	0x419feece	19.991604
7	0x41abfab3	21.497412
8	0x41a473df	20.556578
9	0x41b1e961	22.238955
10	0x41a1f439	20.24425
11	0x41af89b6	21.942242
12	0x41b207b0	22.253754
13	0x41b49d41	22.576784
14	0x41ae6673	21.800024
15	0x41aa64a2	21.299137
16	0x41a2898d	20.317163
17	0x41ba24ef	23.268034
18	0x41aba121	21.453676
19	0x419f9868	19.949417
20	0x41a1a40e	20.205105
21	0x41bd0394	23.626747
22	0x41a67d5a	20.811207
23	0x4194acad	18.584314
24	0x41b2c6ad	22.34701
25	0x41b6deb5	22.858744
26	0x41ad130d	21.634302
27	0x41b5d441	22.72864
28	0x41aeeafa	21.864735
29	0x41a08b5c	20.068047
30	0x41bb19bd	23.387568
31	0x41aabde7	21.342726
32	0x41aa1128	21.258377
33	0x41a5a77e	20.706783
34	0x41a9cda9	21.22542
35	0x41bbfd8b	23.4988
36	0x41a99fd3	21.20304
37	0x419a4523	19.283758
38	0x41a3f156	20.49284
39	0x41b32859	22.394701
40	0x41a87d30	21.061127
41	0x41abfe1f	21.499083
42	0x41a24269	20.282427
43	0x41b40479	22.502184
44	0x419759fb	18.918936
45	0x41b3d2b7	22.477888
46	0x41a7fc2f	20.998137
47	0x419d22ea	19.642048
48	0x41ad4d11	21.66263
49	0x41a317a1	20.386538
50	0x41b13d0f	22.154814
51	0x41b3c975	22.473368
52	0x41afe5f3	21.98728
53	0x41a6aed6	20.83537
54	0x41bcca93	23.598913
55	0x41a50e8d	20.632105
56	0x41a60743	20.753546
57	0x41a8b55c	21.088554
58	0x41b6e86d	22.86349
59	0x41aabdf3	21.342749
60	0x419e4559	19.783861
61	0x41abddea	21.483356
62	0x41acc5ba	21.596546
63	0x41b6d4b2	22.853855
64	0x41b039f0	22.02829
65	0x41ac58ee	21.543423
66	0x41b5115a	22.633472
67	0x41a557bc	20.66784
68	0x41995742	19.167606
69	0x41b2ac3a	22.334095
70	0x419ee683	19.862555
71	0x41a3734b	20.431295
72	0x41ae4e74	21.788307
73	0x41b42569	22.518267
74	0x41a59955	20.69987
75	0x41bf2e96	23.897747
76	0x41bcad79	23.584703
77	0x41a6e61b	20.862356
78	0x41a1c89d	20.222956
79	0x41af6806	21.925793
80	0x41bde22f	23.735441
81	0x41b9e965	23.238962
82	0x41b2ae3a	22.335072
83	0x41b0c5b2	22.09653
84	0x41a88532	21.065037
85	0x41a7dbb3	20.982275
86	0x419dbc60	19.71698
87	0x41a8a0a9	21.078447
88	0x41b78dab	22.944174
89	0x41b6642e	22.798916
90	0x41ade468	21.736526
91	0x419f6ab7	19.927107
92	0x41afad84	21.959724
93	0x41acf482	21.619389
94	0x41ac301b	21.523489
95	0x41af19bc	21.887566
96	0x41a30c28	20.380936
97	0x41b7f5a8	22.99495
98	0x41c0e35f	24.111021
99	0x41b7788d	22.933863
100	0x41ab5357	21.415693
101	0x41b25ef9	22.296373
102	0x41a7a1c7	20.953993
103	0x41a843df	21.03314
104	0x41a41a52	20.512852
105	0x41a82a13	21.020544
106	0x41bc5208	23.540054
107	0x41a52828	20.644608
108	0x41aa8b3a	21.317982
109	0x41b3695e	22.426449
110	0x41b00c95	22.006144
111	0x41a0a8c0	20.082397
112	0x41b9bc7a	23.21703
113	0x41a2f348	20.36879
114	0x41b939aa	23.153156
115	0x41a2d4c0	20.353882
116	0x41adadf0	21.70993
117	0x41bacf06	23.351086
118	0x41b0605a	22.047047
119	0x41a33c1d	20.404352
120	0x419fe62b	19.987387
121	0x41a9e4de	21.236752
122	0x41ad32f1	21.649874
123	0x41c4e004	24.609383
124	0x41b2c323	22.345282
125	0x41b1d8be	22.230831
126	0x41a3540d	20.41604
127	0x41accdc3	21.60047
128	0x41a19fa1	20.202944
129	0x41ad480c	21.66018
130	0x41a9273c	21.144157
131	0x41b46dc4	22.553596
132	0x41a495e2	20.573185
133	0x41a040ee	20.031704
134	0x41c08503	24.064947
135	0x41a75767	20.917677
136	0x41a60ae7	20.755323
137	0x41a6954c	20.822899
138	0x41a790b8	20.945663
139	0x41a6bce2	20.842228
140	0x41b59eb0	22.702484
141	0x41affe08	21.999039
142	0x41a5837c	20.689201
143	0x41a68b9c	20.818169
144	0x4196bc6f	18.842009
145	0x41b03e95	22.030558
146	0x41a58064	20.68769
147	0x41a2b32c	20.337486
148	0x41b9198b	23.137472
149	0x41a58f24	20.694893
150	0x41bc3ae2	23.528751
151	0x41aadbb4	21.357277
152	0x41be2b82	23.771244
153	0x41c1d0b1	24.2269
154	0x41acc8d1	21.598055
155	0x41a2981a	20.324268
156	0x41af1441	21.88489
157	0x41a46643	20.549932
158	0x41a4f37a	20.618885
159	0x41c1e307	24.235853
160	0x419cc132	19.594334
161	0x4198e27f	19.110594
162	0x41ab3dcb	21.405172
163	0x41a8c0b9	21.094103
164	0x41a532bb	20.64977
165	0x41b09226	22.071362
166	0x41ae8639	21.815538
167	0x41a0189c	20.012016
168	0x41a9063a	21.12804
169	0x419e6bcf	19.80264
170	0x41b69d70	22.826874
171	0x41a566da	20.67522
172	0x41a17567	20.182325
173	0x41b05f9c	22.046684
174	0x41b8d013	23.101599
175	0x41a7ada9	20.959795
176	0x41ad0af6	21.630352
177	0x41bac9e1	23.348574
178	0x41abf3b4	21.493996
179	0x41aec44d	21.84585
180	0x41b907c7	23.128798
181	0x41ad03fa	21.626942
182	0x41a3ecfe	20.490719
183	0x41bc0d07	23.506361
184	0x41a2eca1	20.365541
185	0x41b239b2	22.278172
186	0x41a6ae5e	20.83514
187	0x41a70781	20.878664
188	0x41c34ea6	24.413403
189	0x41b40eb7	22.507185
190	0x41af9e21	21.952211
191	0x41abdc36	21.482525
192	0x41abfbaa	21.497883
193	0x419aca82	19.34888
194	0x41a9e438	21.236435
195	0x41af0207	21.87599
196	0x41a91519	21.135302
197	0x419e20de	19.766048
198	0x41ae545c	21.791191
199	0x41bfb21a	23.961964
200	0x41aed490	21.85379
201	0x41aa3355	21.275064
202	0x41b3ae53	22.46012
203	0x41a5b6b9	20.71422
204	0x41a76b61	20.927431
205	0x41b823cb	23.017477
206	0x41a9664d	21.174952
207	0x41a1d676	20.229717
208	0x41a9f14a	21.242817
209	0x41af9d94	21.951942
210	0x41ac6b79	21.552477
211	0x41a137d7	20.152266
212	0x41a9e4f4	21.236794
213	0x41ad5f28	21.671463
214	0x41ab15bc	21.385612
215	0x41acccde	21.600033
216	0x41a55646	20.667126
217	0x41a895c2	21.073124
218	0x41ab47ab	21.409994
219	0x41b3070d	22.378443
220	0x41b4125f	22.50897
221	0x41a5c3af	20.720549
222	0x41b7ab52	22.958652
223	0x41a86fee	21.054653
224	0x41ad2696	21.64384
225	0x41b00f2d	22.00741
226	0x41aca39b	21.579885
227	0x41beb984	23.840584
228	0x41ab5213	21.415075
229	0x41a3952e	20.447842
230	0x41aeac5b	21.834158
231	0x41ab6641	21.424929
232	0x41bb2eff	23.397947
233	0x41b84737	23.034773
234	0x41b0a007	22.078138
235	0x41a4d59d	20.604303
236	0x419d5e0a	19.670918
237	0x419a9745	19.323862
238	0x41b9bdbd	23.217646
239	0x41a90717	21.128462
240	0x41a5abff	20.708982
241	0x41af4a93	21.911413
242	0x41980a9f	19.005186
243	0x41c019e1	24.012636
244	0x41baedfa	23.3662
245	0x41b32083	22.390875
246	0x41a2e75f	20.362974
247	0x41b79523	22.94782
248	0x41b4668f	22.550077
249	0x41a1e84a	20.238422
250	0x41a64b2f	20.78671
251	0x41a87af0	21.060028
252	0x41b2cfd4	22.351479
253	0x41b3fcd0	22.498444
254	0x419a3c56	19.27946
255	0x419f8b21	19.942934

network.1.bias f4 [512]
0	0xc18c0173	-17.500708
1	0xc13ff7eb	-11.998027
2	0xc178291b	-15.5100355
3	0xc1839f8f	-16.45291
4	0xc1304b63	-11.018405
5	0xc12f902c	-10.972698
6	0xc188c21b	-17.094778
7	0xc15931e2	-13.574678
8	0xc0ea37d8	-7.319317
9	0xc1882814	-17.01957
10	0xc196445f	-18.783384
11	0xc16ddf61	-14.867036
12	0xc16e81d5	-14.906697
13	0xc172a7aa	-15.165934
14	0xc1642a99	-14.2604
15	0xc174155d	-15.255216
16	0xc14a1075	-12.629018
17	0xc184615e	-16.547543
18	0xc194496f	-18.535856
19	0xc10dd416	-8.864279
20	0xc1629f50	-14.163895
21	0xc15c34d9	-13.762902
22	0xc189e2d9	-17.235765
23	0xc15999db	-13.600062
24	0xc152d6a0	-13.177399
25	0xc13c9a65	-11.787694
26	0xc181060d	-16.127954
27	0xc16ba7e7	-14.728492
28	0xc1269d9a	-10.413477
29	0xc13f2cf4	-11.948475
30	0xc138e64a	-11.556223
31	0xc0bfef0e	-5.9979315
32	0xc14a357f	-12.638061
33	0xbf3f14a2	-0.7464086
34	0xc1407848	-12.029366
35	0xc1765b46	-15.397284
36	0xc16c91a4	-14.785557
37	0xc17e0e75	-15.87853
38	0xc119cea6	-9.612951
39	0xc16b6108	-14.711189
40	0xc18747ab	-16.909994
41	0xc19abb5f	-19.34149
42	0xc15d5707	-13.833747
43	0xc1867f28	-16.812088
44	0xc1581106	-13.504156
45	0xc17cb596	-15.7943325
46	0xc18255d3	-16.291906
47	0xc1a6453a	-20.783802
48	0xc16d3ac2	-14.826845
49	0xc1518f36	-13.097464
50	0xc1793a28	-15.576698
51	0xc158f67b	-13.560176
52	0xc160cf7c	-14.050655
53	0xc13f4707	-11.954841
54	0xc1583e3e	-13.515196
55	0xc160b2ea	-14.04368
56	0xc177baf5	-15.483144
57	0xc1277d3d	-10.468076
58	0xc182e21e	-16.360409
59	0xc18be7cc	-17.488182
60	0xc18499fd	-16.57519
61	0xc14d2d04	-12.82349
62	0xc14eac81	-12.917115
63	0xc13a94a7	-11.661292
64	0xc149779d	-12.591702
65	0xc19f6da4	-19.928535
66	0xc176e2f6	-15.43041
67	0xc14846e7	-12.51731
68	0xc131f96a	-11.123392
69	0xc150c1c1	-13.047303
70	0xc184ad2f	-16.584562
71	0xc124f50d	-10.309827
72	0xc18532b9	-16.649767
73	0xc15f69f1	-13.963365
74	0xc08971ad	-4.2951264
75	0xc159dc48	-13.61628
76	0xc1765b19	-15.397241
77	0xc14e5a46	-12.897039
78	0xc12df056	-10.871176
79	0xc187a244	-16.954231
80	0xc192428d	-18.282495
81	0xc1772514	-15.446552
82	0xc12f1fb3	-10.945239
83	0xc17b3376	-15.700064
84	0xc11b84a5	-9.719884
85	0xc1285a7d	-10.522092
86	0xc15ad075	-13.675893
87	0xc15477b6	-13.279226
88	0xc11ccb62	-9.799654
89	0xc18f5b6e	-17.919643
90	0xc15e2fd1	-13.886674
91	0xc1695087	-14.58216
92	0xc189e14b	-17.235006
93	0xc174f5ea	-15.310038
94	0xc14b7585	-12.716191
95	0xc186fa2d	-16.872156
96	0xc13a4546	-11.641912
97	0xc16f7d5e	-14.968107
98	0xc14f6135	-12.961232
99	0xc1865426	-16.791088
100	0xc12dc895	-10.86147
101	0xc15ce3af	-13.805587
102	0xc157e8a3	-13.494296
103	0xc1449480	-12.286255
104	0xc1420af3	-12.127673
105	0xc1742da7	-15.261146
106	0xc0cccaf9	-6.399777
107	0xc17f3b16	-15.951925
108	0xc105c4b7	-8.360526
109	0xc0f3ddd6	-7.6208296
110	0xc17679ae	-15.404707
111	0xc1851615	-16.635782
112	0xc16dc345	-14.860173
113	0xc155ddd2	-13.366655
114	0xc16325d0	-14.196732
115	0xc15cd438	-13.801811
116	0xc15f9fdd	-13.976529
117	0xc186ccf6	-16.850079
118	0xc162a288	-14.1646805
119	0xc1436f03	-12.214602
120	0xc18b545a	-17.416187
121	0xc1648c7c	-14.284298
122	0xc1463214	-12.387226
123	0xc19b6343	-19.423468
124	0xc168187b	-14.505977
125	0xc18b503a	-17.414173
126	0xc1867a35	-16.809671
127	0xc1457448	-12.340889
128	0xc15f1222	-13.941927
129	0xc189a7ab	-17.20687
130	0xc1187b1b	-9.530055
131	0xc13154f3	-11.08324
132	0xc17f93c5	-15.973577
133	0xc166fcbc	-14.436703
134	0xc16d4ad5	-14.83077
135	0xc122b750	-10.169754
136	0xc162f394	-14.184467
137	0xc1a3bc45	-20.466928
138	0xc16f1dc4	-14.944767
139	0xc1047fa6	-8.281164
140	0xc17d42cd	-15.828809
141	0xc191e708	-18.237808
142	0xc1213626	-10.07572
143	0xc10c969a	-8.786768
144	0xc15b7146	-13.715155
145	0xc133e619	-11.243676
146	0xc1846a29	-16.551836
147	0xc10e9807	-8.912116
148	0xc184a8d0	-16.582428
149	0xc17f54ba	-15.958185
150	0xc188507c	-17.039299
151	0xc14c9c75	-12.7881975
152	0xc1765988	-15.396858
153	0xc16b6896	-14.713034
154	0xc15ebcfa	-13.921137
155	0xc1425bd3	-12.147418
156	0xc10137b5	-8.0761
157	0xc18d5209	-17.665056
158	0xc1599e29	-13.601113
159	0xc189f8dd	-17.246515
160	0xc19c3f7a	-19.530994
161	0xc18b2456	-17.392742
162	0xc1721cfe	-15.132078
163	0xc13a58e2	-11.6467
164	0xc164b2d5	-14.29366
165	0xc15c4541	-13.766908
166	0xc1564240	-13.391174
167	0xc15b7d48	-13.718086
168	0xc17e4ccc	-15.893749
169	0xc151da0c	-13.115734
170	0xc11c158a	-9.755259
171	0xc1960a16	-18.754925
172	0xc15f979f	-13.974517
173	0xc0f30795	-7.5946755
174	0xc1781bf5	-15.506825
175	0xc167a111	-14.476823
176	0xc186d5ae	-16.854336
177	0xc1743997	-15.26406
178	0xc16cf8c4	-14.810734
179	0xc18979d4	-17.184486
180	0xc17ad598	-15.677147
181	0xc16553c5	-14.332952
182	0xc141257d	-12.071652
183	0xc1478054	-12.46883
184	0xc191e3b9	-18.236193
185	0xc13a28d6	-11.63497
186	0xc174a366	-15.289892
187	0xc18865bd	-17.049677
188	0xc182572f	-16.29257
189	0xc173b77b	-15.232295
190	0xc1775bde	-15.4599285
191	0xc13506fa	-11.314203
192	0xc17c2183	-15.758182
193	0xc07ec261	-3.980614
194	0xc16b7e58	-14.718346
195	0xc18338c3	-16.402716
196	0xc178ca12	-15.549334
197	0xc1329ca6	-11.163244
198	0xc165a3fe	-14.352537
199	0xc1518154	-13.094074
200	0xc181578b	-16.167746
201	0xc172f4fe	-15.184813
202	0xc1733dea	-15.202616
203	0xc15c241b	-13.758815
204	0xc105d516	-8.364523
205	0xc1807be1	-16.060488
206	0xc169af03	-14.605227
207	0xc1365a7a	-11.397089
208	0xc152a901	-13.166261
209	0xc187e47a	-16.98656
210	0xc1680ff2	-14.503893
211	0xc117aa3e	-9.479063
212	0xc1338d68	-11.222023
213	0xc167bc43	-14.483462
214	0xc1782c59	-15.510827
215	0xc1309793	-11.037005
216	0xc172d954	-15.178059
217	0xc1437d1e	-12.218046
218	0xc117d2f6	-9.489004
219	0xc18715d2	-16.885654
220	0xc1812a8e	-16.145779
221	0xc156549c	-13.395657
222	0xc179475b	-15.579921
223	0xc128729d	-10.527982
224	0xc169bfb9	-14.609307
225	0xc141d23c	-12.113827
226	0xc13b966f	-11.724227
227	0xc14a07a2	-12.6268635
228	0xc179db00	-15.615967
229	0xc19183b2	-18.189304
230	0xc16b640f	-14.711928
231	0xc13429ce	-11.260206
232	0xc15ee3ad	-13.930585
233	0xc129fba0	-10.623932
234	0xc1707441	-15.028382
235	0xc142fb7b	-12.186397
236	0xc15649fc	-13.393063
237	0xc17b2118	-15.69558
238	0xc184b6c7	-16.589247
239	0xc182c4f3	-16.346167
240	0xc180360c	-16.02639
241	0xc12b8ca7	-10.721839
242	0xc18cf64a	-17.620258
243	0xc181317c	-16.149162
244	0xc18fbe66	-17.967968
245	0xc16813ca	-14.504831
246	0xc19a0b8a	-19.255634
247	0xc15288e5	-13.1584215
248	0xc164342d	-14.262738
249	0xc15a6097	-13.6485815
250	0xc169436c	-14.57896
251	0xc14fdaf5	-12.990956
252	0xc152cc2c	-13.174847
253	0xc158662b	-13.524943
254	0xc14814e4	-12.5051
255	0xc14cad45	-12.792302

network.1.running_mean f4 [512]
0	0x3f479800	0.7796631
1	0x3f5923b0	0.8482008
2	0x3dbdf226	0.09274702
3	0x3cd4c4a0	0.025972664
4	0xbe91423b	-0.28370842
5	0x3eb2fdd7	0.3495929
6	0xbc29d9b0	-0.010366842
7	0xbf9ae518	-1.2101164
8	0xbe5a00fd	-0.2128944
9	0xbf32bfb2	-0.69823754
10	0xbf903d05	-1.1268622
11	0xbfa09a6d	-1.2547127
12	0x3f028bbb	0.5099446
13	0xbf980401	-1.1876222
14	0x3f77d847	0.9681439
15	0xbf51e070	-0.8198309
16	0xc00d1722	-2.204537
17	0xbed4ce2a	-0.4156354
18	0xbf29a15d	-0.66261846
19	0x3f841dc8	1.0321589
20	0x3e86c73d	0.26323882
21	0xbf9b9149	-1.2153713
22	0xbfc503c8	-1.5391779
23	0xbf3e463f	-0.7432594
24	0xbf9d454c	-1.2286773
25	0xbf518f2e	-0.818591
26	0xbed46e20	-0.4149027
27	0xbf5f386d	-0.87195474
28	0xbf375c3b	-0.7162511
29	0xbfc6656c	-1.5499701
30	0xbe5da9d8	-0.21646821
31	0xbf852b02	-1.040375
32	0xbf98e740	-1.1945572
33	0x3e7b7a14	0.24558288
34	0xbce900c0	-0.02844274
35	0x3fab5fe2	1.3388636
36	0x3f91d5e4	1.1393399
37	0x3d49e2e8	0.04928866
38	0x3fb17b4e	1.3865755
39	0xbfcf8c88	-1.6214762
40	0x3f9989d6	1.1995189
41	0x3fcc28b1	1.5949918
42	0x3f76f006	0.96459997
43	0xbf061392	-0.5237361
44	0x3d1d99bc	0.03847669
45	0xc013fb86	-2.3122268
46	0xbdec7b90	-0.11547005
47	0x3f1ac70c	0.6045997
48	0xbefa6549	-0.489054
49	0x4035c84d	2.8403504
50	0x3f7366d6	0.9507879
51	0xbff5ca40	-1.9202347
52	0x3ec2bb2b	0.38033423
53	0xbedb8f87	-0.4288294
54	0xbf085086	-0.5324787
55	0xbf73a95f	-0.95180315
56	0xc015cc4e	-2.3405948
57	0xbfba7eb6	-1.4569919
58	0xbfa8ea2e	-1.3196466
59	0x3fb01caa	1.3758748
60	0xbfc048fc	-1.5022273
61	0xbd3d24a8	-0.046177536
62	0x3dea907c	0.114533395
63	0x3f671f79	0.902824
64	0x3f2f11e2	0.6838666
65	0xbee2480e	-0.44195598
66	0xbf81d0e7	-1.0141877
67	0xbff08a4c	-1.8792205
68	0x400fd4d9	2.2473662
69	0xbfd23cd7	-1.6424817
70	0x3f2debf6	0.6793817
71	0xbe4d267c	-0.20034212
72	0xbe42623e	-0.18982789
73	0xbea7ed56	-0.3279826
74	0x3ea778f8	0.3270948
75	0xc028183b	-2.626479
76	0x4004b4f1	2.0735438
77	0x3f8b9143	1.0903705
78	0x402add15	2.6697438
79	0x3ed86efa	0.42272168
80	0xbef5af80	-0.47985458
81	0x3f65eb4e	0.8981217
82	0x3d99d60c	0.07511529
83	0xbf0e7818	-0.55652
84	0xbf2ab415	-0.66681033
85	0x3fb44281	1.4082795
86	0x3e922b01	0.28548434
87	0x3ed5ee90	0.4178357
88	0xc008e22e	-2.138805
89	0xbeb671ab	-0.35633597
90	0xbfc14c32	-1.5101378
91	0xbe6c644c	-0.23085135
92	0x3d9822d4	0.07428518
93	0xbe1c3d98	-0.15257871
94	0xc0523c86	-3.284944
95	0xbf97b376	-1.1851642
96	0xbffc0dc4	-1.9691701
97	0xc028688c	-2.631381
98	0xbff3d017	-1.9047879
99	0xbfe0e2c5	-1.7569205
100	0xbff7cddc	-1.9359698
101	0xbf93e745	-1.1554953
102	0xbe99d511	-0.3004537
103	0xbe2eece2	-0.17082551
104	0x3f77172c	0.9651973
105	0xbed4cafe	-0.4156112
106	0xbe8e59dc	-0.27802932
107	0xbe9ddd92	-0.30833107
108	0xbf55c640	-0.8350563
109	0x3f9e5dea	1.237241
110	0xbe9cddaf	-0.3063788
111	0xbffe7542	-1.9879534
112	0xbec4417e	-0.38331217
113	0xbf87888b	-1.0588545
114	0xbfd3df95	-1.6552607
115	0x3e37a51e	0.17934081
116	0xbfaabfc7	-1.3339776
117	0xbf803edf	-1.0019187
118	0xbfb16e9a	-1.3861878
119	0x3e0ee12c	0.13953084
120	0x3f2ab97f	0.66689295
121	0x3d8c727a	0.06857772
122	0x3f72239b	0.9458558
123	0xc01c390d	-2.440982
124	0xbdb81930	-0.08989179
125	0xc01a5d72	-2.4119534
126	0xbe4d059d	-0.20021673
127	0xbe9f51e3	-0.31117162
128	0xbf04e6ce	-0.5191468
129	0xbf81c676	-1.013869
130	0x3dcae728	0.09907371
131	0xbf030e7c	-0.51193976
132	0x3dc33581	0.095316894
133	0x3e727522	0.23677495
134	0xbfa7360e	-1.3063371
135	0x3f488b85	0.7833789
136	0xbf9abe03	-1.2089237
137	0xc02892fc	-2.6339712
138	0x3e89ac70	0.26889372
139	0xbd195830	-0.037437618
140	0xc006f5c5	-2.1087506
141	0xbf034512	-0.5127727
142	0xbff30884	-1.8986974
143	0xbdc113b0	-0.09427583
144	0x3f108cc6	0.56464803
145	0xbf24e7b2	-0.6441604
146	0x402e060b	2.7191188
147	0xbef53ad0	-0.47896433
148	0xc00cb9c1	-2.1988375
149	0x3d894768	0.06703073
150	0xc005b4a8	-2.0891514
151	0x3f335892	0.7005702
152	0xbf51e0fa	-0.8198391
153	0xbecb04dc	-0.39652145
154	0x3f3381dc	0.70120025
155	0x3eb37054	0.35046637
156	0xbf49347a	-0.785957
157	0x3f5bc936	0.858539
158	0x3e626dc0	0.22112179
159	0xbe4b2c72	-0.19841173
160	0x3f9eb346	1.239846
161	0x3fb4b5ac	1.4117942
162	0x403b071a	2.9223084
163	0x3eff9154	0.49915564
164	0xbe4e77de	-0.20162913
165	0x3ecf1793	0.40447673
166	0x3efc6315	0.49294344
167	0x3e845166	0.25843352
168	0xbfebef63	-1.843243
169	0x3efaffd7	0.49023315
170	0xbf18326c	-0.5945194
171	0x3f2622cc	0.64896846
172	0xbe2e1423	-0.16999869
173	0x3f4e384c	0.8055465
174	0x3e780689	0.24221243
175	0xbfebb30d	-1.8414017
176	0x3fbdf24b	1.4839567
177	0xc012e522	-2.2952352
178	0xbfcbc2cf	-1.5918826
179	0x3e9fc008	0.31201196
180	0x3d93cd1c	0.07216856
181	0xbee0f5b7	-0.43937466
182	0x40046743	2.0688026
183	0xc042279d	-3.0336678
184	0xbee64180	-0.44971848
185	0x3f51108a	0.8166586
186	0xbfa16aa0	-1.2610664
187	0xc008a16c	-2.1348524
188	0xbf8c7356	-1.0972698
189	0xbcd95d04	-0.026533611
190	0xc01bb383	-2.4328315
191	0x4000b42d	2.010997
192	0x3f468ad4	0.77555585
193	0x3f62fe37	0.8866915
194	0x3e7f32f4	0.24921781
195	0x3fb6d8e2	1.4284937
196	0xbfcc3165	-1.5952574
197	0x3d8171d0	0.06320536
198	0x3fe42446	1.782357
199	0x3e83154a	0.2560218
200	0x3f1a9007	0.6037602
201	0x3f536d63	0.82588786
202	0xbf97e1f9	-1.1865836
203	0x3e8c5ccb	0.27414545
204	0xbeb229f4	-0.34797633
205	0xbecf2849	-0.40460423
206	0xc0052b8e	-2.0807834
207	0xbfb73ad7	-1.4314831
208	0xbf5e0393	-0.86724204
209	0xbe7996d1	-0.24373938
210	0xbfb496ab	-1.410848
211	0x3f533edb	0.82517785
212	0xc00bd758	-2.1850185
213	0xbfd6ca0f	-1.6780413
214	0x3f8aba41	1.083809
215	0xbee5745a	-0.44815332
216	0xc002b57a	-2.0423265
217	0xbfe5d27c	-1.795486
218	0x3f901410	1.1256123
219	0xbf0dd4de	-0.55402935
220	0xbf97e48a	-1.186662
221	0x3f6c92fa	0.9241177
222	0xbebded8c	-0.37095296
223	0xbd1c2700	-0.03812313
224	0x3f89e4f1	1.0772992
225	0xc03f6bf8	-2.990965
226	0xbef51dd9	-0.47874334
227	0x3e0cb334	0.13740236
228	0x3f029ad2	0.5101749
229	0xbf300755	-0.6876119
230	0x3ee2babc	0.44283092
231	0xbf1283a0	-0.57232094
232	0x3d4320e0	0.047638774
233	0xc02059f4	-2.5054903
234	0xbed863cd	-0.42263642
235	0xbfac8a12	-1.3479636
236	0xbf3848b1	-0.7198592
237	0x3b3e7a80	0.0029064715
238	0x3e83582e	0.25653213
239	0x3ee5c4b8	0.44876647
240	0x3f3c761a	0.7361771
241	0x3efa8442	0.4892903
242	0xbfcddd08	-1.6083078
243	0x3f325876	0.6966623
244	0xbfc6d010	-1.5532246
245	0xbf512771	-0.8170081
246	0xbf48f502	-0.7849885
247	0x3fa799e5	1.309384
248	0xbf12067e	-0.57041156
249	0xbddf3740	-0.1089921
250	0xbca14840	-0.019687772
251	0xbfa9760e	-1.3239152
252	0x3dd24d32	0.1026863
253	0x3ee299ac	0.44257867
254	0x3fb4ca52	1.4124243
255	0x3ea1ea35	0.31623998

network.1.running_var f4 [512]
0	0x4555dcab	3421.7917
1	0x4562113f	3617.078
2	0x458bc3b2	4472.462
3	0x454d7d8b	3287.8464
4	0x459bc213	4984.2593
5	0x456543f1	3668.2463
6	0x452a8aa2	2728.6646
7	0x456ab15d	3755.0852
8	0x4549c0dd	3228.054
9	0x45753cce	3923.8003
10	0x454a39ca	3235.6118
11	0x457d4b2f	4052.699
12	0x457b57e4	4021.4932
13	0x4561fe77	3615.904
14	0x4579b3bf	3995.2341
15	0x4542ba39	3115.639
16	0x45812b3b	4133.404
17	0x45713768	3859.463
18	0x45791d83	3985.8445
19	0x45301160	2817.086
20	0x45683921	3715.5706
21	0x459526c4	4772.8457
22	0x4579bcf1	3995.8088
23	0x453455d7	2885.365
24	0x457b064c	4016.3936
25	0x455577f9	3415.4983
26	0x4579573f	3989.453
27	0x452dd1ba	2781.108
28	0x457823ba	3970.233
29	0x45613075	3603.0286
30	0x45533260	3379.1484
31	0x458636e1	4294.86
32	0x4570cb40	3852.7031
33	0x45933e15	4711.7603
34	0x45527811	3367.5042
35	0x4574475b	3908.4597
36	0x455e3f8a	3555.9712
37	0x455edff3	3565.9968
38	0x457c88ef	4040.5583
39	0x457f84fe	4088.312
40	0x4570f59c	3855.3506
41	0x456a5055	3749.0208
42	0x4574ed4d	3918.8313
43	0x459fad31	5109.649
44	0x45606592	3590.3481
45	0x45867e16	4303.7607
46	0x4588321e	4358.2646
47	0x459065a3	4620.7046
48	0x4567066e	3696.4019
49	0x4567a850	3706.5195
50	0x456ea104	3818.0635
51	0x45666254	3686.1455
52	0x458567a5	4268.9556
53	0x458523c3	4260.47
54	0x454c9ce9	3273.807
55	0x45287b29	2695.6975
56	0x456f7cdc	3831.8037
57	0x454259fe	3109.6245
58	0x454c876e	3272.4644
59	0x457547ac	3924.4795
60	0x457d5c4c	4053.7686
61	0x4577e4b2	3966.2935
62	0x458df2b5	4542.3384
63	0x4569d167	3741.0876
64	0x456ddf43	3805.9539
65	0x45636793	3638.4734
66	0x45ad3b27	5543.394
67	0x45676f19	3702.9436
68	0x4597762e	4846.7725
69	0x45823b7f	4167.437
70	0x4573c8bc	3900.546
71	0x4566517f	3685.0935
72	0x45626399	3622.2249
73	0x456fd8aa	3837.5415
74	0x45aa06ff	5440.8745
75	0x45b6ce1a	5849.7627
76	0x4597ab7f	4853.437
77	0x455781c0	3448.1094
78	0x453e3e5d	3043.8977
79	0x45817ef4	4143.869
80	0x457c1742	4033.4536
81	0x45826b98	4173.449
82	0x4580abf6	4117.495
83	0x457058b5	3845.5442
84	0x457fdd16	4093.8179
85	0x4550092f	3328.574
86	0x45650b50	3664.707
87	0x45523b5c	3363.71
88	0x45923b33	4679.4
89	0x45624104	3620.0635
90	0x458618f9	4291.1216
91	0x45500b76	3328.7163
92	0x4558597e	3461.5933
93	0x4561a667	3610.4001
94	0x45585170	3461.0898
95	0x4585eeeb	4285.8647
96	0x4582b637	4182.777
97	0x45a19028	5170.0195
98	0x4596e00b	4828.0054
99	0x455b5c21	3509.758
100	0x457b5dcd	4021.8625
101	0x45853e78	4263.8086
102	0x45789295	3977.1614
103	0x455c2fe6	3522.9937
104	0x455c2f71	3522.965
105	0x45726040	3878.0156
106	0x45791e81	3985.9065
107	0x457e86de	4072.4292
108	0x456bd7c7	3773.486
109	0x45777db7	3959.8572
110	0x4580ee07	4125.7534
111	0x45783c85	3971.7825
112	0x4587de38	4347.7773
113	0x456dc4f3	3804.3093
114	0x458ddd38	4539.6523
115	0x4548f3df	3215.242
116	0x45800aa4	4097.33
117	0x459b81fe	4976.249
118	0x45849000	4242.0
119	0x459260e6	4684.1123
120	0x452c79c5	2759.6106
121	0x4564b602	3659.3755
122	0x4562754d	3623.3313
123	0x458439d6	4231.2295
124	0x45634ffc	3636.999
125	0x459bb489	4982.567
126	0x455f450a	3572.315
127	0x45892c48	4389.535
128	0x45954234	4776.2754
129	0x456838d5	3715.552
130	0x4586cb14	4313.385
131	0x45626f12	3622.942
132	0x457f9496	4089.2866
133	0x4551069d	3344.4133
134	0x45ba08b1	5953.0864
135	0x455e8b0d	3560.6907
136	0x455e3229	3555.135
137	0x45745bd1	3909.7385
138	0x457cafed	4042.9954
139	0x456f4421	3828.258
140	0x45a31c8f	5219.57
141	0x454c7ed6	3271.9272
142	0x45750479	3920.2795
143	0x45817a87	4143.316
144	0x4551dd05	3357.8137
145	0x4561b2b7	3611.1697
146	0x45517a11	3351.6292
147	0x4563bfa1	3643.9768
148	0x45a4d527	5274.644
149	0x455572cf	3415.1755
150	0x457a1a74	4001.6533
151	0x4572321e	3875.1323
152	0x45b8a6a6	5908.831
153	0x45970d2a	4833.6455
154	0x45665c0b	3685.7527
155	0x454f84b5	3320.2942
156	0x455f0567	3568.3376
157	0x456745bc	3700.3584
158	0x458d9915	4531.1353
159	0x458c9b6e	4499.4287
160	0x4550a25f	3338.1482
161	0x45747c9d	3911.7883
162	0x453fb6e3	3067.4304
163	0x454fc644	3324.3916
164	0x45b0944f	5650.5386
165	0x458dfc8a	4543.5674
166	0x457eaf57	4074.9587
167	0x455a6244	3494.1416
168	0x45536604	3382.376
169	0x456e1b33	3809.7
170	0x455f1c21	3569.758
171	0x45308ce5	2824.806
172	0x454f9f9f	3321.9763
173	0x456ef777	3823.4666
174	0x459d0c60	5025.547
175	0x45895a85	4395.315
176	0x45490858	3216.5215
177	0x45998293	4912.322
178	0x4561cf05	3612.9387
179	0x458dd170	4538.1797
180	0x4558e783	3470.4695
181	0x4575a1ee	3930.1206
182	0x45453de0	3155.8672
183	0x45b790c2	5874.0947
184	0x453babbc	3002.7334
185	0x4584106e	4226.0537
186	0x4555466a	3412.401
187	0x454b4f23	3252.946
188	0x45a0c49c	5144.576
189	0x457756db	3957.4285
190	0x458b8222	4464.2666
191	0x4584f68b	4254.818
192	0x452e4e55	2788.8958
193	0x45732faf	3890.9802
194	0x455759a5	3445.6028
195	0x45906a6c	4621.3027
196	0x457bc57b	4028.3425
197	0x458d4c8e	4521.5693
198	0x458222f9	4164.3716
199	0x457d23c8	4050.2363
200	0x4589063a	4384.7783
201	0x45709512	3849.317
202	0x459b6cba	4973.591
203	0x45703888	3843.5332
204	0x4551f892	3359.5356
205	0x4584fc9b	4255.5757
206	0x453269a2	2854.602
207	0x454da145	3290.0793
208	0x457ba8c2	4026.5474
209	0x457e0b55	4064.7083
210	0x45556bb4	3414.7314
211	0x45643b68	3651.713
212	0x4550ae70	3338.9023
213	0x455290ce	3369.0503
214	0x4575821a	3928.1313
215	0x456fd385	3837.22
216	0x458392cc	4210.3496
217	0x4578b62a	3979.3853
218	0x45841f58	4227.918
219	0x458aeceb	4445.6147
220	0x456b83e7	3768.244
221	0x454504de	3152.3042
222	0x455db499	3547.2874
223	0x4568c314	3724.1924
224	0x4591caac	4665.334
225	0x4581b619	4150.762
226	0x457595b3	3929.3562
227	0x4573680c	3894.503
228	0x4553cdfd	3388.8743
229	0x458ff89c	4607.076
230	0x458384f0	4208.617
231	0x4544857c	3144.3428
232	0x458670cf	4302.101
233	0x458a1501	4418.6255
234	0x45825441	4170.5317
235	0x456de5d2	3806.3638
236	0x45692637	3730.3884
237	0x4572a48e	3882.2847
238	0x4585fbcf	4287.476
239	0x454e452b	3300.323
240	0x453a811f	2984.07
241	0x457bac1a	4026.7563
242	0x452923df	2706.242
243	0x45921e05	4675.7524
244	0x45a2b2b7	5206.3394
245	0x457246a3	3876.4148
246	0x4573d761	3901.4612
247	0x456b7c7c	3767.7803
248	0x45677c0b	3703.7527
249	0x4577728e	3959.1597
250	0x4577eb61	3966.7112
251	0x456d6360	3798.211
252	0x4539aa2c	2970.6357
253	0x4553b3d8	3387.2402
254	0x453e1b0e	3041.691
255	0x4558d928	3469.5723

network.4.weight f4 [256, 512]
0	0x3f97a415	1.1846949
1	0xc0390128	-2.8906956
2	0xc0600af9	-3.5006697
3	0x3f1fd057	0.62427276
4	0x3f1b4cbc	0.6066396
5	0x40034f06	2.0516982
6	0x3d4f0c4a	0.05054883
7	0xbf227964	-0.6346648
8	0xbf821588	-1.0162821
9	0x40c251b4	6.0724735
10	0x406fdfb4	3.7480288
11	0xbfc0f7f3	-1.5075668
12	0xc0ae4e50	-5.4470596
13	0x3fe2eedf	1.7729148
14	0xbfb4c248	-1.412179
15	0x3f9a406a	1.2050908
16	0x3db277ff	0.08714294
17	0x3e37dd48	0.17955506
18	0xbf170ebd	-0.59006864
19	0x40516361	3.2716906
20	0x3fcbdb3f	1.5926284
21	0xc06aa1f4	-3.6661348
22	0x4089a3b9	4.3012357
23	0xc0244c83	-2.56717
24	0x3f93c6ef	1.1545085
25	0x3df2ed9b	0.11861726
26	0xbf11e33e	-0.5698737
27	0xc0922f0b	-4.5682425
28	0x3f4569e9	0.7711473
29	0xbe4f5261	-0.20246269
30	0x3ed47866	0.41498107
31	0x3f88a066	1.067395
32	0xbfe4fff5	-1.7890612
33	0x3d32373f	0.043509718
34	0xbfbc6b1b	-1.4720186
35	0x3f397d42	0.72456753
36	0x408c9140	4.3927307
37	0xc036956b	-2.8528697
38	0x3f83ce69	1.0297366
39	0xc0297374	-2.6476717
40	0xbe442530	-0.19154811
41	0xc0c89af3	-6.2689147
42	0x401b5789	2.4272177
43	0x407ebd07	3.9802873
44	0xc0c32be4	-6.0991077
45	0xbe1b368a	-0.15157524
46	0xc0baae8c	-5.833807
47	0x3dd6e5a5	0.1049302
48	0xc08d0037	-4.406276
49	0x40352dfe	2.8309321
50	0xbf1440f0	-0.57911587
51	0x3f54cfe8	0.8312974
52	0xc0bf4ef6	-5.978389
53	0x3d9cbb9a	0.0765297
54	0xbfde92c9	-1.7388545
55	0x40552e6f	3.330959
56	0xbfd959f2	-1.6980574
57	0xc00a6ff8	-2.163084
58	0x3f08039e	0.5313052
59	0xbf8b57b5	-1.0886141
60	0x3f2d58ad	0.67713434
61	0xbf3c08b2	-0.7345077
62	0x3ff76ef0	1.933073
63	0x3fbf4640	1.4943314
64	0x3f8e259b	1.1105226
65	0xc0c61afe	-6.190795
66	0x3f409d59	0.75240093
67	0x40278ba8	2.617899
68	0x4088d064	4.2754383
69	0xc0752e8e	-3.8309665
70	0x4027e2d2	2.623219
71	0x3ff2a78d	1.8957382
72	0x40597b5e	3.3981547
73	0x40040ca9	2.0632727
74	0xbe1d1259	-0.1533903
75	0x3f366b4a	0.7125746
76	0x401222c8	2.2833729
77	0xc06ebc98	-3.7302608
78	0x3ffeabad	1.9896141
79	0xc071a85a	-3.7759004
80	0x4048b0cd	3.135791
81	0x3f55378f	0.832879
82	0xbf9a8938	-1.2073126
83	0xbeb4a637	-0.35283062
84	0xc054df60	-3.3261337
85	0x3f4034b7	0.75080436
86	0xc07980a8	-3.8984776
87	0xc031d93b	-2.7788837
88	0xbed5eefa	-0.41783887
89	0x3fd76a4c	1.6829314
90	0x3df79dbe	0.12090634
91	0xc006e1fc	-2.107543
92	0x4041f6fc	3.0306997
93	0xc0a8cc86	-5.2749662
94	0x3fecb534	1.8492799
95	0x3f838af9	1.0276786
96	0xbf9577a5	-1.1677138
97	0x408e9a73	4.4563537
98	0xbfddf032	-1.7338927
99	0x401259c5	2.286729
100	0x3db52429	0.088447876
101	0xc0f935c7	-7.7878146
102	0xc04545be	-3.0823817
103	0x3ea95156	0.33069867
104	0xbf526180	-0.82180023
105	0x401ba2c4	2.4318094
106	0xc02cabd2	-2.697987
107	0xbf910f93	-1.1332878
108	0xbf6c38e9	-0.9227434
109	0xbf04cb45	-0.51872665
110	0x3eb1c376	0.34719437
111	0x40de5d06	6.9488554
112	0x3fd5c76b	1.6701483
113	0xc050be2e	-3.2616076
114	0xc0b36678	-5.6062584
115	0xbeaf7170	-0.34266233
116	0x3e1ca381	0.15296747
117	0xbfae510d	-1.3618485
118	0x40aeec11	5.4663167
119	0xc04859d0	-3.1304817
120	0x3d4a0b42	0.049327143
121	0xbfa32c4d	-1.2747895
122	0xbfa4a8aa	-1.2863972
123	0xbfb570f6	-1.4175098
124	0xbf848c40	-1.0355301
125	0x40fec5ad	7.9616303
126	0xbf441544	-0.7659495
127	0xc0bf41e8	-5.976795
128	0x4014a499	2.3225462
129	0xc01c8a05	-2.445924
130	0xc031089f	-2.7661512
131	0xbff3e5a8	-1.905446
132	0x3f7801ee	0.96877944
133	0x400c6a1a	2.193976
134	0xbeb81167	-0.35950777
135	0xbfa76817	-1.3078641
136	0xbd492bf0	-0.049114168
137	0xbf336f31	-0.7009154
138	0x401e8cb3	2.4773376
139	0xbfaf96ac	-1.3717856
140	0xbfb4be13	-1.4120506
141	0xc00d1de0	-2.2049484
142	0xbf88da8d	-1.0691696
143	0xbfb6f750	-1.4294224
144	0x3ef9f571	0.4882007
145	0xbf5a0c02	-0.8517457
146	0x401dba66	2.4645019
147	0x3efb5756	0.4909007
148	0x405453e6	3.3176208
149	0x3f0802c6	0.5312923
150	0x400d09ca	2.2037225
151	0xc06b656b	-3.678065
152	0xc1044502	-8.266848
153	0xc033db98	-2.810278
154	0xc0281780	-2.6264343
155	0x3f6c03a0	0.9219303
156	0xbf530519	-0.82429653
157	0x3f04740d	0.5173958
158	0x3f976354	1.1827188
159	0x3f9260f0	1.1435833
160	0x3fc4017f	1.5312957
161	0xc01f9569	-2.4934943
162	0x40bed74e	5.9637823
163	0x401328ee	2.2993731
164	0xc08da064	-4.425829
165	0x405158b9	3.2710402
166	0x3f90079f	1.1252326
167	0xc00178f0	-2.0230064
168	0x401d47a8	2.4574986
169	0xbc5043ab	-0.012711446
170	0xbf961773	-1.1725906
171	0xc01fa6e7	-2.494562
172	0xc0923047	-4.568393
173	0xbeeb02bd	-0.45900527
174	0x4035c348	2.840044
175	0x3f2d99fb	0.6781308
176	0x4089fab6	4.3118544
177	0xbfb09365	-1.3794981
178	0x3ffcf10f	1.9761065
179	0x40a54736	5.1649427
180	0x3f98fac7	1.1951531
181	0x3fc0f990	1.507616
182	0xbe922485	-0.28543487
183	0xbf97f01e	-1.1870153
184	0xc0119130	-2.2744865
185	0x405cbc02	3.448975
186	0xbf1ca00d	-0.6118172
187	0x4053a376	3.3068519
188	0x40782f9d	3.877906
189	0xbf3453e2	-0.70440495
190	0x3ffa6349	1.956155
191	0xc050a3b7	-3.2599924
192	0x3ffdddd2	1.9833319
193	0xbf083fef	-0.53222555
194	0x3fcb6b61	1.5892144
195	0x3ed7b7c3	0.42132387
196	0x40857307	4.1702914
197	0xc0939b48	-4.612705
198	0xbf26813a	-0.65040934
199	0xbf89216b	-1.0713323
200	0xc0845db9	-4.1364408
201	0xc098fa31	-4.780541
202	0xc00efab5	-2.234052
203	0xbed77439	-0.42080858
204	0x3dc2dbc7	0.095145755
205	0xc0647c94	-3.5701036
206	0xc0523f5f	-3.2851179
207	0x4001532c	2.0207014
208	0xc035aef2	-2.8388028
209	0xc09a9bd8	-4.831524
210	0xbf6c4141	-0.9228707
211	0x3eb97971	0.36225465
212	0x3fc273c1	1.5191575
213	0xbfc3016f	-1.5234812
214	0x3f500904	0.81263757
215	0xbe576f59	-0.2103857
216	0xc0d032e9	-6.5062146
217	0x3fcf49c7	1.619439
218	0x3fe73bcb	1.8065122
219	0x3f94414f	1.1582431
220	0x4044dfd3	3.0761611
221	0xc0033522	-2.050118
222	0xc01dc7a5	-2.4653103
223	0xbff6fcca	-1.9295895
224	0xc0c7f1e5	-6.248278
225	0xc07cc39c	-3.949439
226	0xbfec8a14	-1.8479638
227	0xbf87b5fd	-1.0602413
228	0xc0e80643	-7.2507644
229	0xbf57fc58	-0.8436942
230	0x3f84e649	1.0382777
231	0xbfa662ef	-1.2998942
232	0xc0876ea8	-4.232258
233	0xc09ea268	-4.957325
234	0xc01d087f	-2.4536436
235	0x3f301643	0.6878397
236	0xbedc7407	-0.43057272
237	0xbf2e7de9	-0.68160874
238	0x403a3d4b	2.909991
239	0xbfa81008	-1.3129892
240	0xc0bee292	-5.9651575
241	0xbff594cf	-1.9186038
242	0x3d66d4b4	0.056355193
243	0xc07aec9c	-3.9206915
244	0xc0842fc2	-4.13083
245	0x400a4ab3	2.1608093
246	0x402cec15	2.7019093
247	0xbd9684ee	-0.07349573
248	0x3fa32820	1.274662
249	0xbf21966b	-0.63120145
250	0xc0413885	-3.0190747
251	0x40201936	2.5015388
252	0x40a6b212	5.209237
253	0x3f2f9da5	0.6859992
254	0x3d3ae0c0	0.045624495
255	0xc0000a5f	-2.000633
