models/NeuralNetwork-2_acc-52.95_loss-0.000002.pth (torch, 893391 bytes, 8 tensors)

network.0.weight f4 [423, 141]
00000000: 6c6f a43b 38c9 9d3c 7541 09bd 5bfa 763c
00000010: 9c75 0b3d 3e65 e1bd 5d99 ec3c 0382 143d
00000020: c3f2 8cbc 4711 ebbc 79f0 9dbc 0af5 07be
00000030: ae60 a9bb eb44 093b df4f 84bd f887 373d
00000040: ceda 8e3c 8773 f73c e23d 6f3d fc78 61bd
00000050: fc3c 6b3d 32df 61bd 8810 81bd 0ea0 e5bc
00000060: a24f d7bc 5f4d fe3c c997 a13c 9ef8 52bd
00000070: cd3f 8b3c 40c8 7bbe 1178 dcbd 2454 b63d
00000080: cb4d 8d3d aeab 0e3d 9c65 e6bc dd8e 853d
00000090: e632 183d f8b2 75bd f4af 24bd 2253 a2bc
000000a0: ff4f debd 513d 0d3d 52b0 10bc 67f7 3a3d
000000b0: c12f 31bd f4c2 843d 5f3f 863d 28b7 9c3d
000000c0: caf8 9bbd a83c d63d c349 093d 0567 1d3d
000000d0: 8a64 9dbd 2fea 0ebd 12d5 edbc afc9 df3d
000000e0: 958b 4cbd a3ab 053e 59d8 d63c ff6e 6dbc
000000f0: 99f5 a0bd 2fbf 5f3d e4cf ee3c 0b9c ffbd
00000100: bd03 84bd 463d 98bb 90aa be3d 86de 5b3d
00000110: cff9 92bd 726f 313d 3835 493d c5d5 ddbc
00000120: 8c64 53bd 0179 9f3c 0dcb 98bd cb53 873c
00000130: 51e4 d03d 8373 30bc b522 ac3c 88aa 02bb
00000140: 24d9 4c3d 2913 b7bd 64a4 673c 475e a3bd
00000150: 55e2 463d ee7b cabd bb7a f63d b78a 0ebd
00000160: 683b 39bc 4913 17bd a1b1 4dbd c31f e53d
00000170: 673f edbd 5d21 09bd ff8a 8c3c 1dd1 b7bc
00000180: c02e 283e e134 a4bd 9e2d 08bd 81f6 c4bc
00000190: 9092 5b3d b075 0e3d dce7 6e3b 8a67 a9bc
000001a0: c036 d73a 7ee0 e0bd 5268 353d 24a6 903c
000001b0: 5b5b de3c 7ef9 49bd 1a9a cfba 2a3b 4abd
000001c0: eee8 fd3d ac22 993c fe2b 8dbd 69c7 af3d
000001d0: ce27 563c 5567 d23d 4f90 79bd 4e30 443d
000001e0: fd8c 543d ba8a 3abd a1d3 c7bd e46b 16bd
000001f0: 2819 35bd 6440 8bbd 311b 8a3c e77e 8cbd
00000200: 8bf4 8ebd 0c39 e83d a1de 383c e4da 0f3d
00000210: 2c1a 1abc 9f43 1e3d ed1a cd3d d2e0 63bd
00000220: 41ba 183e a269 2a3d 89f1 b9bc 3cdb e93c
00000230: 359c 36bd bd6d 913c 5768 d7ba 1dea 5b3c
00000240: c789 9bbc 5b6c 3b3d fb33 2dbd 18ab 22bd
00000250: a7ca 363c a959 153b bb5e a63c 9ff5 1cbd
00000260: 8f84 02bd 2ee0 3fbd e617 b43b 30d8 e5bb
00000270: 5baa 333e 1dba 83bd 2dc9 3f39 7281 723c
00000280: 66f8 d93d 4829 86bd 31a8 f4bd 4b33 9c3c
00000290: 4352 d0bd 4430 f33d 3536 96bb b866 483d
000002a0: 6c89 b03d d2ed 49bc 4564 11be daa1 84bd
000002b0: e27d 903d c058 8a3c 1589 1f3e b910 3a3d
000002c0: 09fa 69ba 1109 9abc 6b3e c3bc 5eb1 10bd
000002d0: b121 f43d a8e7 0d3d c5ff 85bd d3fb 2bbd
000002e0: 44a3 b53c 7038 39bd 549a 183d 31b2 33bd
000002f0: b38f 3fbc 3366 4f3e d709 023c 5b70 5d3b
00000300: e7f4 0d3e dd53 54bd fc57 7abd 95a1 843b
00000310: 892b 033e 3234 e0bc 3024 dd3d 0763 923c
00000320: f963 753e b66e 36bd 2711 02bd 513c c73d
00000330: 21be e23c b273 d6bd bd2f 6d3d 963f 073e
00000340: 272a 7c3b 9522 da3d d8ce ed3d 3a27 74bd
00000350: 6f65 a13c ced9 9a3d e53f 973d ecb0 87bd
00000360: 867f 023d e03e 853c edf8 1f3d 9bbc 833d
00000370: 1239 1e3d a8af 893d 3a86 993d 1ca1 3e3c
00000380: c41f 34bd 0ddc 863c 821b 0abd 1526 873d
00000390: b6ad 033d 0f59 d23c a8d4 113c 3a3a d23c
000003a0: f918 1a3d 1a75 dab9 9ba0 82bd 7481 82bc
000003b0: 5cea 9a3d 608a b5bd e385 47bd 604a 483d
000003c0: 3614 adbc da95 e4bc a7ba 55bd 571b 923d
000003d0: 63e2 9dbd 4b87 10bd 704e 8f3d 0d1e babd
000003e0: 4ace 5bbd 8701 2dbe 24c0 fe3c 6a33 443c
000003f0: 9484 913d 1d3b 5f3a 62d7 b73d 3a53 72bd
0.0050181653 0.019260988 -0.03350969 0.015074338 0.034047708 -0.110056385 0.028881723 0.0362568
-0.017205602 -0.028694762 -0.019279705 -0.13277069 -0.005168996 0.002094562 -0.06460547 0.044807404
0.017438319 0.030206455 0.058408625 -0.05504702 0.057431206 -0.055144496 -0.06301981 -0.028030422
-0.02628309 0.031042753 0.019725697 -0.05150663 0.016998196 -0.24588108 -0.10765088 0.08902767
0.068996035 0.034831695 -0.028124623 0.0652139 0.037157916 -0.05998513 -0.040206864 -0.019815031
-0.10855102 0.034482304 -0.008831101 0.045646098 -0.043258432 0.06482497 0.06555056 0.07652122
-0.07615812 0.10460788 0.03351761 0.038428325 -0.07685192 -0.034891304 -0.029032264 0.1092714
-0.049937803 0.13053755 0.02622621 -0.014491796 -0.07859344 0.054625686 0.029151864 -0.12480935
-0.064460255 -0.0046459762 0.09309876 0.05367901 -0.071765535 0.043319173 0.04912302 -0.027079472
-0.05160956 0.019466879 -0.07460604 0.016519448 0.10199798 -0.010769728 0.021012643 -0.001993807
0.05001177 -0.089392014 0.014138315 -0.07976966 0.04855569 -0.09886919 0.12035128 -0.034800258
-0.011305667 -0.036883626 -0.05021823 0.11187699 -0.11584359 -0.033479083 0.017156122 -0.02243858
0.16424084 -0.08017898 -0.03324663 -0.024043323 0.05360657 0.034780204 0.0036454117 -0.020679254
0.0016419515 -0.109803185 0.04428894 0.017657347 0.027143171 -0.0493102 -0.0015838773 -0.04937283
0.123979434 0.01869329 -0.068931565 0.08582956 0.013071014 0.10273615 -0.06092864 0.04789763
0.05189227 -0.045542456 -0.09757162 -0.036723986 -0.044213444 -0.06799391 0.016858669 -0.06860142
-0.069802366 0.11339006 0.011283548 0.03512086 -0.009405654 0.038638707 0.10014901 -0.055634327
0.149148 0.041604646 -0.02269818 0.028546922 -0.044582564 0.017752523 -0.0016434294 0.013422516
-0.018986596 0.045757633 -0.0422859 -0.03971395 0.0111567145 0.0022789037 0.020308843 -0.03832018
-0.0318647 -0.046844654 0.005496013 -0.007014297 0.17545454 -0.06431983 0.00018290123 0.01480137
0.10643081 -0.065508425 -0.119461425 0.019067427 -0.1017194 0.1187444 -0.0045840987 0.048926085
0.08619961 -0.012324767 -0.14198406 -0.06476183 0.0705526 0.016888022 0.15579636 0.045426104
-0.0008925503 -0.018803151 -0.023833474 -0.0353254 0.119204886 0.034644753 -0.06542925 -0.041988205
0.022172578 -0.04521984 0.037256554 -0.04387111 -0.011691975 0.2025383 0.007936916 0.0033788893
0.13862954 -0.05183779 -0.061119065 0.0040475824 0.12809576 -0.027368639 0.10797918 0.017869486
0.23963918 -0.044539176 -0.03175464 0.09728301 0.027678551 -0.10471286 0.057906855 0.1320785
0.0038477273 0.10651127 0.11611718 -0.059607722 0.019701688 0.07561074 0.07385234 -0.06625542
0.031859897 0.016265333 0.039055753 0.06432458 0.038628645 0.06722957 0.07496305 0.011635091
-0.043975607 0.01646235 -0.03371764 0.065990604 0.032148086 0.025677232 0.008900799 0.02566253
0.037621472 -0.00041667448 -0.06378289 -0.015930869 0.07564232 -0.088642836 -0.04871167 0.048899055
-0.021127801 -0.027903486 -0.05217996 0.07134121 -0.077091955 -0.035285275 0.06997383 -0.09087763
-0.05366353 -0.16895114 0.03109748 0.011975149 0.071053654 0.00085155835 0.08976628 -0.059161402

network.0.bias f4 [423]
00000000: 17d1 6fbe a1db 11be 293b 4abe 1266 86be
00000010: 1c5e 8fbe a74e dfbe e11c 61be 8568 c2be
00000020: a8e2 76be 987a 6dbe a13d abbe ba08 84be
00000030: f17c 16be 075e 95be 6d9a 15be 1378 3cbe
00000040: 3745 55be cb3c 91be 71fc adbe 8877 c4be
00000050: e748 57be 0c8f a7be c26b 70be 0188 66be
00000060: 8c51 86be cbe0 91be 618a c3be a9b6 d3bd
00000070: fc43 23be 020e 93be a1f0 35be 60e4 06be
00000080: 7674 9abe 3ffc 84be a881 21be 15d9 36be
00000090: 3bc9 0cbe 9def 56be 50d9 73be 717e 78be
000000a0: 578d 82be bc00 52be 6cae 8fbe a2ae 6bbe
000000b0: 9f19 4fbe cc91 b4be b8b7 87be fc94 4cbe
000000c0: 1907 6fbe e35d 47be facd 37be 40ca 83be
000000d0: 98b1 75be 48a5 3dbe 68a1 7abe 5862 f9bd
000000e0: 07d2 70be b5fe 86be 6429 6dbe 1957 b4be
000000f0: 2b92 80be 7c99 8abe c5f1 6dbe 97fa 35be
00000100: fb83 d0bd 2138 a7be 0415 96be 92cb 8dbe
00000110: b6c5 83be eb8b 57be 3560 44be 0f50 90be
00000120: 67e4 a8be 2399 b7be ac64 87be d020 20be
00000130: 2230 e4bd 5f6d 71be 9617 6bbe 5591 e2bd
00000140: bfd2 3cbe 3a0d 6fbe 5015 00be 07ff 5cbe
00000150: b307 25be 05c5 bbbe 01fe 4abe 8268 7dbe
00000160: d8ac 63be 6c62 8dbe f5d2 2cbe 4c06 47be
00000170: 3d0d 74be 0272 73be c6d6 6bbe 9dfd 0cbe
00000180: 5885 92be 5141 49be f855 69be 57fd 42be
00000190: 430c 6abe ae68 67be 7f49 32be 7933 7cbe
000001a0: 6e7e 65be d638 6dbe 77c7 80be f0f5 6ebe
000001b0: 1164 0ebe ea8c 27be b839 8bbe 6c3d 7bbe
000001c0: 2aca 22be f76a 31be 3851 52be 8e87 67be
000001d0: 156c 72be 6ab5 28be 0adb 32be 6039 44be
000001e0: cf2d a9be 94f4 91be 7b17 b4be 1bbb a6be
000001f0: f6c8 5ebe 16cf 80be dea7 97be 410a aebe
00000200: bdb2 6abe d315 97be e89f 4cbe 9970 95be
00000210: 3f0b acbe c577 6dbe b884 93be b9dc 8abe
00000220: 15f9 5cbe 5a43 96be c22e bbbe 7a6f 5abe
00000230: 3717 1ebe a543 6cbe 3848 a6be f839 24be
00000240: 0f18 5fbe 4812 86be ac53 46be a6d1 81be
00000250: 8edb 97be ded9 81be a88a 18be 8229 4bbe
00000260: 8f7f 57be 81f5 4fbe 8faa 3dbe b960 91be
00000270: b53c e1bd 9e4c 3dbe 9a9f 81be f569 2ebe
00000280: 2198 42be 4cc2 8bbe 8e0b a7be 0f1b 8bbe
00000290: 0356 e9bd 5a55 eabd 91ce 8cbe ed42 d5be
000002a0: 8e1d b1be f9de 2abe aa03 1cbe 82a4 5bbe
000002b0: 522b 1ebe ff28 50be 901a 5dbe e0f6 bcbe
000002c0: aeb5 75be b050 09be fb84 4fbe 68af 59be
000002d0: 8563 09be 6d98 30be a80d c3be c7b8 53be
000002e0: 5e8f 0bbe dad0 8bbe 0003 08be 47b9 1abe
000002f0: 9e47 b5be d8c1 9bbe 96f3 aabe 82f5 a4be
00000300: 4574 7fbe 69d1 8ebe 9546 6cbe 16bb 89bd
00000310: 2619 67be d78f 9ebe cd2d 89be 8dde 2abe
00000320: 010a 99be dbd9 19be ad0d b1be 9193 b1be
00000330: a2c1 8dbe 2c6d 76be dc98 73be ec7e 82be
00000340: 0344 0cbe a3e2 1cbe b219 b2be 0987 b0be
00000350: 3930 7fbe c5e8 96be 102b 39be b752 9abe
00000360: 2641 30be 0976 46be 8111 81be 7cc0 67be
00000370: 1f2c 15be 7bd3 8bbe a20d 91be f088 7cbe
00000380: f2ed 90be 2a2e 7ebe 1c58 91be 8708 06be
00000390: 6440 60be 800e 6dbe c5ed 6ebe 9102 5cbe
000003a0: c8ed 82be d22d 43be 8b5a 3fbe 7aaa 7ebe
000003b0: 3d10 d0be 2d75 1ebe 8727 58be 503e c8be
000003c0: 2a11 95be 9305 55be 246f a2be 3209 80be
000003d0: 7e1e 8bbd ee17 6abe bb64 88be 78d7 b0be
000003e0: 7f5c 4cbe 23d6 8abe 0a06 b6be 91ef a6be
000003f0: 8764 60be 62b8 71be fd8d 4ebe f82d c2be
-0.23419605 -0.14243938 -0.1974913 -0.26249748 -0.28001487 -0.43614694 -0.21983673 -0.37970367
-0.241099 -0.23191297 -0.33445457 -0.25787908 -0.14696099 -0.291733 -0.1460969 -0.1840518
-0.20827185 -0.28366694 -0.3398166 -0.38372445 -0.21023904 -0.32726324 -0.23478606 -0.22512819
-0.2623409 -0.28491816 -0.38191512 -0.10337574 -0.15943903 -0.28721625 -0.17767574 -0.13173056
-0.30166978 -0.25973698 -0.15772116 -0.17856248 -0.13748638 -0.20989843 -0.23813367 -0.24266984
-0.2549846 -0.20508093 -0.2806276 -0.23015836 -0.20224617 -0.35267484 -0.26507354 -0.19978708
-0.23342551 -0.19469409 -0.17949668 -0.25740242 -0.23993528 -0.18520081 -0.24475634 -0.12176961
-0.23517619 -0.263662 -0.2316032 -0.352227 -0.25111517 -0.27070224 -0.23236759 -0.17771374
-0.10181423 -0.3266001 -0.2931291 -0.27694374 -0.2573678 -0.21049468 -0.19177325 -0.2818608
-0.32986757 -0.35859022 -0.26443994 -0.15637517 -0.11141993 -0.23576878 -0.22958216 -0.11062876
-0.18439768 -0.2334489 -0.1250813 -0.2158166 -0.16116218 -0.3667375 -0.19823457 -0.24746898
-0.22233903 -0.27614152 -0.16877349 -0.19435996 -0.23833175 -0.2377396 -0.23031148 -0.13768621
-0.28617358 -0.19653822 -0.227867 -0.19041954 -0.2285624 -0.22598526 -0.17410849 -0.2462901
-0.2241151 -0.23166212 -0.2515218 -0.23336005 -0.1390536 -0.16362348 -0.27192473 -0.2453515
-0.15897432 -0.1732596 -0.20538795 -0.22610304 -0.23674043 -0.16475454 -0.1746637 -0.19162512
-0.33042762 -0.2850691 -0.35174164 -0.32564625 -0.21756348 -0.25157994 -0.2962026 -0.33992198
-0.22919746 -0.29508838 -0.19982874 -0.29187468 -0.3360233 -0.2319022 -0.28812194 -0.27121523
-0.21579392 -0.2934826 -0.3655911 -0.21331587 -0.15438543 -0.2307268 -0.32476974 -0.16037738
-0.21786521 -0.26185822 -0.19367856 -0.25355262 -0.29659694 -0.25361532 -0.14896643 -0.19840053
-0.21044753 -0.20308496 -0.18522094 -0.28394106 -0.10997907 -0.18486258 -0.2531708 -0.17032607
-0.19003345 -0.27296674 -0.32626003 -0.27169082 -0.113933586 -0.11442061 -0.27501348 -0.41652623
-0.3459286 -0.1668662 -0.15235773 -0.21449474 -0.15446213 -0.20328139 -0.21592164 -0.369071
-0.23995087 -0.13409686 -0.20265572 -0.21258318 -0.1341687 -0.17245646 -0.38096356 -0.20675956
-0.13628909 -0.2730778 -0.13282394 -0.1510974 -0.35406202 -0.3042133 -0.33388966 -0.32218558
-0.24946697 -0.27894142 -0.230738 -0.06725137 -0.22568187 -0.30969116 -0.26792756 -0.16686459
-0.29890445 -0.15024512 -0.34580746 -0.34682897 -0.27686793 -0.24065083 -0.2378878 -0.2548746
-0.1369782 -0.1532083 -0.3478523 -0.34478024 -0.24920739 -0.29474464 -0.18082833 -0.3014123
-0.17212352 -0.19380964 -0.25208667 -0.2263202 -0.14567612 -0.27309784 -0.28330714 -0.24661613
-0.28306538 -0.24822298 -0.28387535 -0.1308919 -0.21899563 -0.23150063 -0.2333289 -0.21485354
-0.25572038 -0.19060448 -0.18686883 -0.24869719 -0.4063739 -0.15474387 -0.21108828 -0.3911004
-0.29114658 -0.20802908 -0.3172542 -0.25007015 -0.06792925 -0.22860691 -0.2663935 -0.3453939
-0.1995716 -0.27116498 -0.35551482 -0.3260465 -0.21913348 -0.23605493 -0.20171352 -0.37925696

network.3.weight f4 [282, 423]
00000000: e97c 95bd 692a 8a3b 387c 5d3d 80cc b4bc
00000010: 250b 0dbc 3e96 e1ba 0be0 6b3d 1e59 423d
00000020: 29d2 123d 8991 02bd 9af2 333d 5ef4 343d
00000030: c371 20bd c3ec 033d 95f9 54bd 735b 75bc
00000040: f59c a8bb 5837 573d 1747 c6bd 9d8d 8d3c
00000050: bc72 a53c e0b4 0e3d 7834 d2bb 9f27 d4bb
00000060: 5942 293d 42c4 2e3d 071e 903b 03fc b63d
00000070: 4b80 d1bd 4f74 71bd 751c 8c3d a861 bf3c
00000080: 5dd9 bbbc 0101 553d 752c 503b 9b99 793c
00000090: 4485 c0ba 3121 1d3d e50b b43c 898e 9abc
000000a0: 2545 b33b b467 6c3d ce45 27bd d05f ae3d
000000b0: a653 f9bc cddd b3bd 8c54 0dbd 0427 e5bc
000000c0: eb35 083d baf3 813c 5167 61bc de76 a53b
000000d0: 7fb4 cf3c 960c 083d 3fb1 523b d199 1cbd
000000e0: 2547 bb3c 71fe c8bd a9c9 433d 65dd 113e
000000f0: 20b5 66bd 5eb9 6fbc 87e3 b0bc 5880 99bd
00000100: 3978 7abd 2eac 053b 1160 54bd 4dab eebb
00000110: 426b f1b8 c056 87bd 9205 e3bc 1108 d63d
00000120: 4940 c63c 4b9a 9f3c 190a 73ba fda4 8bbb
00000130: a839 91bd 4013 88bb 21a1 5b39 f726 683a
00000140: 6fd4 9dbd 3aad 4f3d 363f 223c a9d6 05be
00000150: a563 d3bb 73a3 733c ed14 06bc 112e d73c
00000160: c6c7 fabc 4fdf 003c 9dc3 153d 233a c33d
00000170: 6397 093b b7fa 2bbd b92e 4d3b 4071 beba
00000180: f4a5 19bd f5a1 86bd fc11 153d 0577 e9bc
00000190: 1d24 31bc 5d0c c7bb 0119 5e3d f938 a93c
000001a0: a66e 15bc 820f 103d 10ae 0ebc 6712 9abb
000001b0: de2d c1bc e958 1a3b 51d5 843d 7faf e6bc
000001c0: e073 5abd 0dc6 98bd 0992 933d 617e 373d
000001d0: 2060 653d 6bb8 0a38 9be0 0f3b 5a8e 9cbc
000001e0: 3b4a 1cbd 96c2 813c 4a48 c9bc e69a b73c
000001f0: 802c c3ba 824a 34bd 9fd0 fc3c c4c0 383d
00000200: 83fc a13c ee67 82bc 71b4 79bc bd00 603d
00000210: df80 d9bd e1a6 29bd 4970 33bd faff 633c
00000220: aaa8 893c af21 babd 6922 25bd 53bc ab3c
00000230: e049 bd3b a770 39bc 46c9 85bd bf27 b63d
00000240: 04ff 5dbd bb14 bdbc 7c9f 8a3b ebd1 b4bd
00000250: 4e88 4dbd da68 6c3d 7857 e0bd dd0f 253d
00000260: 401a 4b3c 02df af3c 29f1 1ebb 7dfa 4abd
00000270: 876e 1cbd 49b2 a8bd ec88 583c ee50 17bd
00000280: 4b86 50bd 670d 543b 80ff 3b3c 7ce7 a23c
00000290: d30b 01be f0f4 933d f21c 9abd 1e73 ca3c
000002a0: bb82 a83c c40e d1bc 887f bf3c e0bd 1c3c
000002b0: be08 debc c70a ce3c 25d2 8bbc 2693 d93d
000002c0: d61b 95bd 748c 503c c03b 18bd 4525 a1bc
000002d0: 990b 113d 0a2b c23d 6f19 1a3e 50b2 bb3a
000002e0: 8084 30bd 3549 d43b ff9d 933d 7df6 c6bc
000002f0: 5b7f ccbc 5ec3 0dbd bfeb 13bd 701c 57bc
00000300: f9c6 4dbc 3997 823d cdf5 9bbc 335e 8cbc
00000310: b266 afbd 8ad0 aebd bdb4 a0bd 3de3 5e3d
00000320: f7e8 cb3c 7c7a dc3c 84b3 d53c 43dd 5abd
00000330: 585f 123d 2c52 193d c2db a43c 3e4b 12bd
00000340: 5c87 9bbd 82f4 b4bc 459b 01bc 8451 aebd
00000350: 9050 35bc eff9 f13c ca74 583d 1836 20bd
00000360: 3caf 853c 6d65 493d f8bc 013e ee1a 833b
00000370: 2f0b 9e3c a647 453d ca36 b2bc 1c1c 003e
00000380: fccc e4bc 67a9 24bd 680f 8f3c 6de3 c73d
00000390: 3db0 3b3c f1b7 983d f5b8 29ba 624b b0bd
000003a0: 4da6 9a3d 7c0a e53c d048 99ba e38e 963d
000003b0: 1fa6 cd3c 2409 093d a5fa 5f3d c7cc 033d
000003c0: e1a1 f8bd 75c0 54bd a68b 8ebd d2ad 493c
000003d0: d81c 383d 0041 9f3d 9e7b 023d ffaa 023d
000003e0: 2b25 f3bb c403 133d 7f4e e7bc 9fee dfbd
000003f0: 1e38 6cbb 15c2 653c 5fc2 483d 03bb 77bc
-0.07299215 0.0042164815 0.054073542 -0.02207017 -0.008608614 -0.0017210913 0.05758671 0.04744827
0.035844956 -0.031877074 0.043932535 0.04417836 -0.03917099 0.032208215 -0.051995832 -0.0149754165
-0.005145664 0.052543014 -0.09681528 0.01727944 0.020196311 0.034840465 -0.006414946 -0.0064744498
0.04132304 0.042667635 0.004398111 0.08934786 -0.10229548 -0.05894881 0.06841365 0.023361996
-0.022930795 0.05200291 0.003176478 0.015234376 -0.0014688154 0.038361732 0.021978328 -0.018866794
0.005470889 0.057716087 -0.040838055 0.085143685 -0.030435394 -0.087825395 -0.03450446 -0.027972706
0.033254545 0.015863288 -0.013757543 0.0050495705 0.025354622 0.033215128 0.0032149104 -0.03823263
0.022861073 -0.09814156 0.04779974 0.14244612 -0.056325078 -0.014631597 -0.021592868 -0.07495183
-0.06114981 0.0020396817 -0.05184943 -0.0072836042 -0.00011511754 -0.06608343 -0.027712617 0.10450757
0.024200575 0.019482752 -0.0009271219 -0.0042616115 -0.07091075 -0.0041526854 0.00020945493 0.0008855904
-0.07706534 0.05070231 0.009902766 -0.13070168 -0.0064510875 0.014870512 -0.0081837 0.026267083
-0.030612838 0.007865741 0.036563504 0.09532573 0.0020994775 -0.041987147 0.0031308366 -0.0014529601
-0.03751178 -0.065738596 0.036394104 -0.028499136 -0.010811833 -0.006074472 0.054223064 0.02065705
-0.009120619 0.03517104 -0.008708492 -0.0047019008 -0.023581441 0.002355153 0.064859994 -0.028159855
-0.053333163 -0.0745965 0.07205588 0.04479826 0.055999875 3.3073517e-05 0.0021953944 -0.019110847
-0.03815673 0.015839856 -0.024570603 0.022412729 -0.0014890581 -0.04401637 0.030861197 0.04510571
0.019773727 -0.015918698 -0.0152407745 0.054688204 -0.10620283 -0.041418914 -0.043808255 0.01391601
0.016804058 -0.09088456 -0.04031602 0.020963823 0.005776629 -0.011318362 -0.065325305 0.088943
-0.05419828 -0.023081174 0.004230438 -0.08829101 -0.05017882 0.05771718 -0.10954183 0.04029833
0.012396395 0.021468643 -0.002425263 -0.04955529 -0.038191345 -0.0823713 0.0132162385 -0.036942415
-0.05090932 0.0032356621 0.01147449 0.019885771 -0.12602167 0.072244525 -0.07525052 0.024713095
0.02057015 -0.025519736 0.023376241 0.009566754 -0.027103778 0.025151623 -0.017067978 0.106237695
-0.072807 0.012728799 -0.037166357 -0.019671092 0.03541145 0.09480865 0.15048765 0.0014320109
-0.04309511 0.0064784535 0.0720787 -0.024287457 -0.024963072 -0.034610145 -0.036113497 -0.013129339
-0.012559646 0.063765 -0.019038105 -0.017134761 -0.085645095 -0.085358694 -0.07846973 0.05441593
0.02489136 0.026913874 0.026086576 -0.053433668 0.035735458 0.03743188 0.02012432 -0.035716288
-0.07594177 -0.022089247 -0.007910554 -0.085116416 -0.011066571 0.029538123 0.052845754 -0.039114088
0.01631891 0.049168993 0.12669742 0.004001013 0.019292442 0.048164032 -0.021754641 0.12510723
-0.027929775 -0.040200617 0.017463401 0.09760175 0.011455593 0.07456959 -0.0006474399 -0.08608128
0.075512506 0.0279591 -0.0011694673 0.07351472 0.025103627 0.033455983 0.054682393 0.032177713
-0.12140251 -0.051941354 -0.069602296 0.012309508 0.044949383 0.0777607 0.03185617 0.031901356
-0.0074202023 0.035892263 -0.028235672 -0.10934185 -0.003604419 0.014023324 0.04901349 -0.015120271

network.3.bias f4 [282]
00000000: 40b1 0f3d abb1 2d3d b9d2 debc 4795 df3c
00000010: 2717 8c3c 4c1e 0c3d 14e6 3abd 46a1 6dbd
00000020: 21aa 843d 282a 4c3d 878a 1dbd a43e 3ebc
00000030: 7aa4 553d e300 25bc 05fd cf3c 5ea4 1e3d
00000040: 42ef 3dbd d980 c33c 2e7c bf3d e05b 6a3c
00000050: 7b15 0ebd 559a 4a3c 8aee b73b 7b28 1dbd
00000060: ff00 0c3d 1bc5 1fbd d53e 173b 8496 f8ba
00000070: dbe2 c63c 9497 453c 62fd 96bb 62d9 4fbb
00000080: 3c23 513d 7fe3 3f3d 0414 013b 6e0f 53bb
00000090: fbdf b43d 8938 dd3b 408a 5d3c 3d5a a3bc
000000a0: b142 8ebc cfb9 b53c 2bca 843d df0c 9a3d
000000b0: 6d7d fdbc 244d 0abc 1598 cbbc 91de 083d
000000c0: 33e4 483d e825 303d 6e0f 44bc 7985 b03c
000000d0: 7f29 f43c e286 6a3d 8e55 e43c 674c 713d
000000e0: 84d6 7e3d 69f4 1a3d aedb 733d 3f32 8bbc
000000f0: 5c36 4e3c b499 e03c 8049 66bc 35ae b33c
00000100: e8ea 29bd 695a 80bc 492e 1b3d ad0d ab3c
00000110: fdec 2e3c 8395 d03b a650 c9bc 4b15 793c
00000120: a405 643c 67aa 11bd 5e21 663d 2d08 9e3d
00000130: 22cb a83d 2fc1 58bd a318 da3b b420 553a
00000140: 8435 803d 26ff 533c c602 bd3d e9d8 c6ba
00000150: f31f 25bd f7de b6bd 7923 c93c c311 913c
00000160: 21a2 0bbd 7da1 053d 44bc 65bd 47ae 20bd
00000170: 3630 073c 4154 273d 7ea6 9c3c 7c87 40bd
00000180: 4ffb 9d3d 769a 0bbc 9ee6 c23b fa33 44bd
00000190: d5c9 93bd 2f9b cd3d c005 1a3d 0378 703d
000001a0: 4b1d 1c3a 75ee 2b3d 1f23 ab3c 0838 413d
000001b0: 24c4 17bd 1fd9 6d3c f687 cfbb 4a0b 293d
000001c0: c986 1b3d 3e8d 42bc 229d c23c c9d0 8cbb
000001d0: 849b 5b3d 2e89 55bd 525e 713d 3a33 423c
000001e0: 2393 2e3d e361 17bb bbd1 6d3c 4bce e33c
000001f0: 40dc daba 3dc4 813c 1d1a 85bd 1a1d 26bc
00000200: 3ef9 65bc 2198 db3c 286e e03a e15a 3c3d
00000210: e77e 123d 952c 6dbd b931 2a3b a95c 8b3d
00000220: 197c 383d 4d17 37bd ed43 2c3d 8c4a cf3d
00000230: 100f fdb9 41ca 3f3c 481e 7a3d 84f0 1f3d
00000240: 87dc 3bbd 6d40 c2bc 4199 1cbd fab1 20bc
00000250: abb8 ee3d 4409 e43b c2bb c83d 193a 0fbd
00000260: 53aa 7e3d 0f0e 773c 0f2a 673d b2d5 e4bc
00000270: a192 c63d e0c1 423c 1ad3 9b3d 476e c23d
00000280: e601 df3d 9f00 cabc 082b 293d 3130 973c
00000290: 6c40 723d 50a0 b43b efb2 ad3d c464 50bd
000002a0: 2b87 e1bc 3c9e 95bd 13cb 71bc f57e b8bc
000002b0: 9426 d63c 54b5 0dbd f82c 813d 31ab 9ebc
000002c0: 91b0 ec3c 5487 f13b 4744 c23b 4371 95bd
000002d0: 93d7 96bd 1845 9ebc 9796 953d e11c 6c3d
000002e0: bb33 013d 500e a8bd 5018 26bd 2a61 8f3a
000002f0: 75b0 1abc d2cb a83d c0ad 4a3c 4c2f a03b
00000300: fb13 f2bc 57d7 06bd 2681 e13c 3a74 443d
00000310: 2fe8 fbbc 0c30 12bc ad9a 40bc 7cd4 8b3d
00000320: a76f 403c c311 94bc b2e7 173d 377e 9d3d
00000330: 69e7 8cbd b453 f1bc 2ecb 3f3d 023f 2b3d
00000340: 8342 2b3b 3ec8 75bc 7690 d83b edd7 c6bc
00000350: e0da fabc aa8e 20bd 4bef 5abd 36f4 a239
00000360: a30d ad3d 76da 343c 5b8a 87bd a3dd 713d
00000370: 584e 66bd ef76 0d3d 887a 823c 2912 2a3d
00000380: e834 11bc c371 073d 316c 653d 24bd 84bb
00000390: c860 4f3d cf8e c93c 9a16 fabc a69d 0b3b
000003a0: cc5f a7bc 4197 e73d 9205 38bd 555b e2bc
000003b0: 9779 143c 5630 e2bb a705 00bd e13a 873d
000003c0: 5a5b ec3b 7e56 bc3c 82b1 40bd 09aa 7b3d
000003d0: bc8e 433d 1310 163d acb5 723a c940 9abd
000003e0: 7b2f 0f3d 2aae 49bd 88b1 d23c bbb5 fdb9
000003f0: 3be4 703d b554 813d e2b9 e0bb b10b 4539
0.03508115 0.042405766 -0.02720009 0.02729286 0.017100884 0.03420858 -0.045629576 -0.05801513
0.06477762 0.04984489 -0.038462188 -0.011611614 0.05215881 -0.010071012 0.025389204 0.03873097
-0.046370752 0.02386515 0.09349857 0.014304131 -0.034688454 0.012365897 0.005613153 -0.038368683
0.034180637 -0.039006334 0.0023078222 -0.0018965756 0.024278095 0.012060065 -0.0046078423 -0.0031715264
0.051058993 0.046847817 0.0019695768 -0.0032205242 0.088317834 0.0067511243 0.013521731 -0.01994049
-0.017365785 0.022183327 0.06483873 0.07521986 -0.030943597 -0.008441243 -0.024852792 0.03341538
0.049045753 0.0430049 -0.011966569 0.02154802 0.029804943 0.05725754 0.027872827 0.058910754
0.062216297 0.037830744 0.059535675 -0.016991733 0.0125862025 0.027417041 -0.01405561 0.021933654
-0.04148379 -0.01566811 0.037885938 0.020880545 0.01067662 0.0063654794 -0.024574589 0.015202831
0.01391736 -0.0355629 0.056184165 0.07716403 0.082418695 -0.05291861 0.006655769 0.00081301783
0.06260207 0.01293925 0.092290446 -0.0015170845 -0.040313672 -0.08929246 0.024553047 0.017708665
-0.034090165 0.03262471 -0.056087747 -0.039228704 0.0082512405 0.040851835 0.019122358 -0.047004208
0.07713949 -0.008520713 0.005947902 -0.04790113 -0.07216231 0.100393645 0.03760314 0.058708202
0.0005955293 0.041975457 0.02089077 0.047172576 -0.03705229 0.014517098 -0.0063333465 0.04127053
0.037970338 -0.011874495 0.023756567 -0.00429735 0.053615108 -0.052132778 0.05892784 0.011853034
0.04262079 -0.0023099117 0.014515336 0.02780833 -0.001669772 0.015840644 -0.06499121 -0.010138774
-0.014036475 0.02680594 0.0017122673 0.045985106 0.035765555 -0.057903845 0.0025969578 0.06804783
0.045040224 -0.044699956 0.042056967 0.101216406 -0.00048267143 0.011705936 0.061064035 0.039047733
-0.04586461 -0.023712361 -0.03823209 -0.009808058 0.11656316 0.0069591124 0.09801437 -0.034967516
0.062174153 0.015079035 0.056436595 -0.02793393 0.09695936 0.011887044 0.07608624 0.0949369
0.10889034 -0.0246585 0.041300803 0.018455597 0.05914347 0.005512275 0.084813945 -0.050877348
-0.027530273 -0.073055714 -0.014757889 -0.022521475 0.026141442 -0.034596756 0.06307405 -0.01936874
0.028892787 0.0073708687 0.0059285494 -0.072969936 -0.07365336 -0.019320056 0.07304113 0.05764473
0.031543475 -0.08205855 -0.04055053 0.0010938991 -0.009441485 0.08242001 0.012370527 0.0048884507
-0.029550543 -0.032920208 0.027527403 0.047962405 -0.030750362 -0.008922588 -0.011755628 0.068276376
0.01174537 -0.018074876 0.037086196 0.07690089 -0.068800755 -0.029458858 0.046824627 0.041808136
0.0026132173 -0.015001355 0.006609018 -0.024272883 -0.030621946 -0.039198555 -0.053450864 0.00031081
0.084498666 0.011038413 -0.06618186 0.05904926 -0.05622706 0.034537252 0.015927568 0.041521225
-0.0088627115 0.033067476 0.056011382 -0.0040508676 0.050629407 0.02460423 -0.030528355 0.0021303683
-0.020431422 0.11308146 -0.044927187 -0.027631441 0.009062192 -0.0069027347 -0.03125539 0.06603027
0.0072130384 0.022990461 -0.047044285 0.061441455 0.047743544 0.036636423 0.00092586386 -0.07531888
0.03495739 -0.04923836 0.02571942 -0.0004839132 0.058811408 0.06314985 -0.0068580965 0.0001879174

network.6.weight f4 [141, 282]
00000000: 774a cc3c 0f54 4fbd 38b8 873d 017d da3c
00000010: 51bd cf3d 30d3 3f3d b657 13be c858 1b3e
00000020: 5828 e6bc 426b 5fbd 1673 c83d 3912 58bd
00000030: 8c49 cebd dbe6 0a3c 2eda b93d 25e2 d73c
00000040: 729e 1b3d 1b87 0abe 6764 8fbd e437 033a
00000050: e5be 023e ef94 273b 1587 2d3e a690 d13b
00000060: 8a64 a4bd 8460 553e f71f 22bd 1800 f53d
00000070: c378 aa3d 86fe ec3d 1e7b 153e a7c4 a2bd
00000080: 9d66 2e3d ef53 28bd e480 4f3e ae73 97bd
00000090: 3b11 d43c 1b38 b03d ea58 783c 215f 8dbd
000000a0: e9c6 90bd 01dd 7ebd 0e59 40be 331d cdbc
000000b0: 641e 553b 2760 923d 169a aebc 2360 ed3d
000000c0: 07a1 823d 969a 3cbd fc3a b03d c975 ac3d
000000d0: a435 d43d 1547 4a3d a19c babd aa41 87bc
000000e0: fcb1 d6bc 74bf a33c d5f2 a4bd bee0 e1bc
000000f0: eae0 bc3d 7454 86bd 0f23 c83c 3ee9 993c
00000100: 7fdc 97bc 41b6 c2bc 6021 74be f3e1 b1bc
00000110: d440 903d 1c82 823b 4f3b 1b3d 99f8 18bd
00000120: 9552 87bc 384f eebd a1e5 54be b705 d8ba
00000130: 571e 81bd b5f5 e8bd e31b 0dbc 35ae af3d
00000140: 8ebf 1c3e 45f0 9cbd b42e 5bbd db66 9a3d
00000150: 16c2 313d 8d78 d03d 4db7 cf3d ba78 d63d
00000160: 9e2e cb3d 7f9a 8b3d ff9b 9cbc 9b58 b23d
00000170: 713b a93d 9d61 edbc 10de c7bb a49f 9f3d
00000180: 4a52 15be ed5c 9f3d aad8 7c3a 69b6 ff3d
00000190: 833d a83d 7f3c bd3d 18c3 9f3d 448f 92bd
000001a0: 4475 933d 9aea 04be 87ef abbd f7d2 313d
000001b0: 9489 86bd dc8b ef3d 87bf d13d 6137 463d
000001c0: 7c8e 7f3d 8628 7e3d a491 c93c ddb3 e03d
000001d0: 4496 103e 4205 e83d 0d8c 39bc 28b3 193d
000001e0: ee10 63bd 93a9 463d 607a 6fbc cae0 b53b
000001f0: 2eaf be3d dc44 16bd b7b1 9e3d 26bc 8cbd
00000200: 2342 ca3d 8842 053d e6eb 173c 9625 b4bd
00000210: 9093 03bd 69d9 c43d 22c0 083d 1cd9 903c
00000220: 7aa0 7e3b 5785 623d a7cf f83d b28e 51be
00000230: 288f f83b f474 d03b bd39 57bd 0111 27bd
00000240: 89a8 2f3e c0a1 983c 6e98 293b d37b f23c
00000250: 110a d5bd 7af8 af3d bc8a 0fbd b242 243d
00000260: 6e98 0d3d a9fe 48bd a24b 43bc 495b f93c
00000270: 55ad 183c 150e 13bd 6f42 7b3c 2a1f ebbd
00000280: 8f5d e33d 6a90 dc3d 34ce 043d 4472 0f3e
00000290: b81a 3cbd f7d1 bdbc ca2e febd d8b6 11bd
000002a0: b1bd 093c cf86 31bd 0792 eabc dadb ab3d
000002b0: 79d3 c73c 61b8 893d 77fa b4bc 7036 d9bc
000002c0: ca65 dfb9 20ce 37be 5be3 9f3c 2fa4 073e
000002d0: 8d9e 513c 694f f63c 7a2e 3d3e d088 aabd
000002e0: 58c3 283b 36b2 233d e9a0 afbc af3a 383c
000002f0: 4ec6 4e3d e972 a0bd ea08 563d 96e6 d1bd
00000300: c2d8 753d d49a dabd 9d1b b6bd 72b2 763d
00000310: c3f0 613b af3b a03d db8f 1cbe 7351 11be
00000320: c7a0 a03d 65e0 643d c3a2 c73d 2529 02bd
00000330: f449 0a3e db25 7bbc af30 74bd ca20 5c3b
00000340: 6e01 fcb9 cc5f f6bc 1a2e 193e b92e 02be
00000350: 5aa1 893c 8fda 46bc 5364 dbbc 05b6 08be
00000360: 6cf8 ddbd 20d7 b0bc 0314 423c f6dd 1abc
00000370: 36ab 723d c6e0 0c3e 74bf 393d 2bad b5bc
00000380: 761e 043e b917 0bbe f2b4 c23d 2da4 2cbc
00000390: 0119 b6bc 0cf9 d3bc 4350 103d ca03 743b
000003a0: e885 ed3d 8e60 5ebd 6856 703d 9338 2fbe
000003b0: 3899 86bb 1f0f ae3d ef50 9cbd 5e7f 29bc
000003c0: 0f60 9fbd 7317 643d e8f7 273d fb63 cebc
000003d0: f6fc 68bd 1434 b3bd 9c8d 32bc 0da8 1f3e
000003e0: 9769 17bd 1e89 353e 96f1 4e3d 4138 c63d
000003f0: be7e c8bd 7c8f 7c3c b234 603d 0b75 ee3d
0.024937851 -0.050617274 0.06626934 0.026670935 0.10143531 0.046832263 -0.14388928 0.15170586
-0.02809541 -0.05454565 0.09787576 -0.052751753 -0.10072622 0.008477892 0.090748176 0.026352951
0.037992902 -0.13528101 -0.07001572 0.0005005582 0.12768133 0.002557095 0.16946061 0.0063954173
-0.08026989 0.20837599 -0.039581265 0.119629085 0.08323815 0.11571984 0.14597747 -0.07947665
0.04257833 -0.04109567 0.20264012 -0.07395111 0.025887122 0.08604451 0.0151579175 -0.0690291
-0.07069189 -0.062222484 -0.18783972 -0.025038337 0.0032519335 0.07147246 -0.021313708 0.11590602
0.0637837 -0.046045862 0.086050004 0.08420903 0.10361794 0.049384195 -0.09111906 -0.016510803
-0.026207916 0.019988753 -0.08054129 -0.027572986 0.092225865 -0.06559077 0.02443078 0.018787976
-0.018537758 -0.023768546 -0.23840857 -0.021714186 0.07043615 0.0039827954 0.037898358 -0.037346456
-0.01651887 -0.116362035 -0.20790721 -0.0016481195 -0.06304615 -0.1137499 -0.008612606 0.08578149
0.15307447 -0.07663015 -0.053511336 0.075391494 0.043397985 0.10179243 0.10142384 0.104722455
0.09921001 0.06816577 -0.019117353 0.087083064 0.08263291 -0.02897721 -0.00609947 0.07794121
-0.14582172 0.07781396 0.00096453226 0.12485964 0.082148574 0.09240054 0.07800883 -0.07156232
0.07200101 -0.12980118 -0.083952956 0.043414082 -0.0656921 0.11696598 0.10241609 0.048392657
0.062391743 0.062050365 0.02460558 0.10971806 0.14119822 0.11329128 -0.011324895 0.037524372
-0.055436067 0.048501562 -0.014616579 0.0055504786 0.093107566 -0.036686763 0.0774874 -0.06871824
0.09875896 0.032534152 0.009272551 -0.087962314 -0.03212315 0.0961178 0.033386357 0.01768165
0.0038852976 0.055302944 0.121489815 -0.2046459 0.007585425 0.006361598 -0.052545298 -0.0407877
0.17154135 0.018631816 0.0025878209 0.02960006 -0.10402311 0.08592315 -0.035044417 0.040102668
0.034569196 -0.049070988 -0.011919888 0.030439036 0.009318669 -0.0359021 0.015335663 -0.114805534
0.11101829 0.10769732 0.032423213 0.14008433 -0.04592392 -0.023171408 -0.12411268 -0.035574764
0.008407042 -0.043341454 -0.028634084 0.08391543 0.02439283 0.067246206 -0.022092087 -0.026515216
-0.00042609713 -0.17949724 0.019517591 0.13246225 0.012794149 0.030067163 0.1847476 -0.08326876
0.00257512 0.039964877 -0.021439033 0.01124446 0.050482087 -0.078344174 0.052254595 -0.10249059
0.06002117 -0.10674062 -0.088919856 0.060228772 0.003447578 0.07823884 -0.15289252 -0.14191227
0.07843166 0.05587806 0.09747841 -0.03177752 0.13504773 -0.01532885 -0.05961674 0.003358888
-0.0004806625 -0.030074976 0.14958993 -0.12713136 0.016800571 -0.012137069 -0.026781237 -0.13350685
-0.10838398 -0.021586955 0.0118455915 -0.009452334 0.05924531 0.1375762 0.0453486 -0.0221773
0.12902245 -0.13583268 0.09507169 -0.010537189 -0.02222872 -0.02587559 0.035232794 0.0037233704
0.11597806 -0.0542913 0.058676153 -0.17111425 -0.0041076206 0.08498978 -0.07632624 -0.010345308
-0.077819936 0.055686425 0.041007906 -0.025194159 -0.056881867 -0.087501675 -0.01089802 0.1559145
-0.036965933 0.17728087 0.050523363 0.09678698 -0.09789799 0.015415069 0.054737754 0.11643418

network.6.bias f4 [141]
00000000: 5c38 3f3d ea4e 8ebc 9379 b83c f1fd f0bc
00000010: a7fa 3a3c 715e 643d 4b51 193d e38a fdbc
00000020: 97b6 443d b3f5 df3c 0cd6 cd3d c43c a13d
00000030: 1dc2 46bd 863d e13c 78e8 ad3b ac2b 0bbd
00000040: 5a52 f93d fa9d af3c 22d2 003d 4212 ec3d
00000050: 3510 ba3a ab1a 1b3d b2aa 8f3d f6b8 d93d
00000060: de46 26bd 633f 6e3c 26ca 213d 1412 7bbc
00000070: ba10 92bd 6ca0 fa3d 52a9 cb3d f4bd 8e3d
00000080: 396a e93c 21db fa3d 0427 113d fdfc 093e
00000090: 6b5e 5ebc 6494 543d d80a d33d 324e 333d
000000a0: 7491 933d 9714 863d 48cf 3dbd 6a73 8ebc
000000b0: fc84 8f3c 233e 193d 83cf ca3c 8054 5b3c
000000c0: 0656 0ebd c1f0 9fbb e476 3bbd b694 923d
000000d0: 997e 7e3d 47bc 963c 7e8e a3bc 8508 5f3d
000000e0: fa49 aa3d 6cf4 b73d f5fd 99bd abcd 043e
000000f0: cd34 353b aa92 e7bb 38a6 163d 563d 883d
00000100: 189f e43c 094c a43a 46b6 263d eafb 9f3b
00000110: b540 c43c 4c7c 7c3d 13d1 d03d ab69 2abb
00000120: a002 a5bd 84db 913d 89a9 093c 3f59 563d
00000130: 472a d93d 0be8 383d 3014 993d 471d 043d
00000140: edc9 c63d 070c 273e 6fb4 133e 7ab8 a43d
00000150: 591b d83d d50a 973d 867a f0bc afd7 47bc
00000160: 64eb 033d 4d56 153d 43c0 8b3c 53ee ad3d
00000170: a84e dc3d f1f1 a43c 038c fb3d 948a 733c
00000180: fd7b 573c 447e 8b3c a7ec ff3c 0eb2 b93d
00000190: 9030 193d 1706 423d 3063 503d 292f a53d
000001a0: b523 8f3d 7e9f f53d 05c2 9b3b 1e27 3d3d
000001b0: d4c6 02bd 050e eb3c c978 a93d 2a45 1a3d
000001c0: 396e f43b 7c1c 16ba c741 863b 16be 623d
000001d0: c60f 823d 2b1b 2f3d 84fe dd3c 5359 133d
000001e0: 03fb 913d c8a7 ad3d 001f fa3d 70db 123d
000001f0: 48e3 f43d 752e dd3d 8de1 98bd 93f3 e33d
00000200: 358d 013d 082b 7f3c c8f9 6a3d 6359 ca3c
00000210: 8b0a 28bd 29d2 313d aabb 063e 7684 d73d
00000220: 4386 30bd bbfa 64bd b1c7 2ebb 5594 713d
00000230: 5daf 063d
0.046684608 -0.017371614 0.022518909 -0.029417964 0.011412299 0.05575413 0.037431043 -0.030950015
0.048025694 0.027338838 0.10050592 0.07872918 -0.048524965 0.027495157 0.0053072535 -0.033977196
0.121739104 0.021437634 0.0314504 0.1152692 0.0014195504 0.03786723 0.070149794 0.106309816
-0.040594928 0.01454148 0.039499424 -0.015324134 -0.071320966 0.12237629 0.09944405 0.069698244
0.028493034 0.12248827 0.0354376 0.13475414 -0.013572316 0.05189933 0.10304803 0.043775745
0.07205477 0.06546896 -0.046340257 -0.017389018 0.017519467 0.037412774 0.024757152 0.013386846
-0.034750007 -0.004880995 -0.04576768 0.071572706 0.06213245 0.018400325 -0.019965407 0.054451484
0.08314891 0.08982167 -0.075191416 0.12969081 0.002764988 -0.0070670443 0.036779612 0.06652324
0.027907893 0.0012534867 0.040701173 0.0048823254 0.023956636 0.061641976 0.10196128 -0.0026002924
-0.08057141 0.071219474 0.008402237 0.052331205 0.10603767 0.04514317 0.074745536 0.032254484
0.09706483 0.16313182 0.14424299 0.080429986 0.10552091 0.07375113 -0.029355299 -0.012197419
0.032206908 0.036459256 0.017059451 0.08492722 0.1075719 0.020134898 0.122825645 0.014864583
0.01315212 0.017027982 0.031240774 0.09067164 0.03739983 0.04736909 0.050875843 0.08065636
0.069892325 0.11993311 0.0047533535 0.046179883 -0.0319279 0.028693208 0.08274991 0.037663616
0.0074594286 -0.00057262904 0.0040971967 0.05535706 0.06350665 0.04275052 0.027098902 0.035973858
0.07127955 0.08479267 0.12212944 0.035853803 0.11957413 0.107998766 -0.074648954 0.111304425
0.031628806 0.015574224 0.057367116 0.024700826 -0.04102568 0.043413315 0.13157526 0.10523312
-0.043096792 -0.055903178 -0.0026669318 0.05897935 0.032882083

network.9.weight f4 [21, 141]
00000000: c3bc 063e 1e35 e73d 9372 a0be 89b5 febd
00000010: ac9a d43d 7f34 943d 77bb f03d 3cd8 0b3e
00000020: b526 21be 87d5 c83d ea58 a6bc af16 413c
00000030: f97d 0bbe d650 443c 9c74 26be f586 213d
00000040: bd5d c9bd f3cc b53c 3ba8 513e f69b 573d
00000050: 8c67 96be d7c9 1cbe a1ad dabd 2b73 e63d
00000060: 87ae 2ebe d31f 35be 8a4f 35be c8a1 0d3e
00000070: ddee 113e fb0a 823c 32a0 4b3c 7957 50bd
00000080: deef a1bd 662d debc 8332 6abd 214b 983d
00000090: 674b a4be e15f 843d 0d3e cf3d 9dc7 053d
000000a0: bfca 9ebd bc25 b2bd f700 eb3d b689 40be
000000b0: dbb5 91be 4a47 9c3d ccc0 553d 6c4b a13d
000000c0: 8aeb 9fbe c835 a2be 7a82 12be 974a b9be
000000d0: 45a7 b0bd 5323 ef3d dc53 6dbe a9eb dcbd
000000e0: 457f fdbc 4849 d4ba 7646 9cbe fe88 c53d
000000f0: 644e e7bd 0753 973d 6404 06be 3cf4 ce3b
00000100: 3de8 ea3d 85bb c83d bae8 50be fb8e 40be
00000110: e39d 013d 2778 9fbe 9dd6 e43d d5e1 5abe
00000120: eff8 78be 3e1c 18be 8b61 b73d bf47 81be
00000130: c6b9 56be cb68 163e 9fc9 8a3d 4321 a93d
00000140: a8bc ba3d 364a 113d f2ac 853d ec1c 9b3c
00000150: ffc6 8cbc 9b27 e93d 8e38 81be 5f54 fd3a
00000160: 3f18 5bbe 539f 883e c4c8 ab3d 36ef babc
00000170: 61f8 d33d 0ed1 003e 4eb6 3fbe 2c2c 79be
00000180: aebe 0b3d 192d 113e f080 c53d a37b 893d
00000190: 8ca3 70be f04b f5bd cbe0 51bd f55e 8f3d
000001a0: 2391 0d3e d865 653d 0a3e b93d 95b2 a4be
000001b0: 7e3d b33b 2eb2 bbbd b8aa a53d c10e 8a3d
000001c0: 9bc6 36be 9d82 7fbe c208 923d 89a9 51be
000001d0: 4865 9fbe 4076 933d 6b24 793c af5b 8abe
000001e0: 80c0 a93d dfd6 0d3e 7da4 0d3e e483 e33d
000001f0: c151 e03d 8b4b 2bbe daa3 74be dc6a 6abe
00000200: 835b 0b3b 01cc 833d 6c5e 8bbe 36b3 b1be
00000210: f1bb 773d 49fa f43c d4ac 1b3d 2a6e e63d
00000220: 2451 fcbd 0a1b dd3a 3d70 ae3d e161 8b3d
00000230: 0b6f a43c f9ad a0be b719 d33d 6def 53be
00000240: c56c 24be b991 57be c3ac 50be 9ffa e03d
00000250: e778 7abe bb78 843d 9313 a93d a1bd 8f3d
00000260: 513a 003e b09a b1bd b483 80bd d644 393d
00000270: a003 82bd f374 013e 8a47 1d3d 3f27 ab3d
00000280: 3d6a 9e3d af3a bb3d d2f9 e1bd 8519 ad3d
00000290: fc3e 8fbe 218a 74be 21f9 81be 2f11 a3bb
000002a0: 5df1 88be 2960 8ebe e5a3 d53d 7963 9fbd
000002b0: 868f 1e3e bf9d 8a3d 076e ed3c a972 a43d
000002c0: dddc bc3d 45d7 dc3c 3b7c c33d 19b9 bb3d
000002d0: 3e2c 9d3d 38d3 233e 4ef3 1c3d 9f36 5ebe
000002e0: 0aef 7bbe 0843 d73d 82a2 c53d 9e0a b53d
000002f0: 7829 fbbb 2729 d4be 7dfe 83bd 03e8 22be
00000300: 71f7 583d ac97 66bd 2549 a1be 1dcf 59be
00000310: 119c c83d 4c45 b83b 04dd 6e3d 6de0 45be
00000320: b985 7f3d 17bc 21be 7498 4bbe 0f84 6ebe
00000330: 0661 94bd dee6 d5bd 2c73 a23d cd80 30be
00000340: 52b3 21be 8f9d 41be 7059 d3bd 4948 983d
00000350: e987 ff3d 507b 99be bdef c83d abce 32be
00000360: 030f 08bd c01d 35be b3a4 8abc 6adc 61bd
00000370: 6f56 95be 2af0 bebd eb2c b53d dd8e 0c3e
00000380: 344f 8f3d a3f3 b03d 42b2 023e 9a90 f73d
00000390: bde3 b4be 6335 fcbc 4688 53be afd1 0a3e
000003a0: decf 023e abb6 713d 4e77 11be 03c5 893c
000003b0: bcec 71bd c6eb 71be 87af 0ebe 64f5 c43d
000003c0: 22f3 3dbc a0cb 2e3e 80da 5ebe 8838 87bd
000003d0: fadb ba3d b6f2 88bd b1bf bd3d 9309 a4bd
000003e0: 3677 49be bd4d 96bd b578 98be a702 cc3b
000003f0: 5c5d 0ebd 632d c23d c845 d63d 1b9a cc3d
0.13157944 0.11289428 -0.31337413 -0.12436969 0.10381064 0.07236575 0.11754506 0.13656706
-0.15737422 0.09806352 -0.02030607 0.011785193 -0.13622274 0.011982163 -0.1625542 0.039435346
-0.09832332 0.022192454 0.20474331 0.05263897 -0.29375875 -0.15311371 -0.10677648 0.11252435
-0.17058764 -0.17687921 -0.17706123 0.13831246 0.14251275 0.015874377 0.01242833 -0.05086467
-0.07907079 -0.027121257 -0.057177078 0.07436205 -0.32088777 0.064636 0.10119257 0.03266107
-0.077535145 -0.086986035 0.114747934 -0.18802533 -0.28459057 0.07630785 0.05218582 0.07875714
-0.3123439 -0.31681657 -0.14307585 -0.3618972 -0.08625654 0.116766594 -0.23176521 -0.10787136
-0.030944476 -0.0016196156 -0.30522507 0.0964527 -0.11294249 0.07388883 -0.13087612 0.006315736
0.11470077 0.098013915 -0.20401278 -0.18804543 0.031644713 -0.31146356 0.11173747 -0.2137521
-0.2431371 -0.14854524 0.08954152 -0.2525005 -0.20969304 0.14688413 0.067767374 0.08258297
0.091180146 0.035471164 0.06527127 0.01893469 -0.017184732 0.11384507 -0.2523846 0.0019327513
-0.21395968 0.26684055 0.083879024 -0.022819143 0.10350109 0.12579748 -0.18721887 -0.24333256
0.034117393 0.1417736 0.096437335 0.06713035 -0.23499888 -0.119773746 -0.05123977 0.070005335
0.13824897 0.05600533 0.09045036 -0.32167497 0.005469977 -0.091648445 0.08089203 0.06741095
-0.178492 -0.24952169 0.07130577 -0.20474829 -0.3113196 0.07200289 0.015206437 -0.27023074
0.082886696 0.13851498 0.13832279 0.111091405 0.10953093 -0.16728036 -0.2389063 -0.22892326
0.0021264262 0.06435395 -0.27220476 -0.3470704 0.06048197 0.029904502 0.03800662 0.11251481
-0.12320164 0.001686902 0.085175015 0.06805778 0.02007248 -0.3138273 0.10307639 -0.20696802
-0.16057117 -0.21051683 -0.20378403 0.10985302 -0.24460183 0.0646834 0.082556866 0.07018591
0.12522246 -0.086720824 -0.062751204 0.045231663 -0.06348348 0.12642269 0.038398303 0.08357095
0.07735107 0.091420524 -0.110339776 0.08452133 -0.2797774 -0.23880817 -0.25385383 -0.0049764137
-0.26746646 -0.2780774 0.10431651 -0.07782645 0.15484437 0.06768369 0.02898313 0.08029682
0.09221814 0.026958117 0.095451795 0.09166164 0.07674454 0.15998542 0.03831797 -0.21700524
-0.24602905 0.10510832 0.096501365 0.08839916 -0.0076648556 -0.41437647 -0.06445024 -0.15908818
0.052970354 -0.05629699 -0.31501117 -0.21270414 0.09795392 0.005623495 0.058316246 -0.19323893
0.062383387 -0.15794407 -0.19882375 -0.23292564 -0.07245068 -0.10444425 0.079321235 -0.17236634
-0.15791062 -0.1890776 -0.10319793 0.07435662 0.12477095 -0.29976892 0.098113514 -0.1746165
-0.03321744 -0.1768713 -0.016924238 -0.055141844 -0.29167506 -0.093231514 0.08846458 0.13726373
0.06997529 0.0864022 0.12763312 0.120881274 -0.3533 -0.030787176 -0.20657453 0.1355655
0.12774608 0.059012096 -0.14205667 0.016817575 -0.059063658 -0.23625097 -0.13934146 0.09617117
-0.011593612 0.17069864 -0.21763039 -0.06602579 0.091239884 -0.066869184 0.09265078 -0.08009639
-0.19674382 -0.07339046 -0.29779592 0.006225902 -0.034757003 0.09481313 0.104625285 0.09990331

network.9.bias f4 [21]
00000000: 5457 753b b527 4d3d f75a 793d d83c 203d
00000010: e3bc 243d dd42 30bd 2a32 5c3d f8dd cebd
00000020: 51c6 f9bd 6892 e43d 75ec ac3d 5439 7e3d
00000030: 6a00 aabd d29d b23d 5406 043d 7a0e 45bd
00000040: e273 57bd 83fb 74bd 65be f7bd 3449 26bd
00000050: 5582 cebd
0.0037436085 0.050086696 0.060877766 0.039120525 0.0402192 -0.043032516 0.053758778 -0.10100931
-0.12196029 0.11160737 0.08443538 0.06206639 -0.0830086 0.08721508 0.032232597 -0.04810951
-0.05260075 -0.059810173 -0.12096862 -0.040597156 -0.100834526
