models/NeuralNetwork-2_acc-56.95_loss-0.000002.pth (torch, 802127 bytes, 8 tensors)

network.0.weight f4 [512, 63]
000000 4c 30 22 bd 4b 1c e7 3d 16 f7 41 3d 64 ab ce 3c
       -0.03959684 0.11284693 0.04735478 0.02522821
000010 7d 76 f5 3d e9 06 07 3d 2f fc 16 bd db 18 d9 bc
       0.119854905 0.032965574 -0.036861595 -0.02650111
000020 70 b4 97 bd 09 7f 08 3e 85 b6 f8 bc 8b 85 46 3c
       -0.074074626 0.1332971 -0.03036047 0.0121168
000030 33 f7 3a bd ac 2e b4 3b de 30 24 3e 59 8e 31 3c
       -0.045645904 0.005498728 0.16034266 0.010837161
000040 8a 60 f7 3d b3 93 7a 3d 2e 32 dd 3d d2 9f 37 3e
       0.1207896 0.061176013 0.10800587 0.1793206
000050 e5 00 48 3e 48 97 02 be 77 da 74 3d 09 01 ab 3c
       0.19531591 -0.12753022 0.059778657 0.020874517
000060 35 13 c0 3d 53 61 8e bd eb f6 41 bd 3d fd aa bd
       0.093786635 -0.06952157 -0.04735462 -0.083490826
000070 57 56 91 3d 72 5d e1 bd 7a 9f 35 bd 48 30 fe 3c
       0.07096546 -0.110041514 -0.04434154 0.031028882
000080 98 f3 05 3d f4 a1 15 3e 9d f5 dd 3c 24 e8 e7 bb
       0.032703012 0.14612561 0.027094657 -0.007077234
000090 c1 9d 44 3d ed 78 02 3d 7e b4 05 3d 4e 1f a9 bc
       0.04800201 0.031853605 0.032642834 -0.02064481
0000a0 5a c6 53 3e aa 03 ab 3d b7 1c 6e 3d 42 a3 f3 3d
       0.20681134 0.08350308 0.058132853 0.11896373
0000b0 58 ee 40 3d ee e6 cf bc cc 01 73 3e 6a ee 20 3e
       0.047102302 -0.02537867 0.23731154 0.15715948
0000c0 f9 33 85 3d 86 28 0a 3e 28 ec 8d bd 10 ee 22 3e
       0.065040536 0.13492021 -0.06929809 0.15911126
0000d0 b8 70 88 bd d2 77 3b 3d 0f 0a 34 3e 3a b1 94 3d
       -0.066621244 0.045768566 0.17581962 0.07260366
0000e0 fe eb 41 3c 99 fb c0 3c c6 99 7d bd 52 fa 58 bd
       0.01183605 0.023557471 -0.061914228 -0.0529731
0000f0 35 78 06 be 3b ce b8 bd a6 d4 b4 3b 5a 9a af 3c
       -0.13131793 -0.0902371 0.0055185137 0.021435905
000100 ae e8 a8 bb 8b 2b 15 bd 30 4a a8 bd cf 55 6c 3d
       -0.0051546907 -0.03641848 -0.08217275 0.05769902
000110 f8 97 e0 bc 76 cb eb 3c 0f ba 9d bd df 02 c8 3c
       -0.027416214 0.028783541 -0.077015035 0.024415432
000120 69 0a 0e 3e 7f d3 5f bd cd 38 15 3d ef f9 4c 3c
       0.13871159 -0.054645058 0.036431123 0.012510761
000130 ed 5f 16 be 6d ff 47 bd af 4d c1 3d 78 ef 75 be
       -0.1468503 -0.048827577 0.09438645 -0.24017131
000140 2c 0b fb 3c 1c 22 2f 3d 7b 63 c0 3c 9e 36 06 be
       0.030644976 0.04275714 0.023484936 -0.13106772
000150 7f 02 83 bd 39 a8 1c 3d c6 72 0f 3d ce fc 28 3e
       -0.063969605 0.038246367 0.035021566 0.16502687
000160 f9 88 b1 3d 08 44 20 be 38 20 72 3d 46 95 14 3c
       0.086687036 -0.15650952 0.059112757 0.009068793
000170 83 e5 18 3e f0 66 a0 bd ba 8b 1e be 28 f7 f8 bd
       0.14931302 -0.07832134 -0.15482989 -0.12156516
000180 ad d8 e5 bd 0c 41 4f 3d 16 2d 89 3d 4f 05 d3 bd
       -0.11222968 0.050599143 0.066980526 -0.10303747
000190 bd c8 d8 3d 95 b9 ae 3d 99 3e 01 3e 5a 8d 45 be
       0.10585163 0.08531491 0.12621535 -0.19292203
0001a0 e8 c3 01 be f4 2a 36 be 21 da 12 bd 32 2f 45 3e
       -0.12672389 -0.17789823 -0.035852555 0.19256285
0001b0 51 10 09 3e d9 a1 b0 bc 30 ee 61 3d e8 73 9f bd
       0.1338513 -0.02156155 0.055158794 -0.07785779
0001c0 c8 64 24 3b 2e dc 46 bd f4 78 9c 3c 6b 93 70 ba
       0.0025084484 -0.048549823 0.019100644 -0.00091772404
0001d0 f4 03 67 3e e4 05 13 3c 1f 4c 5a be 2d f9 e2 3c
       0.22560102 0.008973572 -0.213181 0.027706707
0001e0 d0 ce ab bd f3 88 6c 3c 2b b6 26 3e c9 b5 98 bd
       -0.08389056 0.014436948 0.16280429 -0.07456548
0001f0 78 4d e2 bb fe 01 a0 bd eb 61 6c bd 98 e5 2a bc
       -0.0069062077 -0.0781288 -0.05771057 -0.010430716
000200 bb 7f 27 3d 10 22 6c bd 4e f5 79 3d 39 a5 52 be
       0.040893298 -0.057649672 0.061024956 -0.2057084
000210 78 96 63 ba df 3e 95 3c ac 3d 45 3e ae 84 a6 bd
       -0.00086817844 0.018218456 0.19261807 -0.081307754
000220 26 09 bf 3c af c4 12 be c5 72 a8 3d a7 e8 1a 3c
       0.023319792 -0.14332841 0.082250156 0.009454883
000230 08 82 5c 3d 59 2d 6c bb cf 5f 3b be ed e0 9f 3d
       0.053834945 -0.0036037771 -0.18298267 0.07806573
000240 55 db 90 bd 9e 97 dd bc 0b 00 4e 3d df 80 38 3c
       -0.07073084 -0.027049836 0.05029301 0.011261194
000250 ff d0 67 3d 45 46 02 3e 3c 41 c2 bb 7c 73 84 3d
       0.0565958 0.12722118 -0.0059281867 0.064673394
000260 93 50 0c 3c 02 63 01 be 86 9c 18 3d 98 22 0e bd
       0.008564132 -0.12635425 0.037258647 -0.03470096
000270 d4 e8 3b 3d b7 7b 18 3e da 33 03 bd 2b d0 24 bd
       0.04587634 0.14890943 -0.03203187 -0.040237587
000280 4a 51 96 3d e3 38 14 3e 42 b0 c5 3d 2d 39 a7 bd
       0.073397234 0.14474826 0.09652759 -0.08165202
000290 91 2f 99 3d e1 23 7f ba cf f7 73 3d 41 b4 fc 3c
       0.07479776 -0.00097328244 0.0595625 0.03084767
0002a0 a8 af 2b 3d 46 2a 80 3d 79 30 24 bd 2e d7 3d 3e
       0.041915566 0.06258063 -0.04008529 0.18539116
0002b0 ce d4 83 3b bb 42 f8 3c 2a ec ba 3d fe 1b 26 be
       0.004023171 0.030305257 0.09127076 -0.16221616
0002c0 cf c3 92 bc 87 85 0c 3c 80 d7 00 be 8e 02 f9 bd
       -0.017915634 0.008576757 -0.12582207 -0.121586904
0002d0 96 b7 18 be 62 c1 e7 3d 5b e6 96 3d 48 d0 2d 3d
       -0.14913782 0.11316182 0.073681556 0.04243496
0002e0 5b 68 26 bd f2 e4 1e bd 1c db df 3d 59 ec 08 3b
       -0.040626865 -0.038792558 0.10930464 0.0020892827
0002f0 6e ef 1e bd 6e c0 d7 3c 2e 2c 87 bc 57 f7 37 3d
       -0.038802557 0.026336875 -0.016500559 0.044913616
000300 60 60 f0 3c b9 00 fb bc ea ad d8 3d 63 32 2a bd
       0.02934283 -0.030639993 0.105800465 -0.04155196
000310 21 e7 81 bd 18 11 74 3c 63 a4 f6 3c df 92 45 3d
       -0.063429125 0.014896654 0.030107683 0.04823577
000320 9b cb 3d 3e 3d 20 38 bd 93 89 53 3d 58 2f be 3c
       0.185347 -0.04495262 0.051644873 0.023215935
000330 cf 8f 80 3b fd 2d bc 3b 75 aa 68 bc 17 7f af 3d
       0.0039233933 0.005742787 -0.014200796 0.08569162
000340 0b d2 7f 3d 8e 7a 12 be af 5e 77 3d 6a 7b d2 3d
       0.062456172 -0.14304563 0.06039303 0.102774456
000350 6f 24 29 be 6e 84 e4 bc b1 15 f6 3d 22 b2 13 3c
       -0.16517805 -0.027895179 0.12015856 0.009014638
000360 83 43 36 bd ba 83 0f bd e8 a4 99 3c 99 c2 1d bd
       -0.044497978 -0.035037734 0.018755391 -0.03851566
000370 19 bc 04 be 36 99 3a bc f0 84 89 3c c0 99 fe 3d
       -0.12962379 -0.011389067 0.016787022 0.12431669
000380 71 b8 17 be 32 ce d6 ba 13 69 b3 bd 63 05 bf bd
       -0.14816453 -0.0016388355 -0.08760276 -0.09327199
000390 0a 23 08 be 91 9d 12 bd 04 09 98 bd 4e 19 96 bd
       -0.13294616 -0.0357948 -0.074235946 -0.07329045
0003a0 bb 97 55 3e 7d 43 35 3e aa f5 dd bd f4 17 8f 3d
       0.20858662 0.17701526 -0.10837872 0.069869906
0003b0 0d ea 46 3e ba c3 19 3e 15 63 24 be 9d aa 4b bd
       0.19425221 0.1501607 -0.16053422 -0.049723256
0003c0 5b 30 b4 3d 71 0b 64 be be 34 eb 3d 0d 11 cd 3c
       0.087982856 -0.2226999 0.11484669 0.025032545
0003d0 f2 22 9a bd d3 41 1e 3e a1 11 71 3d 6b d7 67 bc
       -0.075261965 0.15454797 0.058854703 -0.014150481
0003e0 db 00 2d 3e 55 a9 37 be 63 1f 49 bd 0d de 03 3e
       0.16894858 -0.17935689 -0.0491022 0.12877674
0003f0 4a c2 be 3c 9d 2e 2f 3d ee 36 2b bd 1a 29 36 be
       0.023286004 0.042769063 -0.041800432 -0.17789117

network.0.bias f4 [512]
000000 f1 fd 28 bd 7c e2 90 bd 22 10 c4 be c8 2e fe bd
       -0.041257802 -0.070744485 -0.38293558 -0.124112666
000010 a6 4c a3 be 1b 7f f6 bd 17 3b 51 be 2f 0e 80 be
       -0.31894416 -0.12035962 -0.20432697 -0.2501082
000020 1e 9d 12 be 42 76 45 be 2e 2e 6f be 83 ca 31 be
       -0.14317748 -0.19283393 -0.2335746 -0.17362408
000030 44 d1 22 be a5 2f 89 be 6f 39 9c bc 53 a1 1c be
       -0.15900141 -0.26794162 -0.019070355 -0.15295915
000040 2e 7b 38 be e2 73 44 be f4 32 29 be 44 5f 29 be
       -0.1801574 -0.19184831 -0.16523343 -0.16540247
000050 b3 51 c7 bd 91 6b 62 be c2 6c e3 bd 5e be 10 bd
       -0.0973238 -0.22111346 -0.11104728 -0.0353378
000060 98 ee 38 be f5 b8 24 be c3 c7 58 bd 55 07 65 bc
       -0.18059766 -0.1608618 -0.052924883 -0.013978799
000070 8b f3 82 be df fc 67 3c 95 a4 b7 bd da 6d 48 be
       -0.25576434 0.01415941 -0.089669384 -0.19573155
000080 a6 ec 18 be d9 18 5b be 8b 60 56 be 1e e3 9e bd
       -0.14934024 -0.21396197 -0.20935266 -0.07758163
000090 e3 98 60 be 87 3a 8e be ef 97 92 be 53 76 a4 bd
       -0.21933322 -0.27779028 -0.2863154 -0.08030381
0000a0 91 38 d1 bd 8b 30 87 be 92 e6 9b be 76 a4 5b be
       -0.10215867 -0.26404223 -0.3044935 -0.21449456
0000b0 8d 1a 30 be ed 47 22 be a5 09 8e be 52 bc 36 be
       -0.17197628 -0.1584775 -0.27741733 -0.17845276
0000c0 aa b3 ac be cd 72 5e be b7 d2 82 be 68 6f 60 be
       -0.33730823 -0.2172348 -0.25551388 -0.21917498
0000d0 ea 51 80 be 54 6f ec bd bc 59 0e be df d1 b1 bd
       -0.25062495 -0.11544672 -0.13901418 -0.08682608
0000e0 30 89 2b be d4 66 63 bd 33 58 e3 bd 8c c0 5f bd
       -0.16751552 -0.055517986 -0.11100807 -0.054626986
0000f0 25 8d 9c be 7b 03 c8 bd 87 76 15 be 1f c2 7d be
       -0.30576435 -0.09766289 -0.14595996 -0.24781083
000100 7f dd 95 bd a0 fd 23 be 4b 05 15 be b6 2d a4 be
       -0.07317638 -0.16014719 -0.145528 -0.32066125
000110 58 79 a0 bc a6 af 18 be 7c 35 80 bb d3 d1 28 be
       -0.019589111 -0.14910755 -0.003912626 -0.16486292
000120 40 06 9d be 02 a9 20 be 55 0f 9a be 08 f9 51 be
       -0.3066883 -0.15689471 -0.30089822 -0.20505154
000130 5e d5 36 be 21 a5 4f be dc e2 a3 be f0 d6 14 be
       -0.1785483 -0.20277835 -0.32009017 -0.14535117
000140 5d 56 e5 bd e1 0d 81 be e8 c3 41 be 33 09 5a be
       -0.11198113 -0.252059 -0.18922389 -0.21292572
000150 29 19 08 be 11 5a 88 be 1d c1 24 be 97 a0 46 be
       -0.13290848 -0.26631215 -0.16089292 -0.19397198
000160 92 4b 31 be b7 7a 61 be 43 83 ed bd 11 6c 2d bd
       -0.17313984 -0.22019468 -0.11597302 -0.04233939
000170 9b 93 fe bd d7 e7 88 be 94 2f 62 be 6e ad 31 be
       -0.12430497 -0.2673938 -0.22088462 -0.17351314
000180 7e 0d ae bd f3 ff 36 be b1 bc 8e be 86 ad d6 bd
       -0.08498667 -0.17871074 -0.27878335 -0.10482316
000190 24 50 25 be fc 0b 12 be 8b b9 34 be d8 b5 bb be
       -0.16143852 -0.14262384 -0.17648904 -0.36662173
0001a0 f8 9a 8f be 16 d5 00 be 33 e3 5a bd a8 38 89 be
       -0.2804792 -0.12581286 -0.05343933 -0.26801038
0001b0 06 50 09 be 1d b4 8a be e6 c2 35 be 34 94 e5 bd
       -0.13409433 -0.2709054 -0.17750129 -0.11209908
0001c0 1e 14 3e be bd eb 08 be 22 49 b4 be 15 25 11 be
       -0.18562362 -0.13371177 -0.35212046 -0.14174302
0001d0 48 cf ec 3c c3 3f 99 be a6 e7 d0 bd 61 08 ae be
       0.028907433 -0.2993146 -0.102004334 -0.33990768
0001e0 37 26 99 be 4e c5 f9 bd a2 b9 9c be 19 a4 c5 be
       -0.29911968 -0.12195836 -0.30610377 -0.3860176
0001f0 b9 3d 8c bd 02 ed 82 be 31 7c 9c be b6 78 c4 bd
       -0.0684771 -0.25571448 -0.305635 -0.09593336
000200 9a cf 82 be 73 ce c0 be b5 1c 13 be 74 1f 7e be
       -0.25549012 -0.37657508 -0.1436642 -0.24816686
000210 ed 03 79 be 9d 3b 70 be de ff 0a be c3 15 85 be
       -0.24317904 -0.2346024 -0.13574168 -0.25993165
000220 e1 4e 13 be c0 73 82 bc 87 67 30 be 3d 43 64 be
       -0.14385559 -0.015924335 -0.17226993 -0.22291274
000230 fe 80 55 be ec 70 e0 bd 7d e9 16 be 0e 15 50 bd
       -0.20849988 -0.10959038 -0.14737506 -0.05080133
000240 5a 15 86 be 6b 15 20 be ca 07 48 be 69 87 fa bd
       -0.26188165 -0.1563317 -0.19534221 -0.12232859
000250 bd 37 2d be c4 ec c7 bd 6f e8 73 be d3 39 fb bd
       -0.16915794 -0.09761956 -0.23819135 -0.122668885
000260 55 5f 2b be 2c dc 4f bd 7f 50 b5 be f8 4b 44 be
       -0.16735585 -0.05074708 -0.35412976 -0.19169605
000270 63 db 9e be 61 48 73 be 43 46 72 be c9 7a 8f be
       -0.31026754 -0.23758079 -0.23659615 -0.28023365
000280 c7 27 7a be aa 1b a6 be 79 9f 4f bd 90 11 8d 3c
       -0.24429236 -0.3244298 -0.050689194 0.017220289
000290 60 2a 87 bd 9a fd 41 bc 7b ee 3b be 32 e1 68 be
       -0.06599879 -0.0118402485 -0.18352692 -0.22742155
0002a0 56 e9 9f bd 6d 59 7b be 38 c7 a3 bd de 01 1a be
       -0.07808177 -0.24545832 -0.07996982 -0.15039775
0002b0 57 69 f2 bb 27 27 a3 bc 53 b8 02 be d2 10 9a bd
       -0.0073978114 -0.01991613 -0.12765627 -0.075227395
0002c0 88 a6 f1 bd 63 0b 9e bd b0 5c 19 be cf ac 8c be
       -0.117993414 -0.077170156 -0.14976764 -0.27475592
0002d0 e5 bd 85 be 83 93 01 bd b9 2e d8 39 76 5d 4c be
       -0.2612144 -0.03163482 0.00041233542 -0.19957528
0002e0 16 c5 32 be b9 33 58 be 11 85 a7 bd 3e 8d 41 be
       -0.17457995 -0.2111348 -0.08179677 -0.18901536
0002f0 8c f7 cf bd a8 4c 61 be b8 45 23 be 73 4d 4c be
       -0.10154638 -0.22001898 -0.15944564 -0.1995142
000300 ea fb 68 be ae 1d d5 bd 54 5f b3 bd 54 3e fc bd
       -0.22752348 -0.104060516 -0.08758417 -0.12316576
000310 a9 28 8d be 93 bd 4a be 80 a1 9d be ba 85 d7 bd
       -0.27570084 -0.1979888 -0.30787277 -0.10523553
000320 0e c8 f7 bd 07 bd 9d bd 2d 41 9b bd e4 6f 94 be
       -0.12098704 -0.0770207 -0.07580791 -0.28991616
000330 7a d1 67 be df cf 07 be ea 79 3f be 7a 03 3a be
       -0.22638503 -0.1326289 -0.1869885 -0.18165389
000340 58 62 6a be df 52 23 be 95 a2 31 be 83 4a 07 be
       -0.22889078 -0.15949582 -0.17347176 -0.13212018
000350 15 87 7c be 01 e3 92 be 9e c9 c7 bd f7 0b 88 be
       -0.24660905 -0.28688815 -0.09755252 -0.26571628
000360 a3 84 41 bd 28 37 12 3c eb 7a 17 be ae f3 1f be
       -0.047245633 0.008924283 -0.14792983 -0.156203
000370 a1 3c ce ba f9 a4 1d be 90 7f ba be 15 ab 94 be
       -0.0015734622 -0.15394963 -0.36425447 -0.29036775
000380 78 d7 2d 3d 69 3f 98 be 66 0a 7e be b0 34 8b be
       0.042441815 -0.29735878 -0.24808654 -0.27188635
000390 af d7 a7 be 5f cf 65 be 0f 7d a9 be 0b 79 49 be
       -0.3278174 -0.22442387 -0.33103225 -0.1967508
0003a0 9a d1 61 be 1a 62 5b be fa 9d 89 be 35 1d 23 be
       -0.22052613 -0.21424142 -0.2687834 -0.1592911
0003b0 2e 2f 6c be b8 bf 58 3c 6d d7 60 be f5 a0 ec bd
       -0.23064873 0.013229303 -0.21957178 -0.115541376
0003c0 25 bb ea bd 82 22 1e be 45 f0 1c be 1a 8b b5 bd
       -0.11461476 -0.15442851 -0.1532603 -0.08864422
0003d0 d0 de 43 be db 47 2d bd 34 af 1a bd 81 0f 04 be
       -0.19127965 -0.042304855 -0.037764743 -0.1289654
0003e0 fe 0b b4 bd f0 83 45 be f1 7d 5e be 2c 3f 45 be
       -0.0879135 -0.19288611 -0.2172773 -0.1926238
0003f0 3d 69 58 be cb 03 2a bd 27 f6 23 be dc 01 37 be
       -0.21133895 -0.041507524 -0.16011868 -0.17871803

network.3.weight f4 [256, 512]
000000 b7 28 b6 3c a4 33 89 bd 24 37 e9 3c ac a9 4e 3d
       0.022236211 -0.06699303 0.028468676 0.05045478
000010 35 a9 ab bd 67 5f 36 3d 79 a7 e9 bc e4 11 04 3c
       -0.08381883 0.044524577 -0.02852224 0.008060906
000020 19 d1 0a bd 46 2e 86 bd 80 30 4e 3c 54 94 23 3c
       -0.033890817 -0.06551795 0.0125848055 0.009984095
000030 9b 6d 92 3c 40 a3 42 3c 21 d1 70 3d b7 43 a3 3b
       0.01787453 0.011879742 0.05879319 0.0049824375
000040 4a 0f 39 3d ab da 36 3b 3c c1 9d 3b d2 a8 ad bc
       0.045180596 0.0027901332 0.004814295 -0.021198664
000050 7c fe 18 3d fe e1 aa 3c c1 5f 09 3d 59 c2 9c 3c
       0.03735207 0.020859715 0.033538584 0.019135641
000060 75 4b c5 bd d4 87 38 3c f3 5a fb bb 76 be 3c 3c
       -0.09633533 0.011262853 -0.007670754 0.011520019
000070 a6 45 f2 3c d5 8a 74 3d f7 42 10 bc 86 db 8b bb
       0.029574227 0.059702713 -0.008805028 -0.0042681126
000080 61 0f a3 3d f3 86 99 3d 65 c9 b2 bd 4d 24 48 3d
       0.07961918 0.07496443 -0.08729819 0.048862744
000090 80 85 63 3c ca f2 c4 bd f2 68 b1 3d 5e 45 da 3b
       0.013886809 -0.09616621 0.08662595 0.0066611012
0000a0 84 39 f4 bc 87 13 1f 3d 37 b6 f2 3c 0e 94 db 3b
       -0.029812582 0.038836982 0.029627902 0.006700999
0000b0 d2 c2 34 bd 55 d7 4f bc a6 87 e4 bd 84 7e 68 3b
       -0.044131108 -0.0126856165 -0.111586854 0.00354758
0000c0 ae 15 95 3c 38 40 6c 3d 05 f4 8c 3d 07 42 81 3d
       0.018198814 0.05767843 0.068824805 0.06311422
0000d0 d6 e2 44 bd 85 67 a1 bc f1 d3 7d bd 10 cc 93 bc
       -0.04806789 -0.019702682 -0.0619697 -0.01804164
0000e0 35 99 b7 3d c7 7a 7a 3d 86 4e 0a 3d 06 12 1a 3d
       0.08964769 0.061152246 0.033766292 0.037614845
0000f0 77 39 02 3d 23 33 3f 3d 99 13 00 bd 95 48 03 bd
       0.031793084 0.046679627 -0.03126869 -0.03205164
000100 50 5d 20 3d 6c fe ec bc 37 75 81 bb 51 95 bf 3d
       0.03915149 -0.028929912 -0.0039507407 0.09354652
000110 a7 cd fc b9 f3 43 bc bc 2b a3 ba bc 18 4e 47 3d
       -0.00048218408 -0.02298162 -0.022782883 0.04865846
000120 cb 00 be 3b 4c cb 2c bd fb a6 8e bc 8e f4 df 3c
       0.0057984344 -0.042186067 -0.017413607 0.027338292
000130 c2 a3 fb bc 29 c1 40 bb ab d0 de 3c cd af 06 3d
       -0.030717734 -0.0029412007 0.02719911 0.0328825
000140 d1 cc 04 be 3a 4a 8e 3c 5b 1b 14 3d 0a 20 66 bd
       -0.12968756 0.017369378 0.0361589 -0.0561829
000150 9d 82 3b 3d 39 78 a8 3b 9d d9 97 bb 4d b9 d9 bc
       0.04577886 0.005141285 -0.004634096 -0.026577616
000160 f7 e1 9b 3c ad ee 04 3d 2f 5f 16 bd f3 ba 65 3d
       0.019028647 0.03245418 -0.036711868 0.05608649
000170 31 3b f4 bc a0 03 58 3d d9 be 30 3d 65 41 5c bd
       -0.02981338 0.052737832 0.043150757 -0.053773303
000180 41 48 b1 3d 41 f7 0f bd f8 4f 80 3d b3 6d a2 bc
       0.086563595 -0.03514791 0.06265253 -0.0198277
000190 69 fd 56 bc 83 42 02 be 52 44 4c bc ef fc 22 bd
       -0.013121941 -0.12720685 -0.012467461 -0.039791998
0001a0 63 e1 14 bd 3c d6 db b9 77 a5 a2 bc ee f9 25 3c
       -0.036347758 -0.00041930552 -0.01985429 0.010130389
0001b0 d1 f8 60 3d 6f a5 b7 bd 87 51 35 bd aa 36 e9 3c
       0.05492479 -0.08967101 -0.044267204 0.028468449
0001c0 97 25 8e bd a6 fc 03 bd 61 fb b4 3b 02 ff 00 3d
       -0.069407634 -0.032223366 0.0055231308 0.031493194
0001d0 9b 48 0b 3d 18 10 03 3c e2 94 e8 3c e2 94 0b 3d
       0.03400479 0.0079994425 0.028391305 0.034077533
0001e0 ee bd ae bc 81 17 02 3d 3c 60 01 be a3 4e f5 3b
       -0.0213308 0.031760696 -0.12634367 0.007486181
0001f0 06 89 a1 bc 3d c7 b4 bc cd 48 5c 3d 8d 1c eb 3c
       -0.019718658 -0.02206766 0.053780366 0.028700138
000200 4d 53 f9 bc 73 b2 2a bd 8a 01 d2 bd 14 ce 1e 3c
       -0.030435229 -0.04167409 -0.102542 0.009692688
000210 bb d5 bd bd 88 56 95 3d 3a e6 44 3d 80 1c 8b bc
       -0.092692815 0.07291895 0.048071124 -0.016981363
000220 1c a1 d8 bd 6f 0c 03 3c 75 78 eb bc 21 ae d7 bc
       -0.10577604 0.00799857 -0.028743962 -0.026328148
000230 84 69 22 bb 57 8a 7f 3d 6f 88 8d 3c 73 ea a9 3d
       -0.002478213 0.06238779 0.01727697 0.08296671
000240 bb f5 4b bd 94 6a 04 bd 03 a7 86 3c e4 87 7e 3c
       -0.049794894 -0.032328203 0.01643706 0.015535329
000250 98 04 aa bc 1f 8c e9 bc 0e 55 09 3d 31 64 0b 3d
       -0.020754144 -0.028509198 0.03352838 0.034031097
000260 14 dc 02 3c eb 8c 03 3d 82 7b d9 3c 5b 3b 79 bd
       0.007987041 0.03211681 0.02654815 -0.06084762
000270 54 c5 c1 3b 9a fa 74 3c 35 38 aa 3c f8 63 5b bd
       0.005913416 0.014952326 0.020778755 -0.053562135
000280 1a 46 e3 bb 17 af 95 3d bc 09 82 3d 29 fa ac 3c
       -0.006935847 0.07308786 0.06349513 0.02111538
000290 e0 32 6f 3c db e7 e8 bc 22 8f 36 be e0 2a 66 bc
       0.014599532 -0.02843087 -0.17828038 -0.014048308
0002a0 50 e3 12 bd 52 f2 60 3c 70 18 a2 3c 7e e8 4c 3d
       -0.035861313 0.013729649 0.019787043 0.05002641
0002b0 6f 02 b7 3b 0e d8 a2 bd fa f2 52 3d 0f 14 38 3d
       0.005585007 -0.079513654 0.05150125 0.044941004
0002c0 c5 cb e6 bc f4 0b 6d 3c 50 57 e3 3c a6 d2 e3 bc
       -0.028173337 0.014468182 0.027751595 -0.027810406
0002d0 9f f3 4a 3c f3 19 24 3c ad 58 05 3d 52 4c 21 3d
       0.012387185 0.010015952 0.03255527 0.039379425
0002e0 4c fb 1a bb 89 73 cf bc 73 ee 98 bb a9 f6 cf bc
       -0.002364832 -0.025323646 -0.0046670972 -0.025386171
0002f0 a7 c1 96 3c 2c c3 7d 3d 76 e9 16 bd 48 7b b9 3c
       0.018402888 0.06195371 -0.03684374 0.022641793
000300 62 f5 bb 3c 99 9f 90 bd 61 0d 57 3d 1c 1b 94 3d
       0.022944156 -0.07061691 0.052502993 0.07231733
000310 bc 04 e1 b9 99 df 4a bc 16 51 82 3d 38 b9 40 3d
       -0.00042918872 -0.012382411 0.06363122 0.04705164
000320 43 d2 bd 3b 63 08 cd bc 44 32 83 bd 3a b0 7b bd
       0.0057928874 -0.025028413 -0.06406072 -0.06144736
000330 8d c9 e1 3b 52 eb 75 bc 1b e0 0b bb 45 6e 41 3d
       0.006890482 -0.015009718 -0.0021343294 0.0472243
000340 e9 43 99 3c 01 08 47 3d 79 74 f5 3c f6 9f 60 3d
       0.01870914 0.048591617 0.029962765 0.05484005
000350 da e8 35 bd e0 47 0a be ab 3f 78 3d 5d fe a6 bc
       -0.044411518 -0.1350398 0.060607594 -0.020384962
000360 2a 64 8c 3c b4 0c ca b9 3b ae 79 bc cf f4 f3 3c
       0.017137606 -0.00038537907 -0.015239294 0.02977982
000370 d3 ad 73 3d aa 76 3e 3d 53 c8 1e 3d 17 88 6a bd
       0.059491944 0.046499886 0.038765263 -0.05725869
000380 f2 75 0c bb f5 dd 99 3c 12 2c 26 bd 71 71 82 bd
       -0.0021432606 0.018782595 -0.040569372 -0.063692935
000390 ff 92 88 3a f3 e6 b5 3d a7 0b 8c b8 df 61 62 bd
       0.0010419785 0.08881941 -6.6778906e-05 -0.05526912
0003a0 70 da a0 3d 17 ab c8 bc 16 44 d9 3d df 5b a1 bc
       0.07854164 -0.024495644 0.106086895 -0.019697128
0003b0 da 65 3a bd 13 33 52 bd f7 77 af bd e3 93 2b ba
       -0.04550729 -0.05131824 -0.08567803 -0.0006545169
0003c0 85 28 3c 3d 1f 2a 7c 3d ab cc 94 3b 3a 87 3e bc
       0.04593708 0.061563607 0.004541 -0.01162892
0003d0 48 e1 58 bd 21 b7 51 bb 18 20 18 3c 91 b9 fd bc
       -0.05294922 -0.0032000022 0.0092849955 -0.030972274
0003e0 2b 5f 12 3b c0 30 75 bc 4e 55 42 bb c5 16 37 bc
       0.0022334557 -0.014965236 -0.0029652896 -0.011174862
0003f0 94 51 0e 3d d2 7e e0 bd f1 c8 14 3d 60 c9 b6 bc
       0.034745768 -0.10961689 0.036324445 -0.02231282

network.3.bias f4 [256]
000000 37 e0 16 3b c0 08 40 3d dd 80 41 3d 1a 43 0a 3d
       0.0023021826 0.046883345 0.047242034 0.0337554
000010 13 00 18 3d 99 9d 61 3d 17 59 c9 3c 6c 1a 3d 3c
       0.037109446 0.055081937 0.024578614 0.011541944
000020 d6 ff c9 3b a0 4d 33 3d b8 e9 77 3d fc a8 80 3c
       0.006164531 0.0437752 0.060525626 0.015705578
000030 d2 5b 17 3d 68 ce 4c bd 7c f4 68 bd 0c 08 51 bd
       0.0369528 -0.05000153 -0.056873783 -0.051033065
000040 a8 fc 0b 3d 7b 16 ed 39 db fc ce 3d cc 2b 23 3d
       0.0341765 0.00045220912 0.10106822 0.03983669
000050 3c f5 5c bb 3b 10 73 bd b5 32 b2 3d 96 be 5e 3c
       -0.0033715507 -0.05934165 0.08701078 0.013595244
000060 38 42 a9 3d 28 6e a4 bd fd 05 40 bc 83 be 9c bd
       0.08264583 -0.08028823 -0.011720178 -0.07653525
000070 64 2b 94 3c ff 1f 5e 3d f9 78 a5 3c 8e e5 0e 3d
       0.018087097 0.054229733 0.020199286 0.03488689
000080 8d d2 ac 3d 4a 38 72 3d b0 d5 f5 3c 7a 38 eb 3c
       0.08438597 0.059135713 0.03000912 0.028713454
000090 d2 30 cd 3c dd e7 4c 3d b2 94 64 3d 5e 12 4a bd
       0.025047693 0.05002581 0.05580587 -0.049333923
0000a0 0d 64 38 3d d3 44 bd bc 65 5d 36 3d d3 c3 c3 3d
       0.04501729 -0.023104107 0.04452266 0.09558835
0000b0 28 8f ab 3c 2f ed 99 bb cf 98 9a bd c2 39 15 bd
       0.020942286 -0.004697464 -0.07548677 -0.036432035
0000c0 6e 21 d7 3c 9f b7 c5 3c 81 ff 80 3d aa 79 03 3d
       0.026261058 0.024135409 0.062987335 0.03209845
0000d0 38 b6 2e bd 73 1c 8d 3d ff 30 29 ba ab 25 7c 3c
       -0.042654246 0.06890192 -0.00064541394 0.01538984
0000e0 9e ef 87 bc 5b 99 5e 3b 33 60 a6 3c ca 0e f6 bc
       -0.01659375 0.0033965919 0.020309543 -0.030036349
0000f0 2c dc fb 3c 0c a6 0c 3d 5b b1 9f 3d d8 70 11 3d
       0.030744635 0.034338042 0.077975 0.035508007
000100 ba 99 21 bd 61 09 33 3d f1 37 7c bd ae 52 16 3d
       -0.039453246 0.043710116 -0.061576787 0.036699943
000110 7b aa 54 3d 63 0e 80 3d 91 60 99 3d 66 1d c6 3c
       0.051920395 0.06252744 0.07489122 0.02418394
000120 cd 46 0c bd 02 68 ae bc 93 c6 f5 3b cc 7e 9d bd
       -0.03424721 -0.02128983 0.0075004785 -0.076902
000130 f6 e4 0c bc b3 d5 f9 bc 32 f5 89 bb 12 f9 9e 3d
       -0.00859951 -0.030497408 -0.0042101378 0.0776235
000140 48 0f 1d 3c 6a 04 99 3d ca f1 25 bd 50 c3 88 bc
       0.009586163 0.07471545 -0.04051379 -0.016694695
000150 9d c8 6f 3c 5b 86 96 bd 44 7e 69 bd ef bb 26 3c
       0.014635232 -0.07349845 -0.057005182 0.010176643
000160 00 90 b3 bc 3a 3e 0a 3d f9 8d ba ba b5 71 51 3c
       -0.02191925 0.03375075 -0.0014232985 0.0127834575
000170 0d c2 12 bd 36 ed 90 bb c5 10 d1 3b 40 b3 a2 bc
       -0.035829592 -0.004422809 0.006380173 -0.019860864
000180 81 1a 36 3d 81 23 5a 3d 70 be 44 3d cc 4b cf bc
       0.04445887 0.053256515 0.048033178 -0.025304697
000190 ed 0e 93 bc bb 1f 29 3c ed 02 18 3d ba 39 66 3d
       -0.017951453 0.010322507 0.037112165 0.056207396
0001a0 87 ee 98 3d 59 a2 0f 3d 21 9e 77 3d 8d 65 90 3d
       0.074673705 0.035066936 0.060453538 0.07050619
0001b0 c5 0f 31 3d c0 e1 00 bd f5 f5 d2 3b 9a b1 ca 3c
       0.04322793 -0.031465292 0.006438012 0.02474289
0001c0 2c 51 b8 3d ff 40 96 bc 05 cc 07 3d 82 44 01 bd
       0.08999857 -0.01834154 0.033153553 -0.031559475
0001d0 83 81 14 3d 88 10 e9 bc fc f7 6c 3d 45 83 98 bd
       0.036256324 -0.028450266 0.057853684 -0.07446913
0001e0 b7 ce 47 3b b5 c2 0b 3d 2c f1 88 3d d9 72 f3 bc
       0.0030488202 0.034121234 0.06686625 -0.02971785
0001f0 e6 49 22 bb 1c f8 3d bc 48 b4 4a 3d 16 8f b0 3d
       -0.0024763285 -0.011594798 0.049488336 0.086210415
000200 32 f7 3c 3d a1 73 28 bb 12 6a 6c bd d5 a4 8c bd
       0.04613418 -0.0025703686 -0.057718344 -0.06867377
000210 3d 4e f7 bc b4 19 88 bd 8c 74 bb 3d 46 23 06 3e
       -0.030188674 -0.066455275 0.09153089 0.13099393
000220 1e 90 06 bc 2d e9 0d bd 0c 52 4e bc fc 11 80 bd
       -0.008213071 -0.034646202 -0.012592804 -0.0625343
000230 a8 f1 8a 3d f4 4f b5 3d 5e 15 4d bd 10 63 75 3d
       0.067843735 0.088531405 -0.050069205 0.059908926
000240 5d c9 42 3d c8 f5 bf bc df 2b 60 3d 0c 4b c9 3d
       0.047555316 -0.023432627 0.05472934 0.09828767
000250 81 27 52 bd 06 bf 17 3d 82 6f 13 3d 4b d3 a0 bc
       -0.051307205 0.03704741 0.035995014 -0.019632002
000260 55 0d 19 3d 93 a6 1f bd 8b 00 c2 bc b7 73 a7 bd
       0.03736623 -0.038977217 -0.0236819 -0.08176368
000270 d2 fd fb bb fa 1d db 3c a4 be fe 3c 62 cc f1 bd
       -0.00769017 0.026747692 0.031096764 -0.11806561
000280 ab 18 73 3d 61 a5 7b 3c b0 ed 05 3c 4d 31 d1 3c
       0.059349697 0.015359254 0.008174345 0.025536204
000290 68 bd a3 3c ca af 86 3d d7 ae ba 3d ae 2b ad bc
       0.019987777 0.06576498 0.09115379 -0.021138992
0002a0 69 76 38 bd ed 6b 77 bd 88 60 9e bc 56 cc d9 3c
       -0.0450348 -0.06040566 -0.019333139 0.026586693
0002b0 bf 54 18 3e 3d a9 94 bd 7f 3d 85 3d c8 18 de bc
       0.14876078 -0.07258842 0.0650587 -0.027111426
0002c0 8d 7a a6 bb df fb 2d bd 3e 41 94 bc 5c e0 4e bd
       -0.005080527 -0.04247653 -0.018097516 -0.050506935
0002d0 e6 5e f3 bc 03 9f 2f bd 27 81 b2 39 7b 7a 77 bc
       -0.029708337 -0.042876255 0.00034047032 -0.015104885
0002e0 52 4f 17 bb dc e7 df 3c c4 4f 55 3d b1 76 8c 3d
       -0.002308805 0.027332239 0.052078024 0.06858576
0002f0 60 17 56 3c 23 f5 f9 3c f8 02 bd bd cb 67 80 3d
       0.0130670965 0.030512398 -0.09229082 0.06269797
000300 2b ac 07 3d c4 d7 13 bd b3 76 5a 3d f8 61 db bc
       0.033123177 -0.036094442 0.053335857 -0.026780114
000310 ee 8f 00 3d 60 c7 6a bd b4 1a cf bc 2d a8 e5 3c
       0.031387262 -0.057319045 -0.025281288 0.028034294
000320 62 af ce 3c a4 ad cd bc 1d a3 bd bc 82 6e 51 3d
       0.025230113 -0.025107212 -0.023149068 0.05113078
000330 4e b7 61 3d 9a de d6 bc 26 c8 82 bd d3 f5 0f 3d
       0.055106454 -0.026229192 -0.063858315 0.035146546
000340 73 72 ed 3c b2 9e a1 3d 89 42 00 bd ba b0 b9 bc
       0.028985238 0.07891597 -0.031313453 -0.022667278
000350 1f 4e 69 bd 08 61 39 3c 64 ec 77 3d 1e cf 9d 3c
       -0.056959268 0.011314638 0.060528174 0.0192638
000360 63 1f 24 bc df 00 61 3d 36 cf 97 3d 69 e6 13 3d
       -0.010017249 0.05493247 0.07412569 0.036108408
000370 11 50 22 3c 86 a7 bb 3d 86 ad e3 3d 2d b3 c4 3d
       0.009906785 0.09162812 0.11117081 0.096044876
000380 bd 51 84 3d f5 a0 52 bb 5d aa 8c bd 35 db 10 bd
       0.06460903 -0.0032139395 -0.06868432 -0.035365302
000390 fc f2 a2 bc e7 e5 e5 bc b2 b8 a7 3d 41 ac 2e bd
       -0.019891255 -0.028063728 0.08189525 -0.042644743
0003a0 ad 07 d5 ba e8 7b f3 3d d6 a3 30 bd 74 ab b0 bd
       -0.0016252898 0.118888676 -0.043124996 -0.08626452
0003b0 e8 07 c4 3d 9d f4 c9 3d 20 b0 b3 3c aa ad 9a 3d
       0.095718205 0.098611094 0.021934569 0.07552655
0003c0 0b ce 17 bd b5 b9 06 3e 61 0a e7 bc 03 b3 16 3d
       -0.037061732 0.13156779 -0.028203191 0.036791813
0003d0 63 2b c7 bc c3 87 56 3d 84 85 0f 3d 5d 9d 0f bd
       -0.02431268 0.052375566 0.03503944 -0.035062183
0003e0 5e 15 2b bc 8b c6 9e bd 9f a6 e7 3d 69 f1 05 3e
       -0.010442106 -0.07752713 0.11311077 0.13080372
0003f0 6d 1e 4e 3d f9 ab ec bc be 41 ba 3c d7 60 88 bd
       0.050321985 -0.028890597 0.022736426 -0.06659096

network.6.weight f4 [128, 256]
000000 1f cc d6 3d c0 31 67 3d f2 61 29 be 9f 04 8f 3c
       0.10488152 0.05644393 -0.1654127 0.017458258
000010 60 a7 77 3d fd db b8 bd bd ee a0 3d 01 13 ae bd
       0.060462356 -0.090263344 0.07858036 -0.084997185
000020 f1 84 e6 3c 2f d1 b1 3c a9 ce 87 3d 39 8a b1 3d
       0.028139563 0.021706192 0.06631214 0.08668942
000030 ed 1e b0 3c f9 4f a4 bd 25 e8 9a bd f6 1d c5 3d
       0.021499122 -0.08023066 -0.07563809 0.09624855
000040 be 14 2c 3e 0f c9 8d ba 14 61 ba bd c1 1b c8 bd
       0.16804788 -0.0010817366 -0.091005474 -0.09770919
000050 fe e4 93 bd a7 fb 7e bd b6 a6 ef bc 21 f6 3d 3d
       -0.07221411 -0.062251713 -0.029254299 0.046377305
000060 9e 66 10 3e 72 81 53 3d 9b d8 1d 3d 94 38 54 bd
       0.14101645 0.05163712 0.03853665 -0.05181177
000070 58 1c 7e bd d5 cd a2 3c 63 21 4b 3d b6 bc 9b bc
       -0.06203875 0.019873539 0.049592387 -0.019010883
000080 04 73 6d 3d dc c1 03 bd 90 72 91 bd 14 19 56 bd
       0.057971016 -0.0321673 -0.07101929 -0.05227001
000090 94 e6 bf 3d eb d7 43 3d d7 68 f3 bc 2f b7 12 be
       0.09370151 0.047813337 -0.029713077 -0.14327691
0000a0 c0 07 83 be 04 9f 4a 3c f9 cb a7 3d 7a 1b 60 be
       -0.2559185 0.012367014 0.081932016 -0.21885481
0000b0 d6 e4 de 3c df ec 03 bd 18 b1 e9 bd 54 fd 1c 3e
       0.027208727 -0.03220832 -0.11410731 0.15331012
0000c0 a8 51 90 3c 6a 2c dd 3d a1 f3 cf bc 6c 37 ce 3d
       0.017617062 0.10799487 -0.025384726 0.10069165
0000d0 3c 77 c1 3c a8 38 e7 b9 63 29 67 3d 1c 2f 9e bd
       0.023616426 -0.00044101966 0.056435954 -0.07723829
0000e0 ee 52 58 bc d9 44 3e 3e 3b c6 5f bd 0f 1f 8e 3e
       -0.013203366 0.18580951 -0.054632407 0.2775807
0000f0 4d ad ec 3d 2c f3 b3 bd 7f 36 98 bd 80 d4 b6 bc
       0.11556492 -0.08786616 -0.07432269 -0.022318125
000100 c3 eb b8 3d f7 b4 b1 bd f5 98 b7 3c 18 88 9c 3d
       0.09029343 -0.086770944 0.022411803 0.07643145
000110 be 65 90 bd c1 0d 48 3e 08 4f 9a bd ca 7d bc bd
       -0.07050656 0.19536497 -0.07534605 -0.0920368
000120 96 e6 b8 3d bd bf f9 bc ae ee 1d 3d e0 81 88 bc
       0.09028356 -0.030486936 0.0385577 -0.016663492
000130 58 f3 46 bd 08 14 e5 3d da 2c 50 3d fe 5e 1b 3e
       -0.048571914 0.11185461 0.050824024 0.15172955
000140 dd fb 9b 3c 80 14 97 bc 5b a8 41 bc db b1 89 3d
       0.019040996 -0.018442392 -0.011819924 0.06723376
000150 b0 7c e7 ba e0 f0 96 bc a9 52 01 3e c6 d6 71 bd
       -0.0017661061 -0.018425405 0.12629189 -0.059042715
000160 70 ff ef 3c 1c b6 ea bc df d9 20 3e cf bf e2 bd
       0.029296607 -0.02865129 0.15708111 -0.11071741
000170 21 ea 28 3e cd 26 56 bc 68 75 2d bb 74 f1 04 3e
       0.16495563 -0.013070774 -0.0026467685 0.12982732
000180 1c 9a b0 3c 60 95 ce 3d 07 6d 06 3d 54 1d aa bc
       0.02155786 0.10087085 0.03281882 -0.020765938
000190 6a 0a 00 bd 82 ac d7 3c 14 26 01 3e 0a 56 95 3d
       -0.03125993 0.026327375 0.12612182 0.07291801
0001a0 9b bc 6e bd dc 98 0c 3e 7c bf e4 3c 0e 21 e3 bb
       -0.058285337 0.13730186 0.027923338 -0.0069314307
0001b0 01 9f 8d 3a 42 15 e0 3d f6 36 17 bc 04 79 87 bd
       0.0010804833 0.109415546 -0.009229412 -0.06614879
0001c0 14 e4 88 bd 16 7d 88 bd 13 16 9c bd 5d bb f9 3c
       -0.066841274 -0.06664483 -0.07621398 0.03048485
0001d0 53 15 1d be 5f 6d 01 bd 96 90 a2 bd e9 2f 55 bd
       -0.15340166 -0.031598445 -0.07937734 -0.052047644
0001e0 41 7c 6d 3e 08 18 b5 3d 8d a3 b1 bd f2 83 5e 3d
       0.2319193 0.08842474 -0.08673773 0.05432505
0001f0 b7 ec ba bd 08 61 0f bd 18 a8 e3 bd 59 99 d0 3d
       -0.09127181 -0.035004646 -0.11116046 0.10185499
000200 11 7a 2c 3e 0f 6c a9 bd 37 ba aa 3c 0b 56 64 bc
       0.1684344 -0.08272564 0.020840747 -0.01393653
000210 87 37 b2 3d 08 34 22 bc 25 ab 7d 3c 1f 83 34 3d
       0.08701997 -0.0099001005 0.015482699 0.04407036
000220 e4 a6 3d bd a4 7d 0e bd f0 f4 4f 3c 7d c7 2f bc
       -0.046301737 -0.03478779 0.012692675 -0.010728714
000230 29 ea b9 bc 9b 7f 10 be db 0a 17 3d 57 93 33 3d
       -0.022694664 -0.14111178 0.036875587 0.043841686
000240 1a 79 2d 3c 9e 75 8d bd cf bf 8f 3d 35 37 5a 3d
       0.010587955 -0.06907199 0.070190065 0.053275306
000250 fd a3 a8 3d 87 d6 8a bd 49 38 48 be 81 04 9a bd
       0.08234403 -0.06779199 -0.19552721 -0.0752039
000260 42 ad 41 bd d3 03 91 3c 05 58 e8 bc 1e 47 38 3e
       -0.047284372 0.017702019 -0.028362283 0.17995879
000270 60 a1 68 bd ef 61 91 3c 88 52 1f be 79 7e e1 3d
       -0.056794524 0.017746894 -0.15558827 0.11010451
000280 de da 3e 3d a1 3c 41 3d 3a 79 86 3c 50 bc 78 3c
       0.046595447 0.04717696 0.016415227 0.015181616
000290 d7 2a b1 3c 0e dd 99 bd 1c 5a 35 be 26 1c 2e bd
       0.021626873 -0.07512866 -0.17710155 -0.042507313
0002a0 81 ef fe 3d 44 d6 08 3e 16 11 95 bd 23 d3 7a 3b
       0.124480255 0.13362986 -0.072786495 0.003827282
0002b0 33 4c e0 bc 0b 45 13 3e 96 ca d1 3d 07 e0 20 3d
       -0.027380085 0.14381807 0.10243718 0.03927615
0002c0 34 c5 75 3d e4 71 87 3c 56 4f 1f bc 83 16 0d bd
       0.06000252 0.0165338 -0.009723505 -0.034445297
0002d0 d6 9c fb 3d 8b 42 94 3d 37 bd 0c be 4c 82 08 be
       0.122857735 0.072392546 -0.13744055 -0.13330954
0002e0 97 da fb 3d b9 1c 97 3c f2 4d c1 3d 8f 30 aa bd
       0.12297552 0.018446313 0.09438695 -0.08310043
0002f0 58 34 28 be d6 83 ef 3d ae d3 33 3e 01 6e 2d be
       -0.16426218 0.116950676 0.17561218 -0.16936494
000300 d4 01 9a bd 9a 9b 0b be 1c 0b 9d 3d cd 7f 8d 3d
       -0.0751988 -0.13633576 0.076681346 0.06909142
000310 3a cd c4 3c b1 71 90 bd ed 6c 0f be 0d 5b 62 bd
       0.02402364 -0.07052935 -0.14006396 -0.055262614
000320 98 2e 13 3e d8 4a 8c 3c 2c c0 b0 3d d8 13 a4 bc
       0.14373243 0.017125532 0.08630404 -0.020028993
000330 8f a8 8d 3c a7 43 92 3c dd a7 c0 bd d1 ae b2 bd
       0.017292289 0.017854525 -0.094070174 -0.0872475
000340 b1 20 e3 3d 49 40 34 3e 17 f3 1b be 81 e0 c2 bd
       0.1109022 0.17602648 -0.1522945 -0.09515477
000350 77 1c 9f bd 7a c7 3b 3d 44 71 05 be fe 33 3b bd
       -0.07769101 0.045844533 -0.13031489 -0.04570388
000360 53 43 8d bb f4 74 7c 3d ed ff ba bd 17 5a 82 3d
       -0.004311004 0.061634973 -0.09130845 0.063648395
000370 ac 2d 54 bd 16 a4 99 3c 73 ea b3 bd 13 c3 3b 3e
       -0.05180137 0.018755 -0.08784952 0.18336134
000380 54 79 14 3d db 7c 19 3e 03 0f 83 bd a2 35 b3 bd
       0.03624852 0.14989035 -0.06399348 -0.08750464
000390 48 5f 94 3d 65 05 3f bd 30 8f f7 bd 94 a8 4f bd
       0.07244736 -0.046636004 -0.12087858 -0.050697878
0003a0 03 f4 15 bd 3e 1f 95 3d b3 c9 d0 bc 43 de d9 bd
       -0.03660966 0.072813496 -0.025486803 -0.10638096
0003b0 7b dc 4a 3d 80 51 fb bd 78 0d a5 3d 00 85 06 be
       0.049526673 -0.12271404 0.080592096 -0.13136673
0003c0 e8 37 3e 3e e7 dc 50 3d 56 4c 77 3d 9b 7f b3 3c
       0.18576014 0.05099192 0.060375534 0.021911433
0003d0 4a 40 5f 3d 1c 1c a4 bc a1 e1 f3 3c ed 10 2b 3d
       0.05450467 -0.020032935 0.029770674 0.04176419
0003e0 23 29 1d bc df bb af 3b 7b e8 9e bc 0a 18 e3 3d
       -0.009592327 0.005362972 -0.019397965 0.110885695
0003f0 e8 92 49 3c e3 e3 1f 3d 59 0c bf bc 1b 30 c9 3c
       0.012303092 0.03903569 -0.023321318 0.024559071

network.6.bias f4 [128]
000000 cf 05 5d 3c a0 bc 0f 3e 03 f8 e5 bc c6 c4 83 3d
       0.013490154 0.14036798 -0.028072363 0.06434016
000010 98 cd 8f 3d 3b 9f d0 3d 88 25 0f bb 7a 4b f0 3c
       0.07021636 0.10186621 -0.0021842439 0.029332865
000020 dc b7 2b 3d 5c f5 f6 3c 02 4f 65 3d 38 35 cc 3d
       0.04192339 0.030146293 0.05598355 0.09971088
000030 6a 4c d3 3d ed 10 25 3e 14 ba 6d 3d df 68 a8 bc
       0.10317309 0.16119738 0.058038786 -0.020557819
000040 fd 8d 88 3c 6a c9 5a bd 08 f7 d8 3d fb ef 18 3e
       0.016669268 -0.05341474 0.105939925 0.14935295
000050 90 95 f2 3d f4 23 0b 3d 32 56 15 3c 16 96 27 3e
       0.11844933 0.033969834 0.009114789 0.16365847
000060 68 b3 65 bc 2b 90 c9 3d d8 d9 6a 3e fc df 2a bd
       -0.014019825 0.09841951 0.22934663 -0.041717514
000070 32 37 80 39 e8 02 f0 3d 9c 2f 06 3d fb ae 21 bc
       0.00024455186 0.11719304 0.032760248 -0.009868379
000080 42 57 5f 3d 16 08 92 3d 10 6a 33 3e 3f 2c c0 3b
       0.054526575 0.071304485 0.17520928 0.0058646495
000090 ab ab df 3d f7 d8 c0 3d 0c 63 07 3e a2 ad 95 bb
       0.10921415 0.09416383 0.13221377 -0.004567818
0000a0 44 7a 8c 3d 38 80 eb 3c 5f 65 ed 3c 38 63 e6 3d
       0.06859258 0.028747663 0.028979002 0.11249393
0000b0 81 bf 93 3d 86 64 6e 3d 06 0a 46 bd 97 52 b8 3c
       0.07214261 0.058201335 -0.048349403 0.02250032
0000c0 fc 8e 02 bd 5e d5 4a 3c fa d5 27 3e 05 2f 04 3c
       -0.03187464 0.012379972 0.1639022 0.008067851
0000d0 f0 f4 3c bd 7e 33 dd bc e7 81 01 bd 96 af 0f bd
       -0.046132028 -0.027002092 -0.031618025 -0.03507956
0000e0 ff 0f 77 3d af f6 f2 3d cd 0e 01 3a c3 ce f7 3d
       0.06031799 0.118634574 0.0004923165 0.120999835
0000f0 5c db 13 bd 4c a8 ea 3d 5b f9 7d bc d0 e3 75 3d
       -0.03609787 0.11457881 -0.0155013455 0.060031712
000100 ed b3 73 3d 37 1f 98 3c f2 3f 17 3d 49 c4 4e 3c
       0.059497762 0.018569572 0.036926217 0.01262004
000110 5f 15 39 3d aa 66 c3 bc 65 9d f5 3c 30 85 f7 bb
       0.045186397 -0.023852665 0.029982278 -0.007553719
000120 97 6b d6 3d 59 38 2c 3d c5 22 1c 3e e7 47 6e 3d
       0.1046974 0.042045925 0.15247639 0.05817404
000130 94 1a b5 3d c4 52 9f 3d c8 31 09 3d da f7 8e 3d
       0.0884296 0.07779458 0.03349474 0.06980868
000140 fd c8 a0 bc 15 41 e9 3d f2 ff c8 ba 5c 80 08 3e
       -0.019627089 0.113893665 -0.0015335067 0.13330215
000150 25 7e 86 bc ba 94 79 bc 78 d5 ab 3b 5b 02 ac 3d
       -0.016417572 -0.015233213 0.0052439533 0.08398887
000160 3e 96 c7 3b 4d 1a 70 3d 51 28 24 bc a4 1d b0 3c
       0.0060909083 0.058618832 -0.010019378 0.021498509
000170 8d 94 9d bd e2 3d 9b 3c 09 0d 45 bd ca 6b 20 bd
       -0.076943494 0.018950406 -0.048108134 -0.039165296
000180 39 82 bb 3d 60 45 99 3d 3c 0f 05 3d 21 79 94 3c
       0.091556974 0.07483935 0.03248523 0.018124165
000190 2f 37 5c 3d 48 93 2b 3e 22 9f 82 3d d6 1e 0b 3e
       0.053763565 0.16755402 0.063780084 0.13585982
0001a0 2d a6 fa 3d aa 03 86 3c 4a 2e cf 3c 4a dd 40 bc
       0.12238727 0.016359169 0.025290627 -0.011771509
0001b0 3b f8 62 bd d1 80 f1 3c ba 97 37 3c 9a eb f3 3b
       -0.055412512 0.02948037 0.011205608 0.0074438574
0001c0 4a a4 72 3d ec 92 be 3d a4 a2 12 3d 2b b1 8e 3d
       0.05923871 0.09305367 0.035799637 0.06967386
0001d0 9f 0c 98 3d 03 3a 1a 3e 24 2a a3 3c e1 a8 96 3c
       0.07424282 0.15061192 0.019917555 0.018391075
0001e0 21 6c c8 3d 17 13 66 3d 64 b5 bd 3d d6 3a d1 bc
       0.09786249 0.05617055 0.09263113 -0.02554075
0001f0 c8 6b 91 3d 9f 39 91 3d d4 d8 db 3c ff 54 02 3e
       0.07100636 0.070910685 0.02683679 0.12727736

network.9.weight f4 [21, 128]
000000 62 31 06 3e bf 9f 4a 3d e4 f9 79 be fb 63 8e 37
       0.13104776 0.049468752 -0.24411732 1.6974276e-05
000010 31 73 0f be ca 90 d9 bd ca 1a 50 be 43 59 d7 bd
       -0.14008786 -0.106233194 -0.20322719 -0.10515072
000020 03 51 d7 3d a1 9e 11 3e 7c 68 7d 3d 78 d3 23 bd
       0.10513499 0.14220668 0.061867222 -0.039996594
000030 76 d1 1a 3d ef 21 03 be c7 09 06 be ec 01 93 be
       0.037797414 -0.12805913 -0.13089667 -0.28712404
000040 1c c1 d8 3d 92 f0 ad bd 00 97 7b be b0 98 8c 3d
       0.10583708 -0.08493151 -0.2456932 0.0686506
000050 2d 0c c0 3c 21 f5 a0 3c 41 7b 06 3e 57 bb e4 3c
       0.023443306 0.019648137 0.13132955 0.027921362
000060 b5 54 a3 be 79 76 eb be 3a 96 2a be 49 fd 6a 3d
       -0.31900564 -0.45988825 -0.1665887 0.057370458
000070 13 65 c0 3d 27 a3 d3 3d 8f fd 98 3d 0f fb af be
       0.093942784 0.10333853 0.074702375 -0.3437123
000080 f9 b0 72 bd 1f 2f b6 be c4 60 8c bd 2c 44 ce 3d
       -0.059250806 -0.35582826 -0.06854394 0.100715965
000090 23 53 c3 3d dd e8 f9 bb 20 ea ed bd 8c 1c ab 3b
       0.095373414 -0.0076266364 -0.116169214 0.005221909
0000a0 21 f3 c4 bd 98 31 00 3e f7 6b 9b be 00 3e be ba
       -0.09616686 0.12518919 -0.30355808 -0.0014514327
0000b0 e5 e7 ab be 55 b7 d3 3d d0 3f ed 3d 02 94 bd 3c
       -0.3357536 0.10337702 0.11584437 0.023141865
0000c0 c3 55 9c 3d d3 ac fe 3b 9f 68 1d be cf 40 8b be
       0.07633545 0.007772067 -0.15371941 -0.27197883
0000d0 97 92 65 bb 25 d0 87 be f0 24 b1 3d 9e f4 c8 3d
       -0.0035030001 -0.2652599 0.086496234 0.09812282
0000e0 78 18 3f 3d 4e df 9e 3d a1 9a 81 be df 41 6e be
       0.046654195 0.07757436 -0.25313285 -0.23267315
0000f0 09 43 cd bc 48 de ef bd 1f 7f 8f be 70 64 03 be
       -0.025056379 -0.11712319 -0.28026673 -0.12831283
000100 48 57 dc 3d fe e6 99 3e 28 4a 92 be 17 63 c1 3d
       0.10758835 0.30059046 -0.28572202 0.09442728
000110 a8 26 03 be d9 74 c5 3d 23 06 35 3e a6 5a cc bc
       -0.12807715 0.096414275 0.17678122 -0.024945568
000120 5b 8d 61 be 5c 20 b8 3d 90 8a b6 3d 79 2a 0c be
       -0.22026579 0.08990547 0.089131474 -0.13688077
000130 71 50 b3 3d f2 ef 81 3e f6 e9 31 be 04 10 a7 be
       0.08755577 0.25378376 -0.17374405 -0.32629406
000140 79 c4 a7 bd 4a d0 8f bb c2 d9 b2 3d 1e ec 3f 3d
       -0.08191771 -0.0043888437 0.0873294 0.04685604
000150 eb 3f 84 bd 30 6e 4c 3d 3a 9f a4 3d 79 a6 d0 3d
       -0.06457504 0.04990977 0.080381826 0.10188002
000160 09 3b 03 3e aa 34 97 bd 6e d3 8b be 5a 14 23 3d
       0.12815489 -0.07383092 -0.27309746 0.03981433
000170 8c 46 2f 3d f7 21 38 be 88 15 36 be e8 61 0a 3e
       0.042791888 -0.17981707 -0.17781651 0.13513911
000180 f9 ae 9a 3d 91 b6 82 be ad 6a 12 3e 05 ad cc 3d
       0.07552905 -0.25529912 0.14298506 0.09993938
000190 b8 d8 06 3e c7 91 a2 be 20 02 ee 3d de 7f 8e 3d
       0.13168609 -0.31751844 0.11621499 0.069579825
0001a0 2b e7 aa 3d 6a 44 03 3e 2e a7 a5 bd ec 72 58 be
       0.08344873 0.12819067 -0.080885276 -0.21137589
0001b0 b8 7d 96 be a5 a9 0c 3e 81 28 80 be 06 45 61 be
       -0.2939279 0.13736589 -0.25030902 -0.21998987
0001c0 cd 4f 84 3c 0e cd db 3c e5 9c cb 3d 65 b8 0f 3d
       0.016151333 0.026831176 0.09942035 0.03508796
0001d0 3d d7 40 3d cd eb 93 be 5b b0 20 be ce a4 5e bd
       0.047080267 -0.2889084 -0.15692274 -0.05435639
0001e0 a1 54 e8 3d 52 d6 a3 bd 4e f8 8f 3d b2 8a 04 3e
       0.11344267 -0.07999863 0.07029782 0.12943533
0001f0 18 77 cd 3d 5d 3e 92 3d f2 ff 7b be 64 97 e7 bd
       0.10032481 0.07140801 -0.24609354 -0.11308172
000200 5c 2f a5 be ab 9c c8 3d 9d 59 d8 3d 7e 70 c0 3d
       -0.32262695 0.09795507 0.105639674 0.09396456
000210 41 4a 6c bd c2 8f 92 be 38 11 7a bd 8a 3b 00 3e
       -0.057688 -0.28625304 -0.061051577 0.12522712
000220 4b 6b d1 3d 01 48 a7 3d be 80 af be 3e 85 d1 3d
       0.10225543 0.081680305 -0.3427791 0.10230492
000230 d1 94 0b 3d 55 6e 1f 3e f1 02 bb 3d 0b a4 39 3e
       0.03407747 0.15569432 0.091314204 0.18128984
000240 0c 50 01 3e 20 d2 c0 3c a2 e8 aa 3b 0a 4c 71 3d
       0.12628192 0.023537695 0.0052157203 0.058910407
000250 0c f4 f3 3d 63 d9 9e 3d 6c 46 5c be b9 7e 3b 3d
       0.119117826 0.07756307 -0.21511239 0.04577515
000260 c1 0b ce bd 81 51 27 be fd d6 cd 3d cc 4a 56 be
       -0.10060836 -0.16339685 0.100507714 -0.2092697
000270 da ad 95 be 12 35 9f be 7c 5f 8a be dd 75 04 be
       -0.292342 -0.31095177 -0.27025974 -0.12935586
000280 91 8c a3 3d 89 e3 a6 3b b1 ea 28 bc 91 ba 15 3e
       0.07985795 0.0050930423 -0.010309861 0.1462195
000290 24 35 0e 3e 91 d6 ad 3d 20 8b 49 3c 63 67 15 be
       0.13887459 0.08488191 0.012301236 -0.1459022
0002a0 26 06 ec 3d 1f cb 0a 3e f5 ed 5d be 80 ae 1f bd
       0.1152461 0.13554047 -0.21672805 -0.038984776
0002b0 17 f0 d1 bd 30 4a be bc 62 4c 4d be 50 b4 0e 3d
       -0.10250872 -0.023228735 -0.20048669 0.03483993
0002c0 de 8f 00 bd a6 27 14 be b1 2a 93 3d 6d b8 32 3e
       -0.031387202 -0.1446825 0.07185877 0.17453165
0002d0 19 3c 11 bc a6 a5 75 be 8b 8e 84 be 3c 9e d8 bd
       -0.008864426 -0.23988971 -0.25890002 -0.10577056
0002e0 8d 4f 07 3e 7a a8 39 be 4e e8 63 be a9 51 8c 3d
       0.1321394 -0.18130675 -0.22256586 0.06851513
0002f0 02 27 45 bd a1 a5 d4 3c b5 1f 0b be 30 82 04 3e
       -0.048132904 0.025957884 -0.13586314 0.12940288
000300 5d eb 1a 3e a1 c3 28 3e 45 2d 5f be 17 02 14 be
       0.15128846 0.16480877 -0.21794613 -0.14453922
000310 d9 c8 76 bc 8f 7d c2 3d 2f bf e3 bd 18 f0 7e be
       -0.015062534 0.09496605 -0.1112045 -0.24896276
000320 74 e5 48 be 18 80 4b bb ff f9 0e 3e d7 75 31 3e
       -0.1961878 -0.0031051692 0.13962553 0.17330109
000330 ed 3b 96 bd bb 36 1e be 64 3d 80 be 9f 91 26 bd
       -0.07335649 -0.15450566 -0.25046837 -0.04066622
000340 bc 60 d4 3d a6 b4 c1 3d 13 d1 68 be 20 f9 6c be
       0.10370013 0.09458284 -0.22736005 -0.23141909
000350 4a 1a 1b 3d b4 e8 24 3e 76 c0 6a be ca 3c 1b 3e
       0.037866868 0.16104394 -0.2292498 0.15159908
000360 11 6f 06 be c1 cc 6d bd 59 39 20 be 6b 43 b8 bd
       -0.13128306 -0.058056597 -0.15646876 -0.08997234
000370 89 6b 07 be 17 82 17 3e cb c9 ee be e7 19 4b be
       -0.13224615 0.14795719 -0.4663833 -0.198341
000380 8a 33 81 3d dd 05 ba bd 9e aa 24 3e 50 7d af bd
       0.063086584 -0.090831496 0.1608071 -0.08568823
000390 1d 1c 3e 3e 2a b9 21 3e e4 f6 0e 3e ce 6b a2 3d
       0.18565412 0.1579329 0.13961369 0.07930718
0003a0 fb d1 16 3d de 88 9e be f6 7a a7 bd ca 37 43 bc
       0.036821347 -0.30963796 -0.0817775 -0.011915157
0003b0 c3 4b d1 3d 8f ed 46 be 24 23 cd 3d 29 c0 38 3c
       0.102195285 -0.19426559 0.10016468 0.011276283
0003c0 8d a3 ae bb ec 1e a6 3d 2b 4c 9e bd b2 94 34 be
       -0.0053295554 0.08111367 -0.07729372 -0.17634848
0003d0 4b 34 ad be f2 d5 b3 3d 0a 61 71 bd 5f ff b8 be
       -0.3382896 0.08781041 -0.058930434 -0.36132333
0003e0 ae c5 0f be 03 13 32 bd 50 17 13 be f3 0f 5c bd
       -0.14040253 -0.043475162 -0.14364362 -0.053726148
0003f0 51 0d 31 3d 4a 0a 0a 3c b1 54 73 3c c3 01 2a 3e
       0.04322559 0.008425305 0.014851735 0.16602235

network.9.bias f4 [21]
000000 93 0d cc 3b 8f 20 0a 3c 79 a6 07 3a bb 9e 5e 3d
       0.006227204 0.008430614 0.00051746477 0.054350596
000010 7f dd ce 3d 97 7c 9b 3c 1f 54 97 bd 90 76 1b be
       0.10100841 0.018980308 -0.07389092 -0.15181947
000020 38 54 cf bd c4 e6 d5 3c 03 33 dc 3c d3 3d a0 bc
       -0.10123485 0.026111014 0.026879793 -0.01956073
000030 da 82 ac 3b 4d f8 d8 3d d7 d2 41 3d 0a 10 98 bc
       0.005264622 0.105942346 0.047320213 -0.018562336
000040 79 2f 61 bc d2 b8 79 bd 5f 0c c9 bd 10 ef b0 3d
       -0.0137442285 -0.060967274 -0.09816813 0.086393476
000050 3c 75 d0 3b
       0.0063616317
