models/NeuralNetwork-2_acc-61.24_loss-0.000003.pth (torch, 753472 bytes, 20 tensors)

network.0.weight f4 [512, 30]
0	0x3da26001	0.079284675
1	0xbf3ebf7f	-0.7451095
2	0x4028fa7c	2.6402884
3	0x3f35b00a	0.7097174
4	0x3f122bb4	0.57097936
5	0x3f6f1688	0.93393755
6	0x40330adc	2.7975378
7	0x3f18d5bd	0.5970114
8	0x3de98442	0.11402179
9	0x3f942c8f	1.1576098
10	0x3f327cc0	0.69721603
11	0xc05948b5	-3.3950627
12	0xc0496c39	-3.1472304
13	0x3fc5c9a1	1.5452157
14	0xbf90867f	-1.1291045
15	0xc078f465	-3.8899167
16	0xbed109ba	-0.40827733
17	0x403ba103	2.9317024
18	0xbe57a3dc	-0.21058601
19	0xbe7a5718	-0.24447286
20	0xbf7747b8	-0.9659381
21	0x405f248b	3.4866054
22	0xbfe90a3b	-1.8206247
23	0xc022bd6b	-2.5428112
24	0x406ad719	3.6693785
25	0xbeeb4d06	-0.45957202
26	0x3fc09059	1.5044051
27	0xbfaed8d6	-1.3659923
28	0x3f53ad04	0.82685876
29	0x3f81f051	1.0151464
30	0xbd2d4831	-0.042305175
31	0xbf785e2b	-0.9701869
32	0xbfcfc2ea	-1.6231358
33	0xbe8a8ccd	-0.27060547
34	0x407ee917	3.9829767
35	0x3ecbf297	0.3983352
36	0xbf22d6c8	-0.6360898
37	0xbfea0847	-1.8283776
38	0xbfe6e65e	-1.8039052
39	0x3f6b17a6	0.9183296
40	0x3fbb0357	1.4610394
41	0xbf664abf	-0.89957803
42	0xbedbee71	-0.42955354
43	0xc02bb6b3	-2.683026
44	0xbff32f22	-1.8998759
45	0x3faf16ef	1.3678874
46	0x40132e28	2.2996922
47	0x40552634	3.3304567
48	0x4082a1a9	4.082234
49	0x3ecbaeb2	0.3978172
50	0xbf95ed28	-1.1712999
51	0x3ff8d9b0	1.9441433
52	0x4073a0a6	3.8066802
53	0xbffdff28	-1.9843493
54	0xbfb2f315	-1.3980433
55	0x3e272112	0.16321209
56	0xc0106f24	-2.2567835
57	0xbfc990d0	-1.5747318
58	0x3f675c17	0.9037489
59	0x3fe11323	1.7583965
60	0xbffc0d85	-1.9691626
61	0xbf39a83a	-0.7252232
62	0x3edf4879	0.4360998
63	0xbc9a4b99	-0.018834876
64	0xbf66d28d	-0.90165025
65	0xbea9fc98	-0.33200526
66	0xbfe8fcce	-1.820215
67	0xc0a2e217	-5.090099
68	0xbfd19c63	-1.637585
69	0x3f8520ef	1.0400676
70	0x3fb1bfd1	1.3886663
71	0xc0c5fb64	-6.1869373
72	0x3ed4f5b2	0.415937
73	0x4014feeb	2.328059
74	0x3fee0242	1.8594439
75	0xbf6cea72	-0.92545235
76	0x3fd89884	1.6921544
77	0xbec316ef	-0.38103434
78	0x3f5f38ad	0.87195855
79	0xbfb32051	-1.3994237
80	0xbf9fcfbc	-1.248527
81	0x3e4c8057	0.19970833
82	0xbeaa9d24	-0.33323014
83	0x3f714b3e	0.94255435
84	0xbff7cf16	-1.9360073
85	0xbf3a0a6c	-0.7267215
86	0xbf1f7a38	-0.62295866
87	0xbfe7e09e	-1.8115423
88	0x3e263628	0.16231596
89	0x3e7c8c22	0.24662831
90	0xbf3198fb	-0.69374055
91	0x3eb37c84	0.35055935
92	0x3f89f02c	1.077642
93	0x3eebf6bb	0.46086678
94	0xc016acce	-2.3542972
95	0xbf584b33	-0.84489745
96	0xbfb2e09b	-1.3974794
97	0xbf80b563	-1.0055355
98	0xbfab7e2d	-1.3397881
99	0xc027ae5b	-2.6200168
100	0x3f808177	1.003951
101	0x4061a4b9	3.5256789
102	0x403734e6	2.8626037
103	0xbfba5dc6	-1.4559867
104	0x3e92c036	0.2866227
105	0x3e0bc420	0.13649035
106	0x3f362d89	0.7116323
107	0x3f0d2c36	0.55145586
108	0x401c0121	2.437569
109	0xbffeffdf	-1.9921836
110	0x3f8c8642	1.0978472
111	0xc00fe8d7	-2.2485864
112	0xc026479f	-2.5981214
113	0x3e35c088	0.17749226
114	0x40cbf920	6.374161
115	0x3e7e38ab	0.24826305
116	0x3faf119d	1.367725
117	0xc069e02a	-3.654307
118	0xbfe2fe2d	-1.7733818
119	0x3f348d67	0.7052826
120	0xbff50a84	-1.9143834
121	0x400a154e	2.1575503
122	0x402dd09c	2.7158575
123	0xbf7ab421	-0.97931105
124	0xbec37a45	-0.38179222
125	0xbfa1589a	-1.2605164
126	0xbfdf9fb5	-1.7470614
127	0xbe52cab5	-0.20585139
128	0xbf2f888b	-0.68567723
129	0xbf836d23	-1.0267681
130	0xbfc9f963	-1.5779232
131	0x3f3c3f6e	0.73534286
132	0x3d51f64f	0.05126029
133	0xbf3f915f	-0.74831194
134	0xbf9079bb	-1.1287149
135	0xbe5fb990	-0.2184813
136	0x408ba796	4.3642073
137	0xbfd8ef46	-1.694802
138	0x407f14e2	3.9856496
139	0xbf1d4ded	-0.6144703
140	0xbfb3a432	-1.4034483
141	0x3f19b907	0.60047954
142	0xbee9a79c	-0.45635688
143	0x3fecb43e	1.8492506
144	0x402a692b	2.662669
145	0x4011a893	2.275914
146	0x3ea7451a	0.32669908
147	0xc01c339e	-2.4406505
148	0xbf25f191	-0.64821726
149	0xbfd1ef7e	-1.6401212
150	0x3ecbd62a	0.39811832
151	0x3ec3c147	0.38233396
152	0x3f0cb260	0.5495968
153	0xbfa3faa2	-1.2810862
154	0xc0452303	-3.080262
155	0x3f083389	0.53203636
156	0xbf868cea	-1.0511754
157	0x3f23135d	0.6370142
158	0x3f7ec2b7	0.9951586
159	0xbed51c9d	-0.41623393
160	0xbcfc05de	-0.030764516
161	0xc02a0e1b	-2.657111
162	0xbfee2c34	-1.860724
163	0xbebbc766	-0.36675566
164	0xbfe6724d	-1.8003632
165	0xc08ea9a8	-4.45821
166	0xc01c4c89	-2.4421713
167	0xbe56da86	-0.20981798
168	0xc0155247	-2.3331468
169	0x4045c04b	3.0898616
170	0x3fec3b20	1.8455544
171	0xbf1e6026	-0.6186546
172	0x409a9012	4.8300867
173	0xbefd72f7	-0.49501774
174	0x3fccabc4	1.5989919
175	0xbfe56685	-1.7921911
176	0x4058c9bb	3.3873127
177	0xc015b0a9	-2.3389075
178	0x3f6980b9	0.9121204
179	0x400b8727	2.180124
180	0x3ebe61a8	0.3718388
181	0xbeb7eba7	-0.35921976
182	0x3e7be52c	0.24599141
183	0xbdfaf313	-0.12253394
184	0x3dd7ebf2	0.1054305
185	0xbe53d814	-0.20687896
186	0x402e6bf1	2.7253382
187	0x3fa87c70	1.3162975
188	0xbe6d10a9	-0.23150887
189	0x3f998017	1.1992215
190	0xbeffc372	-0.499538
191	0x3f308935	0.6895936
192	0x3ec7aef2	0.3900066
193	0x401379b2	2.3043027
194	0x3fcb6d8a	1.5892804
195	0x3f90d5d3	1.1315254
196	0xbfa5e935	-1.2961794
197	0x4058cf6b	3.3876598
198	0xbf894550	-1.0724277
199	0xc02f1685	-2.7357495
200	0xbf1364c5	-0.5757564
201	0xbec57afa	-0.38570386
202	0x4016ce25	2.356332
203	0x3f38ffc9	0.722653
204	0xc07bfd6d	-3.937343
205	0xc08e6b05	-4.450564
206	0x40c32346	6.098056
207	0x3ed7cfe8	0.42150807
208	0xbfe338df	-1.7751731
209	0xc0839706	-4.1121855
210	0xbefe9f3a	-0.49730855
211	0xbf389a80	-0.7211075
212	0x3ef62e43	0.4808217
213	0x3eb8ebd9	0.36117437
214	0xbf923173	-1.1421341
215	0xc04ea3b3	-3.2287414
216	0x4012baca	2.2926507
217	0xbffee1bf	-1.9912642
218	0xbfaa8329	-1.3321277
219	0xbf3351f6	-0.7004694
220	0x4019a72c	2.4008284
221	0x4091c3c3	4.5551467
222	0xbfc34963	-1.5256771
223	0x3e6e6feb	0.23284881
224	0x405f819d	3.492286
225	0xbfc80b4e	-1.562845
226	0xc00fcc2f	-2.2468374
227	0xbfb7d6dc	-1.4362445
228	0xc001773d	-2.0229027
229	0x3eafc76d	0.34331837
230	0x3f43661a	0.7632767
231	0xc0009a00	-2.0093994
232	0x3ff7cbdd	1.9359089
233	0xbf38d369	-0.72197586
234	0x3f1ede1f	0.6205768
235	0xbf7cce9f	-0.9875278
236	0xc0a533b2	-5.1625605
237	0x3ef3c6d8	0.47612643
238	0x3fa2d2d1	1.2720586
239	0x3fbbe7e0	1.4680138
240	0x3f1af71c	0.6053331
241	0xbf650545	-0.89461166
242	0x3fc60750	1.5470982
243	0xbf5accf7	-0.85469
244	0xbfcb8853	-1.5900978
245	0xbef31108	-0.4747393
246	0xbf6269fc	-0.8844297
247	0x3f29504f	0.66138166
248	0x3fb63999	1.4236327
249	0xbfbea937	-1.489539
250	0xbeb0148d	-0.3439068
251	0xc011bcad	-2.2771409
252	0xbf96e98d	-1.1790024
253	0x3fc2ea5c	1.5227771
254	0xbec7cf32	-0.39025265
255	0x3fb9e61c	1.4523349

network.0.bias f4 [512]
0	0xbcbdf909	-0.023190038
1	0x3e1ea311	0.15491892
2	0x3d6dcdda	0.058057643
3	0xbc957b6b	-0.018247327
4	0x3dfac6ee	0.12244974
5	0xbd562525	-0.052281518
6	0xbcdfe6bd	-0.027331704
7	0x3d61937f	0.055072304
8	0xbd599a75	-0.053125817
9	0xbd738285	-0.059450645
10	0xbb2aea79	-0.0026079698
11	0x3deddac6	0.11613993
12	0x3e1ad3d5	0.1511987
13	0xbe12ede8	-0.14348567
14	0x3da42c88	0.08016306
15	0xbb9e6566	-0.004833865
16	0xbd4e7d7b	-0.050412636
17	0xbe3a1b82	-0.18174556
18	0xbd5a0ca1	-0.0532347
19	0x3e1cd039	0.15313806
20	0x3e25e289	0.16199698
21	0xbd56a0b2	-0.052399345
22	0xbbbf2061	-0.0058327173
23	0xbd85f7f2	-0.065414324
24	0xbe235744	-0.15951258
25	0xbc720908	-0.014772661
26	0xbd7ce154	-0.061738327
27	0xbd7129c8	-0.058877736
28	0x3e03b745	0.1286288
29	0xbd2b7964	-0.041863814
30	0x3d2c58c0	0.042076826
31	0xbe183ae0	-0.14866209
32	0x3e2c2973	0.16812687
33	0xbdcec203	-0.100955985
34	0x3d2b34cb	0.041798394
35	0x3e32a279	0.17444791
36	0xbdca60fb	-0.09881779
37	0xbd7795c7	-0.060445573
38	0xbd1ca609	-0.03824428
39	0xbe01e2b3	-0.12684135
40	0x3c778a45	0.01510865
41	0xbda65fff	-0.081237786
42	0xbe071945	-0.13193233
43	0xbe0eebec	-0.13957185
44	0xbd9a5bd8	-0.07537049
45	0xbd21ffbc	-0.039550528
46	0xbdc1aa91	-0.09456361
47	0xbdc899a2	-0.09794928
48	0xbe1676b9	-0.14693727
49	0xbdf2cea5	-0.118558206
50	0x3dcb8d9c	0.09939119
51	0x3e1d251c	0.15346187
52	0x3e104f97	0.14092861
53	0xbe2b059d	-0.1670136
54	0x3e25df9f	0.16198586
55	0xbdf7ae39	-0.12093777
56	0xbdebe448	-0.115181506
57	0xbd1ec0eb	-0.0387582
58	0xbcf7a57d	-0.030230278
59	0xbdf28303	-0.11841395
60	0x3cd35219	0.025795983
61	0xbd4bc715	-0.049750406
62	0xbcf52a86	-0.029927503
63	0xbc253608	-0.010083683
64	0x3dc16122	0.09442355
65	0x3dac3995	0.084094204
66	0x3dbe12bb	0.09280916
67	0x3dd80e49	0.105496
68	0xbda0618f	-0.07831108
69	0x3d9f49a2	0.07777716
70	0x3d1ba515	0.03799923
71	0xbd253c02	-0.04034043
72	0x3e0cec06	0.13761911
73	0x3de1f363	0.110327505
74	0xbdf6d454	-0.12052217
75	0x3e00de52	0.12584808
76	0xbd0d9b51	-0.03457195
77	0xbce05ee9	-0.027389007
78	0x3e089e62	0.13341668
79	0x3dcd03ca	0.10010488
80	0xbd2caa70	-0.04215473
81	0x3e003963	0.12521891
82	0xbdfd1248	-0.123570025
83	0xbc93f9fa	-0.018063534
84	0xbd446570	-0.0479483
85	0xbd966b73	-0.07344713
86	0xbd00e0e5	-0.031464476
87	0xbd8a2a49	-0.067463465
88	0xbe0e665e	-0.13906237
89	0x3dd7fa6b	0.1054581
90	0xbd90e9fd	-0.0707588
91	0xbe272632	-0.16323164
92	0x3dd85111	0.10562337
93	0x3dbf1936	0.093309805
94	0xbd6f4690	-0.058416903
95	0x3e1643cc	0.146743
96	0x3b31a4ad	0.002710621
97	0xbdd17456	-0.102272674
98	0xbdb2e399	-0.08734817
99	0xbe2cecb4	-0.1688717
100	0x3e25bc2d	0.16185065
101	0xbd947ed3	-0.07250752
102	0x3dd82ec6	0.10555796
103	0x3e29b4b2	0.16572836
104	0xbd2e06c5	-0.042486925
105	0x3d615326	0.055010937
106	0xbe3aceae	-0.18242905
107	0xbd138365	-0.03601398
108	0xbbb7111d	-0.005586757
109	0x3b3b07f2	0.0028538671
110	0x3d14b7c3	0.03630806
111	0x3bc384da	0.005966765
112	0x3e06dd5c	0.1317038
113	0x3db6bc96	0.08922689
114	0xbaa9f548	-0.0012966776
115	0xbe220b33	-0.15824585
116	0xbdd67c78	-0.10472959
117	0x3e363376	0.17793068
118	0xbe0c536f	-0.13703702
119	0xbc2467b4	-0.01003449
120	0x3d196352	0.037448235
121	0xbd060f51	-0.03272945
122	0xbc917622	-0.017756525
123	0x3d0653d9	0.032794807
124	0x3e27e7d5	0.1639703
125	0xbdad04c4	-0.084481746
126	0xbe212f72	-0.15740755
127	0x3dc9878e	0.09840308
128	0x3da64d09	0.08120162
129	0xbe17ae3e	-0.14812562
130	0x3e19faf7	0.15037142
131	0x3df532e1	0.11972595
132	0xbd89a843	-0.067215465
133	0xbd8d3212	-0.06894316
134	0xbd6a5c48	-0.057216913
135	0xbe1ed820	-0.15512133
136	0x3d9a8ada	0.07546015
137	0xbdf071b9	-0.11740441
138	0xbd9e6186	-0.07733445
139	0x3d271b83	0.04079772
140	0x3e2a980b	0.16659562
141	0xbd943271	-0.072361834
142	0xbd94c501	-0.07264138
143	0xbd5e1fcf	-0.054229554
144	0x3d49c46b	0.049259584
145	0xbde07d3f	-0.10961389
146	0x3e069b49	0.13145174
147	0x3de6e99d	0.11275027
148	0xbe00ddcb	-0.12584607
149	0x3e2b9f24	0.16759926
150	0xbe1d9ed3	-0.15392618
151	0xbd14f91c	-0.03637038
152	0xbdb60671	-0.08887947
153	0x3b8e8f8c	0.004350608
154	0xbd8da8d0	-0.06916964
155	0x3e17358f	0.14766525
156	0x3da604cc	0.08106384
157	0xbe256695	-0.16152413
158	0xbe0e02df	-0.13868283
159	0xbb4028ad	-0.002932112
160	0x3a67127f	0.0008814707
161	0x3e1e735c	0.15473694
162	0x3de43539	0.11142964
163	0xbd03aaa9	-0.032145176
164	0x3cc9b98e	0.024624612
165	0x3d357e04	0.04430963
166	0x3d3b8063	0.045776736
167	0x3c7c7580	0.015408874
168	0xbe328f60	-0.17437506
169	0xbc0ff2ea	-0.008785943
170	0xbd67f593	-0.056630682
171	0xbd6e2ef1	-0.058150236
172	0x3b0d1822	0.0021529277
173	0xbe35cb28	-0.17753279
174	0x3e2affcd	0.16699143
175	0xbe261f27	-0.16222821
176	0x3daa06a9	0.083020516
177	0xbcdbed4e	-0.026846554
178	0xbdb2da69	-0.08733065
179	0xbe1da9a8	-0.1539675
180	0xbe2237df	-0.15841626
181	0x3dd8807f	0.10571384
182	0xbe36343e	-0.17793366
183	0xbd117191	-0.035508696
184	0x3db953b4	0.09049168
185	0xbe15520f	-0.14582084
186	0xbe3a211c	-0.18176693
187	0xbd7239be	-0.0591371
188	0x3e14d2c8	0.14533532
189	0xbe13cb87	-0.14433108
190	0xbde8c8f5	-0.113664545
191	0xbd9dd59f	-0.077067606
192	0x3d68d9fe	0.05684852
193	0x3d9ada85	0.075612105
194	0x3e064790	0.13113236
195	0xbdd8971c	-0.10575697
196	0xbd91a937	-0.07112353
197	0x3ccd892f	0.025089828
198	0xbd27c880	-0.040962696
199	0xbdb1d81a	-0.08683796
200	0x3d9ca5b8	0.07648796
201	0x3df7dfc9	0.121032305
202	0xbe23003d	-0.1591806
203	0x3e23372b	0.15939014
204	0x3d5fc2a4	0.054628983
205	0x3d36d17e	0.04463338
206	0xbdfbd707	-0.122968726
207	0xbd56d1d2	-0.052446194
208	0x3c9382dd	0.018006736
209	0xbd90b29f	-0.07065319
210	0xbcd799bd	-0.026318425
211	0xbe2e025c	-0.16993088
212	0xbe1214d9	-0.14265765
213	0x3d4b23ae	0.049594574
214	0xbe09ec94	-0.13469154
215	0xbdedc0bd	-0.116090275
216	0xbe1611ea	-0.14655271
217	0xbdbb9f4e	-0.09161244
218	0xbe2cdff1	-0.16882302
219	0xbc53e530	-0.0129330605
220	0xbe2db095	-0.16961892
221	0x3c899d2d	0.01679858
222	0xbe165124	-0.1467939
223	0xbce2e652	-0.027697716
224	0x3e219388	0.15778935
225	0x3e353af3	0.17698269
226	0xbdc9d0a8	-0.09854251
227	0x3e1c686f	0.15274213
228	0xbdc69a28	-0.09697372
229	0x3d9b3277	0.07577985
230	0xbd32ef8d	-0.043685485
231	0xbe1aad93	-0.15105276
232	0x3ddb7ac5	0.10716776
233	0x3d886656	0.06660144
234	0x3df235bc	0.11826655
235	0xbe0fe840	-0.1405344
236	0xbe368a8f	-0.17826293
237	0xbd821d69	-0.06353266
238	0xbe10a135	-0.14123996
239	0x3cca8c38	0.024725065
240	0x3e217857	0.15768562
241	0x3e35f1ba	0.17767993
242	0xbe2bfc74	-0.16795522
243	0x3dc543a6	0.096320435
244	0x3da4712d	0.08029399
245	0xbd746b66	-0.059672736
246	0xbd265b07	-0.040614154
247	0x3db19b1f	0.08672165
248	0xbe0b758b	-0.13619058
249	0x3dfa243b	0.12213942
250	0x3e378421	0.17921497
251	0xbd450db6	-0.04810878
252	0x3e29322b	0.16523044
253	0xbe244f0d	-0.1604578
254	0xbbd1f038	-0.00640681
255	0x3e264716	0.16238055

network.1.weight f4 [512]
0	0x4162191d	14.131131
1	0x41642945	14.260076
2	0x416812f7	14.50463
3	0x41719c58	15.10067
4	0x41534aa2	13.205721
5	0x41693324	14.5749855
6	0x4160e988	14.057014
7	0x41779929	15.474893
8	0x416302b5	14.188161
9	0x41748cde	15.284391
10	0x4157686d	13.462995
11	0x41771c0a	15.444345
12	0x41740a35	15.252492
13	0x4180f340	16.118774
14	0x4174fd25	15.311803
15	0x417b8b02	15.721437
16	0x416013f2	14.004869
17	0x4183a29c	16.4544
18	0x41667141	14.40265
19	0x41721ba6	15.13175
20	0x415d3605	13.825688
21	0x41804f5f	16.038755
22	0x41606909	14.025643
23	0x4153a30a	13.227304
24	0x4175f405	15.372075
25	0x41875297	16.915327
26	0x4173904d	15.22273
27	0x417a5e99	15.648095
28	0x417e2f39	15.886529
29	0x415e59f3	13.89696
30	0x418bd23d	17.477655
31	0x417320bc	15.195492
32	0x4166c52d	14.423139
33	0x4171a912	15.103777
34	0x41690efb	14.566157
35	0x4185ab38	16.708603
36	0x416c6087	14.773566
37	0x415cd145	13.801091
38	0x415f42ed	13.953839
39	0x41762818	15.3847885
40	0x41706d4c	15.026684
41	0x417287e1	15.158174
42	0x4162d0bc	14.175961
43	0x4175210d	15.320569
44	0x4153c584	13.235722
45	0x417f5f5d	15.960782
46	0x4167b71f	14.482207
47	0x4155d079	13.363397
48	0x416f521d	14.957547
49	0x41635459	14.208093
50	0x41726806	15.150396
51	0x4176b0e3	15.418185
52	0x4172a53b	15.165339
53	0x4166ff88	14.437386
54	0x41892066	17.14082
55	0x4168fe93	14.562152
56	0x41690413	14.563495
57	0x416dec74	14.870228
58	0x41837491	16.431917
59	0x416ee86c	14.931744
60	0x4150aa15	13.041524
61	0x416fb318	14.981224
62	0x416efeb2	14.937181
63	0x4184ace4	16.58442
64	0x41752c47	15.32331
65	0x4173c0b3	15.234546
66	0x416cc11c	14.797146
67	0x4166eae2	14.432344
68	0x415e9bf5	13.913075
69	0x4176f491	15.434709
70	0x4164487e	14.267698
71	0x415c0517	13.751243
72	0x416ced87	14.80799
73	0x417c39eb	15.76414
74	0x41690b3f	14.565246
75	0x41841455	16.509928
76	0x41776d70	15.464218
77	0x41642d0c	14.260998
78	0x4161afe9	14.105447
79	0x4177c39f	15.485259
80	0x417fdccf	15.991408
81	0x417e9e86	15.913702
82	0x418280ca	16.312885
83	0x416249c8	14.143013
84	0x41643608	14.263191
85	0x4172b39d	15.168851
86	0x4159b348	13.60627
87	0x4178df0b	15.554454
88	0x417eb7f6	15.919912
89	0x4179ddec	15.61668
90	0x416e5147	14.894843
91	0x41607224	14.027866
92	0x4174f69e	15.310209
93	0x4178477f	15.517455
94	0x4170b7fe	15.04492
95	0x4177f4b8	15.497246
96	0x415ee181	13.930055
97	0x417cfaa3	15.811191
98	0x4180ee23	16.116278
99	0x417ee7d9	15.931603
100	0x41685755	14.521321
101	0x4177d448	15.4893265
102	0x41672b3d	14.448056
103	0x415f49fb	13.955562
104	0x41601b53	14.006671
105	0x4165e13a	14.367487
106	0x4186182c	16.761803
107	0x41689deb	14.538554
108	0x417836ad	15.513349
109	0x41711cee	15.069563
110	0x4165f227	14.371619
111	0x415e2786	13.884649
112	0x4183d070	16.476776
113	0x41613672	14.075792
114	0x41721bd7	15.131797
115	0x4164f55d	14.309903
116	0x41747a52	15.279863
117	0x41849bb3	16.576025
118	0x4178820e	15.531752
119	0x416508fb	14.3146925
120	0x4163224a	14.195871
121	0x416866d8	14.525108
122	0x4171da48	15.115791
123	0x41868217	16.81352
124	0x4174f7bb	15.310481
125	0x416aaab1	14.666673
126	0x415c859c	13.782619
127	0x416b36fc	14.700924
128	0x415c0da4	13.75333
129	0x416c7d31	14.780564
130	0x41729951	15.162431
131	0x41827ab1	16.309908
132	0x416c7ad1	14.779984
133	0x41631f6f	14.195174
134	0x41868df7	16.819319
135	0x416bbaac	14.733074
136	0x416b0c42	14.690493
137	0x4167c53c	14.485653
138	0x415fda40	13.990784
139	0x41682679	14.509393
140	0x417daebd	15.855161
141	0x416d2682	14.821901
142	0x417577c0	15.341736
143	0x41669ab4	14.412769
144	0x41530ed6	13.191122
145	0x4177e825	15.494176
146	0x4169351b	14.575465
147	0x41716680	15.087524
148	0x417ca397	15.789939
149	0x416cf976	14.810904
150	0x4181e3ee	16.236294
151	0x416fcfc6	14.988226
152	0x41854265	16.65742
153	0x4182958f	16.323027
154	0x41742155	15.258138
155	0x41681903	14.506106
156	0x417a9843	15.662173
157	0x415afcdf	13.686736
158	0x4163a906	14.2287655
159	0x41860bf7	16.755842
160	0x415da8a4	13.853672
161	0x41595078	13.582146
162	0x416bf410	14.747086
163	0x416970cc	14.590038
164	0x4159e09a	13.617334
165	0x416c26a0	14.75943
166	0x417a1765	15.630712
167	0x41585652	13.521074
168	0x416bc088	14.734505
169	0x4151cc49	13.112374
170	0x417a74e7	15.653541
171	0x41700367	15.000831
172	0x415d26a6	13.821936
173	0x417bc7a0	15.736237
174	0x417f0d43	15.940738
175	0x4169f3d3	14.622027
176	0x41732e0f	15.198745
177	0x417afac3	15.686221
178	0x417a7204	15.652836
179	0x416fe5b6	14.993582
180	0x417ab728	15.669716
181	0x416e9b09	14.91285
182	0x4168ddba	14.554132
183	0x41873e32	16.905369
184	0x415eb799	13.919824
185	0x4182dc4e	16.35757
186	0x4164ab7f	14.291869
187	0x41713a07	15.076667
188	0x418b4e1f	17.413145
189	0x417ce7e2	15.806612
190	0x417ac533	15.673144
191	0x41694428	14.57914
192	0x416cb67d	14.794553
193	0x41621893	14.131
194	0x416798cd	14.474805
195	0x41757550	15.341141
196	0x4161002f	14.062545
197	0x41612624	14.071812
198	0x41723862	15.138765
199	0x418995e3	17.198187
200	0x416c3f09	14.765389
201	0x4170161b	15.005397
202	0x4176bcd0	15.421097
203	0x41652f51	14.324052
204	0x4171e473	15.118274
205	0x41781cdc	15.507046
206	0x41777f18	15.468529
207	0x41567375	13.403188
208	0x416c36af	14.7633505
209	0x416a84ac	14.657391
210	0x41793f99	15.578027
211	0x415bf990	13.748428
212	0x417960d8	15.5861435
213	0x41716393	15.08681
214	0x41746e71	15.276963
215	0x417405d2	15.251421
216	0x41568220	13.406769
217	0x41789fed	15.539044
218	0x416c5f73	14.773303
219	0x4172cfed	15.175763
220	0x4171e30f	15.117934
221	0x416e2bb2	14.885668
222	0x41794ad1	15.580766
223	0x416f11f3	14.941882
224	0x416a2a08	14.635262
225	0x4165acaf	14.354659
226	0x416bcf54	14.738117
227	0x41845fc3	16.546759
228	0x416fc062	14.984468
229	0x41654528	14.329384
230	0x417246f4	15.142323
231	0x41691227	14.566932
232	0x417f236e	15.94615
233	0x4185c4f8	16.721176
234	0x4173cf0d	15.2380495
235	0x41667877	14.40441
236	0x414f927c	12.973263
237	0x4151126e	13.066999
238	0x417fd57f	15.989623
239	0x417070b8	15.027519
240	0x416ec07e	14.921995
241	0x4172082b	15.126994
242	0x415c2f63	13.761569
243	0x41863a74	16.778542
244	0x417ebe1d	15.921414
245	0x41712f6f	15.07408
246	0x41593693	13.575824
247	0x41826a1c	16.301811
248	0x417e33d7	15.887656
249	0x415624f8	13.384026
250	0x415fdeeb	13.991923
251	0x416aacbd	14.667172
252	0x417758cc	15.459179
253	0x4180fcee	16.1235
254	0x415eafc8	13.917915
255	0x4161368b	14.075816

network.1.bias f4 [512]
0	0xc129a6c8	-10.603218
1	0xc0f266ec	-7.5750637
2	0xc120aab0	-10.041672
3	0xc10d13f1	-8.8173685
4	0xc0bfc4f3	-5.9927917
5	0xc0d33d6d	-6.6012483
6	0xc11c55fb	-9.770991
7	0xc10c1b52	-8.75667
8	0xc0a4262f	-5.129661
9	0xc130d945	-11.053044
10	0xc127be16	-10.483908
11	0xc1036b01	-8.213624
12	0xc104cbcd	-8.299756
13	0xc11f2f25	-9.94901
14	0xc109c296	-8.610006
15	0xc10dba63	-8.858005
16	0xc10c5409	-8.770516
17	0xc12f27cc	-10.947216
18	0xc13a9e20	-11.663605
19	0xc0a73874	-5.2256413
20	0xc10aeb0f	-8.682387
21	0xc1067e13	-8.40578
22	0xc12334f5	-10.200429
23	0xc0e9a02b	-7.3008018
24	0xc10e348b	-8.887828
25	0xc103ed55	-8.245442
26	0xc11ae8d1	-9.68184
27	0xc11d63cb	-9.8368635
28	0xc0cf052f	-6.469383
29	0xc0b16e02	-5.5446787
30	0xc0e263b0	-7.074669
31	0xc04b6c71	-3.1784937
32	0xc0d9b343	-6.8031325
33	0xbe1721a5	-0.14758928
34	0xc0ee3974	-7.4445133
35	0xc115e2db	-9.367885
36	0xc108ded2	-8.5543995
37	0xc1158b13	-9.346454
38	0xc09955dd	-4.7917314
39	0xc1052bb8	-8.3231735
40	0xc135f6ee	-11.372786
41	0xc133f030	-11.24614
42	0xc11540a0	-9.328278
43	0xc133406e	-11.20323
44	0xc110708f	-9.02748
45	0xc12d9a97	-10.850242
46	0xc1244ead	-10.269208
47	0xc13efc58	-11.936607
48	0xc1146afa	-9.276117
49	0xc1028a75	-8.158803
50	0xc12e31d7	-10.887168
51	0xc10aa89f	-8.666167
52	0xc11ffc7d	-9.999143
53	0xc0e9020d	-7.2815003
54	0xc109a605	-8.603032
55	0xc106be2e	-8.421431
56	0xc1277859	-10.466882
57	0xc0c65303	-6.1976333
58	0xc123535b	-10.20785
59	0xc133fc2c	-11.249065
60	0xc120a3b4	-10.039967
61	0xc0fa4974	-7.8214664
62	0xc10d0762	-8.814302
63	0xc0e0fa77	-7.0305743
64	0xc104ffdc	-8.312466
65	0xc12f157c	-10.942745
66	0xc11667b2	-9.400316
67	0xc0f7db1c	-7.7454967
68	0xc0f1ee34	-7.5603275
69	0xc108dc9e	-8.553862
70	0xc11f5650	-9.958572
71	0xc0c517d4	-6.1591587
72	0xc1205193	-10.019916
73	0xc10a2374	-8.633656
74	0xc00a50d0	-2.1611824
75	0xc0bc8c2c	-5.892111
76	0xc1242593	-10.259173
77	0xc0e79b2b	-7.2376914
78	0xc0e3b61d	-7.1159806
79	0xc120ee5b	-10.058192
80	0xc1353cdd	-11.327359
81	0xc11d5b00	-9.834717
82	0xc0d9f30a	-6.810918
83	0xc10366cb	-8.212596
84	0xc0b426ea	-5.6297503
85	0xc0cc47cb	-6.383764
86	0xc0fe630c	-7.9495907
87	0xc0f6bdc0	-7.710663
88	0xc0cc995e	-6.3937216
89	0xc12ef9c0	-10.935974
90	0xc105cd70	-8.362656
91	0xc1160b95	-9.377828
92	0xc1385d00	-11.522705
93	0xc10e703f	-8.902404
94	0xc10847ac	-8.517498
95	0xc119d1c5	-9.613713
96	0xc0cff693	-6.4988494
97	0xc119fab6	-9.623709
98	0xc0bfaa45	-5.989535
99	0xc12008fb	-10.0021925
100	0xc0f4f2a5	-7.6546197
101	0xc10c92c3	-8.7858305
102	0xc1061283	-8.379519
103	0xc0daa851	-6.8330464
104	0xc0e7db13	-7.2454925
105	0xc10fd755	-8.990071
106	0xc073b160	-3.807701
107	0xc1271c09	-10.4443445
108	0xc0b8659e	-5.7624044
109	0xc08dd054	-4.4316807
110	0xc116c4ec	-9.423077
111	0xc12ac60e	-10.673353
112	0xc10ebc6a	-8.921
113	0xc0f12694	-7.5359592
114	0xc10399e7	-8.225074
115	0xc0fec446	-7.961459
116	0xc10ddbcd	-8.866162
117	0xc1220097	-10.125144
118	0xc11c0a84	-9.752567
119	0xc1088442	-8.5322895
120	0xc12533ad	-10.325116
121	0xc0e36b58	-7.1068535
122	0xc0fbcd6f	-7.8688273
123	0xc148469b	-12.517238
124	0xc10b589a	-8.709131
125	0xc12c1938	-10.756157
126	0xc13188f3	-11.095935
127	0xc100768b	-8.028941
128	0xc1055b53	-8.334796
129	0xc12c7fcd	-10.781201
130	0xc0b42f8f	-5.6308055
131	0xc101a5f8	-8.10302
132	0xc1210ec4	-10.066105
133	0xc10a5f25	-8.648229
134	0xc1132a13	-9.197772
135	0xc0f291da	-7.580304
136	0xc10ef28f	-8.934218
137	0xc13d9a31	-11.850144
138	0xc108afc7	-8.542914
139	0xc09ee285	-4.9651513
140	0xc10cb2eb	-8.793681
141	0xc134a368	-11.289894
142	0xc0db0db1	-6.8454213
143	0xc0b98131	-5.7970204
144	0xc0f6fa75	-7.7180734
145	0xc0f0daf5	-7.526728
146	0xc12697be	-10.412046
147	0xc0bbceed	-5.8690095
148	0xc12a21e2	-10.633272
149	0xc12a8f88	-10.660042
150	0xc136fdc4	-11.4369545
151	0xc0b8bae7	-5.772815
152	0xc11be13c	-9.742489
153	0xc1102a57	-9.010337
154	0xc0f521bb	-7.6603675
155	0xc093211b	-4.597791
156	0xc0c7bc4c	-6.2417355
157	0xc1130150	-9.18782
158	0xc107c445	-8.485417
159	0xc13587a2	-11.3456135
160	0xc130ed93	-11.0580015
161	0xc12a3ea1	-10.64029
162	0xc113c54d	-9.235669
163	0xc0e12673	-7.0359435
164	0xc11771d5	-9.465291
165	0xc10a3dd6	-8.640097
166	0xc10a520f	-8.645034
167	0xc0eb2faf	-7.3495708
168	0xc1217e81	-10.093385
169	0xc0feaf8b	-7.9589286
170	0xc0d2956f	-6.5807414
171	0xc13e20a9	-11.882974
172	0xc0e0e641	-7.028107
173	0xc0a70b58	-5.2201347
174	0xc11b386e	-9.701277
175	0xc1189a39	-9.537652
176	0xc123cae1	-10.237031
177	0xc1188444	-9.532291
178	0xc10e650e	-8.899672
179	0xc11ac712	-9.673601
180	0xc122808b	-10.156383
181	0xc10f13af	-8.942306
182	0xc0ac0106	-5.375125
183	0xc0ec7d11	-7.390267
184	0xc12dba66	-10.858007
185	0xc0e8a886	-7.2705717
186	0xc104ab14	-8.291767
187	0xc13246d7	-11.142295
188	0xc123b188	-10.230843
189	0xc110bb7a	-9.045771
190	0xc11cac6a	-9.792093
191	0xc0f60663	-7.6882796
192	0xc1193b30	-9.57695
193	0xc039001b	-2.8906314
194	0xc11bdf7b	-9.742061
195	0xc10a234d	-8.633618
196	0xc10d8b3f	-8.846496
197	0xc0e18da9	-7.0485425
198	0xc11d5777	-9.833854
199	0xc0ea4421	-7.3208165
200	0xc120f503	-10.059817
201	0xc11b9f01	-9.726319
202	0xc1143087	-9.2618475
203	0xc103d6a3	-8.239902
204	0xc0c5ce38	-6.181423
205	0xc1237ff3	-10.218738
206	0xc10669cd	-8.40083
207	0xc0ccdeff	-6.402221
208	0xc1124a8e	-9.143202
209	0xc13b62b4	-11.711597
210	0xc10c698c	-8.775768
211	0xc0ae706d	-5.451224
212	0xc0f0241a	-7.504407
213	0xc10d5759	-8.833825
214	0xc10b3507	-8.700446
215	0xc0e61584	-7.1901264
216	0xc122c455	-10.172933
217	0xc0fd1b57	-7.9095874
218	0xc0c41f9d	-6.128859
219	0xc12e14e2	-10.880098
220	0xc11f9516	-9.973898
221	0xc103430a	-8.203867
222	0xc1201a43	-10.006412
223	0xc0c01776	-6.002864
224	0xc112fc79	-9.186639
225	0xc0de8ce4	-6.9546986
226	0xc0ef619c	-7.480665
227	0xc1084ce7	-8.518775
228	0xc11e0030	-9.875046
229	0xc13e5b4a	-11.897287
230	0xc1071439	-8.442437
231	0xc0c8c279	-6.2737393
232	0xc10b215c	-8.695644
233	0xc09e87dc	-4.9540844
234	0xc11dda13	-9.865741
235	0xc102a039	-8.164117
236	0xc1084c37	-8.518607
237	0xc101a7f2	-8.103502
238	0xc1229a65	-10.162694
239	0xc11961e5	-9.5864
240	0xc119cb59	-9.612145
241	0xc0d12b32	-6.536523
242	0xc1132fcf	-9.199172
243	0xc12bb81c	-10.732449
244	0xc13a256f	-11.634139
245	0xc1148073	-9.28136
246	0xc12e409c	-10.890774
247	0xc0fe7ad7	-7.952495
248	0xc10fb402	-8.981447
249	0xc10ecda8	-8.925209
250	0xc11e6461	-9.899507
251	0xc10b38e2	-8.701387
252	0xc0d60362	-6.687913
253	0xc111d79f	-9.115142
254	0xc0fe5739	-7.9481473
255	0xc0e5e201	-7.1838384

network.1.running_mean f4 [512]
0	0x3ee08934	0.43854678
1	0x3d94f680	0.07273579
2	0xbed05cf9	-0.40695933
3	0x3d7c0830	0.061531246
4	0x3f416535	0.75545055
5	0xbf260300	-0.6484833
6	0x3f2670e0	0.65015984
7	0x3ee447d2	0.44586045
8	0x3e3cffa7	0.18456899
9	0xbd750828	-0.05982223
10	0xbe62059a	-0.2207245
11	0x3f311eeb	0.691878
12	0x3eed049f	0.46292588
13	0x3c3aa6b0	0.01139228
14	0xbf482150	-0.7817583
15	0xbf0a95b8	-0.541347
16	0x3fc08256	1.5039775
17	0xbf1c765a	-0.6111809
18	0x3ec3d058	0.3824489
19	0xbdaad086	-0.08340554
20	0x3f4e8c8a	0.80683196
21	0xbe7a57fa	-0.24447623
22	0xbf1bb787	-0.60826916
23	0xbe880b26	-0.26571006
24	0x3f6acf6a	0.9172274
25	0x3e86fcaa	0.26364642
26	0x3fc7fc54	1.562388
27	0x3f3d13ea	0.7385851
28	0x3f48e936	0.7848085
29	0x3f982c80	1.188858
30	0x3f76fcb7	0.9647936
31	0xbd3613f8	-0.044452637
32	0x3fd0d1a7	1.6313981
33	0x3ec1b337	0.37832043
34	0x3ef4457a	0.47709256
35	0x3eb42e9c	0.3519181
36	0xbe987946	-0.29780024
37	0x3f91ea1f	1.1399573
38	0xbe723b98	-0.23655546
39	0x3e2b7568	0.16744006
40	0xbf16cebc	-0.589092
41	0x3db05162	0.086092725
42	0xbe58068c	-0.21096247
43	0x3f1bac7e	0.6081008
44	0x3f7b121c	0.9807451
45	0x3e9ee3b1	0.3103309
46	0x3f69fe14	0.9140332
47	0xbf391854	-0.72302747
48	0x3f944c18	1.1585722
49	0xbf53f5bd	-0.8279684
50	0x3fae3216	1.3609035
51	0xbe80e5f0	-0.25175428
52	0xbf872b86	-1.0560157
53	0x3f8484ed	1.0353066
54	0xbf00cd05	-0.50312835
55	0xbf1e7f61	-0.61913115
56	0x3ec7ef82	0.39049917
57	0xbc427fc0	-0.011871278
58	0x3ec8eafb	0.39241776
59	0xbcedaa40	-0.029011846
60	0x3d6f6440	0.058445215
61	0x3e1ee1b2	0.15515783
62	0xbf1148d6	-0.56751764
63	0xbf0b62dd	-0.5444773
64	0x3f2f79dd	0.68545324
65	0x3e39a00f	0.18127464
66	0x3f0098fe	0.5023345
67	0x3fa1e17a	1.2646935
68	0x3d97f6a0	0.07420087
69	0xbe807790	-0.2509122
70	0xbe153d92	-0.14574268
71	0xbdfd02f8	-0.12354082
72	0x3f9683e5	1.1759001
73	0x3dd6a078	0.10479826
74	0xbe6ec800	-0.23318481
75	0xbf85d377	-1.0455159
76	0x3f1657df	0.5872783
77	0x3dc8cacb	0.09804305
78	0x3fbecff2	1.490721
79	0x3f352dfc	0.7077329
80	0xbf1540b8	-0.5830188
81	0xbf841a67	-1.0320557
82	0xbf5004f0	-0.81257534
83	0x3e99f521	0.3006983
84	0x3eaa1589	0.33219555
85	0x3fb83968	1.4392519
86	0x3e01dbdc	0.12681526
87	0xbf9498dc	-1.1609149
88	0x3e3effdd	0.18652292
89	0xbea9e142	-0.3317967
90	0xbe47f0fc	-0.19525522
91	0x3d67ada8	0.056562096
92	0xbf3c9adc	-0.73673797
93	0x3f06b124	0.52614045
94	0xbf4e6c34	-0.80633855
95	0xbf4ae7bc	-0.7925985
96	0x3f4289d9	0.7599159
97	0xbe21ca91	-0.15799929
98	0xbf28759c	-0.6580446
99	0x3dd73959	0.10508985
100	0x3f26f8da	0.6522347
101	0x3f121e85	0.5707782
102	0x3f12ed45	0.57393295
103	0xbef51153	-0.4786478
104	0xbdb13e05	-0.086544074
105	0x3e85303e	0.26013368
106	0xbf769d74	-0.96334004
107	0xbeae16f4	-0.34001887
108	0xbed895a8	-0.4230168
109	0xbf2f9441	-0.6858559
110	0x3e1482a1	0.14502956
111	0x3eb9d7b6	0.36297387
112	0x3f29a294	0.662637
113	0xbf4c8af8	-0.7989955
114	0xbeeec13f	-0.4663181
115	0x3e89750d	0.26847115
116	0xbe48a9c2	-0.19596007
117	0xbe0154f9	-0.12630071
118	0xbf1fe588	-0.6245961
119	0x3f280196	0.6562742
120	0xbe98bfe3	-0.29833898
121	0xbd5db794	-0.054130152
122	0x3e298400	0.1655426
123	0xbf4869fb	-0.78286713
124	0x3ee32fbf	0.44372365
125	0x3df823c5	0.121161975
126	0xbf2a6206	-0.6655582
127	0xbf83eb4b	-1.0306181
128	0x3f869038	1.0512762
129	0x3dc3e9ed	0.09566102
130	0x3fa893f4	1.3170152
131	0x3e12a206	0.1431962
132	0xbed004b4	-0.40628588
133	0x3f2dc2db	0.6787545
134	0x3fab0043	1.3359455
135	0x3f0a0ac6	0.5392269
136	0x3f8acd70	1.0843945
137	0x3f198e7d	0.59983045
138	0x3d144900	0.03620243
139	0x3e33f1c0	0.17572689
140	0x3f95b1c2	1.1694872
141	0x3eaa231e	0.33229917
142	0x3f971717	1.1803921
143	0x3f06187b	0.52381104
144	0x3f7a73d6	0.97833
145	0xbf935dce	-1.1513002
146	0xbf45e130	-0.77296734
147	0x3ece457a	0.4028738
148	0x3d868604	0.0656853
149	0x3f33205c	0.6997125
150	0x3f4ddd98	0.8041625
151	0xbf0ee39f	-0.5581607
152	0xbfa9d36d	-1.3267647
153	0xbe775f8a	-0.24157539
154	0x3d09d6e8	0.033652216
155	0x3b591b68	0.0033127908
156	0x3e026f94	0.12737876
157	0xbe906bea	-0.28207332
158	0x3f31f21c	0.69510055
159	0xbf41b6c6	-0.75669515
160	0xbf0186c2	-0.5059625
161	0xbfc5080e	-1.5393083
162	0xbec47d59	-0.38376883
163	0xbe3b13cc	-0.1826927
164	0x3f6225c6	0.8833889
165	0x3fb4bc94	1.412005
166	0x3e51cc48	0.20488083
167	0x3f55a522	0.834551
168	0x3fc4cb58	1.5374556
169	0x3f933992	1.1501944
170	0xbd9408e8	-0.07228261
171	0xbfca0e6f	-1.5785655
172	0xbe7b1f48	-0.24523652
173	0xbee053e6	-0.4381401
174	0x3fd57df6	1.6679065
175	0x3f1022ab	0.563029
176	0x3f5a7832	0.85339653
177	0xbf10732e	-0.5642575
178	0x3f411747	0.75426143
179	0x3f0213bf	0.5081138
180	0xbed1ed04	-0.4100114
181	0xbedbcfcc	-0.42931974
182	0xbf520242	-0.82034695
183	0xbee08ae2	-0.4385596
184	0xbf2d9e3a	-0.6781956
185	0x3e8b6092	0.27222115
186	0xbf21fe6c	-0.6327884
187	0xbe6acfff	-0.22930907
188	0xbd56b508	-0.05241874
189	0x3eb16bc0	0.3465252
190	0x3ec03182	0.3753777
191	0xbf81585a	-1.0105088
192	0xbf2eedd8	-0.6833167
193	0x3f30ac9e	0.6901339
194	0xbfa4131a	-1.2818329
195	0xbea6d45a	-0.32583886
196	0x3ecf1f37	0.40453503
197	0xbe2f6d33	-0.171315
198	0x3fa6eeba	1.3041604
199	0xbeae20d6	-0.34009427
200	0xbe83e5d8	-0.25761294
201	0xbf8026fc	-1.0011897
202	0xbe93cb98	-0.28866267
203	0x3fb14c78	1.3851461
204	0x3ec30973	0.38093147
205	0xbfe4844a	-1.7852871
206	0xbdbcbbe7	-0.09215527
207	0xbf48fd38	-0.7851138
208	0x3dbb09f0	0.09132755
209	0x3e8756b1	0.26433328
210	0x3e3b905b	0.18316786
211	0x3ea709e9	0.32624748
212	0x3fa2bb16	1.2713344
213	0x3f0b3e59	0.5439201
214	0x3faad292	1.3345511
215	0x3f3f9a46	0.7484478
216	0x3dfc04c4	0.123055965
217	0x3f524da1	0.821497
218	0xbf8c8ed0	-1.0981083
219	0x3ef86bd5	0.4851977
220	0x3e2b4bd8	0.16728151
221	0xbe4ed4d6	-0.20198378
222	0x3f9bdc86	1.2176673
223	0xbe92b0cc	-0.2865051
224	0xbe7fb670	-0.24971938
225	0x3f010f5f	0.5041408
226	0x3f2dbad9	0.6786323
227	0xbf5c250e	-0.8599404
228	0xbfc358d0	-1.5261478
229	0xbdce9ee0	-0.10088897
230	0x3ebd843d	0.37014952
231	0xbf574b42	-0.8409921
232	0x3fa97cac	1.3241172
233	0x3f8d6ea1	1.1049386
234	0xbe4e714a	-0.20160404
235	0x3f6b6a59	0.9195915
236	0x3f527faf	0.8222608
237	0xbf4d121f	-0.80105776
238	0x3fa12b34	1.259131
239	0xbddd4750	-0.108046174
240	0x3ea5e23a	0.3239916
241	0xbf5cbbfa	-0.8622433
242	0xbe8b0d62	-0.27158648
243	0xbef37461	-0.47549728
244	0xbe808578	-0.2510183
245	0xbf5b023b	-0.8555028
246	0x3f951833	1.164801
247	0x3f1b1060	0.6057186
248	0xbe4d6a5a	-0.20060101
249	0x3ec88296	0.3916213
250	0xbeacf48c	-0.33780324
251	0x3fc11d28	1.5087023
252	0x3f2dd694	0.67905545
253	0x3cfd0a10	0.030888587
254	0x3f0840f1	0.5322409
255	0x3fadab56	1.3567913

network.1.running_var f4 [512]
0	0x44d5f18f	1711.5487
1	0x44dd26e2	1769.2151
2	0x44fee44f	2039.1346
3	0x44be5ae8	1522.8408
4	0x44fd91c4	2028.5552
5	0x44b7743d	1467.6324
6	0x44978792	1212.2366
7	0x44d4db2d	1702.8492
8	0x44ba9aac	1492.8335
9	0x44ddc491	1774.1427
10	0x44b36b15	1435.3463
11	0x44e2aa9f	1813.3319
12	0x44e32466	1817.1375
13	0x44ceceb7	1654.4598
14	0x44cf0c33	1656.3812
15	0x44ab6512	1371.1584
16	0x44d2e298	1687.081
17	0x44ce9a15	1652.8151
18	0x44e4f3e9	1831.6222
19	0x44a21386	1296.6101
20	0x44ea29a6	1873.3015
21	0x4500b0d9	2059.053
22	0x44cac216	1622.0652
23	0x44a350f5	1306.5299
24	0x44d6def5	1718.9674
25	0x44ae466a	1394.2004
26	0x44daa1a7	1749.0516
27	0x449cf5a2	1255.676
28	0x44ca1e95	1616.9557
29	0x44c2e567	1559.1688
30	0x44b9982d	1484.7555
31	0x44e11183	1800.5472
32	0x44d1ebad	1679.3649
33	0x44fcaae4	2021.3403
34	0x44be7fae	1523.99
35	0x44c55e34	1578.9438
36	0x44d49342	1700.6018
37	0x44b478da	1443.7766
38	0x44ef4045	1914.0084
39	0x44e680bf	1844.0233
40	0x44e3371c	1817.7222
41	0x44c31b63	1560.8558
42	0x44c698c9	1588.7745
43	0x450cb248	2251.1426
44	0x44c03acf	1537.8378
45	0x44ef1e9a	1912.9563
46	0x44ed1d74	1896.9204
47	0x44f9f4d9	1999.6515
48	0x44d12390	1673.1113
49	0x44c3acb1	1565.3966
50	0x44d12857	1673.2606
51	0x44ba08d6	1488.2761
52	0x44e9bb2c	1869.8491
53	0x44ff7de1	2043.9337
54	0x44b3d96a	1438.7942
55	0x448d9a53	1132.8226
56	0x44da5b85	1746.86
57	0x44acf5ab	1383.6771
58	0x44b73ddf	1465.9335
59	0x44df9ffc	1788.9995
60	0x44f0ceea	1926.4661
61	0x44cd04c2	1640.1487
62	0x44ff4cf0	2042.4043
63	0x44be9065	1524.5123
64	0x44c32bf3	1561.3734
65	0x44c3123e	1560.5701
66	0x45117f43	2327.9539
67	0x44bd2c60	1513.3867
68	0x450766a7	2166.4158
69	0x44e59001	1836.5001
70	0x44ea2329	1873.0988
71	0x44d40ac7	1696.3368
72	0x44ca9375	1620.608
73	0x44c3d67c	1566.7026
74	0x450fd140	2301.0781
75	0x45171d89	2417.846
76	0x450864a3	2182.2898
77	0x44c06d5f	1539.4178
78	0x44a43e13	1313.9398
79	0x44fb7adb	2011.8392
80	0x44d3f8ac	1695.771
81	0x44e6a6ea	1845.2161
82	0x44e2a590	1813.1738
83	0x44cb155c	1624.6675
84	0x44e93bd1	1865.8693
85	0x44c12e63	1545.4496
86	0x44da9eb7	1748.9598
87	0x44c0613b	1539.0385
88	0x44f60a1c	1968.3159
89	0x44d4b6a6	1701.7078
90	0x44e6715f	1843.5428
91	0x44c47660	1571.6992
92	0x44bd3090	1513.5176
93	0x44c331c7	1561.5555
94	0x44b5e717	1455.2216
95	0x44e58ab5	1836.3346
96	0x44e5b16c	1837.5444
97	0x45025f87	2085.9705
98	0x44f8124e	1984.572
99	0x44b761bf	1467.0546
100	0x44c9e8a0	1615.2695
101	0x44da9938	1748.7881
102	0x44cd4ad9	1642.339
103	0x44bacca4	1494.395
104	0x44bf0c01	1528.3751
105	0x44e8b398	1861.6123
106	0x44de853c	1780.1636
107	0x44e97069	1867.5128
108	0x44d54cfc	1706.4058
109	0x44eed524	1910.6606
110	0x44e74e63	1850.4496
111	0x44c7d478	1598.6396
112	0x44f55317	1962.5966
113	0x44d13602	1673.6877
114	0x44f74187	1978.0477
115	0x44a3df4f	1310.9784
116	0x44e81518	1856.6592
117	0x45042ea8	2114.916
118	0x44de3766	1777.7312
119	0x44f2b321	1941.5978
120	0x44a71e0f	1336.9393
121	0x44b94b33	1482.35
122	0x44d03251	1665.5724
123	0x44dd25fe	1769.1873
124	0x44d24de0	1682.4336
125	0x451563fb	2390.2488
126	0x44d1dbc4	1678.8677
127	0x44ed9070	1900.5137
128	0x450ea7f1	2282.4963
129	0x44df9372	1788.6077
130	0x44ed36cd	1897.7125
131	0x44bc6e37	1507.4442
132	0x44e83b4a	1857.8528
133	0x44adc4eb	1390.1537
134	0x45171120	2417.0703
135	0x44b90d5b	1480.4174
136	0x44ca27ad	1617.2399
137	0x44d37c78	1691.8896
138	0x44dc75fa	1763.6868
139	0x44d141e7	1674.0594
140	0x450fee13	2302.8796
141	0x44b630dc	1457.5269
142	0x44d8feb8	1735.96
143	0x44e827fd	1857.2496
144	0x44b80db9	1472.4288
145	0x44cfd38a	1662.6106
146	0x44b254a5	1426.6451
147	0x44cc3bf1	1633.8732
148	0x4514b199	2379.0999
149	0x44a88957	1348.2919
150	0x44cea111	1653.0333
151	0x44e1d210	1806.5645
152	0x45218a96	2584.6616
153	0x44f5229e	1961.0818
154	0x44d331d6	1689.5574
155	0x44cbf79d	1631.7379
156	0x44baa0f7	1493.0302
157	0x44ee0633	1904.1937
158	0x44fb278b	2009.2357
159	0x44ea677e	1875.2341
160	0x44c1f8d6	1551.7761
161	0x44e40c6e	1824.3884
162	0x44afbfb4	1405.9907
163	0x44bc1d9e	1504.9255
164	0x4512d618	2349.3809
165	0x44fae31b	2007.097
166	0x44de9ea6	1780.9578
167	0x44b12e0e	1417.4392
168	0x44c7207b	1593.015
169	0x44f42d99	1953.4249
170	0x44b9e0e6	1487.0281
171	0x44ab71d0	1371.5566
172	0x44c00ca8	1536.3955
173	0x44d708ae	1720.2712
174	0x4513374e	2355.4565
175	0x44ed90da	1900.5266
176	0x44bc1b32	1504.8499
177	0x4500cfe4	2060.9932
178	0x44cbe3aa	1631.1145
179	0x45127402	2343.2505
180	0x44ce332b	1649.599
181	0x44d7e7dd	1727.2457
182	0x44b9efc4	1487.4927
183	0x450f017c	2288.0928
184	0x44b68e09	1460.4386
185	0x44f04d3a	1922.4133
186	0x44c029c5	1537.3053
187	0x44a6fc7b	1335.89
188	0x4503ca82	2108.6567
189	0x44cfef17	1663.4716
190	0x44fb642f	2011.1307
191	0x44e3f79f	1823.7382
192	0x449d3346	1257.6023
193	0x44cbf589	1631.673
194	0x44d78614	1724.19
195	0x44ead345	1878.6022
196	0x44ddd359	1774.6046
197	0x44ea7c18	1875.8779
198	0x44def744	1783.727
199	0x44e7b6c9	1853.712
200	0x44e38fa5	1820.4889
201	0x44d3f8af	1695.7714
202	0x44f77ce4	1979.9028
203	0x44cd9a59	1644.8234
204	0x44b3e2e8	1439.0908
205	0x44fb3125	2009.5358
206	0x4496bf9d	1205.9879
207	0x44a57cfd	1323.9059
208	0x44e62119	1841.0343
209	0x44cc01db	1632.058
210	0x44c105ac	1544.1772
211	0x44c567c3	1579.2426
212	0x44b1eac2	1423.3362
213	0x44c1e89e	1551.2693
214	0x44fa32bb	2001.5853
215	0x44e193f3	1804.6234
216	0x44d68cf9	1716.4054
217	0x44d467d0	1699.2441
218	0x44f50374	1960.1079
219	0x44f77096	1979.5183
220	0x44d50385	1704.11
221	0x44b0c6f7	1414.2177
222	0x44beb7b3	1525.7406
223	0x44c64b7f	1586.3593
224	0x44f9552c	1994.6616
225	0x44dfa12b	1789.0365
226	0x44d41bd9	1696.8702
227	0x44dce424	1767.1294
228	0x44aaf563	1367.6683
229	0x4501f632	2079.3872
230	0x44d460c8	1699.0244
231	0x44c38409	1564.1261
232	0x44ee0c1f	1904.3788
233	0x44d65670	1714.7012
234	0x44e91034	1864.5063
235	0x44c4f229	1575.5675
236	0x44d3c6c3	1694.2113
237	0x44c75842	1594.758
238	0x44d7d678	1726.7021
239	0x44ba9db7	1492.9286
240	0x44aeb759	1397.7296
241	0x44eb3375	1881.608
242	0x44bb2285	1497.0787
243	0x4500dda9	2061.8538
244	0x45109680	2313.4062
245	0x44dc3ca0	1761.8945
246	0x44de210b	1777.0326
247	0x44d6f29b	1719.5814
248	0x44d2e298	1687.081
249	0x44d3dbb3	1694.8656
250	0x44c89318	1604.5967
251	0x44bed349	1526.6027
252	0x44934dbd	1178.4293
253	0x44c0704b	1539.5092
254	0x44a9962f	1356.6932
255	0x44b89e81	1476.9532

network.4.weight f4 [256, 512]
0	0x3ec3c23b	0.38234124
1	0xbf51f77e	-0.8201827
2	0xbfe3a46a	-1.778455
3	0x3f3a8d1f	0.72871584
4	0x3f8f939c	1.1216922
5	0x3ea99343	0.33120164
6	0x3d986643	0.0744138
7	0xbf35c105	-0.7099765
8	0x3d46e1d0	0.048555195
9	0x3f8dda45	1.1082236
10	0x40449f8d	3.0722382
11	0x3faf233a	1.3682625
12	0xc09e8029	-4.9531446
13	0x400f2405	2.2365735
14	0xbc2d2d9b	-0.010569955
15	0x3f82849e	1.0196722
16	0xbc390fd6	-0.0112952795
17	0x3fceb3f9	1.6148673
18	0x3f35f771	0.7108069
19	0x4055cdbe	3.3406825
20	0x4012ba19	2.2926085
21	0xc067361e	-3.612678
22	0x3fbfa55a	1.4972336
23	0xbfb66128	-1.42484
24	0xbe47aca5	-0.19499452
25	0x3f838e91	1.0277883
26	0x3e8246c4	0.25444615
27	0xc00190da	-2.024466
28	0x3f08da69	0.5345827
29	0x3ee77a69	0.4521058
30	0x3fccc876	1.5998676
31	0x3ef1a224	0.47194016
32	0xbf81c886	-1.013932
33	0x3cee4034	0.029083349
34	0x4004257a	2.0647874
35	0x3f641250	0.8909044
36	0x3fb3df87	1.405259
37	0xbf7f0cd0	-0.99628925
38	0x3d884b9a	0.06655045
39	0xbf155b6a	-0.5834261
40	0xbf781e60	-0.9692135
41	0xc0386b3a	-2.8815446
42	0x3fd97727	1.6989487
43	0x403e394b	2.972247
44	0xc0858339	-4.1722684
45	0x3eee9777	0.46599934
46	0xc0280540	-2.6253204
47	0x3f43cb38	0.7648196
48	0xc06622e0	-3.5958786
49	0x3f6f5569	0.934897
50	0x3e837d8c	0.25681722
51	0xbdeb89b6	-0.11500876
52	0xc07a0599	-3.9065917
53	0xbc8f18bb	-0.017467847
54	0xbf0a47d3	-0.54015845
55	0x407226e6	3.7836242
56	0xbfb1aea0	-1.3881416
57	0x3f516ba2	0.8180486
58	0x400604d2	2.0940442
59	0xc00772b2	-2.1163754
60	0xbf8708a4	-1.0549512
61	0xbed85bad	-0.42257443
62	0xbe7a2235	-0.24427111
63	0x4007d739	2.1225111
64	0x3fee9e60	1.8642082
65	0xc008ff17	-2.1405694
66	0x3dde89c7	0.10866123
67	0xbe9dd9fc	-0.3083037
68	0x4040658f	3.0061986
69	0xc02a864e	-2.6644473
70	0x3f93a6c3	1.1535267
71	0x3fc503db	1.5391802
72	0x3f004993	0.50112265
73	0x3f2bc536	0.67097795
74	0xbf851fb8	-1.0400305
75	0xbf2b26fa	-0.6685635
76	0x3f169dea	0.5883471
77	0xc0859b77	-4.1752276
78	0x4005dc61	2.0915759
79	0xbeac4b9a	-0.3365143
80	0x3fae6592	1.3624747
81	0xbde2197e	-0.110400185
82	0x3fe04d29	1.7523547
83	0x3e9395c2	0.28825194
84	0xc00c3c27	-2.1911714
85	0x3edd492d	0.4321989
86	0xc0539a8d	-3.306308
87	0xbf6f54b6	-0.93488634
88	0xbf281588	-0.65657854
89	0x3fa636ba	1.2985451
90	0x3f7996cc	0.9749572
91	0xbf2e0a54	-0.6798451
92	0x40455d9c	3.0838385
93	0xc01d8476	-2.4612098
94	0xbe3bd769	-0.18343891
95	0x3fa71275	1.3052508
96	0xbef14b51	-0.47127774
97	0x3f8081a6	1.0039566
98	0xbee0c892	-0.43903023
99	0x3fe840c2	1.8144763
100	0xbf3e7f59	-0.7441307
101	0xc09b54be	-4.8540945
102	0xbf8589cd	-1.0432678
103	0xbfb21db6	-1.3915317
104	0x3fa2b368	1.2711
105	0x3f0f0551	0.5586749
106	0xc014ec07	-2.326906
107	0xbfd0395e	-1.6267507
108	0xbf83113e	-1.0239637
109	0x3fa7fe11	1.312441
110	0x3ed8536d	0.4225115
111	0x4049ce95	3.1532338
112	0x3f1dbb8e	0.6161431
113	0xbfc9103f	-1.5708083
114	0xc008a503	-2.1350715
115	0x3da0e70a	0.07856567
116	0x3e82ee24	0.25572312
117	0xbc65b470	-0.01402007
118	0x3ffe8a37	1.988593
119	0xc019d125	-2.4033902
120	0xbee24b5d	-0.44198123
121	0xbf87a5fb	-1.0597528
122	0x3ea7daec	0.32784212
123	0xbf8cc3ab	-1.0997213
124	0x3e95b2da	0.29238015
125	0x40771366	3.860559
126	0xbf250194	-0.64455533
127	0xc0aea0aa	-5.4571123
128	0xbe97554b	-0.2955726
129	0xc04d3fd0	-3.2070198
130	0xbe9eba57	-0.3100154
131	0xbf5fb631	-0.8738738
132	0x400b9b22	2.1813436
133	0x3fe6df7f	1.8036956
134	0x3f8ab8a4	1.0837598
135	0x3e85874d	0.2607979
136	0xbfcb0d78	-1.5863485
137	0x3f77a2d1	0.96732813
138	0x3f3ff490	0.7498255
139	0x3ec908dc	0.39264572
140	0xc06738d0	-3.6128426
141	0xbf3e0559	-0.7422691
142	0x3ef26fd7	0.47350952
143	0xbfb2296e	-1.3918893
144	0x3f2876d6	0.6580633
145	0x3e4ae15d	0.19812532
146	0x4017de54	2.3729448
147	0xbee5414a	-0.44776374
148	0x3f97006c	1.1797004
149	0x3f145212	0.5793773
150	0xbef37536	-0.47550362
151	0xc00e676c	-2.2250624
152	0xc0bc08a4	-5.876055
153	0xbfeb4442	-1.8380206
154	0xbeb30c29	-0.34970215
155	0xbfb44637	-1.4083928
156	0xbe8a566c	-0.2701906
157	0x3ec9cd70	0.3941455
158	0x3f0a6dc6	0.5407375
159	0x3f88fa0f	1.0701312
160	0x3f56409e	0.8369235
161	0xbcf84ed8	-0.030311033
162	0x402b3b28	2.6754856
163	0x3f904d39	1.1273566
164	0xbf14a51c	-0.58064437
165	0x3fcdcf6e	1.6078928
166	0x3f7f6d4e	0.9977616
167	0xc01a90fd	-2.4150994
168	0x3f8903fa	1.0704339
169	0x3fdbbaef	1.7166423
170	0xc09a6442	-4.8247385
171	0xbfb49375	-1.41075
172	0xc00df58c	-2.218112
173	0xbd8794a2	-0.06620146
174	0x3ffa59db	1.9558672
175	0x3ee32d4d	0.443705
176	0x401f1fbf	2.4863126
177	0xbf798d1c	-0.9748094
178	0xbeedeaa3	-0.46468076
179	0x40385c71	2.8806422
180	0x3dfffc28	0.12499267
181	0x3fdd9a28	1.731267
182	0xbf030698	-0.51181936
183	0xc036f906	-2.8589492
184	0x3f5a2552	0.85213196
185	0x3f9608aa	1.1721394
186	0x3e1d7882	0.15378001
187	0x4056e04f	3.3574407
188	0x403df8b7	2.9683053
189	0x3ee07b40	0.43844032
190	0x3f9f451b	1.2442964
191	0xbf9394f9	-1.1529838
192	0x3fdabd96	1.7089107
193	0xbf9ed344	-1.2408223
194	0xbf5cc93e	-0.8624457
195	0xbec6a47d	-0.3879737
196	0x3ffb8591	1.9650136
197	0xc030935a	-2.7589936
198	0x3ec1a0a9	0.37817886
199	0xc00b2705	-2.1742566
200	0xc03bf403	-2.9367683
201	0xc01623d9	-2.345938
202	0x3f2b062d	0.668063
203	0x3ed7f969	0.42182472
204	0x3edd1744	0.43181813
205	0xc08816d3	-4.252786
206	0xc0627328	-3.5382786
207	0x3f98016d	1.1875435
208	0xc02f6ae3	-2.7408988
209	0xc0308a33	-2.758435
210	0x3f17be57	0.5927481
211	0x3e5fc991	0.21854235
212	0x3dcd23d2	0.10016598
213	0xbefaae5d	-0.48961154
214	0x3fc58664	1.5431638
215	0xbf62947f	-0.8850784
216	0xc07d9e67	-3.962793
217	0x3f5e220a	0.8677069
218	0x3ffc6c44	1.972054
219	0x3fe0596a	1.7527287
220	0x3f4e715c	0.8064172
221	0xc0084285	-2.12906
222	0xc04a5718	-3.1615658
223	0xbfa4361a	-1.282901
224	0xc0a57f00	-5.171753
225	0xc0414972	-3.0201077
226	0xbfc5a33f	-1.5440444
227	0xbf782da0	-0.9694462
228	0xc0317330	-2.7726555
229	0xbffb0323	-1.9610332
230	0x3f41d8e0	0.7572155
231	0xbf710f60	-0.94164085
232	0xc08d72fa	-4.420285
233	0xbf164b81	-0.5870896
234	0xc01adaa8	-2.4195957
235	0x3dfcb360	0.123389006
236	0x3de6cd44	0.1126962
237	0xbd88e505	-0.06684307
238	0x3fda0551	1.7032872
239	0xbf661af0	-0.89884853
240	0xc0a6440a	-5.1958055
241	0xbfb48535	-1.4103152
242	0x3fac3a01	1.3455201
243	0xc04eb22b	-3.2296245
244	0xc03e2e33	-2.9715698
245	0x3eb3061c	0.349656
246	0x3e84c0cd	0.25928345
247	0xbed80bfe	-0.4219665
248	0x3fb06d5c	1.3783374
249	0xbfbc441b	-1.4708284
250	0xc04bd651	-3.1849558
251	0x3ff01659	1.875682
252	0x3eb14909	0.34626034
253	0xbd5c7a5c	-0.05382763
254	0xbf680bfd	-0.9064329
255	0x3c09a728	0.00840167
