models/NeuralNetwork-1_acc-53.43_loss-0.000002.pth (torch, 893391 bytes, 8 tensors)

network.0.weight f4 [423, 141]
000000 e1 c3 b3 bc 30 43 72 3d 4e 99 28 3d e3 be a6 3d
       -0.021943988 0.059146106 0.041161828 0.081418775
000010 3a 45 93 3c 28 b9 11 bd 7a 3a 64 bd 71 76 82 bc
       0.017977346 -0.03557697 -0.05571983 -0.015925618
000020 e8 55 03 3d 68 36 b3 3d fd ec a9 3d 67 9a e4 3d
       0.03206435 0.087506115 0.08297155 0.111622624
000030 72 34 bb 3d 0e 39 7e 3d ea 3b 02 3d 7f 89 11 3e
       0.091408625 0.06206613 0.03179542 0.14212607
000040 e0 e7 e1 bd 3b 20 20 bc 1c b0 1f 3b d3 7c fe bb
       -0.11030555 -0.009773309 0.0024366444 -0.007766345
000050 29 0d ef 3c d4 e6 bc 3d 02 6c ba bd 16 c6 60 bd
       0.02918108 0.092237145 -0.09102632 -0.05487641
000060 a8 e9 20 bd f7 69 5d 3b 13 30 e5 3d b4 c5 fb 3b
       -0.039285332 0.0033785084 0.1119081 0.00768348
000070 6c fa 21 be 1a 0a f8 bc 22 26 53 bd 9c 93 a4 bd
       -0.15818185 -0.030278254 -0.05155004 -0.08035967
000080 4a 6b 09 3d cf 45 ed 3c df a9 53 3c c7 15 00 3d
       0.033549584 0.028963951 0.012918918 0.03127077
000090 9a 40 d5 3b 6c f5 e4 3a 6c 49 7e 3d 0c 9f 89 bd
       0.0065079452 0.0017468161 0.06208174 -0.06719789
0000a0 db 56 04 3e d1 6c 34 3d fd a5 1b 3d d6 cd e2 3d
       0.12923758 0.044049088 0.038000096 0.11074416
0000b0 ec 58 9d bd 9d c4 8e 3d c7 8e 0f 3c b3 4a 97 bd
       -0.07682976 0.06971095 0.008762068 -0.073872946
0000c0 de 27 41 3d 6c 0d ae 3d 3f ac bf 3d db 1b 2e 3c
       0.04715716 0.08498654 0.09359025 0.010626758
0000d0 f8 99 33 3d 53 b8 93 3c 5d 2e 08 3d e0 75 06 3e
       0.043848008 0.018032229 0.03324734 0.13130903
0000e0 07 10 84 3d f7 95 e1 3b d4 f3 f7 bb c3 48 79 3d
       0.064483695 0.0068843323 -0.0075669084 0.060860407
0000f0 a8 3a 83 3d 8b d3 15 b9 08 db 2a bd aa db 5a 3d
       0.06407672 -0.00014288553 -0.04171279 0.053432144
000100 91 04 b0 3d 3e 17 44 bd 4f c6 61 3d 8a c7 0c 3d
       0.08594621 -0.047873728 0.055120762 0.034369983
000110 1f 88 d1 bd aa 92 03 be 86 91 a1 3c 79 c7 cc bd
       -0.10231041 -0.12848917 0.019722711 -0.09998984
000120 d8 92 f3 bd 5c c6 78 bc cd e8 80 bc 9b d8 17 bd
       -0.118932426 -0.015184011 -0.015736008 -0.037071805
000130 9e bb ff 3c db 3f 28 bd 8b 75 fc bc d5 d1 c9 3d
       0.031217393 -0.041076522 -0.030817768 0.098544754
000140 85 c7 8c bd cc 82 20 bc ed 82 99 3d 65 8b 27 be
       -0.06873993 -0.009796809 0.07495675 -0.16361769
000150 56 b5 04 bd 34 dd e4 3d a2 9b d4 3d fa 9b ab 3d
       -0.032399498 0.11175004 0.10381247 0.083793595
000160 f2 46 81 3d 7e 92 4c 3d 1e 27 6c bd 5b b2 e3 bc
       0.0631236 0.049944393 -0.057654493 -0.027795007
000170 23 fe d1 3d fc 5f ad 3d 70 7e 66 3d 70 db 98 bd
       0.10253551 0.08465573 0.056272924 -0.074637294
000180 a1 f1 66 3d f3 55 14 bb fa 55 be 3c 44 c0 11 3d
       0.05638278 -0.0022634238 0.023234356 0.03558375
000190 74 46 f7 bc fd d9 73 3c ff 44 1b 3d 8b 8d 3c 3d
       -0.030184962 0.014883515 0.037907597 0.046033423
0001a0 bb 3b dd bd 37 66 4b 3d 74 97 90 bd 61 be 3d 3d
       -0.10802408 0.049658027 -0.070601374 0.046324138
0001b0 0f 95 7d 3d ae 18 0b 3e 30 d6 85 3c 45 e6 91 bd
       0.06190973 0.13583633 0.016337484 -0.071239986
0001c0 56 ab eb bc 96 7d cd bc 53 4c fa bc b2 29 9a 3d
       -0.028768223 -0.025084298 -0.030553972 0.07527484
0001d0 e9 06 59 bd 0c ed 04 3d 27 2c e2 bd dd 10 ca 3d
       -0.052985106 0.032452628 -0.11043578 0.09866498
0001e0 fb a2 24 bd 2d 75 e9 3b ae 1c 19 3d 66 b3 0b 3c
       -0.040194493 0.007124564 0.037380867 0.008526659
0001f0 03 44 f2 3c 29 fc 0b 3e 63 0c 75 bd a4 aa ea 3c
       0.029573446 0.1367041 -0.059826266 0.02864582
000200 12 55 9b bd 70 a8 99 3c 64 59 1e bc c8 dd b5 bd
       -0.07584585 0.018757075 -0.009664867 -0.08880192
000210 e4 f3 ce 3a 4d c8 84 3d 75 3f 2b 3d b4 12 35 3d
       0.0015789238 0.06483517 0.041808564 0.04420729
000220 92 a2 d2 bc ed c1 be 3c fa 34 3f 3d 0d 78 71 bd
       -0.025712285 0.02328583 0.04668138 -0.05895238
000230 7f 46 45 3e ed 85 f9 3a 5f d1 23 bd 3f 13 9d 3d
       0.19265173 0.0019037105 -0.039994594 0.076696865
000240 50 b0 04 bd 8e 40 b3 bd c1 5c 99 3c 5a 5b aa 3b
       -0.032394707 -0.08752547 0.018720986 0.0051988782
000250 15 56 61 bc aa 99 d5 bc 55 dd 21 3c a4 fb a0 bb
       -0.013753434 -0.02607425 0.00987943 -0.0049128104
000260 fb 2a a6 3d 30 9b 14 bc db 29 5a 3d 23 9f 5c 3d
       0.081136666 -0.009070203 0.053262573 0.053862702
000270 01 c8 24 3e 5a dd 83 be 85 db 73 bb ea c2 8b bd
       0.1609192 -0.25754815 -0.0037209701 -0.06824286
000280 a0 f9 51 bd 15 9b bd bc 5f 34 96 3d 3d 6d 2b bd
       -0.05126345 -0.023145238 0.07334208 -0.041852225
000290 8e 1f 83 bd bf 64 fc 3c 30 b3 3c 3c 9f 5f a4 bc
       -0.06402503 0.030809758 0.011517331 -0.020065127
0002a0 6c 81 e1 bd 9f 2a e2 bb 0b 4b 02 bd ae 4a 8f bb
       -0.110110134 -0.0069020535 -0.031809848 -0.004372916
0002b0 42 0d c9 bd cc b9 7e bd 55 c4 ab 3c 29 9f 64 3d
       -0.09816982 -0.06218891 0.020967642 0.05581585
0002c0 c5 af b7 bc 62 02 80 3c b5 9e 82 bd db ad 04 3d
       -0.02242268 0.015626136 -0.06377927 0.032392364
0002d0 b1 0a 6a bd ab ac 79 3a 75 9a a0 bd a6 c4 cc bb
       -0.057139102 0.0009524326 -0.0784196 -0.0062490283
0002e0 94 7e b7 bd be 0a 29 3c 86 c1 39 3c 7f e9 08 bd
       -0.0895969 0.010317503 0.0113376435 -0.033425804
0002f0 64 4f 83 3c c7 51 b9 bd ba 38 20 bd ff 7e a4 bd
       0.016029067 -0.09048801 -0.0391166 -0.08032035
000300 ce e8 91 b9 c6 ec 80 bc 57 36 d5 bd 7a c4 80 3c
       -0.00027830008 -0.015737902 -0.10410755 0.015718687
000310 87 ee e1 3d 79 6d 9c 3c c1 db 8b bd f2 d1 8b bc
       0.110318236 0.01909517 -0.06829024 -0.017067883
000320 c5 13 73 3d e0 b2 1a bd 22 0a 41 3d 52 d0 a8 3d
       0.059345026 -0.037768245 0.047128804 0.08242859
000330 8f b3 b8 bc 85 8b 19 bb 88 6d aa 3d c9 16 87 bc
       -0.022546558 -0.0023429107 0.08321673 -0.016490357
000340 52 96 77 3d 29 92 83 bd 4c 14 3b 3b 7f 96 24 bd
       0.06044609 -0.06424362 0.0028546033 -0.040182587
000350 54 06 2a bc 95 2c 5a 3b 4d 34 41 bd 9b 46 f5 bc
       -0.010377485 0.0033290733 -0.04716902 -0.029940894
000360 6c d1 a8 bd 98 e5 c3 3d b8 46 8f bc 91 9c 5e bb
       -0.08243069 0.09565276 -0.017489776 -0.0033967833
000370 8c 9e 65 bd 08 20 9d 3c a4 a8 0d bd a7 86 65 bc
       -0.056059405 0.019180313 -0.034584656 -0.014009154
000380 b6 b8 48 3d 35 69 c0 bb 16 9a 32 bd 61 ec 56 bd
       0.04900428 -0.0058719167 -0.04360398 -0.052471522
000390 83 66 27 bc 2d 63 94 bd 7d dd 72 bd 35 8e 35 3c
       -0.010217312 -0.07245479 -0.05929326 0.011081268
0003a0 eb a9 10 3c bc 54 cc 3c 67 2d ed 3c 03 ee a2 bd
       0.008829574 0.024942748 0.028952314 -0.079555534
0003b0 e9 c2 e9 3d 96 b3 64 3d d0 bf ca bd f0 4a 8c 3b
       0.11414129 0.05583533 -0.098998666 0.004281394
0003c0 cb 42 d2 3d b2 d3 72 bc a0 03 01 3b 3d e6 d2 bd
       0.10266646 -0.01482098 0.0019685999 -0.10297821
0003d0 65 fb f0 bc d3 bd 9a bd 1f c4 c0 3d 1b d1 62 bc
       -0.02941675 -0.07555737 0.09412407 -0.0138438
0003e0 03 47 c3 3d f0 65 68 3d 43 eb be bd 7c 77 3d bd
       0.09535029 0.05673784 -0.09322216 -0.046256527
0003f0 38 fd 93 bd 98 29 f4 3c 91 40 d0 3c 8d 38 9e bc
       -0.07226032 0.02980499 0.025421413 -0.019314075

network.0.bias f4 [423]
000000 01 a7 7e be 83 b5 6c be 4d 14 3a be b5 33 2e be
       -0.24868394 -0.23116116 -0.18171807 -0.17011912
000010 03 1e 69 be 4b 5e 21 be a1 1c a0 be 37 a3 56 be
       -0.22765355 -0.15758626 -0.31271842 -0.20960699
000020 b8 07 9d be a9 dd 8a bd 85 2a 6c be 0d 09 14 be
       -0.3066995 -0.067805596 -0.23063095 -0.14456578
000030 10 d8 d8 bd ff ae cd bd fd 2f 94 bc bc 2b 4d be
       -0.10588086 -0.100431435 -0.018089289 -0.20036215
000040 6d 65 2e be d3 51 d6 bd 88 7a 01 be 7e 4d 6d be
       -0.17030878 -0.104648255 -0.12644398 -0.23174092
000050 35 bb 90 be e0 ea cc bd 04 ce 4a bd 1d 08 17 be
       -0.28267828 -0.10005736 -0.049512878 -0.14749189
000060 83 e4 86 be 2f 2d 47 be 2e eb 40 be 98 72 34 be
       -0.26346216 -0.1945083 -0.18839714 -0.17621839
000070 6a 3f 24 be 93 d7 b3 bd 53 47 35 be b0 10 8f be
       -0.16039816 -0.08781352 -0.1770299 -0.2794242
000080 b9 84 01 be 51 93 29 be 60 fc 46 be c7 a6 70 be
       -0.12648286 -0.16560103 -0.19432211 -0.2350112
000090 e3 bb 8d be c9 ae 95 be 83 86 42 be 64 2a 6c be
       -0.2768241 -0.29234913 -0.18996625 -0.23063046
0000a0 99 b6 81 be 2e 80 eb bd 9e fc 3b be ab 49 1c be
       -0.25334623 -0.11499058 -0.18358085 -0.15262477
0000b0 8f 56 1e be c0 48 28 be 31 54 29 be be 45 2d be
       -0.15462707 -0.16434002 -0.16536023 -0.16921136
0000c0 c0 20 64 be ff 88 99 be 01 21 50 be ac b9 27 be
       -0.22278118 -0.29987332 -0.2032509 -0.16379422
0000d0 a9 fd 24 be df 2c 31 be e8 6c 81 be 5e 76 63 be
       -0.16112389 -0.17302273 -0.252784 -0.22213122
0000e0 c7 41 bd bd c8 36 11 be cd 43 74 be c8 53 f2 bd
       -0.09241062 -0.14181054 -0.23853989 -0.11832386
0000f0 e1 40 11 be ed c0 c4 bd 77 36 3a be 71 0e 9b bd
       -0.14184906 -0.0960711 -0.18184839 -0.07571114
000100 18 8d 74 be 58 7f 14 be c2 95 9e be 57 ff 6c be
       -0.23881948 -0.14501703 -0.3097363 -0.2314428
000110 f6 28 2a be a8 b8 48 be 65 8c 81 be 59 3b b9 be
       -0.16617188 -0.19601691 -0.25302425 -0.3617809
000120 67 64 4b be 12 23 19 be d3 7e f2 bd 62 09 5c be
       -0.19862519 -0.14954785 -0.11840596 -0.21487954
000130 c8 25 ee bd 0f 81 0d be 3b 95 8b bd 99 f9 8c be
       -0.116283 -0.13818763 -0.06815573 -0.27534178
000140 a9 0c 52 be 30 dc 26 be a7 be 07 be 76 26 a3 bc
       -0.20512642 -0.16294932 -0.13256322 -0.0199158
000150 d6 e9 20 be 66 84 1a be ba 64 e8 bd 2b 38 8a be
       -0.15714201 -0.15089568 -0.11347337 -0.26995978
000160 ac 96 45 be ff aa 5a be 0f a7 1d be c5 16 9b be
       -0.19295758 -0.21354292 -0.15395759 -0.3029081
000170 2d 61 1f be b0 13 4c be 57 5d 63 be 73 36 59 be
       -0.15564413 -0.19929385 -0.22203575 -0.21212177
000180 31 a4 ee bd 83 58 8d be 65 6d f7 bd c5 79 16 be
       -0.11652411 -0.27606592 -0.12081412 -0.14694889
000190 7e 69 5b be 81 28 b5 bd de b2 a4 be 13 f0 c0 be
       -0.21426961 -0.08845616 -0.32167715 -0.37683162
0001a0 30 37 65 be db e4 87 bd 02 38 77 be 5b 3c 38 be
       -0.22384334 -0.066354476 -0.24142459 -0.17991774
0001b0 e9 e3 fe bd 70 26 5d bd b3 e7 9c bd b1 3f 94 be
       -0.12445814 -0.053991735 -0.076613806 -0.28954843
0001c0 50 83 4d be f7 1d 20 be d0 3f 58 be 61 e1 42 be
       -0.20069623 -0.1563643 -0.21118093 -0.19031288
0001d0 8a 92 32 be d0 9d 7a be 51 1e ce bd cd b9 83 be
       -0.17438713 -0.24474263 -0.10064376 -0.25727692
0001e0 3d 9c 5c be 34 48 41 be 08 c9 33 be 78 f8 c5 bd
       -0.21543975 -0.188752 -0.17557156 -0.09666532
0001f0 00 eb d1 bd a8 d8 10 be 67 a5 d3 bd b8 a4 37 be
       -0.10249901 -0.14145148 -0.10334282 -0.17933929
000200 e1 66 38 be 47 e5 1d be 23 64 f6 bd a0 5e 78 be
       -0.18007995 -0.15419494 -0.12030818 -0.24254847
000210 9f 35 16 be 7f aa 52 be a5 79 4c be c8 fb 8f bd
       -0.14668892 -0.20572852 -0.19968279 -0.07030445
000220 f0 be eb bd 80 3e 5c be cb 35 46 be d0 e2 fe bd
       -0.11511028 -0.21508217 -0.19356458 -0.12445605
000230 1f c9 30 be ca b0 f2 bd 60 90 91 be b6 80 8a be
       -0.17264222 -0.11850126 -0.28430462 -0.27051324
000240 96 90 d3 bd 9d c4 01 be 90 2f 4a be 97 fa 62 be
       -0.10330312 -0.12672658 -0.19744706 -0.22165905
000250 5c d2 b8 bd f8 e1 c9 bd 42 2b 6a be 63 2e 1f be
       -0.09024498 -0.09857553 -0.22868064 -0.15545039
000260 40 8e 80 be b7 55 e2 bd 9e e1 90 be d4 62 c5 bd
       -0.25108528 -0.11051505 -0.28297132 -0.096379906
000270 e5 46 02 be 35 39 62 be 12 28 13 be 6f 99 03 be
       -0.12722357 -0.22092135 -0.14370754 -0.12851499
000280 21 71 46 be 63 20 21 be d8 a8 80 be 01 53 83 be
       -0.19379093 -0.15735011 -0.25128818 -0.25649264
000290 18 d1 9b bd 97 78 53 be 14 94 ea bd e7 e4 3b be
       -0.07608241 -0.2065147 -0.11454025 -0.18349038
0002a0 6a 0b 58 bd e0 80 43 be 60 e8 73 be 36 16 2c be
       -0.05274526 -0.1909213 -0.23819113 -0.16805348
0002b0 79 6a 22 be 5b c0 9d be 3f d1 7a be 78 58 32 be
       -0.15860929 -0.30810818 -0.24493884 -0.1741656
0002c0 99 df 4c be 39 fc e4 bd c0 52 31 be c0 f3 24 be
       -0.2000717 -0.1118092 -0.17316723 -0.16108608
0002d0 83 82 9e be 07 28 61 be 62 f0 7e be bc 24 30 be
       -0.30958948 -0.21987925 -0.24896386 -0.17201513
0002e0 eb af f2 bd fb c7 3f be 24 c4 c0 bd 30 2f a8 be
       -0.1184996 -0.1872863 -0.09412411 -0.328485
0002f0 4a 56 32 be 7d 55 07 bb af 6b e7 bd 7d 4c 62 be
       -0.17415729 -0.002065032 -0.11299836 -0.2209949
000300 84 f2 27 be 91 19 45 be 02 82 8e bd 72 25 84 bd
       -0.16401106 -0.19248034 -0.06958391 -0.064524546
000310 bc ce 44 be cf 52 78 be 1d b9 49 be ed 03 1d be
       -0.19219488 -0.24250339 -0.19699521 -0.15333529
000320 6e 3f 1f be ee da 02 be 9f a1 a2 be 6e 8a 4e be
       -0.1555154 -0.12778828 -0.31763932 -0.20169994
000330 6f c6 2a be 22 5c 07 be 07 ae 21 be 90 57 86 be
       -0.16677259 -0.1321874 -0.15789042 -0.2623868
000340 84 28 44 be f6 24 66 be 67 38 7b be c6 a8 47 be
       -0.1915608 -0.22475037 -0.24533235 -0.19497976
000350 a4 14 4d be af 48 f3 bd 5d 52 17 be dc 11 1f be
       -0.20027405 -0.11879098 -0.14777513 -0.15534157
000360 50 da 0f be 1e b5 10 be 85 b6 44 be e0 6c 77 be
       -0.14048123 -0.1413159 -0.1921025 -0.24162626
000370 19 01 b6 bd 73 59 2c be be dd cb bd 72 d5 63 be
       -0.08886928 -0.16830997 -0.09954403 -0.22249392
000380 59 c4 f2 bd 66 18 6b be 65 66 a3 bd 08 4f fb bd
       -0.118538566 -0.22958526 -0.079785146 -0.122709334
000390 90 90 42 bd 44 f0 37 be ae c0 55 be 97 32 78 be
       -0.047501147 -0.17962748 -0.20874283 -0.24238048
0003a0 cc ec 76 be 96 68 a9 bd 17 c9 18 be be 26 52 be
       -0.24113768 -0.08271901 -0.1492046 -0.20522591
0003b0 c0 8a 4c be b6 1c 5d be d2 61 35 be 46 5e 44 be
       -0.19974804 -0.21592984 -0.17713097 -0.19176587
0003c0 94 49 04 be 6f 92 e2 bd 96 d7 61 be 18 9a 02 be
       -0.12918693 -0.11063086 -0.22054896 -0.12754095
0003d0 ed 42 d9 bd 17 4e 96 be 54 77 41 be 1d 67 95 bd
       -0.10608468 -0.29356453 -0.18893176 -0.07295058
0003e0 0a 3a 4d be dd ca 9e be db ec fb bd 39 fb 4f be
       -0.20041671 -0.31014147 -0.12301036 -0.20310678
0003f0 81 b4 09 be c8 81 32 be 95 5d 6a bd 6f ff 2d be
       -0.13447763 -0.1743232 -0.057218153 -0.16991971

network.3.weight f4 [282, 423]
000000 ea 36 a4 3d 02 87 82 3b b0 19 5c bd 06 11 d7 3c
       0.080182865 0.0039833793 -0.053735435 0.026253235
000010 fd 8d 9a bc 97 27 ea bc 31 e7 f7 3c d8 95 96 bd
       -0.018866533 -0.028583331 0.030261608 -0.07352799
000020 b5 4d a5 3d 75 28 a9 bc 59 a3 1a bd 58 53 30 3d
       0.08071462 -0.020649174 -0.037753437 0.043048233
000030 16 86 a5 3c 54 fb de bc be 0e b6 bd 00 a5 a8 bc
       0.020205539 -0.027219452 -0.088895306 -0.02058649
000040 79 c9 6b b9 50 26 5f 3c 91 e8 d5 bc 20 a5 08 bd
       -0.00022486401 0.013619974 -0.026111873 -0.0333606
000050 4f af 44 bd 57 bf 25 bd 76 fe 23 3d 9e 86 2f bc
       -0.04801875 -0.04046568 0.040037595 -0.010713248
000060 6b 12 94 3d f9 46 a8 bd cc ea b9 3c ed e9 8a bc
       0.072300754 -0.08216662 0.022694968 -0.016957248
000070 7b c2 ad bc a6 2c 00 3d d2 2c 54 bd f6 66 37 3d
       -0.0212109 0.03129258 -0.051800556 0.044775926
000080 e3 77 ff bc da bc 73 3d 52 ec 16 bd fc de 79 bc
       -0.031185096 0.059506275 -0.036846466 -0.0152509175
000090 ef dc 59 3d 5f 8d 58 3d 74 18 a0 bd a5 40 b3 bc
       0.053189214 0.052869197 -0.07817164 -0.02188141
0000a0 9d d7 77 bc a4 02 2b 3c b3 29 85 3d 92 b4 3c 3d
       -0.01512709 0.010437641 0.06502094 0.046070643
0000b0 c9 63 93 bc 51 e8 c3 bc cd 5b 7e bb 05 e1 40 3c
       -0.017991917 -0.023914488 -0.0038812042 0.011772399
0000c0 7e 42 97 3d 52 d3 50 3d b3 1b d0 3d 53 82 0a 3d
       0.07385729 0.05098278 0.10161533 0.033815693
0000d0 c3 b9 02 bd 59 d0 86 bc a0 d2 be bc 3f 43 66 3c
       -0.031915437 -0.01645677 -0.023293793 0.014054119
0000e0 c4 52 5d bc 0c 9c a9 bd f7 f3 7f bd 75 91 cd 3d
       -0.013508502 -0.08281717 -0.062488522 0.10037509
0000f0 5d 0d d5 bc 6e 76 3f bd 47 9a 40 3d 98 92 86 3d
       -0.026007349 -0.046743803 0.04702213 0.06570929
000100 a0 ce 14 3b 4d 14 44 bd e2 49 6d bc 5b 20 12 bc
       0.0022706166 -0.047870923 -0.014482947 -0.008918847
000110 b4 5f 79 3d 65 80 03 3d 73 90 bf 3d 98 0e f6 3c
       0.060882285 0.03210487 0.093537234 0.030036256
000120 d6 92 41 3d 32 c8 1f bc 8a b8 e0 bc 1a b0 d8 ba
       0.047259174 -0.00975232 -0.027431745 -0.0016531975
000130 9f bb df 3a 45 d1 72 3c ae 6b bf 3c 42 4d ee bd
       0.0017069465 0.014820402 0.023366775 -0.116358295
000140 90 7d 71 bc c9 d2 7c 3d 3e 91 44 3d c5 a6 a8 bc
       -0.014739409 0.061724458 0.047990076 -0.020587334
000150 08 e5 9f bd 48 10 6a 3d 63 82 92 bd cd 27 be bd
       -0.07807356 0.057144433 -0.071537755 -0.09284935
000160 45 88 3d bd 76 ea 2d 3d a6 d2 8e 3b b8 de 77 3d
       -0.046272535 0.042459927 0.0043586073 0.060515136
000170 8f 88 7d bd 4f 0d 4b bd 23 e6 36 bc 08 1b f0 bc
       -0.06189781 -0.04957324 -0.011163267 -0.029309765
000180 ba 8e 9d bc e9 e1 56 3d c2 ba 58 3d 20 03 c5 bd
       -0.019233096 0.05246154 0.05291248 -0.09619737
000190 76 75 28 bd a0 ba 0e bd 40 af 9a 3d ab db 0b bd
       -0.041127644 -0.03484595 0.075529575 -0.03414504
0001a0 a1 a3 76 3d e1 4d 8f 3b 9d e5 74 3d 04 5d e1 3d
       0.060214642 0.0043732976 0.05978929 0.110040694
0001b0 9b 3d a0 bd 8f 4b 6c bd 94 a7 0e bd 0a dc 1f bc
       -0.0782425 -0.057689246 -0.034827784 -0.009757051
0001c0 d4 e4 29 3d 37 60 81 3b b5 7b c2 bd 2a 39 1d 3d
       0.041477993 0.0039482373 -0.094962515 0.038384594
0001d0 15 8f 13 bd cf 96 84 3d 37 6d a7 3b 56 87 e6 bd
       -0.036025126 0.06474077 0.005109455 -0.11256282
0001e0 c8 bb 91 3d 83 6b 83 3c c0 1e 6d 3d 3d 0d 46 3d
       0.071158946 0.016042477 0.057890654 0.04835247
0001f0 d3 2d 8c bb c2 5b 11 3d 2e 8e 9c bd dc 7c 84 3c
       -0.0042779236 0.035487898 -0.07644306 0.016172819
000200 64 3a 27 bd 6d 0c 20 3c 2f bb ca bd 6f 2f fb bc
       -0.04082717 0.009768588 -0.09898984 -0.030662267
000210 5a 84 f8 3b 49 1c 16 bc 0c 6d fe 3b e2 58 a9 bc
       0.007584137 -0.009162017 0.0077644642 -0.020672265
000220 fb c6 3d bd 32 01 54 bd 4d 2e 09 bd 48 5f 7a bd
       -0.04633234 -0.051758952 -0.03349142 -0.061126024
000230 f2 9b 9d 3c 49 9f fd ba ea f8 b6 3d 90 4f c4 3d
       0.0192394 -0.0019349839 0.08934195 0.09585488
000240 17 83 57 bd d5 0e af bc e5 25 12 bd 58 b1 d2 bc
       -0.05261525 -0.021369377 -0.03568067 -0.02571933
000250 99 d0 ce 3c 5e 99 84 bc 63 8b b3 3c 65 db e6 bd
       0.025245951 -0.016186412 0.02191705 -0.11272315
000260 4d 10 68 3c 2d 9d 10 bc 97 8e ab 3c b9 3c 1f 3d
       0.014164043 -0.008826536 0.020942016 0.03887627
000270 8d 0f 0c bd 06 17 11 bd f0 dc 78 3c 2f 7e 6a 3d
       -0.034194518 -0.035422347 0.015189394 0.057249244
000280 bc 02 3a 3d 6e 32 ef 3c 0d ae 2f bd af cb b7 3a
       0.045412764 0.029198851 -0.042890597 0.0014022494
000290 2d 4e a2 3d aa b6 7a 3c 2d cf 0f bc 58 da f0 3c
       0.07925067 0.01530234 -0.008777422 0.02940099
0002a0 f4 88 03 3d 53 c5 33 3d 62 3f 07 bc 6c 8a 45 3d
       0.03211303 0.043889355 -0.008254858 0.048227713
0002b0 41 ef 85 bd c4 de a4 3d 37 2a aa bd d9 77 18 3d
       -0.06539775 0.08050302 -0.08308833 0.03722367
0002c0 9a ac 54 bd 0f a5 8d bc d8 97 48 bd b9 c3 da bb
       -0.05192242 -0.01729062 -0.048972934 -0.006676164
0002d0 40 d3 bb 3c c6 b9 18 3d 74 ac 1c 3d 72 87 2d bd
       0.02292788 0.037286542 0.0382504 -0.0423655
0002e0 35 06 2b bc 98 f4 a2 bc a4 c9 ac 3d b2 71 a9 3a
       -0.010438492 -0.019892022 0.084368974 0.0012927561
0002f0 30 29 45 bd ed b2 38 bb 58 42 23 3c f2 c5 3f 3d
       -0.048134983 -0.002818282 0.009964548 0.046819635
000300 1a 58 e4 3c c9 b4 95 bc c4 39 03 3c 7b f2 bd bc
       0.027874041 -0.018274682 0.008009378 -0.023186913
000310 fa 84 9e 3c 09 f0 26 3b f1 ce 33 3d b6 9f 73 3d
       0.019350518 0.0025472662 0.043898527 0.059478484
000320 f1 df 58 bd 4b 22 91 3d 87 1c b1 3b 08 e5 e2 3d
       -0.052947942 0.07086619 0.005405012 0.110788405
000330 bd 64 44 3b 83 73 4e bd 5d 1c 5d 3d 5b b7 23 3d
       0.0029967271 -0.05040313 0.053982127 0.039969783
000340 91 20 85 bd 4a ee ac 3c cf 51 d0 3c 75 92 13 3c
       -0.06500352 0.021109719 0.025429634 0.009007086
000350 80 f2 93 bc 2e 03 89 3d 2e 1f 30 3c 0c bd e4 3b
       -0.018059969 0.066900596 0.010749621 0.006980544
000360 6b 00 89 bd 39 bc 40 3c 8a fe 08 3c 1a eb 50 bd
       -0.06689533 0.011763626 0.008361468 -0.05100546
000370 4b 15 12 bd de 22 13 bd 64 af 39 bd 5c 5b 6a bc
       -0.035664838 -0.035921924 -0.04533328 -0.014304008
000380 18 3b b3 bb 4b e9 5d bd 6b 12 97 3b 1b f5 15 3d
       -0.005469691 -0.054177564 0.00461035 0.036610704
000390 48 c3 5b 3d ae bd 8a 3d 51 17 1a 3d d1 da b1 bb
       0.05365303 0.0677446 0.037619893 -0.0054276963
0003a0 16 01 44 bc f6 de ac bd a0 51 f9 38 9f 2e f6 3c
       -0.0119631495 -0.08440964 0.00011888449 0.030051528
0003b0 c2 e2 32 bd 6b b7 48 3c b7 db 93 3c ca bd 96 3d
       -0.043673284 0.0122507615 0.018049104 0.07360418
0003c0 0c a3 03 bd 09 e5 c9 3b db 2e 98 3d d5 65 21 bd
       -0.032137915 0.0061613363 0.07430812 -0.039403755
0003d0 44 ed 6c bd 48 18 35 3d 8c 24 48 bd d8 01 71 3c
       -0.05784346 0.04421261 -0.04886298 0.014709912
0003e0 e3 93 c7 bd d9 83 06 bd ae ad 93 3c 57 39 0f bc
       -0.09745004 -0.032840583 0.018027153 -0.008741698
0003f0 92 73 02 bd 8a 19 99 3c cc 36 88 3c fa 63 1d 3c
       -0.031848498 0.018688936 0.016627692 0.009606356

network.3.bias f4 [282]
000000 6b 84 11 bd 60 d3 8e 3d c5 3b 9b 3b 07 0b 87 ba
       -0.035526674 0.0697391 0.0047373497 -0.0010302969
000010 39 7f b9 bc a0 86 20 bd 43 5d 30 bd 49 c4 08 bd
       -0.022643672 -0.03919089 -0.04305769 -0.033390317
000020 3b 91 86 bb a9 8b d1 bc 14 13 e3 3d de e5 94 3a
       -0.0041066683 -0.02557929 0.11087623 0.001136001
000030 d8 d2 17 3d 30 b8 13 3b 76 b9 e4 3c d9 e8 8e bd
       0.03706631 0.0022540204 0.027920466 -0.06978006
000040 b5 a7 95 bd 95 d9 5d 3d dd 4a 7c 3c 7c a1 df 3b
       -0.07307378 0.05416258 0.015398708 0.0068246704
000050 0a ab d8 3c 3c 24 6f 3b 8f 70 76 bc cc 70 06 bb
       0.026448745 0.0036490103 -0.0150414845 -0.002051401
000060 56 20 d4 3c 02 52 95 3b bb c1 5f 3d c0 c4 53 3d
       0.025894325 0.0045568952 0.054628115 0.051701307
000070 fe a1 b2 bb 90 3b 86 bb 1b e1 ad bc 60 f5 1b bd
       -0.00545144 -0.004096456 -0.021225503 -0.038075805
000080 75 ed 22 bb 2f d0 01 bd ae f2 b2 3d ea 04 e6 3c
       -0.0024860774 -0.03169268 0.08737694 0.028078515
000090 33 13 a9 bc 69 23 c5 3c 2e 4a 56 3c bf a3 aa 3d
       -0.020639038 0.024064736 0.013079209 0.08332013
0000a0 df 6f a1 bd d1 99 1f bc 37 79 a3 3d 93 47 32 3d
       -0.07882666 -0.0097412625 0.07982104 0.04352529
0000b0 16 c4 13 bd 82 2c 3c 3d 6e a0 97 3d 8d a7 0d bd
       -0.036075674 0.045940883 0.074036464 -0.034583617
0000c0 1a c8 26 3d f9 a8 46 3c 06 48 26 3c 14 2e 10 3d
       0.040718175 0.012125247 0.010149008 0.035200194
0000d0 17 df 21 3d 6d 04 18 bd f1 c7 73 3c 48 ab 80 3d
       0.039519396 -0.037113596 0.014879213 0.06282669
0000e0 30 0d 01 bb 11 4e 22 bd 5d 7d ac 3d c3 56 35 3c
       -0.0019691698 -0.03962523 0.08422349 0.011068049
0000f0 aa de 7f bd 28 90 53 3d c0 fe 07 3d e5 61 d1 3c
       -0.06246821 0.05165115 0.033201933 0.025559375
000100 01 cd af ba 71 13 f5 bc 26 ad 39 3d 84 71 6f 3d
       -0.0013412536 -0.029916497 0.045331143 0.058457866
000110 5f f8 6a 3d 9f 30 85 3b 3e a0 20 bd 7f 22 06 3c
       0.05736577 0.004064634 -0.03921532 0.008186935
000120 fe 73 f2 3a ae 2e af 3c 88 24 07 3d 66 0e a8 bc
       0.0018497703 0.021384563 0.032993823 -0.020514678
000130 2c 0b 91 bd d3 b1 10 3b fd 83 00 3d d3 88 94 3c
       -0.07082209 0.0022078648 0.031375874 0.01813165
000140 60 50 e5 3c 79 6f 0d 3b 2d 94 c0 bc 94 ce b7 3c
       0.027992427 0.0021581335 -0.023508156 0.022437371
000150 20 e7 1c 3c 58 23 c9 bb a1 2d c9 3d 9b 13 59 3d
       0.009576589 -0.0061382465 0.09823156 0.052997213
000160 15 09 44 3a 66 69 8d bd 33 a6 89 bd a2 4f 60 3d
       0.000747816 -0.06904869 -0.06721153 0.054763444
000170 33 ab 86 bc 45 a0 ae 3c f2 54 1f 3d 99 2e bb bc
       -0.016439056 0.021316657 0.03889937 -0.022849368
000180 9d 74 e2 3c 95 71 b8 3a 18 31 26 3d eb 45 23 3d
       0.027643496 0.0014071936 0.040574163 0.0398616
000190 ad e9 58 bc d2 98 18 3b b3 52 8a 3c 9d 4c f4 3c
       -0.013239306 0.0023284447 0.016885137 0.029821688
0001a0 1c 00 ed 3c a1 be ec 3c f1 07 15 bd 9e 9e c2 bc
       0.028930716 0.028899493 -0.036384527 -0.023757275
0001b0 7d 79 f7 ba cc f2 c1 3a 0a 16 e3 3b 16 d7 fb 3c
       -0.0018880811 0.001479709 0.0069301175 0.03074221
0001c0 b4 43 09 3d 95 c7 a8 3d 57 57 c7 3c e5 fa 6a 3d
       0.033511832 0.08241192 0.02433364 0.057368178
0001d0 3e 88 f9 bc 20 4a 31 3d 83 83 67 3c 23 db 2e bd
       -0.030460473 0.04328358 0.014130476 -0.042689454
0001e0 04 98 38 3c a7 16 b1 bb 4c 65 ba ba bb 7f 1f bc
       0.011266712 -0.0054043117 -0.0014220863 -0.009735043
0001f0 b9 55 c9 3c a6 80 8e bc 15 ac a1 3c c7 39 cb 3c
       0.024577009 -0.017395329 0.019735375 0.024807824
000200 0e 33 8c 3d 2f 07 69 3d 0a 7b b5 bc ef 0e 43 bd
       0.068456754 0.056891616 -0.022153396 -0.047621664
000210 95 38 68 bd 55 60 86 3d 37 59 77 3c fd d4 65 3d
       -0.056694586 0.065613426 0.015096954 0.056111325
000220 14 9f 54 bd 92 5e 05 bc 62 d3 d8 bc 3b ea 29 3d
       -0.05190952 -0.008140223 -0.026467983 0.041483145
000230 a5 51 97 3d 2d 31 ee 3c dc f6 da bb f0 da 91 3c
       0.07388619 0.029076183 -0.00668226 0.017804593
000240 a1 52 15 3d 25 76 ea 3c 0b f7 77 3d 5b 9c 25 3c
       0.036455754 0.028620789 0.060538333 0.010108079
000250 00 03 b0 3d a6 f4 8b bc f8 0c 08 3d f5 45 95 3d
       0.08594322 -0.01708443 0.033215493 0.07288734
000260 1b 46 2c 3c 58 e0 3a 3d 82 71 79 bc d6 26 35 bc
       0.010514761 0.045624107 -0.015224816 -0.0110566225
000270 33 f3 e2 3c 52 24 be 3b 64 3d 1e 3d c2 94 3e 3d
       0.027703857 0.0058026696 0.038632765 0.046528585
000280 0a 7a 77 3d e2 2a a8 3d b3 5c 9b 3d 8a 9f fa bb
       0.06041912 0.08211304 0.0758604 -0.007648413
000290 30 e8 74 3c b6 1e 16 bc 3f 37 43 3d aa 8f 9c 3d
       0.014947936 -0.0091625955 0.04766011 0.07644589
0002a0 50 34 7a bc 1b fd 39 3c 02 83 7c 3d bf 60 21 3d
       -0.015271261 0.011351849 0.061648376 0.039398905
0002b0 c2 12 01 3d 0c 93 70 bc 7e de b4 3d 85 2d 16 3d
       0.03151203 -0.014683496 0.088314995 0.036664505
0002c0 31 7c 16 bb 28 7e 0d 3d 42 62 7a 3d 1f e0 6f 3d
       -0.0022962207 0.03454414 0.061128862 0.058563348
0002d0 c2 3a 42 3d fd f1 0b bd 1a 0e 33 3c 5e 62 b9 bd
       0.047419317 -0.034166325 0.010928655 -0.09051965
0002e0 2d c2 1f bd d4 88 e4 3b 9d 5b 43 3b 6c 46 99 3c
       -0.03900354 0.006974319 0.0029809244 0.018710338
0002f0 77 a1 42 3d 92 29 7c bb 2a 65 92 bd 15 ff f8 bc
       0.047517266 -0.0038476926 -0.07148202 -0.03039507
000300 91 b1 41 bd 0b 94 d8 3c 62 f4 b0 3d 47 4a a6 3c
       -0.04728848 0.02643778 0.08640362 0.02029909
000310 69 0f f6 3c 58 88 04 3c 2d cb 34 3d e7 7c 7e bc
       0.030036645 0.0080891475 0.044139076 -0.015532709
000320 04 c4 ab 3d 44 df c9 3c 64 68 b1 3c 05 51 64 3d
       0.083869964 0.024642594 0.021656223 0.05574133
000330 0b 30 3b 3c 0b 62 60 3d b7 ae d7 3c 4c 3b 16 bb
       0.011425029 0.054781 0.026328428 -0.0022923527
000340 04 f7 f9 bc 5f fe a3 3a 03 c5 fa 3b 31 40 b0 bd
       -0.030513294 0.0012511722 0.00765288 -0.086059935
000350 d6 6f ac 3d 46 72 38 bb 0f e1 8e 3d a1 7e 9c 3d
       0.084197685 -0.0028144284 0.0697652 0.0764134
000360 eb 61 29 bd 04 c0 65 3c 1e a7 e8 3c ea 0d de bc
       -0.041353147 0.014022831 0.0284 -0.027106244
000370 30 8e 46 bd 1f cd 5c 3d cb c2 91 3d 59 0a d6 bb
       -0.048475444 0.053906556 0.07117232 -0.0065319953
000380 f2 7e 28 3d ea 5f b4 bc bd 7d 27 3d 22 8d f7 bc
       0.04113669 -0.022018392 0.040891398 -0.030218665
000390 00 09 53 bc f7 45 cb 3c 44 20 53 3c 35 33 81 3d
       -0.012880564 0.024813635 0.012886111 0.06308595
0003a0 5f 5d 9e 3b aa ab 85 3d 89 b5 5e 3d ee 5c 5f 3d
       0.004832908 0.06526883 0.054372344 0.054531984
0003b0 53 09 9a 3d fb 42 8c bd 89 91 70 3d 3a 5e f7 3b
       0.0752131 -0.06848713 0.058732543 0.0075490745
0003c0 34 f9 2e 3c 0d 47 b7 bd ea d6 dd bb 4d 80 86 bb
       0.010679532 -0.08949099 -0.0067700045 -0.00410465
0003d0 ef c8 37 bc 3f 32 9d 3d 9e 36 87 3d 9f 67 8e bd
       -0.01121734 0.07675599 0.06602214 -0.06953358
0003e0 52 3f cf 3b 2b 27 84 bd 0a 9f e8 bc 6f 80 45 3c
       0.006324687 -0.06452783 -0.028396148 0.012054547
0003f0 0c a9 08 bd a4 50 8e bd dd 79 f6 3c 11 47 67 bd
       -0.03336434 -0.06948975 0.030087406 -0.05646426

network.6.weight f4 [141, 282]
000000 2a f2 16 be 1d c0 25 be 35 8e 41 bd 9f 39 28 bc
       -0.14740816 -0.16186567 -0.04725476 -0.010267644
000010 01 b0 c0 bd c4 03 83 bc 7c c0 a7 bd 75 d3 ee bc
       -0.0940857 -0.015993007 -0.0819101 -0.029153565
000020 aa 24 8a 3c 87 06 77 bd c8 ca 7d 3d 7a 33 58 39
       0.016863186 -0.06030896 0.061960965 0.00020618542
000030 cd 32 17 3d 32 b3 dd 3c e8 01 53 3d 38 8d 25 3c
       0.03691368 0.027062986 0.05151549 0.01010447
000040 7b 50 3b bd df 67 bd 3d 9d b9 7f 3d 38 5c e9 3c
       -0.04573105 0.092483275 0.062432874 0.028486356
000050 8d 0e 3c bd 2c 8e 52 3d c3 0f fd 3c 26 e3 72 bd
       -0.045912314 0.051405117 0.030891305 -0.059298657
000060 dd 07 2c 3e 89 0b 0d 3e aa 41 1f 3d 0d 33 3d bc
       0.16799875 0.13773932 0.03888098 -0.011547816
000070 44 75 11 3b f7 1e 94 bd 2d 2d a7 3c de ae 0e 3c
       0.002219514 -0.072324686 0.020407284 0.008708684
000080 92 58 f7 3d 85 64 d9 bb 51 4b 41 3d 07 01 6d 3d
       0.1207744 -0.0066342973 0.047190968 0.057862308
000090 21 12 cd 3d 0f 56 a3 bd bc 1b 1a 3e 07 7a b8 3c
       0.100132234 -0.07975399 0.15049642 0.022519125
0000a0 d6 b4 87 3d 53 6d b1 3c 00 a1 f2 bd e6 3f c0 bc
       0.066262886 0.021658575 -0.118471146 -0.02346797
0000b0 e9 33 4a 3d 9f 9e ba 3d e0 a8 2b bd 2f 6a 06 3c
       0.04936591 0.09112286 -0.0419091 0.008204027
0000c0 f7 e5 cf bd eb d2 6f 3c c5 af b2 bd a2 89 1d bd
       -0.10151284 0.014637689 -0.08724932 -0.038461335
0000d0 f0 50 5b 3d 34 1a 0a bd ed 18 a8 bd 4e 16 3e 3c
       0.053543985 -0.033716395 -0.08207879 0.011601998
0000e0 a8 c6 8e bd b6 4b a6 3d e9 53 1c be 00 82 6e 3d
       -0.069714844 0.081199095 -0.15266384 0.058229446
0000f0 9c bb 1f 3e cb a9 f5 3d d1 2e a1 3b 28 a6 33 3c
       0.15598911 0.11995276 0.004918911 0.010964908
000100 9d 6f d5 bc cb 79 93 3e 6f 63 64 3d 0a 92 fd bd
       -0.026054198 0.28803858 0.05575889 -0.1238137
000110 04 4e d4 3d 50 49 a3 bb 28 aa ba 3d 8c f5 79 bd
       0.10366443 -0.0049831048 0.09114486 -0.061025187
000120 b0 68 ea 3d 14 39 73 bd 1c 26 90 bd 9e 11 86 bd
       0.11445749 -0.059380606 -0.07038519 -0.06546329
000130 3e 42 4b 3d 3b b7 bf bc 94 b9 d3 bd 22 5d a7 bc
       0.04962372 -0.0234028 -0.103381306 -0.020430151
000140 c9 c9 13 3c d4 9e b8 3c 68 d9 04 3d 5d 0e 8d 3d
       0.009020277 0.022536673 0.032433897 0.06887505
000150 b5 f7 03 3d 1d 6d 0d bd 85 3b 36 be 42 e2 37 bd
       0.032218654 -0.034527887 -0.17796142 -0.04489351
000160 1b 0c ee 3d 57 51 2a 3d 6f 26 37 bd 39 2e d4 bd
       0.11623403 0.041581478 -0.044714388 -0.10360379
000170 80 cb cc 3d ae 0c 21 bd 93 8b ad 3b 4e ee a9 3d
       0.09999752 -0.039318733 0.0052961796 0.08297406
000180 80 26 8f bd 17 a6 9b 3d bd 56 bd 3c 02 7b ff bd
       -0.06989765 0.076000385 0.02311265 -0.12474634
000190 a3 3d 21 3e 37 e8 80 3b 7e 74 e9 3d 32 8c ba bd
       0.15746169 0.003933932 0.11399172 -0.091087714
0001a0 50 3d 27 bd 81 8c 97 3d ea 5f fb 3d 60 fa 0b 3d
       -0.040829957 0.07399846 0.122741535 0.034174323
0001b0 4e 65 48 3d 17 b3 77 3d 3a f8 ed 3c 2c f1 ee bc
       0.048924737 0.060473528 0.029049028 -0.029167734
0001c0 9d 52 22 bd 7c 52 c3 bc 45 e0 d1 bd ef 8e 89 ba
       -0.039629567 -0.023843043 -0.10247854 -0.0010494868
0001d0 82 69 82 3a 0d 83 40 3e 95 79 a5 3c 96 c1 d3 3b
       0.0009949657 0.18799992 0.020199576 0.006462286
0001e0 ff f0 4f bd 70 54 0a 3d cb 79 c0 bc ef 0c a5 3a
       -0.05076694 0.033771932 -0.023495575 0.0012592355
0001f0 ba 06 21 bd 8b c9 ae 3d 51 f3 30 3e 6d 94 17 be
       -0.039313056 0.08534535 0.17280318 -0.14802714
000200 97 01 76 3a 6d e7 0b 3d df 21 f5 bd 93 4d df 3d
       0.0009384392 0.03415625 -0.11969351 0.10903468
000210 11 71 dc 3c c6 04 d6 3b de 95 5b 3c 8b 57 4f 3d
       0.026909383 0.0065313308 0.01340243 0.050620597
000220 d5 a6 82 3d 3b 24 14 3c cb 53 83 bd 2a 0f ed bd
       0.06379477 0.009041841 -0.064124666 -0.11575158
000230 02 a7 80 bc 7d c3 e0 3c 5b 96 ab bd b0 02 4b 3c
       -0.015704636 0.027436966 -0.083782874 0.0123907775
000240 bd d2 40 3d 06 e3 c3 3d e9 fd 8d bd fa 53 08 bd
       0.047075976 0.09564786 -0.06933195 -0.03328321
000250 86 f0 bf 3d 59 1a ba 3c 94 5e 8d 3d 28 b5 3b 3c
       0.09372048 0.022717642 0.06902805 0.011456765
000260 0f 4b b0 3d 90 fb 3e be 79 1d 39 3d 96 e2 84 3d
       0.08608066 -0.18650651 0.045194123 0.0648853
000270 71 33 a3 3c ed 44 81 bd 8f a1 06 3d 27 5c 7b bd
       0.01992199 -0.06311975 0.032868918 -0.06136718
000280 b0 ba 6d bd a1 27 9f bd d7 7c 7c bd a0 7c 23 3e
       -0.058039367 -0.077712305 -0.061642494 0.1596551
000290 ee c4 2f 3e 34 e3 9f bc 35 fd f0 bd 71 3f ad 3c
       0.17164966 -0.019517519 -0.117670454 0.021148415
0002a0 b8 7f 83 bc f9 12 c9 3b 7f 12 6f bc 6d 9b d5 3c
       -0.016052112 0.006136295 -0.014591812 0.02607509
0002b0 39 15 5d 3d 39 1f 8a 3d e7 fd b5 bd 3b ab 80 3d
       0.053975318 0.067442365 -0.08886319 0.062826596
0002c0 5a 79 68 3d 0e 41 f9 bc 03 8d 9e 3d 93 a2 a3 3d
       0.056756355 -0.030426528 0.077417396 0.07989993
0002d0 14 e5 0a be 77 47 53 bd 59 7d b5 3d ab dc fe ba
       -0.13563949 -0.051581826 0.08861799 -0.0019444426
0002e0 24 49 42 3d e6 7c 6a 3c 4c be c0 3d 96 2f ce bb
       0.047433034 0.014312005 0.09411296 -0.006292294
0002f0 f4 d2 8f ba cc 5f bc bc 0b f7 3d 3c 00 43 bc 3b
       -0.0010972903 -0.022994898 0.011594544 0.0057452917
000300 44 8b c2 3d 8e 6b bd bc c4 33 9a bd 7a 4c fb bc
       0.09499219 -0.023122575 -0.07529405 -0.030676115
000310 93 58 9f 3c 64 b9 82 bb 01 eb b4 bb cd df ee 3d
       0.019451415 -0.0039893854 -0.0055211787 0.1166378
000320 d4 db 03 3d 04 36 89 3c f9 57 7f bd c1 fa 8f bd
       0.032192066 0.01674939 -0.062339757 -0.070302494
000330 03 6c 21 bc 28 65 25 bc be 14 0c 3e 9b e2 3f 3e
       -0.009852412 -0.010094918 0.13679788 0.18738787
000340 cf d6 18 3e 3b f6 f9 bd cb 2a f6 bc 6e d2 67 bc
       0.14925693 -0.12205168 -0.030049702 -0.014149291
000350 22 f7 35 3c 35 0f 6b bd 82 5c 71 bd 76 e4 fb 3d
       0.011106284 -0.05738755 -0.058926113 0.12299435
000360 d8 5b 87 bc e5 74 b2 bc 29 67 3f bd 64 2b db bd
       -0.016523287 -0.021784255 -0.04672924 -0.107016355
000370 8c 33 04 3e 37 af 28 3d db 79 b4 3d 81 11 df 3d
       0.12910289 0.041182723 0.088123046 0.108920105
000380 01 20 dc bc a6 26 bb 3d a1 3b 81 3c 73 af 51 3d
       -0.02687073 0.09138231 0.015775504 0.051192712
000390 50 fa 14 3c f0 2f 04 3d 5e 10 55 3d 8a be 1a be
       0.009092882 0.03227228 0.052017562 -0.15111747
0003a0 1a 19 b8 3d f1 b7 00 be 00 75 0b 3e 0e b3 30 3e
       0.08989163 -0.12570168 0.1361885 0.17255804
0003b0 02 15 36 3d 88 0f 7e 3e 7a 38 3c 3d ea 99 12 3a
       0.04445363 0.24810612 0.045952298 0.0005592393
0003c0 49 c5 22 be df df 63 3d b1 e8 52 3d 69 7c b9 3b
       -0.15895571 0.055633422 0.051491443 0.005660583
0003d0 64 4e bb 3d 82 05 17 bd c8 cb 17 3c 99 a5 55 3d
       0.09145811 -0.036870487 0.009264894 0.05215988
0003e0 fe 7e 95 bc 96 ae b5 3d ab 52 9b bd b9 fb ec bc
       -0.018249031 0.0887119 -0.07584127 -0.028928624
0003f0 30 66 bb 3d 00 a7 85 bc cb 3b bd 3d 1f ce 12 3e
       0.0915035 -0.016314983 0.0923992 0.14336441

network.6.bias f4 [141]
000000 32 7f 32 3d 1a e5 7d bc c8 05 3b 3d 4a 10 a1 3c
       0.043578334 -0.015496517 0.04565981 0.019661088
000010 04 2a ce 3d 35 1e 3d 3c 21 15 b0 3c 37 7c 7a bc
       0.100666076 0.011542846 0.02149445 -0.015288404
000020 9a 5e 9f 3d cf 47 1c 3d 5a de 1a 3c f6 c4 c7 bc
       0.07781716 0.03815442 0.009452427 -0.02438591
000030 83 2b 8d 3d a3 bb c8 3d 35 58 10 bd 9e 24 07 3d
       0.06893065 0.09801414 -0.03524037 0.032993905
000040 1e 7b 0e 3d 15 d4 b6 3b ff 8f 5e 3c b0 be d0 bc
       0.034785382 0.0055794814 0.013584136 -0.025481552
000050 29 52 4d bc 72 e3 ab 3d 64 33 ef 3c 60 7d 60 bb
       -0.012531796 0.08392991 0.02919931 -0.0034254417
000060 65 b4 97 3b 74 32 85 3d f4 e9 a6 3b 0c b9 8a 3d
       0.004629659 0.06503764 0.0050938074 0.06773576
000070 f3 db 63 3d 2d e6 3a bc 5f 53 26 3d b5 fd 11 3d
       0.05562968 -0.011407417 0.040606853 0.035642345
000080 1d a5 ce 3d 57 21 b5 bc 12 b4 bc bc 1f c5 a1 3c
       0.100900866 -0.022110624 -0.023035083 0.019747315
000090 64 0d 78 3d 28 dc 9f 3d 8d 7d 61 3d 23 ce c3 3c
       0.060559645 0.07805663 0.055051375 0.023902005
0000a0 a5 bb 5c bc 0a c5 34 3d 17 83 8c bc b2 0e e8 bc
       -0.013472472 0.044133224 -0.017152352 -0.02832732
0000b0 25 cc 12 3d 00 88 26 3d d0 82 e4 3d 40 eb 53 3a
       0.03583922 0.040657043 0.11157763 0.0008084066
0000c0 2f 40 20 bd a1 76 5d bc 42 42 f6 bc 9c 85 ba bc
       -0.03912371 -0.013517053 -0.030060891 -0.022768788
0000d0 18 b8 2a 3d 19 7c 38 3d e1 cc 5a bc 15 d8 d9 3c
       0.04167947 0.045040224 -0.013354511 0.026592294
0000e0 d0 ef 29 3d e9 cb b4 3d b1 86 c3 3d 7e e5 18 bd
       0.04148847 0.08827955 0.09547175 -0.037328236
0000f0 bf d7 db 3c ad a5 92 3d 6d dc 8f 3d c4 11 d2 3d
       0.026836274 0.071605064 0.07024465 0.10257295
000100 c4 27 b6 3d b5 2e b5 3d 42 d9 1f 3d 8b 55 32 3d
       0.088943034 0.08846799 0.039025553 0.04353861
000110 6a 5e 63 3c 19 84 98 bc 3e b9 2b bc ce 56 bc bc
       0.013877491 -0.018617677 -0.010481177 -0.02299061
000120 2c a7 30 3d 96 d4 a0 3d b9 dd 19 3d 9c be bb 3d
       0.043128178 0.078530475 0.037564967 0.09167215
000130 7c 93 6c 3d 74 bc c9 3c b3 a2 3f 3b d9 28 f0 3c
       0.05775784 0.024625994 0.0029241263 0.029316353
000140 9c 1c e6 3d 6b a0 5d 3d 13 27 3e 3c b0 40 c2 3d
       0.112359256 0.054108065 0.011605996 0.094849944
000150 42 d9 6a 3d 2d 8b e1 3c bd 7f 7d bc 08 89 ce 3d
       0.0573361 0.027532184 -0.01547235 0.100847304
000160 ae a4 c4 3d a7 8b 30 bd c1 48 2e 3d 2c eb 49 3d
       0.09601723 -0.043101933 0.042549852 0.049296543
000170 2d 96 5e 3d ed 40 d7 3b 06 e8 4a 3d f5 d5 e5 3c
       0.054342438 0.006569019 0.04953768 0.028056124
000180 b8 ff e9 3b 1e 5e cf 3c 75 4e b1 3d a4 9a 87 3d
       0.0071410798 0.025313433 0.086575426 0.06621292
000190 b0 94 16 bd 56 73 b0 3b 96 46 b6 3d 3c a8 2c bd
       -0.036762893 0.005384843 0.08900182 -0.04215263
0001a0 25 21 e5 3b 38 9f 05 3d 07 e1 79 3d 29 ae aa 3d
       0.0069924765 0.032622546 0.06100562 0.08334
0001b0 3b 60 5a 3d db 2b 21 3d 51 a1 84 3d 88 01 b6 bc
       0.05331443 0.039348464 0.06476081 -0.022217527
0001c0 d6 b3 27 3d a3 7c ee 3c d6 d9 cd 3d c4 3d 61 3c
       0.04094299 0.029112166 0.100513145 0.013747636
0001d0 54 9c 64 bd ce 9a 4d 3d 00 91 1c bd 64 c5 d7 bb
       -0.05581315 0.05019646 -0.03822422 -0.00658481
0001e0 60 9e 00 3d 95 02 07 3e a8 bd f6 3d 06 9b 9e 3d
       0.03140104 0.13184579 0.12047893 0.07744412
0001f0 b8 9e 12 bd 0c 94 ff 3a 1b 90 0b 3d 1d 46 f2 3d
       -0.035795897 0.0019499077 0.034072977 0.11829779
000200 52 d0 a4 3d a3 9d 16 3d ae 88 2b bc da f3 92 3c
       0.080475464 0.036771428 -0.010469599 0.017938543
000210 63 18 bf bb 4e 0d 00 3e dc e1 fc 3c 68 9e 1c bc
       -0.0058317645 0.12505075 0.030869417 -0.009559251
000220 7f 0a 70 3d 1e 7d a3 3c 9b b8 fb bc 53 d3 50 3d
       0.05860376 0.019957121 -0.030727675 0.050982784
000230 9d f1 c1 3d
       0.09469912

network.9.weight f4 [21, 141]
000000 b3 23 24 3c a5 a1 99 3d d0 3e af 3c e8 a7 95 3d
       0.010018277 0.075015344 0.021392256 0.07307416
000010 79 97 1e bb 7d 3d df 3d 4b 61 4e be 84 e4 0c be
       -0.0024199171 0.109004 -0.20154302 -0.13759047
000020 98 f0 04 3d b8 9e a0 be 72 52 03 3d f5 48 9f bd
       0.03245601 -0.31371093 0.032061048 -0.07777587
000030 01 67 4c be 24 75 02 3e fc 4c 3d 3c 4a e2 bd bd
       -0.19961168 0.12739998 0.011553999 -0.09271677
000040 7d ab 2e be f4 2a d2 3d 5d 0c d3 bc f2 cc 06 bb
       -0.17057605 0.10262099 -0.025762731 -0.0020568934
000050 d2 c5 14 3e 1a 36 89 3d d5 d8 df 3d b2 c5 0b be
       0.14528587 0.06699772 0.10930029 -0.13649634
000060 7a 57 e8 3d 5b f1 2a bd f3 81 d2 3d cb bf eb bd
       0.1134481 -0.04173408 0.10278692 -0.11511191
000070 a6 94 da 3d c3 e5 a2 3d 0b eb 90 be 5e e9 e8 3c
       0.10672884 0.0795398 -0.28304324 0.02843159
000080 e1 c1 4d be 0d e3 04 3e 27 29 48 be 62 7e 5a be
       -0.2009349 0.12977238 -0.19546948 -0.21337274
000090 c3 bb ed bd 46 23 02 3e 36 1b 8e 3c fd 9b 0b bc
       -0.11608078 0.12708768 0.01734696 -0.008521077
0000a0 25 a0 0e 3e 9f f0 aa bc fe a3 bd 3d 42 27 a2 be
       0.13928278 -0.02086669 0.09259795 -0.31670576
0000b0 f9 68 a6 3d 14 69 1d 3e 86 a9 29 bd e9 2b 6b 3e
       0.08125491 0.15372115 -0.041421436 0.22965969
0000c0 75 02 0d 3e 61 84 13 bd 90 e6 c6 3d 72 77 c7 bd
       0.13770469 -0.03601492 0.09711945 -0.09739579
0000d0 be d3 7f 3d d6 fa c5 3d a7 d5 01 be c6 0c 99 bd
       0.062457792 0.09666984 -0.12679158 -0.074731395
0000e0 64 5c c1 bd 49 f0 a9 be 93 93 e0 3d 5c 9f f0 3d
       -0.0944145 -0.33191136 0.109656475 0.117491454
0000f0 d7 21 eb 3d 5b b7 b1 3d cb bf c4 3d e6 15 d6 3d
       0.11481064 0.086775504 0.09606894 0.104533955
000100 38 c4 9c bc b8 24 08 3d 5b a8 10 bd f4 51 c8 be
       -0.019136533 0.033238143 -0.035316806 -0.39125025
000110 b9 6e dd 3d 90 61 e0 3d 52 a5 19 bd d8 76 b6 3c
       0.10812134 0.109561086 -0.037511177 0.022273466
000120 67 af 26 be 34 86 d1 3d 72 dc 14 be fc a6 a8 3d
       -0.16277848 0.10230675 -0.14537218 0.08234975
000130 b9 aa 10 3e 8d cc 59 bd 6e 64 72 3d cc bf 44 3d
       0.14127626 -0.05317359 0.05917781 0.048034474
000140 e1 00 49 be 2b d2 93 be 12 b5 09 be c7 75 75 3d
       -0.19629242 -0.28871283 -0.13447979 0.059926774
000150 8c 19 b7 bc bd 43 ec 3c 86 44 13 3d 4c d1 f4 3d
       -0.022351049 0.028840894 0.03595402 0.11953983
000160 04 2b 40 3e b0 23 02 be 66 b8 16 be 8a 9e 13 be
       0.18766409 -0.12708926 -0.1471878 -0.14415947
000170 31 c8 0b bd d1 2d 35 be 96 3f 04 be 89 55 1b bd
       -0.034126464 -0.17693259 -0.12914881 -0.03792337
000180 fe fb d7 3d fe 2a f9 3c 90 f4 9a bd f1 53 0f be
       0.105461106 0.030416008 -0.07566178 -0.13996865
000190 2f f7 74 be e9 90 7a be b4 d7 83 be 72 30 38 3d
       -0.23922418 -0.24469341 -0.25750506 0.044968076
0001a0 d6 55 dc 3d 38 06 e7 3d 52 22 82 3d f9 50 33 3c
       0.107585594 0.11280483 0.06354202 0.010944598
0001b0 b6 51 fb bc 8a 4b 39 be 55 9b c6 3d b6 7f d5 bd
       -0.030678611 -0.18095222 0.09697596 -0.104247496
0001c0 3d f3 1c be b4 df 3f be f3 90 22 be a3 9b 93 be
       -0.15327163 -0.1873768 -0.15875606 -0.2882968
0001d0 c9 6e 6d 3d 39 38 6b bb cc bf ea 3d e4 37 93 be
       0.05796698 -0.0035891666 0.114623636 -0.2875358
0001e0 06 b9 32 3d 34 91 d5 bc 04 d2 f3 bd b2 00 82 bd
       0.043633483 -0.026070215 -0.11905292 -0.06347789
0001f0 bd 98 78 3d 02 8c 0f 3d b4 38 6f be 84 21 9f bd
       0.060692538 0.03504563 -0.23361474 -0.077700645
000200 65 1f 52 bd 0f 4a 18 be 87 db c7 3d 44 89 66 be
       -0.05129947 -0.14872001 0.097586684 -0.225133
000210 f1 87 49 3b 94 3b 74 bc 9a 68 97 3d 57 eb 86 bd
       0.0030751193 -0.014906783 0.07392998 -0.06587856
000220 1e b2 4e 3d 4e 95 78 bb cd fd 7e 3b 8a e9 31 be
       0.050462835 -0.003793079 0.0038908601 -0.17374244
000230 5b 41 bd 3d ab 23 93 be b0 73 13 be 46 83 07 3d
       0.09240981 -0.2873815 -0.143996 0.033084176
000240 55 70 6d 3d 7b 7a b0 3b 78 da 32 3d 26 8c 1b be
       0.057968456 0.0053856946 0.04366538 -0.15190181
000250 24 05 c7 3d 29 4d 90 3d dc ad a7 3d 7a dc 24 3d
       0.09717777 0.07045967 0.08187458 0.040249325
000260 93 0c e3 3d f7 f9 02 3e 1a 0c af bd e9 39 20 3c
       0.11086383 0.12790667 -0.0854723 0.009779432
000270 13 6c 99 bc 45 f9 66 bd da 9c 11 be 97 0a 7e be
       -0.018728292 -0.056390066 -0.1421999 -0.24808727
000280 00 61 79 be d5 3b 74 be 02 76 33 be ef 2f db bd
       -0.24353409 -0.23850949 -0.17525485 -0.10702502
000290 6e 37 84 3d 8c f7 c9 3d 0b 1c 85 3d e5 34 0b bd
       0.06455885 0.09861669 0.064994894 -0.03398599
0002a0 84 99 22 be ed e7 b3 3d 77 4c 8d bc 66 af 3c 3c
       -0.15878874 0.08784471 -0.017248375 0.011516428
0002b0 57 ab bf 3d 4c f0 00 be 0e ea 84 bd 6b 70 9f 3c
       0.09358852 -0.12591666 -0.06489955 0.019462785
0002c0 78 87 08 3e 52 32 5a bd b9 c6 0b 3e 20 b3 f9 3c
       0.13332927 -0.053270645 0.13650025 0.030480921
0002d0 ff 87 34 be 1d e7 d9 bd 8a 3d 0a 3e bb cd 7a be
       -0.17630003 -0.106397845 0.13500038 -0.24492542
0002e0 e0 96 c8 bd 91 dc a4 3c 4f ea 1b be fb c6 c7 3d
       -0.09794402 0.020124706 -0.152261 0.097547494
0002f0 dc 56 4e be 55 8f 36 3d df a5 5c be b6 ed 11 3d
       -0.20150322 0.044570286 -0.2154765 0.03562709
000300 08 95 1c be 02 62 5f 3d af d2 ac 3d 6b af 9e bd
       -0.15291226 0.054536827 0.08438622 -0.07748302
000310 3b 1b fe 3d 6f 0e b3 3d 7a fa 8a 3d 9c 75 f3 3c
       0.124075375 0.08742987 0.06786056 0.029719166
000320 12 75 02 bd b4 95 63 bd 99 b8 ad 3d e5 ac fc bd
       -0.03184993 -0.05556269 0.08482475 -0.123376645
000330 c4 61 9e ba d1 88 d7 3d f8 1a 47 3d af 25 fc 3c
       -0.001208358 0.105241425 0.048609704 0.030779688
000340 75 a2 05 3d 0d e1 88 be e1 98 52 3d aa b6 4a be
       0.032625634 -0.267342 0.051415328 -0.19796243
000350 06 e0 e5 3d ed f4 87 3d 6f 72 5a be 69 57 d7 bd
       0.1122437 0.06638513 -0.21332715 -0.10514719
000360 b1 ae 3c 3d ce 0c 31 bd e7 88 d2 3d ff ab c4 3d
       0.046065036 -0.043225102 0.10280018 0.09603118
000370 cb 7a ac bd eb 0e cf 3d 61 c8 a2 bd b1 67 03 be
       -0.084218584 0.10110267 -0.079483755 -0.12832524
000380 02 b4 48 3d b2 8b 00 be a2 8f 61 bd c7 b4 87 be
       0.048999794 -0.1255329 -0.05506862 -0.2650511
000390 64 59 90 be 4f da 97 3d 97 ef e6 3b dd 8f f0 3d
       -0.281932 0.07414686 0.0070476043 0.1174619
0003a0 71 79 cb 3d 0d 6c 8f be 2d 32 09 be 6d 12 cc bb
       0.099352725 -0.28012124 -0.13398047 -0.0062277825
0003b0 e2 1d 7b be 8d 3f d3 bd 85 7a 22 3c 9e 9c b8 3d
       -0.24523118 -0.10314856 0.009916906 0.09014247
0003c0 02 58 b0 bd c4 9d 01 bc 1a a3 fd bc d4 47 f1 bd
       -0.08610536 -0.007911149 -0.030961562 -0.11781278
0003d0 85 12 96 be b2 db 27 be 52 e8 0d bc 32 ea 58 be
       -0.29311004 -0.16392401 -0.0086613465 -0.21183088
0003e0 1c 44 86 3d 38 ef dd 3d 3e 1c 3a 3e d7 55 08 3e
       0.065559596 0.10836643 0.18174836 0.13313995
0003f0 cd 18 9e be c2 83 90 3d e0 01 04 3d 96 20 1a 3e
       -0.30878296 0.07056381 0.03222835 0.15051493

network.9.bias f4 [21]
000000 c2 d6 11 3d f7 5e c0 3d 02 d3 b0 bb f0 72 05 3e
       0.0356052 0.09393113 -0.005396248 0.13032126
000010 76 c3 b4 3c 27 18 a8 3d 14 83 8e bd 8b cc 0c 3d
       0.02206586 0.08207732 -0.06958595 0.034374755
000020 68 93 8b bc ed 14 23 3d ca 6b 64 3c 23 e7 80 bd
       -0.017038062 0.03981488 0.013941715 -0.06294086
000030 5a d3 95 bd a5 ec 12 bc 24 13 fa 3c 80 d2 01 3d
       -0.07315703 -0.008967553 0.030526705 0.03169489
000040 35 28 3d bb 8b 08 ee bc 73 77 12 3c 99 ea 43 3d
       -0.0028863077 -0.029056808 0.008939612 0.04783115
000050 75 4f 04 bd
       -0.03230234
