models/NeuralNetwork-1_acc-57.43_loss-0.000001.pth (torch, 802127 bytes, 8 tensors)

network.0.weight f4 [512, 63]
00000000: 887c 5bbb a91a bd3d 10c3 463d 63eb 33bc
00000010: 7c26 0d3d 810a 863e 88d8 483e a3b3 7f3d
00000020: 4498 003d b911 f93c 506b a13c 9881 183e
00000030: 0615 16bd c511 e7bd b66b 16be 58ab f03d
00000040: 78a6 08bd 76b9 603d 494e 073e c31c 613e
00000050: a999 38be 2587 b53d 37bb 933c 10a6 8c3d
00000060: 2f65 5e38 5a5b 863b a068 c13d a065 573d
00000070: f66d a43d 6766 c7bd c05d 3abd 5585 a3bb
00000080: 9aa1 8c3d be2b d3bd ec69 803d 4c52 f9bd
00000090: aca8 6b3d 6060 b5bd 52e0 e9bd 7ce3 11bd
000000a0: 52e0 84bc e344 7fbd 73f3 893d 0413 5a3d
000000b0: 730d e93b 798d 08be 2a62 343d 03cc 04be
000000c0: 9448 993c 5d8e 903d ba4d a4bb 51f7 003e
000000d0: 96ee 0d3d 1c24 b93d 7604 c3bd a829 afbd
000000e0: 15e8 24be 537c 493d 55d2 42bd 8ec7 093e
000000f0: 54d4 65bd d6da b5bd 9d98 e03d c756 1bbd
00000100: d323 4bbc 8448 f03d f026 febd a08c 39be
00000110: 38c8 873d d46b 8a3d f447 87bd f55d 25bc
00000120: 7e16 b93d 4cc3 763d 0df5 a0bc e402 35bd
00000130: f8e0 073e f7c0 c8bc 611f 89bd dfe1 9ebc
00000140: 5d47 2e3c af04 41bd ce9f 053e 7c9a debb
00000150: 11fa 453d 0050 0abe 397c d03d 9d06 bf3d
00000160: 0823 193e cd22 093e 89ec cdbd b3eb e23d
00000170: eef3 1d3e af6e 40bd 3ad6 c03d a943 033c
00000180: f91f 97bd 9db8 f7bc b46f 63bd d692 c33b
00000190: d53a e1bd 29fe 103c 7766 6bba 4811 853d
000001a0: 5ce3 18bd b71d 95bd 1ac7 bd3d f716 a2bd
000001b0: c7bc d83d e096 0f3e ea0d 1c3e d136 073e
000001c0: 2a8c 2ebd 743a d8bc 2f0e 4e3d 8756 9f3d
000001d0: e779 84bd 6ff0 05be 5dd4 e2bc 3a43 f53c
000001e0: 4d19 283d 0956 833d eeba b93c b3bf 523d
000001f0: 08d5 83bd 63b1 473d ffe4 99bd df49 033d
00000200: ed0a dabc 9d2a 143e e129 023e 8655 e33d
00000210: 23b2 b0bd 7150 9f3d 208c 933d 1be4 ab3d
00000220: 35b7 5f3d e84e 993d beb2 21bc ecac 2a3d
00000230: 4e85 523d 641e ea3d 8b7a c93d 8e50 51bd
00000240: 8d75 833d 0f45 fabd 87ed 273e 6a96 303d
00000250: 65d4 1dbe edf3 053c 9256 9d3c b3c2 203d
00000260: 6f4a a0bd 830f 553d 67cc e23a 7ebc 493c
00000270: 3556 c8bd b31f 033d f833 193d 9b56 d33d
00000280: 0ddd 693e a047 13bd 925e 043e 0ebc e63d
00000290: 45fa b83d ec66 283e 81ce 693d 8b38 1e3e
000002a0: 2bd8 fb3c 51f8 403e cfea b9bd 40e5 e0bd
000002b0: 307a 133e 926c 10bd 4e62 01be 8397 7e3d
000002c0: b808 823d 5d80 343e 9107 5dbe cb03 92bd
000002d0: da4e da3c f210 a1bc 6f36 de3d 2376 853d
000002e0: c368 fc3d 2cdf 793d 27af dfbc 488e a03c
000002f0: e5be e03c 662d 673c f468 003e 8a58 aebc
00000300: 5d2f 17bd a13a 91bc ca53 48bd 813f 24bd
00000310: 4779 bdbc 90d0 73bd 0cc3 ff3d eb46 023d
00000320: c84b ffbd ad58 75bd ba6c 2b3c 6daf c6bc
00000330: a364 f1bd 0c6c 0abd 0b94 bbbd dc99 34be
00000340: c092 0cbe 3a87 183e e634 0fbd 029d 9d3d
00000350: 1b9d ed3d 3e6f ff3c 2ad0 d03d 6998 663d
00000360: c791 b8bb 1beb 343e 4641 c0bd 2685 b8bd
00000370: ac6a 03bd d0cd dcbd 4c5f c03d 6e0e 1ebe
00000380: f6d3 96bd d920 c7bc ec6f 113e a399 d0bc
00000390: 8c97 ddbd 4228 bd3d f55d 18bd 4d10 1c3e
000003a0: 7af0 0e3e 624c 83bd 9e04 4d3d 4157 963d
000003b0: 6b7d 1bbe 611d 09be 26d3 583c 0ba6 f4bc
000003c0: 8340 223e 7714 0ebd 2fbb 9abd a7d9 2d3e
000003d0: 5a5c 98bd 6e8e d93c ccbd 363d 73b9 54be
000003e0: e2aa 9b3d 20b6 28be a706 983d 2f29 59bd
000003f0: 2548 51bc 3653 1a3c a031 c43b 4aff 8f3d
-0.0033490974 0.09233601 0.04852587 -0.010981414 0.03446053 0.2617989 0.1961385 0.062427174
0.03139521 0.030403959 0.01970449 0.14893186 -0.036641143 -0.11282686 -0.14689526 0.11751431
-0.033361882 0.05486437 0.13213457 0.21983628 -0.18027367 0.088636674 0.018033607 0.068676114
5.302316e-05 0.0041002454 0.09443784 0.05258715 0.08028786 -0.097363286 -0.045499563 -0.0049902597
0.068667606 -0.103110775 0.06270203 -0.121739 0.057533905 -0.08856273 -0.11419739 -0.035617337
-0.016220246 -0.062321555 0.067358874 0.05324079 0.007112199 -0.13335218 0.04403893 -0.1296845
0.018711366 0.07058404 -0.0050141485 0.12594344 0.03465136 0.090400904 -0.09522335 -0.08552867
-0.16104157 0.04919083 -0.04756387 0.1345503 -0.056110695 -0.0887963 0.10966609 -0.037924554
-0.012398678 0.11732581 -0.124097705 -0.1812005 0.066299856 0.06758848 -0.06605521 -0.010093202
0.09037493 0.060244843 -0.0196481 -0.04419221 0.13269413 -0.024506075 -0.06695438 -0.019394813
0.0106371315 -0.047123607 0.13049242 -0.0067933183 0.048334185 -0.1350708 0.101799436 0.09327433
0.1495477 0.13392182 -0.10054881 0.11080112 0.15425083 -0.046980556 0.094158605 0.008011737
-0.07379145 -0.030239398 -0.05552645 0.005968432 -0.109975494 0.008849659 -0.0008979807 0.06497437
-0.0373262 -0.07281058 0.09266491 -0.079145364 0.105828814 0.14022398 0.15239683 0.13204505
-0.04261414 -0.02639506 0.050306495 0.07780176 -0.064685635 -0.1308 -0.027689153 0.029939283
0.041039754 0.06412894 0.022672143 0.05145235 -0.06437117 0.048753154 -0.07514381 0.03205287
-0.026616538 0.1446938 0.12711288 0.11100297 -0.08627727 0.07779015 0.07204461 0.08393117
0.05461808 0.07485753 -0.009869276 0.041668817 0.05139666 0.11431578 0.09837826 -0.051102214
0.064189054 -0.12220203 0.16399203 0.043112196 -0.15413053 0.008175832 0.019206319 0.03924818
-0.07826697 0.052016746 0.0017303348 0.012313006 -0.09782068 0.032012653 0.037403077 0.10319253
0.2283823 -0.03595698 0.129267 0.11266337 0.0903211 0.16445512 0.057081703 0.15451257
0.030742725 0.18844725 -0.09077989 -0.10981226 0.1440208 -0.03525979 -0.12635157 0.06215621
0.06349319 0.17627092 -0.21584918 -0.0712963 0.026648927 -0.0196614 0.10850226 0.065166734
0.12324669 0.06100385 -0.027305199 0.019599095 0.027434776 0.014109945 0.12540036 -0.021282453
-0.036910404 -0.017728152 -0.048908032 -0.040099625 -0.023129119 -0.059525073 0.12488374 0.031805914
-0.12465626 -0.05989902 0.010462934 -0.024253571 -0.11786773 -0.033794448 -0.09159096 -0.17636818
-0.13727856 0.14895335 -0.034962557 0.076959625 0.11602231 0.031180974 0.10195954 0.056297693
-0.0056326124 0.1766781 -0.0938745 -0.09009771 -0.032084152 -0.10781443 0.093931764 -0.15435192
-0.07364647 -0.024307655 0.14202851 -0.025463885 -0.10819921 0.09236194 -0.03719898 0.15240593
0.13958922 -0.06411053 0.05005323 0.07340861 -0.15184562 -0.13390113 0.013233935 -0.029864332
0.15844922 -0.034687486 -0.07555234 0.16977559 -0.0743949 0.026557174 0.0446146 -0.20773868
0.07600953 -0.16475725 0.07423144 -0.05301779 -0.012773548 0.009419253 0.005987361 0.070311144

network.0.bias f4 [512]
00000000: 3886 77be 161d 9cbd 6443 16be 4a9e 2bbe
00000010: 1f8b 31bd c605 59bd c38f dfbd 7d58 4d3d
00000020: 8da7 63bc d056 29bd be56 47be 67f7 b0bd
00000030: 3ad9 35be 68ab f9bc a89b 26be 7aee 53be
00000040: 7b8d 67be 4a56 123d 59e6 f5bd 9a70 76bd
00000050: b9e2 04be e89e d9bb 91b7 9dbd c885 adbd
00000060: b4d7 cf3d 1d51 12ba c8f6 98bd cb63 70bc
00000070: fc06 0fbe 50ac 0dbd 38e3 bbbc 80b6 08be
00000080: 3c82 a6bd 642d 27be 3f6d 06be 44a3 2bbe
00000090: 5633 3abd 1d5b 5dbd 895c 39be a5e1 70bc
000000a0: 3ec6 e3bc 7729 c1bb ad1e 833c 0655 6fbd
000000b0: f8c2 4f3c a331 4ebd 74c5 07be 3a93 78bd
000000c0: 0b3e 903d 63aa ecbd 50a3 24be ad1f e2bd
000000d0: 7419 8e3c cc02 fabd d4c3 50be 13e2 06bd
000000e0: 4369 22be 866e 95bc 23e1 4cbd 2414 8d3c
000000f0: 094d fbbd f2cf 98bd 114c 5dbd 3cb8 01be
00000100: 6e77 c0bc 35a2 42be 08ae 433d 587f ba3c
00000110: cd89 8abd 63fb 0dbe 6277 22be 7f62 06bd
00000120: eba6 e4bd 25b3 92bd c9f7 45bc 3551 5abd
00000130: b534 45be b1cc d8bd b1d5 80be d7da 9e3c
00000140: e85d 21b9 a454 74bd 4e94 e2bd b6a4 1cbe
00000150: fa7a 98bd ae35 44be 7710 afbd 3a18 cebd
00000160: 6d39 d4bd 8480 d0bd 0440 8b3c 29a7 fbbd
00000170: c4b7 803d 3e39 08bc 6d4f eabc e6b6 b4bc
00000180: f7ad 9a3d d2fc 083d 09ae f2bd 1424 93bd
00000190: 2e1c 773d fa97 b1bc c84a 2bbe c306 da3d
000001a0: 27a4 76be e4a9 84bc 22a4 e5bb 3c62 44be
000001b0: 263c 4fbe 888f 99bc f070 4e3c b6f0 f73d
000001c0: d9f3 6c3c 4238 cdbd d651 9bbd 6387 1cbd
000001d0: 32ce 97bd 71f0 cbbd 1ae0 e23c d895 64be
000001e0: 0eb5 87bd 5aae a93c 5a18 0d3d 5641 36be
000001f0: f73b d1bd 1d1a 7b3d 30c1 e53d f035 0dbe
00000200: 2226 9ebd 5b04 30be 1449 94bd 11d2 7dbb
00000210: e401 2cbd 86b6 b8bd 3063 0f3c 04ae 873b
00000220: b0b4 b73d 4bec 43be 9915 92bd a296 9b3b
00000230: fd2c 8b3c 99e7 8cbd b876 ebbd ea73 9c3d
00000240: 107e 96bd 8644 3c3c 62ce 02bd 6eff 13be
00000250: 3524 e9bc 299a d1bd 75a3 d3bd b3af a13d
00000260: bab2 29bc 2509 4dbc b718 04be ff10 b73c
00000270: 66b9 863d 731b 5c3d 1c0c 3bbe f4ed 7b3d
00000280: d145 d9bd f891 60be b97d 963d 5a6c 52be
00000290: 83a5 ba3c fda4 e3bd 6976 ac3c bcd7 e6bd
000002a0: 0534 02bd 680c 1fbe 2815 a9bd 4fb3 51be
000002b0: af05 cbbd 16ab 02be f26b 08be 7e68 17bc
000002c0: d5af 6d3d 7880 acbd f5a6 51be 8b7d c7bb
000002d0: 1b49 81bd 489a 273b d5df 57be 92f0 bcbd
000002e0: 1be0 c9bc af28 63bc 4760 47bc 9ab4 4abe
000002f0: ed91 56bd b4dc 36be ec5a 34be f6e5 d13d
00000300: 3e82 24bc 3205 f33c 6102 493d 52ad 6ebe
00000310: 1f9e 24be 8d79 6fbe afa0 e8bd cbd8 56bd
00000320: 9ec6 76bd 5819 5ebe f3de 5dbe 778f 06be
00000330: 4715 98bd f819 23be 52a3 bb3d d9ae 2ebd
00000340: 5b9f abbd 8fa2 9e3c ebb7 333d 13fb b1bd
00000350: 2065 cfbd 2ec8 f8bc e041 46be af64 3e3d
00000360: 1c04 843c fe53 fdbd 3f96 cdbd 7cce dfbc
00000370: 6ac7 44be b88f b5bd 4158 5ebe 9e93 0cbc
00000380: 0fb4 b4bc 652f 5bbe e84c f33b 609d bfbc
00000390: ebf0 803b d9c1 56be dcb0 9cbd f5c6 babd
000003a0: 2601 41be 769f dbbd 25bf 0fbd 3d94 aabd
000003b0: 8c9f c5bd 2e5b 9dbb e155 a2bd d395 78bd
000003c0: f6b1 a9bd ab96 22be e999 3cbe ac6a e1bd
000003d0: 772e 6abc 3fe2 c3bd 12b4 2ebd 58fc 55be
000003e0: faba e9bd 961b 75be fae8 06be 949f 4bbd
000003f0: 50b6 5ebe a163 47be e1c6 b6bd a6b2 dcbd
-0.24172294 -0.07622735 -0.14674145 -0.16759601 -0.043345567 -0.05298402 -0.10916092 0.050133217
-0.013894928 -0.041342556 -0.19466683 -0.08640938 -0.17758647 -0.03047724 -0.16270316 -0.2069644
-0.22612564 0.035726823 -0.12006826 -0.06016598 -0.12977113 -0.0066412576 -0.07701028 -0.084727824
0.10148564 -0.0005581545 -0.07468945 -0.01467223 -0.13967508 -0.034588158 -0.022935495 -0.13350868
-0.08130309 -0.16325909 -0.13127612 -0.167615 -0.045459114 -0.05404197 -0.18101706 -0.014702235
-0.02780449 -0.0058948356 0.016005838 -0.058430694 0.0126807615 -0.050340306 -0.13258916 -0.06068728
0.07043084 -0.11555936 -0.16077924 -0.11041198 0.017346121 -0.12207565 -0.20387203 -0.032930445
-0.15860467 -0.018241178 -0.050019395 0.017221518 -0.12270553 -0.074615374 -0.05402762 -0.12667936
-0.023494449 -0.1900719 0.04777339 0.0227658 -0.06764565 -0.13865428 -0.15865853 -0.032808777
-0.111646496 -0.07163075 -0.012083002 -0.0533001 -0.19258387 -0.10585917 -0.25163034 0.01939146
-0.0001538914 -0.059651032 -0.11063443 -0.15297207 -0.07445331 -0.19161102 -0.08548062 -0.100632146
-0.103625156 -0.101807624 0.016998298 -0.12287743 0.062850505 -0.008314429 -0.028602326 -0.022059869
0.075527124 0.033444233 -0.11849601 -0.07184616 0.06032961 -0.021678913 -0.16727746 0.10645821
-0.24086057 -0.016194291 -0.0070080915 -0.19178098 -0.20237789 -0.018745199 0.012600169 0.12106459
0.014462435 -0.10020496 -0.07583968 -0.038215052 -0.074123755 -0.0995797 0.02769475 -0.22322786
-0.0662633 0.02071302 0.03444705 -0.17798361 -0.102165155 0.0613042 0.11218488 -0.13790107
-0.07722117 -0.17189161 -0.07240501 -0.0038729946 -0.04199399 -0.090191886 0.0087516755 0.0041406173
0.0897001 -0.19133107 -0.07133026 0.0047481814 0.016989226 -0.06880111 -0.11497253 0.07639296
-0.07348263 0.011490947 -0.031935103 -0.14452907 -0.028459648 -0.10234482 -0.10333911 0.0789484
-0.010357553 -0.012514387 -0.12900053 0.022346972 0.06578331 0.053737115 -0.18266338 0.061506227
-0.106090195 -0.21930683 0.073481984 -0.20549145 0.022784 -0.111154534 0.021052556 -0.11271617
-0.03178789 -0.15532076 -0.08255988 -0.20478557 -0.099131934 -0.12760577 -0.13322428 -0.0092412215
0.058029015 -0.08422941 -0.20473845 -0.006087964 -0.06312772 0.0025574137 -0.21081479 -0.09225573
-0.024642995 -0.01386468 -0.01216895 -0.19795457 -0.05238526 -0.17857629 -0.17612809 0.1024894
-0.010040818 0.029665563 0.049074534 -0.23308304 -0.16075943 -0.23386212 -0.11358773 -0.052452844
-0.06024801 -0.21689355 -0.2166708 -0.13140665 -0.07425933 -0.15927875 0.0916201 -0.042647216
-0.08380004 0.019364623 0.04387657 -0.08690467 -0.1012671 -0.03036889 -0.19361067 0.046482738
0.01611524 -0.12369536 -0.10038423 -0.02732014 -0.19216695 -0.08865303 -0.21713354 -0.008580117
-0.022058515 -0.21404798 0.0074249394 -0.023390472 0.0039349697 -0.20972385 -0.07650921 -0.09119979
-0.18848094 -0.10723774 -0.0350944 -0.083290555 -0.09649572 -0.004802129 -0.07926536 -0.06068976
-0.082858965 -0.15877788 -0.18418087 -0.11006674 -0.014293305 -0.095646374 -0.042652197 -0.20897043
-0.11412616 -0.23936304 -0.13174811 -0.049712732 -0.21749234 -0.19471599 -0.08924652 -0.10776262

network.3.weight f4 [256, 512]
00000000: e0fb 60bd 2736 bfbd 473f 26bd baf9 c5bc
00000010: 5893 c6bc 0f93 25bd e8ff 853d 99eb 93bd
00000020: 9463 45bd 531d 123d 921c 3abd 09e6 aabd
00000030: 5260 173c 4c43 0fbd 8277 3c3d 72e7 863d
00000040: 5ab3 123d 9887 333d 5015 783c affa 353d
00000050: 8e00 e63b 519a 243d 71c1 b43c 5479 2ebd
00000060: 19ed 663c c903 efbc e817 213b ce62 10bd
00000070: f15f 74bc 55c5 853c 62f2 53bc b839 273d
00000080: 8010 403d e861 b13c 39e6 e63c e5c3 0bbd
00000090: 579a 783b 4fff dfbc 17f1 9a3d 241f 1c3d
000000a0: 1f87 06bc 6e36 0dbc fd57 99bc a606 8dbd
000000b0: 9fa0 a83c 8ec5 813c 2952 fcbc f321 74bd
000000c0: 31f1 68bc 58ed 803d 21f6 f1bc a393 2b3d
000000d0: 86b1 29bd 62b1 96bb d37b 63bd 5cc7 41bd
000000e0: 6196 643b c8d5 6b3d d290 04bd dfb0 c13c
000000f0: 0a0e 793b 51c4 3c3d 53ca 8c3d 0c75 e0bc
00000100: 5a10 12bb 785c 9b3d 125d abbb a344 01be
00000110: 5c88 b6bd 91f0 86bb 4e53 7b3c ad39 66bd
00000120: 8a29 5f3d f9eb 2b3b 73e6 a7bc d3fd 1abd
00000130: 1655 9b3c 12f0 a53c 6c5f 383d dee3 443d
00000140: 852c a63c b996 20bc d4a3 2dba 1d1b ca3c
00000150: 103a 9fbc 49e7 343d 576d febc e5a5 223d
00000160: cf5f a43d 47a4 493d 32e6 d6bc e6c9 bc3a
00000170: bfee 5bbc be9e c0bd 0ce0 1cbe e177 c43d
00000180: 841f a23c 80f3 43bd 8848 8d3c ff6c 8f3d
00000190: 4f0e 32bd 052e 433d 8bb9 febd aa43 e3bc
000001a0: 266a 1c3d 2690 70bd 6ce4 073c e6ca 533d
000001b0: d17a a53d 3bb1 11bd b2cd 9abd f8fa bfbd
000001c0: 4e8c 043c 100f d7bb 96b8 09be e360 f4bd
000001d0: db27 e73c 8ab8 9a3c 8637 0a3d 072a 253c
000001e0: 6877 8e3d c95d 473c 6e3d 78bc fdd3 2e3d
000001f0: 570f 5ebd 8e91 4ebc 4065 13bd b74f 00bc
00000200: db92 1f3d 1d9f 273d 9a5e 5bb9 e106 cd3c
00000210: 2c10 b03d 8a92 0ebd ca2a 6c3d cede bebd
00000220: 49f9 613d ac57 29bd 5546 16bd a231 7bbb
00000230: 1c57 58bd f99b c83c 7dc1 00bd e1c5 20bd
00000240: dfed e8bc b2d0 043c 9881 f93c ea23 243d
00000250: 081c 013d a4c1 39bb 9f7f 30bd 54d0 b9bd
00000260: 95e0 4f3d 5295 b83c 2276 473d 608e 0dbe
00000270: 33f7 073d 06eb 08be 5ca7 7c3c 8347 d13c
00000280: 03e9 3a3c 2e04 14bb 0f81 bebd 6a99 f73c
00000290: 6200 0d3c 0dfd 03bd 178d 0abd a840 ca3c
000002a0: 1897 0d3c 2f66 21bd 3df4 b8bd 7b52 a4bd
000002b0: f841 053d c6aa 24bc 02c7 003d b26f 94bd
000002c0: 0fd5 993c aa75 01bd a30b 673d 60e8 60bd
000002d0: 092b fe3c df6a 803c ab51 c6bb ca4d 923c
000002e0: 3490 6ebd 1eca 91bc 641a 383d b7ad 403d
000002f0: cd6c 8f3d a880 0f3d f833 efbc b248 083d
00000300: 8895 98bd 4bb9 68bc a3f0 0a3d 5f4d 9bbb
00000310: 5122 6bbd 44b4 07bd 3543 92bc 67ab 943d
00000320: fe23 58bd 293b 2c3d fea8 783d e2a7 b5bc
00000330: f6c6 763d 0806 85bd fcae 2a3d 8c24 51bc
00000340: 7d82 1cbd 154a 163d 2bc1 4abd 2c1e 6fbc
00000350: 9a2a b13c 5f73 0dbd 1981 ad3c dfae b53d
00000360: 1213 b9bd 9b3d 27bd 3869 bdbc d2bc 403c
00000370: 3034 413d 8502 07bd 1ad7 8d3b 1903 2ebd
00000380: 5c42 fa3c e88f be3c e95a 49bc 59c0 2e3c
00000390: f321 88bd 8a7a 5a3c 8f3f a9bd 0d8e 3d3d
000003a0: b69a 5a3d ef90 35bd b750 113d 613b 09bd
000003b0: bf34 803d a8d2 b0bc 0fa3 973c 6a46 bfb9
000003c0: f5eb ddbb c6ad 063c 02cf 333c 78aa 4bbd
000003d0: a450 293d 8694 363d 3a59 61bc 105d deba
000003e0: a736 ac3b 1df2 143c 5a25 2ebd eda4 9d3c
000003f0: d0ab a23d 0894 d63c 55ab 123d 7698 3fbc
-0.054927707 -0.093365006 -0.04058769 -0.02416693 -0.02424018 -0.04042345 0.06542951 -0.07222671
-0.04819067 0.035672497 -0.045437403 -0.08344657 0.009239273 -0.03497629 0.04601241 0.065871134
0.035815574 0.043830484 0.0151418 0.044428524 0.007019109 0.04018623 0.022064896 -0.042596176
0.014094614 -0.02917661 0.00245809 -0.035250477 -0.014915452 0.016329447 -0.012936207 0.04082653
0.046890736 0.02165313 0.02818595 -0.034122366 0.003793379 -0.02734342 0.075655155 0.038115636
-0.008210926 -0.008618934 -0.018718714 -0.06886034 0.020584403 0.015841272 -0.030800896 -0.05960269
-0.014217661 0.0629527 -0.029536309 0.041888844 -0.041429065 -0.0045987824 -0.05553801 -0.047309265
0.0034879672 0.057576925 -0.032364674 0.023643909 0.0038002753 0.04608566 0.06874528 -0.027399562
-0.0022287578 0.075859964 -0.0052296007 -0.12623839 -0.08912727 -0.004118033 0.015339686 -0.056207348
0.054482974 0.002623318 -0.020495629 -0.037839722 0.01896147 0.020256076 0.045012876 0.048068874
0.0202849 -0.00980156 -0.00066238386 0.024671132 -0.019436866 0.044165883 -0.031057997 0.03970899
0.080260865 0.049228933 -0.026232813 0.0014403432 -0.013423621 -0.09405278 -0.15319842 0.095931776
0.019790418 -0.04783964 0.0172465 0.07003211 -0.043470677 0.04765131 -0.12437733 -0.027742226
0.03818717 -0.05873122 0.008294206 0.05170717 0.08080066 -0.03556941 -0.075587645 -0.0937404
0.008090092 -0.006563075 -0.1344932 -0.11932542 0.028217247 0.018886823 0.033744358 0.010080821
0.06956369 0.012168356 -0.015151365 0.042682637 -0.054213848 -0.012607945 -0.03598523 -0.0078315055
0.03895841 0.040923227 -0.0002092071 0.025027694 0.085968345 -0.03480772 0.057657994 -0.0931984
0.055169377 -0.041343376 -0.036688168 -0.0038329144 -0.05281745 0.024488436 -0.031434525 -0.039251212
-0.028433738 0.008106397 0.030457303 0.040073313 0.031520873 -0.0028344179 -0.04309046 -0.090729386
0.050751287 0.022532139 0.048696645 -0.13823843 0.033194732 -0.13370904 0.015420761 0.025546795
0.011408093 -0.00225855 -0.0930196 0.03022452 0.008606048 -0.03222375 -0.03382596 0.024689034
0.008641981 -0.03940409 -0.0903096 -0.080235444 0.032533616 -0.010050481 0.03143979 -0.07247867
0.018778352 -0.031606354 0.056407582 -0.05490911 0.03102638 0.01567596 -0.006052216 0.017859358
-0.05824299 -0.017796572 0.044947043 0.047040667 0.07003174 0.035034806 -0.029199585 0.033272453
-0.07450396 -0.014204334 0.033920895 -0.004739448 -0.057405774 -0.0331309 -0.017854312 0.07259255
-0.0527687 0.042048607 0.06070804 -0.02217478 0.060248338 -0.06495291 0.041670784 -0.012765061
-0.03821038 0.036691744 -0.049500626 -0.014594596 0.02162676 -0.034533855 0.021179723 0.08871245
-0.090368405 -0.040830236 -0.023121461 0.011763768 0.04716891 -0.032961387 0.0043286206 -0.042483423
0.03054922 0.02326198 -0.012289741 0.010665976 -0.066471 0.01333488 -0.08264076 0.04627805
0.0533702 -0.044327673 0.035477366 -0.033503894 0.062600605 -0.021584824 0.01851037 -0.0003648282
-0.006772513 0.008220142 0.0109746475 -0.04972312 0.04133667 0.044575237 -0.013754183 -0.0016964991
0.0052555385 0.009090927 -0.04251609 0.019243682 0.07942927 0.026193634 0.035807926 -0.011694064

network.3.bias f4 [256]
00000000: d142 5bbd 0f80 b3bb bdfa 8cbc 5714 8abd
00000010: 45d7 49bd 8ac8 41bd b94a 453d 8749 2e3c
00000020: b361 6cbc 2029 983d aa24 423c aa6d 873c
00000030: 04b5 2c3d 2285 8f3c 4a67 8ebd d97f 7ebd
00000040: bf3d 0c3d 3e02 78bd 3158 1c3c db63 32bd
00000050: 1ea4 dd3a 429b 863d 014d 91bc d097 663d
00000060: 4cb1 c53c 3494 a63c 4a1b 403c 2b13 003d
00000070: 8e7b 75bc 4737 e13b 80db 63bc 5c78 bd3d
00000080: 34e0 f6bc 48a8 b33c e875 1d3b 45ca 053d
00000090: 06d6 a6bc 817f 8ebd dd2d 11bc 2e8b a53c
000000a0: 590b 12bd 29fc 2c3d 8339 3cbd f8fc 0fbc
000000b0: 55a0 f03c 8499 8f3d 8d29 553d 0754 463d
000000c0: 9970 493d 2d00 7a3b 0d07 9b3d 266c 753d
000000d0: 571d 4a3c 8290 6c3d 2372 89bc 1538 193d
000000e0: 6c36 a0bb 7cb9 6f3c 6481 e239 acf4 913a
000000f0: 940d 68bb 4b2c 0ebd c524 4c3c afed 8f3c
00000100: 2aac 4abc d786 293d 7add e23c be24 22bd
00000110: 7ea6 543c 9928 4d3d 83bd 62bc ab4d 85bb
00000120: eb50 103d 5184 aebc 87b5 38bc 4711 f33b
00000130: 9be7 103c 25a5 2f3c 3dd8 1f3d 5c48 27bd
00000140: fc54 38bd a976 e23c 923a d03c aceb 02bd
00000150: 3569 b6bb bea0 363b eb8a 633b 947d b03b
00000160: a7c8 a9bc 2a22 86bd 0969 acbc 6541 113d
00000170: a100 c63c 32e1 4bbc eb92 02bd 82c5 253d
00000180: 6479 383c 0900 40bb 725a 563c f3d8 8f3b
00000190: 8138 123d 1cdb 8c3d e253 3dbd b7b3 d3b9
000001a0: 2770 a6bc 30e8 c23b 6d53 6a3d 9e76 debc
000001b0: 21f5 633c 2d0b 32bc ef92 8a3c e182 ab3b
000001c0: dd77 863d ece1 0abc 7f4c a93d e5f8 4e3d
000001d0: e2d2 c2bc d67b 4abc db9a a03d 1c92 e43b
000001e0: 3c26 283d fc18 4c3d dddd c83c 4886 9cbc
000001f0: 7e07 923c 3ade 4c3d 0fb2 5b3d 80e1 4dbd
00000200: 08af 0c3c 6ead acbb 0bfd 01bd 6095 903b
00000210: fe0d 073d 8ed4 8b3c efae ffbc 156e f93c
00000220: 012d 2e3d 3e52 00bd a3d7 353d a04f 813c
00000230: 9a08 673c d910 e63a 6147 0cbc 2d5e 6e3c
00000240: e112 2f3d dd97 f3bc eaa7 bf3c 8be3 7c3d
00000250: 2cc7 f1bb 6820 d43d fa21 413c b30f 66bc
00000260: f3af 4d3d 8647 c73c 3186 c13c c687 07bd
00000270: fa35 30bd df11 acbc cccf b7ba afdb 823c
00000280: 8df4 07bc 73a4 203d bfdc 23bd 693b a33b
00000290: e9c9 f33c 8b2c 503d 60fc 403d 73ee 8b3d
000002a0: 69b6 563c 0536 10bd 4c2d 8a3d 0d98 2c3c
000002b0: c0c9 1a3d a269 1ebb d529 883b 369f 88bc
000002c0: f839 d3bb 7ba0 88bc 83e0 7bbb 48de 553d
000002d0: c32a 9fbc cc16 0bbd 270c 9d3d 0273 fb3a
000002e0: e43a 163d 310c 0c3d a2d3 a6bd bb5a cabb
000002f0: 397d 01bd d57c 36bc 0801 163d 39b9 6bbd
00000300: ba38 2d3d a5b0 3dbc a106 a53b f554 7e3c
00000310: e317 143d bc29 a13d 6cd7 d7bc 84d4 1f3d
00000320: c67e d9bc 4985 3c3c daf1 6bbd 994d c3bd
00000330: 0f45 8e3d 3981 a23c e4d3 89bd 9dbb eebc
00000340: fd30 a3bc 0f94 8a3d 0f46 ccbc 2753 413d
00000350: 28ba 80bc 441d 8e3c 8baa 183c d72a b63c
00000360: 476d 41bd 9cea 1c3b 0115 b4bb c083 d33c
00000370: 5079 32bd 2099 b73c 8951 9f3b 87e8 3fbb
00000380: 0ba8 f4bb b57e a0bc 8d0b 75ba fd60 123d
00000390: 951f 833d 5048 303d 917e 2b3b 895e fe3b
000003a0: f97a 263d fbdf 77bd 62b7 1f3d 913f 8ebc
000003b0: 7046 03bd 56ed 153d 490f 88bc fc2d 1b3d
000003c0: 6f31 9fbc 44ae 853d 1c9a b53d 66c8 203b
000003d0: 6901 adbc 27f7 fb3c 8dca 013d 9afc 303d
000003e0: b65e a8bc 3b23 d1bd 83a2 853d 1863 603d
000003f0: 480c 093d 31bf e43b 8b60 833a 3400 e73c
-0.053530518 -0.0054779123 -0.017209405 -0.06742161 -0.049277563 -0.04731039 0.048166964 0.0106376475
-0.01442759 0.07429719 0.011849562 0.016531784 0.042164817 0.017519537 -0.069532946 -0.062133644
0.034238573 -0.060549013 0.009542511 -0.04355226 0.0016909873 0.06572582 -0.017736914 0.056297123
0.024132393 0.02033434 0.011725256 0.03126828 -0.014983071 0.0068730447 -0.013907313 0.09251472
-0.030136205 0.021930829 0.0024026576 0.032663602 -0.020365726 -0.06957913 -0.008861032 0.020207968
-0.035655353 0.042232666 -0.045953285 -0.00878834 0.029373327 0.07011703 0.05204158 0.04841998
0.049179647 0.0038147077 0.07569704 0.05991759 0.012336097 0.057755 -0.016778057 0.037407
-0.0048893 0.014631625 0.00043202483 0.001113554 -0.0035408484 -0.03471021 0.012459938 0.017569391
-0.012370149 0.04138836 0.027693499 -0.03958582 0.012979148 0.050087545 -0.013839128 -0.0040680966
0.03523342 -0.021303328 -0.011273748 0.007417831 0.008844282 0.010720526 0.03902458 -0.04084049
-0.045002922 0.027644472 0.025418554 -0.031963035 -0.005566741 0.0027866806 0.0034720253 0.005386064
-0.020725561 -0.06549485 -0.021046178 0.035462756 0.024170222 -0.012443827 -0.031878393 0.04047156
0.0112594105 -0.0029296896 0.013083087 0.004389876 0.035698418 0.06877729 -0.046222575 -0.00040378954
-0.02031715 0.005948089 0.057208467 -0.02715617 0.013913424 -0.010866922 0.016915767 0.005234108
0.06565831 -0.008476716 0.082665436 0.050530333 -0.023782197 -0.012358626 0.07842036 0.0069754254
0.04105209 0.049828514 0.024519855 -0.019106999 0.017825838 0.05001662 0.053636607 -0.05026388
0.008586653 -0.005269698 -0.03173546 0.004412338 0.03297233 0.017069127 -0.031211345 0.030447999
0.042523388 -0.031328432 0.0443951 0.015785038 0.014101172 0.0017552628 -0.00856194 0.01454882
0.042742614 -0.0297355 0.023395497 0.06174044 -0.0073784795 0.103577435 0.011787886 -0.014041829
0.050216626 0.024326097 0.023623558 -0.033088468 -0.043020226 -0.021004615 -0.001402372 0.015973894
-0.008298052 0.03921933 -0.04000544 0.0049814475 0.029759364 0.05082373 0.047115684 0.0683259
0.013105013 -0.035207767 0.06746921 0.010534299 0.03779006 -0.0024171849 0.0041553774 -0.01667748
-0.0064461194 -0.016678086 -0.003843338 0.052213937 -0.01942957 -0.033957288 0.076683335 0.0019184055
0.036677256 0.034191314 -0.081458345 -0.0061753667 -0.031613562 -0.011138161 0.036622077 -0.05754969
0.042290427 -0.01157776 0.0050361906 0.015523185 0.036155593 0.07869288 -0.026347838 0.03902103
-0.026549708 0.011506387 -0.057603694 -0.09536285 0.06946766 0.019837009 -0.06729868 -0.029142195
-0.01992082 0.06766521 -0.02493575 0.04719844 -0.015713766 0.01734794 0.009318004 0.022237225
-0.047223356 0.002394355 -0.005495668 0.02581966 -0.043572724 0.022411883 0.0048620147 -0.0029282884
-0.0074663213 -0.019591669 -0.00093477295 0.035737026 0.06402508 0.043037713 0.0026167969 0.0077627343
0.04064462 -0.06051634 0.038993247 -0.017364295 -0.032049596 0.036603294 -0.016608851 0.03788565
-0.019432751 0.06527379 0.08867285 0.002453351 -0.021118836 0.0307575 0.031687308 0.04320965
-0.020552974 -0.10211798 0.06525137 0.054782003 0.033458978 0.0069807996 0.0010023279 0.028198339

network.6.weight f4 [128, 256]
00000000: 2960 0ebc b026 913c 0865 f6bc 3b26 763c
00000010: e111 043e 806e acbc e194 04bd 2c62 0a3d
00000020: 2111 66bd ecfe 213e a110 d13c a680 9abd
00000030: 6b28 cfbb 1235 45bd 4693 503d fe68 d43c
00000040: 5a69 7e3d fae4 773b 7b48 843d 0e0a e83c
00000050: 1844 68bc 619d 8b3d 3241 773c 0ac3 3f3d
00000060: f2b5 95bb 9689 a9bd d022 c13d cd8e 673c
00000070: d80b 803c 8162 8b3d 8adc 53bc 0e3f 623d
00000080: 9c8c 52bd cf29 e8bc e094 7a3d 2367 70bd
00000090: ac4f 623d d4ec ddbd 5837 173d 86fd 23bd
000000a0: 9643 13bd 9fb2 99bd a7c3 63bd 50e6 30bd
000000b0: bdb1 2e3b d51d 39bd bbea e13c 2037 0b3c
000000c0: 25f6 30bc ca5f 95bb c94f 5a3d 1d85 f73d
000000d0: 4e35 e73c ec39 d1bb 3fa8 b1bb 226c a93c
000000e0: 81c3 a13c 5714 3dbd c04d b23c e1bd fcbd
000000f0: 006a 19bd 1470 bdbc 417b f5b9 4ef9 e8ba
00000100: 1a5b 483d c965 bebd c6af 8abd 22c0 94bd
00000110: 8df1 38bd 1c28 fa3c 6471 583c 2993 0d3d
00000120: 1ba0 efba 5314 09bd 364a 95bd b0e9 18bd
00000130: b31c febd adbe d13d b59d 0b3d 1408 423d
00000140: 92ca 21bd ca6e 04bd d582 4f3d 481b 173e
00000150: bdef 013c a79a 61bd 074d a2bd 43d1 2c3d
00000160: d59d b03d 0869 0b3e 583d d83d 0e10 50bc
00000170: 95b7 87bd c5d0 0f3d 7c01 89bd c403 133e
00000180: f8b5 73bd d3df 76bd ce7d 81bd 3e79 babd
00000190: b187 94bd 893c 11bd e506 75bd 43c3 943c
000001a0: 021c 7a3d 4c81 d2bc 1eef 95bb ed78 bf3d
000001b0: 5ff5 aa3d 841a 2dbe 0277 313d 3361 923c
000001c0: 1f9a 1e3e 3d70 153d f5ff 883c c95f 0a3d
000001d0: 6674 a33c fa59 f33c b3d1 da3c 9ed7 073e
000001e0: 5319 213d 292a d8bc cd78 30bd d692 ea3c
000001f0: eebd b93d ff9c 1ebd 5f56 323d 8ff4 9b3d
00000200: d187 003c 1b3a 613c 5908 52bd c56e df3a
00000210: 104d c33c a2c5 c73d b29d 4bbd 23aa 123e
00000220: be73 3bbc 0a96 83bd 1c25 ccbc ee7b cd3c
00000230: ec80 3d3d b7c6 3b3d 6653 e8bc ddf7 3fbd
00000240: 1228 ae3d df1d 493d d8a6 b0bc eff3 133e
00000250: b872 363d 8d3f 3b3d 8958 023e 55a7 8e3d
00000260: 7da5 cd3d fe23 11bd 59b8 953a cac5 fe3c
00000270: e478 00be 0023 2dbb 4c41 bebd 4b80 893d
00000280: e141 4c3d 09a0 1b3e 8aa9 a73c d09c 9e3b
00000290: 3eb1 a73d 71d6 063d de99 aa3d 2c28 773d
000002a0: 3ab7 46bc 127f a2ba 7484 ef3d f177 e4bc
000002b0: dee8 e53c 856a 683d 968f 5c3d 5117 ddbb
000002c0: 82f4 9a3d 0316 0abd d3cb 24bd c811 c7bc
000002d0: e206 7bbd 5fba a73d ee8a 6f3c 5e7c cdbc
000002e0: 2045 da3c f896 9ebd a740 1bbe 1b13 9c3d
000002f0: 2689 b03c 7800 9fbd 110f 803d 181f 8abc
00000300: 1134 6c3d eb21 433e a473 0a3b 5f14 aa3c
00000310: f259 1e3d 1a37 6f3d 0b78 383c 03c4 7bbd
00000320: 5d87 f53c aa34 4cbd f573 ff3c 38fc 4abd
00000330: 3ade 813d 2c6d 653d fb82 9cbd d156 bb3d
00000340: 8463 c23c cc61 fb3c 21bc b6bd d4e5 313d
00000350: 8b6f 0bbd 634e bbbc 95d1 cdbd 5675 8d3d
00000360: 034d 00bd 5cbe c53d 8456 a5bb 6ff1 443d
00000370: 71c1 7fbd a531 98bd 4b83 0b3c b01d c23d
00000380: f259 9d3d 5abe e43c 0bdb 7a3d 2ee5 dc3d
00000390: 3577 093d e1ec 793d 79dd 58bd e11c 02bd
000003a0: b343 1ebd f214 453d c9bf d43d 8143 89bc
000003b0: d3b9 cc3c 4430 28bc be1f 09be 0675 36bd
000003c0: f291 eb3c ed28 c8bc a2b8 febc 7121 e53c
000003d0: 5e6e 93bb 47a8 0dbd 7b39 65bd f306 0d3c
000003e0: 9776 eb3d 5c86 0fbd 643d 053d 443c 8d3d
000003f0: 2892 d9bd 058c a93d 807a 3cbe 175f 563d
-0.008689919 0.017718643 -0.030077472 0.015023763 0.12897445 -0.021048784 -0.032368544 0.03378503
-0.05616868 0.15819901 0.025520625 -0.07544069 -0.006321957 -0.048146315 0.0509217 0.02592897
0.06211219 0.003782569 0.06459137 0.028325107 -0.014176391 0.06817127 0.015091227 0.046816863
-0.0045688087 -0.082781956 0.09430468 0.014133167 0.015630648 0.068058975 -0.012930999 0.055235915
-0.051403627 -0.028340248 0.061177135 -0.05869211 0.055251762 -0.10836187 0.036918014 -0.0400367
-0.035953127 -0.075047724 -0.05560651 -0.043188393 0.0026656233 -0.045194466 0.027577749 0.00849703
-0.010800873 -0.004558538 0.053298745 0.12085936 0.02822366 -0.0063850787 -0.005421668 0.020681445
0.019746544 -0.046161976 0.02176559 -0.12340904 -0.037454605 -0.023124732 -0.00046821873 -0.0017774494
0.048915006 -0.09296758 -0.067718074 -0.07263209 -0.045152236 0.030536704 0.013210628 0.03456417
-0.0018281968 -0.03346665 -0.07289545 -0.037332237 -0.12407818 0.10241447 0.034085948 0.047370985
-0.039499827 -0.03233222 0.05066188 0.147565 0.007930693 -0.05507913 -0.07924848 0.042191755
0.08623854 0.13614285 0.105585754 -0.01269914 -0.06626812 0.035111208 -0.06689736 0.14356905
-0.05949971 -0.06027205 -0.063228235 -0.09105156 -0.072524436 -0.03545812 -0.05982103 0.018159514
0.061061867 -0.02569642 -0.004575624 0.09349237 0.08347582 -0.16904646 0.043326385 0.017868614
0.1548848 0.036483992 0.016723612 0.033782754 0.019952964 0.02970599 0.02671132 0.13265845
0.03933079 -0.026387291 -0.043083955 0.02863447 0.09069429 -0.038723942 0.0435394 0.07615005
0.007844881 0.013746764 -0.051277492 0.0017046562 0.023840457 0.09754492 -0.049710937 0.14322715
-0.011441169 -0.06425102 -0.024920039 0.025083508 0.046265528 0.045843806 -0.02836008 -0.04686724
0.085037366 0.049100753 -0.021563932 0.14448522 0.044542998 0.045714904 0.12729086 0.0696551
0.1004133 -0.035434715 0.0011422738 0.031100173 -0.12546116 -0.0026418567 -0.09289798 0.06713923
0.049867515 0.15197767 0.020466585 0.004840471 0.08188103 0.03291935 0.08330129 0.060341045
-0.012128646 -0.0012397489 0.11695185 -0.027889224 0.028065141 0.05674221 0.05384787 -0.0067471643
0.075661674 -0.0337124 -0.040233444 -0.024300471 -0.06128586 0.08189844 0.014620526 -0.025083717
0.02664429 -0.07743639 -0.15161382 0.076208316 0.021549772 -0.07763761 0.06252874 -0.01686053
0.057666842 0.19055907 0.0021126056 0.020761667 0.038659997 0.05840216 0.011259089 -0.06146623
0.029971773 -0.049854912 0.031183222 -0.04955694 0.063412145 0.056012318 -0.0764217 0.09147418
0.023729093 0.030686282 -0.089226015 0.04343207 -0.034041923 -0.022864526 -0.1004974 0.06907146
-0.031323444 0.09655449 -0.005045714 0.04808181 -0.06244034 -0.07431344 0.008515189 0.09478319
0.07683171 0.027922798 0.061244052 0.107859 0.03356095 0.06101692 -0.052945588 -0.031765822
-0.03863878 0.048115678 0.103881426 -0.016755821 0.024990952 -0.010265414 -0.13391015 -0.044545196
0.028756116 -0.024433577 -0.0310939 0.027970048 -0.004499241 -0.03458431 -0.05596302 0.008607614
0.114972286 -0.035040244 0.03252925 0.068962604 -0.1062358 0.0827866 -0.18406105 0.05233678

network.6.bias f4 [128]
00000000: 7391 863c 325e 27bd 597d 493d 0568 393d
00000010: 0331 9abd 8930 c83d 7688 973c f8dc 7e3d
00000020: 0ad9 4f39 a2c3 903c cf01 11bc 144d b53d
00000030: fc4d 893b ad49 ad3d c0ca afbc d10e d5bc
00000040: d881 fb3d b2d0 d53d 391c f03d 3f66 943c
00000050: d171 adbd 44f3 523b a506 be3d 42ea 643d
00000060: d021 1c3d c7a8 973d f3fe ce3d efd6 563c
00000070: 22f7 3d3d 130e f53c 4943 083d 84c9 793d
00000080: 1947 ff3c 786b e73d 2d44 9c3c 4677 bc3c
00000090: f37f 783d dd8e 2f3c b939 853d 2ad7 b33c
000000a0: 97d4 2e3c 99da 1c3d cbf5 b33d 42fb 8b3c
000000b0: ad70 413c 5855 bdbc 2b99 c23b 1e8e cbbb
000000c0: d425 8dbb 965e c6bc 10a9 a13d 7edc 4bbd
000000d0: f09e 8bbc 66e9 903c 09b5 fd3c a946 903c
000000e0: 4e5b a5bc c0b2 e5bc dbfd c73c 337c 4bbc
000000f0: dee0 423d 059d b33d 429d 823b c508 273a
00000100: ba98 bc3d 2a34 d9bc d172 8d3d dd0d 433c
00000110: 8c71 d03c 8ae5 55bc c162 dd3b 0bec 82bc
00000120: 6679 54bc 5574 36bd 1af5 2e3d 7014 04bb
00000130: dc4c 7ebd 1f9a 833c 30bc 38bc 6d5a bc3d
00000140: c927 98bc 35f9 413c 2a5a 9c3c 44c1 52bc
00000150: c366 8e3d 0c5d cb3c 6ee8 7a3c e131 09bd
00000160: 2bbf e63c aaa7 a73d 771a a53d b320 cc3d
00000170: 6d4a 5e3d 6ed6 fb3d cd7c 36bd 7192 113c
00000180: bcf5 f63c 74e2 913d 0045 1a3b 3300 a13d
00000190: 06cf 893c 66b7 5bbd 4fa9 383d 12ff 6b3c
000001a0: 0539 053d 5102 f1bb 284a 2c3d b9ed 05bd
000001b0: f4ea c5bb fdbf 34bc dd93 753c 5cbc 883c
000001c0: 018f b03c c46e 72bd 99f8 893d f86c 463d
000001d0: 25be 8abd 3b84 0c3a 5471 d2bd 6f0c cdbd
000001e0: 91e4 0d3c c812 553d c0e7 7f3c 85d1 a23a
000001f0: e0da bb3d 55c7 fcbc f563 48bb 6ba0 5e3d
0.016426777 -0.040861316 0.049191806 0.045265216 -0.075288795 0.09774882 0.018497687 0.06222245
0.00019821912 0.01767141 -0.008850529 0.08852592 0.0041902047 0.08461318 -0.021458983 -0.026008042
0.12280625 0.10440196 0.11724133 0.018115161 -0.084689744 0.0032188455 0.09278611 0.05588747
0.038118184 0.074052386 0.101072215 0.013112768 0.046378262 0.029913938 0.033267293 0.060983196
0.031161832 0.11299795 0.019075477 0.023006093 0.060668897 0.010715214 0.0650515 0.021953184
0.010670803 0.03829441 0.08787116 0.017087582 0.011806649 -0.023111984 0.005938669 -0.00621201
-0.004307488 -0.024215024 0.07893574 -0.049770825 -0.01704356 0.017689418 0.030970113 0.017611818
-0.020185139 -0.028039336 0.02441304 -0.012419748 0.04757773 0.087701835 0.0039860317 0.0006371851
0.09208818 -0.026514132 0.06906665 0.011905161 0.025444768 -0.013055215 0.006756157 -0.015981695
-0.012968397 -0.044544537 0.042714216 -0.0020153783 -0.062085018 0.016064702 -0.011275336 0.09196935
-0.018573659 0.011839201 0.019085962 -0.012863461 0.06953194 0.024824642 0.015314205 -0.033494834
0.028167328 0.08186276 0.080616884 0.099671744 0.054270197 0.122967586 -0.044552613 0.008885012
0.030146472 0.07123271 0.0023539662 0.07861366 0.01682235 -0.0536417 0.04508334 0.014404075
0.03252508 -0.0073550125 0.04206291 -0.032697413 -0.0060399715 -0.011032102 0.014988867 0.01669138
0.021552565 -0.059187666 0.06736869 0.048443764 -0.067745484 0.000536028 -0.10275522 -0.10012137
0.0086604515 0.052019864 0.015619218 0.0012422061 0.091726065 -0.030856768 -0.0030577157 0.054352205

network.9.weight f4 [21, 128]
00000000: a6d0 ce3d 6e66 023e dcec 9ebc 709b 5d3d
00000010: 6af7 0b3d 99f7 46bd 5bad d53d 1f07 37bc
00000020: 0c71 59be ff07 ffbb e02a a13d 263a 7ebe
00000030: 136e 36be 2166 243d 9925 cd3c 69d6 0c3e
00000040: 4858 37bd 6ffa c83d 237c 16be e1ce efbd
00000050: e10a 3b3d 14c6 d23d 300c 423c 7980 41be
00000060: 5e15 8e3d ea20 19be c57d d43d 4b1a 37be
00000070: d0de 3bbe e63c 0cbe 7d00 74be 927c 5bbd
00000080: 8b69 a5bd 05cb 733d c057 803d b2d5 213d
00000090: 39b7 aebd 934e 45be 4203 9ebc f01a 73be
000000a0: 5989 27be f6a2 c53d 3b4f a53d a395 22be
000000b0: 1bcc ee3d 8554 3e3c 5aa2 83be c494 c83b
000000c0: e382 1b3d c870 ffbd 8f3c 793b 1f0a bf3c
000000d0: 3929 43be 9532 85bd a409 c63d 5b4d 8abd
000000e0: 89dc adbd 3aa9 f63d d066 a0bd c154 883d
000000f0: 40fa d53d c969 c9bd 9781 0b3e ede8 203d
00000100: 9ea3 f33c 896d ad3d cc1f 5ebe cc73 963d
00000110: 8cbb 14be ec63 8b3c ba9f f3bd 5d36 863d
00000120: eb74 003e 2cec 53be 58af cfbd 63b9 83bd
00000130: e9b6 8c3d d7e1 81bc 8ea7 5cbe 82c0 8bbd
00000140: db79 39be 172c 05bc adad cd3d 17f8 e53d
00000150: 09ac 1fbe 91e3 89bb b27b 793d 3d77 83bc
00000160: 1504 e23b 0257 3dbd 030e ba3d 5fb9 0dbc
00000170: bca8 d63d 559f 4ebe 6169 063e 22c0 603d
00000180: 13e8 1a3d e909 cc3d b04c 74be 6c29 cb3d
00000190: af44 b13d 0024 9ebb 677e 9a3b f8bd bebd
000001a0: 237a 02be a62f 903c 0040 3c3d 97f2 a7be
000001b0: 4764 5dbe bccc 703d 6866 9b3c ec7f e73d
000001c0: bf70 063d 0938 b83b 3923 a33d 6344 8d3d
000001d0: 57ad 983d 185f 60bb 1ca9 57be 8885 23bd
000001e0: 2989 2dbd cda1 e03d eb6a 3fbe 6d31 a63d
000001f0: fb95 2f3d 19ce 9f3d b184 c4bb 5580 8b3b
00000200: 8e19 9b3d 09bf 8dbe e216 9f3c 8b19 e23c
00000210: f53a 4cbe a38c 9c3d 6582 6abe 6d2f a8bd
00000220: 3fe9 eabd 055a 823d abb8 a13c 86cd be3d
00000230: 8bdb de3d 38a6 2e3d 3c8a b5bd f9a7 6bbe
00000240: 0023 0b3e 080d 21be 3bd0 183e 774d bd3b
00000250: 50c5 a2be 8d41 0a3c bbf2 0f3e cbec c53c
00000260: ab89 42be d72e 95bc 3c58 b93c 273c 01be
00000270: 4cf6 093d a9fe be3c 6f4b f3bc 91c3 f23d
00000280: 6eb8 a33d 0327 ef3d 5db4 193e 8f45 a43d
00000290: cdcb be3d 0422 3ebe 09cc 51be b623 e2bd
000002a0: 1ec6 b53d cb65 a13d 8fd6 b53d ecfb 6ebe
000002b0: 102c 30bc 154e adbd ba6d 81be bb80 333d
000002c0: 54be 513d 9e8e bb3d d310 8b3d 40e4 a6bd
000002d0: e7a2 32bd 0db6 693d 7780 40be 7d2c 2ebe
000002e0: 1d88 9a3d 08cb 6b3d 0de5 7a3d ad16 c13d
000002f0: ec8e 47be a9bc eb3d 5d3d 73bd 23ae 11bc
00000300: 8578 a53c ae6f 10be 7233 0dbe e24c 9e3d
00000310: e743 083e 1921 e8bd 7ea1 923d 2e30 d0bd
00000320: 5c76 67bd 9a80 46be fc83 273e e83f dd3c
00000330: 4c7a 27be 752b ff3d f5d4 8abd 0562 a5bd
00000340: 3f63 93bd 983a 813d 284e e1bd fe35 32be
00000350: 1daf 2ebe 0b84 a93c 10d8 f9bc d520 b33d
00000360: ff14 dd3d bb95 2c3e 2dc9 753c b1bb a93d
00000370: 7389 c63d edda 013e 64dc 573d 53ec 24be
00000380: ae26 343d 1f6c 8d3d 6c7d 243d 73cb 913d
00000390: 4172 83bd 62b5 023d 59b2 28be 6d53 e03d
000003a0: a6f6 c53d b640 203d c7ab 76be 7a28 06be
000003b0: a773 f7bd cf24 cebb f66a a43c bcf9 f1bd
000003c0: 8013 59ba 9159 35be e86f 8bbd 47ab 4d3d
000003d0: e8ab 92be 9fce a63d 2f51 35bd 97a6 93be
000003e0: e2eb 20be 642d 8dbd 586e b03d c23b fdbd
000003f0: 6fdb 043e 8261 993d b319 a5bd f0a6 b23c
0.1009839 0.12734386 -0.019400053 0.054103315 0.0341715 -0.04857597 0.104334556 -0.011171131
-0.2123453 -0.0077829356 0.07869506 -0.2482687 -0.17815427 0.04013646 0.025042342 0.13753666
-0.044761926 0.098133914 -0.14695792 -0.11709381 0.04566467 0.10291687 0.011843726 -0.18896665
0.06937669 -0.14953962 0.10375551 -0.17881124 -0.18346715 -0.13695106 -0.23828311 -0.053585596
-0.08076771 0.059519786 0.06266737 0.039510436 -0.08531041 -0.19268255 -0.019288663 -0.23740745
-0.16360988 0.09650223 0.08071753 -0.15877394 0.11660024 0.011616831 -0.25709802 0.00612125
0.03796662 -0.12472683 0.003803048 0.023320256 -0.19058694 -0.065037884 0.096698076 -0.06753036
-0.08489329 0.12043996 -0.0783211 0.066567905 0.10448122 -0.0983463 0.13623653 0.039284635
0.029741105 0.08468158 -0.21691817 0.07346305 -0.14524668 0.01701542 -0.118957 0.06553338
0.125446 -0.20695561 -0.10140866 -0.06431844 0.06870825 -0.01585476 -0.21548292 -0.06823827
-0.1811289 -0.008128188 0.10042892 0.1122896 -0.1559297 -0.004208036 0.06090898 -0.016048068
0.0068974593 -0.046225555 0.09084704 -0.008650153 0.10481402 -0.20177968 0.13126136 0.054870732
0.03781898 0.09962828 -0.23857379 0.0992001 0.086556785 -0.004826069 0.0047147754 -0.093135774
-0.12741904 0.017600846 0.045959473 -0.3280227 -0.21620284 0.058789 0.01896973 0.11303696
0.032822367 0.0056219143 0.079657026 0.06897809 0.07454937 -0.0034236368 -0.21060604 -0.039922267
-0.042367134 0.10968361 -0.1869313 0.08114896 0.042867642 0.07802982 -0.0059972634 0.0042572417
0.075732335 -0.2768481 0.019420091 0.02760007 -0.19944365 0.07644012 -0.22901304 -0.08212171
-0.114702694 0.06364826 0.019741377 0.09316544 0.10881718 0.042638987 -0.08864257 -0.23013295
0.1358757 -0.15727627 0.14923184 0.005777057 -0.31791162 0.00843848 0.14057438 0.024160763
-0.18997829 -0.018210812 0.022625081 -0.12620603 0.033682153 0.02331479 -0.029699055 0.118537076
0.079941615 0.11677363 0.1501021 0.0802108 0.09316216 -0.18567663 -0.2048799 -0.110419676
0.088756785 0.078807436 0.088788144 -0.23338288 -0.010752693 -0.084621586 -0.25279027 0.04382394
0.0512069 0.091580614 0.06790318 -0.08149004 -0.043612387 0.057058383 -0.18799005 -0.17009158
0.07545493 0.057566673 0.061253596 0.09428153 -0.19488114 0.115105934 -0.059384692 -0.008891615
0.02019907 -0.14105102 -0.13789156 0.07729508 0.13307153 -0.11334438 0.071597084 -0.101654395
-0.05650936 -0.19384995 0.16358942 0.027008012 -0.16355246 0.12459461 -0.067788996 -0.08075336
-0.07196664 0.06310004 -0.11001235 -0.17403409 -0.17058988 0.020692846 -0.030498534 0.087464966
0.1079502 0.16853993 0.015001577 0.082877524 0.09694185 0.1268117 0.052700415 -0.16105776
0.0439822 0.06905388 0.040158674 0.07118883 -0.064182766 0.03191126 -0.16474284 0.10953412
0.09666185 0.039124213 -0.24088965 -0.13101378 -0.12082606 -0.006291009 0.020070534 -0.11815211
-0.0008280799 -0.17709948 -0.06808454 0.05021217 -0.2864678 0.081448786 -0.044266876 -0.28838035
-0.15714982 -0.06893423 0.086147964 -0.123649135 0.12974332 0.07489301 -0.08061542 0.021808118

network.9.bias f4 [21]
00000000: ef90 623d 7017 b73d 4e75 34bd aaea 32bd
00000010: 86be 833d 8d4a 9b3d 19b8 ae3c 6ba5 98bb
00000020: ff6d 00be f677 d63d 2c4d 00bd 9227 413d
00000030: cd3c 553c 56d5 ea3d ede9 bf3c ef2b 0b38
00000040: e7cb ccbd 9d38 893d 8bdb 22bd 6efd 1c3d
00000050: 8959 c6bc
0.055314 0.08940017 -0.044057183 -0.043680824 0.06432824 0.07582579 0.021328019 -0.0046583912
-0.1254196 0.104720995 -0.031323597 0.047156878 0.013014984 0.11466472 0.023426974 3.31811e-05
-0.09999829 0.06700251 -0.039760154 0.038327627 -0.024212616
