models/NeuralNetwork-2_acc-53.43_loss-0.000002.pth (torch, 893391 bytes, 8 tensors)

network.0.weight f4 [423, 141]
0.00025560608 0.030580273 -0.039179824 0.022470137 0.030881407 -0.09595322 0.029928194 0.04462377
-0.014671973 -0.040434934 -0.009053971 -0.11553777 -0.014357536 -0.010181666 -0.06477337 0.033549465
0.007281576 0.021600686 0.072405554 -0.06296474 0.0355073 -0.04362498 -0.06450771 -0.021989273
-0.020100024 0.036960986 0.002425171 -0.056169637 0.021224044 -0.22709286 -0.095233336 0.074394844
0.06567306 0.034715306 -0.037086662 0.04889146 0.042435363 -0.05079757 -0.053818237 -0.019481814
-0.10882886 0.046913397 0.004164362 0.04005841 -0.029660178 0.05802853 0.0574273 0.0922043
-0.058292486 0.07544904 0.056246746 0.039207373 -0.06862387 -0.030238697 -0.012192021 0.12037424
-0.041586243 0.09035521 0.012990036 0.015646148 -0.08053914 0.042425644 0.014216036 -0.122828774
-0.07397648 0.0060871476 0.10377345 0.061254088 -0.062254295 0.033314914 0.05332779 -0.055922914
-0.04538628 -0.021226324 -0.0588348 0.012031454 0.118790165 0.008093767 0.01605523 0.03860643
0.06372733 -0.06466992 0.047223676 -0.03760055 0.013023608 -0.08282201 0.11644117 -0.027285216
0.00565108 -0.022424683 -0.05169046 0.11082729 -0.12571535 -0.030901771 -0.00974985 -0.050252423
0.15605767 -0.035906907 -0.05366832 -0.05003288 0.035376385 0.03326614 0.0093077915 -0.04129266
0.018099058 -0.10086423 0.021853242 0.005066329 0.009117459 -0.059391133 -0.010639415 -0.06938879
0.12673795 0.028434988 -0.059454814 0.09145136 -0.028827628 0.10808817 -0.048610147 0.046960782
0.038591757 -0.023731383 -0.064363405 -0.020449327 -0.0358407 -0.09715985 0.012291269 -0.06674279
-0.059848323 0.109270446 0.0014929035 0.056772437 -0.0020576299 0.038629107 0.060809236 -0.058581457
0.12065941 0.029259281 0.0029163852 -0.0068542687 -0.02289208 0.02622221 0.0042528915 0.018760642
-0.022574093 0.0314962 -0.03305237 -0.03445857 0.012308301 0.00957006 0.009377137 -0.044173524
-0.06707737 -0.04986141 -0.0038273686 -0.0029529568 0.1546185 -0.066926725 0.000906033 0.0099656265
0.092705 -0.06949766 -0.11270972 0.010730843 -0.095032506 0.113335826 0.00018867147 0.04594422
0.08538025 0.005353798 -0.12846972 -0.08046858 0.07537532 0.009135963 0.15058571 0.02971413
-0.0110405665 -0.0043079806 -0.013290086 -0.04074472 0.09465528 0.009405622 -0.06124931 -0.06557789
0.03134675 -0.034457494 0.01224838 -0.051615715 -0.033581354 0.16661745 0.026804779 -0.005387411
0.07993172 -0.050171446 -0.06357607 0.00039555161 0.09557094 -0.027626539 0.10704371 0.028302895
0.22048242 -0.051816247 -0.044037998 0.075018406 0.03267323 -0.044207647 0.049670912 0.14621931
-0.016764745 0.08543657 0.059866767 -0.06209512 0.03941853 0.071859844 0.080616094 -0.08274312
0.030136451 0.012641211 0.034795526 0.062724605 0.03988997 0.072188 0.03005761 -0.034102425
-0.06050039 0.054788306 -0.018329298 0.07092436 4.3572847e-05 0.047496486 -0.039907515 0.027897803
0.022858562 -0.008284238 -0.052046947 -0.0010634831 0.079213284 -0.06067767 -0.041551795 0.024346137
-0.03543004 -0.042252094 -0.0126932 0.079734944 -0.07462402 -0.025776517 0.056683473 -0.086944535
-0.04962804 -0.15599552 0.027580189 0.021478558 0.051299397 -0.010152351 0.09062268 -0.060396213
00000000: de02 8639 7b83 fa3c 067b 20bd 4b13 b83c
00000010: 01fb fc3c 1f83 c4bd f92b f53c 6ac7 363d
00000020: b762 70bc 1a9f 25bd 1b57 14bc 119f ecbd
00000030: df3b 6bbc 01d1 26bc e7a7 84bd 2a6b 093d
00000040: 499a ee3b ecf3 b03c 5d49 943d a8f3 80bd
00000050: 1a70 113d 1bb0 32bd 9e1c 84bd d922 b4bc
00000060: cea8 a4bc 6764 173d 9eef 1e3b 2212 66bd
00000070: 0cde ad3c 088b 68be b209 c3bd 535c 983d
00000080: 997f 863d a331 0e3d 2fe8 17bd 6942 483d
00000090: b4d0 2d3d 1d11 50bd 8370 5cbd 5398 9fbc
000000a0: aae1 debd 4328 403d 3375 883b 4a14 243d
000000b0: e7f9 f2bc 53af 6d3d e338 6b3d 9cd5 bc3d
000000c0: 1ac4 6ebd 0785 9a3d fd62 663d e997 203d
000000d0: ac8a 8cbd 25b7 f7bc 0bc1 47bc c586 f63d
000000e0: 5656 2abd 270c b93d 29d4 543c 5a2c 803c
000000f0: b4f1 a4bd 83c6 2d3d 60ea 683c a78d fbbd
00000100: fb80 97bd b276 c73b 2d87 d43d 91e5 7a3d
00000110: 5cfe 7ebd 3875 083d 3e6e 5a3d 6d0f 65bd
00000120: f7e6 39bd d4e2 adbc c2fc 70bd 931f 453c
00000130: 4248 f33d b89b 043c 4286 833c c721 1e3d
00000140: 7983 823d aa71 84bd 9d6d 413d 0903 1abd
00000150: f960 553c 969e a9bd b578 ee3d 3f85 dfbc
00000160: b22c b93b f8b3 b7bc 60b9 53bd 6bf9 e23d
00000170: 86bb 00be b625 fdbc d6bd 1fbc 7cd5 4dbd
00000180: 95cd 1f3e 1f13 13bd 50d3 5bbd 47ef 4cbd
00000190: d4e6 103d 1342 083d b57f 183c 7e22 29bd
000001a0: 7a44 943c e891 cebd 9205 b33c 7303 a63b
000001b0: 6561 153c 1e44 73bd f150 2ebc b61b 8ebd
000001c0: 98c7 013e 7ef0 e83c e486 73bd da4a bb3d
000001d0: eb27 ecbc 555d dd3d 6f1b 47bd f359 403d
000001e0: 6412 1e3d 5168 c2bc f6d0 83bd 5985 a7bc
000001f0: b3cd 12bd befb c6bd 5261 493c 72b0 88bd
00000200: 8423 75bd 2fc9 df3d 87ad c33a 378a 683d
00000210: 4dd9 06bb 8e39 1e3d 1b13 793d 1cf3 6fbd
00000220: 481c f73d 29b1 ef3c d320 3f3b c699 e0bb
00000230: 2c88 bbbc f6cf d63c d75b 8b3b ebaf 993c
00000240: 4eed b8bc 2902 013d ec61 07bd 6e24 0dbd
00000250: c2a8 493c becb 1c3c 90a2 193c 4cef 34bd
00000260: dc5f 89bd 7a3b 4cbd 97d4 7abb 6586 41bb
00000270: 5054 1e3e e110 89bd d882 6d3a de46 233c
00000280: 1edc bd3d ca54 8ebd 5bd4 e6bd 6bd0 2f3c
00000290: 67a0 c2bd 9d1c e83d 1dd6 4539 0230 3c3d
000002a0: d7db ae3d ea6e af3b 918d 03be b6cc a4bd
000002b0: 605e 9a3d 02af 153c 2433 1a3e 0c6b f33c
000002c0: 7ee3 34bc f629 8dbb a9be 59bc efe3 26bd
000002d0: a1da c13d 0a1a 1a3c 8ee0 7abd b34d 86bd
000002e0: 7365 003d 4d23 0dbd 6ead 483c 006b 53bd
000002f0: 9a8c 09bd c49d 2a3e b295 db3c e188 b0bb
00000300: 3eb3 a33d 9380 4dbd 2c34 82bd 0a62 cf39
00000310: b2ba c33d 0d51 e2bc bc39 db3d 79db e73c
00000320: 25c6 613e 463d 54bd 3061 34bd 40a3 993d
00000330: 5dd4 053d 1413 35bd ba73 4b3d 84ba 153e
00000340: 3856 89bc 5ef9 ae3d db36 753d 7457 7ebd
00000350: 5375 213d 412b 933d 0d1a a53d 3a75 a9bd
00000360: b8e0 f63c 151d 4f3c c185 0e3d c275 803d
00000370: aa63 233d 4dd7 933d 603b f63c fcae 0bbd
00000380: 42cf 77bd b469 603d 5327 96bc ca40 913d
00000390: fdc1 3638 ad8b 423d 1076 23bd ef89 e43c
000003a0: e141 bb3c 9dba 07bc 2e2f 55bd 9264 8bba
000003b0: 933a a23d 2689 78bd 3732 2abd 8d71 c73c
000003c0: 171f 11bd 8810 2dbd 24f7 4fbc 134c a33d
000003d0: 7ad4 98bd 4629 d3bc ee2c 683d fa0f b2bd
000003e0: c646 4bbd 4abd 1fbe d9ef e13c cdf3 af3c
000003f0: 511f 523d 0c56 26bc 6298 b93d 0562 77bd

network.0.bias f4 [423]
-0.13316505 -0.03850832 -0.1337509 -0.14485951 -0.13557974 -0.28930938 -0.08357135 -0.20782824
-0.1175109 -0.13717252 -0.19887076 -0.16340898 -0.05354153 -0.1930044 -0.048853315 -0.085236795
-0.10588011 -0.13860801 -0.20750053 -0.24491777 -0.073083974 -0.19267361 -0.14619656 -0.1094129
-0.13856182 -0.17107145 -0.26591632 -0.012360588 -0.053373307 -0.17596553 -0.06842917 -0.024413448
-0.18487406 -0.1347458 -0.038481727 -0.06796032 -0.029027507 -0.10962606 -0.1757791 -0.14407718
-0.12812495 -0.09933488 -0.12875015 -0.0966057 -0.10909804 -0.21415406 -0.17431603 -0.091626436
-0.09151036 -0.10123184 -0.08620666 -0.17398086 -0.14505337 -0.07849545 -0.15431876 -0.03916806
-0.1345319 -0.11757544 -0.111734144 -0.19802217 -0.15297265 -0.15018642 -0.122194216 -0.07144908
-0.005803351 -0.22640373 -0.18754722 -0.17371596 -0.15449134 -0.109537184 -0.124697134 -0.17124945
-0.19097279 -0.23037088 -0.15892802 -0.0342559 -0.027778527 -0.13013037 -0.12663005 -0.030894225
-0.099879734 -0.12908903 -0.019946473 -0.1179113 -0.046475884 -0.2376011 -0.10946982 -0.14472196
-0.09217448 -0.13562214 -0.07611983 -0.1043042 -0.13579781 -0.10384012 -0.14149028 -0.029406324
-0.13425422 -0.08984261 -0.14412661 -0.09049975 -0.13441713 -0.12498804 -0.06848668 -0.127288
-0.09894124 -0.13136654 -0.15049508 -0.1227293 -0.057167895 -0.07272437 -0.1577329 -0.12781836
-0.05642434 -0.07328012 -0.09321327 -0.11754204 -0.14546034 -0.07079491 -0.073873065 -0.10969406
-0.22648257 -0.18346548 -0.24110906 -0.18801591 -0.10024806 -0.16358292 -0.159298 -0.2207179
-0.13367312 -0.1686916 -0.09638467 -0.17938665 -0.22684619 -0.10512169 -0.17799106 -0.17079812
-0.0967059 -0.15699372 -0.23995551 -0.1096713 -0.044629056 -0.09524115 -0.19900255 -0.0541284
-0.11775327 -0.14911804 -0.0865842 -0.16332735 -0.19532105 -0.14855178 -0.031790454 -0.09818068
-0.08242526 -0.11174351 -0.06925496 -0.15737104 -0.005077538 -0.1141371 -0.13563983 -0.06334343
-0.0915124 -0.18629833 -0.20112026 -0.16048983 -0.043057736 -0.01073858 -0.14458388 -0.2922494
-0.20342058 -0.07770032 -0.05396328 -0.105632454 -0.07158472 -0.09936173 -0.10721274 -0.23585121
-0.14921996 -0.02959198 -0.097285666 -0.10063299 -0.025461566 -0.077624895 -0.2347906 -0.102439106
-0.036243364 -0.17277315 -0.029556975 -0.058167282 -0.18908139 -0.19649519 -0.20077993 -0.19228216
-0.16565573 -0.17861308 -0.15213402 0.0068300185 -0.10721825 -0.18923731 -0.18616445 -0.05547136
-0.18034364 -0.047470983 -0.21202731 -0.23353064 -0.17830317 -0.11761051 -0.12340235 -0.16057132
-0.04137448 -0.07591565 -0.21697487 -0.23371458 -0.15267433 -0.18625025 -0.059981592 -0.20246129
-0.07105698 -0.120237425 -0.1638273 -0.10366001 -0.04491966 -0.1762048 -0.18281034 -0.1503027
-0.17583546 -0.14020778 -0.1562542 -0.03184604 -0.1263329 -0.12150447 -0.10489771 -0.112675734
-0.16410904 -0.083783664 -0.07268495 -0.13483399 -0.26341194 -0.038897295 -0.09301524 -0.27189672
-0.16430894 -0.112831324 -0.20070776 -0.104403295 0.013319413 -0.12545139 -0.14626211 -0.24494103
-0.07292459 -0.15530884 -0.23895435 -0.1980426 -0.10874126 -0.11586391 -0.121619634 -0.23671389
00000000: 6b5c 08be e6ba 1dbd fff5 08be 0d56 14be
00000010: 6ad5 0abe 5c20 94be 7527 abbd edd0 54be
00000020: 8ea9 f0bd f476 0cbe c7a4 4bbe af54 27be
00000030: 5d4e 5bbd f2a2 45be 6a1a 48bd a190 aebd
00000040: acd7 d8bd 42ef 0dbe 057b 54be b9cb 7abe
00000050: 0dad 95bd 3b4c 45be 8db4 15be df13 e0bd
00000060: 26e3 0dbe 5b2d 2fbe 2f26 88be 1084 4abc
00000070: f89d 5abd 4f30 34be 9824 8cbd b6fe c7bc
00000080: a04f 3dbe cefa 09be 049f 1dbd c82e 8bbd
00000090: 18cb edbc a183 e0bd 70ff 33be f888 13be
000000a0: 3033 03be 1670 cbbd 14d7 03be 36d9 c5bd
000000b0: cb6e dfbd 344b 5bbe e77f 32be a4a6 bbbd
000000c0: c969 bbbd a452 cfbd 1e8d b0bd 0a28 32be
000000d0: df88 14be 39c2 a0bd bd05 1ebe b06e 20bd
000000e0: bbc2 09be 64cb f0bd dfd4 e4bd 53c6 4abe
000000f0: dda4 1cbe 78ca 19be f640 fabd e553 92bd
00000100: 092a bebb 61d6 67be 610c 40be 99e2 31be
00000110: fa32 1ebe 0855 e0bd 3661 ffbd 045c 2fbe
00000120: 5f8e 43be 58e6 6bbe 07be 22be ea4f 0cbd
00000130: cb8f e3bc e540 05be 4fab 01be e315 fdbc
00000140: bf8d ccbd ea2f 04be c966 a3bc 7b7b f1bd
00000150: 7f5d 3ebd b44d 73be b731 e0bd fe31 14be
00000160: f9c5 bcbd 88e0 0abe b7e4 9bbd 719d d5bd
00000170: 950e 0bbe 21aa d4bd d4e2 10be 88e5 f0bc
00000180: f079 09be 67ff b7bd ed95 13be ef57 b9bd
00000190: a5a4 09be bbf9 ffbd bf42 8cbd c957 02be
000001a0: b4a1 cabd f384 06be 621b 1abe 8059 fbbd
000001b0: e228 6abd 84f0 94bd bc84 21be d1e2 02be
000001c0: 351d 67bd e313 96bd 99e6 bebd e2b9 f0bd
000001d0: 8ef3 14be ecfc 90bd c34a 97bd 48a7 e0bd
000001e0: 0ceb 67be 60de 3bbe 4be5 76be 3e87 40be
000001f0: db4e cdbd 4882 27be 041f 23be e003 62be
00000200: 9be1 08be 7ebd 2cbe 5365 c5bd 22b1 37be
00000210: 5e4a 68be 0a4a d7bd 4a43 36be b4e5 2ebe
00000220: be0d c6bd f6c2 20be e6b6 75be 599b e0bd
00000230: f5cc 36bd cb0d c3bd 53c7 4bbe beb5 5dbd
00000240: a028 f1bd 66b2 18be 0f53 b1bd 493f 27be
00000250: 3e02 48be f51d 18be b536 02bd f412 c9bd
00000260: 93ce a8bd c8d9 e4bd 8bd5 8dbd e025 21be
00000270: 7a61 a6bb b6c0 e9bd 2be5 0abe 33ba 81bd
00000280: da6a bbbd fdc4 3ebe 78f2 4dbe 7257 24be
00000290: 4f5d 30bd def0 2fbc cc0d 14be b7a1 95be
000002a0: 7c4d 50be 5821 9fbd 9a08 5dbd d455 d8bd
000002b0: 029b 92bd 2a7e cbbd 5a92 dbbd fb82 71be
000002c0: 1ecd 18be e16a f2bc b53d c7bd ab18 cebd
000002d0: c694 d0bc cdf9 9ebd f26c 70be 98cb d1bd
000002e0: ec73 14bd 72eb 30be 7821 f2bc d140 6ebd
000002f0: 8d9e 41be 0936 49be 4199 4dbe 9de5 44be
00000300: a8a1 29be 59e6 36be 05c9 1bbe 59ce df3b
00000310: 3e95 dbbd 6dc7 41be e5a1 3ebe f035 63bd
00000320: 01ac 38be ef70 42bd b01d 59be a822 6fbe
00000330: 1b95 36be c7dd f0bd 5fba fcbd cf6c 24be
00000340: 4978 29bd aa79 9bbd a92e 5ebe e052 6fbe
00000350: a956 1cbe 63b8 3ebe 42af 75bd 0352 4fbe
00000360: 5286 91bd 0a3f f6bd 58c2 27be b34b d4bd
00000370: adfd 37bd 086f 34be a232 3bbe f3e8 19be
00000380: 360e 34be a192 0fbe 1a01 20be fe70 02bd
00000390: 695d 01be 56d7 f8bd 9cd4 d6bd 89c2 e6bd
000003a0: 330c 28be c596 abbd d9db 94bd ec11 0abe
000003b0: eedd 86be c552 1fbd c67e bebd 0c36 8bbe
000003c0: 9a40 28be 1c14 e7bd 5686 4dbe 65d1 d5bd
000003d0: ab39 5a3c 5476 00be bcc5 15be d2d1 7abe
000003e0: 7d59 95bd 4809 1fbe 73b0 74be aecb 4abe
000003f0: bdb3 debd 0f4a edbd b713 f9bd 2065 72be

network.3.weight f4 [282, 423]
-0.045505002 -0.011538015 0.030830175 -0.019127866 -0.016201016 0.015764046 0.06066056 0.04588628
0.03864225 -0.019151278 0.06323547 0.041606225 -0.044109594 0.035225675 -0.046007123 -0.03808017
-0.0061079334 0.032684382 -0.08871268 0.0091792615 0.0143183535 0.023870576 0.018109368 0.015884236
0.038819697 0.033514474 0.0072981557 0.06569102 -0.080287345 -0.0661758 0.062092535 0.013077233
-0.011364559 0.023022925 0.010657967 -0.014296564 0.0026311185 0.03191282 0.034435656 -0.012957915
0.021255054 0.04461511 -0.027882883 0.099542126 -0.041810147 -0.0736404 -0.042369645 -0.020324983
0.025436701 -0.009395601 -0.02811238 -0.019240031 0.03302562 0.040702306 0.024378823 -0.034981582
0.028852565 -0.102887295 0.059606183 0.11125974 -0.039117776 0.0026170728 0.0105323605 -0.060161237
-0.047871094 0.0054785507 -0.067244746 -0.017194793 -0.0047606034 -0.061497696 -0.02577573 0.07153246
0.021699814 -0.0014469477 -0.011825094 -0.0052255774 -0.06865622 -0.009431503 0.0030928345 0.0023244184
-0.05895637 0.04715386 0.037672248 -0.101170674 -0.020267377 0.008090916 -0.016858235 0.034567114
-0.044532783 0.016958771 0.009698798 0.07037999 -0.008952789 0.007653283 -0.027081277 -0.010616506
-0.017533863 -0.061746493 0.045019038 -0.012162282 -0.011085121 -0.00704077 0.016430689 0.012383505
-0.0073385565 0.028670844 -0.0045432467 -0.008406874 -0.012817663 0.028299274 0.043569416 -0.039412502
-0.053539716 -0.07785994 0.05755281 0.040373385 0.043385234 -0.024297286 0.0041332096 -0.014522376
-0.035017055 0.021157634 -0.019139772 0.026238218 -0.023306785 -0.053336147 0.040237233 0.0602029
0.0057336316 0.00027571272 0.0047449977 0.05709519 -0.117087714 -0.04620105 -0.045074757 0.0001196293
0.008067349 -0.08887193 -0.037986454 0.0070596975 0.018464405 -0.021964327 -0.03925616 0.079736345
-0.047868527 -0.010620356 0.0034088495 -0.06410529 -0.049559608 0.071910195 -0.071836546 0.031220717
0.0064932317 0.020974865 -0.0030464889 -0.054127656 -0.03392224 -0.087792926 -0.0010103788 -0.04436868
-0.056039397 0.0033061467 -0.0012142534 0.015260355 -0.105330214 0.056517135 -0.054286048 0.02707661
-0.00035294367 -0.034840666 0.0109136645 -0.0042756824 -0.031801514 0.0073424014 -0.017726295 0.08629255
-0.04658356 0.017737115 -0.030204251 -0.024623014 0.027247807 0.08245101 0.10842773 -0.0038273965
-0.043328155 0.009535852 0.0714333 -0.026783664 -0.009113104 -0.02103566 0.00402926 0.01791739
-0.05388769 0.040919013 -0.002208533 0.015971573 -0.091559686 -0.067528106 -0.080506384 0.053509634
0.029071484 0.020938436 0.03628165 -0.05084996 0.03772794 0.02169398 0.02476516 -0.012537158
-0.07081874 -0.013024904 -0.0055788127 -0.085850745 -0.008116892 0.00060989667 0.04722776 -0.020832209
0.030848749 0.024913428 0.085642956 -0.0009466709 0.036370095 0.057699077 -0.027792366 0.10113734
-0.047413886 -0.017265668 0.0135854725 0.070575505 -0.013298693 0.0675535 0.002043964 -0.035079163
0.07647767 0.02493759 0.0023179534 0.06714856 0.05208137 0.029897956 0.03152973 0.034192163
-0.08607313 -0.045879513 -0.08353161 0.018828347 0.05752586 0.058525752 0.0421645 0.02188419
-0.017872095 0.016560046 -0.03673064 -0.09433213 -0.0038580473 0.012573181 0.057332747 -0.0045604026
00000000: 7463 3abd f109 3dbc 908f fc3c 0bb2 9cbc
00000010: feb7 84bc 9a23 813c 3577 783d 40f3 3b3d
00000020: 5647 1e3d 24e3 9cbc 9981 813d 4a6b 2a3d
00000030: 43ac 34bd cc48 103d f771 3cbd f4f9 1bbd
00000040: 0f25 c8bb 0fe0 053d feae b5bd 9d64 163c
00000050: 8797 6a3c 3a8c c33c 195a 943c a81f 823c
00000060: 6701 1f3d 7946 093d 5e25 ef3b 0389 863d
00000070: b16d a4bd 2e87 87bd be54 7e3d e441 563c
00000080: 6a32 3abc 939a bc3c c19e 2e3c 233c 6abc
00000090: d86e 2c3b 04b7 023d 670c 0d3d 6f4d 54bc
000000a0: 141f ae3c 55be 363d a56a e4bc bedc cb3d
000000b0: 1e41 2bbd c7d0 96bd cb8b 2dbd 9480 a6bc
000000c0: a160 d03c 02f0 19bc ef4b e6bc 459d 9dbc
000000d0: df45 073d 76b7 263d 19b6 c73c d948 0fbd
000000e0: 375c ec3c 93b6 d2bd 9d25 743d 26dc e33d
000000f0: f639 20bd 3283 2b3b ec8f 2c3c a16b 76bd
00000100: 7b14 44bd 6a85 b33b 9db7 89bd 18dc 8cbc
00000110: d6fe 9bbb 02e5 7bbd a027 d3bc 9c7f 923d
00000120: cfc3 b13c 82a7 bdba 0abe 41bc 523b abbb
00000130: a29b 8cbd 9786 1abc 27b1 4a3b 4555 183b
00000140: 3c7c 71bd 6824 413d 374e 1a3d 9232 cfbd
00000150: c507 a6bc c38f 043c 481a 8abc 3f96 0d3d
00000160: 0268 36bd 1fed 8a3c b5e7 1e3c 6223 903d
00000170: b8ae 12bc 64c8 fa3b 8ed9 ddbc dbf0 2dbc
00000180: 2da3 8fbc e4e9 7cbd e265 383d 4f44 47bc
00000190: 5e9e 35bc 42b6 e6bb a799 863c 2fe4 4a3c
000001a0: 4678 f0bb 1edf ea3c 84df 94bb fcbc 09bc
000001b0: 2d01 52bc e1d3 e73c d875 323d 016f 21bd
000001c0: 764c 5bbd 0875 9fbd 7fbc 6b3d 905e 253d
000001d0: b7b4 313d 1a0b c7bc e06f 873b 42ef 6dbc
000001e0: 0b6e 0fbd c652 ad3c 03cb 9cbc 88f1 d63c
000001f0: dfed bebc 0177 5abd cccf 243d 5197 763d
00000200: 30e1 bb3b 898d 9039 ed7b 9b3b a5dc 693d
00000210: afcb efbd 503d 3dbd 4fa0 38bd 7ee1 fa38
00000220: ea2c 043c 7d02 b6bd af97 1bbd 0955 e73b
00000230: aa42 973c 88ee b3bc 11cb 20bd cf4c a33d
00000240: ca11 44bd 0001 2ebc 0167 5f3b a249 83bd
00000250: 04ff 4abd a745 933d 0a1f 93bd 97c2 ff3c
00000260: 2dc5 d43b 7bd3 ab3c 9aa7 47bb f6b4 5dbd
00000270: 0cf2 0abd c7cc b3bd b06e 84ba efbb 35bd
00000280: 9189 65bd f0ab 583b 9527 9fba 9106 7a3c
00000290: 5eb7 d7bd 837e 673d 0c5b 5ebd c4cf dd3c
000002a0: 4c0b b9b9 16b5 0ebd 3acf 323c 061b 8cbb
000002b0: 4e42 02bd 8798 f03b bc36 91bc 26ba b03d
000002c0: 67ce 3ebd 6d4d 913c e86e f7bc 34b6 c9bc
000002d0: cb36 df3c 13dc a83d 5c0f de3d 0fd5 7abb
000002e0: dd78 31bd 433c 1c3c 9f4b 923d 6a69 dbbc
000002f0: 214f 15bc fa52 acbc e207 843b 7ec7 923c
00000300: 57b9 5cbd b29a 273d 09bd 10bb d1d6 823c
00000310: a583 bbbd 2d4c 8abd 88e0 a4bd eb2c 5b3d
00000320: 5227 ee3c 1587 ab3c 119c 143d 0c48 50bd
00000330: 9d88 1a3d 93b7 b13c 4ee0 ca3c a768 4dbc
00000340: 6a09 91bd 6866 55bc 79ce b6bb 84d2 afbd
00000350: b6fc 04bc 79e1 1f3a e571 413d 4fa8 aabc
00000360: 84b6 fc3c 3f17 cc3c 9365 af3d 022a 78ba
00000370: cff8 143d de55 6c3d d1ac e3bc 1821 cf3d
00000380: 1035 42bd bb70 8dbc 9a95 5e3c e489 903d
00000390: c3e2 59bc 7d59 8a3d 07f4 053b 2baf 0fbd
000003a0: 53a0 9c3d eb49 cc3c cee8 173b 2f85 893d
000003b0: 4653 553d 8fec f43c 5125 013d 150d 0c3d
000003c0: 1c47 b0bd 28ec 3bbd 9f12 abbd e83d 9a3c
000003d0: 3ca0 6b3d b3b8 6f3d afb4 2c3d 7946 b33c
000003e0: 8068 92bc efa8 873c de72 16bd 3431 c1bd
000003f0: 4bd7 7cbb beff 4d3c bed5 6a3d 6e6f 95bb

network.3.bias f4 [282]
0.027318848 0.041752197 -0.021378512 0.025184475 0.021555314 0.02139955 -0.04383429 -0.033327907
0.05682103 0.05008379 -0.03997295 -0.019271865 0.050115258 -0.013747121 0.013644085 0.035418775
-0.047491603 0.020386843 0.090692 0.013286581 -0.027649345 -0.0009551771 0.011988323 -0.038861338
0.015334558 -0.024692746 0.014694295 -0.0045517967 0.008232373 0.019630369 -0.010004287 0.004168146
0.040067684 0.024972143 -0.00270001 0.0049102018 0.07510775 0.005416317 0.0015718314 -0.012048973
-0.015136716 0.021553406 0.056993607 0.076939486 -0.020875191 -0.0012215688 -0.0068762116 0.04395802
0.038433246 0.034221124 -0.007443957 0.01936183 0.019736618 0.055259574 0.010860241 0.038474966
0.052777052 0.02856935 0.056235537 -0.022085126 0.011086406 0.023605993 -0.015571835 0.011086561
-0.041323867 -0.008801774 0.03189615 0.01144079 0.0062878504 0.008604717 -0.024499305 0.020894887
0.0134922685 -0.03846184 0.040789735 0.06559726 0.06701383 -0.054125816 0.0053851334 -0.0036011946
0.051078323 -0.0048603155 0.08453891 -0.0065025883 -0.031833 -0.07904842 0.021294821 0.010617337
-0.03665073 0.025464041 -0.038997255 -0.032165624 0.006327844 0.03752211 0.014355152 -0.0466057
0.06313871 -0.024474874 0.004056979 -0.043880753 -0.05348505 0.08569157 0.030143913 0.0510304
0.008280607 0.04890045 0.031867474 0.036139768 -0.03437926 0.023923855 -0.016526124 0.028390003
0.037498172 -0.012346134 0.013139138 0.012983143 0.04288552 -0.039358355 0.054115687 0.005465671
0.049362242 0.011682996 -0.004336067 0.0028248723 -0.00096136064 0.0264498 -0.05534128 -0.013235678
-0.0072644074 0.020112773 0.0076594776 0.039587796 0.019167053 -0.046020877 -0.0010333728 0.053712077
0.03655367 -0.047539327 0.03286292 0.09099921 0.0066856737 0.0072366805 0.05981856 0.027299792
-0.044869114 -0.010681507 -0.028807985 0.0066670305 0.10372297 0.009192914 0.08587776 -0.020140545
0.057143558 0.006224441 0.044573948 -0.021271933 0.075321 0.010515215 0.052655064 0.08864949
0.090344 -0.015565935 0.043083575 0.024987657 0.06206107 0.000752033 0.083666004 -0.04507323
-0.025607387 -0.07384456 -0.024037734 -0.012099118 0.025373828 -0.028609617 0.05514875 -0.011168263
0.034134842 0.009970881 -0.0043877065 -0.06508144 -0.06345885 -0.00044002317 0.06200471 0.055559196
0.025506727 -0.06990385 -0.028639238 -0.0014577869 -0.016280934 0.0652871 0.023716481 0.0135560585
-0.011228978 -0.031306297 0.025831744 0.029430674 -0.037143536 -0.012750049 -0.005852252 0.06945987
0.020132776 -0.01387134 0.025367234 0.051457062 -0.060551744 -0.028852705 0.029404351 0.021993972
0.003066439 -0.011133474 0.009897104 -0.015427762 -0.028272174 -0.029135212 -0.05321199 -0.009352533
0.07353741 0.008631076 -0.047044523 0.05375336 -0.033883777 0.032797255 0.015194302 0.045613836
-0.0040233512 0.035458677 0.055637784 0.002738035 0.05362718 0.03077392 -0.026660314 -0.0035549402
-0.016370697 0.09492366 -0.045703825 -0.016289793 -0.0032996398 0.006089963 -0.019987237 0.051260225
0.0037699947 0.021692812 -0.050377972 0.039852224 0.0405068 0.01528595 -0.007729623 -0.06633832
0.04080372 -0.03313183 0.032219857 -0.0015564304 0.05780554 0.055936 -0.0115828775 0.012714489
00000000: c7cb df3c 5a04 2b3d fd21 afbc ac4f ce3c
00000010: c594 b03c 1c4e af3c 968b 33bd d882 08bd
00000020: 2bbd 683d a924 4d3d adba 23bd 08e0 9dbc
00000030: a845 4d3d 9b3b 61bc 718b 5f3c 4713 113d
00000040: 8e86 42bd 4f02 a73c babc b93d f6af 593c
00000050: e180 e2bc da64 7aba ac6a 443c 112d 1fbd
00000060: cc3d 7b3c 7148 cabc 57c0 703c 3d27 95bb
00000070: 13e1 063c decf a03c 05e9 23bc f194 883b
00000080: 031e 243d 6192 cc3c a7f2 30bb c2e5 a03b
00000090: 18d2 993d 5c7b b13b e905 ce3a 0e69 45bc
000000a0: fdff 77bc c590 b03c 2172 693d 7392 9d3d
000000b0: 7302 abbc 0c1d a0ba d851 e1bb 530d 343d
000000c0: 2e6c 1d3d 732b 0c3d 70ec f3bb b39c 9e3c
000000d0: b0ae a13c dd57 623d 27ef 313c ed97 1d3d
000000e0: c02c 583d 450a ea3c 3c57 663d deeb b4bc
000000f0: c2a3 353c 5b61 c13c 0321 7fbc 68a4 353c
00000100: 3743 29bd 5135 10bc 8aa5 023d 2772 3b3c
00000110: 500a ce3b cdfa 0c3c c4b2 c8bc c12b ab3c
00000120: ad0e 5d3c 2a8a 1dbd 2313 273d db57 863d
00000130: 8c3e 893d 08b3 5dbd c675 b03b 0502 6cbb
00000140: 8137 513d 4843 9fbb bc22 ad3d aa13 d5bb
00000150: 5263 02bd 23e4 a1bd 7a72 ae3c 57f4 2d3c
00000160: 131f 16bd f799 d03c 96bb 1fbd 1ac0 03bd
00000170: ce59 cf3b c9b0 193d df31 6b3c 9ee5 3ebd
00000180: de4e 813d 887f c8bc 68f0 843b 4ebc 33bd
00000190: 2413 5bbd 107f af3d 5ef0 f63c 4105 513d
000001a0: 62ab 073c d74b 483d 7887 023d 4b07 143d
000001b0: 44d1 0cbd f6fb c33c cb61 87bc 2792 e83c
000001c0: af97 193d 7047 4abc 8a45 573c 40b7 543c
000001d0: baa8 2f3d 3a36 21bd 69a8 5d3d 5f19 b33b
000001e0: 1030 4a3d 096a 3f3c 9115 8ebb 7e21 393b
000001f0: d203 7cba 40ad d83c 8aad 62bd 75da 58bc
00000200: 440a eebb 8bc3 a43c 5bfc fa3b d026 223d
00000210: 3904 9d3c 6380 3cbd 3d72 87ba 3201 5c3d
00000220: 4db9 153d 99b8 42bd 459b 063d cb5d ba3d
00000230: 7f13 db3b ad21 ed3b 4e04 753d d0a3 df3c
00000240: adc8 37bd 7d01 2fbc b9fe ebbc 1b77 da3b
00000250: b56c d43d e09d 163c aee0 af3d c9fd a4bc
00000260: 5d0f 6a3d 65f6 cb3b 2c93 363d 7a42 aebc
00000270: e541 9a3d 0248 2c3c d6ac 573d dd8d b53d
00000280: 4606 b93d 4308 7fbc 6778 303d eab2 cc3c
00000290: c033 7e3d 1524 453a 1559 ab3d b59e 38bd
000002a0: 95c6 d1bc d13b 97bd c8ea c4bc 613b 46bc
000002b0: c6dc cf3c b75e eabc a8e3 613d 17fb 36bc
000002c0: fad0 0b3d e85c 233c c0c6 8fbb 6b49 85bd
000002d0: b7f6 81bd e9b2 e6b9 a7f8 7d3d 0a92 633d
000002e0: 7cf3 d03c c029 8fbd d69c eabc 3613 bfba
000002f0: 985f 85bc 3eb5 853d 1149 c23c 3b1a 5e3c
00000300: bff9 37bc 083b 00bd 189d d33c 9918 f13c
00000310: d223 18bd 95e5 50bc 3fc4 bfbb fa40 8e3d
00000320: 7eed a43c 9e44 63bc f2ce cf3c a4c4 523d
00000330: 1b05 78bd 825c ecbc 65e1 f03c b42c b43c
00000340: 4ff6 483b 2d69 36bc 7727 223c b9c4 7cbc
00000350: 0c9b e7bc f8ac eebc d1f4 59bd 5e3b 19bc
00000360: c89a 963d 5b69 0d3c c2b1 40bd 7c2c 5c3d
00000370: b7c9 0abd 6a56 063d 86f1 783c 93d5 3a3d
00000380: 51d6 83bb 1e3d 113d 72e4 633d 9b70 333b
00000390: 2da8 5b3d 9619 fc3c bb66 dabc 00fa 68bb
000003a0: d71b 86bc 5667 c23d ef33 3bbd 2c72 85bc
000003b0: c53e 58bb 508e c73b 46bc a3bc 3ef6 513d
000003c0: 0412 773b 20b5 b13c 2259 4ebd 163c 233d
000003d0: 75ea 253d ec71 7a3c c748 fdbb 63dc 87bd
000003e0: cd21 273d 3eb5 07bd f8f8 033d 2301 ccba
000003f0: 80c5 6c3d 261d 653d 1cc6 3dbc 6f50 503c

network.6.weight f4 [141, 282]
0.02602756 -0.030106783 0.06273058 0.021928092 0.10979523 0.040708017 -0.092139825 0.11110346
-0.0035018588 -0.04084012 0.08055583 -0.015726201 -0.059609383 0.0068745543 0.07646749 0.025902562
0.024580855 -0.13001417 -0.053803787 -0.012262944 0.08601294 0.024848536 0.1292526 0.023576306
-0.05277423 0.16946669 -0.052336574 0.12755345 0.07097133 0.08913456 0.10268572 -0.07388532
0.042029615 -0.04511928 0.1726038 -0.06492649 0.015908638 0.05722652 0.019404797 -0.05361558
-0.04844419 -0.026583975 -0.122431464 -0.033946756 0.042417016 0.052289072 0.0008745952 0.09470333
0.040694606 -0.039676797 0.07970333 0.06590058 0.08362767 0.041916456 -0.059336428 0.009931722
-0.0071946005 0.02144136 -0.073814146 0.0017156957 0.108960606 -0.05796814 0.00044266382 0.0148050515
-0.029999241 -0.019522121 -0.16287394 -0.01096936 0.080865465 0.0031381778 0.04635188 -0.029748267
-0.02011232 -0.10012642 -0.14790839 -0.008170901 -0.054817073 -0.06991763 0.0011261475 0.052264854
0.12898241 -0.06903122 -0.015648175 0.07934935 0.028337922 0.06805993 0.08403352 0.10532482
0.08307554 0.066513725 -0.0024937633 0.10340372 0.07475945 -0.025301386 -0.027521893 0.08341034
-0.11853708 0.054855358 -0.013087056 0.11323787 0.08973986 0.06615627 0.07524981 -0.060090695
0.06409359 -0.058845278 -0.0727461 0.012448432 -0.06456417 0.08336375 0.06212942 0.047962636
0.058296777 0.06773904 0.02738962 0.1020003 0.12922221 0.097447135 -0.036708634 0.026271777
-0.030380905 0.039116427 -0.0052659987 -0.0054956437 0.0776501 -0.025317568 0.073833756 -0.06495082
0.070680216 0.017725164 0.03416136 -0.079637915 -0.0054341354 0.075151764 0.037780352 0.015644576
0.010091377 0.036875844 0.10742449 -0.16038424 0.007925269 0.011750917 -0.052055955 -0.032828584
0.15087324 0.003403373 -0.0016742336 0.031233061 -0.071734756 0.11957136 -0.03236602 0.03219081
0.029291736 -0.04566008 -0.024992602 0.017293632 0.026200803 -0.055870358 0.014840558 -0.07889758
0.100202456 0.09131457 0.008254397 0.124375165 -0.036678337 0.0011763365 -0.11876128 -0.022443976
0.0104140695 -0.019291496 -0.0424871 0.077453494 0.021738913 0.038571596 -0.02943394 -0.03170575
0.022354715 -0.13673945 0.011501731 0.11990656 -0.008051011 0.04746101 0.15358439 -0.0698299
0.014010902 0.04075343 0.00438148 -0.004934528 0.0478506 -0.06092325 0.053086776 -0.08707449
0.057431813 -0.09107261 -0.06340303 0.059733246 0.016802521 0.058622565 -0.12942809 -0.12629555
0.08085532 0.06819173 0.10043606 -0.044302072 0.11840076 0.02042222 -0.04277461 0.0036568798
0.013358582 -0.022716705 0.12576827 -0.12448868 0.034102168 0.0033840372 -0.015923768 -0.10167003
-0.107058614 -0.035513513 0.030229537 -0.011710785 0.041616015 0.08768604 0.050855298 0.0051379283
0.10783831 -0.12502421 0.06428973 -0.021973142 -0.016322598 -0.014364921 0.048136722 -0.029187275
0.11671444 -0.062131528 0.048141446 -0.10067428 -0.0048374147 0.079753205 -0.055873163 -0.016438385
-0.07540089 0.04632738 0.032161895 -0.006939925 -0.016959675 -0.06550784 -0.032070383 0.10431078
-0.037789553 0.13201123 0.069326654 0.074182436 -0.073439285 0.018860387 0.05584575 0.10763472
00000000: c037 d53c 80a2 f6bc e478 803d 8ba2 b33c
00000010: 52dc e03d 73bd 263d ceb3 bcbd 368a e33d
00000020: 717f 65bb f847 27bd 74fa a43d 3cd4 80bc
00000030: f828 74bd f143 e13b fd9a 9c3d 9c31 d43c
00000040: ca5d c93c 6f22 05be 5c61 5cbd 84ea 48bc
00000050: 8d27 b03d 288f cb3c cb5a 043e 1923 c13c
00000060: ca29 58bd ad88 2d3e e05e 56bd 5f9d 023e
00000070: 6b59 913d 2e8c b63d e44c d23d 3051 97bd
00000080: 3f27 2c3d ffce 38bd 0dbf 303e 2ef8 84bd
00000090: d552 823c 5b66 6a3d cff6 9e3c 039c 5bbd
000000a0: 6a6d 46bd a3c6 d9bc 59bd fabd c10b 0bbd
000000b0: 77bd 2d3d 112d 563d 1745 653a d2f3 c13d
000000c0: 63af 263d 2384 22bd 803b a33d e2f6 863d
000000d0: fc44 ab3d 97b0 2b3d c10a 73bd a9b8 223c
000000e0: afc0 ebbb caa5 af3c df2b 97bd 32e1 e03a
000000f0: bd26 df3d 0070 6dbd 5515 e839 e390 723c
00000100: f8c0 f5bc dbec 9fbc 6dc8 26be d5b8 33bc
00000110: cb9c a53d e3a9 4d3b 78db 3d3d a3b2 f3bc
00000120: 98c2 a4bc 150f cdbd 4c75 17be 3edf 05bc
00000130: de87 60bd f930 8fbd 3d9b 933a ac13 563d
00000140: f713 043e 3e60 8dbd 9a30 80bc e981 a23d
00000150: ee24 e83c 0163 8b3d c419 ac3d 8ab4 d73d
00000160: 8223 aa3d 5938 883d 686e 23bb 54c5 d33d
00000170: 7c1b 993d da44 cfbc 9875 e1bc 0ad3 aa3d
00000180: 92c3 f2bd 03b0 603d 176b 56bc 42e9 e73d
00000190: 88c9 b73d f07c 873d 931c 9a3d a921 76bd
000001a0: 8043 833d bf07 71bd e8fb 94bd 82f4 4b3c
000001b0: 383a 84bd 9dba aa3d 6b7b 7e3d 7874 443d
000001c0: 9ac8 6e3d c4ba 8a3d 3260 e03c 89e5 d03d
000001d0: d452 043e 5d92 c73d cb5b 16bd e937 d73c
000001e0: 60e1 f8bc 8c38 203d 668e acbb cd14 b4bb
000001f0: 0407 9f3d ca66 cfbc 2736 973d ef04 85bd
00000200: cac0 903d 5d34 913c c8ec 0b3d 3419 a3bd
00000210: d510 b2bb 2be9 993d 92bf 1a3d 0e29 803c
00000220: 4e56 253c 200b 173d 5f01 dc3d c43b 24be
00000230: fdd8 013c eb86 403c a038 55bd 4477 06bd
00000240: 847e 1a3e 200b 5f3b f571 dbba 7adc ff3c
00000250: ace9 92bd d4e1 f43d 3b92 04bd 83da 033d
00000260: 39f5 ef3c 1006 3bbd 49bd ccbc 60ab 8d3c
00000270: 11a3 d63c 51d8 64bd d025 733c 0e95 a1bd
00000280: f236 cd3d 2203 bb3d 733d 073c 68b8 fe3d
00000290: 063c 16bd 4e2f 9a3a 1d39 f3bd 6edc b7bc
000002a0: c69f 2a3c 3309 9ebc f406 2ebd f09f 9e3d
000002b0: ce15 b23c 40fd 1d3d 721f f1bc e3dd 01bd
000002c0: 3c21 b73c 6d05 0cbe c271 3c3c 9291 f53d
000002d0: 63e8 03bc 7a66 423d 3a45 1d3e fb02 8fbd
000002e0: fb8d 653c 12ed 263d 8592 8f3b d2b1 a1bb
000002f0: fefe 433d a88a 79bd 8571 593d 1c54 b2bd
00000300: 9f3d 6b3d 4784 babd 73d9 81bd d9aa 743d
00000310: 71a5 893c 371e 703d cc88 04be 9f53 01be
00000320: 7997 a53d 1ba8 8b3d 6cb1 cd3d 1776 35bd
00000330: 197c f23d 804c a73c 6e34 2fbd 43a8 6f3b
00000340: f4dd 5a3c 6218 babc 66c9 003e ecf3 febd
00000350: b7ae 0b3d b9c6 5d3b 9072 82bc 6038 d0bd
00000360: 8c41 dbbd 9e76 11bd efa3 f73c 98de 3fbc
00000370: 8e75 2a3d bd94 b33d a54d 503d 115c a83b
00000380: 55da dc3d 5906 00be 55aa 833d 0501 b4bc
00000390: f8b6 85bc d85a 6bbc 032b 453d 271a efbc
000003a0: fb07 ef3d a17d 7ebd f72f 453d 512e cebd
000003b0: 2d83 9ebb a655 a33d 42db 64bd cba9 86bc
000003c0: c86b 9abd c7c1 3d3d 31bc 033d 4f68 e3bb
000003d0: 04ef 8abc f928 86bd 3c5c 03bd e4a0 d53d
000003e0: 38c9 1abd f42d 073e 22fb 8d3d f6ec 973d
000003f0: 5667 96bd 1981 9a3c 83be 643d 986f dc3d

network.6.bias f4 [141]
0.046806704 -0.04071202 0.034539595 -0.039829064 0.0033273422 0.064100094 0.01608414 -0.028922252
0.0412874 0.022121133 0.07049603 0.040057067 -0.0398082 0.018600477 0.006080531 -0.043457624
0.09856831 0.021266064 0.012714444 0.0734119 -0.017640704 0.01640889 0.040968493 0.07813245
-0.035078336 -0.0148944855 0.027362105 -0.035366397 -0.06816575 0.10218002 0.071547255 0.042793997
0.019703075 0.10054256 0.013483653 0.09639395 -0.018217573 0.040562756 0.074383 0.02816741
0.053466022 0.039968062 -0.049592156 -0.012016844 -0.0011527748 0.019524492 -0.005878269 -0.011457238
-0.011807999 -0.0048990063 -0.044964436 0.06665814 0.033805154 0.0146509325 -0.03011748 0.034769636
0.04939476 0.071428545 -0.07251954 0.10071915 0.01605143 -0.0014584389 0.050177585 0.05591647
0.011911337 -0.0055206777 0.036881268 -0.003532879 0.021378096 0.043298002 0.08498074 -0.014884666
-0.05299341 0.061146982 -0.009939146 0.042092737 0.08352058 0.04154355 0.05080263 0.040467486
0.070394374 0.138016 0.11108258 0.06693078 0.08197392 0.0404398 -0.046092752 -9.829906e-05
0.03206805 0.015591748 -0.0023230854 0.05399139 0.07075764 0.016897859 0.102052286 -0.008162924
0.0076389327 0.007332008 0.008566106 0.0766355 0.02110404 0.036142465 0.06039197 0.046268415
0.060488306 0.088276535 -0.0060387193 0.052512206 -0.033938512 0.037366495 0.06899282 0.006348724
-0.00017030531 -0.013479943 -0.002164767 0.055742867 0.036904972 0.03029321 0.01452623 0.029407976
0.034043096 0.06109168 0.09517661 0.0035695843 0.09537332 0.08439527 -0.06541282 0.095281966
-0.00041314485 -0.0024746547 0.038379755 0.027682038 -0.046459835 0.015905492 0.1001619 0.082645826
-0.03286866 -0.039790377 -0.013855146 0.055154156 0.01273298
00000000: 63b8 3f3d a6c1 26bd 6479 0d3d cd23 23bd
00000010: 8a0f 5a3b e946 833d e3c2 833c 5cee ecbc
00000020: fa1c 293d 6137 b53c 3960 903d e112 243d
00000030: ec0d 23bd 0760 983c 313f c73b 9f00 32bd
00000040: 2fde c93d 2b36 ae3c 3e50 503c fa58 963d
00000050: 3d83 90bc f06b 863c 94ce 273d e803 a03d
00000060: 4dae 0fbd 0008 74bc 7e26 e03c 5bdc 10bd
00000070: 7c9a 8bbd c243 d13d 5e87 923d c248 2f3d
00000080: 5868 a13c 42e9 cd3d 8aea 5c3c 316a c53d
00000090: 053d 95bc 2225 263d 1d56 983d 57bf e63c
000000a0: 30ff 5a3d 8db5 233d 2521 4bbd 4ce2 44bc
000000b0: b418 97ba d4f1 9f3c 7f9e c0bb 24b7 3bbc
000000c0: 5676 41bc d887 a0bb a12c 38bd 1084 883d
000000d0: 4677 0a3d 770a 703c efb8 f6bc 9b6a 0e3d
000000e0: 2952 4a3d 2149 923d 2085 94bd d745 ce3d
000000f0: 4a7e 833c 1729 bfba 0387 4d3d ab08 653d
00000100: c527 433c cde6 b4bb d010 173d e087 67bb
00000110: 1e21 af3c 3f59 313d 620a ae3d d0de 73bc
00000120: 9e0f 59bd 4275 7a3d cdd7 22bc 6f69 2c3d
00000130: d60c ab3d 9229 2a3d 6b16 503d 3cc1 253d
00000140: ed2a 903d 1154 0d3e 447f e33d 0113 893d
00000150: f1e1 a73d 34a4 253d c1cb 3cbd e825 ceb8
00000160: ca59 033d 8874 7f3c e83e 18bb 1326 5d3d
00000170: 62e9 903d 616d 8a3c ca00 d13d c9bd 05bc
00000180: 0350 fa3b 5741 f03b da58 0c3c 13f3 9c3d
00000190: 61e2 ac3c 1f0a 143d 925d 773d f383 3d3d
000001a0: 96c2 773d 54ca b43d 73e0 c5bb 0a17 573d
000001b0: 1c03 0bbd 9c0d 193d 1c4c 8d3d f508 d03b
000001c0: fc93 32b9 fbda 5cbc c3de 0dbb a252 643d
000001d0: ab29 173d 7729 f83c 6dff 6d3c ffe8 f03c
000001e0: c670 0b3d 453b 7a3d f4eb c23d b0ef 693b
000001f0: 1653 c33d 6dd7 ac3d 28f7 85bd 3123 c33d
00000200: 5d9b d8b9 d12d 22bb 1734 1d3d 71c5 e23c
00000210: ab4c 3ebd 3c4c 823c af21 cd3d 3742 a93d
00000220: 4aa1 06bd 3cfb 22bd b200 63bc 53e9 613d
00000230: fd9d 503c

network.9.weight f4 [21, 141]
0.12174406 0.10752036 -0.25081715 -0.106769636 0.09359955 0.072434165 0.10402386 0.12918785
-0.13519323 0.092554666 -0.033100713 0.018510327 -0.107082225 -0.0052759205 -0.15441076 0.017964032
-0.06737009 0.027016606 0.16111411 0.04262614 -0.19701026 -0.13331799 -0.08094039 0.10324658
-0.1446948 -0.13206157 -0.12808144 0.124447085 0.13229415 0.012420656 -0.0063049835 -0.05086805
-0.08344864 -0.019713584 -0.06538752 0.06495532 -0.29664856 0.050397348 0.08692793 0.034261033
-0.04801203 -0.09000316 0.10062527 -0.16474381 -0.21452157 0.07088838 0.032390095 0.06943685
-0.2648671 -0.24351282 -0.1301691 -0.3100374 -0.046656933 0.112876505 -0.18488 -0.07253124
-0.03184335 -0.017116958 -0.23580585 0.08389221 -0.06481764 0.073175624 -0.11255 0.010047487
0.10470483 0.0884067 -0.16840182 -0.14608559 0.021347314 -0.24146144 0.09515041 -0.15289636
-0.17809772 -0.13920261 0.083348446 -0.1905308 -0.1884667 0.137254 0.054058705 0.08313047
0.07550622 0.032457907 0.04074725 0.019052377 -0.014117334 0.101891115 -0.189156 -0.009048294
-0.18641506 0.22427048 0.087562755 -0.038908616 0.102371916 0.115872815 -0.120070815 -0.19342585
0.016521784 0.122239515 0.08412563 0.06491849 -0.17884274 -0.09108992 -0.0651504 0.052148193
0.14308323 0.042969573 0.07276551 -0.24878137 -0.004751381 -0.086591356 0.074359 0.04754749
-0.12456481 -0.21056461 0.06848701 -0.14631872 -0.22037521 0.06449782 -0.0029231315 -0.23183917
0.06989914 0.11430777 0.120729975 0.09566438 0.1060169 -0.12528467 -0.19178149 -0.20277037
0.013029462 0.039880708 -0.20285437 -0.25120685 0.028609939 0.025057988 0.03897401 0.085787274
-0.08372123 -0.0040881494 0.06613043 0.04203441 -0.0022500488 -0.25346252 0.06268591 -0.17315172
-0.14762464 -0.1696702 -0.15332113 0.091426216 -0.20507771 0.039533276 0.049431287 0.071620986
0.07771741 -0.06942719 -0.05918205 0.030601393 -0.052158967 0.12290992 0.018850524 0.07440296
0.07510591 0.07198176 -0.08387503 0.06970849 -0.22347195 -0.1901522 -0.19334742 -0.02106327
-0.20431834 -0.23069897 0.08333994 -0.042888526 0.14573547 0.059628014 0.0081338305 0.068524554
0.07685179 0.0099991085 0.07644172 0.079553485 0.054908436 0.13258879 0.01822897 -0.17845505
-0.19541946 0.08441924 0.0795933 0.07633438 -0.0220178 -0.3238721 -0.053357903 -0.116911754
0.046602793 -0.034615997 -0.25648925 -0.1543513 0.100581415 0.0010331504 0.04970288 -0.16873778
0.061510004 -0.11770686 -0.1527827 -0.17589478 -0.04978103 -0.08019744 0.0604228 -0.14035966
-0.13771719 -0.1610076 -0.08013342 0.07402497 0.10138659 -0.22452979 0.093196645 -0.13964626
-0.03437336 -0.11292742 0.00020098404 -0.02438322 -0.21032064 -0.0739355 0.09724926 0.12046697
0.06159762 0.07788475 0.111178145 0.10051298 -0.28399518 -0.020686418 -0.15225112 0.09704981
0.09695242 0.038949285 -0.086235575 0.020249842 -0.06089523 -0.15527542 -0.10029445 0.0813213
-0.014643775 0.14053111 -0.13972051 -0.049848955 0.10067078 -0.05562701 0.10500541 -0.059871063
-0.16964483 -0.07829747 -0.2357745 -9.955047e-07 -0.012986281 0.07484008 0.09977988 0.09420101
00000000: f354 f93d a233 dc3d 1b6b 80be 0aaa dabd
00000010: 1fb1 bf3d 5d58 943d 760a d53d d249 043e
00000020: 1870 0abe 4d8d bd3d 9d94 07bd f8a2 973c
00000030: ed4d dbbd a1e1 acbb db1d 1ebe 4e29 933c
00000040: 54f9 89bd ee51 dd3c 19fb 243e bf98 2e3d
00000050: 0fbd 49be 8384 08be 13c4 a5bd f172 d33d
00000060: e02a 14be 263b 07be c827 03be 1dde fe3d
00000070: 1e78 073e 0280 4b3c 099a cebb 045b 50bd
00000080: 1fe7 aabd 627e a1bc e4e9 85bd 4b07 853d
00000090: 52e2 97be 736d 4e3d 4507 b23d 4c55 0c3d
000000a0: 43a8 44bd 9453 b8bd 9f14 ce3d 9ab2 28be
000000b0: 8bab 5bbe ed2d 913d 7aab 043d e834 8e3d
000000c0: a99c 87be 6d5b 79be 0c4b 05be 39bd 9ebe
000000d0: 571b 3fbd cc2b e73d 2f51 3dbe 428b 94bd
000000e0: 2c6e 02bd dd38 8cbc 1777 71be aecf ab3d
000000f0: 1cbf 84bd 1add 953d 9d80 e6bd 379e 243c
00000100: 7c6f d63d 920e b53d 8771 2cbe 7697 15be
00000110: 90e0 ae3c ab41 77be 38de c23d dd90 1cbe
00000120: 405f 36be 218b 0ebe 97b2 aa3d 821a 43be
00000130: 6afd 40be 508c 0c3e a96c 5d3d 4f40 aa3d
00000140: 01a3 9a3d 95f2 043d 97e6 263d bb13 9c3c
00000150: 644c 67bc 4aac d03d 1cb2 41be 4c3f 14bc
00000160: 97e3 3ebe 29a7 653e 1a54 b33d a45e 1fbd
00000170: 5ea8 d13d ba4e ed3d b0e7 f5bd 6d11 46be
00000180: b158 873c b658 fa3d 0f4a ac3d fcf3 843d
00000190: 8d22 37be 5a8d babd 936d 85bd 5899 553d
000001a0: 6984 123e dd00 303d 1506 953d 8bc0 7ebe
000001b0: 79b1 9bbb cf56 b1bd 8849 983d 28c1 423d
000001c0: d61b ffbd 409e 57be eb42 8c3d 93d4 15be
000001d0: 0aaa 61be 6f17 843d 0292 3fbb 3f67 6dbe
000001e0: 4827 8f3d 311a ea3d 4741 f73d b0eb c33d
000001f0: 631f d93d a04a 00be 5e62 44be 09a3 4fbe
00000200: 8679 553c f459 233d 0eb9 4fbe 2f9e 80be
00000210: 645f ea3c 6946 cd3c 36a3 1f3d 3db1 af3d
00000220: 0976 abbd e2f5 85bb 646f 873d 462c 2c3d
00000230: 8e75 13bb d7c5 81be 7861 803d af4e 31be
00000240: ea2a 17be 06be 2dbe 3700 1dbe ab3d bb3d
00000250: e4ff 51be a5ed 213d 7678 4a3d 06ae 923d
00000260: 4e2a 9f3d d82f 8ebd e168 72bd c6af fa3c
00000270: a4a4 55bd 32b8 fb3d 6a6c 9a3c 9460 983d
00000280: 21d1 993d 2c6b 933d acc6 abbd 53c3 8e3d
00000290: d5d5 64be 42b7 42be defc 45be e18c acbc
000002a0: d438 51be 5a3c 6cbe 21ae aa3d e1ab 2fbd
000002b0: ae3b 153e 813c 743d c243 053c 9a56 8c3d
000002c0: 7964 9d3d 4dd3 233c 7a8d 9c3d f0ec a23d
000002d0: abe7 603d 5bc5 073e ec54 953c ecbc 36be
000002e0: 0a1c 48be ffe3 ac3d d001 a33d 3355 9c3d
000002f0: ac5e b4bc 90d2 a5be d18d 5abd 6e6f efbd
00000300: 92e2 3e3d 81c9 0dbd 8f52 83be 440e 1ebe
00000310: a1fd cd3d c66a 873a 3f95 4b3d 99c9 2cbe
00000320: eaf1 7b3d 4b10 f1bd 1173 1cbe c31d 34be
00000330: 31e7 4bbd 8e3e a4bd e67d 773d 71ba 0fbe
00000340: bc05 0dbe 2ddf 24be fe1c a4bd 679a 973d
00000350: c6a3 cf3d 23eb 65be e2dd be3d 6eff 0ebe
00000360: 15cb 0cbd 7e46 e7bd 3ebf 5239 52bf c7bc
00000370: 4b5e 57be 7f6b 97bd 9f2a c73d 63b7 f63d
00000380: c94d 7c3d 0a82 9f3d 5eb1 e33d c0d9 cd3d
00000390: d167 91be 9076 a9bc b8e7 1bbe 0dc2 c63d
000003a0: fe8e c63d 4989 1f3d 479c b0bd ffe2 a53c
000003b0: 476d 79bd 8500 1fbe 2d67 cdbd c88b a63d
000003c0: 72ec 6fbc 63e7 0f3e e512 0fbe 6b2e 4cbd
000003d0: 7b2c ce3d 26d9 63bd 140d d73d 5c3b 75bd
000003e0: 60b7 2dbe 6d5a a0bd df6e 71be 489d 85b5
000003f0: 69c4 54bc c245 993d 6559 cc3d 76ec c03d

network.9.bias f4 [21]
-0.007574256 0.0067714783 0.05477207 0.033640433 0.045151964 -0.04520649 0.050751228 -0.08860747
-0.09039558 0.10151708 0.072366096 0.066430785 -0.0686382 0.080420226 0.030925946 -0.03173494
-0.041989233 -0.05574623 -0.09767712 -0.04310399 -0.11514039
00000000: 7731 f8bb 47e3 dd3b ae58 603d 8dca 093d
00000010: 44f1 383d 712a 39bd 85e0 4f3d d577 b5bd
00000020: 5121 b9bd 30e8 cf3d ad34 943d dd0c 883d
00000030: 2f92 8cbd 5cb3 a43d 6958 fd3c 7ffc 01bd
00000040: e7fc 2bbd 2956 64bd f10a c8bd cf8d 30bd
00000050: bace ebbd
