models/NeuralNetwork-2_acc-53.62_loss-0.000001.pth (torch, 893391 bytes, 8 tensors)

network.0.weight f4 [423, 141]
00000000: 0800 c8ba 0fe0 083d 0e90 3fbd 3916 093d
00000010: 982c 373d 0d35 b6bd 0b72 0b3d 7d89 783d
00000020: d96e c4bc 62bc 0cbd 7d55 dcbb 170b d3bd
00000030: 8dbc 02bd 7182 e6bc 287a 9dbd 7e34 c13c
00000040: ad9c 253a eefd f73c ea37 aa3d b775 83bd
00000050: 64d5 0e3d 8da9 1fbd b273 4cbd 5070 1abd
00000060: 4cca 0abc 4cac bb3c a1cf 97bc 4859 3abd
00000070: 0fb0 0e3d 8a9a 41be 51b1 e1bd eee0 6a3d
00000080: 26ae 6b3d bb3a dc3c 819b 13bd 564c 3e3d
00000090: 4aca 533d 42ac c4bc 308e 46bd 1ede 14bd
000000a0: 1f5a f7bd 929a 3c3d f262 c13c 234b 353d
000000b0: 3ef2 b6bb fae6 883d 3522 243d 6336 c73d
000000c0: 3656 22bd 2471 3b3d 0590 a93d c720 9d3c
000000d0: 045b 39bd c3e3 36bc 1ba9 8c3c 5c4f eb3d
000000e0: 266f 55bd f24a 683d fee7 e73a 3fc2 a73c
000000f0: df4e d4bd 4fd4 2a3d 301b 233b e4c9 07be
00000100: 4bf7 a9bd d4d7 a23c fb71 ba3d 0f7e 863d
00000110: a769 46bd d4f0 473d 4172 673d d8de 96bd
00000120: 9721 6bbc e20b 4abd 22c3 c5bc e0e7 e9bc
00000130: 669e e73d 2536 703c 26bd 663b 1a15 563d
00000140: 87c6 243d 4a64 c2bc cb8e 583d 814d 3fbd
00000150: 5121 c23c db15 79bd 3947 bf3d 752e 65bc
00000160: 4b07 60bc c5e8 eabc d77d 56bc c259 ca3d
00000170: a2dc c3bd 25c3 38bd d891 233b 9e2b 58bd
00000180: 0946 0d3e f2e9 5bbc 2ca8 1dbd 3f50 6abd
00000190: 29a3 5f3c 254a 2f3d 9fed dcba 8c20 8fbd
000001a0: f26b 58ba c30a 9abd d359 613b ace7 533c
000001b0: 5484 f6bc b02d 91bd fe4b e0bc ae00 93bd
000001c0: 23db ca3d 0611 123d 3719 2cbd c51c af3d
000001d0: d3bf 0fbd 2280 d03d 04d5 10bd 30d7 823d
000001e0: 5398 eb3c dc34 a4ba 7a24 9cbc d5af 04bd
000001f0: c273 e4bc e0c8 d8bd b3f4 ca39 65e7 8abd
00000200: 5eff 6cbd df81 983d 0977 a13a dd93 5d3d
00000210: 8b15 91bc 312b 8d3c 75f6 603d e467 7ebd
00000220: aaf5 ca3d 37e6 903b b559 c93c 909b 39bc
00000230: 5c99 d3bc cf77 f43c fef2 723c 29a7 993c
00000240: ae50 c0bc 0ae6 973c 4e0b bcbb a9ca 12bd
00000250: 3f77 3c3c 9bd4 923c 46b0 d73b c9d0 49bd
00000260: 39b1 acbd 5b29 7dbd 4117 663b e0e6 65bb
00000270: ca1b 0a3e 7bec 1abd bd95 b33b 1f8a 263c
00000280: 8ce8 e33d 3aeb 89bd d4a8 b8bd 60d1 0bbb
00000290: cd79 aebd 75db d13d 2bbf 443c ac9f 7d3d
000002a0: 9471 993d 5c19 703c fc79 d9bd 73cf acbd
000002b0: da39 993d 4d98 3e3c 0f59 de3d df73 243d
000002c0: cd37 0fbb 13c3 113b 42e6 b039 f66c 81bd
000002d0: 0ee8 443d 40ac 3a3b 2026 8fbd f321 93bd
000002e0: edba 123d ed06 9ebc 1020 4f3c 7ec3 08bd
000002f0: f2c3 eebc aabd 053e dc62 043d f608 46bc
00000300: 1c75 0e3d c9b5 6abd 1628 83bd ac52 01bc
00000310: 2bca cb3d b1e9 dbbb 2f84 c13d aa79 063d
00000320: 7af4 3c3e cb78 f4bc 598e 81bd 110e 2d3d
00000330: e468 a23c 4926 50bc 58fc 413d 35f5 093e
00000340: 7bcd 17bd 7be1 503d 5554 043d 27af 89bd
00000350: fd63 9c3c c262 7c3d 1f21 873d 4457 c6bd
00000360: 6884 613d 572f e7bb 182b 2e3d 7a43 8a3d
00000370: 907d 253d 41c4 6b3d 1ad7 c23b 59a7 5bbd
00000380: a3fa a6bd 4afe 9a3d 6096 32bb 15a7 8f3d
00000390: 7706 febc 140d 613d 9914 62bd 2c69 543d
000003a0: 9df2 863c 5535 14bc 5d39 5abd 04c4 553b
000003b0: c6a0 c23d adc2 e2bc 1bbf 82bd e302 073d
000003c0: 8480 8cbd 1994 96bc 38d6 5f3c c1b1 8e3d
000003d0: 948f 39bd 76b6 4cbd 118b 823d f6f2 97bd
000003e0: 2d19 5cbd cf68 f3bd 39f7 163c f41f 543d
000003f0: 8caa b03c 4f32 d7bb c01e b33d 9daf 81bd
-0.0015258798 0.033416804 -0.04676824 0.03346846 0.044720262 -0.088968374 0.034044307 0.060677994
-0.023978638 -0.034359343 -0.006724058 -0.103048496 -0.031918097 -0.028138371 -0.07689315 0.0235846
0.0006317597 0.03027245 0.08311446 -0.06418937 0.034871474 -0.038980056 -0.049915023 -0.037704766
-0.008471083 0.022909306 -0.018531622 -0.0454953 0.03483587 -0.18906608 -0.110201485 0.057343416
0.057539128 0.026883474 -0.036036972 0.04645952 0.05170659 -0.02400792 -0.048475444 -0.03634464
-0.12077736 0.046045847 0.023606751 0.04426111 -0.0055830767 0.0668468 0.040071685 0.0972717
-0.039633 0.045762196 0.08279423 0.019180669 -0.045252815 -0.011162701 0.01717048 0.11489746
-0.052107953 0.0567121 0.001769304 0.020478366 -0.10366606 0.04170638 0.0024888031 -0.13260609
-0.082991205 0.019878305 0.09103771 0.065670125 -0.0484406 0.048813656 0.056505445 -0.07366723
-0.01435127 -0.04932774 -0.024140898 -0.02855295 0.11309509 0.014661347 0.0035207956 0.052266218
0.040228393 -0.023729462 0.052870553 -0.046704773 0.023697527 -0.06081186 0.093397565 -0.013988127
-0.013673614 -0.028675446 -0.013091526 0.09880401 -0.09563567 -0.04510798 0.0024958756 -0.05277597
0.13796248 -0.013422476 -0.03849046 -0.057205435 0.01364974 0.04279532 -0.0016855485 -0.0698863
-0.0008255831 -0.07521584 0.0034385815 0.012933653 -0.030092396 -0.07088792 -0.027379986 -0.07177864
0.09905078 0.035660766 -0.042016234 0.08550409 -0.035095047 0.101806894 -0.035359398 0.063887
0.028759157 -0.001252796 -0.019060362 -0.03239425 -0.027887229 -0.10585189 0.00038710758 -0.06782416
-0.057860725 0.07446646 0.00123188 0.05409609 -0.017710468 0.01723251 0.05492254 -0.062110797
0.09910138 0.004421975 0.024578908 -0.011328593 -0.025829963 0.029842285 0.014828442 0.018756466
-0.023475971 0.018542308 -0.0057386523 -0.035837803 0.01150304 0.017923644 0.0065822927 -0.04927138
-0.0843224 -0.061807018 0.0035109075 -0.003508024 0.13487163 -0.03782318 0.0054804967 0.010164767
0.11128339 -0.06734319 -0.090165764 -0.0021334514 -0.085193254 0.10246936 0.012008469 0.061919853
0.074923664 0.014654484 -0.1061897 -0.08438005 0.074817374 0.011632991 0.1085683 0.040149566
-0.0021853328 0.0022241517 0.0003374089 -0.06319611 0.048072867 0.0028484017 -0.06989694 -0.0718421
0.035822798 -0.019290412 0.012641922 -0.03338956 -0.029146168 0.13060632 0.032320842 -0.012087097
0.034779653 -0.05730227 -0.0640413 -0.007893246 0.0995067 -0.006711208 0.0944904 0.03283087
0.18452635 -0.029842755 -0.06325979 0.042249743 0.019825406 -0.01270444 0.047359794 0.13472445
-0.037061196 0.050996285 0.032306988 -0.06722861 0.019090647 0.06161762 0.06598114 -0.09684613
0.055057913 -0.007055204 0.042521566 0.067511514 0.04040295 0.05756021 0.0059460523 -0.053626392
-0.08153274 0.07568033 -0.0027250275 0.0701429 -0.031008942 0.054944113 -0.055195425 0.051858112
0.016473109 -0.0090459185 -0.053277362 0.0032618055 0.09503321 -0.02768072 -0.06384107 0.032961737
-0.0686045 -0.018381165 0.013661914 0.069674976 -0.045302942 -0.049978696 0.06374181 -0.07419388
-0.053734947 -0.11885225 0.009214216 0.051788285 0.021565698 -0.0065672765 0.087460995 -0.06332324

network.0.bias f4 [423]
00000000: f756 54bd 0329 5b3d 6088 96bd e672 6ebd
00000010: 1dbb 85bc 45e4 39be 8e4f aa3b ceab 8fbd
00000020: bb17 b9bc 5008 8abd da04 a7bd be65 abbd
00000030: c127 c43c d078 cbbd 2844 e43c 92f0 f53b
00000040: ad11 0fbd 7d32 45bd 182c d4bd e951 0ebe
00000050: ca6b 2c3c 28f3 e3bd 290c 7ebd 6d1f bebc
00000060: 1da8 5ebd 1287 c8bd 8533 28be 75d3 423d
00000070: aa33 e93c 070a b5bd 0960 34bc a051 583d
00000080: 8bd9 bdbd f5a6 6ebd 4075 0e3d 8503 013c
00000090: 29f4 043d e776 0dbd 8915 c2bd aa78 93bd
000000a0: d6dc 14bd 381c 4cbc 8e4f 08bc 78cd 493b
000000b0: b0c6 1bbd c75c bcbd 5709 ddbd c726 2aba
000000c0: 1460 423c 6b8d dbbc 3803 9dbc c1cb c6bd
000000d0: b9e9 62bd 260f 823c 1e6f 7cbd 468a b23c
000000e0: bbe5 98bd 8099 cb39 e371 11bd 7665 babd
000000f0: a0b7 97bd 0424 60bd b8e4 82bd 850e eabb
00000100: b865 4a3d 33a3 11be 5e2c c8bd 42f0 c6bd
00000110: 7fc4 b6bd 9617 3cbd 0eac 46bd 4d71 adbd
00000120: b28f b1bd bb37 07be 4ac0 8abd 9676 603d
00000130: 2057 0b3d 9b75 33bd 358e 9abd df25 f03c
00000140: d6ab 00bd 0b48 45bd 230e 2c3d d958 24bd
00000150: 9222 243d 486b 21be 3eab d2bc 3567 3ebd
00000160: 7c3c 453c f8fb 3ebd 1c46 35b9 7f4c 74bc
00000170: e046 69bd 6dda 99bc 3bd9 98bd 2016 3d3d
00000180: d725 90bc 2280 da3b 014e e1bd cd55 16bc
00000190: 27c0 81bd e185 61bd cb50 bd3b c971 14bd
000001a0: bf33 82b9 c723 0cbd fb07 85bd 1a25 75bd
000001b0: c960 f2ba 262b 843b 303e 9dbd 04ec 2ebd
000001c0: 86e7 163d fe81 07bc e187 1abb 3dfe 09bd
000001d0: 3e99 a8bd 6ced 51bc dbf5 c8bb ca3b 9abc
000001e0: 9919 06be a559 c0bd ab09 23be 43bd 9ebd
000001f0: d7c6 44bc 65d1 c6bd b5ce 7cbd acf6 16be
00000200: 9f8a 80bd 7feb 8ebd d898 bcbc 7336 cebd
00000210: 9884 06be 7650 66bc 9266 ecbd 5611 b0bd
00000220: f3a0 87bc 5e7b 5cbd 2216 0cbe 28b5 edbc
00000230: 021d 133d 6363 913b b6fa dabd fcd6 0b3d
00000240: f364 6dbd d089 86bd 3ea9 0ebd b045 babd
00000250: 7579 0ebe 1ef8 7ebd 96f4 043d abb3 0ebd
00000260: a3c1 1ebc d591 a9bc d896 9e3c d093 9abd
00000270: c228 773d f7a0 6ebd ba61 74bd 5dad 843c
00000280: 98c6 c1bc ead5 d9bd 9c9e e2bd c8ae 89bd
00000290: 9793 4d3c f2b1 463d 0808 44bd a028 39be
000002a0: 63d7 ddbd f312 853b a646 bf3b d11e a1bc
000002b0: a84f 85bc 1014 25bd 42d6 03bd f9d2 08be
000002c0: 5c9c abbd 2956 ab3c 5d95 79bc 4e30 e4bc
000002d0: 9692 5c3d f49e 04bc e08e 02be 2bf8 c0bc
000002e0: c44a 3e3d dbd8 b8bd 4787 073d cad1 77bc
000002f0: 2722 a9bd e076 d5bd dc91 bfbd ebc5 a7bd
00000300: 43f4 d8bd 0a08 eebd c888 b8bd ccda 653d
00000310: c435 39bd decf afbd e8d4 e9bd 6f5c dabb
00000320: ae95 ecbd b2d3 d93c cf0b e2bd 920b 17be
00000330: b097 dcbd 1c9d 1bbd 7fd0 c5bc c299 92bd
00000340: c433 8e3c e41b 91bc bfd5 e2bd 9d1c 06be
00000350: 27ac a6bd 7915 9ebd 6b9b 7f3c e368 19be
00000360: e0f6 38bc 66a0 1bbd b64b e1bd 448d 50bc
00000370: 993a af3c 5578 cbbd c5ef d4bd 463e 6bbd
00000380: fbf7 dcbd a1b0 42bd 5c20 8dbd 8a94 9d3c
00000390: 1333 7bbd 8065 babc 9930 a43a e304 41bb
000003a0: 26e6 b2bd 1663 febb 37eb ad3a f6f4 85bd
000003b0: 9711 14be 6609 393d 37d5 313c dd47 32be
000003c0: 9d7d a2bd ae7e 94bd 6f90 cabd 4219 19bc
000003d0: 50ad 543d 13aa 40bd 5c42 26bd bbf3 27be
000003e0: b4ec 8b3c 2181 58bd 8789 11be deea cebd
000003f0: 3b7f eabc e6e7 5abc 0494 72bd 1e60 00be
-0.05184075 0.05350591 -0.0735023 -0.058215044 -0.016324574 -0.18153484 0.005197472 -0.07015191
-0.022594323 -0.06739867 -0.08155222 -0.08369015 0.023944737 -0.099351525 0.02786453 0.007505485
-0.034928966 -0.048143853 -0.10359973 -0.13898434 0.010523746 -0.11130363 -0.062023316 -0.023208344
-0.054359544 -0.097913876 -0.16425903 0.047564942 0.028467018 -0.08839803 -0.011009225 0.05281222
-0.09270009 -0.05826469 0.034779787 0.007874374 0.03245941 -0.034537222 -0.09476764 -0.07200749
-0.036343418 -0.0124579 -0.008319749 0.0030792635 -0.03803128 -0.091973834 -0.10792797 -0.00064907636
0.011863727 -0.026800832 -0.019166574 -0.09706832 -0.055398677 0.015876364 -0.061629407 0.02179445
-0.074656926 0.00038833544 -0.035509 -0.091013834 -0.074080706 -0.054721847 -0.06391281 -0.007142844
0.049413413 -0.14222412 -0.09774087 -0.09713794 -0.089241974 -0.04592093 -0.048503928 -0.08468876
-0.08669986 -0.13204853 -0.067749575 0.054800592 0.034018636 -0.04381333 -0.07546655 0.029314933
-0.031413876 -0.04816441 0.04200567 -0.040123794 0.04007203 -0.15763581 -0.02571642 -0.046485145
0.012038346 -0.046627015 -0.00017287623 -0.014910816 -0.056952357 -0.018780911 -0.074633084 0.04616368
-0.017596168 0.0066681067 -0.11001206 -0.00917573 -0.06335478 -0.055059317 0.0057774535 -0.036241326
-0.00024834086 -0.034213807 -0.06495663 -0.059849836 -0.0018491979 0.004033464 -0.07677877 -0.04270555
0.03684189 -0.008270739 -0.0023579525 -0.033689726 -0.08232354 -0.012812953 -0.006132824 -0.018827338
-0.13095702 -0.09392098 -0.15921657 -0.077509426 -0.012010298 -0.097079076 -0.06172057 -0.14742535
-0.0627644 -0.06978511 -0.0230221 -0.10068979 -0.13136518 -0.014057269 -0.11543001 -0.085970566
-0.016556239 -0.05382859 -0.13680318 -0.029017046 0.035916336 0.0044368966 -0.106923506 0.034140572
-0.0579576 -0.065692544 -0.03482937 -0.09095323 -0.1391352 -0.06224834 0.032459818 -0.034839313
-0.009689721 -0.020699421 0.019359037 -0.07547724 0.060341604 -0.058258977 -0.05966351 0.016195947
-0.023654267 -0.10636504 -0.110654086 -0.0672279 0.012547395 0.048509546 -0.04785922 -0.18081903
-0.108320974 0.004061097 0.0058372794 -0.019668015 -0.016273335 -0.040302336 -0.032186754 -0.1336173
-0.083794326 0.020915108 -0.015233365 -0.027855065 0.053850733 -0.008094538 -0.12749815 -0.023555836
0.04645802 -0.09025737 0.033087995 -0.015125701 -0.08258467 -0.10423064 -0.09353992 -0.08192047
-0.10593464 -0.11622627 -0.09010464 0.056116864 -0.04521729 -0.085845694 -0.11417562 -0.006663851
-0.11551987 0.026590202 -0.110374086 -0.14750507 -0.107711196 -0.037991628 -0.02414727 -0.07158233
0.017358668 -0.017713495 -0.11075925 -0.13096853 -0.08138304 -0.07718939 0.015601019 -0.14981417
-0.011289328 -0.037994765 -0.11000769 -0.012728993 0.021390246 -0.09935061 -0.10397295 -0.057432435
-0.10789486 -0.047531728 -0.06890938 0.019235868 -0.061328005 -0.022753477 0.001252669 -0.0029452376
-0.087353036 -0.007763277 0.0013268952 -0.06540863 -0.14459835 0.04517498 0.010854057 -0.17410226
-0.07934115 -0.07250725 -0.0989083 -0.009344401 0.051923096 -0.047037195 -0.04059063 -0.1640157
0.017080642 -0.052857522 -0.14212619 -0.10103391 -0.028625121 -0.013360953 -0.05922319 -0.12536666

network.3.weight f4 [282, 423]
00000000: a412 c9bc d61d 89bc c048 f03c 0248 c0bb
00000010: d696 b6bc 4954 bc3c cfb7 893d 5112 1b3d
00000020: 5d43 d73c b5fd c6bb 4da2 883d 10d0 413d
00000030: 20b4 22bd ff91 513d f430 1abd 4fa2 bbbc
00000040: cad7 523c 06f1 3b3c e20e c1bd a876 1b3c
00000050: b8b1 cd3c 0d67 033d 4cd8 0d3d c41f d23b
00000060: a4b3 453d a32f 993c 9166 a43c a2c2 2e3d
00000070: 6c8d 72bd 7df5 82bd 481c 853d 1992 ac3c
00000080: 5730 873c af92 b93c 28b2 293b 1954 81bc
00000090: fa49 673c 8578 e13c 5541 2d3d 2fb1 6abb
000000a0: bac2 193d 99c4 813d 22ae 9fbc df27 d43d
000000b0: 9b5b 31bd 4cb5 8abd b71c 57bd 032b c5bc
000000c0: b761 a93c 3a83 c6ba e70f 70bc c87c 6abc
000000d0: 1097 b23c 1e9a 553d bdf5 fe3c 70c8 95bc
000000e0: 5570 b93c 5961 bcbd efb1 693d 45e4 b73d
000000f0: 27f6 40bd 5387 e33b 5de7 1d3c 1bff 42bd
00000100: 081e abbc b4c0 a2bb 8625 5cbd bd41 bfbc
00000110: fc18 cfbc b45b 50bd 8e45 e0bb f31c 743d
00000120: f10b 913c 3427 6fbc c9e0 c6ba 66fb b5bb
00000130: 2ed4 81bd a361 dc3b 9fb7 8c3c 8a5d 8dbb
00000140: d43e 4dbd 4b32 243d 64c6 013d f47c 87bd
00000150: 04f4 f9bc 7815 663c da79 57bc ba15 5a3d
00000160: 338e 00bd 51a7 9c3c fb5b 713b 785b 8c3d
00000170: 1818 633c 0902 f93c 745a dcbc 3f68 c4bb
00000180: b8a7 afba cc1b 4fbd 0bf2 043d 234e 97bb
00000190: 7f86 94bc c366 603c 7983 633c b344 be3b
000001a0: a8b2 e73b 7ff2 8e3c 479c bdbb 0aa5 09bc
000001b0: 4d4f d0bc 4335 fe3c 91d7 083d fccd dbbc
000001c0: 4c02 49bd de4e 85bd 65bc 4c3d af54 eb3c
000001d0: df10 203d ca8a 37bb edb6 b0b9 c70a 0dbc
000001e0: 6d46 68bc f51b 323d 3f5f 87bc 8f09 1f3d
000001f0: a7f5 e9bc ed4e 30bd 6970 4f3d 48be 6f3d
00000200: 634e 573b 76c6 ae3c e664 813c c46b 7b3d
00000210: 1f3d f2bd 3cb2 0ebd 42e6 61bd 1ec9 87bc
00000220: 255b 93bc dcff 9ebd 8877 febc e709 053c
00000230: bbde d43c a0bd d7bc dbc6 d9bc f676 9d3d
00000240: f2b1 f4bc c6bb 57bb 9ee7 b53b 41f6 50bd
00000250: dc65 4bbd 324f ab3d adb9 0ebd 9d25 f63c
00000260: 5648 103b bbfc f83c f9ca 163b f318 49bd
00000270: 7635 fdbc 11d6 82bd b235 84bb ebcf 1ebd
00000280: 3ae7 60bd 841d c7bb fc32 153c 01cd 9b3c
00000290: 71f9 83bd f5d8 1b3d 76e6 0bbd 78f3 243d
000002a0: e400 9f3b a37a a6bc 62ec c7bb 5b96 abbb
000002b0: 0f98 06bd 9996 82bb a109 633b 5c3d 983d
000002c0: 9c84 ebbc f023 a7bb d9ef 1abd 922c b2bc
000002d0: 1d79 a53c ba7d 7a3d a834 8e3d 2a4e f4ba
000002e0: fb57 6dbc 75ca ba3c b609 813d f633 48bc
000002f0: 86d0 64bb 91ad 89bc e69a 8f3c f4e5 a53c
00000300: 5faf 91bc 3700 433d 27a1 17bc c957 ef3c
00000310: 0f5a c1bd 4dce 10bd 8b49 71bd c171 5e3d
00000320: 95f0 073d 5d12 493c 070c 383d c954 28bd
00000330: 116b 0e3d ae5b fb3c 3834 f93c 195a 503b
00000340: 2a01 7cbd 75cb f13b c598 08bb 875c a6bd
00000350: 7d4b d4bb d098 f338 286a d93c ac30 34bc
00000360: 1f1a 133d 024b 363c b538 9f3d a174 833c
00000370: ae0d 2a3d 3d7b 443d 585a 98bc 1391 9b3d
00000380: c07c d6bc b378 33bb 9cad d83c 44be 6d3d
00000390: af6a 55bb 6dd9 723d 1288 a33c 73e4 543a
000003a0: 700b 853d 5f0a f13c eb4f 4d3a 936a 8c3d
000003b0: ed02 4b3d 6d4d da3c f050 193c 464a 363d
000003c0: 3a0a adbd 598c 2ebd e614 98bd 0603 e23c
000003d0: bd06 7f3d 3d09 213d 28d0 a83c c442 b63c
000003e0: 75b8 fabc 2426 513c 6eca 0bbd 1f91 a4bd
000003f0: fdf2 ecbb cee1 723c 19aa 653d 8e62 c83c
-0.024545021 -0.01673786 0.029331565 -0.005867959 -0.022288721 0.022989409 0.06724512 0.037859265
0.026277239 -0.0060727247 0.066715814 0.047317564 -0.03972256 0.051164623 -0.03764434 -0.022904543
0.012868831 0.011471039 -0.09426667 0.009488739 0.025109157 0.0320807 0.034630105 0.006412478
0.04826702 0.018699473 0.020068439 0.042666085 -0.0592169 -0.063944794 0.06499535 0.021065759
0.016502542 0.022652952 0.0025893543 -0.015787171 0.0141167585 0.027523289 0.042298634 -0.0035811176
0.03753922 0.06336326 -0.019492213 0.10359167 -0.043300252 -0.06772861 -0.05251762 -0.024068361
0.020676477 -0.001514531 -0.014652229 -0.014311977 0.021800548 0.05214893 0.031123037 -0.018284053
0.022636572 -0.09198255 0.057054456 0.08979086 -0.04710975 0.006943622 0.009637681 -0.04760657
-0.020888343 -0.0049668197 -0.053746723 -0.023346776 -0.025280468 -0.050868705 -0.006844229 0.05959792
0.01770589 -0.014596749 -0.0015173192 -0.0055536507 -0.06339298 0.0067255064 0.017177401 -0.0043141292
-0.050108746 0.040087026 0.03168334 -0.0661563 -0.030511864 0.0140432045 -0.01315161 0.053243376
-0.03138561 0.019122751 0.0036828506 0.06853384 0.013860725 0.030396478 -0.0268986 -0.0059938724
-0.0013401425 -0.05056362 0.032457393 -0.004617469 -0.018130539 0.013696375 0.013886326 0.0058065294
0.007070858 0.017449616 -0.005786452 -0.008401165 -0.025428439 0.031031257 0.033408705 -0.02683162
-0.049074456 -0.06509183 0.049984355 0.028726904 0.03907859 -0.0028006309 -0.00033705626 -0.008608527
-0.014176947 0.043483693 -0.016524909 0.038827475 -0.028559519 -0.04304402 0.050644312 0.058531076
0.0032853119 0.021334868 0.015795182 0.06138207 -0.11828064 -0.034837946 -0.05515123 -0.016575392
-0.017987797 -0.07763645 -0.031062856 0.008120037 0.025985112 -0.026335537 -0.02658408 0.076887056
-0.029870007 -0.0032918318 0.0055512926 -0.051016096 -0.049657688 0.08364715 -0.034845043 0.030047232
0.0022015772 0.030393949 0.0023009165 -0.04909606 -0.030909281 -0.06388486 -0.0040347213 -0.038772505
-0.054908015 -0.0060765166 0.009106394 0.019018652 -0.064440615 0.038048703 -0.03415533 0.040271252
0.004852401 -0.02032215 -0.006101177 -0.0052364296 -0.032859858 -0.003985238 0.003464319 0.07433578
-0.028749757 -0.0051007196 -0.037826393 -0.021749768 0.020199353 0.06115506 0.06943637 -0.0018639017
-0.014486308 0.022801617 0.0630068 -0.01221942 -0.0034914329 -0.016806396 0.017529916 0.020251252
-0.017783819 0.047607627 -0.00925473 0.029216664 -0.094410054 -0.035352994 -0.058908027 0.054307703
0.03318842 0.012272445 0.044933345 -0.041096482 0.034770075 0.030683365 0.030420408 0.0031791984
-0.061524548 0.0073789903 -0.002084301 -0.08123117 -0.0064787255 0.000116156065 0.026539877 -0.010997932
0.035913583 0.011126282 0.07774488 0.016046824 0.041516952 0.04796909 -0.018597767 0.0759603
-0.026182532 -0.0027385175 0.02644997 0.05804278 -0.003256481 0.059289385 0.019962344 0.00081212
0.06496322 0.02942389 0.0007832038 0.06856265 0.049563337 0.026648248 0.009357676 0.044504426
-0.08449216 -0.042614315 -0.07425861 0.027589332 0.062262286 0.03931545 0.02060707 0.022248633
-0.030605534 0.012765441 -0.0341286 -0.08035492 -0.007231115 0.014824344 0.05607042 0.024461057

network.3.bias f4 [282]
00000000: d79b e33c a5df dd3c 0cd1 86bc 9490 a03c
00000010: 7528 af3c 00f5 6f3c 48e6 1ebd 92dd 3bbc
00000020: d9e8 433d 7752 1c3d 8fd6 20bd 1b92 c0bc
00000030: 2c95 3c3d 2517 96bc 3bf5 163b 354e 153d
00000040: d585 43bd 8e40 693c de14 a13d a54f cd3a
00000050: 2512 e3bc 2043 56bc 9a91 923c 7727 1cbd
00000060: dd74 65bb c0ea 31bc 6cf0 a83c 0f63 ae39
00000070: 3bb8 74b9 07b5 dd3c 86ba 93bc 4793 e33b
00000080: 4042 733c 308d 1d3c b575 8b3a 1e4f 0d3c
00000090: 8abd 873d b9e5 263b 99d2 46bc e040 88bc
000000a0: c148 90bb 0c31 a73c 56db 323d 26c1 8b3d
000000b0: 5f06 35bc 9008 013c 7320 833a 3cb2 2e3d
000000c0: 979b d03c e506 023d 59c4 3ebc feeb 9d3c
000000d0: b270 cc3b 7b98 283d 93f9 04bc 7da3 bd3c
000000e0: fe55 4a3d 9143 ab3c 36f1 383d a2da f8bc
000000f0: 70ef 473c 3939 bc3c 105e 83bc 87dd b63b
00000100: c9c7 2dbd 9af5 7fbc e262 8e3c 4675 b03a
00000110: 2f0d ee3b 398b df3b f9da c2bc 2e47 e73c
00000120: 9a3b c93b 781e 2cbd 2486 f33c e41e 373d
00000130: ce86 643d aa9d 3cbd b1ed 9d3b 40f3 2ebc
00000140: dfa6 093d f99f 7dbc 948f 943d 19dd 7ebc
00000150: f178 87bc 161e 8fbd 0377 aa3c dcaa 17bb
00000160: 56cf 25bd e59f c83c 11e0 0ebd 08d7 eebc
00000170: 0608 f53b dc33 e03c 85cd 6a3c cd3e 45bd
00000180: f901 4b3d c244 ddbc b71d 783b f874 26bd
00000190: 87c9 32bd 4b79 893d 15d0 f53c b192 203d
000001a0: 1686 9c3c d3b1 473d 70c3 063d b8c5 fd3c
000001b0: 7ae7 d7bc 60ce f53c 56e6 6ebc 160b 653c
000001c0: 136c 0a3d a6bb 2dbc ed23 4a3b 0bea b33c
000001d0: 5de0 f63c 17c3 fcbc 4624 413d 6c16 90bb
000001e0: 2cb6 4f3d f21f 9e3c 8e90 56bc 9c62 aabb
000001f0: 0da8 4fbc 4266 0f3d e2a1 3fbd fb36 adbc
00000200: 7322 fa39 bfb9 df3b df46 aa3c 3d01 fe3c
00000210: b0f0 f638 3f4a 2cbd 4784 70bb bf23 373d
00000220: f7d8 d23c 8db7 36bd 0569 bf3c 137d a13d
00000230: 9ff6 493c d8b9 c53a cab5 2a3d ffb5 533c
00000240: f2ed 31bd fc18 04bc cd1b 91bc baee 023c
00000250: ed64 ae3d 2384 bb3b cf59 853d 6e94 5bbc
00000260: 2412 4a3d 2c98 063b e84f 293d 11a5 8cbc
00000270: eef6 583d 6a2c 0e3c 4904 113d a485 9d3d
00000280: 44f7 a03d ffac 4dbc d73e 263d 9c3c ca3c
00000290: 6f87 5c3d f0d2 663b 6395 973d 7f8c 15bd
000002a0: 5f70 a2bc b7fb 8bbd d377 e2bc b970 bebb
000002b0: e57f c13c 2cf0 c0bc 66d7 423d b96a e1bb
000002c0: ca38 0f3d b824 a83b 9263 92bc 19e0 66bd
000002d0: 64a2 47bd 961f 403c fc67 623d 85ee 563d
000002e0: 3cc1 093c 959b 77bd 7085 74bc a5e7 4dbc
000002f0: 36bd cdbc ce88 2d3d 9ef6 083d c556 4b3c
00000300: dc7a a93b f7a9 20bd 711b cb3c 4a9f 6f3c
00000310: 3d1c 19bd a262 7ebc 6d70 2fbc d7a6 663d
00000320: aed4 aa3c 66ab a4bc 71ea 943c 473b ab3c
00000330: 838f 5dbd 8072 bebc f5d5 253c 9ca1 663b
00000340: 5121 14bb e0f1 3fbc 59a0 c13b f413 81bc
00000350: 9b0e 12bd 9b2e d1bc fad8 64bd 55d2 97bc
00000360: 32a2 7a3d fa63 88ba 4493 0abd c120 263d
00000370: 60e1 7fbc 3886 db3c e9b3 523c 157e 413d
00000380: a80f 3dbc 8f20 c43c 6b73 413d 8436 fb3b
00000390: 456c 453d aecd 073d 2276 c2bc 0219 0ebc
000003a0: b947 84bc 366a a73d a8eb 3fbd 707b 47bc
000003b0: 6d42 a7bc 739a 963c 760c c3bc 0bcc 283d
000003c0: 6674 55ba 09a4 ae3c 64d5 4abd e8cd c43c
000003d0: 581f 133d 7ba4 37bb 7d98 40bc f994 7abd
000003e0: 1976 453d f03b c0bc f322 2b3d a460 d739
000003f0: 1b46 513d 7db8 393d 9eac 5bbc 168a 833c
0.027784271 0.027084181 -0.016457103 0.01960019 0.021381596 0.014645815 -0.038793832 -0.011466401
0.047829483 0.038164582 -0.03926712 -0.023507169 0.0460407 -0.018321583 0.0023034352 0.036451537
-0.047735054 0.014236582 0.07865308 0.0015663995 -0.027718613 -0.013077527 0.017891694 -0.038123574
-0.0035012283 -0.010859191 0.020622455 0.0003326167 -0.00023338285 0.02706386 -0.018033277 0.006945047
0.014847338 0.009616181 0.0010639938 0.00862482 0.066279486 0.0025466515 -0.012135171 -0.016632497
-0.004403204 0.02040913 0.043666206 0.068239495 -0.011048882 0.007875577 0.0010004177 0.042650446
0.025464816 0.031744856 -0.011643493 0.019277569 0.0062390203 0.04116104 -0.008116144 0.023149246
0.049398415 0.020906242 0.04515191 -0.03037769 0.012203082 0.022976505 -0.016036063 0.0055806073
-0.042426858 -0.015622521 0.017381135 0.0013462685 0.007264755 0.0068220166 -0.023786055 0.028232183
0.0061411383 -0.042021245 0.02972705 0.044707194 0.055792622 -0.046048798 0.004819595 -0.0106781125
0.033606406 -0.015480035 0.07253948 -0.0155556435 -0.016537162 -0.0698816 0.020808702 -0.0023142612
-0.040480934 0.024490306 -0.034881655 -0.02915527 0.007477763 0.027368478 0.014331226 -0.048155595
0.04956243 -0.027010325 0.0037859508 -0.040638894 -0.043649223 0.06712588 0.030006448 0.039202396
0.019106906 0.04875357 0.032901227 0.030978069 -0.026355494 0.030005634 -0.014581284 0.013979694
0.033794474 -0.010603821 0.0030844167 0.021962186 0.030136282 -0.030854745 0.047153734 -0.004397204
0.050710842 0.019302342 -0.013095988 -0.0051997434 -0.012674344 0.03500963 -0.046785243 -0.02114438
0.00047709382 0.0068275626 0.020785747 0.03100645 0.000117750256 -0.042062994 -0.0036699937 0.044711825
0.025738223 -0.04460864 0.023365507 0.07885184 0.012326865 0.0015085293 0.041677274 0.012921809
-0.043439813 -0.008062597 -0.017713452 0.007991487 0.08515344 0.005722539 0.0651127 -0.013402088
0.049333706 0.002053748 0.04133597 -0.017168554 0.052969866 0.008677581 0.035404477 0.076915056
0.07859662 -0.0125534525 0.040587272 0.024687104 0.053840097 0.0035220943 0.0740154 -0.03651094
-0.019828973 -0.0683512 -0.027645027 -0.0058117774 0.023620555 -0.023552023 0.0475687 -0.0068791774
0.034966268 0.0051313303 -0.017869744 -0.05636606 -0.048738852 0.011726281 0.05527495 0.052473564
0.008407887 -0.06045111 -0.014924392 -0.012567435 -0.025114637 0.042366795 0.033438317 0.012410824
0.0051721167 -0.03922459 0.024793359 0.01462538 -0.037380446 -0.015526446 -0.010707957 0.056311455
0.020853367 -0.02010126 0.018178197 0.02090229 -0.05409194 -0.023247957 0.010121812 0.0035191542
-0.0022602866 -0.011715382 0.0059090075 -0.015756585 -0.03565846 -0.025534919 -0.055870987 -0.018532911
0.061189838 -0.0010405772 -0.03383185 0.04055858 -0.015617698 0.026797399 0.012860277 0.04723938
-0.011539377 0.023941306 0.04722921 0.007666411 0.048198957 0.033155136 -0.02373797 -0.0086729545
-0.016147481 0.08174555 -0.0468556 -0.012175426 -0.020417416 0.018384194 -0.023809653 0.041210216
-0.000814265 0.021318452 -0.04951991 0.024023965 0.035918564 -0.0028021622 -0.011755106 -0.061177228
0.04820833 -0.02346608 0.041781377 0.00041079998 0.05109225 0.045341957 -0.013407854 0.016057055

network.6.weight f4 [141, 282]
00000000: a0db 563c b587 02bd d09e 113d 0329 e93c
00000010: f0f7 bf3d 30ab 113d 2128 26bd 0e0d 533d
00000020: f45f 7f3c bd2e adbc 2d6f 843d 4538 fdbc
00000030: 350a 77bd 2e8c 903b a51c 853d 31dd d23c
00000040: bb4f 013d 2cbf 13be 9882 85bd 6559 d6bc
00000050: c5f2 383d fef4 033d 3f17 cd3d d9a3 713c
00000060: 6349 1dbd 217c 013e 0c7b 62bd 53a3 c83d
00000070: 756c 0e3d d078 993d 8c22 723d 8009 8ebd
00000080: f588 303d 2e9c 27bd 8651 1e3e 08a3 53bd
00000090: 04d2 843c 8dfd 233d fa04 c63c d214 1c3b
000000a0: fd50 23bd 1e24 2d3b 52f7 aabd 16c0 dabc
000000b0: 23ec 633d ac85 c53c 42d3 9b3a c8c8 383d
000000c0: 5b0f d13c d8ba e0bc 042e 753d a2e4 233d
000000d0: 10f7 9d3d 7074 2c3d a102 36bd afad abbc
000000e0: f302 2ebc 1a80 c33c 6339 7ebd 6dcf 283b
000000f0: 6025 cb3d 2ac1 52bd ef6f 6cba 9a35 0f3c
00000100: 5bad c7bc 663b c7bc e057 eebd 4779 cebc
00000110: ac31 883d 0dd8 56bc 4671 363d bdfd 12bd
00000120: 7a28 75bc 61ff 85bd 4cf4 cdbd aa9a 84bb
00000130: 4097 61bd f998 81bd 4482 9a3c 8d2e c23c
00000140: 3acc bb3d a414 ffbc 26a8 19bc 7327 743d
00000150: 2353 e03c 7efb 5e3d 6361 143d a4d7 bf3d
00000160: a127 733d ecd7 4d3d d2aa 4b3b 915a bc3d
00000170: 80ca 4d3d fd34 2bbd e089 b4bc cd83 a63d
00000180: d497 cdbd 5d60 183d f6a1 c8bc f984 c43d
00000190: 3385 a13d c118 633d d0fb 6d3d 0c48 3bbd
000001a0: 186f 203d f279 c5bc 7358 65bd 0fd2 9f3b
000001b0: 6fde 13bd 0229 543d 2ec4 4d3d a4c8 803d
000001c0: 58d6 4d3d 9ae9 6c3d cbc3 a63c 20c5 963d
000001d0: ad46 d63d 4336 573d 2f54 0ebd 11d4 753c
000001e0: 71eb 9bbc 6ece f13c 519b 823a 9bb4 cabc
000001f0: b535 553d c9df f6bc 4847 4a3d 1a33 89bd
00000200: 8623 473d 96f7 413c 64f3 213d 4538 91bd
00000210: 8e40 c53c 4447 563d c9b0 023d 0330 203c
00000220: 700b da3b 43ce bd3c 54d2 793d aeab f3bd
00000230: baa7 d53a 668a acbb 59a4 3bbd 6a31 0ebd
00000240: 2618 ea3d 6817 733a ed1d 0fbc 3640 de3c
00000250: 670f 56bd 52fe d43d 01bc 23bd f2f3 043d
00000260: 1603 9e3c f0c1 06bd 6928 0bbd 0236 0a3c
00000270: 20a2 6d3c 7dd8 88bd daab 92bc 9e49 89bd
00000280: c543 863d e1ad 9c3d da90 c63b a26f d73d
00000290: fce9 49bd 0884 b83c d462 c3bd 6ace 4a3b
000002a0: bbf0 123d 3608 84ba fff3 3ebd de3a 863d
000002b0: 8c72 c53c 2aaf 033d 3fb6 11bd 1d02 1bbd
000002c0: 1e31 023d 86fa c6bd a9a3 563c 7373 913d
000002d0: 2bff fcbc 8b77 d33c 941d fd3d 729f 05bd
000002e0: 61ae e73c 8ad9 b43c 4b95 2c3d 273b 8cbc
000002f0: cf81 6b3d 8b0e 92bd e0a3 4b3d c9da b8bd
00000300: 4b18 3c3d 9d7a 82bd 8a58 6cbd cd7b 443d
00000310: 796c de3c ff6e 823c 2d61 dbbd 18dc c8bd
00000320: 523a 893d f261 613d 9192 713d 3914 62bd
00000330: b8aa b63d 9271 f63c 2591 12bd 4c7f 88bb
00000340: 349c d13b 1f03 3cbc 9da7 c03d 4e48 e9bd
00000350: c0f5 fc3c 76a8 673b 7e61 77bc da0d b2bd
00000360: 2e17 ccbd 5f85 6bbd 55a0 013d 8603 75bc
00000370: ef7d 063d d897 1b3d cf6c 2a3d 49b1 d03c
00000380: fdc6 883d 6f9a ddbd 8317 863d eadc 75bc
00000390: ed0c 4fbc 5f3a 18bc 568b 563d 5532 77bd
000003a0: aab9 df3d 182b 9cbd 4187 473d 3d55 8fbd
000003b0: 131f 14bc ce14 ad3d 4eb6 25bd df97 22bc
000003c0: 27e3 84bd eda3 e13c 78ec b73c dc15 0ebc
000003d0: d0b1 6f3c c0b8 87bd 6820 50bd 1092 af3d
000003e0: 62d0 3bbd 9805 af3d 02ac 8f3d 0dc4 963d
000003f0: 9329 53bd 039e e83c 0dc0 1e3d fbe8 be3d
0.013113886 -0.0318677 0.035551846 0.028461939 0.09373462 0.035563648 -0.040565614 0.05152612
0.015586842 -0.02114045 0.064665176 -0.03091062 -0.06031247 0.004411242 0.06499604 0.025740238
0.031570178 -0.14428395 -0.065190494 -0.026165674 0.045153398 0.032216065 0.100141995 0.014748537
-0.038400065 0.12645008 -0.055293128 0.097967766 0.0347714 0.07493746 0.059114978 -0.06935406
0.043099362 -0.04092043 0.15460786 -0.05166915 0.016213425 0.040036727 0.024172295 0.002381612
-0.03987216 0.0026419233 -0.08347954 -0.026702922 0.05564512 0.024111591 0.0011888521 0.045113355
0.025520017 -0.027432844 0.059858337 0.040012963 0.07713139 0.04210323 -0.0444361 -0.020956842
-0.01062082 0.023864795 -0.062066447 0.00257584 0.09919238 -0.051453747 -0.0009019365 0.008740807
-0.024374655 -0.024320316 -0.116378546 -0.025204314 0.06650099 -0.013113034 0.04454162 -0.035886515
-0.014963264 -0.0654285 -0.100563616 -0.0040467577 -0.055075884 -0.06328005 0.018860944 0.023703838
0.091698125 -0.031137772 -0.009378469 0.059607934 0.027383393 0.05443906 0.036225688 0.09367302
0.059363965 0.050254747 0.0031077159 0.09196962 0.050241947 -0.04179858 -0.0220384 0.08130608
-0.100387245 0.037201274 -0.024491291 0.09595675 0.07886734 0.05544353 0.058101475 -0.045723006
0.039168447 -0.024106 -0.055992555 0.004877336 -0.0361008 0.05179692 0.05023592 0.06288269
0.050253242 0.057839967 0.020357033 0.07361817 0.10462699 0.052541982 -0.034748252 0.015004174
-0.019033166 0.029517379 0.0009964501 -0.024744323 0.052053172 -0.030136006 0.049384385 -0.066992
0.048617862 0.011838814 0.039538756 -0.07090811 0.024078634 0.052314058 0.031906877 0.009777072
0.0066541955 0.023169642 0.0609916 -0.1189798 0.0016300597 -0.005265522 -0.04581103 -0.034715094
0.11430387 0.0009273202 -0.008735162 0.027130228 -0.052260783 0.1040007 -0.039974216 0.032459207
0.01928858 -0.032899797 -0.033974085 0.008435728 0.014503986 -0.06681917 -0.01790421 -0.067034945
0.06555895 0.07650352 0.006059748 0.10519339 -0.04929541 0.022523895 -0.09540334 0.0030945786
0.03587411 -0.0010073248 -0.04661941 0.06554197 0.024102472 0.03214947 -0.035574194 -0.037843812
0.031785123 -0.09715752 0.013100543 0.07102098 -0.030883392 0.025813838 0.12359157 -0.032622762
0.028281393 0.022076387 0.042134564 -0.01711805 0.057496842 -0.0713168 0.04971683 -0.09026105
0.045921605 -0.06371043 -0.057701625 0.047969628 0.027151333 0.015922068 -0.10711894 -0.098076046
0.06700577 0.05502505 0.058977667 -0.055195067 0.08919281 0.030083451 -0.03578295 -0.0041655656
0.0063967947 -0.0114753535 0.0940697 -0.11390744 0.030878901 0.0035348213 -0.015098928 -0.08694048
-0.09965359 -0.05750024 0.031647045 -0.014954453 0.032834943 0.037986606 0.041607674 0.025475161
0.06678579 -0.108204715 0.06547453 -0.015006283 -0.012637359 -0.0092912605 0.052378975 -0.060350735
0.109240845 -0.07625407 0.048712973 -0.0699868 -0.009040612 0.08451234 -0.040457062 -0.009923904
-0.06488638 0.027543986 0.022451624 -0.008672204 0.014629796 -0.06627035 -0.050812155 0.08572781
-0.045853026 0.08545989 0.0701523 0.073616125 -0.05155332 0.028395658 0.038757373 0.09321781

network.6.bias f4 [141]
00000000: b6cd 243d 5c5d 4abd baa7 1d3d b378 26bd
00000010: 0fb5 97bb 926b 783d 2faf 14bb 1051 03bd
00000020: f507 233d 2f9b 393c 42b1 103d a493 8a3c
00000030: fcb5 06bd 28ac 933c d4fd 053b c2da 35bd
00000040: e639 903d 09b0 573c 5cea 14bc f104 2e3d
00000050: 869d f9bc 1543 c2ba 4012 9b3b b0c3 6e3d
00000060: 1660 01bd 0819 00bd aaf8 803c 5cdf 36bd
00000070: 8be6 7ebd fe63 b03d 3952 3e3d 552c 833c
00000080: 76ac ee39 5706 933d 3d0c 2abc 3deb 873d
00000090: fbc8 f7bc c7bb e43c c8ee 733d cd00 223c
000000a0: dfc6 103d 2d9e 783c 26c5 44bd 336c 80bc
000000b0: ca65 8abc 4dd8 f33b 3bd5 eebc d6d5 31bd
000000c0: eab5 16bb e2cf 0fbc 79de 67bd b8f0 503d
000000d0: 4706 2a3c fa53 dc3b 7457 27bd 6710 a23c
000000e0: edef fd3c 7acc 6b3d c0c6 90bd 189a 9e3d
000000f0: d6f3 913c cd3b 42ba c906 643d abc5 5b3d
00000100: e60f 093c 28a1 27bc f137 ec3c 4b4f babc
00000110: 68ae d13c e9cc e33c ac56 8a3d 69a7 babc
00000120: b507 41bd 916f 2e3d fc1f 9abc f09f aa3c
00000130: d697 8b3d c2cd 2c3d fac7 b03c 64e3 383d
00000140: 3b10 443d 1714 dd3d 08f5 b43d de48 7a3d
00000150: ff3b 4d3d 87db c13c e643 61bd c100 4b3c
00000160: 5fa2 bd3c 34c2 573c fa19 f2bc 7dca f33c
00000170: 88a9 303d 2b2b 4f3c 0148 a33d a60c f9bc
00000180: 9919 343c 453a c93b 93bf edbb 142b 743d
00000190: 7683 a43b 31aa da3c 6ed5 5b3d aecc b03c
000001a0: 20a4 7b3d 610a 7b3d 5c23 52bc 4371 3e3d
000001b0: d059 13bd c71c 153d a8fe 623d 80e3 83bc
000001c0: 799c a3bc 1364 fcbc 6819 35bc 3d94 4d3d
000001d0: 952e a43c 4a1f be3c 19b8 5f3b 423b ac3c
000001e0: e815 6c3c 6fcd 1d3d 0140 9b3d 39f4 83bc
000001f0: 2c00 a33d b86b 873d 52e9 7abd 59e5 a53d
00000200: df76 bebc fdc0 8ebc dd87 a33c cf38 3e3c
00000210: ee3e 3fbd 34b9 8cbb c394 9f3d 4934 793d
00000220: ee6c 0cbd 9098 cfbc 86db a9bc 3e52 583d
00000230: 8619 cfba
0.040235244 -0.04940544 0.038490035 -0.04064245 -0.004629738 0.060649462 -0.0022687425 -0.03205973
0.03980251 0.011328503 0.035325296 0.016916104 -0.032888398 0.018026426 0.0020445483 -0.044398077
0.07042293 0.013164529 -0.009089079 0.04248518 -0.03047062 -0.0014821017 0.0047324 0.05829209
-0.031585775 -0.03127387 0.015743572 -0.044646606 -0.06223158 0.08612822 0.046465132 0.01601235
0.0004552339 0.071789436 -0.010378894 0.06636665 -0.030247202 0.02792157 0.05955389 0.009887886
0.03534591 0.015174431 -0.048039578 -0.015676593 -0.01689424 0.0074415565 -0.02915441 -0.04341682
-0.0022996613 -0.0087775905 -0.05660865 0.051010817 0.010377473 0.006723878 -0.040854886 0.019783212
0.030998195 0.05756805 -0.070691586 0.07744235 0.017816465 -0.00074094237 0.055670533 0.053655308
0.008365607 -0.010231294 0.028835269 -0.022742888 0.025595859 0.02780767 0.067548126 -0.022784906
-0.04712649 0.042586867 -0.01881408 0.020828217 0.0681607 0.042188413 0.021579731 0.04513873
0.04786704 0.107948475 0.088357985 0.061104648 0.050106045 0.02366425 -0.054996394 0.012390316
0.023148714 0.01316886 -0.029553402 0.02975964 0.043130428 0.012644569 0.07972718 -0.030401539
0.010992431 0.0061409795 -0.0072555034 0.059611395 0.005020554 0.026692482 0.05367034 0.021581974
0.06143582 0.061289195 -0.012825813 0.046494734 -0.035974324 0.036404397 0.05541864 -0.016099691
-0.019972073 -0.030809438 -0.011053421 0.0501902 0.020041743 0.02320828 0.003413683 0.02102435
0.01440952 0.038525995 0.07580567 -0.016107665 0.07959017 0.066123426 -0.061257668 0.08100385
-0.023250042 -0.017426008 0.019962246 0.011610224 -0.046690874 -0.004294539 0.07792046 0.06084088
-0.03428357 -0.025341302 -0.02073456 0.052812807 -0.0015800453

network.9.weight f4 [21, 141]
00000000: ebc2 c23d 7122 c83d 18c2 44be 85a8 d3bd
00000010: 3b32 bc3d 4789 863d d2c1 9a3d a5fd ed3d
00000020: ef36 d3bd fa0c c03d 409e f8bc 3ece bf3c
00000030: 81b8 b8bd bc6e c1bc 74c5 00be 9160 0fba
00000040: 69fd 39bd 1af9 4e3c cc2f e73d 415d e43c
00000050: c964 e6bd f7db cabd 4c00 62bd 9f82 db3d
00000060: eb48 e4bd 8f1c e2bd 5abd adbd b600 de3d
00000070: 1d21 c23d eda5 263c 1db6 1e3c f0ff 42bd
00000080: d88b 85bd 0e43 a2bc b0e1 55bd 11ea 923d
00000090: a425 51be a84c b93c f750 9f3d 927a dd3c
000000a0: e00e 09bd bc86 9dbd 52fd a73d 5d6b f8bd
000000b0: b83b 08be 3b37 723d 8109 fc3c 0780 753d
000000c0: dd27 39be 042c 34be c3c1 cbbd 56bb 61be
000000d0: 53ec c6bc 7d1f d33d 5036 ecbd a579 68bd
000000e0: 15ee 0cbd 6962 bbbc 4058 38be 30be 833d
000000f0: 72bb 51bd a6f8 8e3d d197 bbbd f774 143b
00000100: 673e bf3d 7a7b a63d f9ba f0bd 9b13 d9bd
00000110: d54c 883c a1c5 14be b39d 943d 9cbf efbd
00000120: 8d77 e9bd dfb9 babd 8919 843d af0a f4bd
00000130: 128c 08be 3ba4 e83d a74c 173d fae3 993d
00000140: 1e06 703d 18b4 153d 40db 2f3d c0bd d23c
00000150: a1c8 19bc 8eb7 b63d a7ff 0abe e8ea 3ebc
00000160: a320 0fbe ecb3 313e 3bc7 943d ad08 65bd
00000170: 4408 c93d 4707 b63d a09d 98bd c3aa 06be
00000180: 2a6d 723b 1e7a da3d f255 973d 349f 643d
00000190: cf53 f6bd 09c4 96bd eb4c 8bbd 69cd 373d
000001a0: e339 c73d 287c 603d 74d7 543d 046e 31be
000001b0: 14ea 90bc 1cd7 91bd 2f17 753d f0fb 033d
000001c0: 7a48 adbd 333a 0ebe a164 833d aaed fcbd
000001d0: 0973 18be f672 2d3d a851 af3b 48b7 33be
000001e0: 8838 873d 5c02 c43d 389e c73d 8d47 8f3d
000001f0: 26c0 a33d c677 8ebd b21d 11be b914 0abe
00000200: 5f9b 4a3c 0fb2 1b3d c8c1 0bbe 7a23 31be
00000210: 08a9 bf3c eb3c 353c 7de7 9b3c f8e4 923d
00000220: 710c 16bd ea1a b1bc aa07 893d 4bc2 2b3d
00000230: 50c9 663b dfdd 34be 3e21 103d 37c6 10be
00000240: 9274 dbbd 4de9 fbbd 8cc3 c8bd c2ef 903d
00000250: 122a 19be 5ef0 fd3c 6d12 023d b02e 6b3d
00000260: c4a8 4c3d 4be1 5dbd 1085 2cbd 4411 843c
00000270: 452d ecbc 97a3 f23d 45ea 523b 287f 863d
00000280: b8a1 933d 619f 453d 21ac 32bd 77d8 6e3d
00000290: e64c 36be 6013 0fbe 8d5d 0fbe 3c80 05bd
000002a0: bf04 14be 5b92 26be 5205 853d 1555 05bd
000002b0: d634 013e 561e c63c 914e 89bb 217e 8f3d
000002c0: 64a2 833d 30be 9f3b 3600 793d bf0c 8d3d
000002d0: bb51 103d 53b8 f23d 4bcf 5a3c 2cc7 febd
000002e0: d982 18be ef68 993d 808d 733d 663f 8c3d
000002f0: 6483 5bbc d1be 6cbe b122 21bd 377a 9bbd
00000300: d259 323d f4af 28bd cdec 30be 2a4a dbbd
00000310: 1fdc b33d a9f2 70bb e8d1 0d3d e963 02be
00000320: 8e3a 133d 681c a6bd b2f5 c9bd b97a 02be
00000330: 0afc bfbc 5478 30bd b19a 5b3d 0f1e dfbd
00000340: 7950 cabd 4fd3 f3bd ee7f 8fbd 8a97 873d
00000350: 4ce3 bd3d 3b8a 2abe 1489 a53d 4b34 e7bd
00000360: a1a1 e9bc e813 a5bd 95de 873c 76a2 80bc
00000370: 6344 0abe 3563 7cbd 3e1c bf3d 23b3 c93d
00000380: a9b3 4a3d c6e9 6b3d f362 ca3d 11b0 a03d
00000390: 06f1 4bbe 8fe6 bfbc f555 f1bd 371b 9d3d
000003a0: c116 833d 836e bb3c 2e5e 10bd ee20 1f3c
000003b0: 12bc 59bd aa1f a2bd 6de9 92bd bfe6 923d
000003c0: 6461 c0bc b452 013e 166d abbd ea23 44bd
000003d0: 2b8f de3d 71d7 33bd 5dc8 bf3d c6e5 cfbc
000003e0: 191a e8bd 9bf5 97bd 1dba 1abe afd5 06bc
000003f0: 1801 4d3b a496 4d3d 19b2 ae3d c854 a63d
0.09509834 0.09772194 -0.19214666 -0.10334877 0.09189268 0.06569152 0.075564995 0.116206445
-0.10313212 0.09377475 -0.030348897 0.023413774 -0.09019566 -0.023612373 -0.12575322 -0.00054694066
-0.045407686 0.012632633 0.112884134 0.027876498 -0.11249692 -0.09905236 -0.055176064 0.10718273
-0.111467205 -0.11040603 -0.084833816 0.10839979 0.09478972 0.010171396 0.009686974 -0.047607362
-0.06520814 -0.019807365 -0.052217185 0.07173551 -0.20424515 0.02261956 0.07779115 0.027035985
-0.03346145 -0.07691714 0.08202614 -0.12129853 -0.13304031 0.059134703 0.03076625 0.05993655
-0.18081613 -0.17594916 -0.099490665 -0.22044119 -0.02428261 0.1030874 -0.11533797 -0.056756634
-0.03440674 -0.022874074 -0.18002415 0.0643276 -0.051204152 0.0698102 -0.09159816 0.0022652724
0.09338074 0.0812902 -0.11754412 -0.105994426 0.016638199 -0.14528514 0.07256641 -0.117064685
-0.113997556 -0.09117483 0.06450183 -0.119161 -0.13334683 0.113594495 0.036938336 0.07514186
0.058599584 0.036548704 0.042933702 0.025725245 -0.009386213 0.08921729 -0.13574086 -0.011652686
-0.13977294 0.17353791 0.07264563 -0.055916477 0.0981603 0.08888107 -0.074519396 -0.13151078
0.0036991336 0.10667823 0.0738944 0.05581589 -0.12027704 -0.073616095 -0.0680178 0.04487363
0.09727838 0.054805905 0.051963285 -0.17327124 -0.017689742 -0.07121107 0.059836563 0.03222269
-0.084610894 -0.13889389 0.06415678 -0.12350018 -0.14887632 0.042345963 0.0053503104 -0.17550385
0.06602579 0.095707625 0.09746975 0.06996069 0.07995634 -0.06956439 -0.14171484 -0.13484468
0.012366145 0.038011607 -0.1364814 -0.1729869 0.02339603 0.011061887 0.01903128 0.071725786
-0.03663296 -0.021619279 0.06690915 0.04193334 0.0035215206 -0.17662762 0.035187952 -0.14138113
-0.107155934 -0.12300358 -0.098029226 0.0707698 -0.14957455 0.030998405 0.031755853 0.05741757
0.049965635 -0.054169934 -0.042119086 0.016121514 -0.02883018 0.118476085 0.0032183093 0.06567222
0.0720858 0.0482477 -0.043621186 0.058311906 -0.17802772 -0.13972235 -0.1400053 -0.032592997
-0.14454935 -0.16266768 0.064951554 -0.032551844 0.12617812 0.024184387 -0.004190274 0.07006479
0.06427458 0.004874967 0.060791217 0.06887197 0.035234194 0.11851563 0.013355087 -0.12440333
-0.14893664 0.074907176 0.059461117 0.0684803 -0.013398025 -0.23119666 -0.039339725 -0.0759167
0.04354269 -0.041183427 -0.17277832 -0.10707505 0.08782219 -0.003676573 0.03462401 -0.12733425
0.035944514 -0.08110887 -0.09861316 -0.12742127 -0.023435611 -0.043083504 0.053614322 -0.10894405
-0.0987863 -0.11905538 -0.070068225 0.06620701 0.09271869 -0.16654293 0.08082786 -0.11289271
-0.028519453 -0.080604374 0.016585628 -0.015702467 -0.1350265 -0.06161805 0.09331559 0.09848621
0.049487744 0.05759599 0.09882154 0.07846082 -0.19916162 -0.023425369 -0.11783973 0.076712064
0.06400824 0.022879845 -0.035246067 0.009712441 -0.053157873 -0.07916196 -0.07173429 0.071729176
-0.02348394 0.12629205 -0.08370416 -0.047885813 0.10867151 -0.043906633 0.09364388 -0.02537812
-0.11333103 -0.074198924 -0.15110059 -0.008229657 0.003128117 0.05019249 0.08530063 0.081216395

network.9.bias f4 [21]
00000000: 32c6 2fbc 84e7 afbc ab4f 443d 8afc fe3c
00000010: 1042 393d 6ca2 29bd e2c5 413d 26c3 acbd
00000020: 372b 80bd 07fe d03d 699c 823d f75a 843d
00000030: b7df 77bd 3373 983d c858 d33c 8b63 eabc
00000040: dc14 f7bc 4864 6bbd 6017 a8bd 1173 31bd
00000050: 2099 e2bd
-0.010728406 -0.0214727 0.04792754 0.03112628 0.045229018 -0.041414663 0.047307856 -0.08435659
-0.062582426 0.10204702 0.06377489 0.06462663 -0.060516085 0.074438475 0.02579917 -0.028611919
-0.030161314 -0.057468683 -0.082075834 -0.043322627 -0.110643625
