models/NeuralNetwork-1_acc-60.19_loss-0.000002.pth (torch, 802127 bytes, 8 tensors)

network.0.weight f4 [512, 63]
-0.00548196 0.07361304 0.036121596 -0.013133233 -0.0005126108 0.29489347 0.20670606 0.052033134
0.020232534 0.03305644 0.015552879 0.17336728 -0.055501048 -0.095150374 -0.12885575 0.10385307
-0.05229986 0.05510295 0.09609056 0.23535821 -0.20766622 0.12305853 -0.004359139 0.08211972
-0.0029624368 0.005487744 0.080090985 0.0489219 0.06202416 -0.099041216 -0.045612156 -0.03964342
0.08875336 -0.13375378 0.055212975 -0.12098448 0.028853042 -0.08655062 -0.15408145 -0.04006613
0.0035455532 -0.023382585 0.09448832 0.024966974 0.018551387 -0.1543842 6.338423e-05 -0.14649187
0.0474027 0.034745775 -0.022909515 0.15203772 0.018602595 0.098797664 -0.12247624 -0.10679223
-0.12912282 0.05573587 -0.030721566 0.16468361 -0.06346499 -0.09421774 0.1247807 -0.02237679
-0.002482794 0.115196496 -0.12602042 -0.19216643 0.06730999 0.08051793 -0.037531234 -0.016371652
0.11833592 0.06710511 -0.085747056 -0.029629037 0.16453989 -0.0063714045 -0.11439738 -0.031316362
0.049595185 -0.014349831 0.14568238 -0.01944549 0.06854722 -0.19953051 0.09709416 0.12031021
0.21417682 0.15182228 -0.10068778 0.13315491 0.15386409 0.0034509224 0.045243148 -0.01579622
-0.0777372 -0.07349428 -0.030148987 -0.027966354 -0.12676582 0.0349831 -0.028534552 0.081275664
-0.030811023 -0.10802987 0.08227342 -0.042283807 0.14881335 0.13025863 0.16531721 0.0803668
-0.023531355 -0.017373318 -0.019160086 0.08048512 -0.070183724 -0.14688955 -0.046132516 0.063735634
0.045128714 0.05942195 0.005618452 0.0735424 -0.066823535 0.0014078228 -0.07139134 0.03907296
-0.025032125 0.15100016 0.12686366 0.09345778 -0.06391825 0.04671727 0.08371843 0.0924939
0.044311002 0.059671193 -0.020970402 0.033245508 0.018131873 0.13522625 0.11917155 -0.036582306
0.07247123 -0.12788914 0.18923241 0.036742877 -0.1673477 -0.011013719 0.004785852 0.04271377
-0.07642617 0.10138443 -0.03368862 0.031458862 -0.13108575 0.029833654 0.05060935 0.1048946
0.24239796 0.0012057656 0.121930204 0.09431233 0.1354942 0.18349312 0.05365162 0.1582292
0.03624422 0.2083077 -0.05754747 -0.15591224 0.14523445 -0.029797278 -0.18901692 0.064027265
0.04370282 0.18455034 -0.2644966 -0.061627753 -0.024553442 -0.05088212 0.116912365 0.09157269
0.13728987 0.06520711 -0.017293034 0.004826879 0.046528608 0.008823465 0.1257426 -0.022430094
-0.025736215 -0.015702702 -0.05658956 -0.035667356 -0.009421679 -0.08876708 0.11532081 -0.00014656887
-0.109605715 -0.057472702 -0.008137074 -0.008776273 -0.09059454 -0.0433963 -0.08527929 -0.18830556
-0.15711424 0.17167893 -0.021646567 0.10299973 0.117405966 0.03131841 0.0942145 0.06666749
-0.0046928506 0.17300473 -0.07832815 -0.08047516 0.014776302 -0.11315719 0.042771257 -0.16408056
-0.06481858 -0.029895099 0.17830417 0.017261477 -0.09461927 0.10217324 0.0002145429 0.18187955
0.16174178 -0.0899635 0.06869296 0.075335085 -0.12718719 -0.14840282 -0.021739183 -0.048220713
0.13736689 -0.032683235 -0.09765133 0.22047564 -0.07269466 0.024415432 0.041226882 -0.28500086
0.07580752 -0.21285592 0.059967745 -0.018820168 -0.018112907 0.0001752227 0.007510963 0.08042618
00000000: 03a2 b3bb 6fc2 963d 3df4 133d c62c 57bc
00000010: ba60 06ba 47fc 963e c1aa 533e b220 553d
00000020: b3be a53c 3166 073d 81d1 7e3c 3187 313e
00000030: 1155 63bd 33de c2bd c3f2 03be ebb0 d43d
00000040: 6138 56bd a2b3 613d 21cb c43d be01 713e
00000050: 74a6 54be 1c06 fc3d 1cd7 8ebb 622e a83d
00000060: 7125 42bb 89d2 b33b be06 a43d 5562 483d
00000070: 0c0d 7e3d 1fd6 cabd d0d3 3abd 2461 22bd
00000080: 52c4 b53d c0f6 08be 0027 623d b6c6 f7bd
00000090: 375d ec3c 7441 b1bd 87c7 1dbe 621c 24bd
000000a0: 835c 683b d68c bfbc 1883 c13d 8a87 cc3c
000000b0: 14f9 973c e416 1ebe 26ed 8438 f701 16be
000000c0: 5529 423d 9651 0e3d bcac bbbc c7af 1b3e
000000d0: 7864 983c 6e56 ca3d d3d4 fabd e2b5 dabd
000000e0: c638 04be 4c4b 643d cbab fbbc d2a2 283e
000000f0: eff9 81bd 3bf5 c0bd 068d ff3d 884f b7bc
00000100: 5fb6 22bb 24ec eb3d 7f0b 01be 47c7 44be
00000110: d2d9 893d 96e6 a43d 5aba 19bd d81d 86bc
00000120: 1a5a f23d 676e 893d 279c afbd 98b8 f2bc
00000130: 257d 283e 37c7 d0bb 2c49 eabd 9645 00bd
00000140: 5224 4b3d 8e1b 6bbc c32d 153e 264c 9fbc
00000150: 7c62 8c3d ba51 4cbe 4ed9 c63d 3365 f63d
00000160: 2b51 5b3e 4d77 1b3e 6535 cebd c359 083e
00000170: 8c8e 1d3e df28 623b e150 393d 1367 81bc
00000180: ae34 9fbd 2b84 96bd 02fb f6bc b219 e5bc
00000190: e6ce 01be 704a 0f3d 4bc1 e9bc db73 a63d
000001a0: 6667 fcbc c43e ddbd f87e a83d c931 2dbd
000001b0: 8762 183e 8562 053e ea48 293e 5997 a43d
000001c0: d4c4 c0bc 7d52 8ebc 9df5 9cbc 62d5 a43d
000001d0: 7cbc 8fbd 376a 16be 73f5 3cbd d487 823d
000001e0: e3d8 383d 6e64 733d fe1a b83b 669d 963d
000001f0: c7da 88bd b286 b83a 9f35 92bd f80a 203d
00000200: 2c10 cdbc c99f 1a3e 8ce8 013e cb66 bf3d
00000210: 92e7 82bd 9c5a 3f3d 9174 ab3d 716d bd3d
00000220: 747f 353d c869 743d 1fca abbc 712c 083d
00000230: 4b89 943c c078 0a3e 3710 f43d 54d7 15bd
00000240: cc6b 943d 5ff5 02be 24c6 413e b37f 163d
00000250: 325d 2bbe e372 34bc a3d2 9c3b a2f4 2e3d
00000260: 5385 9cbd a4a2 cf3d 14fd 09bd 02db 003d
00000270: 583b 06be b565 f43c c04b 4f3d fbd2 d63d
00000280: 2c37 783e c80a 9e3a 8bb6 f93d d326 c13d
00000290: febe 0a3e 9fe5 3b3e cdc1 5b3d d606 223e
000002a0: d274 143d 9d4e 553e e5b6 6bbd 75a7 1fbe
000002b0: 57b8 143e 6c19 f4bc a78d 41be ba20 833d
000002c0: ba01 333d c4fa 3c3e 196c 87be 626d 7cbd
000002d0: 4d24 c9bc c569 50bd c06f ef3d 768a bb3d
000002e0: b795 0c3e 4e8b 853d 1faa 8dbc cc2a 9e3b
000002f0: c894 3e3d 4b90 103c abc2 003e 51bf b7bc
00000300: c1d4 d2bc f4a2 80bc 74ca 67bd ef17 12bd
00000310: 635d 1abc 84cb b5bd 512d ec3d 48b0 19b9
00000320: f678 e0bd 7f68 6bbd 5d51 05bc 5bca 0fbc
00000330: a189 b9bd 52c0 31bd e9a6 aebd 2cd3 40be
00000340: 8ee2 20be 9acc 2f3e 2454 b1bc 86f1 d23d
00000350: 8a72 f03d bc47 003d 88f3 c03d f788 883d
00000360: 7cc6 99bb 2728 313e 826a a0bd 29d0 a4bd
00000370: 4d18 723c f5be e7bd ea30 2f3d bc04 28be
00000380: 9bbf 84bd 91e6 f4bc 5e95 363e f167 8d3c
00000390: bfc7 c1bd 3440 d13d ecf6 6039 a23e 3a3e
000003a0: a39f 253e c93e b8bd e5ae 8c3d 4849 9a3d
000003b0: 5c3d 02be e9f6 17be 5f16 b2bc 1583 45bd
000003c0: e8a9 0c3e dbde 05bd 6cfd c7bd 5ec4 613e
000003d0: f0e0 94bd df02 c83c 85dd 283d a2eb 91be
000003e0: f940 9b3d e7f6 59be bda0 753d c12c 9abc
000003f0: 8561 94bc fcbb 3739 861e f63b 7bb6 a43d

network.0.bias f4 [512]
-0.37608764 -0.18878308 -0.24172305 -0.29664144 -0.12942551 -0.16704498 -0.17828943 -0.062916644
-0.12991531 -0.15873617 -0.33537862 -0.17652069 -0.23989677 -0.17821477 -0.29700682 -0.32144442
-0.36518365 -0.07893802 -0.23460497 -0.22778326 -0.27612448 -0.13402784 -0.19589926 -0.25995478
-0.01023282 -0.011496843 -0.20210332 -0.13005665 -0.21513593 -0.15116881 -0.15564558 -0.23175833
-0.2187397 -0.27013168 -0.24214157 -0.28026846 -0.17476691 -0.13623834 -0.31306574 -0.13607524
-0.093798235 -0.11441509 -0.083386354 -0.19757976 -0.1010661 -0.15754063 -0.2508803 -0.16029719
-0.045202825 -0.2451826 -0.26893398 -0.25906688 -0.10482874 -0.22064964 -0.3289915 -0.15551847
-0.27135825 -0.18665256 -0.2114399 -0.06746061 -0.23431224 -0.17705898 -0.17859964 -0.26742673
-0.15650822 -0.31056708 -0.07001575 -0.06954369 -0.16803238 -0.2693178 -0.24551016 -0.17180678
-0.2563986 -0.18067831 -0.08979461 -0.19960102 -0.34812188 -0.23199433 -0.37822816 -0.090257525
-0.15081303 -0.18440834 -0.19931164 -0.27940804 -0.17547962 -0.31338435 -0.15708391 -0.20859873
-0.2230888 -0.24628906 -0.076826036 -0.2281513 -0.06763591 -0.16981582 -0.1643465 -0.19247428
-0.07353669 -0.09872083 -0.22606802 -0.17063454 -0.03424622 -0.1788128 -0.30844823 0.017308496
-0.3830619 -0.09999893 -0.10406363 -0.26289546 -0.2943385 -0.13892409 -0.094241254 0.04070171
-0.118980125 -0.16376357 -0.19097829 -0.12710021 -0.14861251 -0.22786567 -0.08752274 -0.35682565
-0.19965099 -0.07143815 -0.11749568 -0.29902807 -0.21232554 -0.05432898 -0.0036522143 -0.215322
-0.1844321 -0.29222587 -0.16069418 -0.074829176 -0.14728224 -0.19913855 -0.16547324 -0.074531905
-0.04806042 -0.29782403 -0.19678417 -0.16884215 -0.10292175 -0.18896137 -0.21138032 -0.035355896
-0.16993056 -0.078077175 -0.12978022 -0.24874611 -0.17822294 -0.22421592 -0.23151731 0.0048518963
-0.1071443 -0.11681514 -0.20933451 -0.09209361 -0.038247067 -0.07505425 -0.30258194 -0.017765565
-0.2119026 -0.34491247 0.011315571 -0.30396187 -0.059930224 -0.2453733 -0.0995081 -0.24753742
-0.12730713 -0.2573538 -0.19862866 -0.3662325 -0.23218112 -0.2579597 -0.2479421 -0.09170507
-0.01153053 -0.26410905 -0.40505594 -0.12573884 -0.11047461 -0.09500928 -0.31475747 -0.22047274
-0.097026885 -0.13912365 -0.116825 -0.33882064 -0.16720596 -0.32257017 -0.29582077 -0.02587144
-0.12035913 -0.100698985 -0.06859975 -0.3449049 -0.3062873 -0.3392759 -0.2466809 -0.13790002
-0.18292862 -0.34218168 -0.34225547 -0.21715282 -0.17746854 -0.25805318 -0.012382298 -0.1467341
-0.19903362 -0.07297649 -0.070794106 -0.13775854 -0.20436122 -0.11748495 -0.2852699 -0.04133819
-0.08470994 -0.1721174 -0.2292469 -0.14367211 -0.36134294 -0.19438758 -0.36971417 -0.119508974
-0.15336539 -0.34183076 -0.11415269 -0.13444526 -0.080002755 -0.2984352 -0.19976419 -0.1598067
-0.35461769 -0.1880964 -0.14464068 -0.22140858 -0.2291896 -0.0996617 -0.19249709 -0.16742864
-0.2078297 -0.31792286 -0.30181625 -0.24577144 -0.162267 -0.18881698 -0.21588108 -0.35534152
-0.26831675 -0.39721343 -0.22361167 -0.15280196 -0.34291932 -0.27466157 -0.19027215 -0.21546276
00000000: 8f8e c0be 5a50 41be 3f86 77be 63e1 97be
00000010: 1f88 04be d70d 2bbe 8191 36be 71da 80bd
00000020: 8508 05be bc8b 22be bfb6 abbe d7c1 34be
00000030: 80a7 75be ef7d 36be 4711 98be 5d94 a4be
00000040: 5af9 babe 42aa a1bd 493c 70be 0440 69be
00000050: 3060 8dbe 983e 09be d199 48be cb18 85be
00000060: 8fa7 27bc 415d 3cbc 2cf4 4ebe 922d 05be
00000070: 984c 5cbe ffcb 1abe 8e61 1fbe 0e52 6dbe
00000080: 4dfd 5fbe b34e 8abe f6f3 77be 597f 8fbe
00000090: 19f6 32be 1082 0bbe 274a a0be 4f57 0bbe
000000a0: 4a19 c0bd 7552 eabd 77c6 aabd 5952 4abe
000000b0: befb cebd 5552 21be 6273 80be f224 24be
000000c0: 9926 39bd 2611 7bbe b7b1 89be 6aa4 84be
000000d0: 73b0 d6bd fbf1 61be 9371 a8be 3c40 1fbe
000000e0: 78ef 8abe d921 3fbe b383 58be ca28 8abd
000000f0: 8cef 6fbe f34e 35be d3e2 36be 28ec 88be
00000100: b143 20be a602 9fbe 6b64 8fbd ec6c 8ebd
00000110: ae10 2cbe 06e4 89be 0467 7bbe 1eee 2fbe
00000120: ad46 83be bc03 39be 3de6 b7bd 3664 4cbe
00000130: 083d b2be ec8f 6dbe 1fa7 c1be f0d8 b8bd
00000140: bb6e 1abe 8ad5 3cbe 5a18 4cbe 920e 8fbe
00000150: eeb0 33be ea73 a0be 9bda 20be e89a 55be
00000160: 6471 64be 3333 7cbe f856 9dbd 7fa0 69be
00000170: b284 8abd 33e4 2dbe 734a 28be fa17 45be
00000180: 679a 96bd 262e cabd 607e 67be d2ba 2ebe
00000190: c445 0cbd b41a 37be edec 9dbe 8cca 8d3c
000001a0: b020 c4be 3dcc ccbd 501f d5bd 3c9a 86be
000001b0: 89b3 96be 1e42 0ebe 8f01 c1bd d6b6 263d
000001c0: daab f3bd a3b1 27be d08f 43be 8f26 02be
000001d0: e12d 18be 9e55 69be 1f3f b3bd dab1 b6be
000001e0: 4f71 4cbe 2a4e 92bd 93a1 f0bd 351a 99be
000001f0: de6b 59be 1188 5ebd fd59 6fbb 5f7d 5cbe
00000200: c5db 3cbe a19e 95be 048d 24be 0a40 99bd
00000210: 28d1 16be faea 4bbe d171 29be 2fa4 98bd
00000220: 01db 44bd 647c 98be ca81 49be f5e4 2cbe
00000230: a3c8 d2bd 177f 41be 1574 58be 58d1 10bd
00000240: 4702 2ebe ede6 9fbd 1be5 04be 4db7 7ebe
00000250: 1380 36be dc98 65be e012 6dbe a8fc 9e3b
00000260: 796e dbbd c73c efbd c95b 56be 939b bcbd
00000270: f5a8 1cbd 0bb6 99bd 05ec 9abe 1789 91bc
00000280: fffc 58be 5e98 b0be f264 393c e4a0 9bbe
00000290: 6579 75bd 2343 7bbe e7ca cbbd 737a 7dbe
000002a0: cd5c 02be e1c3 83be 5065 4bbe d482 bbbe
000002b0: e3c0 6dbe 4b13 84be 89e4 7dbe decf bbbd
000002c0: 8cea 3cbc 4d39 87be 7e63 cfbe afc1 00be
000002d0: 8340 e2bd 3a94 c2bd e427 a1be 9bc3 61be
000002e0: 08b6 c6bd 6e76 0ebe f241 efbd e679 adbe
000002f0: 0a38 2bbe eb27 a5be d275 97be 58f0 d3bc
00000300: d97e f6bd 453b cebd 077e 8cbd 6097 b0be
00000310: b0d1 9cbe 92b5 adbe eb99 7cbe aa35 0dbe
00000320: a451 3bbe 7032 afbe 1c3c afbe 4f5d 5ebe
00000330: 50ba 35be 8c1f 84be 1fdf 4abc 7741 16be
00000340: 78cf 4bbe b374 95bd 80fc 90bd 9310 0dbe
00000350: 1144 51be f39b f0bd e50e 92be 3c52 29bd
00000360: 687c adbd 8b3f 30be b3bf 6abe c81e 13be
00000370: f101 b9be 8a0d 47be 2d4b bdbe 1fc1 f4bd
00000380: d10b 1dbe 7104 afbe e3c8 e9bd 05ac 09be
00000390: 7cd8 a3bd 80cc 98be fc8e 4cbe 5ea4 23be
000003a0: 7390 b5be 589c 40be b01c 14be eeb8 62be
000003b0: aeb0 6abe 6f1b ccbd f51d 45be 6a72 2bbe
000003c0: 4fd1 54be c9c6 a2be a987 9abe 82ab 7bbe
000003d0: 5229 26be 3d59 41be ee0f 5dbe 53ef b5be
000003e0: d060 89be 8f5f cbbe 75fa 64be 1e78 1cbe
000003f0: 1f93 afbe 71a0 8cbe b4d6 42be 45a2 5cbe

network.3.weight f4 [256, 512]
-0.05930975 -0.14053203 -0.06489889 -0.031425904 -0.01428758 -0.08393024 0.10388436 -0.07838681
-0.056451924 0.06399334 -0.014296389 -0.114210784 0.013293916 -0.03954892 0.041070126 0.07139101
0.05189026 0.027756926 0.030338166 0.044078536 0.017332181 0.039349798 0.038380787 -0.05016689
0.03537346 -0.033375025 -0.01441918 -0.039162822 -0.011062874 0.042836774 -0.04111631 0.038520265
0.046102516 0.042030327 0.046039898 -0.019920308 -0.029394416 -0.01749122 0.073950835 0.036910564
0.013517337 -0.010634265 0.017926488 -0.05315615 0.021361303 0.042524114 -0.088863835 -0.09237614
-0.020499725 0.12963161 -0.012755975 0.04525913 -0.06393505 0.017195143 -0.076396994 -0.057645198
-0.023765426 0.05302812 -0.019734185 -0.0056017353 -0.019815821 0.04956625 0.085703924 -0.037407
-0.005713581 0.041811444 -0.016702019 -0.17250192 -0.07049033 0.012575324 0.021676967 -0.062469162
0.042456713 -0.02999577 -0.04518336 -0.04297275 0.024102574 -0.0030527946 0.058117725 0.050703544
0.033116195 -0.009362237 0.016606152 0.003607795 -0.021848962 0.022510897 -0.0664678 0.057703663
0.07680197 0.063446924 -0.020552706 -0.0021237272 -0.029688768 -0.091048054 -0.17609772 0.1371695
0.017250111 -0.05834283 0.048440948 0.08783209 -0.06285406 0.06465857 -0.1717518 0.0031461874
0.027290257 -0.06402756 0.014986383 0.06374292 0.051261473 -0.04174105 -0.121119864 -0.20575945
0.014926179 0.009496865 -0.1818173 -0.1518562 0.05676631 -0.009250234 0.031233154 -0.005276896
0.06201306 -0.0029864896 -0.042970613 0.063995525 -0.079393655 -0.030695029 -0.08431397 -0.022798168
0.0504289 0.049427636 0.030089147 0.0052468 0.0725247 -0.04258207 0.069367 -0.1219696
0.06280528 -0.048227098 -0.014323365 -0.028030185 -0.043249257 0.05522236 -0.012167763 0.005599029
-0.015355764 0.04131254 0.021255676 0.036466394 0.026093611 -0.0065116673 -0.09150448 -0.09106344
0.07970009 -0.03779269 0.07672754 -0.12574741 0.023041863 -0.13740937 0.02876106 0.023102174
0.02240426 0.0059625367 -0.13423492 0.030793672 0.028055884 -0.020618541 -0.09513312 0.04579957
-0.024156325 -0.05717925 -0.11556593 -0.08708487 0.06854118 -0.009909627 0.062958464 -0.09742107
0.02975832 -0.048907574 0.07793691 -0.09422425 0.01813675 0.020405509 -0.012478631 0.0070961136
0.0025506788 -0.015904453 0.07647675 0.066785455 0.068725176 0.03362737 0.008641625 0.02140739
-0.10683068 -0.019626155 0.053194832 -0.010563197 -0.05334323 -0.01612912 -0.009741397 0.05803916
-0.06789503 0.023556923 0.03765008 -0.005516128 0.052696597 -0.051177677 0.043058064 -0.04538474
-0.0384527 0.018768184 -0.014671995 -0.008060712 0.014716268 -0.11297411 0.026360702 0.095712915
-0.12093467 -0.047627535 -0.043140624 0.045789227 0.061450027 -0.061654005 -0.026492901 -0.022616556
0.04630035 0.017915761 -0.0005616759 0.018591903 -0.068715334 -0.008278726 -0.11666273 0.04527043
0.03477518 -0.028627181 0.020337036 0.001885931 0.04168846 -0.049181156 -0.0020737427 -0.004594454
-0.053488158 0.046505097 0.025678365 -0.07956933 0.05676627 0.024409186 -0.022583852 -0.0021962111
0.010357065 -0.005399352 -0.02306971 0.018877218 0.08825576 0.016699212 0.056792866 -0.041079525
00000000: c8ee 72bd a1e7 0fbe b6e9 84bd 73b8 00bd
00000010: 7416 6abc 9ee3 abbd 53c1 d43d 4489 a0bd
00000020: 223a 67bd f10e 833d 673b 6abc 58e7 e9bd
00000030: bace 593c 0cfe 21bd 2639 283d 7335 923d
00000040: e28a 543d 7e62 e33c bf87 f83c b28b 343d
00000050: 38fc 8d3c 412d 213d 2c35 1d3d cc7b 4dbd
00000060: c3e3 103d 40b4 08bd 6d3e 6cbc 3269 20bd
00000070: 0f41 35bc 9d75 2f3d 9369 28bd 6dc7 1d3d
00000080: fed5 3c3d fe27 2c3d 5594 3c3d ea2f a3bc
00000090: 8fcc f0bc bf49 8fbc 8973 973d 882f 173d
000000a0: d277 5d3c 573b 2ebc 92da 923c 43ba 59bd
000000b0: e6fd ae3c c42d 2e3d 3efe b5bd b42f bdbd
000000c0: 0aef a7bc 26be 043e 70fe 50bc a361 393d
000000d0: 61f0 82bd d4dc 8c3c 0776 9cbd 5f1d 6cbd
000000e0: b6af c2bc 0434 593d 96a9 a1bc c38e b7bb
000000f0: ca54 a2bc fb05 4b3d 8a85 af3d 1538 19bd
00000100: fe38 bbbb 7a42 2b3d acd2 88bc 58a4 30be
00000110: 3c5d 90bd bb08 4e3c e593 b13c aadf 7fbd
00000120: 17e7 2d3d b0b9 f5bc 3012 39bd 3204 30bd
00000130: c372 c53c 6511 48bb da0c 6e3d 85ae 4f3d
00000140: d9a4 073d 1164 19bc a009 883c c270 6c3b
00000150: 98fc b2bc c668 b83c 4520 88bd ad5a 6c3d
00000160: 5a4a 9d3d 76f0 813d 265e a8bc 3b2e 0bbb
00000170: dc35 f3bc 6777 babd f652 34be 2976 0c3e
00000180: 1b50 8d3c e4f8 6ebd 046a 463d 50e1 b33d
00000190: a1b9 80bd b66b 843d b4df 2fbe 4430 4e3b
000001a0: d18f df3c e220 83bd 7289 753c a68b 823d
000001b0: 8df7 513d aaf8 2abd b10d f8bd 9bb2 52be
000001c0: ef8c 743c bd98 1b3c 502e 3abe 3180 1bbe
000001d0: ca83 683d 4b8e 17bc acdc ff3c d0e9 acbb
000001e0: 6801 7e3d fbb8 43bb f401 30bd 1610 833d
000001f0: 2499 a2bd 2474 fbbc cdac acbd 39c3 babc
00000200: 898e 4e3d a274 4a3d 847d f63c 59ed ab3b
00000210: d487 943d 896a 2ebd 4910 8e3d 33cb f9bd
00000220: 0ea0 803d c789 45bd 8cac 6abc 8f9f e5bc
00000230: 2226 31bd d730 623d 4c5b 47bc 0f78 b73b
00000240: be96 7bbc 5737 293d 6220 ae3c c95d 153d
00000250: 45c2 d53c d35f d5bb b366 bbbd 787f babd
00000260: cd39 a33d 82cc 1abd 5423 9d3d eec3 00be
00000270: 4ac2 bc3c 0bb5 0cbe 519c eb3c c540 bd3c
00000280: 2389 b73c 6261 c33b e174 09be 0343 fc3c
00000290: 74d5 e53c 37e8 a8bc 27d5 c2bd 5498 3b3d
000002a0: 7ce3 c5bc ca34 6abd d5ad ecbd 8d59 b2bd
000002b0: 515f 8c3d fd5b 22bc 5ef0 803d b384 c7bd
000002c0: b8c7 f33c 4f53 48bd 639d 9f3d a5f8 c0bd
000002d0: 8693 943c 7429 a73c 2c73 4cbc 8486 e83b
000002e0: 4a29 273b 0e4a 82bc d89f 9c3d d0c6 883d
000002f0: c9bf 8c3d dabc 093d 9a95 0d3c 8d5e af3c
00000300: 0bca dabd 08c7 a0bc d3e2 593d 4211 2dbc
00000310: 6e7e 5abd 3721 84bc 619a 1fbc 78ba 6d3d
00000320: 8d0c 8bbd 73fa c03c f836 1a3d a3c0 b4bb
00000330: 63d8 573d af9f 51bd a75d 303d 59e5 39bd
00000340: 9480 1dbd bcbf 993c cf62 70bc 1411 04bc
00000350: 801c 713c f85e e7bd 66f2 d73c 2205 c43d
00000360: 99ac f7bd 1715 43bd 39b4 30bd 7c8d 3b3d
00000370: 06b3 7b3d e988 7cbd a407 d9bc 5b46 b9bc
00000380: 70a5 3d3d 13c4 923c 6e3d 13ba 0c4e 983c
00000390: a0ba 8cbd 7ea3 07bc dfec eebd 7d6d 393d
000003a0: 6b70 0e3d 8d83 eabc db99 a63c 5831 f73a
000003b0: 85c1 2a3d 2e72 49bd a1e7 07bb 138d 96bb
000003c0: 6616 5bbd 217c 3e3d 6f5b d23c 3ff5 a2bd
000003d0: c083 683d c6f5 c73c c501 b9bc 4fee 0fbb
000003e0: aeb0 293c 0ced b0bb b0fc bcbc 65a4 9a3c
000003f0: 70bf b43d c9cc 883c a39f 683d 0143 28bd

network.3.bias f4 [256]
-0.06742586 -0.007505225 -0.03249928 -0.10688874 -0.05396581 -0.029467357 0.054727435 0.041838117
-0.009617105 0.09340005 0.027562248 0.0364103 0.05215654 0.016773451 -0.07607611 -0.067406096
0.018850062 -0.059924792 0.03609138 -0.05641991 0.014852755 0.06736552 -0.0057053934 0.074834555
0.010590497 0.0004438245 0.020114403 0.029055804 -0.016892368 0.012628703 -0.013046272 0.12232748
-0.046865012 0.011699019 0.002400493 0.06948117 -0.0027313996 -0.07650496 -0.018311372 0.046213124
-0.04674997 0.05408188 -0.0619339 -0.011087364 0.06675713 0.11471842 0.05483455 0.06323598
0.07166468 -0.002409119 0.116105214 0.08904343 0.015939899 0.07959624 -0.02553113 0.07281655
0.022287888 0.030172156 0.024211701 -0.004155209 -0.00042721228 -0.052146595 0.034976296 0.03542927
-0.021619061 0.050484087 0.04865907 -0.03981417 0.021401113 0.065485716 -0.021702014 -0.0009959613
0.02869693 -0.030012183 0.013389372 -0.0043847063 0.020114772 0.011114203 0.06162547 -0.04522694
-0.05705328 0.049528442 0.028056335 -0.03579087 -0.004498829 0.027822567 0.010282967 -0.008919678
-0.016828641 -0.09397956 -0.053911783 0.047866546 0.05105401 -0.051634412 -0.047455285 0.07120294
0.0056386725 0.020943075 0.012281036 0.00039684793 0.06353289 0.081052125 -0.074967094 0.0044847685
-0.011955589 0.036499597 0.06932575 -0.031384666 0.0038710455 -0.02664537 0.021364646 -0.007476145
0.07436489 -0.019078486 0.123144485 0.059175715 -0.049459126 -0.01788913 0.110733934 0.015925054
0.04612458 0.06563653 0.061955873 0.004555967 0.02735048 0.06534594 0.06589849 -0.061843466
0.011527146 -0.010391977 -0.04485143 0.008932776 0.03373318 0.03498219 -0.050369084 0.010927917
0.0656828 -0.028317194 0.055106975 0.022868164 0.033273544 0.016262768 0.011742659 0.010994981
0.026570568 -0.033844184 0.030077074 0.08216351 0.0127023505 0.14084747 0.012025203 -0.017304156
0.052321233 0.047437623 0.03429549 -0.02147265 -0.06661531 -0.024594184 -0.019752981 0.022912847
-0.006851457 0.054118358 -0.056332715 0.026722264 0.03455685 0.06614396 0.041087914 0.08856665
0.013169671 -0.057412587 0.083663344 0.006045878 0.05337072 0.005253252 0.020917594 -0.017367482
0.015443834 -0.033049975 0.0236645 0.06617457 -0.0015538824 -0.021022078 0.09340141 0.019808775
0.055422865 0.07204262 -0.09852918 -0.0023251355 -0.028740518 -0.038552053 0.033928327 -0.061910935
0.054128207 0.005262279 0.020252934 0.04725694 0.080281176 0.08231276 -0.0203882 0.034337968
-0.027291406 0.0010616909 -0.08458229 -0.11532538 0.088523656 0.022863962 -0.07471247 -0.058696695
-0.018511409 0.082511745 -0.010799334 0.086612344 -0.019564657 0.04491789 -0.009944168 0.04300471
-0.03884717 0.008945701 -0.021730779 0.031903688 -0.07995156 0.04542443 -0.021212915 0.006865816
-0.010086917 -0.024632791 0.024589214 0.0290726 0.07754772 0.057379942 0.016906803 -0.005866579
0.06455145 -0.069174945 0.03766001 0.0005599748 -0.017436352 0.037944347 -0.02577559 0.053550847
-0.0174636 0.09729173 0.11985141 -0.010407797 -0.010051973 0.03794978 0.056048412 0.07419606
-0.017651565 -0.10726616 0.07177608 0.09632745 0.05492691 0.025822105 0.0011656091 0.037271015
00000000: 9216 8abd 64ee f5bb f71d 05bd 7ce8 dabd
00000010: 410b 5dbd 8765 f1bc e029 603d 725e 2b3d
00000020: 1091 1dbc 8748 bf3d 39ca e13c f722 153d
00000030: 19a2 553d 7a68 893c cbcd 9bbd 350c 8abd
00000040: 726b 9a3c b373 75bd 8ed4 133d 9018 67bd
00000050: f858 733c eff6 893d 4ff4 babb dc42 993d
00000060: c483 2d3c 1eb1 e839 f6c6 a43c 7006 ee3c
00000070: dd61 8abc 9fe8 4e3c 08c0 55bc d486 fa3d
00000080: 87f5 3fbd 3ead 3f3c 9751 1d3b 254c 8e3d
00000090: 4801 33bb a2ae 9cbd bb01 96bc f949 3d3d
000000a0: e67c 3fbd f684 5d3d 67ae 7dbd c6a7 35bc
000000b0: f6b7 883d 7ef1 ea3d 319a 603d de81 813d
000000c0: efc4 923d 4fe2 1dbb 92c8 ed3d 675c b63d
000000d0: 6494 823c 5a03 a33d a926 d1bc d820 953d
000000e0: 1795 b63c 992b f73c 9e57 c63c 6b28 88bb
000000f0: 76fb dfb9 ab97 55bd 4e43 0f3d 481e 113d
00000100: 751a b1bc 67c8 4e3d bc4e 473d 2f14 23bd
00000110: 6351 af3c 601d 863d 6cc8 b1bc ea8a 82ba
00000120: d315 eb3c 1cdc f5bc 195f 5b3c 95ad 8fbb
00000130: bcc7 a43c 5918 363c fd6a 7c3d e23f 39bd
00000140: b3b0 69bd 56de 4a3d 66d6 e53c 7399 12bd
00000150: ea6a 93bb 27ec e33c e479 283c d723 12bc
00000160: 38dc 89bc 5b78 c0bd 9ad2 5cbd b60f 443d
00000170: 021e 513d 9b7e 53bd 7960 42bd d9d2 913d
00000180: 9dc4 b83b d090 ab3c 6636 493c 0710 d039
00000190: 881d 823d a8fe a53d 5988 99bd f7f4 923b
000001a0: 60e1 43bc 9a80 153d a9fa 8d3d 358d 00bd
000001b0: 5eb1 7d3b 6447 dabc e904 af3c 73fa f4bb
000001c0: 9f4c 983d 7c4a 9cbc 2d33 fc3d 3c62 723d
000001d0: a795 4abd 3a8c 92bc 79c8 e23d 4275 823c
000001e0: 21ed 3c3d 726c 863d 71c5 7d3d 394a 953b
000001f0: 1d0e e03c 18d4 853d caf5 863d 934f 7dbd
00000200: 5bdc 3c3c 1c43 2abc 22b6 37bd c75a 123c
00000210: ce2b 0a3d 7c49 0f3d d04f 4ebd 020b 333c
00000220: b484 863d 76f9 e7bc dab7 613d 0456 bb3c
00000230: d749 083d 7f39 853c 4864 403c 4b24 343c
00000240: 85aa d93c 33a0 0abd 3264 f63c 5845 a83d
00000250: 851d 503c 523a 103e 5b05 453c 72c1 8dbc
00000260: ca4e 563d f44d 423d 6d79 0c3d 69e7 afbc
00000270: 9c6d 88bd be79 c9bc 01d1 a1bc b9b3 bb3c
00000280: 3082 e0bb 36ab 5d3d 22bd 66bd a6e8 da3c
00000290: 7c8b 0d3d 7c76 873d cd4b 283d 6f62 b53d
000002a0: 9bc5 573c 7629 6bbd b057 ab3d 801c c63b
000002b0: 429b 5a3d 7923 ac3b 605b ab3c 4046 8ebc
000002c0: 2208 7d3c 695f 07bd 0edc c13c 8886 873d
000002d0: a4ab cbba 7e36 acbc 3d49 bf3d 0346 a23c
000002e0: 1603 633d 158b 933d abc9 c9bd 4d61 18bb
000002f0: 3c71 ebbc c2e8 1dbd 6ef8 0a3d 5296 7dbd
00000300: 8ab5 5d3d 326f ac3b 7be9 a53c 7e90 413d
00000310: 756a a43d 9893 a83d 2805 a7bc f8a5 0c3d
00000320: 3a92 dfbc 6f28 8b3a 7b39 adbd b62f ecbd
00000330: e44b b53d 344d bb3c da02 99bd f26b 70bd
00000340: 3da5 97bc ebfb a83d b1ef 30bc d061 b13d
00000350: 0f46 a0bc d2fb 373d ddec 22bc b525 303d
00000360: 361e 1fbd fd90 123c bf04 b2bc 71ad 023d
00000370: a5bd a3bd f80e 3a3d b5c6 adbc a4fa e03b
00000380: 9943 25bc b5ca c9bc 526f c93c a929 ee3c
00000390: 57d1 9e3d 3b07 6b3d 2380 8a3c 6e3c c0bb
000003a0: 8d33 843d 98ab 8dbd 6241 1a3d 46cb 123a
000003b0: aed6 8ebc 886b 1b3d 5527 d3bc 2258 5b3d
000003c0: d30f 8fbc e340 c73d a874 f53d 7785 2abc
000003d0: 08b1 24bc 3a71 1b3d 0593 653d 1bf4 973d
000003e0: 049a 90bc 5cae dbbd 56ff 923d 5347 c53d
000003f0: 0afb 603d e188 d33c 5ac7 983a 7ea9 183d

network.6.weight f4 [128, 256]
0.050790813 0.013812004 -0.010521657 -0.020254979 0.12087119 -0.08191981 -0.042959157 0.012930201
-0.04551353 0.22615905 0.046617147 -0.12128883 -0.0028834683 -0.042119782 0.101348124 0.041482102
0.046471283 -0.0328614 0.025245529 0.023678929 -0.018774431 0.09176429 0.004867921 0.02498295
-0.029048095 -0.07186645 0.14560719 0.023902087 0.03428369 0.07612659 -0.02707733 0.061389457
-0.02205945 -0.023184499 0.03900811 -0.043326154 0.050314926 -0.1611342 0.05199821 -0.07016378
-0.043086853 -0.11005801 -0.037422776 -0.031723276 -0.05292761 -0.041192394 0.042732712 0.03908567
-0.019315364 -0.04082402 0.06743462 0.14041092 0.05324761 -0.024199793 -0.015304628 0.03662196
0.0033317737 -0.084664024 0.012463004 -0.1574091 0.014220646 -0.01396109 -0.0026571979 -0.010865591
0.06314778 -0.13792431 -0.13973364 -0.035804816 -0.0827821 0.021877166 0.028225793 0.010261295
0.0015590629 -0.053017307 -0.09084017 0.032650962 -0.15356739 0.09070164 0.05861111 0.0035776976
-0.023356078 -0.05580166 0.055747855 0.21826352 0.030254109 -0.08365202 -0.107014276 0.041576672
0.08036048 0.13063532 0.08422285 -0.054265235 -0.035966977 0.033910867 -0.06518168 0.2182847
-0.13518749 -0.07719042 -0.06555057 -0.088621095 -0.08349382 -0.034358144 -0.06824343 0.0018728346
0.04173974 -0.023460561 -0.0058105197 0.082804754 0.06274917 -0.26543012 0.08046923 0.011811722
0.22322401 0.08797011 0.011331515 -0.015283051 -0.017666347 -0.0030535543 -0.008493488 0.14787409
0.069472186 -0.06884678 -0.07090926 0.047575835 0.10704829 -0.050507 0.11320235 0.1250045
0.016344266 0.011087125 -0.06248167 -0.072071314 0.06787505 0.088916264 -0.052422903 0.16434315
-0.020948686 -0.11031305 0.0030213858 0.017275823 0.004122847 0.062491897 -0.037017133 -0.036759477
0.10287144 0.027308926 -0.018055407 0.19830374 0.028812336 0.028072743 0.1485859 0.08121628
0.11026047 -0.011488688 -0.05088342 -0.051283926 -0.15390214 -0.039811138 -0.17257646 0.042377558
0.079715386 0.22880343 0.027795516 0.042766947 0.08223614 0.04150695 0.10663951 0.02824276
-0.0038247344 0.022733428 0.2207681 -0.04730122 0.039606962 0.0873738 0.009724566 0.005203764
0.0953956 -0.06224187 -0.055706147 -0.0028113886 -0.07026074 0.07733583 0.047232967 -0.056016903
0.0212559 -0.1233083 -0.22055857 0.09792297 0.04984078 -0.1188856 0.08109772 -0.00089253474
0.07788428 0.26458767 0.006874388 0.03291638 0.057323948 0.13000259 0.019299455 -0.069614224
0.057988666 -0.01880824 0.09982278 -0.08394774 0.09250909 0.059863877 -0.106450185 0.12700829
0.026476609 0.049170483 -0.13570288 0.014775402 -0.05805179 -0.046258915 -0.071520984 0.075848594
-0.08065785 0.083710566 0.027480727 0.09166091 -0.05620644 -0.082568645 -0.00040614684 0.14127539
0.13701305 0.013436096 0.08251488 0.10949195 0.022002677 0.059994157 -0.016659407 -0.084321484
-0.051960282 0.055070333 0.113696665 -0.020899799 -0.01056629 0.045705743 -0.122773334 -0.02575254
0.10715381 -0.029970467 -0.032563094 0.024992779 -0.03138845 -0.05473117 -0.1060325 0.02953468
0.14044663 -0.083206154 0.05732294 0.085073836 -0.12232479 0.107737064 -0.2206828 -0.014603719
00000000: 070a 503d be4b 623c 0763 2cbc c5ed a5bc
00000010: 518b f73d 93c5 a7bd f1f5 2fbd 32d9 533c
00000020: 656c 3abd 3d96 673e 9ff1 3e3d 4766 f8bd
00000030: 92f8 3cbb cb85 2cbd 9b8f cf3d 23e9 293d
00000040: ac58 3e3d ad99 06bd b6cf ce3c 50fa c13c
00000050: d6cc 99bc ebee bb3d 1583 9f3b 0ba9 cc3c
00000060: 45f6 edbc b82e 93bd 0d1a 153e 4fce c33c
00000070: 0e6d 0c3d 42e8 9b3d 47d1 ddbc 8373 7b3d
00000080: 05b6 b4bc 6bed bdbc f8c6 1f3d c476 31bd
00000090: 0617 4e3d 5d00 25be 13fc 543d 07b2 8fbd
000000a0: d77b 30bd 1866 e1bd a048 19bd 44f0 01bd
000000b0: 9fca 58bd 5bb9 28bd 7f08 2f3d 4c18 203d
000000c0: 413b 9ebc 1637 27bd 291b 8a3d e1c7 0f3e
000000d0: 2a1a 5a3d a53e c6bc 43c0 7abc e900 163d
000000e0: e359 5a3b 5564 adbd a131 4c3c da2f 21be
000000f0: b6fd 683c 0ebd 64bc 6224 2ebb 9705 32bc
00000100: a053 813d 083c 0dbe 5616 0fbe 12a8 12bd
00000110: a989 a9bd be37 b33c c739 e73c fe1e 283c
00000120: 7859 cc3a ad28 59bd 690a babd 04bd 053d
00000130: c540 1dbe c8c1 b93d 3412 703d ce77 6a3b
00000140: 3f55 bfbc 4890 64bd dd57 643d 7980 5f3e
00000150: 77d7 f73c c051 abbd 4d2a dbbd 4d4c 2a3d
00000160: 0994 a43d 44c5 053e 087d ac3d 3945 5ebd
00000170: 1c52 13bd 1fe6 0a3d f97d 85bd 0686 5f3e
00000180: 976e 0abe 0316 9ebd 613f 86bd fa7e b5bd
00000190: cffe aabd 20bb 0cbd 36c3 8bbd e779 f53a
000001a0: 4af7 2a3d 5d30 c0bc 2c66 bebb 8a95 a93d
000001b0: a382 803d 75e6 87be 0dcd a43d f485 413c
000001c0: d694 643e ac29 b43d d2a7 393c c365 7abc
000001d0: 04b9 90bc 241e 48bb 4528 0bbc 4e6c 173e
000001e0: 6f47 8e3d 8aff 8cbd e038 91bd e1de 423d
000001f0: 223c db3d 6ee0 4ebd a2d6 e73d 2e01 003e
00000200: 69e4 853c c6a6 353c c8ec 7fbd 209a 93bd
00000210: 1302 8b3d bb19 b63d 66b9 56bd 9249 283e
00000220: 949c abbc cfeb e1bd 7102 463b 0786 8d3c
00000230: f318 873b 81f7 7f3d 479f 17bd 1b91 16bd
00000240: 43ae d23d f8b6 df3c efe8 93bc 2310 4b3e
00000250: d907 ec3c cff8 e53c e726 183e b954 a63d
00000260: 3ed0 e13d 0d3b 3cbc 226b 50bd 180f 52bd
00000270: 8698 1dbe 0111 23bd e2b7 30be 1794 2d3d
00000280: d241 a33d 724b 6a3e 6cb3 e33c 652c 2f3d
00000290: 6c6b a83d 3103 2a3d d165 da3d 5c5d e73c
000002a0: 65a8 7abb 743b ba3c 0811 623e edbe 41bd
000002b0: e93a 223d 09f1 b23d c953 1f3c 5684 aa3b
000002c0: c55e c33d 55f1 7ebd 212c 64bd 463f 38bb
000002d0: dde4 8fbd 3f62 9e3d 5b77 413d fb71 65bd
000002e0: da20 ae3c 1089 fcbd 1bda 61be d78b c83d
000002f0: d925 4c3d 4b7a f3bd 9016 a63d fef8 69ba
00000300: cb81 9f3d 0978 873e 8c42 e13b 53d3 063d
00000310: 84cc 6a3d 661f 053e e419 9e3c e791 8ebd
00000320: 8685 6d3d bd13 9abc e36f cc3d cbec abbd
00000330: 6875 bd3d d333 753d 8e02 dabd 760e 023e
00000340: 79e5 d83c fd66 493d b2f5 0abe 8714 723c
00000350: b7c7 6dbd fd79 3dbd 9879 92bd 8256 9b3d
00000360: f12f a5bd 7270 ab3d 431f e13c b7b8 bb3d
00000370: b938 66bd c019 a9bd 1bf0 d4b9 7faa 103e
00000380: 264d 0c3e 1223 5c3c 90fd a83d 513d e03d
00000390: f53e b43c 6fbc 753d 4f79 88bc beb0 acbd
000003a0: 4ed4 54bd 6e91 613d ccd9 e83d 0e36 abbc
000003b0: 3b1e 2dbc f235 3b3d 9670 fbbd fef6 d2bc
000003c0: 7573 db3d a084 f5bc e160 05bd a8bd cc3c
000003d0: 2d91 00bd cb2d 60bd 9127 d9bd b7f2 f13c
000003e0: 3ed1 0f3e fd67 aabd 76cb 6a3d 313b ae3d
000003f0: 6b85 fabd 40a5 dc3d acfa 61be 7044 6fbc

network.6.bias f4 [128]
0.014129452 -0.046138797 0.117897205 0.076085486 -0.10447899 0.14201844 0.029693551 0.08330116
0.021496728 0.033508006 -0.010302549 0.0839173 0.025128014 0.12549986 -0.017946238 -0.04782153
0.15759958 0.13344094 0.16814475 0.015498919 -0.10666672 0.04147954 0.09456045 0.09296419
0.046619643 0.07927485 0.15122116 -0.018476648 0.064822316 0.06425423 0.07040867 0.090726174
0.0024245062 0.17448898 0.0549893 0.07668803 0.08011518 -0.00020018077 0.105159484 0.057532698
0.04265157 0.07949355 0.1352765 0.040339448 0.06394183 -0.023559734 -0.012539604 0.010382027
0.019120535 -0.015736228 0.10005878 -0.043216158 -0.019781576 0.03334496 0.0922963 0.03489934
-0.007844812 0.006845716 0.048019115 0.025649259 0.08518849 0.13232522 -0.013282687 0.0003533619
0.09591995 -0.01954785 0.08120562 0.07573803 0.02819358 -0.03558429 0.014636813 -0.012575526
-0.016658248 0.0041790963 0.077725515 -0.056660157 -0.06874491 0.06416308 0.04570712 0.09992386
0.022989323 0.024368761 0.012147678 0.0067114686 0.09231375 0.070028834 0.027581936 -0.018483303
0.03204488 0.09818284 0.10768959 0.13931428 0.05847261 0.18854263 -0.055916056 0.016213018
0.071084216 0.12293869 0.017254746 0.13904525 0.046961274 -0.05719931 0.030287469 0.021046722
0.06908924 0.029197698 0.070352025 -0.054252654 -0.0033615394 0.052939095 0.06578257 0.02884566
0.057102498 -0.061910294 0.081051655 0.02102434 -0.099041134 0.039382298 -0.10343519 -0.115602605
0.0291986 0.069806054 0.039434236 -0.012575149 0.16927248 -0.046376493 0.0249999 0.078486346
00000000: 387f 673c 09fc 3cbd 1774 f13d b5d2 9b3d
00000010: 15f9 d5bd 486d 113e e43f f33c cc99 aa3d
00000020: e819 b03c b13f 093d 06cc 28bc d5dc ab3d
00000030: 44d9 cd3c 0983 003e fd03 93bc 82e0 43bd
00000040: c961 213e bea4 083e 232e 2c3e 2eef 7d3c
00000050: 1574 dabd 73e6 293d e9a8 c13d 0264 be3d
00000060: 3df4 3e3d da5a a23d b8d9 1a3e 575c 97bc
00000070: 90c1 843d b997 833d 6c32 903d a5ce b93d
00000080: 77e4 1e3b 3dad 323e 763c 613d 9d0e 9d3d
00000090: 6d13 a43d 9ee7 51b9 db5d d73d 68a7 6b3d
000000a0: 6ab3 2e3d 84cd a23d ec85 0a3e fa3a 253d
000000b0: eff3 823d 5800 c1bc e972 4dbc 6119 2a3c
000000c0: aba2 9c3c 43e9 80bc 9eeb cc3d 6d03 31bd
000000d0: f90c a2bc ba94 083d d805 bd3d 9cf2 0e3d
000000e0: 8787 00bc 0752 e03b b1af 443d 651e d23c
000000f0: 4e77 ae3d 4380 073e a19f 59bc 6e43 b939
00000100: ae71 c43d d022 a0bc 224f a63d 8a1c 9b3d
00000110: 39f6 e63c d5c0 11bd 3ecf 6f3c 9409 4ebc
00000120: e176 88bc cdf0 883b 8e2e 9f3d 7b14 68bd
00000130: 22ca 8cbd ef67 833d 6437 3b3d e1a4 cc3d
00000140: 1b54 bc3c ffa0 c73c 0e07 473c e1eb db3b
00000150: fe0e bd3d 476b 8f3d 83f3 e13c 4c6a 97bc
00000160: 7e41 033d 1614 c93d 5c8c dc3d 67a8 0e3e
00000170: fa80 6f3d 5211 413e 3c08 65bd 2ad1 843c
00000180: 9a94 913d 48c7 fb3d d359 8d3c e161 0e3e
00000190: 775a 403d d349 6abd 6d1d f83c 2d6a ac3c
000001a0: a97e 8d3d 0330 ef3c b914 903d 0838 5ebd
000001b0: 464d 5cbb aad6 583d 03b9 863d bc4d ec3c
000001c0: 4fe4 693d a695 7dbd 69fe a53d 3d3b ac3c
000001d0: 14d6 cabd 554f 213d d4d5 d3bd 0fc1 ecbd
000001e0: e731 ef3c 7af6 8e3d cb85 213d ff07 4ebc
000001f0: c455 2d3e 47f5 3dbd 97cc cc3c 73bd a03d

network.9.weight f4 [21, 128]
0.11724807 0.1286911 -0.0031746319 0.071092576 0.026934125 -0.13713032 0.13692318 -0.017001258
-0.34740767 -0.0059804246 0.115769655 -0.42221862 -0.31503966 0.048835233 0.036228593 0.16802765
-0.047194075 0.12502252 -0.21491049 -0.22253273 0.06596706 0.11877007 0.029617082 -0.28242117
0.08641413 -0.23654926 0.16864625 -0.27380684 -0.29318222 -0.2498915 -0.31553763 -0.097798266
-0.13425884 0.1012355 0.085066944 0.056449883 -0.15838298 -0.29252252 -0.030641843 -0.36395714
-0.2792121 0.1163712 0.11147447 -0.2347868 0.1652689 0.009564823 -0.40386993 -0.0047774655
0.05400683 -0.16651538 -0.015953014 0.059603244 -0.266879 -0.11808335 0.13433571 -0.11608995
-0.18605515 0.19597556 -0.1587859 0.079911135 0.11316756 -0.13917199 0.15182748 0.057877716
0.06843157 0.11285374 -0.3165347 0.077997506 -0.22621623 0.03399399 -0.18473625 0.1295871
0.1725404 -0.31286666 -0.16691408 -0.13755573 0.0898732 -0.03139983 -0.2911747 -0.07283853
-0.18397076 -0.01628987 0.10522158 0.13083005 -0.1913321 -0.005373926 0.10379962 -0.022510964
0.010468895 -0.091686636 0.109884344 0.011849915 0.11554907 -0.35185245 0.16152081 0.068672225
0.086520344 0.0982385 -0.37580392 0.10515848 0.12082525 0.0027939144 0.012392965 -0.16592011
-0.16355492 0.047708984 0.060937483 -0.49435687 -0.3426347 0.07450952 0.018441787 0.14034241
0.054064114 0.019998949 0.114172645 0.09154197 0.10102392 -0.03669206 -0.31587607 -0.090877146
-0.010971873 0.11241966 -0.3055146 0.089916095 0.062655255 0.08820028 0.024723075 0.053999785
0.085580796 -0.39877132 0.029538056 0.04020786 -0.2916982 0.07513877 -0.34488598 -0.10784753
-0.2093679 0.081581436 0.04043777 0.10312117 0.1305462 0.038346123 -0.12834609 -0.31767103
0.1507834 -0.22271533 0.18292294 -0.029366912 -0.46949965 0.007345561 0.16353184 0.004387023
-0.26509428 0.0048858905 0.061048105 -0.18282132 0.061741836 0.029827192 -0.048729002 0.12502882
0.09821541 0.14644426 0.17159976 0.10482 0.1034379 -0.2779888 -0.32836726 -0.1577056
0.08919076 0.08429276 0.09929711 -0.3596108 0.021636624 -0.111961104 -0.37474975 0.037343692
0.06555271 0.14389153 0.09682813 -0.12695646 -0.038308956 0.06842778 -0.27143466 -0.21863997
0.100094326 0.07322008 0.08836636 0.11288903 -0.28037146 0.1281945 -0.09991889 -0.007826284
0.03551093 -0.20998614 -0.17557214 0.08088893 0.16174391 -0.15124534 0.09822883 -0.13467844
-0.07248545 -0.3269842 0.21561277 0.044127796 -0.23572439 0.15715812 -0.08623036 -0.13521676
-0.09215597 0.076757014 -0.17256989 -0.2213594 -0.24907666 0.0018821905 -0.051305164 0.11750126
0.15065265 0.18225463 0.0033060454 0.11885364 0.1363178 0.14388411 0.076423466 -0.24127771
0.087613784 0.10209395 0.0385083 0.09316745 -0.10476945 0.008023604 -0.26474983 0.11620226
0.11291128 0.083011836 -0.34198248 -0.18270606 -0.18873428 0.0028812042 0.025585067 -0.1966026
-0.0054031042 -0.26481345 -0.14588179 0.028906325 -0.4393335 0.104557775 -0.105891295 -0.43495607
-0.23840356 -0.11321756 0.113432795 -0.19986273 0.1381096 0.10138526 -0.13422859 0.040412683
00000000: c21f f03d 9ac7 033e 7c0d 50bb fc98 913d
00000010: f4a4 dc3c e46b 0cbe 9735 0c3e 3946 8bbc
00000020: 6bdf b1be 70f7 c3bb a418 ed3d 0a2d d8be
00000030: e14c a1be 7407 483d 6f64 143d 710f 2c3e
00000040: 934e 41bd e705 003e 7f11 5cbe 9fdf 63be
00000050: bd19 873d b93d f33d 869f f23c 8299 90be
00000060: e4f9 b03d f839 72be 9ab1 2c3e 6930 8cbe
00000070: fb1b 96be 8fe3 7fbe 268e a1be 754a c8bd
00000080: 267b 09be 8f54 cf3d 9437 ae3d fe37 673d
00000090: 262f 22be 83c5 95be 9a04 fbbc 9758 babe
000000a0: e3f4 8ebe 0654 ee3d ba4c e43d f36b 70be
000000b0: 403c 293e c6b5 1c3c 0ac8 cebe 498c 9cbb
000000c0: 4436 5d3d 0283 2abe e5af 82bc 8822 743d
000000d0: 5da4 88be afd5 f1bd 4d8f 093e 91c0 edbd
000000e0: 3e85 3ebe d1ad 483e c598 22be 73a8 a33d
000000f0: 65c4 e73d 1a83 0ebe aa78 1b3e 2f11 6d3d
00000100: da25 8c3d dd1f e73d d610 a2be 28bd 9f3d
00000110: 3aa5 67be 483d 0b3d 802b 3dbe 7bb2 043e
00000120: 6eae 303e 0f30 a0be 86eb 2abe 69db 0cbe
00000130: 710f b83d 1c9d 00bd da14 95be 5e2c 95bd
00000140: d562 3cbe 5572 85bc 697e d73d 50f8 053e
00000150: 90ec 43be c217 b0bb e594 d43d ea68 b8bc
00000160: ba85 2b3c 34c6 bbbd 0b0b e13d 2526 423c
00000170: fea4 ec3d 0126 b4be b665 253e 06a4 8c3d
00000180: 9431 b13d 4431 c93d 5f69 c0be 545d d73d
00000190: 3b73 f73d 1b1a 373b dd0b 4b3c f6e6 29be
000001a0: f17a 27be 7f6a 433d 9599 793d 581c fdbe
000001b0: d16d afbe 7298 983d 3b13 973c ecb5 0f3e
000001c0: 5572 5d3d d6d4 a33c 59d3 e93d 5b7a bb3d
000001d0: a1e5 ce3d 6a4a 16bd 82ba a1be cc1d babd
000001e0: 5fc3 33bc 473c e63d 696c 9cbe ee25 b83d
000001f0: 6651 803d 59a2 b43d 0c88 ca3c e12e 5d3d
00000200: fc44 af3d c12b ccbe cbf9 f13c ffb0 243d
00000210: 7759 95be 5be2 993d e594 b0be 2adf dcbd
00000220: 8a64 56be 2b14 a73d 13a2 253d 3131 d33d
00000230: e7ad 053e d310 1d3d 286d 03be c7a5 a2be
00000240: f766 1a3e 7d0f 64be 2750 3b3e e192 f0bc
00000250: 4262 f0be 08b3 f03b e474 273e 04c1 8f3b
00000260: 70ba 87be d219 a03b 940d 7a3d 8335 3bbe
00000270: 02e5 7c3d 2858 f43c 1098 47bd 8e07 003e
00000280: 2925 c93d 7cf5 153e d9b7 2f3e deab d63d
00000290: 40d7 d33d 8c54 8ebe c11f a8be 947d 21be
000002a0: a5a9 b63d afa1 ac3d 495c cb3d e81e b8be
000002b0: 4a3f b13c dd4b e5bd 33df bfbe b3f5 183d
000002c0: 8040 863d 4d58 133e d44d c63d e000 02be
000002d0: dae9 1cbd dd23 8c3d 7cf9 8abe 28e3 5fbe
000002e0: 41fe cc3d 69f4 953d 6cf9 b43d 5d32 e73d
000002f0: d98c 8fbe 6b45 033e 46a2 ccbd d039 00bc
00000300: e973 113d 9b06 57be 2fc9 33be 18a9 a53d
00000310: 32a0 253e 0fe0 1abe 322c c93d 25e9 09be
00000320: 4073 94bd 796a a7be 98c9 5c3e 59bf 343d
00000330: bc61 71be 0fee 203e 8b99 b0bd 4376 0abe
00000340: 45bc bcbd c832 9d3d 29b6 30be 0aac 62be
00000350: f40d 7fbe d5b3 f63a 5d25 52bd 80a4 f03d
00000360: b044 1a3e f5a0 3a3e 3daa 583b 8a69 f33d
00000370: e596 0b3e 5b56 133e e883 9c3d 8111 77be
00000380: db6e b33d a216 d13d e1ba 1d3d 93ce be3d
00000390: 5e91 d6bd 6f75 033c 4a8d 87be 73fb ed3d
000003a0: 073e e73d 1c02 aa3d 5418 afbe 4c17 3bbe
000003b0: 8f43 41be 96d2 3c3b c697 d13c 3152 49be
000003c0: 860c b1bb a195 87be 0962 15be f5cc ec3c
000003d0: 52f0 e0be 6322 d63d 89dd d8bd 90b2 debe
000003e0: 1020 74be 9cde e7bd 744f e83d d1a8 4cbe
000003f0: 9a6c 0d3e 13a3 cf3d 3873 09be c587 253d

network.9.bias f4 [21]
0.11880966 0.12306759 -0.043218438 -0.038749818 0.075911045 0.07173009 0.015048235 -0.074224174
-0.18677405 0.1605447 -0.024477322 0.06294591 0.0034652073 0.14301403 0.026496839 -0.010264767
-0.10383338 0.07987685 -0.19774793 0.048743367 0.0017517947
00000000: 7b52 f33d dc0a fc3d d105 31bd 21b8 1ebd
00000010: 4077 9b3d 3ae7 923d df8c 763c d802 98bd
00000020: b241 3fbe d465 243e aa84 c8bc c9e9 803d
00000030: 8818 633b 4572 123e e60f d93c 8e2d 28bc
00000040: 98a6 d4bd 7996 a33d 6f7e 4abe 20a7 473d
00000050: 7a9c e53a
