models/NeuralNetwork-2_acc-60.10_loss-0.000004.pth (torch, 780096 bytes, 20 tensors)

network.0.weight f4 [512, 43]
00000000: 6175 8a3e 9b26 d0be b0b7 5cbe 478e 453e
00000010: a398 eebd 4977 e1be 0766 443f 297c 313f
00000020: a4aa 31bf 0831 253f 240c 403f 6e08 11bf
00000030: 4aec a0bf abee 843f 5774 c53f 4d99 87bd
00000040: d2c0 6a3f f473 f83f f45a b4bf 9250 88c0
00000050: c7f6 a4bf fce3 8b3f d02e 65c0 1979 793d
00000060: aae8 e9bf 5e56 dabe cc30 5340 31df c0bf
00000070: add5 3e3e 572b fcbc a69c b5be ae32 a6be
00000080: abd7 39be dda6 4340 b34a 25be 0b4b bdbe
00000090: f2a1 1940 d1db 1e3e b95a 7dbf d9a1 1c40
000000a0: cbfc fcbe 6624 9c3f c51b d0bb 5450 11bf
000000b0: 8aa5 10bf ebf3 033e c0ea 19bf 1ba4 41bf
000000c0: 0b2d aebd d8ba fe3c 29d9 f33c f628 b5be
000000d0: 573f 8f3f be29 b83e b979 98be d50f 8040
000000e0: 4c19 a8bf f0cc f9be 161b 12c0 d91d 8040
000000f0: 5ad8 193c 4284 ae3f 6dd5 73bf 2222 bd3f
00000100: 2b78 eabf 1117 293f 6853 30bd d861 213f
00000110: 6abb 04bf 9aba 07bf 6274 e8be ee4c edbc
00000120: 7a15 0cbe 9297 b7bf da52 b03f 6789 bcbf
00000130: 805d be3e 2bda f5bf 0823 0040 bc28 c8be
00000140: 398b 763c 22f7 a9bd d3bf b0bf 0376 ec3e
00000150: 6df2 10c0 36fc 3ac0 aa09 513d 6b20 75be
00000160: 9b16 0940 59da e33d 46a5 88c0 45a7 e0bf
00000170: 2147 ccbf 736f 523f c913 54bc ddc7 1b3d
00000180: a13d 56bf 0dc1 903f e111 b13f 7a20 1fbf
00000190: 7b47 a9bf 259a 1ac0 0e9b fdbf d959 713f
000001a0: 7967 32bf eab1 593f 3d60 abbe 7479 f5bd
000001b0: 4b0a d9bd 882b a7bf 500c ddbf d8ef 1c3f
000001c0: a942 bf3f bad3 1fbf ccc9 f5be e832 273f
000001d0: f366 80be 2406 f53d 8fe8 8c3e 2ff1 f73e
000001e0: 94be 20bf 469f c1be c5be 7e3f 51a1 09bf
000001f0: 9d5b 53bf 9324 80be f455 4abf a7f4 95bd
00000200: db0c ea3e f168 88bf 4024 113e 6670 27be
00000210: 9b75 38bf 9f4c 053f f6fd 4a40 9273 33c0
00000220: 15a3 4ebf b362 a23f 0eb8 bd3f 7957 1ec0
00000230: efe1 e0be cb7f c03f 3582 dd3f addc 473f
00000240: 33ed a4be b050 473f 34ca d3bf 1691 8e3f
00000250: 3843 b1b9 559c 14bf 4d4a c83f b39e 97be
00000260: 8b82 863f 5122 a83e cabe 9b3f 553e 6b3d
00000270: d368 babf 7bb7 02bf 9eae 363f c3ac bf3e
00000280: 5d79 543f 21ad 983f 386b c13e 5b3c 93be
00000290: 6f26 b6bf 83fe d83f e2b0 c9bf b288 8fbd
000002a0: 8f25 82bf c38b 903f 40e1 8d3c 1df8 1140
000002b0: 76a3 8ebe 3554 053e 1e33 e83f bc3e 9b3e
000002c0: 1f35 55bf 0fcc 44bf 8ced 88be e71c 873e
000002d0: 7943 c6bf 9fd2 24be 4c36 943e 3c15 4abf
000002e0: c594 a7bd 62a8 6abf fbf0 2bbe 9d00 2cc0
000002f0: 6da8 89be 2afd 0d40 352b bbbf 466e 883e
00000300: 924d 003f 4616 863f eae2 243e f2ef 223f
00000310: 3c2b d3c0 360e a9bf 9d04 14bf cf37 c7bf
00000320: 24c7 acbf be1e 793e 0bb5 6cbf e782 153f
00000330: 7758 db3e 147b a93e 8a36 0f3f 37df 0e3e
00000340: f149 7dbc 1ea2 66bf 5fe0 303f 02bf 73be
00000350: 2587 ac3e c74d 0abe 9730 30c0 c8f5 b9bf
00000360: 5f2c c43d 52af 873e 460f ddbe 8258 19be
00000370: 0462 84c0 599f f53f 9c51 afbf 386b 0b3f
00000380: f3e2 56bf ce6b cd3f a94f c33f a916 46be
00000390: 74f9 c7bf e707 1140 7263 263f ebf9 a1bf
000003a0: fd97 373f 224f 683f 4c1d a4bf 038a 8a3f
000003b0: b91a bb3f 91c7 383f 8407 183f e833 983e
000003c0: 2e16 b33e 202e 9f3f 4b29 bebe 70cb ebbd
000003d0: 95a5 ae3f 4bf3 b33f 9309 243f 680a 8dbf
000003e0: d7c9 a33e 6f56 ec3f dd0f 4b3e fba2 ad3f
000003f0: c012 a7bf 01fe ac3f ebba 89bf 95cf 9bbf
0.27042678 -0.40654454 -0.21554446 0.19292556 -0.11650207 -0.4403632 0.7671818 0.6933008
-0.69401 0.6452794 0.75018525 -0.5665349 -1.257211 1.0385336 1.5426129 -0.06621037
0.9170047 1.9410386 -1.4090257 -4.2598352 -1.288781 1.092895 -3.5809822 0.060906503
-1.8274128 -0.42644018 3.2998533 -1.5068113 0.18636198 -0.030782385 -0.35471076 -0.3246054
-0.18148677 3.0570595 -0.16141777 -0.36971316 2.4005094 0.15513541 -0.98966557 2.4473784
-0.49411616 1.2198608 -0.0063509666 -0.56763196 -0.5650259 0.12886016 -0.60123825 -0.7564103
-0.08504685 0.031094953 0.029766636 -0.35382813 1.1191205 0.35969347 -0.29780367 4.0019326
-1.313272 -0.48789167 -2.2829032 4.0036435 0.009389961 1.3634112 -0.95247537 1.4776042
-1.8317922 0.6605082 -0.043048292 0.6303992 -0.5184847 -0.53019106 -0.45401293 -0.028967347
-0.13680068 -1.434313 1.3775284 -1.4729432 0.3718071 -1.9207205 2.0021381 -0.39093578
0.015047842 -0.0829909 -1.380854 0.46183786 -2.2647965 -2.9216437 0.051034607 -0.23938148
2.1420047 0.11125631 -4.270175 -1.7551047 -1.5959207 0.8220131 -0.01294417 0.0380324
-0.8368779 1.1308914 1.3833581 -0.6215893 -1.3224939 -2.4156582 -1.9812944 0.9427772
-0.69689137 0.850371 -0.3347186 -0.11986056 -0.10597666 -1.306016 -1.7269382 0.6130347
1.4942218 -0.62432444 -0.4800552 0.6531205 -0.25078544 0.11964062 0.27521178 0.48426196
-0.627908 -0.37816828 0.9950984 -0.53761774 -0.82561666 -0.25027904 -0.79037404 -0.07322054
0.45712933 -1.0657026 0.14173985 -0.1635147 -0.7205445 0.5207004 3.1717505 -2.8039289
-0.80717593 1.2686371 1.4821794 -2.474089 -0.43922374 1.5038999 1.7305361 0.780711
-0.3221222 0.77857494 -1.6546082 1.1138027 -0.00033810153 -0.58051044 1.5647675 -0.29613265
1.0508589 0.3283868 1.2167599 0.05743249 -1.456324 -0.5106122 0.71360195 0.37436494
0.82997686 1.1927835 0.37777114 -0.28756985 -1.4230479 1.6952671 -1.5757105 -0.070084944
-1.0167712 1.1292652 0.017319322 2.2807686 -0.27859086 0.13020404 1.81406 0.303213
-0.8328418 -0.7687387 -0.26743734 0.26389238 -1.5489341 -0.1609597 0.28947675 -0.7893865
-0.081826724 -0.9166318 -0.16791146 -2.6875374 -0.2688631 2.218577 -1.4622561 0.26646632
0.5011836 1.0475547 0.16102186 0.6364738 -6.5990276 -1.3207462 -0.5781954 -1.5563906
-1.3498273 0.24328133 -0.9246375 0.58402866 0.4284093 0.33101714 0.55942595 0.13952337
-0.015459524 -0.9009112 0.69092363 -0.23803332 0.33696857 -0.13506232 -2.7529657 -1.4528131
0.095787756 0.26500946 -0.43175715 -0.1497517 -4.136965 1.9189254 -1.369678 0.5446048
-0.8394005 1.6048524 1.5258685 -0.19344582 -1.5623002 2.2661073 0.6499549 -1.2654394
0.7171629 0.9074575 -1.2821441 1.0823368 1.461753 0.72179514 0.5938647 0.297271
0.3497786 1.2435951 -0.3714088 -0.11513412 1.3644282 1.4058622 0.6407711 -1.1018801
0.3198993 1.8463877 0.1983027 1.3565363 -1.3052597 1.3515016 -1.0760168 -1.2172724

network.0.bias f4 [512]
00000000: 7de2 e43d 65b4 723d adbe 06be 0e2e d53d
00000010: af8e 17be fc8b f03d bd1d e5bc f894 efbd
00000020: 35ff a1bd 54b5 65bd e183 183c a3f0 e7bd
00000030: 60cd ed3d 8a68 83bd 8c93 1abd 7c42 0dbe
00000040: 5c2e fd3d 71a2 aa3d d237 1b3e 15d5 b7bd
00000050: 517f c1bb 69ac 8ab9 607f 7cbc 3914 0bbd
00000060: e63e aebd 80ca 173e cf9f f0bc 486a f43d
00000070: d69e 9ebd 7814 14be 992e babd f2bc e8bd
00000080: d848 9f3d c117 cabd 3941 d43d 9bc2 c93c
00000090: 2b41 c7bd af84 bbbd 1450 18be 2ede a4bd
000000a0: 09af 033e 9de4 b2bd 524e 50bb 4ee7 08be
000000b0: 969f cabd 82ab 03be ff79 a0bd b638 11be
000000c0: 880b 06bd b41d 19be e999 9a3c 9315 ffbd
000000d0: 9a98 fc3d fc20 17be 9661 c43d 2374 eb3c
000000e0: d5dc 963d 3fb2 b5bd 927e 37bd d9f5 04be
000000f0: 1d1d debd 1f3f 01bd 3126 11be 6caa 0dbe
00000100: 4851 193d 95b4 8cbd b3b9 f4bd 04d6 c7bd
00000110: a03c 103e 827e dd3d 05bf 0a3e cc05 0fbe
00000120: 8ef3 4abd 9972 b13d 232a f33c fc18 0dbe
00000130: 1783 163e cdfc 073d d37d e43c 65e6 843c
00000140: 9f2e 113e d234 cbba ee23 4a3d 679a 71bd
00000150: 9cb7 713c a644 083e 6c16 393d 077b 0abe
00000160: ed95 aebd 6b7b 4a3d 496a ba3c a05f f9bd
00000170: 075c 0d3e 1b5d 0ebe 6dbc 8c3c 95e4 ec3d
00000180: 9dd1 e6bd 56af fbbc 7050 e6bd 552d 2dbd
00000190: e6be 0b3e be39 f8bd 2315 da3c 15ae 143e
000001a0: 167d 0a3d bf86 1e3d 6b86 af3c 6cab 7e3b
000001b0: 25dd e8bc 2cb9 ccbd 249f a13c 1ddf 5bbd
000001c0: e8dd 3c3c 837e 113e 7659 14bd 1575 f0bd
000001d0: 2a94 913d 1e9c ebbc 521e 57bc 29a0 b3bd
000001e0: 8dee fcbd a07f bb3d c7d7 cb3c ef7f 1e3d
000001f0: 78a6 64bd c752 3b3d 9aca f23b d34a 133d
00000200: aa1e e23c 255c 863d 069b d2bd 4659 e6bd
00000210: 940d 10be ddfa cc3d 3aa2 d5bd fbe6 613d
00000220: 8f7b d23d 6a58 5d3d b5fd b8bb 48a7 ddbd
00000230: 8731 0f3d 8547 0b3e 8a98 a9bd 1028 e7bd
00000240: f9ac 153e 364f 16be 9eb4 fe3d 4eb0 063e
00000250: 1f36 08be 1bed f5bb b65a 073d da2f 12be
00000260: 46b4 01bd 093f e53c 4418 b93c 589a ee3d
00000270: dd82 ac3d ac38 023e aaaf f2bd 7b82 8cbd
00000280: cef3 9ebd 67e8 8b3d f233 493d 8eb0 7dbd
00000290: 1abb f73d 747d 58bd 9090 f9bc 2bbd c93d
000002a0: f627 113e 7b67 bebd 6515 0cbe 6ad3 e43d
000002b0: 27f7 c03d 1c26 1dbd dade 113e cc24 09be
000002c0: 8b43 ccbd 592a c9bd 6467 a43c 8958 e6bd
000002d0: 9569 d03d 4351 32bd f7bc 69bd 9e10 6dbd
000002e0: 5912 c13d 0b92 37bc 6b8a f8bd f822 9abd
000002f0: d969 f93c 6c8f 05be fea5 613d c41e cfbd
00000300: 4bdd 66bd 7ae9 b5bd 31d3 b7bc 9152 063d
00000310: 910e d03b 65af 093e 1499 b93d 14af 143e
00000320: b3e4 fe3d b86c 18be f2a8 123e 6984 b9bc
00000330: c9c9 2f3d 0d65 223c 76e4 49bd 923e ba3c
00000340: 498f e83d 8488 cabd ee37 983d bb7c 1ebc
00000350: 92e0 0dbe 7b8c 67bc f5db b33d fade 013e
00000360: e6f5 933d e500 0c3e 4790 a0bb ac3d 8dbd
00000370: b7c5 06bd 15b1 f23d cad4 febd 69f9 c4bd
00000380: c947 07be 9e2c e53d a3e8 c43d 1b98 efbd
00000390: de92 6dbd a0f9 5a3d 7961 3b3c 4e5f 143e
000003a0: ed0f 113e 8677 583d eccc dc3d db9a ffbd
000003b0: 700a 153d 88e2 f23d 1fb5 1b3e 5c64 a3bd
000003c0: a6e6 f53c 73bc a83c 34b5 883c 028e 103e
000003d0: fe19 1b3e 0aee 56bd 1700 e5bd 721a a1bd
000003e0: 6919 353d cc67 753d dd51 a33c 0080 84bd
000003f0: 9fcb 0f3e caa6 053b 2f62 dc3d 29ee cc3d
0.11176012 0.05925407 -0.13158675 0.10409175 -0.14800523 0.1174545 -0.027968282 -0.116983354
-0.07910005 -0.05608113 0.009308786 -0.11325195 0.11611438 -0.064164236 -0.037738368 -0.13794893
0.12362358 0.083317645 0.15158013 -0.08976189 -0.00590507 -0.00026449867 -0.015411228 -0.033954833
-0.08508091 0.14823341 -0.029373078 0.11934334 -0.07745139 -0.14460933 -0.09090919 -0.113641635
0.07777566 -0.09867812 0.10364003 0.024628928 -0.09729227 -0.09156167 -0.14874297 -0.0805019
0.1285974 -0.08735011 -0.0031784964 -0.13369486 -0.0989372 -0.12858394 -0.07835769 -0.1418179
-0.03272584 -0.14952737 0.018872218 -0.12455287 0.12333794 -0.14758676 0.095889255 0.028741902
0.07366339 -0.08871888 -0.04479844 -0.12984408 -0.10845397 -0.031554338 -0.14174725 -0.13834542
0.03743103 -0.06870381 -0.11949482 -0.09757617 0.14085627 0.10815145 0.1354943 -0.13967055
-0.049548678 0.08664436 0.029683178 -0.13779062 0.14698444 0.033200074 0.027892029 0.016223142
0.14177941 -0.0015503413 0.04935067 -0.05898514 0.014753249 0.13307437 0.0451874 -0.13523494
-0.0852469 0.049434107 0.022755759 -0.12176442 0.13804637 -0.13902704 0.017179692 0.11567036
-0.11270449 -0.030723255 -0.11245811 -0.04227956 0.1364704 -0.121203884 0.026621407 0.14519532
0.033810697 0.038702723 0.0214264 0.00388595 -0.028425762 -0.09996256 0.019729204 -0.053679574
0.011527516 0.14208417 -0.03621813 -0.117410816 0.07108338 -0.028760966 -0.0131297875 -0.087707825
-0.123501875 0.09155202 0.024883164 0.038696226 -0.05582282 0.04573324 0.007409406 0.03596003
0.027602512 0.06560544 -0.102834746 -0.11247496 -0.1406768 0.10008786 -0.10431333 0.05515192
0.10277473 0.054039396 -0.0056454786 -0.10822922 0.034959342 0.13601501 -0.08281048 -0.11286938
0.14616765 -0.14678654 0.12436794 0.13153192 -0.13301896 -0.007505072 0.033045493 -0.14276066
-0.031666063 0.027984159 0.022594579 0.116505325 0.08423398 0.12716931 -0.118499115 -0.06860825
-0.07761346 0.068314366 0.049121805 -0.061935954 0.12096234 -0.052854016 -0.03046444 0.09850534
0.141754 -0.09297081 -0.13680036 0.111731365 0.094221406 -0.038366422 0.14245167 -0.13392943
-0.0997382 -0.0982253 0.020068832 -0.112473555 0.10176388 -0.04353453 -0.057064977 -0.057877176
0.09427328 -0.011204253 -0.12135776 -0.07526201 0.03044598 -0.13042992 0.055089943 -0.1011329
-0.056363385 -0.08882423 -0.022439571 0.032793585 0.0063493927 0.13445814 0.090624005 0.14519912
0.12445965 -0.14885223 0.1432226 -0.022646146 0.042917047 0.009911788 -0.049290143 0.022734914
0.113554545 -0.098893195 0.07432543 -0.009673293 -0.13855198 -0.014132614 0.08782188 0.12682715
0.07224636 0.13672216 -0.0049000117 -0.068965286 -0.0329034 0.11850182 -0.1244293 -0.09617884
-0.13210978 0.11190151 0.096146844 -0.11698934 -0.05800139 0.053460717 0.0114368135 0.14489481
0.14166231 0.05284836 0.10781273 -0.12480708 0.036386907 0.11859614 0.15205811 -0.079781264
0.030017208 0.020597672 0.016687967 0.14116672 0.15146634 -0.052473105 -0.11181658 -0.07866372
0.044213686 0.05991344 0.019936496 -0.064697266 0.14042519 0.0020393603 0.107609145 0.10006363

network.1.weight f4 [512]
00000000: b372 2741 38bd 4241 becb 2d41 32a4 2f41
00000010: 7ed9 3441 4de5 2c41 31f3 3441 288a 3d41
00000020: 4f77 2741 fcac 3c41 da15 2841 4a47 2341
00000030: 8452 3d41 45d2 2641 6616 2a41 4c14 3641
00000040: 60fe 1441 7c5b 3d41 bc3a 1341 a420 3641
00000050: ef36 2a41 86bc 1541 94fb 3441 92af 3641
00000060: 2ee9 2b41 4d3d 2c41 af17 2741 7d18 2f41
00000070: 849d 3d41 f1ef 2241 1c6c 2d41 8fc4 3d41
00000080: 3d35 2e41 2600 2941 f151 3e41 2d4f 3141
00000090: 11f9 3841 42a5 2b41 fea4 3d41 49cc 2741
000000a0: 11fa 4541 91b7 3041 6e57 1641 8392 2c41
000000b0: ebd4 3841 00b5 3741 e45e 4041 90c7 1f41
000000c0: a8c5 2741 0a76 3f41 f5e5 2741 5040 2a41
000000d0: 2133 3241 e6a5 2d41 f19e 4441 fab3 3c41
000000e0: a60d 1f41 a018 1941 555d 1f41 fd18 3241
000000f0: a588 4241 598f 3241 f757 4b41 0410 3e41
00000100: 6abb 2641 417f 4441 f3bf 2141 dbc5 4841
00000110: 346f 2641 f0e4 3541 765b 2741 6d55 1b41
00000120: 6931 2f41 c52d 2641 7f80 2a41 2842 3341
00000130: b2bd 2d41 6eb3 3741 7a1a 3041 fa4d 3d41
00000140: fd41 2041 d7eb 3a41 090c 2e41 5c89 3d41
00000150: d8ff 2f41 72f0 3441 1e5e 2441 543a 3941
00000160: 582a 3b41 3975 4941 3071 3041 c479 2941
00000170: d64b 2b41 f0c8 1a41 625c 3c41 0a01 2b41
00000180: c83e 3241 fbab 3241 f9a2 3c41 7032 1c41
00000190: 65ac 3741 3497 3841 eca3 3b41 dba8 2041
000001a0: 8c3a 3b41 4247 3a41 f167 3c41 32c2 3541
000001b0: e6bc 4341 5a50 1d41 8caa 3741 3b2c 2d41
000001c0: 57e0 2d41 a45d 1b41 1648 3641 4402 1d41
000001d0: 5d5a 3941 731c 2841 26cb 3a41 55cf 3041
000001e0: 76bb 2d41 5d3c 2041 2e9b 2141 76fe 1941
000001f0: b044 3841 bc06 3241 453e 2741 cdb3 3441
00000200: 26a5 2241 9725 4041 e759 4d41 5364 2d41
00000210: 5ae3 2e41 2a23 1f41 3612 3441 67d5 3a41
00000220: 946b 3d41 6210 3141 7d0b 3341 cadd 3f41
00000230: 1a6e 4741 93ab 1e41 6571 3341 9913 2241
00000240: ea1c 4941 a1ec 3b41 9dee 1f41 5c5d 1441
00000250: 7154 2941 a3c2 2241 cada 3141 b998 4741
00000260: 2228 3641 0011 4841 5277 3141 855a 1e41
00000270: 616a 2d41 c5a2 2e41 a5e9 4441 4603 4441
00000280: 8b03 2e41 f5cf 3641 a239 2541 01e0 2e41
00000290: 4c18 3c41 c4fc 3841 9797 1441 3644 2b41
000002a0: 9d96 3641 efa0 3d41 0d11 2141 e7d0 3141
000002b0: ed6d 4841 5643 2141 3fbe 1d41 c8b1 2841
000002c0: ef15 2341 535e 2d41 7edf 3a41 a753 3841
000002d0: 7ce5 2141 4cb3 2541 6f08 3a41 d696 1e41
000002e0: f987 2f41 d315 3641 d8bb 3441 9354 3541
000002f0: 8653 3841 53a0 3341 f452 3241 9f7e 4341
00000300: 87ae 3b41 2c7e 2c41 d0d0 2041 e9ee 2c41
00000310: 950c 2641 7783 2741 5779 2741 38b6 2141
00000320: b3ca 1e41 ddeb 3941 73a5 3241 433e 3041
00000330: 7af8 3441 cf09 4841 9588 3841 9048 3d41
00000340: ce4b 3441 0f62 3741 cfe7 2841 54a0 3741
00000350: 419f 3c41 aeed 3d41 1635 4741 7b65 3941
00000360: 14b7 3941 8540 1e41 5d9c 4741 9dc7 2841
00000370: 00e4 1a41 3e92 2541 101a 4641 c4d1 4741
00000380: 359c 4041 c1a2 1f41 56da 3841 3e2b 2141
00000390: dd4a 4641 c8d6 3641 5751 3641 55a0 3741
000003a0: 05bd 4441 a20a 2741 f842 2941 9d88 3941
000003b0: c1be 3141 4a19 3f41 486f 3141 a945 2141
000003c0: ab3f 3041 d7d5 1f41 8246 3b41 3d48 2c41
000003d0: dc65 3a41 f271 2841 59ce 4241 25b3 2241
000003e0: 7a55 3641 e8af 4741 0451 4641 8cbc 1d41
000003f0: 4692 3341 a198 1a41 3db8 4841 f044 2d41
10.465503 12.171196 10.862242 10.977587 11.303099 10.805982 11.309373 11.84623
10.466628 11.7922325 10.505335 10.204905 11.832645 10.426335 10.630468 11.379955
9.312103 11.834835 9.201839 11.382969 10.6384115 9.358526 11.31142 11.417864
10.744429 10.764966 10.443282 10.943479 11.850956 10.183579 10.838894 11.860488
10.887998 10.562536 11.895005 11.08183 11.560807 10.727846 11.852781 10.487374
12.373551 11.044816 9.396345 10.785769 11.551982 11.481689 12.023167 9.986221
10.485756 11.966318 10.493642 10.640701 11.137483 10.853003 12.288804 11.79394
9.940832 9.568512 9.960286 11.131101 12.1583605 11.159997 12.708976 11.87891
10.420755 12.281068 10.109363 12.548305 10.402149 11.368393 10.459829 9.708356
10.949563 10.386174 10.656371 11.203651 10.858812 11.481306 11.006464 11.831537
10.01611 11.682578 10.877938 11.846035 10.999962 11.308702 10.272978 11.57674
11.697838 12.591119 11.027634 10.592228 10.706015 9.674057 11.772554 10.687754
11.140327 11.166987 11.789788 9.762314 11.4795885 11.536915 11.72752 10.0412245
11.701794 11.642397 11.775376 11.359911 12.233618 9.832117 11.479137 10.823298
10.86727 9.7103615 11.392599 9.813053 11.584561 10.506946 11.674597 11.050618
10.858267 10.014737 10.100386 9.624624 11.516769 11.126644 10.4527025 11.293897
10.165319 12.009177 12.834449 10.836993 10.930506 9.946085 11.254446 11.6771
11.838764 11.0665 11.190305 11.991648 12.46438 9.916888 11.215184 10.129785
12.569559 11.745271 9.995755 9.272793 10.583116 10.172519 11.115915 12.474786
11.384798 12.50415 11.091631 9.8970995 10.838471 10.914739 12.307042 12.250799
10.875865 11.425771 10.3265705 10.929688 11.755932 11.56171 9.287009 10.704153
11.411771 11.85179 10.066663 11.113502 12.526837 10.078939 9.858947 10.543404
10.192855 10.835528 11.6795635 11.520423 10.118526 10.356274 11.627059 9.911825
10.970696 11.380328 11.29586 11.333148 11.520391 11.226642 11.145252 12.218413
11.730109 10.780804 10.05098 10.808328 10.378072 10.469596 10.467124 10.106987
9.924487 11.620084 11.165393 11.015201 11.310663 12.502395 11.533345 11.830215
11.268507 11.46144 10.556594 11.476643 11.78888 11.870527 12.45046 11.5872755
11.607197 9.890752 12.475675 10.548734 9.680664 10.348204 12.381363 12.488712
12.0381365 9.977235 11.553305 10.073057 12.393277 11.427437 11.394858 11.476644
12.296147 10.440096 10.57885 11.595853 11.109071 11.943674 11.089668 10.079507
11.015544 9.989707 11.704714 10.767636 11.649868 10.527819 12.175378 10.168736
11.395868 12.480446 12.394779 9.858532 11.223211 9.662263 12.54498 10.82933

network.1.bias f4 [512]
00000000: 4485 aac0 1c5a f6c0 217d 95bf 52f1 f9c0
00000010: 6f83 bcc0 1ef6 fec0 1f94 9dc0 4436 d4c0
00000020: edde 09c1 1143 a2c0 ee89 a2c0 aee1 e7c0
00000030: 95af 9ac0 967d d0c0 a556 b2c0 da0b 08c0
00000040: 0aba abc0 f1d6 fac0 7657 ecc0 a709 e7c0
00000050: f2f8 6cc0 5e35 f6c0 932a 01c1 d56c ccc0
00000060: e620 b7bf 640f a2c0 8b2b a9c0 2a5a f2c0
00000070: 785a bcc0 3310 9fbf 4068 d3c0 6b80 fec0
00000080: bd9c c9c0 f37f e6c0 4aad 7ac0 51e4 d9c0
00000090: 3e9d f2c0 ddff bac0 594f b6c0 038c 90c0
000000a0: b6c2 a9c0 b146 91c0 fb87 a0c0 a33c a0c0
000000b0: 04f2 a4c0 da08 69c0 bb58 a0c0 1b3f fdc0
000000c0: 6b17 bac0 4f5c c3c0 b348 77c0 3892 8dc0
000000d0: c1b2 98c0 29d8 b6c0 764b b7c0 dbf0 dac0
000000e0: 3706 dcc0 8239 f3c0 acf5 f1c0 f9fa a8c0
000000f0: 643e e1c0 5e67 c3c0 cd2c 95c0 3226 bbc0
00000100: 4ec3 c1c0 b2a1 c8c0 ac1f 79c0 6015 dcc0
00000110: 3005 c2c0 b097 92c0 bfc1 b7c0 367d d4c0
00000120: 75c7 c4c0 2479 c3c0 eb42 b5c0 99dd b7c0
00000130: cb93 a2c0 6796 a2c0 e076 dfc0 017c cec0
00000140: bb79 b0c0 078f d5c0 6255 b4c0 156b 00c1
00000150: 11a3 cec0 d2ed 5bc0 882e c4c0 85cd 01c1
00000160: 7593 c8c0 55c2 fbc0 e03e d8c0 094f 9dc0
00000170: f3a4 60c0 e6ae fdc0 2546 d8c0 4a4c c8c0
00000180: 3d4e b7c0 0c16 94c0 ab5d e6c0 2560 aec0
00000190: 2d89 b9c0 c076 dfc0 ca28 7dc0 6811 93c0
000001a0: f48a 91c0 9357 9bc0 2f57 6ec0 d84b c0c0
000001b0: e89d d9c0 cb6b ffc0 6961 bcc0 bcf1 a1c0
000001c0: fff3 cbc0 f012 b0c0 f8d6 c5c0 d9ef 05c1
000001d0: 717a c6c0 5f72 b3c0 4296 acc0 3596 7cc0
000001e0: 0fec a5c0 5a0d cbc0 e8da 49c0 726c bfc0
000001f0: 6844 cbc0 e325 d9c0 efd3 aec0 be33 e3c0
00000200: ddd5 eac0 7ab3 c4c0 fcd1 c2c0 7d09 d7c0
00000210: 4d23 adc0 808b a0c0 9f92 d3c0 22a8 eac0
00000220: b76b dfc0 42ab 06c1 5e52 cbc0 3b89 d3c0
00000230: f0da e9c0 9eaf c4c0 48dd e0c0 d139 04c1
00000240: 580a b4c0 f7b5 9bc0 e931 bfc0 7a34 a2c0
00000250: 5c93 a1c0 446c bbc0 1816 d4c0 4c03 02c1
00000260: 1673 c5c0 592e 8cc0 ff0a d7c0 1127 4bc0
00000270: 1f4b bcc0 061a d6c0 6481 9cbf 5540 c3c0
00000280: 1933 e9c0 9adc 90c0 a907 05c1 fe1d e0c0
00000290: c6fc 88c0 862e dbc0 6f73 e7c0 691e 08c0
000002a0: 3577 c3c0 0b9a e2c0 4b3e fdc0 82a0 fdc0
000002b0: 53fb f6c0 e19d bec0 6da3 48c0 9c84 60c0
000002c0: 2ab2 c4c0 fbb4 95c0 3cd2 b4c0 2403 97c0
000002d0: cb7a 24c0 fa54 94c0 1fd1 edc0 68fb 2bc0
000002e0: bab2 abc0 6d06 fcc0 d683 88c0 7e18 b1c0
000002f0: 82a5 c0c0 6e1a b9c0 7e64 d3c0 6f5e e0c0
00000300: 16c0 96c0 c417 f2c0 9a32 a6c0 d2d8 a6c0
00000310: c5b2 dec0 8b93 ecc0 0f1c 88c0 fa7e cdc0
00000320: 19ee dbc0 b727 b1c0 945c b0c0 6644 bcc0
00000330: cc11 89c0 b996 e4c0 12a0 85c0 59cb d1c0
00000340: ba76 d9c0 0ffd a5c0 dab7 c4c0 cf9c b4c0
00000350: e138 a9c0 9ca1 e5c0 a21e f1c0 ed92 e2c0
00000360: ad25 d3c0 9c13 afc0 ad9f 9cc0 8661 dac0
00000370: cd2c eec0 7cb6 d8c0 402e c5c0 d385 9fc0
00000380: 728e d5c0 d042 0ec0 3c9c 59c0 a6f3 d9c0
00000390: dc28 dac0 733f acc0 928a b0c0 948d cec0
000003a0: 393d abc0 a851 08c0 badb 7cc0 8c8a c2c0
000003b0: d24b b0c0 ebc9 b1c0 8bf6 88c0 1ed7 a2c0
000003c0: 2336 e1c0 b760 b2c0 96b2 5cc0 1872 1fc0
000003d0: 695f f1c0 0de5 c1c0 8696 9ec0 2008 63c0
000003e0: 2c67 d5c0 b2d7 b3c0 a67e b0c0 11c9 dec0
000003f0: cfdf f2c0 5c38 08c1 d532 c2c0 db11 eec0
-5.328768 -7.6984997 -1.1678811 -7.810708 -5.891044 -7.9675436 -4.924331 -6.631624
-8.616925 -5.070687 -5.079337 -7.246299 -4.8339334 -6.5153303 -5.5730767 -2.1257234
-5.36646 -7.838738 -7.3856764 -7.2199283 -3.7026944 -7.6940145 -8.072894 -6.388285
-1.4306915 -5.0643787 -5.2865653 -7.5735064 -5.8860435 -1.2426819 -6.606476 -7.953176
-6.300383 -7.203119 -3.9168267 -6.8091207 -7.5816946 -5.8437333 -5.697186 -4.5170913
-5.3050184 -4.5398793 -5.016599 -5.007402 -5.154543 -3.6411653 -5.0108314 -7.9139533
-5.8153586 -6.105018 -3.8638122 -4.424099 -4.7718205 -5.7138867 -5.7279615 -6.8419013
-6.8757586 -7.60077 -7.5612392 -5.2806363 -7.038866 -6.106368 -4.661719 -5.8484125
-6.055091 -6.269738 -3.892558 -6.8776093 -6.0631332 -4.5810165 -5.7424006 -6.6402845
-6.149348 -6.1085377 -5.6644187 -5.7458005 -5.080541 -5.0808597 -6.983261 -6.452637
-5.5148597 -6.6737094 -5.6354227 -8.026143 -6.4574056 -3.4363904 -6.13068 -8.112676
-6.268 -7.867472 -6.757675 -4.915898 -3.5100677 -7.9276 -6.7585626 -6.2593126
-5.7283006 -4.6276913 -7.198934 -5.4492364 -5.797995 -6.983246 -3.9556146 -4.595875
-4.548212 -4.85444 -3.7240713 -6.0092583 -6.8005257 -7.9819083 -5.886891 -5.0607586
-6.3735347 -5.5023117 -6.1824913 -8.371057 -6.2024465 -5.6077113 -5.393342 -3.946668
-5.1850657 -6.34538 -3.153986 -5.981988 -6.3521004 -6.785875 -5.463371 -7.100066
-7.3386064 -6.1469088 -6.088133 -6.719908 -5.410559 -5.017029 -6.611648 -7.333024
-6.981899 -8.416811 -6.3538046 -6.610502 -7.307976 -6.1464376 -7.027012 -8.264115
-5.6262627 -4.8659625 -5.9748425 -5.068906 -5.049238 -5.856966 -6.627697 -8.125805
-6.1702986 -4.3806577 -6.7200923 -3.1742594 -5.88417 -6.6906767 -1.2226987 -6.101603
-7.2874875 -4.526929 -8.31437 -7.003661 -4.280856 -6.849429 -7.232841 -2.126856
-6.1083016 -7.081304 -7.913854 -7.9258432 -7.718179 -5.9567723 -3.1349747 -3.5080938
-6.1467485 -4.6783423 -5.6506634 -4.7191334 -2.5699947 -4.635373 -7.4317775 -2.6872196
-5.365567 -7.8757844 -4.2660933 -5.53424 -6.0202036 -5.7844763 -6.606017 -7.0115275
-4.710948 -7.565401 -5.193677 -5.2139673 -6.9593225 -7.3930106 -4.253425 -6.42175
-6.8728147 -5.536098 -5.511301 -5.8833494 -4.2834225 -7.143399 -4.17579 -6.5560727
-6.795743 -5.187141 -6.147443 -5.6441417 -5.288193 -7.1759777 -7.5349894 -7.0804353
-6.598349 -5.4711437 -4.8944917 -6.8244047 -7.442969 -6.772276 -6.1618958 -4.985086
-6.6736383 -2.222828 -3.4001608 -6.8109922 -6.8174877 -5.3827453 -5.5169153 -6.4547825
-5.3512235 -2.129984 -3.950911 -6.0794125 -5.5092554 -5.555898 -4.2800956 -5.0887594
-7.0378585 -5.574306 -3.4484 -2.4913387 -7.5428967 -6.0592103 -4.9558744 -3.547371
-6.668844 -5.62008 -5.51546 -6.9620442 -7.5898204 -8.51376 -6.068705 -7.4396796

network.1.running_mean f4 [512]
00000000: de57 5fbe 1334 25be 7ee6 0e3e 82a6 093f
00000010: e1b0 e13e eb09 9dbd 765f 66bd ded4 f5be
00000020: c440 95bf 96f7 bdbe 5d51 03bf 1e0b c63e
00000030: a4c3 dcbd 3863 5abd d093 88bf 144f 23bf
00000040: d065 b33e b8ad 1cbf bb8d cb3e 2f18 88be
00000050: a8a4 183f 78e9 8fbd 427e e63e a84a 2ebf
00000060: a4e0 fbbd 669c 153f 9a51 2b3d 15d1 11be
00000070: 5d17 d4be a23b 33be 738e 1d3f ccb2 e53e
00000080: 268d 7abe f9fa 09bf 7f77 f23e b5a0 f8be
00000090: 5af7 0e3f 14f8 56be ece1 093f ab9f 313f
000000a0: 114d 823f 7513 00bf 7001 65bd 7bc4 593e
000000b0: 3a89 833f 089d 333e cc12 05bf 4022 9abe
000000c0: 10a2 75bd 4783 4e3f 794d 073f e07a 17bf
000000d0: 20d5 36bc 9cb7 cc3d c380 f5be b05c 423f
000000e0: c1aa 923e 746e 71bf 98e2 4dbf 2b61 d0be
000000f0: 3ec1 8fbe 691e 083f 81a3 adbe 7530 56bf
00000100: 78aa 3d3f c2ad 4ebe 4798 cfbe cfb5 84bf
00000110: f011 7fbe 7aa4 ddbe 6cb1 c03e 0a84 28bf
00000120: ae88 d1be 5f12 753f 6dab ad3e 5846 263f
00000130: 8095 063f 0009 0f3c f33c 933e 947d d4bd
00000140: 2033 493f 3c3a 3b3f 3c12 a43d d83c 3abe
00000150: 0926 6bbe d0e3 4b3f 8042 2b3f 6e49 783f
00000160: 983d 8b3c 64e4 cd3d bf16 5e3f 8e7e 2d3f
00000170: 975f a2be 8f51 a6be 2994 49be 421f 763e
00000180: a8d4 e1be 7c6f 073f 28db 3cbe c687 bd3e
00000190: d159 803f 0181 703f 622e a03e 20e7 ef3d
000001a0: 019e 573e af43 40be a0c8 c2bd 4c45 6a3f
000001b0: 85f4 eb3e aa2a 113f 9252 573f 4cac fbbd
000001c0: 1979 abbe 2c48 3a3e 47cb 8bbf ca88 0e3e
000001d0: da1d 993f 8063 e5bb dafa febe c0a0 41bc
000001e0: 8bb1 143f b941 f43e 68d8 513f 56ad ac3e
000001f0: 077c 3dbf 16bd 22bf c849 973c 7ad8 803e
00000200: d41c 283f de75 28bf 0e3f f8be 9904 1cbe
00000210: cba8 4c3f 8cbe 4f3e b6c2 073e 1c48 73be
00000220: 02af 2f3f 547e 193f 5408 433f 2996 193e
00000230: 1c5a 38be 5c80 7fbe 046f fcbe b26e 193f
00000240: cf1c 58bf bf10 3cbf 6e3a f03e da05 c6bd
00000250: e2a4 9d3e 47a0 18be 7012 133f 7ba8 16bf
00000260: be12 323f d298 503d 2315 2fbf 045a 413f
00000270: 84b3 ebbd 09d9 f9be ba54 a2bd 7b73 573f
00000280: e7eb 153e c6b7 863f 422e 2a3f 5698 a93e
00000290: abb5 cfbe 1b7d ffbe 705f fcbc e614 8a3e
000002a0: 11a8 0b3e 2f06 3d3f ebcb bb3d 8493 803f
000002b0: 7102 843f e0cf 133c be43 bf3e 2182 a0be
000002c0: 98fc 173f 3dd8 88bd b9e6 58bf bbaf 9abe
000002d0: 3c6f a73d 4c08 b93d d94c 4a3f f433 be3e
000002e0: 982e d0bd 18b2 033e 18fa b43d dd26 83bd
000002f0: 9852 ec3d b0b7 723f 121b 1d3f 18cb f23e
00000300: 7549 f7be 9d17 ffbe 3b5b ea3e e369 e8be
00000310: 1674 2b3f 546e 573f 5856 a33e b027 67bd
00000320: 7d72 90be e139 16bf 2c77 5b3f e74a e33e
00000330: 22e0 c7be fcd5 d4bd 077e bebe 30f5 8bbf
00000340: 42c2 be3e 3e4a 7a3d ee2f 6c3e c68f 1e3e
00000350: efc9 9cbe 6c63 ec3d 865e 953f efba 4dbe
00000360: 702a 49bf 4d2e 33bf 517f 353f 8587 b83e
00000370: 3e31 553f 0b65 eebe 2279 a1bf 8d20 043d
00000380: 0c58 3b3d 5b3d a2be 049b aabe 9ee8 9e3d
00000390: 79c7 d2be 4abf cbbe 2056 a0be cda5 0f3f
000003a0: 59f9 4abf 7ee3 ca3e 7fe5 563f 4cf8 54bf
000003b0: 78c3 753f 5ddf 8a3f 44f9 dfbd cc87 82be
000003c0: 7070 c83d 1c6f 853f fe76 3e3f 6580 16be
000003d0: 38a0 6e3f 8ab6 3cbe 9330 823f 6c4a 1c3d
000003e0: 3eb4 6a3f b1e5 1abf 24be 4f3f f1ca b53d
000003f0: c022 273f 03b0 b73e 8ec7 ab3e 2b4f 053f
-0.21810862 -0.16133146 0.13955113 0.53769696 0.4408026 -0.07667907 -0.056243382 -0.48013967
-1.166039 -0.37102956 -0.51296026 0.38680357 -0.10779503 -0.05331728 -1.0670109 -0.6379254
0.35038614 -0.61202574 0.3975657 -0.2658095 0.59626245 -0.070269525 0.45018202 -0.68082666
-0.12298706 0.5844177 0.04182587 -0.14239915 -0.41424075 -0.17503217 0.61545485 0.44862974
-0.24467906 -0.5389858 0.47356793 -0.4856011 0.5584618 -0.20993072 0.53860354 0.6938426
1.0179769 -0.5002969 -0.055909574 0.21266358 1.0276253 0.17540371 -0.51981807 -0.30104256
-0.059969008 0.80669063 0.5285259 -0.5917187 -0.011159211 0.09995958 -0.479498 0.7592268
0.286459 -0.94309163 -0.8042388 -0.40699133 -0.2807712 0.531714 -0.33913806 -0.8366769
0.7408824 -0.20183471 -0.40545866 -1.0367984 -0.24909186 -0.43289548 0.37635362 -0.65826476
-0.4092459 0.9573116 0.3391985 0.64951086 0.5257187 0.008730173 0.28757438 -0.103755146
0.78593636 0.73135734 0.080112904 -0.18187273 -0.22963728 0.7964449 0.66898346 0.96987045
0.016997144 0.10053328 0.8675346 0.6777123 -0.31713554 -0.324841 -0.19685425 0.24035361
-0.44107556 0.52904487 -0.18442976 0.3701765 1.002741 0.93946844 0.31285387 0.117140055
0.21056367 -0.18775819 -0.095109224 0.9151199 0.4608499 0.56705725 0.8411037 -0.122887224
-0.33490828 0.18191594 -1.092141 0.13919368 1.1962235 -0.0070003867 -0.4980076 -0.011818111
0.5808341 0.47706392 0.81970835 0.33725995 -0.74017376 -0.6356977 0.018467799 0.2516516
0.6566899 -0.6580485 -0.48485607 -0.15236129 0.7994506 0.20287532 0.1325787 -0.23757976
0.68626416 0.59958386 0.7618458 0.14998688 -0.18003124 -0.24951309 -0.49303448 0.5993453
-0.8441896 -0.7346305 0.46919578 -0.09669085 0.30789858 -0.14904891 0.5745001 -0.5885083
0.6955985 0.05092699 -0.6839163 0.7552798 -0.11508849 -0.48798397 -0.079263166 0.84160584
0.14640771 1.0524833 0.66476834 0.33124036 -0.4056829 -0.49900135 -0.030807227 0.2696907
0.13638331 0.7383756 0.09169754 1.0045018 1.0313245 0.009021729 0.3735637 -0.3134928
0.593698 -0.06681869 -0.84727055 -0.30212197 0.08175513 0.09034786 0.7902351 0.37149012
-0.10165137 0.12860906 0.08836764 -0.06403897 0.11539191 0.94811535 0.6136943 0.47420573
-0.4829823 -0.49822703 0.45772728 -0.45393285 0.6697401 0.8415272 0.31901813 -0.056434333
-0.28212348 -0.58682066 0.85728717 0.44393083 -0.39038187 -0.10392377 -0.37205526 -1.09342
0.37257582 0.06110596 0.23065159 0.15484533 -0.30622813 0.11542401 1.1669471 -0.20090841
-0.7858038 -0.69992524 0.70897394 0.36040893 0.8327826 -0.46561465 -1.2615092 0.032257605
0.045738265 -0.31687436 -0.33321393 0.07759212 -0.4116781 -0.3979438 -0.31315708 0.56112367
-0.79286724 0.39626688 0.83943933 -0.8319137 0.96001387 1.0849415 -0.109362155 -0.2549423
0.09787071 1.0424533 0.7440032 -0.14697416 0.93213224 -0.18429008 1.0171074 0.03815691
0.9168128 -0.6050673 0.81149507 0.088765986 0.652874 0.35876474 0.33550686 0.52073926

network.1.running_var f4 [512]
00000000: 9ab9 3144 90b6 4c44 33e1 9544 9607 6244
00000010: e517 4a44 95c5 8844 1f8b 4644 de0b 7044
00000020: 73ec 8144 121c 8044 3c63 6e44 6cba 7644
00000030: 64ba 8344 2f0e 5044 bee1 4344 50b3 7444
00000040: 0ce7 7d44 7114 3b44 7789 5c44 1b9b 2244
00000050: e9e0 4944 5009 4a44 fb4b 7144 4669 7144
00000060: aef5 7844 43a6 5044 822e 6f44 00dc 1e44
00000070: 1b3a 8944 0d37 5d44 0f2f 7044 2be9 6144
00000080: 2602 4c44 fa71 4544 4537 8744 553f 6544
00000090: e949 9144 6d02 4644 27a2 5644 368c 3c44
000000a0: 256d 6544 f603 2e44 4ce0 8844 da35 7944
000000b0: b1c6 8844 9433 5944 d9cb 1d44 4b69 4b44
000000c0: ac0d 4044 24ba 4344 e3e6 5344 f0e9 4e44
000000d0: 0b6d 7644 c8b8 5f44 17f8 7e44 e092 6144
000000e0: 83b3 5c44 aa3b 8444 7367 2e44 ce47 3a44
000000f0: 1fd8 8444 d461 5344 de52 4144 06b8 9144
00000100: 7ae2 4044 1fda 8444 1dab 7a44 cfaa 4744
00000110: 80f6 8044 00c2 5d44 3325 3244 9862 3d44
00000120: 4d2a 6044 e164 4c44 be5c 6f44 2375 7444
00000130: 9bc8 5f44 7a5c 3944 244e 6944 20a3 1544
00000140: 994f 5844 de41 7e44 df12 6544 c180 8a44
00000150: 3227 6544 d1a5 6c44 af82 7e44 e57a 9144
00000160: a18d 4144 7548 9844 7258 6a44 ccf3 7244
00000170: cf4b 5044 7b23 3344 ead3 6844 6f58 5444
00000180: e77d 4944 5d48 8144 782b 7144 b065 4b44
00000190: 2279 5d44 ed2f 4744 8db3 8a44 e195 5f44
000001a0: 0484 5044 2379 3244 979e 5644 6009 5e44
000001b0: caac 8144 5bc2 5544 034b 6944 f814 6b44
000001c0: b2e5 4344 3283 5244 be12 8c44 8307 5e44
000001d0: 9814 7944 ecd5 4b44 6a30 5144 5353 2b44
000001e0: a594 ad44 1eb1 4144 3e1c 5944 4abf 4d44
000001f0: 74af 3d44 6624 7644 bc55 5344 85e1 8a44
00000200: b48a 8544 f258 6a44 1fa1 5f44 5017 8544
00000210: 37d0 4e44 9d6f 3f44 2e3e 7c44 99ed 9444
00000220: b6df 7844 38b9 7e44 4297 9144 2696 6c44
00000230: a804 6644 fa11 4a44 2004 8244 985e 6744
00000240: ec55 5744 3234 5d44 5b5e 6944 a5e8 3e44
00000250: bcd4 6844 6bba 5244 2cb3 5a44 9ee8 3f44
00000260: 02c9 8344 8b36 a644 47dc 4d44 8fc3 9044
00000270: b829 5644 d8f3 4744 ab56 7d44 16a2 6144
00000280: 7074 3144 11b5 6e44 5b49 6644 eb38 2644
00000290: ea22 4944 7cc6 7544 c485 9644 9ca9 8f44
000002a0: a65d 4c44 7819 8044 8def 2c44 f512 9744
000002b0: 54b4 6b44 699c 4244 1a73 6b44 5af4 6c44
000002c0: 2383 c344 3495 2d44 5c93 6244 f29d 7d44
000002d0: 9bb8 8244 26d2 5d44 a61c 8b44 bb72 8744
000002e0: 0e89 4944 f8cc 6744 1f4b 6e44 7dd6 7744
000002f0: ab17 8c44 8add 5f44 557c 2f44 0da8 4d44
00000300: 2f4a 8744 df51 4e44 a25c 6e44 36a6 6644
00000310: 04ae 9a44 6f54 7544 b86e 3944 4e29 9244
00000320: 85b1 4a44 3528 2a44 88b6 5e44 abea 4944
00000330: f913 4f44 6930 8a44 eb29 4744 ce9d 3f44
00000340: 81b4 3f44 ea84 7444 8483 3644 a3a4 7544
00000350: c097 2a44 7f4c 5344 44b2 4a44 16f6 3344
00000360: ac21 3244 772d 4544 be4d 7344 cda8 7144
00000370: 219c 3a44 a3cd 8844 64b3 7144 2a6b 8e44
00000380: 7aa6 7044 6e73 6e44 96b0 5744 5030 3e44
00000390: 7db6 7444 8c97 9244 2f03 4844 d597 5d44
000003a0: 6d10 8644 f5f5 7f44 d9ca 6a44 0e92 7644
000003b0: 8a22 6244 e1b8 6044 e65b 4244 30ab 4b44
000003c0: dd7c 3844 e2cc 9844 7189 4944 d1cd 4344
000003d0: f69f 8944 72d5 8d44 f869 8144 6473 2744
000003e0: a1e8 5944 5b3c 6344 2389 8f44 8918 6644
000003f0: 80d2 4b44 0f25 3344 5a5c 3044 b07f 4a44
710.9 818.85254 1199.0375 904.1185 808.37335 1094.1744 794.17377 960.1854
1039.389 1024.8772 953.55054 986.91284 1053.8247 832.2216 783.5272 978.80176
1015.6101 748.3194 882.1479 650.4235 807.5142 808.1455 965.1872 965.6449
995.83875 834.59784 956.7267 635.4375 1097.8158 884.86017 960.7353 903.64325
816.03357 789.7809 1081.7272 916.98956 1162.3097 792.0379 858.5336 754.1908
917.7054 696.0619 1095.0093 996.84143 1094.2091 868.8059 631.1851 813.6452
768.2136 782.90845 847.6076 827.6553 985.7038 894.8872 1019.8764 902.2949
882.8049 1057.8645 697.6164 745.12195 1062.7538 845.52856 773.2948 1165.7507
771.5387 1062.8163 1002.67365 798.6689 1031.7031 887.03125 712.58124 757.5405
896.66095 817.57623 957.4491 977.83026 895.13446 741.44495 933.22095 598.5488
865.2437 1017.0292 916.29486 1108.0236 916.6124 946.5909 1018.04193 1163.8405
774.21295 1218.2643 937.38196 971.8093 833.1845 716.5544 931.31116 849.3818
805.9672 1034.2614 964.6792 813.58887 885.8927 796.74884 1109.611 894.34186
834.06274 713.89276 858.47797 888.1465 1037.3997 855.0368 933.17206 940.32764
783.589 842.0499 1120.5857 888.1174 996.3218 815.3425 836.7565 685.30194
1388.6451 774.76746 868.4413 822.9889 758.74146 984.5687 845.3396 1111.0475
1068.3345 937.3898 894.5175 1064.7285 827.25336 765.74396 1008.97156 1191.4249
995.4955 1018.89404 1164.7268 946.34607 920.07275 808.2809 1040.1289 925.478
861.3425 884.81555 933.4743 763.6351 931.324 842.9128 874.79956 767.63464
1054.2815 1329.7045 823.44183 1158.1112 856.65186 799.81006 1013.3542 902.5326
709.81934 954.82916 921.1462 664.88934 804.54553 983.1013 1204.1802 1149.3003
817.46326 1024.7959 691.743 1208.5924 942.8176 778.4439 941.79846 947.818
1564.098 694.3313 906.3025 1014.4679 1045.7689 887.28357 1112.8953 1083.5853
806.1415 927.20264 953.17377 991.3514 1120.7396 895.46155 701.9427 822.6258
1082.3182 825.27924 953.4474 922.59705 1237.438 981.3193 741.73 1169.2908
810.77374 680.62823 890.85205 807.6667 828.3121 1105.5128 796.65497 766.4657
766.8204 978.0768 730.05493 982.57245 682.3711 845.19525 810.7854 719.8451
712.5261 788.7104 973.2147 966.6375 746.4395 1094.4261 966.803 1139.3489
962.6012 953.8036 862.75916 760.7549 978.8514 1172.7358 800.04974 886.3724
1072.5133 1023.8431 939.1695 986.2821 904.5397 898.88873 777.4359 814.6748
737.951 1222.4026 806.1475 783.2159 1100.9988 1134.6702 1035.3115 669.803
871.6348 908.94305 1148.2855 920.38336 815.28906 716.57904 705.443 809.9951

network.4.weight f4 [256, 512]
00000000: 7079 e53e 0d97 6d3f 86cc afbd 3651 983f
00000010: 37e6 d63d 4a92 c83f 2cab 83bf 3769 0fbe
00000020: 87c6 6540 c671 1040 50be 91be 4e83 643f
00000030: 056c 1e3e 5b8a 8bbf 4d70 2f3f 0f0d ebbf
00000040: 9aeb da3e 79d4 033f a98a 36c0 58c0 923f
00000050: f4ee 38bf 4e59 d5be 89f0 d3be 5d08 e63e
00000060: d8cf a3be 6db6 c8bf 5fd7 59bf 325c 21bd
00000070: 88a8 fdbe 443e 92be 9b2e e93f 8f48 efbf
00000080: 5bc3 d03f bb80 72bf a3f5 883e 8420 3abf
00000090: a643 1240 490a e3bf d4d6 bfbe 5555 81bf
000000a0: e01a 873f 4408 e8bf 95e8 1a3f bb54 763f
000000b0: 035b 9c3f f6df 903e 93a9 a2bf 920b eebf
000000c0: 1132 33c0 5926 25bf f669 9cbe 9f5c 29be
000000d0: 6a54 c2be 4e29 36c0 1451 b93e ca53 61bf
000000e0: 919b 65bf e977 36bf 5f03 b4bf 35ed 33bf
000000f0: 885b 0740 0b48 973f e935 6dbe b486 4f3f
00000100: 9839 b53f 0794 a43f 21fc 0cc0 5a01 c33e
00000110: cffd b3bd a532 04c0 a51e f33e b41a cb3d
00000120: 61b5 8d3e ba7e 1f3f 2467 23bf 9bbe 41bf
00000130: 13f1 43bf 1875 c4be 8763 06bf 1493 2d3f
00000140: 556c d6bf 107d babe fce5 863f b48f 83bf
00000150: d6ee 91bf f7ec e83e ddfb d03f a452 953d
00000160: 54b3 653f e1e2 2c40 a2a4 1ebe 7652 86be
00000170: 0494 1bc0 0c6a 7cbf 99bc 15bf d07e aebe
00000180: 8deb bbbd c12d 7f3e bc3b b9bf 2188 183f
00000190: 35a5 c7be 0939 c2bf 159f 19c0 5dd7 d5bf
000001a0: efb8 febe 316b 58bf 02b4 b4bf a8f6 cb3f
000001b0: 9b8b e63e b51e ec3e 17ff 963f 18ac 503f
000001c0: 49be 73bf 13ce 80be 7170 5e3f 7d88 c43e
000001d0: f2dd 303d 1493 96bf 196d 19c0 0818 eabd
000001e0: 08a6 ce3c 181f 22bf 32ad 8ebf 71df a2bf
000001f0: 39a5 c8bf 7416 123f 5cde 083f 0e8a da3f
00000200: 0f84 4e3f 00e5 0abf 7085 81bf 7947 c2bf
00000210: c0f4 ad3f 6da5 2dbc 3d14 23bf 21e0 51be
00000220: e105 863f d22f 8a3f 5f47 0a3f f80b e53b
00000230: af99 a8bf 0f9f 0fbe c412 203e 5d1d 3c3f
00000240: f1fc fdbe 6acc 6fbf 9b4f 943f b9b7 15be
00000250: 158f 4b3f 7c90 adbf 4335 1f3f 384a 4abf
00000260: b331 4e3f 0256 1ac0 50cd 34bf 5cb1 fabd
00000270: 80de 70bf 79b7 8e3e b931 8cbe f360 69be
00000280: eaff 0dc0 8815 b43f 884d a63e 9f22 99bf
00000290: c253 c13e 1723 34bf 934f 343f af57 e1bf
000002a0: 4c74 d63c f321 a83f 2d48 4fbf 3a3d 3040
000002b0: 8e87 e53e ed66 a8bf c928 013f ca7a 98bf
000002c0: 1ac0 9bbe f5df b33e d07a 3f3f d059 00bf
000002d0: b960 8bbe 3d65 963e d517 ca3f f6ed 0c3f
000002e0: be3f 323f 7e04 6d3e 53ed a83e 9429 f03f
000002f0: 0da4 4c3e 3241 b8be 82dd a3bf a44a 8cbf
00000300: e238 1bbf a4ea 47bf fecc cf3e cefb dbbf
00000310: 216a 313f 83ee f9be 127f 8dbf c084 44bd
00000320: 456a acbe 0b0a 4b3d 4fc2 8f3f 48eb 92bf
00000330: b469 983f bc10 303f 99af 4d3e 3580 ab3f
00000340: cff0 c13e bd6c 723c 2011 19be 6591 98bf
00000350: 1ea8 66be 716f aebe d171 0b3f 1ed2 5dbe
00000360: bba1 ac3e 0b58 0240 6810 543b 5f6d 2740
00000370: 4a7d 523f f7cd 3c3e 9902 1ac0 d9f6 9dbe
00000380: 2c54 cfbd 8a6a 353e 029c 793d 3806 4b3f
00000390: 6c0c 373e fc2f 2440 17be f7bf e68f 98bf
000003a0: bc5a 7a3f 55f2 5d3f 2704 f53f df75 4a40
000003b0: 3b0f d03f b13c aa3f 7b45 c43f 4d15 26bf
000003c0: 60ec adbe b443 8b3f b0fa bebe 7080 24c0
000003d0: 39b8 ae3f 0643 bb3f 5c05 3d3e fe6f 44bf
000003e0: 82b8 d2be 6232 cc3d 85a1 f1bf 3191 d1bf
000003f0: 181a a53e 4e0f f1bf 934b 52c0 22dc b63f
0.44819212 0.9280861 -0.085839316 1.1899784 0.10493129 1.5669644 -1.0286613 -0.1400498
3.5902421 2.2569442 -0.2846551 0.89262855 0.15470894 -1.0901598 0.6853073 -1.836336
0.42757875 0.5149608 -2.8522131 1.1464949 -0.72239614 -0.41669697 -0.4139445 0.44928256
-0.3199451 -1.5680672 -0.85094255 -0.039394565 -0.49542642 -0.2856313 1.8217348 -1.8694018
1.6309618 -0.9472768 0.26749906 -0.72705865 2.285379 -1.7737514 -0.37468588 -1.0104166
1.0555077 -1.8127522 0.6051114 0.9622304 1.2215275 0.2829587 -1.2708 -1.8597281
-2.7999308 -0.6451164 -0.30549592 -0.16539238 -0.37955028 -2.846271 0.3619467 -0.88018477
-0.896905 -0.7127672 -1.4063529 -0.70283824 2.1149616 1.1818861 -0.23165096 0.81064916
1.4158201 1.2857674 -2.2028887 0.3808697 -0.087886445 -2.065591 0.47484317 0.099172026
0.27677444 0.62302744 -0.63829255 -0.75681466 -0.76539725 -0.38370585 -0.52495617 0.6780255
-1.675181 -0.3642354 1.0538936 -1.027823 -1.1401012 0.4549329 1.6326863 0.07291153
0.8972676 2.7013476 -0.1549249 -0.26234788 -2.4309092 -0.98599315 -0.584909 -0.34081125
-0.09175787 0.24919797 -1.4471354 0.59582716 -0.3899323 -1.5173656 -2.4003346 -1.6706349
-0.49750468 -0.8453856 -1.4117434 1.5934649 0.45028386 0.46117178 1.1796597 0.81512594
-0.9521223 -0.25157222 0.8689032 0.38385382 0.043180414 -1.1763635 -2.3972838 -0.11430365
0.025225654 -0.63328695 -1.1146605 -1.2724439 -1.5675422 0.5706551 0.53464293 1.7073381
0.80670255 -0.54255676 -1.0118847 -1.5178062 1.3590317 -0.010598523 -0.63702756 -0.20495655
1.0470544 1.0795844 0.54015154 0.006989952 -1.31719 -0.1402552 0.15632159 0.73482305
-0.4960704 -0.93671286 1.1586794 -0.14620866 0.795152 -1.3559718 0.62190646 -0.790195
0.80544585 -2.4114995 -0.7062578 -0.1224086 -0.9408951 0.27874354 -0.27381685 -0.2279089
-2.2187448 1.4069071 0.32481027 -1.196369 0.37759215 -0.7036604 0.7043392 -1.7604884
0.026178502 1.313536 -0.80969507 2.753737 0.44829983 -1.315641 0.5045286 -1.1912472
-0.3042 0.35131803 0.7479677 -0.50137043 -0.2722223 0.29374114 1.5788523 0.550506
0.6962851 0.23146245 0.32993564 1.8762689 0.19984455 -0.3598724 -1.2801974 -1.0960279
-0.6063367 -0.7809241 0.40586084 -1.718622 0.69302565 -0.48814783 -1.1054404 -0.047978163
-0.33674827 0.049570125 1.1231173 -1.1478052 1.1907258 0.68775535 0.20086516 1.3398501
0.37879035 0.014796433 -0.14947939 -1.1919371 -0.22525069 -0.34069398 0.54470545 -0.21662185
0.3371714 2.0366237 0.0032358412 2.6160505 0.82222426 0.18437944 -2.4064085 -0.30852392
-0.101234764 0.17716423 0.060939796 0.79306364 0.17875832 2.5654287 -1.9354886 -1.1918914
0.977947 0.86697894 1.9141892 3.1634443 1.6254648 1.3299772 1.5333704 -0.6487625
-0.33969402 1.0880036 -0.37300634 -2.5703392 1.364997 1.4629829 0.18459076 -0.76733387
-0.41156393 0.09970547 -1.8877417 -1.6372434 0.3224647 -1.8832796 -3.2858627 1.4285929

network.4.bias f4 [256]
00000000: 0e6c 01ba 4fd9 743c 7c42 b53c d4c2 86bc
00000010: 3213 053c 1556 04bd dd78 0f3d 0460 22bd
00000020: 3622 aabc 9f5b b83b f276 65bb 8857 343d
00000030: 7f51 043d 8718 043d 8e84 9f3b 2c85 46bc
00000040: c56a 87ba c096 133d 0def 693c 1da9 b73c
00000050: 3b1c 043d e0f5 3b3b 1949 463c d73e babc
00000060: 0f78 c7bb d082 0d3d 698e d6bc c297 143d
00000070: 59c7 0e3c bd30 01bd 7fe0 a4b9 59b2 2abd
00000080: c865 cd3c 6ad1 14bd 3585 19bd 3860 00bd
00000090: 1064 04bd 571a d3bc f351 bb3c ea91 163b
000000a0: 8922 4dbc 235b e0bc d721 2d3d 69a1 05bd
000000b0: fbac 13bd ef90 863c 20bf c4bb f5d1 1fbd
000000c0: 50cb 3a3c 4d73 053d 8eee 9d3c fe6a b83b
000000d0: c570 c93b dc81 1ebd 0deb f23c f9b9 b9bb
000000e0: 645b 0c3d 861b 8b3b c93e cbbc 2731 963c
000000f0: 1f7c 23bd 49b5 d0bb 154b fd3c 244f 2ebd
00000100: bf54 81bc 346f c73c b35f 80ba 4eb8 6e3c
00000110: d7f3 8fbc abe7 1a3d b531 a0bc 0352 ac38
00000120: 3616 15bd 3147 7c3c f1d4 b8bc 278f 0abb
00000130: 4787 19bd 96ef 313d 795a 00bd 4501 093b
00000140: 7375 09bd 7aff 073b 5dba f5bb f3e0 e23c
00000150: dd94 8f3c 18c5 af3a a92e 3d3c a169 103d
00000160: fcc7 493c 1314 79bc d4d8 b6bb 53fa b6bc
00000170: 133f f33c 359b 33bd a9a1 e1bb ad87 09bd
00000180: aaa8 2abd 43fa 61bb 28bc 03bd 26e7 513c
00000190: b512 8b3b 255c 0c3d 0056 5d3c a0f8 09bd
000001a0: b79f 1dbd a142 b8ba e2e8 00bd 8bc5 113c
000001b0: 824a 0b3d 4f73 efbc a7c0 1fbd 8383 e73c
000001c0: 58aa 71bc e6c8 05bc 7a9e 08bd eb41 013d
000001d0: 2f59 56bc d164 f1bb 27bd bebc 0ef7 323d
000001e0: f7bd b73c f3df f83b 157d 203d cbfe dfba
000001f0: 8082 333d 56d9 1cbc 1906 d1bc ab45 013c
00000200: 2775 9c3c de46 d6ba 9cb7 ec3c 4539 183d
00000210: e0bb 6d3c 97d3 093d d5d1 7dbc 7f03 68bb
00000220: 2585 e63c f1d6 013b 7077 cb3b e63d e0bc
00000230: 0fbf a73c 0f9b 333d 2d32 1bbd 3d0c 02bd
00000240: 6cf2 10bd 5045 ffb8 a65d 20bd fb5c 22bd
00000250: 01a8 0c3d b008 9bbb 2817 4b3b f9e0 273d
00000260: 31d1 dfbc 34b4 25bd bac2 29bd b438 173d
00000270: 1790 153d 8dc6 b7bc 85d2 c1bc de08 2e3c
00000280: be21 1bbb 9f2e 86bc 6500 68bb 6c03 0dbc
00000290: 703b 0ebd f192 253d ea0b 233d f971 3bbc
000002a0: 10d4 fb3b a3da 143d acb8 4ebc b094 1cbb
000002b0: ca50 2ebd 19e4 f2bc 5b36 0c3d 81bc 2b3d
000002c0: d915 a5bc a9c3 45bc faf9 f7bc 1fe4 a4b9
000002d0: c1af 95bc 943c 003d bbc5 a83c b3c6 bfbc
000002e0: 3a4d 3cbc 7354 f33c be95 1bba d1d8 093d
000002f0: 7f4f 483c 0052 f7bc 12c6 92bc 0534 053d
00000300: fa7e ac3c 92f6 073d f023 203d cd50 2c3d
00000310: 5653 a23b f140 333d 2c61 f5bc dc9b fabb
00000320: f7dc 22bc 5815 6a3c 9b8b 243d 1f13 b53b
00000330: e595 1a3c fc38 1ebd 3870 833b 635b bbbc
00000340: 30db 73bc 84ab fe3c ea8e 9fbc f8b9 8a3c
00000350: 0030 22bd ba7e 40bc 30a1 f03c feab b13b
00000360: 5e0c e4bb 2a99 fb3c e15a 31bc 60fe 263c
00000370: e74d 063d 6d4a 323d 5b12 18bd 2112 f63a
00000380: 371f e3bb 478a 233d c092 423c a27b 15bd
00000390: 5595 503c a2f2 783c 530d ddbc 9b65 7b3c
000003a0: dee4 12bd 629d 0f3d 8788 d4bc 2dfa a7bc
000003b0: 6922 24bd 298a 313d dfa5 5cbc cd9c 2abc
000003c0: 7cbf e0bc f1ce 12bd 98a4 1bbc 5e48 98bc
000003d0: 5b7b 07bd 707d 993c 0926 c13c 865d 2a3d
000003e0: 563e 1a3d 4f4a 29bd e3de 2bbd 35a9 36bb
000003f0: 2513 c33c 6a97 1a3d 8d5e fe3a 3fe1 20bd
-0.0004937061 0.0149443885 0.022126429 -0.016450323 0.008122252 -0.032308657 0.035027374 -0.03964235
-0.020768266 0.0056261565 -0.0035013524 0.04402879 0.032304283 0.032249954 0.0048680967 -0.012116712
-0.0010331502 0.03603244 0.014278186 0.022419507 0.032253485 0.0028680488 0.012102389 -0.022735042
-0.00608731 0.03454858 -0.026190953 0.03627754 0.00871452 -0.03154062 -0.0003144778 -0.04167399
0.025072947 -0.036332525 -0.03748055 -0.03134176 -0.03232199 -0.025769396 0.022866225 0.0022975155
-0.012520441 -0.027387207 0.0422686 -0.032624636 -0.03605364 0.016426532 -0.006004229 -0.03901859
0.011401013 0.032580663 0.01927879 0.005627989 0.0061474764 -0.038698062 0.029653097 -0.0056679216
0.034266844 0.0042452244 -0.024810212 0.018333985 -0.039913293 -0.006369267 0.030919591 -0.042555943
-0.01578748 0.024345018 -0.0009794146 0.014570309 -0.017572327 0.037818592 -0.019554952 8.216875e-05
-0.036398135 0.015397833 -0.022562476 -0.0021142454 -0.037482526 0.043441378 -0.03133628 0.0020905298
-0.033559274 0.002075164 -0.007499023 0.027695155 0.017527038 0.0013410179 0.011546769 0.035256986
0.012315746 -0.01520254 -0.005580047 -0.02233616 0.029693162 -0.04384919 -0.0068857265 -0.033576656
-0.041664757 -0.0034481443 -0.03216186 0.012811458 0.0042441734 0.034267563 0.0135092735 -0.033684373
-0.038482394 -0.0014057943 -0.031472094 0.008897196 0.034006603 -0.029229788 -0.039002087 0.028260952
-0.014750086 -0.008165574 -0.03335426 0.031557005 -0.013082786 -0.0073667546 -0.023283554 0.04369264
0.02242945 0.007595056 0.039181788 -0.0017089484 0.043825626 -0.009573301 -0.025515603 0.007890145
0.019098831 -0.0016348024 0.028896146 0.03716399 0.014510125 0.033649053 -0.015491922 -0.0035402474
0.02813966 0.0019811953 0.0062093064 -0.027373265 0.020476846 0.043849047 -0.03788965 -0.031749953
-0.03538744 -0.00012172258 -0.03915181 -0.039639454 0.03433991 -0.0047312602 0.0030989144 0.040986035
-0.02732143 -0.04045506 -0.04144547 0.03691931 0.036514368 -0.022433544 -0.023659954 0.010622231
-0.0023671235 -0.016379653 -0.0035400626 -0.008606773 -0.034724653 0.040423337 0.039806284 -0.011440747
0.007685192 0.03634132 -0.012617271 -0.0023892336 -0.042557515 -0.029649781 0.034231525 0.04192782
-0.02015202 -0.012070575 -0.030270565 -0.0003145048 -0.018272283 0.03130777 0.020602098 -0.023410177
-0.011493022 0.029703354 -0.0005935094 0.033654038 0.012225985 -0.030190468 -0.017916713 0.032520313
0.02105664 0.033194132 0.039096773 0.042069245 0.004953782 0.043763105 -0.029953562 -0.0076479744
-0.009940377 0.014287315 0.0401722 0.005525961 0.009435152 -0.038628563 0.0040111803 -0.022870725
-0.014883801 0.031087644 -0.019477326 0.01693438 -0.039596558 -0.011748964 0.029373735 0.0054221144
-0.006959482 0.030712683 -0.01082489 0.010192484 0.032789137 0.04352801 -0.03712688 0.0018773713
-0.0069312113 0.039926793 0.011875808 -0.03649486 0.012730916 0.015194567 -0.026983893 0.015344049
-0.035862796 0.0350622 -0.025944008 -0.020505035 -0.04007188 0.04334465 -0.013467281 -0.010413361
-0.027435057 -0.035841886 -0.009499691 -0.018589195 -0.033076625 0.018736571 0.023577707 0.041593097
0.037657104 -0.04133063 -0.04196061 -0.0027871851 0.02381284 0.037742056 0.001940684 -0.03927731
