models/NeuralNetwork-2_acc-53.24_loss-0.000001.pth (torch, 893391 bytes, 8 tensors)

network.0.weight f4 [423, 141]
0.0022353323 0.031334847 -0.043512706 0.03954996 0.044906694 -0.08811351 0.031304576 0.060246143
-0.024864972 -0.033154234 -0.0045357686 -0.1009955 -0.037027206 -0.032297894 -0.07497598 0.022303162
-0.0017024064 0.031428788 0.08584073 -0.060982093 0.033442542 -0.0413301 -0.047123864 -0.038822163
-0.0066958824 0.021117982 -0.021451643 -0.048108984 0.037494328 -0.18289992 -0.11178755 0.05910132
0.056875877 0.024260037 -0.042210814 0.046954114 0.04659148 -0.01800761 -0.045363627 -0.04309954
-0.11818322 0.04278634 0.023184063 0.044731844 -0.006631689 0.07171202 0.038420428 0.08922431
-0.03367871 0.039274354 0.08708766 0.01776713 -0.04050068 -0.009351045 0.01656192 0.10797054
-0.05317684 0.060389668 -0.0025636258 0.021646354 -0.103960946 0.04377523 0.0016870813 -0.13845159
-0.0816506 0.021062262 0.09046673 0.06579276 -0.039581336 0.046570934 0.05252238 -0.07613845
-0.0093793245 -0.052600555 -0.01805482 -0.029785775 0.102869384 0.019238215 0.0014369286 0.05809979
0.03864655 -0.01706343 0.04874992 -0.044071916 0.019464359 -0.058710687 0.09014138 -0.012528628
-0.009917336 -0.027635943 -0.013454345 0.09348904 -0.09746838 -0.046810836 -0.0011218721 -0.049661133
0.13526952 -0.004284205 -0.038135674 -0.053315725 0.012249022 0.04118918 -0.004547747 -0.07318802
-0.0010009665 -0.07603868 -0.004718492 0.018312898 -0.028590895 -0.07320118 -0.039134465 -0.063514926
0.09366538 0.035826795 -0.04564184 0.08513381 -0.03150774 0.09830017 -0.03545142 0.06462224
0.02873472 0.005764075 -0.016021188 -0.040225796 -0.021753704 -0.10592712 -0.002270972 -0.06497438
-0.060770243 0.06769196 0.0007545046 0.054025706 -0.026924059 0.019672865 0.04947574 -0.06344306
0.097541936 0.004862041 0.03195969 -0.005189116 -0.02158927 0.032022085 0.018920446 0.018655427
-0.022612043 0.019384352 -0.00585991 -0.03069516 0.012609275 0.020367688 0.004347895 -0.05065982
-0.08898272 -0.06148687 0.0073963893 0.00085553486 0.13626802 -0.031679243 0.010350078 0.012383089
0.11053492 -0.0683136 -0.085882306 -0.0052955435 -0.084602736 0.10550704 0.013557205 0.06422466
0.07437745 0.01841962 -0.102815606 -0.08345024 0.06842141 0.017442478 0.102578916 0.03915287
-0.003741725 0.0057450086 0.006063419 -0.06601179 0.036535513 0.0022688606 -0.07416424 -0.07345529
0.037028972 -0.016362157 0.0148121705 -0.030724067 -0.022400644 0.12951735 0.030308815 -0.014731264
0.022102034 -0.05339528 -0.056936704 -0.0068159713 0.09876422 -0.0036616384 0.09449133 0.02973914
0.17451225 -0.026804006 -0.070661135 0.035467543 0.020069506 -0.008071772 0.0583173 0.12898599
-0.03775263 0.043212034 0.028802115 -0.068983704 0.017102497 0.062279552 0.066227965 -0.10310294
0.056390155 -0.0069724037 0.04128321 0.06652172 0.043511186 0.05583753 -0.0011453223 -0.05459462
-0.08282057 0.07028666 -0.0020497614 0.0680835 -0.034778606 0.057830364 -0.056061663 0.053777374
0.012093374 -0.003772859 -0.0514793 -0.0018381297 0.09423944 -0.020592114 -0.07041475 0.03627752
-0.065084554 -0.02148027 0.019610446 0.07287907 -0.04254076 -0.05337691 0.06572317 -0.068603285
-0.05693024 -0.113847874 0.0092132315 0.055961415 0.008081264 -0.00050060253 0.08926835 -0.06613572
00000000: a77e 123b f858 003d 613a 32bd 24ff 213d
00000010: 15f0 373d db74 b4bd 3a39 003d a9c4 763d
00000020: a0b1 cbbc bccc 07bd c9a0 94bb bbd6 cebd
00000030: d7a9 17bd cc4a 04bd 028d 99bd 1fb5 b63c
00000040: 4823 dfba 79bb 003d 44cd af3d 5cc8 79bd
00000050: 0cfb 083d c049 29bd f404 41bd fd03 1fbd
00000060: 2269 dbbb 9eff ac3c 5bbb afbc ed0d 45bd
00000070: a793 193d 1e4a 3bbe dff0 e4bd 3a14 723d
00000080: aef6 683d fcbc c63c 3fe5 2cbd f552 403d
00000090: b5d6 3e3d b284 93bc 36cf 39bd 2589 30bd
000000a0: 0b0a f2bd bb40 2f3d 81ec bd3c bd38 373d
000000b0: a44e d9bb c0dd 923d bd5e 1d3d 3cbb b63d
000000c0: b0f2 09bd 25de 203d 045b b23d 5f8c 913c
000000d0: 0be4 25bd 2035 19bc ddac 873c a91f dd3d
000000e0: f5cf 59bd 285b 773d 8102 28bb b253 b13c
000000f0: 7ae9 d4bd a84d 333d 0e21 dd3a 41c6 0dbe
00000100: 6e38 a7bd c48a ac3c 9f46 b93d 5bbe 863d
00000110: 0a20 22bd 2ac1 3e3d b521 573d 7aee 9bbd
00000120: bdab 19bc ae73 57bd b4e7 93bc 4c01 f4bc
00000130: 2fad d23d 7699 9d3c 5357 bc3a 0cfa 6d3d
00000140: d84b 1e3d 9bc8 8bbc ffad 473d c184 34bd
00000150: b873 9f3c 9e7a 70bd 0b9c b83d e044 4dbc
00000160: 527c 22bc c664 e2bc 9d6f 5cbc 2f77 bf3d
00000170: 819d c7bd b8bc 3fbd c80b 93ba 7969 4bbd
00000180: 1884 0a3e 8462 8cbb 2734 1cbd 9761 5abd
00000190: 1fb0 483c fcb5 283d 4405 95bb 9ae3 95bd
000001a0: dd32 83ba 2bba 9bbd 949d 9abb ee04 963c
000001b0: 7437 eabc 80ea 95bd 764b 20bd 1d14 82bd
000001c0: a2d3 bf3d 1ebf 123d f0f2 3abd a35a ae3d
000001d0: 430e 01bd 9951 c93d 8235 11bd aa58 843d
000001e0: 1365 eb3c 91e0 bc3b de3e 83bc cec3 24bd
000001f0: d334 b2bc 51f0 d8bd 96d4 14bb 4a11 85bd
00000200: 38ea 78bd 15a2 8a3d f2c9 453a 0f4a 5d3d
00000210: d88f dcbc fd28 a13c 13a7 4a3d 6fee 81bd
00000220: 11c4 c73d c251 9f3b 2ae8 023d 7609 aabb
00000230: fbdb b0bc 9729 033d 0dff 9a3c 44d3 983c
00000240: e43c b9bc efcb 9e3c 7d04 c0bb 6b74 fbbc
00000250: 2297 4e3c 23da a63c c978 8e3b ac80 4fbd
00000260: 933c b6bd a8d9 7bbd 695d f23b f945 603a
00000270: d889 0b3e 18c2 01bd 6093 293c 71e2 4a3c
00000280: 2260 e23d 00e8 8bbd 10e3 afbd 3d86 adbb
00000290: 3344 adbd 1314 d83d 0a1f 5e3c 3888 833d
000002a0: 3453 983d bee4 963c fd90 d2bd f6e7 aabd
000002b0: 8620 8c3d 87e3 8e3c e514 d23d c35e 203d
000002c0: bb37 75bb a040 bc3b a5af c63b 3031 87bd
000002d0: 43a6 153d 2ab1 143b 6ce3 97bd ba6f 96bd
000002e0: b1ab 173d ee09 86bc bfae 723c 0ab1 fbbc
000002f0: 8e81 b7bc 32a0 043e 314a f83c 665b 71bc
00000300: 530f b53c 02b5 5abd 7636 69bd 8358 dfbb
00000310: e544 ca3d 19f8 6fbb ac84 c13d 7f9f f33c
00000320: 57b3 323e 1394 dbbc c9b6 90bd 6a46 113d
00000330: ce68 a43c 773f 04bc 1fde 6e3d e714 043e
00000340: 80a2 1abd 1aff 303d 6af2 eb3c 5447 8dbd
00000350: 891a 8c3c d818 7f3d 87a2 873d a227 d3bd
00000360: 5df9 663d c378 e4bb 9518 293d 8a3c 883d
00000370: c938 323d e5b5 643d a41e 96ba 9c9e 5fbd
00000380: d59d a9bd 74f2 8f3d 4a55 06bb 5d6f 8b3d
00000390: 0374 0ebd 88df 6c3d eaa0 65bd aa45 5c3d
000003a0: 4923 463c 1242 77bb f5db 52bd 66ed f0ba
000003b0: 9c00 c13d cbb0 a8bc 9c35 90bd bd97 143d
000003c0: 0d4b 85bd 64f7 afbc 16a6 a03c 9f41 953d
000003d0: 383f 2ebd bfa1 5abd df99 863d e17f 8cbd
000003e0: af2f 69bd 1329 e9bd 18f3 163c cc37 653d
000003f0: 4767 043c de3a 03ba 53d2 b63d 2a72 87bd

network.0.bias f4 [423]
-0.04443442 0.06384341 -0.06870613 -0.052741706 -0.0076636584 -0.17028953 0.016216416 -0.05386563
-0.006108561 -0.06007578 -0.07211312 -0.07355503 0.03499137 -0.08795904 0.03869975 0.018259984
-0.02338648 -0.03777737 -0.08917354 -0.12696253 0.017671207 -0.10029188 -0.053536624 -0.0143529065
-0.045738723 -0.0895374 -0.14608337 0.054749414 0.04330584 -0.08187907 -0.00304152 0.05393194
-0.08660339 -0.044249736 0.04687614 0.019135734 0.04095635 -0.029134102 -0.083529845 -0.06340277
-0.028820215 -0.0059896987 0.0014829683 0.014636429 -0.030977571 -0.07872044 -0.099947095 0.011055669
0.023171505 -0.01414595 -0.012885086 -0.08307675 -0.043897208 0.023772867 -0.05381833 0.028358752
-0.062948175 0.013426313 -0.029267633 -0.07794978 -0.06358347 -0.042442046 -0.05849597 0.0031950488
0.054036524 -0.1298566 -0.08717328 -0.0890812 -0.08294435 -0.03953607 -0.040288236 -0.07633049
-0.07332899 -0.11648656 -0.05300646 0.065619856 0.039980914 -0.039371043 -0.0656679 0.032957725
-0.02764105 -0.034435246 0.049690243 -0.032965172 0.05124818 -0.15269525 -0.019113004 -0.032754574
0.024278473 -0.037102323 0.0069355005 -0.006729873 -0.04730381 -0.010226253 -0.07064359 0.05436935
-0.0028295366 0.016170993 -0.10682577 -0.00019089424 -0.054319546 -0.041860245 0.01628507 -0.02025975
0.010233691 -0.018716661 -0.05302199 -0.05177646 0.0021072594 0.016604375 -0.066634744 -0.030157646
0.045216028 0.00013025127 0.004981049 -0.014817425 -0.074005626 -0.0035016413 0.0028307 -0.004028247
-0.117529504 -0.081680804 -0.14612171 -0.06432925 -0.0027946462 -0.09075159 -0.04475325 -0.13295467
-0.057540577 -0.05266061 -0.015528591 -0.0906801 -0.12115257 -0.0033716245 -0.10677496 -0.08030541
-0.0092181 -0.043572098 -0.1238426 -0.018215524 0.046846613 0.014091946 -0.09949571 0.04736617
-0.050932776 -0.060027402 -0.026470276 -0.08272234 -0.1336685 -0.05320489 0.04752733 -0.02674593
-0.00132609 -0.010197454 0.023622429 -0.067930706 0.06587352 -0.051547583 -0.0525899 0.023140969
-0.015175505 -0.09412381 -0.09585283 -0.056344602 0.016923351 0.054151006 -0.03560838 -0.17227092
-0.09643863 0.012368108 0.01123631 -0.01075401 -0.008015162 -0.031128893 -0.02476749 -0.11853842
-0.07752356 0.027946703 -0.007470978 -0.021919303 0.05905829 -0.00030128763 -0.112183765 -0.016921928
0.057152633 -0.08198322 0.044046868 -0.0077447244 -0.073238656 -0.08689426 -0.08175876 -0.06823896
-0.094457895 -0.10873832 -0.08283841 0.05835153 -0.03863765 -0.07657484 -0.10292612 -0.0022819922
-0.11157276 0.03666553 -0.09530816 -0.13746583 -0.102340154 -0.02886769 -0.010544811 -0.05949008
0.022636514 -0.011041676 -0.097464025 -0.116021454 -0.073961064 -0.06405945 0.02287159 -0.13719206
-0.0008396582 -0.030579813 -0.10075175 -0.0026218737 0.02750374 -0.08927417 -0.09532739 -0.046059735
-0.10132017 -0.036716286 -0.059816476 0.027246928 -0.053320456 -0.01104975 0.014730972 0.0104359435
-0.076935455 -0.0017849775 0.0060150544 -0.05332609 -0.12979689 0.05456343 0.02241845 -0.1611061
-0.07109987 -0.07130506 -0.08683556 0.00036099434 0.055179898 -0.03448623 -0.032014728 -0.15391496
0.025299344 -0.039243847 -0.13332865 -0.08695274 -0.018864544 -0.0035040865 -0.05193045 -0.10813083
00000000: de00 36bd 55c0 823d cdb5 8cbd b007 58bd
00000010: 6d1f fbbb 6160 2ebe 4ad8 843c 35a2 5cbd
00000020: 532a c8bb 0512 76bd 0bb0 93bd 05a4 96bd
00000030: 1c53 0f3d df23 b4bd a183 1e3d f695 953c
00000040: 0195 bfbc 72bc 1abd 9ea0 b6bd 7702 02be
00000050: 35c3 903c d465 cdbd 3849 5bbd 7428 6bbc
00000060: 8758 3bbd 625f b7bd e196 15be ec40 603d
00000070: 7761 313d 37b0 a7bd 3d54 47bb bde7 5c3d
00000080: 1e5d b1bd 363f 35bd 3201 403d 8bc2 9c3c
00000090: d8c1 273d a4aa eebc b211 abbd 50d9 81bd
000000a0: 5f18 ecbc 3c45 c4bb 2960 c23a a2cd 6f3c
000000b0: adc4 fdbc 2f38 a1bd 10b1 ccbd d622 353c
000000c0: 2bd2 bd3c 6ac4 67bc f81b 53bc 2524 aabd
000000d0: 8fcd 33bd 51bf c23c 9c70 5cbd 9d50 e83c
000000e0: f9ea 80bd 0afa 5b3c adc2 efbc 22a4 9fbd
000000f0: 0d38 82bd b6d7 2dbd 7899 6fbd 0664 513b
00000100: 6755 5d3d 21f9 04be e887 b2bd 3470 b6bd
00000110: bade a9bd 93f0 21bd 4705 25bd 2953 9cbd
00000120: 822d 96bd 8190 eebd 4d1d 59bd b463 863d
00000130: 07c3 233d 8843 21bd e47c 86bd aefe 063d
00000140: 7c6f e2bc f90b 0dbd ff87 4b3d 7d06 07bd
00000150: 9de9 513d 255c 1cbe e092 9cbc a929 06bd
00000160: a6e3 c63c 9bf8 17bd 3243 e33b 4486 dcbb
00000170: a4c1 41bd 048c 27bc 96ad 90bd 65b2 5e3d
00000180: bf6f 39bb 0879 843c 78c7 dabd c82a 48b9
00000190: 2c7e 5ebd a675 2bbd 4468 853c c6f7 a5bc
000001a0: 36ab 273c af53 99bc 962d 59bd 8e13 54bd
000001b0: f219 0a3b e605 883c cc77 88bd 2b0d f7bc
000001c0: 7134 393d 0f94 0839 1138 a33b c9c4 72bc
000001d0: 4390 97bd cb7b 65bb 4483 393b 63ff 83bb
000001e0: 4fb3 f0bd 4448 a7bd eea0 15be 0ebf 83bd
000001f0: 6226 37bb f8db b9bd 2f4f 37bd 4525 08be
00000200: abaf 6bbd a7b2 57bd a26b 7ebc 7db6 b9bd
00000210: d71e f8bd 79f6 5cbb d5ac dabd 2a77 a4bd
00000220: 8407 17bc a878 32bd 30a1 fdbd b938 95bc
00000230: 3ce2 3f3d e8e1 663c 68c4 cbbd 0703 423d
00000240: e39e 50bd 4bdf 75bd 31d8 d8bc 556a a9bd
00000250: 65e0 08be 5fed 59bd 05ac 423d 481a dbbc
00000260: 32d0 adba 3913 27bc d383 c13c 411f 8bbd
00000270: b2e8 863d 8f23 53bd 8268 57bd 2192 bd3c
00000280: aea2 78bc fcc3 c0bd 7d4e c4bd 99c9 66bd
00000290: d7a2 8a3c 72cd 5d3d 18da 11bd ca67 30be
000002a0: 9e81 c5bd 9ba3 4a3c 8018 383c 9631 30bc
000002b0: 0752 03bc 0502 ffbc 31e5 cabc 45c4 f2bd
000002c0: acc4 9ebd 7cf0 e43c 1bcf f4bb 1c90 b3bc
000002d0: 1be7 713d 24f6 9db9 9ac0 e5bd db9f 8abc
000002e0: e118 6a3d d2e6 a7bd 7d6a 343d 75c7 fdbb
000002f0: 26fe 95bd 9ef5 b1bd 2371 a7bd dec0 8bbd
00000300: 2473 c1bd 32b2 debd 2fa7 a9bd 0402 6f3d
00000310: 8342 1ebd 45d3 9cbd eeca d2bd 7a8d 15bb
00000320: 4280 e4bd 982e 163d ed30 c3bd d8c3 0cbe
00000330: b797 d1bd ef7b ecbc 25c4 2cbc dfab 73bd
00000340: 3670 b93c 25e8 34bc 389b c7bd a89c edbd
00000350: e678 97bd 9a31 83bd 335d bb3c 137c 0cbe
00000360: 821c 5cba 8482 fabc ef56 cebd bed3 2bbb
00000370: 864f e13c 60d5 b6bd 023b c3bd 22a9 3cbd
00000380: f380 cfbd d163 16bd 1f02 75bd f334 df3c
00000390: 8d66 5abd 030a 35bc 2d5a 713c 85fb 2a3c
000003a0: 5690 9dbd e8f5 e9ba ef19 c53b 756c 5abd
000003b0: 7ae9 04be e77d 5f3d e6a6 b73c fff8 24be
000003c0: cf9c 91bd 6308 92bd d8d6 b1bd d743 bd39
000003d0: 5104 623d 6f41 0dbd e021 03bd e29b 1dbe
000003e0: 9240 cf3c 28be 20bd 4e87 08be 4714 b2bd
000003f0: d189 9abc d1a4 65bb 06b5 54bd b273 ddbd

network.3.weight f4 [282, 423]
-0.021444844 -0.02376948 0.026169045 -0.003824401 -0.02068463 0.02862467 0.06420938 0.041737236
0.024129428 -0.0037952051 0.061857846 0.04776743 -0.038038272 0.050765757 -0.038986135 -0.025232105
0.017589614 0.01248124 -0.09173482 0.012519002 0.025029102 0.03241158 0.03292885 0.0038152386
0.050329547 0.015371231 0.02234203 0.04000559 -0.06459439 -0.06091389 0.0666101 0.019914305
0.016374206 0.02078323 0.0041782022 -0.01720339 0.016319176 0.02802685 0.041678734 -0.008156065
0.036861964 0.062330198 -0.017430622 0.10049058 -0.044548366 -0.06608717 -0.053723544 -0.026961436
0.013717382 -0.005928491 -0.016463676 -0.014814995 0.024919894 0.052103195 0.033977922 -0.017705336
0.017154548 -0.08978651 0.052593704 0.08538935 -0.043987103 0.0057812207 0.0026874766 -0.047251403
-0.013366884 -0.011067663 -0.053820062 -0.02646664 -0.02837762 -0.04544986 -0.005035052 0.05317418
0.018635679 -0.017499238 -0.0066733574 -0.007652711 -0.056528434 0.004696652 0.018742787 -0.00044407768
-0.05013478 0.036294106 0.030984199 -0.059064813 -0.023245012 0.017411374 -0.013836099 0.053056903
-0.029494604 0.018700602 0.00038424798 0.06336833 0.023233503 0.029141055 -0.027476033 -0.007996202
0.00357446 -0.0472249 0.03411495 -0.0032741798 -0.01767612 0.017741099 0.0110623045 0.0021650917
0.00806127 0.017296849 -0.0065519046 -0.011170064 -0.028254889 0.031411104 0.028090497 -0.022015952
-0.046072904 -0.06631839 0.05132035 0.02829829 0.04062364 -0.00021234319 0.001203427 -0.007427658
-0.009750651 0.045441113 -0.015302712 0.04073936 -0.027969819 -0.043171715 0.054897793 0.057241537
0.00751801 0.0257081 0.01673321 0.060535852 -0.11442382 -0.031255722 -0.051687732 -0.022364387
-0.018857589 -0.07320027 -0.027882064 0.009422176 0.028720899 -0.027724719 -0.024771465 0.072618686
-0.026356667 -0.0058926567 0.0025567787 -0.053307295 -0.046576854 0.08034198 -0.03264866 0.030681247
-0.0012380473 0.031860877 0.0017189739 -0.052401744 -0.03280435 -0.059091706 0.0021407134 -0.037586533
-0.055862978 -0.004950056 0.010856823 0.019146001 -0.059684984 0.035246562 -0.031503323 0.038836617
0.0027613263 -0.015478592 -0.0063333707 -0.0052753217 -0.034360312 -0.0010215959 0.009948339 0.07421894
-0.025792588 -0.010559413 -0.03972947 -0.019581389 0.01977138 0.05508512 0.063950844 -0.009226866
-0.008045557 0.026923109 0.062999554 -0.017904123 -0.004293506 -0.01512592 0.017304199 0.018593965
-0.017987028 0.047309645 -0.009509145 0.02780593 -0.09085728 -0.03854058 -0.06107365 0.054097213
0.037768815 0.013898939 0.047011036 -0.03639585 0.03415127 0.025524374 0.030397706 0.0076182177
-0.053869974 0.007975072 -0.00030592934 -0.08059491 -0.0086125145 0.008745543 0.026158879 -0.0108911665
0.035983134 0.010779561 0.07247278 0.014657968 0.041948833 0.043863267 -0.009588341 0.06877766
-0.02535197 -0.00326159 0.026951581 0.058974367 -0.000513304 0.054737814 0.020147309 0.0039111786
0.0619197 0.02986605 0.0005409327 0.06604948 0.050519377 0.028710581 0.004921543 0.044941474
-0.07458098 -0.04415337 -0.067866035 0.027639126 0.05445692 0.03688585 0.019247942 0.023330994
-0.027598059 0.013639879 -0.02976277 -0.07267941 -0.013973384 0.016648222 0.057721496 0.026604362
00000000: 19ad afbc 36b8 c2bc 7760 d63c cda2 7abb
00000010: d072 a9bc 497e ea3c 3580 833d aaf4 2a3d
00000020: 14ab c53c fab8 78bb a75e 7d3d c8a7 433d
00000030: 05ce 1bbd c1ef 4f3d edaf 1fbd 8fb3 cebc
00000040: 1818 903c 1d7e 4c3c 77df bbbd 801c 4d3c
00000050: d509 cd3c 01c2 043d 67e0 063d 1509 7a3b
00000060: 5b26 4e3d 9ed7 7b3c a206 b73c e7dc 233d
00000070: 104a 84bd d880 79bd e06a 883d 5323 a33c
00000080: 3323 863c 9841 aa3c 4de9 883b 20ee 8cbc
00000090: cbaf 853c 9198 e53c 52b7 2a3d 04a1 05bc
000000a0: 92fc 163d f34d 7f3d aaca 8ebc 01ce cd3d
000000b0: 5978 36bd b658 87bd 380d 5cbd 3bde dcbc
000000c0: dfbe 603c c943 c2bb d5de 86bc 98ba 72bc
000000d0: ce24 cc3c 296a 553d 6f2c 0b3d c80a 91bc
000000e0: b287 8c3c fde1 b7bd 7f6c 573d 9de0 ae3d
000000f0: d22b 34bd 6570 bd3b 6020 303b b08a 41bd
00000100: c600 5bbc 2555 35bc 6d72 5cbd 91d0 d8bc
00000110: 2f78 e8bc a229 3abd 14fd a4bb 2bcd 593d
00000120: daa9 983c 905a 8fbc 2eac dabb 98c3 fabb
00000130: 5c8a 67bd 5fe6 993b 798a 993c 19d3 e8b9
00000140: 215a 4dbd 21a9 143d 93d2 fd3c f2ed 71bd
00000150: 536c bebc 4ca2 8e3c ceb0 62bc 3252 593d
00000160: ab9e f1bc 0132 993c e474 c939 41c7 813d
00000170: 3054 be3c 39b9 ee3c 6b15 e1bc 8102 03bc
00000180: 7d41 6a3b e66e 41bd 1ebc 0b3d 9f93 56bb
00000190: 83cd 90bc c855 913c ab3e 353c 36e4 0d3b
000001a0: 6b13 043c 1fb2 8d3c 5cb1 d6bb a502 37bc
000001b0: cc76 e7bc eea8 003d 0b1e e63c cc5a b4bc
000001c0: f1b6 3cbd f0d1 87bd 4a35 523d d1d1 e73c
000001d0: f964 263d 71a8 5eb9 4fbc 9d3a b663 f3bb
000001e0: 32c1 1fbc 7620 3a3d 3ab8 7abc 51de 263d
000001f0: f620 e5bc d3d4 30bd 82dc 603d 1a76 6a3d
00000200: a459 f63b cb99 d23c 1614 893c 71f4 773d
00000210: 0957 eabd 0006 00bd 84b6 53bd 8535 b7bc
00000220: 3b7b 9abc 06ea 95bd ed68 e4bc 785f 1a3c
00000230: 1748 eb3c f31e e3bc 87ed cabc 1bb9 943d
00000240: f0e9 d7bc 3017 c1bb a18f 273b c058 5abd
00000250: 5fc7 3ebd 568a a43d 9aba 05bd 3d57 fb3c
00000260: f945 a2ba 8d80 023d 314f e13a 36a3 56bd
00000270: db5d 06bd 250a 72bd 364b 0c3b 56f4 19bd
00000280: 94d0 64bd 1434 a2bb d1e0 313c 13d8 9c3c
00000290: 3e78 74bd b35e 103d a109 01bd 2513 1f3d
000002a0: 5ef7 343b ec99 7dbc 2a88 cfbb 9bdc acbb
000002b0: 66bd 0cbd 12e7 85ba 5cfe 223c 1a00 983d
000002c0: fa4a d3bc 6301 2dbc 5ebb 22bd 2669 a0bc
000002d0: 97f7 a13c efa0 613d a9f8 823d 482c 17bc
000002e0: 83d1 03bc da8d dc3c e905 813d abab 92bc
000002f0: 8ab0 8cbb b5d2 77bc 89c1 8d3c 5f52 983c
00000300: 8859 93bc c2c7 413d 3fcc 1bbc 43c9 e33c
00000310: 6213 babd badc 1dbd 5d28 7abd 0a95 5d3d
00000320: 79b3 1a3d 60b8 633c a58e 403d d113 15bd
00000330: 34e2 0b3d 7e18 d13c 9c04 f93c 3ea2 f93b
00000340: c3a6 5cbd e0a9 023c 2465 a0b9 f20e a5bd
00000350: 811b 0dbc 7749 0f3c 254b d63c dd70 32bc
00000360: 0d63 133d c19c 303c 9c6c 943d f927 703c
00000370: 8ad2 2b3d f8a9 333d 6b18 1dbc 4ddb 8c3d
00000380: efae cfbc 66c0 55bb 90c9 dc3c 1b8f 713d
00000390: 408f 06ba c234 603d f80b a53c 5829 803b
000003a0: 839f 7d3d a6a9 f43c 61cd 0d3a f344 873d
000003b0: 68ed 4e3d 7432 eb3c e544 a13b 8d14 383d
000003c0: eabd 98bd 2ada 34bd 59fd 8abd 736b e23c
000003d0: 380e 5f3d 9e15 173d dcad 9d3c a420 bf3c
000003e0: 5315 e2bc cd79 5f3c 0dd1 f3bc f1d8 94bd
000003f0: 9ff0 64bc da61 883c 606d 6c3d 64f1 d93c

network.3.bias f4 [282]
0.027908163 0.024291936 -0.016895551 0.019637799 0.02235704 0.012357418 -0.039155316 -0.009748494
0.047215734 0.035889074 -0.040239815 -0.02418846 0.044452123 -0.014216021 0.00037612137 0.036419567
-0.04561268 0.011686703 0.078027464 -0.00031314747 -0.029169828 -0.013027337 0.018706806 -0.039099354
-0.006553899 -0.008844084 0.023262724 -0.00047684452 0.000678512 0.026027596 -0.018021611 0.0063348645
0.013200996 0.0076136566 0.0008906121 0.006147232 0.06603846 0.0031137904 -0.0147516355 -0.019729951
-0.0031597975 0.017650027 0.044778872 0.06696171 -0.01113984 0.010415117 0.0041612685 0.04403366
0.023780495 0.026654836 -0.012413804 0.019791318 0.0038089168 0.03850721 -0.009664333 0.02121618
0.05007248 0.020590639 0.042284966 -0.029876003 0.013557573 0.022237852 -0.01556035 0.0041221855
-0.04472337 -0.018176615 0.015928695 -0.00031409878 0.008769863 0.007374233 -0.02327881 0.030110877
0.0049725333 -0.045957725 0.02856618 0.04448027 0.05580994 -0.042912338 0.005103424 -0.011529647
0.030945022 -0.018882979 0.06984601 -0.016726706 -0.015551826 -0.06870068 0.02002377 -0.0048805345
-0.039884187 0.023371913 -0.03509789 -0.026377631 0.007171343 0.026526753 0.014627967 -0.04794783
0.04640921 -0.029247778 0.00472603 -0.039351102 -0.042421 0.064124905 0.029268019 0.035636846
0.020489724 0.049785793 0.032110643 0.03052646 -0.028333273 0.030824587 -0.015347207 0.013479073
0.033641245 -0.01130054 0.0021002972 0.024216523 0.030081997 -0.027767021 0.045882516 -0.004471745
0.04993241 0.020603236 -0.016972205 -0.006082637 -0.013141884 0.038024332 -0.045460276 -0.021936262
0.0033125842 0.0059513133 0.023355858 0.02810982 -0.0019183168 -0.041707635 -0.005431453 0.043472394
0.026292356 -0.043692503 0.02252887 0.077287234 0.013642969 0.0020757504 0.038804542 0.009231946
-0.04265856 -0.007928122 -0.017479641 0.007732492 0.080836676 0.0051154154 0.06244903 -0.011924208
0.0474492 0.0020747203 0.039453197 -0.017366402 0.051514134 0.008457241 0.031758815 0.074909106
0.07579881 -0.015208152 0.041480295 0.023354111 0.051417746 0.0045381533 0.07106595 -0.03550423
-0.019310938 -0.06662561 -0.02763115 -0.00441393 0.022380488 -0.021378428 0.046403144 -0.005692714
0.034853622 0.0028144394 -0.018978095 -0.054059453 -0.04850099 0.013260472 0.051819883 0.051779803
0.0055495184 -0.05628523 -0.015524405 -0.014234252 -0.026432645 0.038666636 0.0352521 0.011129846
0.00613709 -0.04105044 0.024029706 0.012874689 -0.03761355 -0.015509933 -0.010599336 0.053131793
0.021007368 -0.020952689 0.017992845 0.016818263 -0.052490093 -0.021946551 0.008219216 0.00034466456
-0.0039220694 -0.011192206 0.0046414663 -0.016964234 -0.034408066 -0.026157413 -0.054811995 -0.01912517
0.058852915 -0.0022224877 -0.03208466 0.03842405 -0.015356063 0.02427128 0.012792753 0.04807973
-0.016249567 0.022917889 0.047314 0.007781254 0.04858179 0.032792248 -0.023072394 -0.009141885
-0.015132733 0.08083 -0.046583764 -0.010028663 -0.023269678 0.020646727 -0.024538334 0.040455557
-0.0025590858 0.024201306 -0.047212504 0.023291122 0.037989113 -0.005415053 -0.011881843 -0.059204724
0.047789913 -0.02230778 0.043973226 0.0004369293 0.05129792 0.042552304 -0.013423738 0.016863372
00000000: a99f e43c e2ff c63c 8a68 8abc 73df a03c
00000010: 1c26 b73c c576 4a3c 5361 20bd 26b8 1fbc
00000020: 4965 413d 6c00 133d 81d2 24bd e126 c6bc
00000030: 6e13 363d 50ea 68bc 2832 c539 af2c 153d
00000040: 5dd4 3abd 9679 3f3c ddcc 9f3d f12d a4b9
00000050: 90f5 eebc 9d70 55bc 043f 993c a526 20bd
00000060: 17c2 d6bb c7e6 10bc 7891 be3c fd00 fab9
00000070: 2bde 313a d337 d53c 0fa2 93bc b294 cf3b
00000080: fe48 583c fb7b f93b f777 693a b86e c93b
00000090: 2c3f 873d bc10 4c3b d8b0 71bc b5a0 a1bc
000000a0: 9b14 4fbb ca96 903c 0d6a 373d 3923 893d
000000b0: e083 36bc 2ba4 2a3c 405b 883b a45c 343d
000000c0: 50cf c23c 3e5b da3c 4563 4bbc 6721 a23c
000000d0: 059f 793b bcb9 1d3d 2757 1ebc 8ecd ad3c
000000e0: cd18 4d3d b3ad a83c 0033 2d3d 85be f4bc
000000f0: 9520 5e3c 282c b63c d7f0 7ebc 6613 873b
00000100: da2f 37bd 20e7 94bc e57c 823c a0ad a4b9
00000110: 79af 0f3c 8da3 f13b 34b3 bebc 16ab f63c
00000120: a2f0 a23b 2b3e 3cbd 9f03 ea3c f230 363d
00000130: f798 643d d9c4 2fbd a03a a73b d8e6 3cbc
00000140: 6a80 fd3c 7ab0 9abc 6d0b 8f3d 7206 89bc
00000150: 16cd 7ebc f1b2 8cbd e408 a43c e4ec 9fbb
00000160: 9a5d 23bd 7476 bf3c cec2 0fbd e715 d8bc
00000170: 96fd ea3b a24e d93c 24aa 6f3c f264 44bd
00000180: 9517 3e3d 0999 efbc d0dc 9a3b 9f2e 21bd
00000190: a4c1 2dbd eb53 833d 7cc3 ef3c f1f7 113d
000001a0: 11da a73c 30ec 4b3d 7386 033d a012 fa3c
000001b0: 2e1b e8bc d883 fc3c da72 7bbc 54d7 5c3c
000001c0: 67cb 093d e625 39bc 24a5 093b bb61 c63c
000001d0: 856e f63c aa77 e3bc 4eef 3b3d b787 92bb
000001e0: ed85 4c3d 1ec8 a83c 4b09 8bbc db50 c7bb
000001f0: 0e51 57bc 67bf 1b3d 8e34 3abd adb3 b3bc
00000200: f117 593b 3c03 c33b c954 bf3c 9146 e63c
00000210: 0870 fbba a0d5 2abd 55fa b1bb 1c10 323d
00000220: 1163 d73c e9f6 32bd 778e b83c c548 9e3d
00000230: c286 5f3c 5009 083b 83f1 1e3d 9741 173c
00000240: beba 2ebd f4e4 01bc 7731 8fbc d860 fd3b
00000250: b38d a53d 379f a73b 8eca 7f3d c15d 43bc
00000260: 185a 423d 08f8 073b ad99 213d fc43 8ebc
00000270: 7c00 533d 3d90 0a3c 8815 023d f269 993d
00000280: 683c 9b3d 9d2b 79bc 3ee7 293d 1f51 bf3c
00000290: 6a9b 523d cab4 943b 068b 913d e26c 11bd
000002a0: f931 9ebc 0273 88bd b95a e2bc baa2 90bb
000002b0: 4957 b73c d021 afbc 3911 3e3d f289 babb
000002c0: acc2 0e3d 7572 383b f377 9bbc 726d 5dbd
000002d0: f9a8 46bd 7342 593c 1641 543d 0f17 543d
000002e0: bcd8 b53b 578b 66bd 135a 7ebc c836 69bc
000002f0: 4689 d8bc e860 1e3d 8264 103d f559 363c
00000300: a419 c93b 8224 28bd f2d9 c43c 5cf0 523c
00000310: aa10 1abd 601d 7ebc d6a8 2dbc b9a0 593d
00000320: a517 ac3c f9a4 abbc bb65 933c 74c6 893c
00000330: daff 56bd 41c9 b3bc e4a9 063c 18b4 b439
00000340: b484 80bb 845f 37bc 7117 983b 94f8 8abc
00000350: 79ef 0cbd 1248 d6bc 8b82 60bd 63ac 9cbc
00000360: c10f 713d 28a7 11bb 346b 03bd 8962 1d3d
00000370: ff97 7bbc 90d4 c63c b298 513c 40ef 443d
00000380: d01d 85bc 4cbe bb3c 53cc 413d e4f9 fe3b
00000390: b3fd 463d 2a51 063d 5102 bdbc d8c7 15bc
000003a0: 48ef 77bc 338a a53d 9ece 3ebd 434f 24bc
000003b0: 0da0 bebc 5323 a93c 9e04 c9bc bab4 253d
000003c0: 56b6 27bb d141 c63c e661 41bd 06cd be3c
000003d0: 799a 1b3d c270 b1bb 10ac 42bc a780 72bd
000003e0: 5bbf 433d cebe b6bc 451d 343d a813 e539
000003f0: c51d 523d 534b 2e3d 3def 5bbc 0e25 8a3c

network.6.weight f4 [141, 282]
0.010384426 -0.034643393 0.034424916 0.029516822 0.09353431 0.03157766 -0.034276992 0.049350772
0.017885653 -0.022807736 0.06224625 -0.027990952 -0.05810983 0.00071595696 0.062052004 0.028176822
0.03452344 -0.1411762 -0.066094905 -0.027163753 0.040471997 0.033241794 0.099325515 0.0135587035
-0.033587698 0.11881048 -0.05421783 0.08984535 0.030201526 0.07180787 0.055056088 -0.06707897
0.04318284 -0.038351342 0.1476211 -0.05007083 0.016511206 0.042105034 0.025110077 0.009752238
-0.03787709 0.009836017 -0.075823255 -0.024481514 0.05847241 0.022940192 0.0019940813 0.03910233
0.02369823 -0.023680711 0.055946767 0.0376013 0.078997284 0.03938953 -0.03789698 -0.023767574
-0.012318237 0.024561951 -0.05297693 0.0030426148 0.09578474 -0.04579823 0.0023432372 0.010487491
-0.026143873 -0.02434019 -0.10591882 -0.026770258 0.071471885 -0.014324673 0.04540965 -0.03875282
-0.013891146 -0.055693217 -0.0957244 -0.0036488052 -0.051889572 -0.057151057 0.025059069 0.018578399
0.08633148 -0.028489722 -0.010888036 0.05290614 0.03215717 0.05247905 0.03390417 0.088770986
0.05728119 0.050254792 0.0035210287 0.091041744 0.04979662 -0.042860948 -0.019609496 0.08357069
-0.09382525 0.033391237 -0.020312238 0.09211349 0.07650778 0.053155743 0.05678043 -0.044568416
0.036966514 -0.017574642 -0.048886675 0.0056469976 -0.033239044 0.04416189 0.04857834 0.06677925
0.045240507 0.052286476 0.019264847 0.071815416 0.10040436 0.04731209 -0.035760835 0.017144198
-0.01175244 0.02927488 0.0006468957 -0.021908328 0.04578211 -0.03022457 0.04226223 -0.06563613
0.05370549 0.008374624 0.039434068 -0.06705927 0.025867995 0.05373692 0.03454632 0.01235655
0.008571167 0.024370221 0.055878315 -0.11486095 -5.5854375e-06 -0.00848423 -0.050419584 -0.03172418
0.11079741 1.3516069e-05 -0.005762724 0.030341662 -0.05283998 0.100149825 -0.043388046 0.029589847
0.0162703 -0.030780656 -0.033656765 0.0102955215 0.011799157 -0.062803864 -0.021988189 -0.06533595
0.06108678 0.07768981 0.010857168 0.1044882 -0.047681846 0.028018298 -0.091293305 0.006448731
0.039708395 0.0045600054 -0.045257755 0.06330242 0.026001943 0.03249075 -0.032153834 -0.03563562
0.034508605 -0.09251358 0.011028152 0.06519413 -0.028998021 0.024859903 0.11829894 -0.031846013
0.02759114 0.024795022 0.04724508 -0.023605065 0.06205241 -0.070224084 0.053105924 -0.08901624
0.04956115 -0.057300467 -0.05470327 0.047463782 0.0326686 0.010684787 -0.1006907 -0.091839366
0.06652545 0.05485289 0.05616928 -0.055048186 0.08739918 0.028569972 -0.0383686 -0.0016527442
0.009850523 -0.011141743 0.094128385 -0.10863835 0.032444846 0.0040738364 -0.015035213 -0.080539316
-0.0936371 -0.057994757 0.032962076 -0.011442691 0.033055104 0.033885196 0.042157162 0.029989744
0.064222306 -0.10238703 0.05971954 -0.013769455 -0.012067408 -0.008261037 0.051458642 -0.06008354
0.10681078 -0.07875062 0.048608497 -0.06573858 -0.008490423 0.083683856 -0.039324943 -0.0073473044
-0.05819874 0.02895841 0.023944272 -0.00896007 0.019050606 -0.0665708 -0.051880185 0.08471382
-0.04264477 0.08088618 0.073077925 0.07389925 -0.04643507 0.030541886 0.035696696 0.09300408
00000000: 7123 2a3c 3be6 0dbd 2401 0d3d 43cd f13c
00000010: eb8e bf3d 9457 013d 0866 0cbd 0924 4a3d
00000020: ef84 923c 4ad7 babc edf5 7e3d 484d e5bc
00000030: 9304 6ebd 0faf 3b3a 3e2a 7e3d 14d3 e63c
00000040: 7368 0d3d 7e90 10be c45c 87bd 8586 debc
00000050: f7c5 253d 8c28 083d 2d6b cb3d 5325 5e3c
00000060: 4193 09bd e952 f33d 8413 5ebd d700 b83d
00000070: 3169 f73c 0110 933d 7e82 613d b360 89bd
00000080: 7de0 303d 4c16 1dbd fc29 173e 1217 4dbd
00000090: 8242 873c 5476 2c3d a6b3 cd3c dac7 1f3c
000000a0: 0225 1bbd 3f27 213c 3949 9bbd 758d c8bc
000000b0: c480 6f3d 12ed bb3c 22af 023b c429 203d
000000c0: ca22 c23c 0dfe c1bc 7028 653d d203 1a3d
000000d0: 54c9 a13d ea56 213d dd39 1bbd 37b4 c2bc
000000e0: 6ed2 49bc 2536 c93c 56fe 58bd 9b66 473b
000000f0: ca2a c43d ed96 3bbd ff90 193b bad3 2b3c
00000100: ad2b d6bc 1465 c7bc f7eb d8bd 4d4d dbbc
00000110: da5f 923d 09b2 6abc 78ff 393d 47bb 1ebd
00000120: b097 63bc 921e 64bd 270b c4bd cb20 6fbb
00000130: 298a 54bd 3a17 6abd ad48 cd3c ba31 983c
00000140: 8fce b03d 4763 e9bc bc63 32bc 1cb4 583d
00000150: 3db7 033d 46f4 563d 19df 0a3d 90cd b53d
00000160: ae9f 6a3d f8d7 4d3d 0fc1 663b 1874 ba3d
00000170: 8af7 4b3d f68e 2fbd 18a4 a0bc 1c27 ab3d
00000180: 7427 c0bd 40c5 083d da65 a6bc ffa5 bc3d
00000190: 1cb0 9c3d d6b9 593d 9992 683d 5f8d 36bd
000001a0: 336a 173d b2f8 8fbc 653d 48bd 730a b93b
000001b0: aa25 08bd 19e3 343d 15fa 463d 8fc3 883d
000001c0: 1c4e 393d 582a 563d 50d1 9d3c f613 933d
000001d0: cda0 cd3d 52ca 413d f479 12bd fd71 8c3c
000001e0: 4e8d 40bc e0d1 ef3c 7094 293a 1879 b3bc
000001f0: 0686 3b3d 8499 f7bc 291b 2d3d 3c6c 86bd
00000200: 4afa 5b3d b835 093c 9e85 213d 5f56 89bd
00000210: 1ee9 d33c 3f1b 5c3d 7180 0d3d 2173 4a3c
00000220: 146e 0c3c 0fa4 c73c a9e0 643d 383c ebbd
00000230: 8b6a bbb6 7101 0bbc c484 4ebd 37f1 01bd
00000240: c1e9 e23d 13c3 6237 3cd5 bcbb 148f f83c
00000250: bc6e 58bd 5a1b cd3d aab7 31bd 6866 f23c
00000260: 4b49 853c b727 fcbc addb 09bd 8cae 283c
00000270: 4051 413c 509f 80bd 9320 b4bc dbce 85bd
00000280: 2236 7a3d d61b 9f3d 43e2 313c e9fd d53d
00000290: 0a4e 43bd a186 e53c fcf7 babd e04f d33b
000002a0: 45a5 223d 196c 953b 3260 39bd b3a4 813d
000002b0: 0702 d53c 0515 053d bdb3 03bd a8f6 11bd
000002c0: e558 0d3d c377 bdbd 6caf 343c 8084 853d
000002d0: 428d edbc ffa6 cb3c b746 f23d f770 02bd
000002e0: d006 e23c ee1e cb3c 0f84 413d 695f c1bc
000002f0: ab2a 7e3d a5d1 8fbd 9985 593d 254e b6bd
00000300: a200 4b3d e5b3 6abd 8910 60bd 6269 423d
00000310: 83cf 053d 3f0f 2f3c ed36 cebd 4716 bcbd
00000320: 7f3e 883d 6dad 603d c211 663d 357a 61bd
00000330: 57fe b23d 930b ea3c 6528 1dbd e5a0 d8ba
00000340: 1764 213c db8b 36bc 62c6 c03d c97d debd
00000350: e3e4 043d d17d 853b 4156 76bc ccf1 a4bd
00000360: cfc4 bfbd e98b 6dbd 3e03 073d 207a 3bbc
00000370: ca64 073d 34cb 0a3d fdac 2c3d 0dad f53c
00000380: fc86 833d 4bb0 d1bd 7a9c 743d 4899 61bc
00000390: 61b6 45bc 4d59 07bc 4cc6 523d 281a 76bd
000003a0: 9cbf da3d 0148 a1bd b419 473d f3a1 86bd
000003b0: 6a1b 0bbc 7162 ab3d 3113 21bd a8c1 f0bb
000003c0: cd61 6ebd 303a ed3c c726 c43c 42cd 12bc
000003d0: 0410 9c3c 4656 88bd 5180 54bd 707e ad3d
000003e0: 48ac 2ebd a7a7 a53d e1a9 953d 7d58 973d
000003f0: b332 3ebd fa32 fa3c b336 123d ec78 be3d

network.6.bias f4 [141]
0.04213909 -0.048237428 0.037664816 -0.04012079 -0.0035242725 0.057032596 -0.0035643573 -0.03223183
0.03755106 0.011281193 0.03164164 0.01236251 -0.030565916 0.015559016 0.0021216033 -0.045823716
0.06576085 0.013962486 -0.0136211 0.03863251 -0.03218542 -0.00072923716 -0.0017875138 0.058538925
-0.033370133 -0.033590116 0.012949891 -0.04521285 -0.06243593 0.08189072 0.04233878 0.012240372
-0.0022025958 0.07084182 -0.014007403 0.06160526 -0.033125456 0.026632389 0.060071696 0.00813542
0.03109831 0.015182961 -0.046083856 -0.016569149 -0.017929845 0.0066753314 -0.032458507 -0.043550007
-0.0009092435 -0.0070947665 -0.056583192 0.05081517 0.0055246064 0.0049168854 -0.044882722 0.01625383
0.028525585 0.056141626 -0.07002475 0.072816215 0.019058522 0.00017354576 0.0562307 0.053088564
0.0076680696 -0.009166394 0.028529907 -0.025030887 0.02633114 0.025972243 0.06571384 -0.025750436
-0.0435869 0.040673677 -0.019719118 0.020361602 0.06754449 0.045397844 0.020010117 0.04537701
0.044876438 0.104001224 0.085824944 0.059323587 0.046741597 0.023638003 -0.055703405 0.014522192
0.02300492 0.011429307 -0.03283887 0.024771076 0.040823862 0.012267106 0.07364002 -0.032797758
0.008362742 0.0055440567 -0.009362971 0.05542016 0.0014260812 0.02657509 0.052037288 0.016233414
0.05230065 0.056980718 -0.012542775 0.046459947 -0.032556962 0.03694512 0.054918285 -0.01787029
-0.022704473 -0.031664334 -0.011261145 0.048360407 0.017013753 0.0224427 0.0022731656 0.020357288
0.013368614 0.036535606 0.07429929 -0.019983942 0.07777766 0.06508644 -0.062728725 0.07786886
-0.025156546 -0.018952165 0.017341973 0.01223923 -0.04523817 -0.005897267 0.07624757 0.059009567
-0.03336195 -0.025880247 -0.020644583 0.052362718 -0.0014878127
00000000: 0a9a 2c3d 9c94 45bd 6c46 1a3d b355 24bd
00000010: 7bf7 66bb 039b 693d fe97 69bb 8605 04bd
00000020: 24cf 193d c1d4 383c aa9a 013d 208c 4a3c
00000030: 5f65 fabc 3eeb 7e3c 990a 0b3b a6b1 3bbd
00000040: a0ad 863d e9c2 643c 092b 5fbc 1f3d 1e3d
00000050: dcd4 03bd 472a 3fba 034b eaba 83c6 6f3d
00000060: 1faf 08bd ca95 09bd c82b 543c 1c31 39bd
00000070: d1bc 7fbd 52b6 a73d 6e6b 2d3d d78b 483c
00000080: 6d59 10bb 8415 913d 4e7f 65bc cc55 7c3d
00000090: 8fae 07bd 2b2c da3c bd0d 763d 6d4a 053c
000000a0: e2c1 fe3c f4c1 783c 6dc2 3cbd 06bc 87bc
000000b0: 9ce1 92bc bdbc da3b 36f3 04bd 7e61 32bd
000000c0: 4c5a 6eba 377b e8bb c7c3 67bd 9123 503d
000000d0: c207 b53b d31d a13b f2d6 37bd c126 853c
000000e0: 7dae e93c c3f4 653d 2369 8fbd ab20 953d
000000f0: 9e20 9c3c d6f9 3539 2a52 663d 6573 593d
00000100: 6e44 fb3b a52e 16bc 8db7 e93c 930d cdbc
00000110: 67b4 d73c bec3 d43c fa94 863d 94f2 d2bc
00000120: 2d88 32bd 7199 263d fd89 a1bc 60cd a63c
00000130: c454 8a3d 17f3 393d 42ec a33c 3edd 393d
00000140: 5bd0 373d 98fe d43d fdc4 af3d 4afd 723d
00000150: 1e74 3f3d 7ca4 c13c 4129 64bd 7dee 6d3c
00000160: d074 bc3c fd41 3b3c 0d82 06bd b6ec ca3c
00000170: ec36 273d f9fb 483c 94d0 963d f156 06bd
00000180: e203 093c ebaa b53b 2667 19bc 4000 633d
00000190: 58eb ba3a 01b4 d93c 0d25 553d f0fb 843c
000001a0: 3539 563d 9d64 693d 3680 4dbc c94c 3e3d
000001b0: 735a 05bd c453 173d fff1 603d b764 92bc
000001c0: bbfe b9bc 76b2 01bd aa80 38bc 9015 463d
000001d0: 6d60 8b3c c1d9 b73c 64f9 143b 54c4 a63c
000001e0: 0808 5b3c 5ca6 153d 3a2a 983d 5db5 a3bc
000001f0: e549 9f3d 0a4c 853d eb77 80bd b579 9f3d
00000200: 1a15 cebc 9241 9bbc c110 8e3c 0d87 483c
00000210: a94b 39bd dc3d c1bb b027 9c3d 04b4 713d
00000220: 8aa6 08bd d002 d4bc d41e a9bc 4a7a 563d
00000230: b602 c3ba

network.9.weight f4 [21, 141]
0.09344316 0.09462387 -0.18350384 -0.10053561 0.08873886 0.060925238 0.06820463 0.11504835
-0.10015978 0.092316784 -0.030269613 0.022982653 -0.08976737 -0.025819106 -0.12456655 -0.0024374663
-0.048033122 0.008258939 0.105460234 0.024902418 -0.102358356 -0.09580564 -0.056805763 0.10629746
-0.106255084 -0.105224766 -0.08048101 0.101289324 0.0925225 0.009817007 0.011639598 -0.047443885
-0.061792884 -0.01977139 -0.053114302 0.073063836 -0.19462626 0.019028727 0.07729723 0.024911847
-0.030394984 -0.077896886 0.082773 -0.1133021 -0.123238996 0.05752088 0.02672926 0.059955183
-0.17125346 -0.16942714 -0.09287634 -0.21094094 -0.019390615 0.103672065 -0.10600571 -0.057514597
-0.035624243 -0.020611716 -0.16975255 0.05915429 -0.04945657 0.06760345 -0.0887329 0.0006352385
0.093098 0.078486115 -0.11779969 -0.09967366 0.015805498 -0.132366 0.067470275 -0.11500518
-0.10856339 -0.08512028 0.05873918 -0.11388857 -0.12870511 0.1105273 0.037911355 0.07571436
0.056577284 0.038531628 0.03944651 0.025465341 -0.0058933944 0.082817405 -0.12804283 -0.010640216
-0.13451588 0.16326058 0.07193412 -0.060700256 0.09827589 0.08405697 -0.06646391 -0.122534886
0.0005559073 0.10378502 0.06914507 0.054570492 -0.11392538 -0.07026103 -0.06617177 0.038527723
0.07172276 0.054990325 0.051563077 -0.1599536 -0.02177605 -0.06983244 0.054933578 0.028712329
-0.08171702 -0.13398947 0.06566242 -0.118808754 -0.13784353 0.037652966 0.0032053825 -0.17415586
0.06348399 0.096002035 0.08818367 0.06776872 0.080476485 -0.06280645 -0.13553575 -0.12790358
0.013052547 0.034426566 -0.12643097 -0.15839867 0.017868765 0.011185938 0.012897716 0.06725149
-0.036231555 -0.021363825 0.06589734 0.03648722 0.0032245277 -0.16299225 0.035347078 -0.13637583
-0.10011745 -0.11788823 -0.088984385 0.06750612 -0.14271344 0.03143561 0.028781662 0.05812633
0.046718203 -0.053518783 -0.04078656 0.015472286 -0.026291559 0.11779294 0.0016508597 0.06490962
0.071623266 0.04637384 -0.036326062 0.055004634 -0.17149791 -0.13190682 -0.1338038 -0.035370126
-0.13720466 -0.15345342 0.06140703 -0.029737333 0.11851202 0.019373374 -0.0046825493 0.06769307
0.06286769 0.0034416404 0.059938993 0.0658732 0.033970524 0.117937654 0.012170342 -0.11746137
-0.14316028 0.07101168 0.054836128 0.06999513 -0.013084284 -0.21496864 -0.03912199 -0.072565585
0.042650003 -0.04121147 -0.16197132 -0.099172875 0.08996317 -0.0037742348 0.034656648 -0.12420264
0.033611722 -0.07921585 -0.090793304 -0.12308018 -0.0198065 -0.037033454 0.05403193 -0.10635784
-0.0932429 -0.11559145 -0.07042031 0.06689354 0.08763328 -0.15937467 0.08047262 -0.10661166
-0.0283284 -0.07641955 0.019703865 -0.015340883 -0.12495114 -0.060749285 0.09245051 0.093139134
0.047433004 0.054739043 0.09864518 0.07550623 -0.18798949 -0.022832222 -0.10881172 0.070297256
0.057601865 0.016752565 -0.030376967 0.0032131262 -0.05356705 -0.069123134 -0.06862431 0.072887406
-0.02457906 0.12164105 -0.076388285 -0.049180858 0.110335246 -0.034986477 0.0919072 -0.023438903
-0.10967115 -0.07595476 -0.14106107 -0.0060704406 0.0102064 0.04826092 0.085132666 0.07808146
00000000: 215f bf3d 29ca c13d 6ee8 3bbe 9de5 cdbd
00000010: b8bc b53d be8c 793d deae 8b3d 789e eb3d
00000020: 9220 cdbd 9510 bd3d fbf7 f7bc 1e46 bc3c
00000030: f4d7 b7bd 9782 d3bc bf1c ffbd e6bd 1fbb
00000040: 61be 44bd 8050 073c 89fb d73d 2800 cc3c
00000050: 42a1 d1bd bf35 c4bd 29ad 68bd 7cb2 d93d
00000060: 449c d9bd 1580 d7bd 3ad3 a4bd c770 cf3d
00000070: 707c bd3d 83d7 203c 03b4 3e3c 8554 42bd
00000080: 891a 7dbd 9cf7 a1bc 628e 59bd 7ea2 953d
00000090: 1b4c 47be 22e2 9b3c 034e 9e3d ee13 cc3c
000000a0: e7fe f8bc 6788 9fbd e484 a93d ee0a e8bd
000000b0: ba64 fcbd 049b 6b3d 52f7 da3c 9193 753d
000000c0: 115d 2fbe 4f7e 2dbe f335 bebd e700 58be
000000d0: 11d9 9ebc 0552 d43d 8619 d9bd 6d94 6bbd
000000e0: baea 11bd e7d9 a8bc 9dd3 2dbe c54b 723d
000000f0: f992 4abd ad73 8a3d 98b9 b5bd 2286 263a
00000100: 2aaa be3d 54bd a03d f740 f1bd b421 ccbd
00000110: 887a 813c f48a 07be db2d 8a3d d687 ebbd
00000120: 7c56 debd 8b53 aebd 7f98 703d 693e e9bd
00000130: 46cb 03be 235c e23d f048 1b3d 2110 9b3d
00000140: 95bd 673d 57d3 1d3d aa92 213d b19c d03c
00000150: 601d c1bb 2c9c a93d a91d 03be 4d54 2ebc
00000160: 88be 09be c82d 273e 3252 933d d5a0 78bd
00000170: df44 c93d 1026 ac3d 3b1e 88bd 92f3 fabd
00000180: 4fba 113a 3e8d d43d ee9b 8d3d 4f85 5f3d
00000190: b651 e9bd 04e5 8fbd 1185 87bd 3fcf 1d3d
000001a0: 62e3 923d 893d 613d ce33 533d e0ca 23be
000001b0: b063 b2bc 4f04 8fbd 0802 613d 1e36 eb3c
000001c0: 415b a7bd 8934 09be 057a 863d 0152 f3bd
000001d0: db26 0dbe ff39 1a3d 6511 523b ea55 32be
000001e0: e503 823d b79c c43d a499 b43d 54ca 8a3d
000001f0: dbd0 a43d aba0 80bd e2c9 0abe 28f9 02be
00000200: 5ada 553c df02 0d3d 1f77 01be 4333 22be
00000210: 8461 923c 3945 373c f150 533c 26bb 893d
00000220: 8a67 14bd 3003 afbc 2ff5 863d a073 153d
00000230: 9952 533b 71e7 26be 19c8 103d 1ba6 0bbe
00000240: 610a cdbd 626f f1bd 723d b6bd a640 8a3d
00000250: 7923 12be a0c2 003d 85c7 eb3c e015 6e3d
00000260: 965b 3f3d 8336 5bbd cf0f 27bd 797f 7d3c
00000270: 6561 d7bc 6d3d f13d a961 d83a 56ef 843d
00000280: 38af 923d 7ff2 3d3d a3ca 14bd 8a4c 613d
00000290: 269d 2fbe 9512 07be dd03 09be 44e0 10bd
000002a0: 617f 0cbe e522 1dbe f085 7b3d b59b f3bc
000002b0: 6eb6 f23d e9b4 9e3c 1270 99bb aaa2 8a3d
000002c0: c7c0 803d 258d 613b 9782 753d 87e8 863d
000002d0: ad24 0b3d 4c89 f13d 1d66 473c 968f f0bd
000002e0: 9c98 12be 926e 913d d99b 603d 9b59 8f3d
000002f0: 775f 56bc bd20 5cbe 613e 20bd 449d 94bd
00000300: c5b1 2e3d 5ccd 28bd cfdb 25be 261b cbbd
00000310: 9c3e b83d 2759 77bb 21f4 0d3d f45d febd
00000320: 72ac 093d eb3b a2bd d7f1 b9bd 7611 fcbd
00000330: 3e41 a2bc 64b0 17bd 9650 5d3d 24d2 d9bd
00000340: 22f6 bebd 36bb ecbd 8638 90bd 7bff 883d
00000350: 1479 b33d 1d33 23be d4ce a43d 3757 dabd
00000360: f610 e8bc da81 9cbd 006a a13c 5458 7bbc
00000370: 62e6 ffbd 3ed4 78bd b156 bd3d bbbf be3d
00000380: 1c49 423d 0c36 603d 7c06 ca3d 03a3 9a3d
00000390: 5180 40be a40a bbbc aed8 debd 02f8 8f3d
000003a0: efef 6b3d ad3c 893c 1ed9 f8bc 5093 523b
000003b0: 1f69 5bbd 6e90 8dbd e78a 8cbd fe45 953d
000003c0: 065a c9bc f11e f93d 7671 9cbd de71 49bd
000003d0: 72f7 e13d fb4d 0fbd d839 bc3d f102 c0bc
000003e0: 459b e0bd 2b8e 9bbd 5072 10be 8cea c6bb
000003f0: bf38 273c 3ead 453d 095a ae3d 2ce9 9f3d

network.9.bias f4 [21]
-0.012941146 -0.024550926 0.04746532 0.029755585 0.0450076 -0.042592883 0.047301047 -0.08172598
-0.056902815 0.1028177 0.063763395 0.065090984 -0.060176753 0.0724427 0.02385835 -0.027965825
-0.029109394 -0.05622908 -0.07974693 -0.044242434 -0.1081411
00000000: 1a07 54bc 061f c9bc ff6a 423d fcc1 f33c
00000010: e459 383d e075 2ebd bebe 413d f35f a7bd
00000020: ed12 69bd 1692 d23d 6296 823d 6c4e 853d
00000030: e67b 76bd d75c 943d 9672 c33c 9618 e5bc
00000040: d376 eebc 7750 66bd 5c52 a3bd 8e37 35bd
00000050: 1579 ddbd
