models/NeuralNetwork-2_acc-56.95_loss-0.000001.pth (torch, 802127 bytes, 8 tensors)

network.0.weight f4 [512, 63]
00000000: ef00 5cbd 3ae7 e13d 128f 4c3d e35d cb3c
00000010: 828b dd3d 3fb9 1a3d 38d9 05bd 579b cdbc
00000020: cbbd a5bd 3bf6 053e 5bae f8bc b602 993b
00000030: 9760 3dbd ee19 16bc 5dc7 093e df8c 713b
00000040: ad42 e63d 6a73 653d 8694 d03d bd18 283e
00000050: b4a3 423e 1810 f5bd e8ea 5b3d 5393 143b
00000060: 6287 fd3d ab9d 79bd a668 02bd e13d 9cbd
00000070: 0ef6 573d 3d51 d4bd 0d8b c7bd 6c54 f93c
00000080: 6aa3 ac3c b989 0b3e c007 4e3c f1bf 6c3b
00000090: c8fa 3d3d 9362 1d3d 4710 063c 2a3f 25bd
000000a0: ed0a 2b3e 11e1 a63d 6f9b 933c 6197 ee3d
000000b0: 702e 583d ce5a 1bbd 2e12 563e b2ec f03d
000000c0: be41 523d 806f d13d 60ea 57bd a6f1 163e
000000d0: 2e41 2ebd 5b80 583d eb9f 2a3e 967d 873d
000000e0: e531 02bc 9524 c03d a667 63bd 7b14 78bd
000000f0: ce55 d5bd 369e 9bbd 18fa 20bc 1e74 bc3c
00000100: 82c3 86ba fe66 dfbc adfb 98bd 0b54 953d
00000110: 1ea3 24bb 8ea4 883c 912d 88bd 3ca6 653d
00000120: 1dd6 093e a371 d9bc fc03 c33b c831 07bc
00000130: fcc6 02be 1a56 9abd a19c a33d a592 61be
00000140: 4eaa ca3c 6a3f 85bb 9a7f 7d3c 3376 e7bd
00000150: c9a9 a2bd a68c 263d b553 293d ac66 223e
00000160: dc1b a33d 4be5 1bbe accf a43d 89cf 963c
00000170: f98a 0e3e a121 79bd 54f6 13be 01a4 dabd
00000180: 127b eabd cfc8 6d3d 2475 aa3d 64a2 eebd
00000190: 8c01 d73d 1b52 943d e3ad d93d e36c 2bbe
000001a0: b1de efbd b757 25be 5d2e 18bc bc32 4e3e
000001b0: 8faf 233e 1126 c8bc 89f1 403d ec09 dfbd
000001c0: 0008 c83c 99a6 69bd 3158 513d 811e bb3b
000001d0: 8f0d 403e 5685 e13c ec6f 22be 2d10 2c3d
000001e0: 2024 e6bd d92f bf3c a445 ec3d 1880 d3bd
000001f0: 70d5 f63c 0630 6bbd a098 7ebd 0cec 85bc
00000200: 994b c73c 7b29 03bd b091 383d 8796 48be
00000210: f0d0 0bbc 1760 ee3c cac1 4a3e c8ab 97bd
00000220: 36b6 b73c 3cfd 1cbe 67c3 aa3d 7159 163a
00000230: 9f9a 4a3d 4394 d8bc 9b6e 21be ef3b 963d
00000240: 0cc3 97bd 18fc c7bc 6d50 513d 0ded 753b
00000250: 57b2 943d f4c0 ce3d 709b 593c 5ab7 723d
00000260: 7725 983c 4667 06be a657 4d3d 7c48 d8bc
00000270: ed05 6d3d e897 193e e685 053c 9009 95bd
00000280: 898d 543d d294 f83d 74dc b13d 333f b9bd
00000290: 345e 753d 7206 60bc b02f 5c3d 2fe9 313d
000002a0: c8f7 ff3c fe5b 7e3d 8b9d 32bd 5c67 313e
000002b0: 4cb8 843c c00e 183d 6d50 4d3d 2bb6 21be
000002c0: 9e4e 46bd 626e e23b 81c2 d6bd 53d4 a8bd
000002d0: 65d7 00be 3e8d c63d 5ca4 813d b3df 4b3c
000002e0: 8d7e 52bd 4604 8ebd d7e5 c33d edcd 29bb
000002f0: 1560 46bd 6a29 b43c 0db6 95bc 6709 013d
00000300: 8f2c b93c 03d4 a0bc 24fc b33d 29b9 52bd
00000310: dbf5 58bd 99a5 8f3c 478e c13c d040 643d
00000320: d6fd 2c3e 1c52 34bd 6246 853d 1a27 d23c
00000330: f9c8 4c3c a0c1 83b9 0ce7 3cbd d045 bf3d
00000340: 18db 873d 5bf6 06be 5d7b 7c3d e775 b13d
00000350: b5a2 22be 2a28 37bd 405a df3d 7415 a13b
00000360: 6efd 1dbd 8f75 a4bd afa8 0c3d 6dbc 1bbd
00000370: 5bd4 0abe b006 e7bb b094 5c3d c6cb fd3d
00000380: faff 15be 6342 d9bc 00fb 78bd 5b1f c2bd
00000390: 075b f3bd 6953 8bbd 4348 a3bd 6277 c5bd
000003a0: 270b 333e c36c 1b3e e8f9 b1bd 57c7 673d
000003b0: 9557 563e 6e42 ef3d 7f39 08be 516a 0ebd
000003c0: 0318 8f3d 0016 58be f7e0 f43d ff6b 34bc
000003d0: 2a0b acbd 587a 083e 448d 2b3d 871c e4bc
000003e0: e87e 233e 565c 29be 714d 5bbd 84d6 043e
000003f0: ceaa 663c 5d74 293d 9ac4 3abd 55b4 1dbe
-0.053711828 0.11030431 0.04994113 0.024825042 0.10817625 0.03777432 -0.03267786 -0.025098486
-0.08092841 0.1308221 -0.030356577 0.0046695126 -0.046234693 -0.009161456 0.13454957 0.0036857647
0.11243186 0.05601827 0.101845786 0.16415687 0.1900776 -0.1196596 0.05369082 0.002267082
0.12379338 -0.06094138 -0.03183808 -0.0762899 0.05272489 -0.103670575 -0.09743319 0.030435763
0.021074016 0.13626756 0.01257509 0.0036125148 0.04638174 0.038424086 0.008182592 -0.04034344
0.16703387 0.08148397 0.018018452 0.11649967 0.05277866 -0.037928395 0.20905373 0.11763896
0.051332228 0.10226345 -0.05271375 0.14740619 -0.04254263 0.052856784 0.16662566 0.066157505
-0.007946466 0.093819775 -0.05551877 -0.060566407 -0.104167566 -0.07598536 -0.009825252 0.023004588
-0.0010281655 -0.02727079 -0.07469878 0.072914205 -0.002512164 0.016680028 -0.06649316 0.056066737
0.13460584 -0.026543444 0.0059514027 -0.008251615 -0.12771219 -0.07535954 0.07988859 -0.22028597
0.02473941 -0.0040663974 0.015472317 -0.113018416 -0.0794254 0.040661477 0.041339595 0.15859479
0.07964298 -0.15224187 0.08047423 0.018409507 0.13920201 -0.060823087 -0.14449435 -0.106758125
-0.11449255 0.058052834 0.08323124 -0.11652067 0.10498342 0.07242223 0.106288694 -0.16740756
-0.11712397 -0.16146742 -0.009288398 0.20136541 0.15984939 -0.024432214 0.047105346 -0.10890564
0.024417877 -0.057043646 0.051109497 0.0057104235 0.18755172 0.0275294 -0.15863007 0.042007614
-0.11237359 0.023338245 0.115367204 -0.10327166 0.030131072 -0.057418846 -0.062157273 -0.016347907
0.02432804 -0.03202198 0.045060813 -0.19588672 -0.008533701 0.029098554 0.19800487 -0.074058115
0.022425752 -0.15330976 0.08338051 0.00057353737 0.049463864 -0.026437884 -0.15764849 0.0733565
-0.07410249 -0.0244122 0.05110209 0.0037525326 0.07260578 0.10095397 0.013281688 0.05925689
0.018572552 -0.13125333 0.050132416 -0.02640175 0.05786698 0.14999354 0.0081496 -0.072772145
0.05189279 0.1213776 0.08684626 -0.090452574 0.059904292 -0.013673412 0.053756416 0.04343527
0.031246081 0.06209945 -0.043607276 0.17324585 0.01620116 0.03712344 0.050125528 -0.15792148
-0.04841482 0.0069101313 -0.104863174 -0.08243623 -0.12582166 0.096949086 0.06330177 0.012443471
-0.05139022 -0.06934409 0.09565323 -0.0025910095 -0.048431475 0.021992404 -0.018275285 0.031503107
0.022604255 -0.019632345 0.087883264 -0.051446114 -0.05296884 0.017535018 0.023627413 0.055725873
0.16893706 -0.044023618 0.06507565 0.02565341 0.0124990875 -0.0002513053 -0.04611878 0.093394876
0.06633586 -0.13179915 0.061641086 0.08665066 -0.1588238 -0.044716038 0.10905886 0.0049158875
-0.038571768 -0.08030235 0.034340557 -0.038021494 -0.1355757 -0.0070503578 0.053852737 0.12392382
-0.14648429 -0.026520913 -0.060786247 -0.09478637 -0.118825965 -0.068030186 -0.07972767 -0.09641911
0.17484723 0.15178208 -0.08690244 0.05658659 0.20931847 0.11682592 -0.13303183 -0.03476936
0.06987002 -0.21102142 0.11956971 -0.011012076 -0.08400567 0.1332792 0.04188277 -0.027845634
0.1596638 -0.1653913 -0.05354065 0.12972456 0.014078809 0.04137074 -0.04559765 -0.15400822

network.0.bias f4 [512]
00000000: 2257 1b3c 2797 29bc 67b7 8bbe cf6e 2fbd
00000010: 7aa8 6cbe eff4 ec3b 43c7 e1bd 3cba 30be
00000020: 14de 81bd b55c 85bd 776f 0bbe f38c 04be
00000030: 0a70 a3bd 5960 47be 9bea af3d 2583 d1bc
00000040: 5fe0 d1bd 582e ebbd cb9c 85bd dfca a3bd
00000050: aadd 64bd ebe0 b8bd 080d e2bb e6de 5a3d
00000060: 26aa d1bd 08e0 31bd 5b78 a4b9 aa15 6b3d
00000070: 675d 31be c294 a43d 5b17 8738 88f5 00be
00000080: ad3c 48bd d8ec 0dbe 4533 11be d559 c839
00000090: b3f4 fdbd 2738 2cbe 9dd3 5abe 1e2d f63c
000000a0: 3a1b b5b9 c2a7 4bbe 1f5a 63be 9130 29be
000000b0: 5026 b7bd 81b9 a6bd 4af3 59be 9db2 a8bd
000000c0: 0946 7abe bbea b2bd 7def 38be 5165 10be
000000d0: fa96 28be b122 60bd fa5e adbd bcba 063b
000000e0: 9d7d 85bd 80bd 1a3d 2c1b 0cbd 273a 193d
000000f0: 3dff 46be 7590 6abd 466b 2bbd 6e5b 27be
00000100: 60ff 643c c7b4 adbd 2969 98bc c8d8 6dbe
00000110: 5f39 0b3d d416 9abd 34b6 643d 1758 e3bd
00000120: 937d 54be eb92 9abd d641 50be d236 f8bd
00000130: 1216 5ebd 3422 c4bd 6c40 61be f68e 45bd
00000140: 3adc ffbc 8fbb 1abe 3d20 afbd af15 edbd
00000150: a931 49bd e7f3 10be 1549 e6bd 5ba5 e5bd
00000160: 6059 bebd 3d45 1dbe ca5a 08bd c77c 963c
00000170: 69d4 04bd b23e 15be b3dc 10be 6cc2 b0bd
00000180: b1f3 db3b 1883 74bd ed72 37be 19f8 03bd
00000190: 2bdd 94bd 2b89 6cbd 0239 a1bd 3a4d 8bbe
000001a0: 3521 2dbe 2998 88bd faf5 b43c 76a7 08be
000001b0: 4869 c3bd ea5c 42be 82d0 c3bd 1de3 62bc
000001c0: e572 82bd 9e1b 88bd e97c 75be 231c a0bd
000001d0: 2165 ba3d 1990 29be 3041 2fbd f85e 67be
000001e0: 28bc 57be 9b66 58bd b1ec 63be 395f 87be
000001f0: dcae 323c 6de2 3bbe ca9e 60be 5a0e 19bc
00000200: cd8f 25be 3423 92be c257 31bd e8ac 12be
00000210: 660b 2bbe b79b 12be 31a5 19bd d048 fabd
00000220: 3608 42bd 792b 633d d90c 82bd 659b 14be
00000230: ba11 09be 884b 3dbd 1be9 12bd d7d1 043d
00000240: 784f 58be 167b 60bd 73d2 01be 0be8 8abd
00000250: 1555 81bd b6dc a0bc 5199 20be ba32 15bd
00000260: 9580 87bd 8322 fc3c dc35 6fbe b579 bcbd
00000270: 0241 60be 6b0d 2ebe e5a7 0fbe 4307 3bbe
00000280: e295 26be 6430 57be 4fdd dd3c 5c8d 3e3d
00000290: 7c53 c03b 9761 753d d10d e9bd 00a2 0ebe
000002a0: ba6d 083c 6217 0bbe 3b25 533c 73f9 82bd
000002b0: 87a0 773d af60 723c e742 79bd 7395 623c
000002c0: 5924 bfbc 6bd7 fdbc c287 babd 1fbc 30be
000002d0: 178d 38be 6c22 273d 3e82 723d f57d e5bd
000002e0: 9ba0 d1bd 44d4 06be a68f df3b 9329 cebd
000002f0: bbb6 1bbd c007 0ebe ae2c 9dbd 5aa4 98bd
00000300: 3840 debd 81e3 19bd 1f68 b9bc 0f57 2fbd
00000310: d575 47be e096 dbbd b7e3 73be 4592 f5bc
00000320: cd50 05bd b3fd 30bb ec46 50bc f74e 49be
00000330: 9dce 0ebe c754 4dbd 13b9 9cbd bf76 babd
00000340: fb0d d9bd ba4f b4bd d226 a6bd 9ecc 65bc
00000350: cdcc 22be 277a 43be 5b84 a0bc fbc6 4bbe
00000360: fdf9 d73b c7f2 943d 4b23 4cbd 6067 57bd
00000370: 7fd1 363d a9dd 9cbd 2081 82be e46d 53be
00000380: 8be8 923d 6797 40be 4ad8 2dbe 4622 28be
00000390: b90e 68be 1926 20be 42d4 71be 008b edbd
000003a0: e3ed 20be eb17 b4bd 0eec 3ebe be5a a6bd
000003b0: 56b9 1cbe 06fb ad3d 471a edbd 5ac5 61bc
000003c0: 8305 dcbb f87c 95bd c194 3bbd 6792 6abd
000003d0: 87df 05be 3112 343d 7486 583d 0cbc 2ebd
000003e0: 9a32 e53b f6ef 1ebe 3398 fcbd 0cab b4bd
000003f0: d2e5 08be 51cb 1f3d 4862 e4bc 2f4a 9fbd
0.009481223 -0.010350979 -0.27288362 -0.042830285 -0.23111144 0.007231347 -0.11024334 -0.17258543
-0.06341186 -0.06511823 -0.13616739 -0.12944393 -0.07980354 -0.19470347 0.08589669 -0.02557523
-0.102478735 -0.11483449 -0.065240465 -0.07997679 -0.055875458 -0.09027275 -0.006898526 0.05343523
-0.10237531 -0.043426543 -0.0003137019 0.057393707 -0.17320786 0.08036186 6.441652e-05 -0.12593663
-0.04888599 -0.1385988 -0.14179714 0.00038213903 -0.12400188 -0.16818295 -0.21369787 0.03005081
-0.00034543296 -0.19888213 -0.22202347 -0.16522433 -0.089428544 -0.08140851 -0.21284214 -0.08237193
-0.24440779 -0.087361775 -0.18060108 -0.14101149 -0.16463843 -0.054720584 -0.08465381 0.002055808
-0.065180995 0.037778378 -0.0342056 0.037408974 -0.19433303 -0.05726667 -0.04185035 -0.16343471
0.013976902 -0.08481746 -0.018604832 -0.23227227 0.03399026 -0.07523885 0.055837825 -0.11100786
-0.20751028 -0.07547554 -0.20337614 -0.12119831 -0.054220267 -0.09576836 -0.21997231 -0.04823204
-0.031232942 -0.1511061 -0.08551071 -0.115764014 -0.049119625 -0.14155541 -0.11244408 -0.1121318
-0.09294391 -0.15358444 -0.03328971 0.018370045 -0.032429133 -0.14574698 -0.1414669 -0.08630833
0.0067124 -0.059695333 -0.17914934 -0.032219026 -0.07268747 -0.057748 -0.078722015 -0.27207357
-0.16907199 -0.06669647 0.022089947 -0.13345131 -0.09541565 -0.18980756 -0.09561254 -0.013848093
-0.06369571 -0.066458926 -0.2397343 -0.07817867 0.0910132 -0.16558875 -0.042786777 -0.22594821
-0.2106787 -0.052832227 -0.2225826 -0.26439837 0.010905948 -0.18348093 -0.21935573 -0.009341801
-0.16168137 -0.28542483 -0.043296583 -0.14323771 -0.16703567 -0.14317213 -0.037511054 -0.12220919
-0.04737111 0.05546138 -0.06350107 -0.14512403 -0.13385668 -0.04621461 -0.035866838 0.03242668
-0.21124065 -0.054804884 -0.12677936 -0.0678254 -0.06315056 -0.019636493 -0.15683486 -0.03642533
-0.06616322 0.030778175 -0.2336039 -0.09202901 -0.21899799 -0.16997306 -0.1402889 -0.18264489
-0.16268113 -0.21014553 0.027083067 0.04652153 0.005869327 0.059907522 -0.113795884 -0.13928986
0.008326942 -0.13583139 0.012887294 -0.06395235 0.060455825 0.014793559 -0.06085482 0.013829577
-0.023332762 -0.030986508 -0.09107925 -0.17259263 -0.18022572 0.04080431 0.05920624 -0.11205665
-0.10235711 -0.1316691 0.006822544 -0.100665234 -0.038016062 -0.13870144 -0.076745376 -0.074532226
-0.108520925 -0.03757048 -0.022632657 -0.042807635 -0.19478543 -0.107221365 -0.23817335 -0.029976973
-0.03254776 -0.0027006685 -0.012712222 -0.19659029 -0.13946004 -0.050129678 -0.076524876 -0.0910468
-0.1059837 -0.08804269 -0.08112873 -0.014025835 -0.15898438 -0.19089566 -0.019594362 -0.19900124
0.00659108 0.072728686 -0.049838345 -0.05258882 0.044633385 -0.07659466 -0.2548914 -0.20647389
0.0717326 -0.18807755 -0.16977039 -0.16419324 -0.22661866 -0.15639533 -0.23616126 -0.11598778
-0.15715747 -0.087936245 -0.18644735 -0.081227764 -0.15305075 0.084951445 -0.11577278 -0.013779962
-0.0067145242 -0.072992265 -0.04579616 -0.057268526 -0.1307355 0.04396266 0.0528626 -0.042659804
0.0069945576 -0.15521225 -0.12333717 -0.08821687 -0.1336892 0.039012257 -0.027878895 -0.07777821

network.3.weight f4 [256, 512]
00000000: 8a8c 1a3d 2dca 61bd 73f1 113d c921 6e3d
00000010: ee79 90bd 38b8 273d 5d76 c8bc e9ab eb3c
00000020: aa50 22bd 879f 45bd 66e5 cb3a e748 6e3c
00000030: 8b3e 60bb 1d72 103c 5f9c 8d3d 7975 323b
00000040: c78d aa3c 89e8 9cbc 66cf de3b 477f 88bc
00000050: 3b5e d43c fd0e 8abb 4302 5b3d b396 ec3c
00000060: 04ca 7bbd fa25 d4b9 9712 debb 6cd5 ad3c
00000070: d891 143d 85b9 5f3d a981 80bc ffa5 053c
00000080: 1a8f 8e3d e43b 4c3d 549e 6fbd f959 013d
00000090: 099d 3a3c bd60 cabd 0adc 473d e235 c739
000000a0: 2584 9ebc 73cc 103d d456 cc3c b6f7 f13b
000000b0: ab77 5dbd b39b 203c 5b8c b6bd 9505 27bc
000000c0: 38cc a83c f05a 003d cf53 9a3d 71ee 5e3d
000000d0: 2e04 0bbd 1afa 10bb fcfa 81bd 4b85 9abc
000000e0: 382b ad3d 5cb6 fa3c fbb0 ee3c 12ef 0f3d
000000f0: c3c6 173d 3799 2d3d 56ba 91bc ed04 f6bc
00000100: 9899 3b3d 82a4 39bc eb64 3cbc 3ba6 c03d
00000110: f6cd 6f3b a422 a9bc 203e debc d28f 6d3d
00000120: 9ea6 3c3c 50bc d7bc fd70 bfbc 8214 e33c
00000130: be06 e1bc 6dc6 c53b 2439 c93c ac51 223d
00000140: 20a9 cdbd c794 e53b a182 083d 506c 4ebd
00000150: 80c8 bb3c 7b8f 263c 3314 be3b f330 26bc
00000160: 085c 8a3c 77c6 153d 1d82 9ebc ef0f 053d
00000170: 12eb 05bd 5cdd 373d 8cda 0b3d 980f 26bd
00000180: a6f6 923d 1276 03bc 0470 803d dd55 95bc
00000190: e278 b2bc 4928 b3bd 0e89 a93c 4aec b1bc
000001a0: 82f1 08bd 84e9 ae3b 6b3b edbc b21a ab3c
000001b0: 1211 813d 905a 63bd 21f7 03bd b488 753c
000001c0: acd6 6fbd 6238 23bd ecb4 f33b 4501 0f3d
000001d0: 5a57 113d 3e07 863c 6e1e cd3c 334e 1c3d
000001e0: b699 16bc 6b34 583d 230c e8bd 63ca 983c
000001f0: ec4b 07bc ddd6 97bc 9fe5 643d 5118 be3c
00000200: 3c22 5abc 6040 0dbd 024f 9dbd 28e3 c83c
00000210: eb0c 85bd 909c 853d 1afc 203d 937b 823b
00000220: 8fd9 d5bd c929 493c f56b 57bc 1027 a2bc
00000230: 26f2 0abd a349 183d 24a8 e13c 40c6 873d
00000240: 19cb 19bd 31d0 b6bc 6907 9a3c a7a1 db3c
00000250: c55e 5dbc bf6f 01bd 3258 d53c 8c3d da3c
00000260: 8919 85bc 8ef5 233d fc1a 433d 9644 d7bc
00000270: 812a b7bc 5c69 803c 90b5 733c 61ce 43bd
00000280: ea0d 47bb 21a1 1e3d 380e 623d d031 cfbb
00000290: a45f 9a3c f269 25bb e616 cdbd 57f7 1cbb
000002a0: f63e bdbc c4a2 623c 1895 08bc 1209 813d
000002b0: fc19 793c 5df2 76bd 1a55 d53c e8e2 1c3d
000002c0: 3588 dcbc a66a 3ebc 063d 013d 1b66 0fbd
000002d0: 7475 9d3c 0e3d 033c b081 013d 9b54 2f3d
000002e0: 0767 80bc d517 3dbc 4594 5f3b 2f29 22bb
000002f0: fedb 353d 0746 563d e7de 80bc 12f5 9a3c
00000300: 3975 4c3c eac7 0dbd 623b a23c 2c8a 383d
00000310: 7889 fd3b 3e49 acbc db7d 483d 7ac8 3b3d
00000320: 333f 78bb 57e2 03bd fddd 4bbd 1207 57bd
00000330: 7dc3 8bb9 5b97 113b a8e6 04bc d965 383d
00000340: c48d fdba 2fbe 663d dae3 013d 9fa6 333d
00000350: 494a 3abd 0c53 debd 9163 503d ab7a 5ebc
00000360: 256b 903c 1530 d8bc 05e7 cebc 7e92 833b
00000370: 1d5c 363d 1e2d f13c 197b 0f3d ae7d 75bd
00000380: bfd3 21bb 0a87 5f3c 1c9c 93bd c0f8 91bd
00000390: da2e 81bc 6768 b53d 4ad0 933c d1da 46bd
000003a0: 9b38 a83d 5229 0bbc 57fe 9c3d bf1a 08bc
000003b0: abac 4ebd 000c 72bd d6d5 85bd d558 563b
000003c0: a863 193d aa45 763d e42e 043c 9b34 f7bb
000003d0: c74c 8fbd a41c 1ebc f787 a43b b47b c3bc
000003e0: ed82 f0ba 99bd c3bc 4916 c5bb 50ea 7b3b
000003f0: c1be cf3c b3e9 b6bd 3fab 033d 4b6a 02bd
0.037731685 -0.05512445 0.035630655 0.05813769 -0.07054506 0.04094717 -0.024470503 0.028768497
-0.03962771 -0.04824784 0.0015556037 0.014543748 -0.0034216966 0.008816269 0.06914591 0.0027230664
0.020819558 -0.01915385 0.006799626 -0.016662253 0.025923839 -0.0042132125 0.053468954 0.028880453
-0.061471954 -0.00040464086 -0.0067771184 0.021219932 0.0362719 0.054620285 -0.015686827 0.008157252
0.06960888 0.049861804 -0.058500603 0.031579945 0.011389979 -0.098817326 0.04879383 0.00037996384
-0.01935012 0.035351228 0.024943747 0.007384266 -0.054069202 0.009802747 -0.089134894 -0.010194202
0.020605192 0.031336725 0.075355165 0.054426614 -0.033939533 -0.0022121728 -0.063466996 -0.018862387
0.08455509 0.030604534 0.029137125 0.035140105 0.03705479 0.042382445 -0.017789047 -0.030031646
0.045800775 -0.011330726 -0.01149867 0.09406706 0.0036591268 -0.0206464 -0.027129233 0.057998486
0.011514334 -0.026334912 -0.023369307 0.02771974 -0.027469035 0.006035617 0.02456338 0.03962867
-0.10042024 0.007006261 0.033327702 -0.050396264 0.022922754 0.010166044 0.005800748 -0.010143506
0.016889587 0.036566224 -0.019349152 0.0324859 -0.032694884 0.04488884 0.03414397 -0.040542215
0.07175951 -0.008023756 0.06271365 -0.01822942 -0.021786157 -0.08747918 0.020695236 -0.021719117
-0.033433445 0.005337896 -0.028958997 0.020886753 0.06302084 -0.05550629 -0.032218102 0.014986206
-0.058554336 -0.039848693 0.007437339 0.03491332 0.035483696 0.016360875 0.025038924 0.038160514
-0.009191921 0.052784365 -0.1133044 0.018651193 -0.008257847 -0.018535072 0.055883046 0.023204954
-0.013313826 -0.03448522 -0.07681085 0.024522379 -0.064966045 0.065240026 0.039302923 0.0039820164
-0.10441887 0.012278029 -0.013148298 -0.019794017 -0.033922337 0.0371796 0.027545996 0.0662961
-0.037547205 -0.02231607 0.018802362 0.02681048 -0.013511364 -0.03160071 0.026043031 0.026640676
-0.016247528 0.0400291 0.047633156 -0.026277822 -0.022359135 0.01567524 0.014874831 -0.04780424
-0.0030373284 0.038727883 0.05518934 -0.006323077 0.018844433 -0.002524015 -0.10014133 -0.0023951137
-0.023101311 0.013832752 -0.008336328 0.06300558 0.015203949 -0.06028973 0.026041556 0.038302332
-0.026920417 -0.011622107 0.031552337 -0.035009485 0.019221045 0.008010162 0.03161782 0.042805295
-0.015674127 -0.0115413265 0.0034115475 -0.0024743786 0.044399254 0.052312877 -0.015731288 0.018915687
0.01247912 -0.03461448 0.019803707 0.045053646 0.007737335 -0.021031018 0.04894815 0.045845486
-0.0037879467 -0.032198276 -0.04977225 -0.052496977 -0.00026657796 0.002221546 -0.008111633 0.045019004
-0.0019344618 0.056333717 0.031711437 0.043860074 -0.045481 -0.10855684 0.050876204 -0.013579051
0.017629215 -0.026390115 -0.025256643 0.004015266 0.04452144 0.029440459 0.035029504 -0.05993431
-0.002469286 0.013643036 -0.0720751 -0.071275234 -0.01576941 0.08857804 0.018043656 -0.048548523
0.08213922 -0.008493738 0.07665699 -0.008307158 -0.050457638 -0.059093475 -0.065349266 0.0032706757
0.037448555 0.06012503 0.00806782 -0.007544113 -0.06997066 -0.009650383 0.005021091 -0.023862697
-0.0018349566 -0.023894118 -0.0060146195 0.0038439222 0.025359513 -0.08931293 0.032145735 -0.03183965

network.3.bias f4 [256]
00000000: cb09 4cbb 4e48 203d 55d8 2b3d f666 a73c
00000010: f48f 143d 59d1 053d d97b a13c 6eeb 0c3b
00000020: 81c2 11bb a5f8 203d 35cd 2e3d 2158 883c
00000030: f9eb 803c e334 31bd 936d 61bd 365f 3ebd
00000040: 3f73 d73c 27aa 2eba b56e b33d dc8f 023d
00000050: 6734 eebb 45b8 5fbd ff20 9b3d 972d 663c
00000060: 3f04 893d 83c2 9abd f100 c0bb 5d16 76bd
00000070: b69a a23b d005 383d 1149 7f3c b43c a83c
00000080: 5e08 6b3d 0c61 413d 592b c03c 90d2 b03c
00000090: 97cc c23c 42c8 0f3d 3a61 3d3d b001 42bd
000000a0: 9fa9 4a3d 8d7b 6fbc 2223 9d3c 26aa a53d
000000b0: 2d8a 923c 9394 c1bb efa0 5dbd d01b 19bd
000000c0: a85f ed3b f273 4e3c 379c 653d 7923 5b3c
000000d0: 9d4f 09bd 80a3 893d 65a4 cfba cc77 5b3b
000000e0: 226e 9ebc 3482 643c 7f73 b43c ee90 00bd
000000f0: 2898 623c 648c fb3c d108 833d 0a02 2d3d
00000100: eebf 71bd 35b3 c23c 2fbf 5dbd d3b6 c83c
00000110: 138c 393d 3118 273d ff07 5b3d ed79 7f3c
00000120: a6c4 0cbd cdaa c7bc dfae f43a ee01 62bd
00000130: fdca aabc e7af 08bd 9f3d 22bb b72c 6e3d
00000140: 0eb5 85bb c449 933d 4284 12bd 2c08 b3bc
00000150: 1fa4 953b a182 80bd de0d 28bd d453 fa3b
00000160: e8d5 efbc 384b 6f3c 824b 18bc 41a6 953b
00000170: 8f6c e7bc 9d8b b23b 1372 a6ba aaf0 31bc
00000180: 59c4 383d 68fe f73c 0559 ce3c 2acb 26bc
00000190: e4e9 a0bc 8cf1 5f3c bafc d83c 824f 2e3d
000001a0: fe45 4c3d bcd5 df3c bbba 643d fc14 7d3d
000001b0: 8c84 083d 1e9a cbbc b368 0f3c 5a4a 603c
000001c0: 1493 983d fd72 bbbb 04ab 123d ae86 0dbd
000001d0: a3c5 c93c a264 31bc ddb6 193d 9d15 76bd
000001e0: 1698 1bbc 79fb 133d d5a9 6f3d 375b b2bc
000001f0: 62c8 2e3c aeef edbb a4a1 6f3d ebcd 843d
00000200: 572d 3c3d 6519 1dbc d7b4 1bbd 2aa9 60bd
00000210: 91ea 29bd 65a8 68bd d55f a03d 1ef2 d13d
00000220: b6e0 40bc 9627 e8bc 8459 cbba 5e3b 73bd
00000230: 1daa 583d bb93 8b3d e970 2bbd 7a4e fa3c
00000240: fabb ab3c 0b35 98bc 33aa 433d 924e 903d
00000250: 8328 46bd 236b 3b3d 4e54 b93c 0118 05bd
00000260: 48fa b63c 8596 14bd 99c4 83bc 41a2 7fbd
00000270: ee12 bfbb 5939 8e3c 4fe5 463c 1a5a b7bd
00000280: 57ed 153d 2858 943c 3a3b 2abc d70e a53c
00000290: 5d81 fa3b c2d7 5b3d e573 963d 0e8c babc
000002a0: 0463 33bd 028c 52bd b45e a0bc ecc5 093d
000002b0: 6d6d d43d 0439 6abd 5297 403d 1c05 82bc
000002c0: 874f 1fbc b477 a9bc 7cf4 c3bc 2fa0 2bbd
000002d0: 7f3f f5bc 8e80 a5bc da0a cd3b c0b9 b5bc
000002e0: e9d0 2dbc bee9 173d 1403 b63c aff7 803d
000002f0: 0649 b53b 71b4 a63c d983 aabd 93ec 733d
00000300: 1f1e ad3c 542d f3bc f4be 253d d800 04bd
00000310: 01e7 0b3d 1308 3fbd a38a acbc 0c30 c53c
00000320: f6e1 873c 4982 bbbc 7f88 e5bc 8f6a 5e3d
00000330: 08fe 203d a041 b7bc 5353 49bd 8211 1a3d
00000340: 35a7 ad3c 417c 6c3d e3af 59bc 1887 6ebc
00000350: 2233 48bd 53dd 453c 36ad 1f3d 54eb 373c
00000360: b6a6 5cbc 1b3b 293d bf43 9a3d 4fae 483c
00000370: 7925 163c 08df 883d ae66 bb3d e071 7c3d
00000380: 0d2f 553d f0a5 213c 1f45 80bd f0ec c6bc
00000390: 3f90 1fbc f2da f4bc 2978 803d 9f64 f6bc
000003a0: 2931 c73a c3ce c43d 6180 24bd 9865 8abd
000003b0: 72fe 9b3d c1cf a53d 522e 363c b009 653d
000003c0: 6260 1dbd eec8 d13d 3c00 cdbc 7a31 0a3d
000003d0: 8b4a 27bd e6f2 323d 880c bd3c b191 21bd
000003e0: e99d 8ebb ec0d 9abd 42d2 ad3d afdd d73d
000003f0: da9d 0f3d 593f 0dbd 6864 113c da1a 6cbd
-0.0031133767 0.039131455 0.041954357 0.020434838 0.036270097 0.032670353 0.019712375 0.0021502632
-0.0022241178 0.039299626 0.04267617 0.016643586 0.01573752 -0.043263327 -0.05503614 -0.04647752
0.02630007 -0.0006662928 0.0876135 0.031875476 -0.0072694304 -0.054619092 0.07574653 0.014048955
0.06690263 -0.075566314 -0.005859487 -0.06007992 0.0049622906 0.04492742 0.015581385 0.020536758
0.057381026 0.04721169 0.02345817 0.021584779 0.023779197 0.03510309 0.0462353 -0.04736489
0.04947817 -0.014616859 0.019181792 0.08089094 0.017888153 -0.005907604 -0.054108556 -0.03738004
0.007244069 0.012600886 0.05605718 0.013375157 -0.03352319 0.06720638 -0.001584184 0.0033488153
-0.019339625 0.0139470585 0.02202773 -0.031388216 0.013830222 0.030706592 0.06398166 0.042238273
-0.05902093 0.023767093 -0.054137405 0.02450124 0.0452996 0.040794555 0.053474423 0.015593034
-0.034367226 -0.024373436 0.0018667838 -0.05517762 -0.020848745 -0.03337088 -0.0024755967 0.058148112
-0.0040804213 0.07191804 -0.035770662 -0.021854483 0.004566684 -0.062749155 -0.04102885 0.0076393876
-0.029276803 0.014605336 -0.009295346 0.004566938 -0.028250007 0.005448772 -0.0012698792 -0.010860601
0.045109127 0.030272678 0.025188932 -0.010180274 -0.019642778 0.013668429 0.026487697 0.042556293
0.049871437 0.027323596 0.055842143 0.06178759 0.03332953 -0.024853762 0.00875299 0.013689602
0.07449928 -0.005720495 0.035807624 -0.03455227 0.024630373 -0.010827215 0.037527908 -0.060079206
-0.009496709 0.036128495 0.058511574 -0.02177201 0.010667892 -0.007261238 0.058503762 0.06484588
0.045941677 -0.009588574 -0.03801426 -0.054848827 -0.041483466 -0.05680122 0.078307785 0.10251258
-0.011772325 -0.028339189 -0.0015514349 -0.05938279 0.052896608 0.06815287 -0.041855726 0.030554999
0.020963658 -0.01857998 0.047769736 0.07046236 -0.04837848 0.04575647 0.022623207 -0.032493595
0.02233614 -0.03627636 -0.016084956 -0.062410597 -0.005831114 0.01736133 0.012139632 -0.089527324
0.036603298 0.018108442 -0.010390097 0.020148678 0.007644816 0.05367256 0.07346324 -0.022771861
-0.0437956 -0.051403053 -0.019576408 0.03363602 0.10372434 -0.05718328 0.04701931 -0.015871577
-0.009723551 -0.020686962 -0.02392029 -0.04190081 -0.029937504 -0.020202901 0.006257397 -0.022183299
-0.01060889 0.03708815 0.022218265 0.06297242 0.0055323867 0.020349713 -0.08325929 0.059551787
0.021132527 -0.0296847 0.04046531 -0.032227367 0.03415585 -0.04663856 -0.0210622 0.024070762
0.016587239 -0.022889273 -0.028019188 0.05430084 0.039304763 -0.02237016 -0.04915173 0.037614353
0.021197895 0.057735685 -0.013286564 -0.014558576 -0.04887689 0.012076694 0.038983546 0.01122554
-0.013467481 0.041316133 0.07532453 0.01224859 0.009164208 0.06683165 0.09150444 0.061632037
0.052046824 0.009866223 -0.06263184 -0.024282902 -0.009738981 -0.029889558 0.06272919 -0.030077277
0.0015197146 0.09609749 -0.040161494 -0.06757659 0.07616891 0.080962665 0.011119442 0.05591744
-0.038421996 0.102434024 -0.025024526 0.03373859 -0.040842574 0.043688677 0.023077264 -0.039445583
-0.0043523205 -0.07522187 0.08487369 0.1054033 0.03506265 -0.03448424 0.008874036 -0.057642795

network.6.weight f4 [128, 256]
00000000: b98f 983d 8731 2e3d 5386 d7bd d2d4 abbb
00000010: c865 713d bc92 85bd 1f97 323d fb8e 9dbd
00000020: 517a d63c d79d c23c 6262 a63c 9d49 413d
00000030: d180 3c3d ee1e 24bd 0792 cebd aeaa b83d
00000040: 6edb 053e 3be5 a63c 9413 8cbd 50b8 79bd
00000050: 19f3 8ebd 3222 a3bd e88b b6bc 0f2f 363d
00000060: f6c7 d83d b480 d63c 5510 433d 92c6 4fbd
00000070: ce39 7fbd afb8 e63c 9a5f 713d 2961 b2bc
00000080: 6fe2 873d 6a1b abbb f006 4dbd 20f5 d4bc
00000090: 93ba c23d dd18 1d3d 2cf5 81bd 0086 f5bd
000000a0: af5b 47be 091f 90bb d02b 553d 806d 05be
000000b0: 6bb7 023c 9ce3 f9bb c2dc e0bd 5d8a dc3d
000000c0: 7f0d b3ba 8467 aa3d 91fb 32bd 92db 593d
000000d0: eab3 d33c ec9f c73a 23b5 553d 96cb 69bd
000000e0: d7ba e6bb bcf0 153e ddd3 62bd 7e6c 713e
000000f0: 9dc7 053e 7061 6cbd 3080 d8bd ae6f afbc
00000100: 0ad8 9d3d 7370 a0bd fbb0 e33c b4a7 c93c
00000110: 0d86 40bd 3eb5 183e e369 97bd 38fb 90bd
00000120: 59d2 d03d 59a7 8fbc bad5 163d 0039 fa3c
00000130: c1ea 03bd b9e0 be3d 5065 243d 2abf cd3d
00000140: d0c4 0f3c 879b ee3b 4344 13bd 8f4c a63d
00000150: 8864 e1bc 1252 bbbc 7e34 b63d 040f 7fbd
00000160: ab8c c83c 8ef6 84bc ab93 083e cef4 89bd
00000170: c8ac da3d 2e9b f33b 7a52 083c e1a8 f33d
00000180: 817a df3c bd32 823d a102 9e3c fb2c 10bd
00000190: 8fbe 3dbd 5d4b 8f3c 19ff 003e 197b 843d
000001a0: a02e d0bc 5130 f33d 2ac8 c03c 60cf 5bbc
000001b0: d2a8 393c df0c e73d 95d8 f73c 71cb 77bd
000001c0: 0c55 8cbd adbf 41bd 866d 81bd f220 d33c
000001d0: 7e7c fdbd 719a 06bd 93c4 86bd 0d5b 7abd
000001e0: 911b 2a3e 42d3 093d 685e 6dbd cb9a 863d
000001f0: f4d5 9ebd 4d88 3dbd aa7a 1fbd a5a8 c93d
00000200: 765d 1c3e 86a4 64bd 5fb9 d4bb 3c10 55bc
00000210: b336 363d 259f b7bc 7a7a d53c 1e9c 753d
00000220: 4fef 0dbd 8947 cabc 530f bc3c 417e 173b
00000230: ba2f f03b 8055 cfbd 7e8e 383d 8304 7c3d
00000240: d72e f3ba c7a0 79bd 7f8a 943d 05f9 113d
00000250: 1c24 543d 2e41 61bd 72bf e6bd 734c 8fbd
00000260: 9654 4ebd 2ecf b23c 686b a5bc 91fd 0c3e
00000270: 532e cdbc 2d7b 5f3c 32ba f2bd 47c0 973d
00000280: e38d d63c d2c7 923d 53eb 8db9 18c2 c03a
00000290: 2717 f7bb 0fe9 93bd 8d81 fdbd 9e20 a0bd
000002a0: d8e3 a53d 7c80 d43d 3b61 66bd f673 c83b
000002b0: 86d7 37bd f4a0 003e 9b40 ce3d 09e8 ee3c
000002c0: ee23 2e3d e4b7 dd3c 29ab a83c a295 2cbc
000002d0: 2446 7a3d 418d 7e3d fe01 b8bd 25db 8fbd
000002e0: 70d4 ea3d ae41 8d3c deb2 ae3d 2329 94bd
000002f0: 5944 09be 4ee8 e53d 6273 223e 6a78 07be
00000300: 0d62 07bd 8fb7 e6bd d763 9e3d cc56 7a3d
00000310: 7135 fe3c 8686 49bd 6886 90bd ecf6 54bd
00000320: 929b ec3d a759 a73c 347c 803d 9830 92bc
00000330: f2a4 2c3d 0a31 4e3d 6e24 59bd 3033 83bd
00000340: 95af b33d 4fe9 1a3e e682 ecbd 37b3 a9bd
00000350: 08a1 84bd 0236 3f3d 5e23 c1bd 1d96 13bd
00000360: 9b40 963c 67ef 0b3d 07ee 85bd f3eb 383d
00000370: ce0a ebbc 018a 54bc cb8a d0bd c2be 083e
00000380: 9616 c93c 3056 2a3e 3b16 66bd d76f 45bd
00000390: 2e62 423d 1a52 6fbd ee06 a1bd 07b1 53bd
000003a0: 23c7 eebb e469 7f3d 7366 bbbc 5c25 97bd
000003b0: 0868 f83c 63e7 e3bd e176 d33c fa67 b5bd
000003c0: e70b 173e f50d 213d a7f2 413d a6bb c53c
000003d0: ab75 8c3d 91ee cdbc 7bb2 9fbb f9da 5c3d
000003e0: 8495 4ebc e654 513c 3451 c6bb c372 a53d
000003f0: c1b4 31bc a008 203d ede2 63bb ba08 d43b
0.07449288 0.0425277 -0.10523667 -0.005243876 0.058934957 -0.06522128 0.04360115 -0.07693287
0.026181372 0.023756905 0.020310584 0.047189344 0.046021286 -0.04006856 -0.10086446 0.090169296
0.13071987 0.020372977 -0.06839672 -0.06096679 -0.06979961 -0.079655066 -0.02228351 0.044478472
0.105850145 0.026184417 0.047622997 -0.05072648 -0.062310986 0.028164236 0.058929063 -0.021774845
0.06634986 -0.005221774 -0.050055444 -0.025995791 0.095082425 0.03835379 -0.06345591 -0.11988449
-0.19468568 -0.004398231 0.052043736 -0.13030052 0.007978301 -0.00762601 -0.10979606 0.10768578
-0.0013660638 0.08320525 -0.043696944 0.053187914 0.025842626 0.0015230156 0.0521747 -0.05707892
-0.007041316 0.14642614 -0.05537783 0.23576543 0.13064428 -0.05771011 -0.10571325 -0.021415558
0.07707222 -0.07833948 0.027794352 0.0246161 -0.04700284 0.14912888 -0.07393243 -0.07079166
0.10196371 -0.017535852 0.03682492 0.030544758 -0.0322063 0.09320206 0.04013568 0.10046227
0.008774951 0.007281724 -0.03595377 0.08120071 -0.027513757 -0.022866283 0.08896731 -0.06227018
0.024481138 -0.016230848 0.13337581 -0.06736146 0.10677487 0.0074342703 0.008320445 0.118974455
0.027280094 0.06357334 0.019288363 -0.035199147 -0.04632431 0.01749199 0.12597312 0.064687915
-0.025412858 0.1187445 0.023532946 -0.013416141 0.011331754 0.11281752 0.030254642 -0.06049675
-0.06852159 -0.047301937 -0.06319718 0.025772545 -0.123772606 -0.03286213 -0.06580462 -0.06112199
0.16612078 0.033648737 -0.05795136 0.06572493 -0.07755652 -0.046272565 -0.03893534 0.098466195
0.15270028 -0.055820964 -0.0064918245 -0.013004359 0.04448576 -0.022414753 0.026059378 0.059963338
-0.03465205 -0.024692314 0.022956526 0.0023116025 0.007329908 -0.1012373 0.045057766 0.06152774
-0.0018553388 -0.060944345 0.072529785 0.035637874 0.05179225 -0.0549938 -0.11266984 -0.069970034
-0.050373636 0.021827307 -0.020192817 0.13768603 -0.025046503 0.013640207 -0.1185192 0.07409721
0.026190704 0.07167019 -0.00027068946 0.0014706282 -0.007540602 -0.07222187 -0.123782255 -0.07818721
0.08100098 0.10376069 -0.05624507 0.0061173392 -0.044883274 0.12561399 0.10070916 0.029163377
0.042514734 0.027065225 0.020589428 -0.010533722 0.061102048 0.06214643 -0.08984755 -0.070242204
0.114663005 0.017243233 0.0853021 -0.07234409 -0.13404979 0.11225949 0.15864328 -0.13229528
-0.033052493 -0.1126548 0.07733887 0.061117932 0.031031342 -0.049200557 -0.07056886 -0.051993296
0.1155311 0.020428492 0.0627369 -0.017845437 0.04214949 0.050339736 -0.053013258 -0.064062476
0.08773724 0.15128063 -0.115484044 -0.08286136 -0.06476027 0.046682365 -0.09430574 -0.03603183
0.018341353 0.03416386 -0.06539541 0.045146894 -0.028691676 -0.012972356 -0.10182723 0.13354018
0.024546903 0.1663444 -0.056173544 -0.048202362 0.047456913 -0.058427908 -0.0786265 -0.0516825
-0.0072869225 0.062356845 -0.022876 -0.073801726 0.030323043 -0.11128118 0.025813522 -0.088577226
0.14750634 0.03931995 0.047350552 0.02413733 0.06858381 -0.025138171 -0.0048735715 0.053919766
-0.0126088895 0.012776589 -0.0060521606 0.0807853 -0.010846318 0.039070725 -0.003477271 0.006470767

network.6.bias f4 [128]
00000000: 81de 84bc e292 e13d a839 15bd a4fc 4f3d
00000010: cf54 ff3c bc9c b73d dff2 a6bc dad7 9d3c
00000020: cf36 253d c592 753c 6dca 663d 2fdf 993d
00000030: fb16 a93d 90b1 003e 3d04 673d d281 02bd
00000040: 74ed 543c a394 3ebd 7cae 8c3d fceb b03d
00000050: dedb be3d 97c4 8a3c 425f 563b 4041 0d3e
00000060: 0f78 35bc 12f9 8e3d 8788 3a3e ef31 bdbc
00000070: eaa3 86bc 2333 893d 7908 433d 7553 e1bb
00000080: 618f f93c a9bf 353d 7f81 003e fc1e 03bc
00000090: 890c aa3d 3bb5 c23d a233 d63d 583d c43b
000000a0: 07c3 1c3d dc85 0d3c fcc4 3c3d 67dd 8f3d
000000b0: 679b 773d 49b9 553d 7cd6 10bd 8106 8b3a
000000c0: a51c 3dbd e10e 783c 90e7 f03d 5cdc c0bb
000000d0: 6e2e 21bd 779d 68bb 0558 58bc 3082 12bd
000000e0: 613f 673d 58aa b43d bae9 ab3b 6218 da3d
000000f0: 0ebf 4dbd c96b b03d 62da e2bb c5c2 463d
00000100: 41b2 2d3d cc7b 89bb bde7 e03c d09b 5c3c
00000110: 2172 6c3d 2a7a 1fbd ef4f 9d3a 32da acbc
00000120: e0f4 863d 4b9e a13b e6bf ef3d 716b a73c
00000130: e217 733d 83bb 703d 3793 7d3c 52cd 873d
00000140: 101c a8bc 9e79 ae3d b193 063b 9064 de3d
00000150: 4298 d9bc d4d4 a5bc 0b4c 6dbb 0dd8 463d
00000160: 677e ae3c 499c 553d fa4e f0bc a9bd f13c
00000170: 61ce 84bd e416 16bc ff04 13bd 088f a5bc
00000180: 70f2 ae3d bae1 a33d a2a0 503c 8933 403b
00000190: dcff ae3c 9556 063e e80b 5d3d d4ec bd3d
000001a0: 20f0 e73d 59eb 213c 68e9 b03c 896c 8bbc
000001b0: 2344 56bd 95b2 933c 46a4 603c 71e0 7bbc
000001c0: ae1a 643d bb36 7e3d 1a32 82b8 5f00 463d
000001d0: 257c 863d 3268 da3d b82e 593c a178 993c
000001e0: a513 8f3d 06fb e63c 77c9 533d 3513 f1bc
000001f0: 2d23 463d 93a1 793d 9fef f63c b0eb c93d
-0.01621938 0.11014344 -0.03643194 0.050778046 0.03116837 0.089654416 -0.020379482 0.019267965
0.040335473 0.014988606 0.056345392 0.07513272 0.08256336 0.12567735 0.056400526 -0.031862088
0.012996066 -0.04652847 0.06869218 0.086387604 0.0931928 0.016939444 0.0032710587 0.13794422
-0.0110759875 0.069811 0.18216144 -0.0230951 -0.016435582 0.06699207 0.047615502 -0.006876404
0.030463876 0.044372234 0.12549399 -0.008002993 0.08303172 0.09507223 0.10459067 0.005988758
0.03827193 0.008637872 0.046086296 0.07024651 0.060450938 0.052178655 -0.0353608 0.0010606797
-0.046169896 0.015140266 0.11762917 -0.005885644 -0.03935092 -0.0035494247 -0.013204579 -0.035768688
0.056456927 0.08821553 0.0052463682 0.10649182 -0.050231032 0.086143084 -0.006923006 0.04852559
0.042406324 -0.004195666 0.027454251 0.013464883 0.05772603 -0.038934864 0.0012001971 -0.021100137
0.06589675 0.0049322 0.117065236 0.020436974 0.05934895 0.058772575 0.015476993 0.066309586
-0.020521194 0.085192904 0.0020534808 0.108590245 -0.02656186 -0.020243086 -0.0036208655 0.048545886
0.021300508 0.052151 -0.029334534 0.029509382 -0.06484676 -0.009160731 -0.035893437 -0.020209804
0.08542335 0.08002038 0.01273361 0.0029327592 0.021362238 0.13118966 0.053966433 0.09273687
0.11325097 0.009882771 0.021595672 -0.017019527 -0.052311074 0.01802949 0.013711041 -0.015373335
0.055689506 0.062063914 -6.208215e-05 0.048340198 0.065666474 0.10664405 0.0132557675 0.018734278
0.06986169 0.02819587 0.051705804 -0.029428104 0.04837339 0.060945105 0.030143557 0.09859407

network.9.weight f4 [21, 128]
00000000: 0261 b13d ecc0 0c3d 5276 33be 5c9e 61bb
00000010: b7ce 83bd 302c c7bd b3b1 29be 8076 aebd
00000020: 830a c23d a31e e53d e648 443d ecae 3cbc
00000030: 172d db3c 4972 95bd d95a c1bd 758f 43be
00000040: 833a a13d afd5 72bd 4866 35be fd52 433d
00000050: acb3 8f3c df50 f7ba 21f6 dd3d 3a85 dc3b
00000060: 348a 59be 4c9c adbe ce82 edbd 2ce8 3f3d
00000070: 6be2 b63d 840c bc3d 7c5e 593d 7f41 87be
00000080: 54a4 25bd d365 6ebe d98b 19bd 050f af3d
00000090: 6436 a03d 5ffc 92bb 362d a9bd 33c1 cc3b
000000a0: 7ddb 46bd 4d24 f03d 33c1 55be 1ab0 ec3b
000000b0: 897f 77be b130 cc3d 8d9b d03d 5a5b c83c
000000c0: 62ad 543d 167c 33bc 96a7 c9bd f09f 4bbe
000000d0: ded5 e3bb c075 5abe 99ea 953d 2003 9e3d
000000e0: 0dbd ec3c f84d 853d 76eb 45be 6a3b 07be
000000f0: 2486 15bd c3df cbbd aa5a 4abe fa88 abbd
00000100: 74b1 bd3d dd0b 663e 8e28 4cbe 8747 793d
00000110: 508a c4bd 5d24 a53d c33c 123e 27bc a0bc
00000120: 9548 39be c60e 703d a298 913d 4161 b5bd
00000130: a5ee 553d 5cbe 553e 0929 e3bd aca4 79be
00000140: 0339 67bd f47e 933b 83c8 aa3d cbec 1e3d
00000150: c05c 7fbd fb97 fb3c dbf3 743d 08e9 8a3d
00000160: 8ee2 ee3d 8f1e 86bd f987 4abe 7f3e 073d
00000170: dec4 673c 7515 edbd baf8 0bbe bd3b f03d
00000180: b443 953d b44a 4abe 023c e73d 0da9 893d
00000190: 734b 023e bee2 4ebe 119b bd3d 80ca 3a3d
000001a0: fb3e 813d c030 df3d eecb 75bd d031 11be
000001b0: 4c69 46be da5e f53d 6ec1 1cbe 21d7 1bbe
000001c0: de1a 023d 2bd0 e23c ce5d 9e3d f4b3 df3c
000001d0: db8f 193d 2493 62be 2c17 e5bd 0594 3ebd
000001e0: 4238 a83d 174d 92bd 3848 7a3d b938 b93d
000001f0: 6bdf e03d 9e2e 2d3d 1921 3dbe 3e18 a3bd
00000200: e18d 6dbe 6e23 9e3d 9654 b63d 0907 ac3d
00000210: 4074 21bd 77f9 3cbe e5ee 6bbd 4f5c f13d
00000220: a5fc a33d 9999 793d 4469 73be 1bbf 8b3d
00000230: 7c79 1a3d ee8e 033e 58a9 ac3d ba72 0d3e
00000240: dcac f03d 011c 843c bb45 703b bb93 293d
00000250: 86f9 d53d c06a 773d ec88 2abe 1627 1e3d
00000260: 757e a6bd e48a f5bd f44f ae3d 1d7e 26be
00000270: ec49 64be d02d 5ebe 987f 47be b64f abbd
00000280: 57a2 953d a14c 0dbb 097c e2bb 4f13 ea3d
00000290: ddad 093e a0c5 b33d 5924 543c de60 fdbd
000002a0: 0929 d33d b890 d83d 198b 26be 2417 4fbc
000002b0: 6d08 c2bd ccc0 48bc e1dd 16be 0985 9d3c
000002c0: dfb7 17bd ad6d ecbd cc8c 7c3d 28e5 1c3e
000002d0: 4a08 04bc 4d3f 31be 1767 50be fdf3 7dbd
000002e0: b674 e53d e32b 05be 7de1 31be e07f 703d
000002f0: f9ea 72bd 28a7 013d eca5 ebbd f63a e53d
00000300: cd85 113e bb1d f73d 3e27 29be 22df e1bd
00000310: 43e8 b9bc 9628 c03d 1b72 bfbd 2104 31be
00000320: 0106 3bbe 6130 52bc 2548 f53d 535d 123e
00000330: a210 44bd 4bc2 d2bd d6e6 35be 8a1e aabc
00000340: ff38 803d af2e aa3d 113e 23be da08 2bbe
00000350: b855 e23c e749 023e c889 35be a9c1 033e
00000360: c27e dabd 4339 53bd 1abb d2bd d1f2 80bd
00000370: 58cd bbbd ebdc f13d 7991 b2be 6177 1fbe
00000380: c542 3f3d 30fc 60bd e71e 193e 69d9 afbd
00000390: 0404 1a3e 60cd 163e 833b ee3d 7445 783d
000003a0: 4424 ff3c 0fba 7bbe cb5b 28bd 1023 49bc
000003b0: a4e0 913d caff 11be 4ae7 c53d 7920 8f3c
000003c0: 7a29 48bb e795 833d 39bf 6cbd 5383 09be
000003d0: 8cf7 74be 58ed 8a3d c327 40bd 96cc 93be
000003e0: 6914 a3bd 8a15 1fbd 3479 babd e818 1ebd
000003f0: bdba 0a3d 0337 96bc 60b0 a03b e102 193e
0.08661081 0.034363672 -0.17525604 -0.0034426665 -0.06435912 -0.09725225 -0.16571693 -0.08518696
0.09474661 0.11187484 0.047921084 -0.011516314 0.026754899 -0.07297189 -0.09441156 -0.19097693
0.07872488 -0.059285816 -0.17714798 0.047686566 0.017541729 -0.0018868706 0.10837961 0.006729749
-0.21244127 -0.33908308 -0.11597215 0.046852276 0.089299046 0.09182075 0.053068623 -0.26417157
-0.04043992 -0.2328103 -0.037486885 0.085477866 0.07822874 -0.0044856514 -0.082605764 0.006248617
-0.048549164 0.11725674 -0.20874481 0.0072231414 -0.24169745 0.09970225 0.10185919 0.024457622
0.051923163 -0.010954877 -0.098464176 -0.1988523 -0.006952985 -0.2133398 0.073201366 0.0771544
0.02889874 0.06509012 -0.19328102 -0.13206258 -0.03650488 -0.099547885 -0.19761148 -0.083757356
0.09262362 0.22465463 -0.19937345 0.06085923 -0.095966935 0.08063576 0.14280991 -0.019620968
-0.18094094 0.05860784 0.071091905 -0.0885644 0.052229542 0.20873398 -0.11091811 -0.24379224
-0.056450855 0.004501218 0.08339026 0.038800042 -0.062344313 0.030712118 0.05980287 0.067827284
0.116643056 -0.06548797 -0.19778432 0.033018585 0.014146058 -0.11576358 -0.136691 0.11730144
0.07288304 -0.1975506 0.112907425 0.06721697 0.12724094 -0.20203683 0.09258092 0.045603275
0.06310841 0.1089797 -0.060008936 -0.14179158 -0.19376105 0.11980982 -0.15308163 -0.15218784
0.031763904 0.027687153 0.077327356 0.027307488 0.037490707 -0.22126442 -0.1118606 -0.04652788
0.08213855 -0.0714361 0.06110403 0.09044022 0.109801136 0.042280786 -0.18469657 -0.07963608
-0.23198654 0.077216014 0.08902852 0.08399779 -0.039417505 -0.18454538 -0.057600874 0.117851846
0.080071725 0.060937498 -0.23770624 0.0682356 0.037713513 0.12847492 0.08430737 0.13813296
0.1175172 0.016126635 0.0036662656 0.041400652 0.104479834 0.06040454 -0.16653794 0.038611494
-0.081295885 -0.11989382 0.085113436 -0.16259046 -0.22293824 -0.21697164 -0.19482267 -0.08364813
0.073063545 -0.0021560567 -0.006911759 0.11429464 0.1344523 0.08777928 0.012948119 -0.123719916
0.10310561 0.10574478 -0.16263999 -0.0126397945 -0.09474263 -0.012252998 -0.14733078 0.019228475
-0.037040588 -0.115443565 0.061657712 0.15321791 -0.008058617 -0.17309304 -0.20351826 -0.062000263
0.112039015 -0.13005023 -0.17371173 0.0587157 -0.05930612 0.031653553 -0.115062565 0.111928865
0.14211197 0.120662175 -0.16518876 -0.11028887 -0.022693759 0.09382741 -0.09347936 -0.17286731
-0.18264009 -0.012828917 0.11976651 0.14293413 -0.047867425 -0.10290965 -0.17763838 -0.020766515
0.06260871 0.083096854 -0.15941645 -0.16702595 0.027628765 0.12723504 -0.1772834 0.12866844
-0.106687084 -0.05156828 -0.10289593 -0.062963136 -0.091700256 0.11809715 -0.34876612 -0.15572883
0.046694536 -0.054928005 0.14953195 -0.085863896 0.15040594 0.14726782 0.11632445 0.06061311
0.031145222 -0.24582694 -0.041103166 -0.012276426 0.07122925 -0.14257732 0.096632555 0.017471539
-0.00305423 0.06425076 -0.05779955 -0.13429002 -0.23922557 0.06783551 -0.04691292 -0.28867024
-0.07962877 -0.0388389 -0.09105149 -0.03859797 0.033869494 -0.018336779 0.004903838 0.14942504

network.9.bias f4 [21]
00000000: 87aa bcbc ebf1 a1bc 8c49 28bc cc1f 503d
00000010: 58a6 b23d 37ba 3f3c 3a4d a7bd ed61 bfbd
00000020: 892e 4abd 84a7 5abc 8ff8 6b3c 504b f3bc
00000030: 2c26 853b f89e d33d aa92 4d3d 5aef fa3a
00000040: ba43 a43b ed69 64bd b7d4 0a3a b137 9c3d
00000050: 9925 ecbc
-0.023030533 -0.019768676 -0.010271441 0.050811574 0.08723134 0.011702112 -0.08169027 -0.0934485
-0.049360786 -0.013345603 0.014402523 -0.029698998 0.0040633883 0.10333055 0.050188698 0.0019144819
0.0050129564 -0.05576508 0.0005295979 0.0762781 -0.028826522
