models/NeuralNetwork-1_acc-60.48_loss-0.000004.pth (torch, 792384 bytes, 20 tensors)

network.0.weight f4 [512, 49]
00000000: 2cc4 e2be 51fc 023f dceb 3ebf db8d 113f
00000010: be1a 72bd 5a95 0240 0bae bdbf 367f c8bf
00000020: 468c 583f 6c7e 1cbf 1eb9 26c0 47f2 5c3f
00000030: e10b 5dbf 641e 81bf 19db c43f 5dbf 073f
00000040: 163b 39bf 5ce9 90be f145 75bf 2e0a 2ac0
00000050: 97dc 04bf bce4 d43f f9a1 06c0 19aa 103e
00000060: fe79 90bf d18a be3f 3f2d 963e c400 193f
00000070: 1315 a73d fd9b c93e ccb7 d03f 1ea2 1b40
00000080: d170 1dbe 73a4 03c0 252b dabf b82f 84bf
00000090: 4d05 31c0 ad25 ad3f e55b 1f40 b353 38bd
000000a0: a9b0 c23f d50d f2be 34d8 103e 7f1f 833c
000000b0: dcff 07bf 1d8a 363f 4db1 0e3f 3fbd 40c0
000000c0: b8ea 61c0 5e4c de3d 47a7 b53e 79f7 593f
000000d0: 5f2e 8ebe 321b 893f 3178 1ebf f927 fabd
000000e0: 4ad0 4d3f 8bfb 8cbe f5c5 1ebf c14e 8a3e
000000f0: 9d1b aabf 21ca 3d3f 8c3c a93e 3575 d4bc
00000100: ca8a fc3d c4a6 b73e 19a8 a63f 5dfe 5a3f
00000110: 61b3 793e 90f8 01c0 63d3 26c0 ad56 25c0
00000120: 6568 38bf bb82 3d40 e706 96bf 7a6a 4c3f
00000130: b324 a1bf 48f6 903f db9a 24c0 5f92 e43f
00000140: cdfd 31bf eef1 eebe febd 1bbf edb3 aa3e
00000150: a940 2c40 c521 cb3e 6285 0cc0 1d0c 893f
00000160: 9776 78c0 b441 8abf 5e29 4ebe 60ed 3940
00000170: 93a1 5fbf 3672 0d40 3db6 02c0 8ed0 f93d
00000180: db79 22bf 6c56 3440 58a9 833e 6ced 3cbe
00000190: 80b3 6a3f ce0e 57bf dd1f bcbf 2991 eb3f
000001a0: f96a 2140 7788 ffbf 41d0 b73f 130b 803f
000001b0: cf65 0740 03a6 2dbf d6b8 dc3e 4d4d 2dbe
000001c0: f91a 2ebf 63ee f9bf d5f4 d73f e4ad afbe
000001d0: 929c 8b3f 642f 0a3f fbe9 e13e 15ee 153f
000001e0: b5cd bbbe f516 823f e447 d13f 5464 07bf
000001f0: 9b45 68be 5911 d1bf 82f0 ee3e 5e90 303e
00000200: 7036 92bf 0364 0dc0 6097 cbbc 4e3e fb3f
00000210: 3e4e acbf 4358 edbf 1b6f 8e3e f6f1 d13d
00000220: 3382 8f3f d2ec a6be 0b81 873f 6dcb 533f
00000230: f0a6 c1bf 83a6 5e40 6a31 1640 a146 68be
00000240: a82b 1fbf 00fd 773f ea22 243f 6ec0 88bf
00000250: e1a6 ff3e 9d9c fabe 2f1e 8c3f 6f6a fd3f
00000260: 6ca1 3b40 7c55 f8bf 3b43 443f 6965 733f
00000270: a3d2 9a3c 2284 48bf 027e c63f 8ecc 903f
00000280: 66de c23f c655 cfbe 0805 3fbf 96fb 093f
00000290: 96e8 6fbf aa8a c2bf 05fe efbe f2a8 12c0
000002a0: 1644 f7bf 4019 61bf 495b 9cbf 153c b0bf
000002b0: 7026 b8bf 5b5c 55bf 5cce 93bf 642d a9bc
000002c0: 9d89 ddbd 0e2b e7bf 9aee d23f 8bc1 233f
000002d0: ca68 d8be 7229 21be 9ea1 b5bf 70cb 8a3e
000002e0: 05a1 afbf c1cf 8abf 99f1 00c0 0a8c 98bf
000002f0: b887 673f f71e d0bd 5b1f fd3f bb1e 82bf
00000300: cb84 863f 15d2 8abe 1c01 57be f073 b8bf
00000310: 6a73 24bf 3a7f abbe 687a 77be 9d17 b73e
00000320: 6ff5 fcbe dc40 e83f f388 cbbf 337a 9540
00000330: ef2f 29be 66bc 8fbd e6c6 a5bf 2a33 893f
00000340: 453d d7be 6284 0040 1bf4 fa3f f01e bfbf
00000350: 205f 85bd 8b37 76bf 9d45 c9be a5c5 69bf
00000360: bddb 033c 0e8d 12bf 2c32 a6bf e29c e93e
00000370: f614 0f3f c136 9ebe 9cdf b93e f438 93be
00000380: 93ac 1ebe 638d 843d d69b 323e 7a2b 3d3e
00000390: 8f5d a43f 818f 1e3f e2ad d1bf bb93 3ec0
000003a0: b2db 8fbf 189f f9bf 9895 4240 c20b 253f
000003b0: 56ce f73e 9cab 06bf bed0 8cbe bee4 a03f
000003c0: 6f53 40bf 12a5 e33e f131 14bf 6756 09c0
000003d0: d5d8 2e3f 5802 88be 809a f0bf 6035 1a3f
000003e0: 2fcb 36bf 4e7a a3be 5f53 8e3e 139d 71bf
000003f0: 46a4 283e d26e 263e e7ed 903f 9772 b93f
-0.44290292 0.51166254 -0.7457864 0.5685708 -0.059107535 2.0403657 -1.4818739 -1.5663822
0.8458904 -0.61130404 -2.6050487 0.86307186 -0.8634625 -1.00874 1.5379363 0.5302637
-0.72355783 -0.2830304 -0.9580985 -2.6568713 -0.51899093 1.6632304 -2.103636 0.14127387
-1.1287229 1.4886113 0.29331395 0.59766793 0.081583165 0.39376822 1.630609 2.4317698
-0.15375067 -2.0569122 -1.7044417 -1.0327063 -2.7659485 1.3527123 2.4899838 -0.045001697
1.5210162 -0.47276178 0.14144975 0.01600623 -0.53124785 0.71304494 0.5573929 -3.0115507
-3.529951 0.1085441 0.35479185 0.8514324 -0.27769753 1.0711424 -0.6190215 -0.122146554
0.8039595 -0.27535662 -0.6202081 0.2701321 -1.3289677 0.7413655 0.33054006 -0.025934795
0.123311594 0.3586942 1.3020049 0.8554438 0.24384834 -2.030796 -2.606652 -2.5834153
-0.72034293 2.9611042 -1.1720856 0.7984997 -1.2589325 1.1325159 -2.5719516 1.7857169
-0.69527894 -0.46668953 -0.6083678 0.33340397 2.6914465 0.39674202 -2.195641 1.0706822
-3.8822381 -1.0801301 -0.20132968 2.9051132 -0.8735592 2.210096 -2.042373 0.12197982
-0.63467187 2.8177748 0.25715137 -0.18449944 0.91680145 -0.84006965 -1.4697224 1.8403674
2.522154 -1.9963521 1.4360429 1.000338 2.115589 -0.6783144 0.4310977 -0.16924019
-0.68009907 -1.9525875 1.6871592 -0.34312356 1.0907156 0.5397856 0.44123825 0.5856641
-0.3668038 1.0163256 1.6350064 -0.52887464 -0.22682802 -1.6333419 0.46667868 0.17242572
-1.1422863 -2.2092292 -0.024852455 1.9628389 -1.3461378 -1.854256 0.27819142 0.102512285
1.1211609 -0.32602555 1.0586256 0.8273228 -1.512907 3.478913 2.346766 -0.22683193
-0.6217599 0.9687042 0.64115775 -1.0683725 0.49932006 -0.4894761 1.0946711 1.9798106
2.9317274 -1.9401088 0.76665086 0.95076615 0.018899268 -0.7832662 1.5507205 1.1312425
1.5224121 -0.40495127 -0.7461705 0.53899515 -0.9371427 -1.5198567 -0.4687349 -2.2915616
-1.9317653 -0.87929153 -1.2215358 -1.3768336 -1.438673 -0.8334405 -1.1547351 -0.020651527
-0.10817263 -1.8060014 1.6479065 0.639672 -0.42267448 -0.15738466 -1.4189947 0.27108335
-1.3721014 -1.0844651 -2.014746 -1.1917737 0.90441465 -0.10162156 1.9775194 -1.0165628
1.0509275 -0.27113405 -0.20996517 -1.4410381 -0.6423861 -0.33495504 -0.24167788 0.35760203
-0.49406 1.8144794 -1.5901169 4.671167 -0.16522191 -0.07018356 -1.2951324 1.0718739
-0.42038932 2.00808 1.9605745 -1.4931316 -0.06512284 -0.961785 -0.39310923 -0.91317207
0.008047995 -0.5724648 -1.2984061 0.45627505 0.5589136 -0.3090115 0.36303413 -0.2875439
-0.1549552 0.0647228 0.17442259 0.18473616 1.2841052 0.6193772 -1.638119 -2.9777668
-1.1238921 -1.9501677 3.0403805 0.64471066 0.4839961 -0.52605605 -0.27503008 1.2569807
-0.7512731 0.44461876 -0.57888705 -2.1458986 0.6829961 -0.26564288 -1.879715 0.60237694
-0.71403784 -0.3192925 0.27797982 -0.943803 0.16468915 0.16253212 1.1322602 1.4488095

network.0.bias f4 [512]
00000000: 46f9 c13d 00b2 a93d 356a d0bd 926e 01bd
00000010: 2c53 4abd 11e8 d23d c868 243c ade6 173c
00000020: 5928 a13d fd63 07be 3e25 a5bd 2d96 efbd
00000030: c578 56bd 32ab f43d 8faf ec3d 6ecd 483d
00000040: 26b4 603d 5ec4 06be 49bb 30bd 5910 033e
00000050: 9373 12bc ce47 d6bc 7dc6 e8bd f898 ca3d
00000060: 59af 17bd 60b0 483d 4b8f 0e3e 3290 e9bd
00000070: 95ca e03d f8e0 553a 72f2 c33d ec3b 34bd
00000080: eb17 003e 2603 6f3c 4685 f63d ab52 883d
00000090: acd8 ccbd 7bd3 da3d 1c2f 03be 4864 5abd
000000a0: c9dc 2bbd d6a1 1f3c 624c 92bd aaf6 e23d
000000b0: f403 f0bd e0c6 9c3d a684 d13d 171c 763d
000000c0: eb80 333d 78d3 163d b5fa ae3c 7c30 9c3d
000000d0: 66e1 ff3d 8b1b 073e 4b96 913d f965 eabc
000000e0: 7c9f 923d 9ea8 023e 903b 023d a132 9a3d
000000f0: 99df b9bc d583 d23d 04c0 a5bc c6d8 4c3d
00000100: 8c03 47bd 2b19 0a3e 3827 7bbb 67a1 103e
00000110: 1598 fabd 37c7 f2bc e957 f6bd f92f 8bbd
00000120: e5e7 8abd f7f9 1e3d 7345 753d 7bbf bd3d
00000130: 477c 53bb bf8c fbbd a319 09be b9a0 d5bd
00000140: df7e d53c 58df 19bd 4022 11be d9cb 43bd
00000150: a513 f83d 03c6 8b3d c7c2 593b 4cf5 0dbe
00000160: 817c 9f3c 4b58 d53d 5f9f 46bd 3a2b c63b
00000170: 7c43 a93d 3e0d a43c 88fb 0e3e f33b 82bd
00000180: 34a4 0a3e dc6d af3d 8a18 01be b19e 283d
00000190: 4aa7 83bd 4aac 28bc c01c 4ebc 8b51 02be
000001a0: d3ec 923d f3ce 4b3d 2297 013d d5c3 03be
000001b0: 1b4b 483d e73e a8bd cac8 ebbd 86d1 a8bd
000001c0: 8c14 dc3d 45d3 0ebe b3ed cdbc c52c 453c
000001d0: 2ba1 563d 1eb6 f93d e835 ef3d 9169 b63b
000001e0: 1abb 633a 6685 d13d 4eac 463c 1bba 9a3c
000001f0: 5d05 223d d61e e5bc 805f 3c3d 4bc0 d4bd
00000200: 6ec0 41bd 31d3 033e d04a afbd 6dc5 e03d
00000210: ece6 fd3d 98f4 fabc 2f9e 083e e75c 1abb
00000220: b465 0b3e d090 d83d 4070 053d 80d9 a63d
00000230: 3c7b 87bd 65cb 033e 3676 f03c b862 5f39
00000240: 4e1a 83bd b4e6 58bd 3df6 50bd 05ff 4abd
00000250: 37a1 97bd eb8f ed3d 0df8 00be c060 063c
00000260: 800b 17bd bb72 503d 3c57 fdbc 7451 e0bd
00000270: fa6f 04be 02e1 d9bd 41b1 4dbd 23c5 893d
00000280: ae7e 7e3d 65b5 c63c 1b9f f6bb 8937 fc3d
00000290: 63d0 ca3d 0ebd ae3d 29fd 42bd 877a 0e3c
000002a0: 0972 11be 2dbd 47bc be45 f03d 901b 71bd
000002b0: 0859 79bd 6d4d eebd 67c3 a63d dcc4 f23d
000002c0: efc9 25bd db96 ce3c 518f 92bd 9dc9 52bd
000002d0: 5778 aa3d b556 b13d 17bf c4bd 1117 663d
000002e0: cab2 c7bd 5995 37bd be05 afbd fcc4 d33d
000002f0: 3b59 0abe 1206 a1bd 025e fdbd 9df0 46ba
00000300: f135 7e3d 05dd 9abc 03c0 85bc 2d12 043d
00000310: 9002 6abd 7abc 05be 90aa 13bd c7e6 a5bb
00000320: 70a8 8cbd 0fb5 87bd cf7a 91bd 2823 b0bd
00000330: 9044 f13d f62b a53d 2bd6 6cbd 035f d4bd
00000340: d8fc f7bd 4b5b 91bd 435d 093e aaff 3b3d
00000350: 2061 583c 79ce 48bd a288 f9b9 dd46 bfbd
00000360: 5afa d8bd 56a3 ffbd 0419 943c 1f58 0abe
00000370: 395f ab3d c431 ac3d 3109 c3bc b10e c3bc
00000380: a45f c33d ce6f dbbd 77da 3a3d b930 54bc
00000390: 393a 0dbe 9c0e 013e b926 c03b 4b3a 0fbe
000003a0: 4adb cbbc 811e 10be 9855 ad3d 6a88 d83c
000003b0: 1b71 e0bd cdcb e3bd 5bf0 903d 036e 17bc
000003c0: fcd4 bbbd 39da b0bd 8abc 0ebe 3cb8 253d
000003d0: 1ac6 e2bd 55dd bc3d a3a5 23bd 91a3 4bbc
000003e0: ca2c ad3c 3ea3 0b3e 9d97 9ebc 76c5 c93d
000003f0: afb4 bcbd 47a2 963d e6d2 bf3d a9d6 2ebd
0.09471373 0.08285904 -0.101765074 -0.03159959 -0.049395725 0.102981694 0.010034747 0.009271306
0.07869024 -0.13221736 -0.08063744 -0.11698566 -0.05236127 0.119467154 0.11556923 0.049024038
0.054859303 -0.13160846 -0.04314736 0.12799205 -0.008938688 -0.026157286 -0.11365984 0.09892458
-0.03703246 0.04899633 0.1392185 -0.11404456 0.109761395 0.0008158828 0.09567727 -0.04400246
0.12509124 0.014588153 0.12037139 0.06656393 -0.100022644 0.10684868 -0.1281094 -0.053318292
-0.041958604 0.009743175 -0.07143475 0.11082204 -0.11719504 0.0765512 0.10230379 0.060085382
0.043824118 0.036822766 0.02135978 0.07626435 0.12494163 0.131941 0.07108744 -0.028613077
0.071593255 0.12759635 0.031795084 0.07529188 -0.022689627 0.10279051 -0.020233162 0.05001142
-0.048587367 0.13486163 -0.0038322937 0.1412407 -0.122360386 -0.029636009 -0.12028486 -0.067962594
-0.067825116 0.038812604 0.059880685 0.092650376 -0.003227012 -0.122827046 -0.13388686 -0.10431046
0.026061473 -0.037566513 -0.14173222 -0.047801826 0.12113122 0.06824877 0.0033227669 -0.13863105
0.019468548 0.10417231 -0.048491832 0.0060476335 0.08264825 0.020025846 0.13963139 -0.06359091
0.13539201 0.08565876 -0.12607017 0.041166965 -0.06428392 -0.010294983 -0.012580097 -0.12726419
0.07174077 0.04975791 0.031638272 -0.12867673 0.04889975 -0.08215123 -0.11512907 -0.082430884
0.107461065 -0.1394778 -0.025137758 0.0120346 0.052399796 0.12192939 0.11680204 0.0055667837
0.0008687243 0.10230522 0.012126042 0.01888757 0.039555896 -0.027968805 0.045989513 -0.103882395
-0.047302656 0.12873532 -0.08559191 0.10975156 0.123975605 -0.03063421 0.13341592 -0.002355391
0.13613015 0.10574496 0.032577753 0.081469536 -0.06615302 0.12870558 0.029353242 0.00021303713
-0.064015016 -0.05295439 -0.05101608 -0.04955961 -0.07403796 0.11599716 -0.12594624 0.008201778
-0.0368762 0.050890666 -0.030925386 -0.10953036 -0.1293334 -0.1063862 -0.05021787 0.06727054
0.06213253 0.024256418 -0.007526291 0.1231528 0.09903028 0.08532153 -0.047604714 0.008696205
-0.14203657 -0.012191099 0.11732052 -0.058864176 -0.060875922 -0.116358615 0.08142739 0.11853954
-0.040475782 0.025218418 -0.07156242 -0.051461805 0.08323734 0.08659116 -0.0960676 0.05617434
-0.09750898 -0.044820163 -0.08546017 0.10340306 -0.13510601 -0.07862486 -0.12371446 -0.0007588955
0.06206316 -0.018904218 -0.01632691 0.032243896 -0.05713135 -0.1306018 -0.036051333 -0.005062911
-0.068680644 -0.06626331 -0.07103502 -0.086004555 0.117806554 0.080650255 -0.057821434 -0.103696845
-0.12108773 -0.07097491 0.13414483 0.045898117 0.01320675 -0.049025033 -0.0004759478 -0.09339688
-0.10594626 -0.12482326 0.018078335 -0.13510178 0.08367772 0.084079295 -0.023808094 -0.023810716
0.095397264 -0.107146844 0.0456185 -0.0129510695 -0.13791741 0.1260323 0.005863991 -0.13987081
-0.024884839 -0.14074136 0.08463591 0.026432235 -0.10959073 -0.11122856 0.07077094 -0.009242537
-0.09171483 -0.08635373 -0.1393911 0.040458903 -0.11072941 0.09221903 -0.039952885 -0.012429134
0.021139521 0.1363649 -0.019359404 0.09852116 -0.0921415 0.07355171 0.093663976 -0.042685185

network.1.weight f4 [512]
00000000: 627d 2141 2578 2b41 f885 2441 e71e 2a41
00000010: 72fb 3c41 682d 3c41 9830 3a41 466e 2741
00000020: 4b98 2341 3a3d 4441 c7ad 3141 9a39 4541
00000030: 40fc 3141 9648 3241 b84c 3041 1e38 4341
00000040: 2b02 3741 856a 2141 f545 2f41 cf71 4a41
00000050: 0e01 3e41 f9ec 1f41 26d1 3041 223d 3b41
00000060: 15f7 3241 16df 3941 867c 4241 94a1 2741
00000070: d0c5 2c41 452a 3b41 22e7 3241 5026 2f41
00000080: 0708 2c41 c409 4841 b692 3c41 c70c 3e41
00000090: b3c2 2d41 f383 2a41 2be9 4041 c82f 4541
000000a0: 7952 2741 645d 2841 ee04 4541 d988 3541
000000b0: c424 3341 6e03 3641 2959 3841 6a4f 2941
000000c0: 395a 2541 36fb 3f41 1b6a 2b41 c3be 2141
000000d0: 755b 2341 8e9d 2641 e98e 2c41 0d53 3341
000000e0: c015 1c41 7530 2441 2a21 4341 02c1 3241
000000f0: 0270 2641 4b16 2b41 2ab7 2141 5906 2841
00000100: 1c91 3941 f882 4441 0161 3341 7256 3541
00000110: 514a 2241 b5d2 3241 a642 2741 b218 2b41
00000120: a228 3c41 64d1 3741 9f1f 3341 52ef 2441
00000130: 8ab9 2141 71cc 3541 12c3 2a41 0554 3d41
00000140: 1afa 4a41 2e44 2c41 d7e9 3141 8bc5 2941
00000150: 5da6 3741 3b24 2341 0fa9 4941 73a7 3041
00000160: f652 2e41 d8f8 2941 9649 1c41 d6d0 2741
00000170: 1a9a 1241 0c4d 4641 e58a 4241 674d 4e41
00000180: 8729 2541 14b2 3541 58c0 3041 14fd 2741
00000190: 9a3a 2b41 998f 2c41 d16d 2a41 c4d8 3041
000001a0: cee6 1b41 67bb 2841 5c96 1741 c59c 2c41
000001b0: 5f21 3c41 b444 3241 3945 3641 abd2 2b41
000001c0: 8e7d 3241 045f 2d41 28c2 3941 b028 3341
000001d0: 2dc3 3e41 7a51 4241 d118 3141 1841 3141
000001e0: f79f 3641 0226 2541 12cd 1d41 4788 3941
000001f0: 066c 1341 7da3 3941 2e5a 4941 85bb 4941
00000200: d8af 2e41 bc0d 2141 d502 2841 85fb 1f41
00000210: 9033 3441 d1e1 1c41 a87e 4741 3a67 3c41
00000220: 330a 3141 efd1 2241 72bf 2941 cbc6 3d41
00000230: 36bf 4b41 87f6 3b41 c1e2 2d41 823b 3b41
00000240: 8b4e 3f41 08da 0e41 7c1e 2641 c0b0 2e41
00000250: d919 2641 0513 2b41 a86f 4341 e31e 4041
00000260: 09f6 3841 7a91 3e41 56e5 2641 cf21 2841
00000270: 1856 2341 ee23 4041 e76a 2e41 cb4b 1641
00000280: 0ccb 3041 8b27 3441 f5f8 2641 cd15 2141
00000290: 8b22 3141 9bcf 3341 bdb1 4041 1bca 2f41
000002a0: b708 3a41 9210 1c41 6b35 2341 8be9 2641
000002b0: ccc7 3d41 307a 3641 4f0f 2641 8e34 2741
000002c0: 17a0 1b41 613b 2d41 261c 3e41 efe7 2b41
000002d0: eecb 1541 a6dd 2641 875f 2c41 dace 2b41
000002e0: 06ae 2f41 ee53 2f41 4a76 2941 787a 1641
000002f0: f0f5 1041 142b 2f41 f4f9 3141 6774 3f41
00000300: 8bda 3541 db95 2441 7da1 3041 80c1 2741
00000310: e387 2e41 9e88 2141 a09d 1a41 ae0e 2f41
00000320: 30f4 3441 9cfb 3a41 34f1 3941 2922 2941
00000330: f2f2 3341 852b 3c41 39e0 2b41 23fa 4e41
00000340: 6b51 3e41 1ef5 2a41 1304 3641 51cd 1e41
00000350: 30aa 2541 7f29 4241 60f9 3341 6f07 3241
00000360: 575c 1641 2bf4 1a41 e7e4 2941 85f0 3f41
00000370: ae30 2441 237e 3f41 a84a 3241 a76c 1a41
00000380: c537 2a41 2fdd 2441 4daa 3841 1ffe 2241
00000390: 741e 3441 3ca4 1741 032e 4241 aa75 2e41
000003a0: df90 3341 7c00 3441 1191 1641 8bbc 1541
000003b0: b397 2641 ef6c 3f41 1e80 3f41 a741 2b41
000003c0: cef0 3441 1263 2841 67b5 3141 94db 3641
000003d0: e8d6 3641 969d 1a41 22ef 2e41 8342 2c41
000003e0: 3427 2641 59bf 3641 efd2 3f41 8338 1a41
000003f0: 2f52 4341 c768 3841 d3f6 3c41 761a 1741
10.093111 10.716832 10.282707 10.6325445 11.811388 11.7610855 11.636864 10.464422
10.224681 12.264948 11.104926 12.326563 11.124084 11.142721 11.01873 12.2012005
11.438029 10.088506 10.954579 12.652785 11.8752575 9.995355 11.051062 11.702425
11.185323 11.616964 12.155401 10.476948 10.798294 11.69782 11.181429 10.946854
10.75196 12.502384 11.785818 11.878119 10.860034 10.657214 12.056926 12.324165
10.457635 10.5228 12.313704 11.34591 11.196476 11.375837 11.521768 10.581888
10.334527 11.998831 10.713405 10.109073 10.209828 10.4134655 10.78489 11.207776
9.75531 10.26183 12.195597 11.172121 10.402346 10.692943 10.107218 10.50155
11.597927 12.281975 11.211183 11.333605 10.143144 11.176442 10.453772 10.693529
11.75992 11.488621 11.19522 10.308428 10.107798 11.362412 10.672625 11.833013
12.68606 10.766645 11.11959 10.610728 11.478116 10.196345 12.603774 11.040881
10.895254 10.623253 9.767965 10.488485 9.162622 12.39381 12.15891 12.893897
10.3226385 11.355976 11.046959 10.499287 10.701807 10.785058 10.651811 11.052921
9.743849 10.545753 9.474209 10.788274 11.758147 11.141773 11.3919 10.738933
11.155653 10.835697 11.609901 11.197433 11.92265 12.144892 11.068559 11.078392
11.414054 10.321779 9.862566 11.595771 9.213873 11.602414 12.584517 12.608281
10.917931 10.065853 10.500691 9.998906 11.2625885 9.805131 12.468422 11.775202
11.06499 10.176253 10.60924 11.861033 12.734182 11.747687 10.86786 11.702028
11.956676 8.92823 10.382442 10.918152 10.38131 10.692143 12.21476 12.007541
11.560067 11.910517 10.43099 10.508254 10.208519 12.008772 10.901099 9.393504
11.049572 11.259654 10.435781 10.067822 11.070933 11.238185 12.043393 10.986842
11.627128 9.7540455 10.2005415 10.432017 11.861279 11.404831 10.378737 10.450331
9.726584 10.826997 11.881872 10.744124 9.3622875 10.429113 10.773322 10.738001
10.979986 10.957991 10.591379 9.4049 9.060043 10.948017 11.123524 11.965919
11.365855 10.286586 11.039426 10.484741 10.908175 10.095854 9.663483 10.941084
11.309616 11.686428 11.6213875 10.57084 11.246813 11.760625 10.742242 12.936069
11.894877 10.684843 11.375995 9.925126 10.35405 12.135131 11.248383 11.126815
9.397544 9.684611 10.618384 11.996221 10.261885 11.968295 11.143227 9.651526
10.638616 10.304 11.541577 10.187041 11.257435 9.477596 12.136233 10.903727
11.222869 11.250118 9.410417 9.358531 10.412036 11.964095 11.968779 10.703528
11.30879 10.524187 11.106788 11.428608 11.427467 9.663473 10.933382 10.766238
10.384571 11.421716 11.988997 9.638797 12.207564 11.52558 11.81026 9.44396

network.1.bias f4 [512]
00000000: e8d3 a8c0 07b1 c9c0 2b70 d4c0 1977 d9c0
00000010: 66ff b4c0 2fa1 d9c0 6157 a5c0 8b84 aec0
00000020: 833e d8c0 2ecc 99c0 9e74 d3c0 0ee6 fac0
00000030: b8b3 ccc0 c4aa b4c0 c8d0 b4c0 7bf6 f6c0
00000040: b7d2 b0c0 0848 5bc0 3d75 0bc1 7e21 01c1
00000050: 4666 e4c0 40c3 a8c0 e8a2 d7c0 3775 c9c0
00000060: 0381 b4c0 9b09 d4c0 8d3e 08c1 5764 14bf
00000070: 2d62 dfc0 6d91 d2c0 1e99 c2c0 7536 bec0
00000080: 556a cec0 02f6 95c0 1363 f7c0 6292 b9c0
00000090: 2d72 c4c0 ae0e edc0 7c10 d0c0 ed7e c1c0
000000a0: 0ad8 b4c0 2c09 9ec0 28e5 a1c0 8ffa e4c0
000000b0: 6f5e ebc0 3797 ddc0 ee60 dfc0 ad22 91c0
000000c0: 450a a2c0 669d e8c0 1af2 05c1 d584 85c0
000000d0: fa69 76c0 b97a c8c0 ae0a d7c0 209f adc0
000000e0: 5ed9 c7c0 4830 d6c0 be92 e3c0 2488 f6c0
000000f0: 1472 dac0 47ac b4c0 b8c9 bec0 2fea a7c0
00000100: 4f85 bec0 f93a 96c0 2e5e e0c0 0e0c c5c0
00000110: a49b c9c0 1172 d3c0 92e8 4cc0 6c12 ecc0
00000120: 4bb2 8fc0 af78 d1c0 758d f0c0 013e b2c0
00000130: e6a0 dec0 d414 bac0 62eb b3c0 7067 e1c0
00000140: 9080 d9c0 7ae1 82c0 c773 bcc0 5110 bcc0
00000150: a522 d0c0 3a4b a7c0 d6e7 bac0 ce43 aec0
00000160: dec4 e5c0 57f5 9fc0 b7a0 cac0 39eb b0bf
00000170: 5def 4bc0 f76a bdc0 7a11 d2c0 38cb cac0
00000180: 356e 79c0 7d8d a8c0 cf8f eac0 0dba b8c0
00000190: fb6e bcc0 82b7 e3c0 eda3 a9c0 e52a 9dc0
000001a0: 297f a8c0 27d5 b0c0 457b 1cc0 0f83 8ac0
000001b0: 17f4 c0c0 391d 5cc0 82ea ddc0 9b93 eac0
000001c0: 518c cbc0 a5d0 aec0 043c 04c1 0b92 d3c0
000001d0: d5e0 e4c0 93ba d5c0 d509 d7c0 73fa e3c0
000001e0: 586d d9c0 8559 99c0 9613 d6c0 1188 d0c0
000001f0: f471 bec0 8766 e3c0 2cf6 d8c0 d5ad e8bf
00000200: b7d1 12c0 02d0 a4c0 6cf7 eac0 74c5 bec0
00000210: c9d1 c9c0 1757 acc0 c919 cdc0 45ec 7cc0
00000220: eeae dec0 2b1d 7bc0 bdf3 d2c0 9b78 f6c0
00000230: 002e f7c0 c6a8 d5c0 e686 d6c0 157b efc0
00000240: fbb8 e9c0 7a11 c4c0 e4b0 8cc0 9cca e4c0
00000250: 662f 8ec0 6346 b8bf 7d1a dec0 d658 02c1
00000260: 7d28 7fc0 2bae b1c0 a1a7 b3c0 d0ef 99c0
00000270: 4376 78c0 974a bec0 0cac 04c1 50a1 69c0
00000280: e827 edc0 cff9 e1c0 df53 45c0 40f2 a4c0
00000290: 7dc3 cbc0 e1af b3c0 39ff b2c0 bdde 7fc0
000002a0: c44d dbc0 d719 e9c0 d24f 87c0 4285 8ac0
000002b0: 33ad d1c0 6b99 ccc0 5713 ffc0 a60c d2c0
000002c0: 2430 d6c0 2aa1 cbc0 7dba edc0 4b4a fac0
000002d0: 4f98 c9c0 768a 9ac0 b31a dec0 e051 dec0
000002e0: 16f4 c0c0 d6a7 e4c0 817f 6ec0 d27f b3c0
000002f0: b5de f6bf bbaf cac0 2764 07c1 c33c f8c0
00000300: 2d34 b8c0 ca20 d9c0 ea7c ccc0 c922 e1c0
00000310: 86e0 c6c0 905f dec0 dc85 bfc0 d700 cac0
00000320: 637b a5c0 b5f9 bac0 9b8c e1c0 22c1 afc0
00000330: 220a acc0 4bb5 e4c0 954c a5c0 d7a8 b8c0
00000340: 8a48 cfc0 f0f1 e6c0 ec39 e1c0 cea0 f9c0
00000350: c9fa a9c0 bfc1 a1c0 d88c ebc0 0843 b9c0
00000360: 689d b8c0 dafa 9fc0 2c5b 91c0 9304 cec0
00000370: 86bf d2c0 529e b2c0 355c b2c0 7f43 e2c0
00000380: 4edb cac0 52ea c9c0 46f4 c7c0 59ea 7ac0
00000390: 81f3 fcc0 6685 0fc1 fe0c b9c0 008c acc0
000003a0: 8373 97c0 7308 e6c0 0563 9bc0 eae4 dac0
000003b0: 5773 f6c0 7ae5 f9c0 069f bec0 2bc2 c5c0
000003c0: a791 88c0 eb21 90c0 cab0 e9c0 2f05 00c1
000003d0: 35d2 d8c0 ca9e 03c1 ad2a ddc0 0b4f 94c0
000003e0: 3047 a4c0 2622 bdc0 2129 c4c0 2123 92c0
000003f0: 3d6d afc0 b8c9 56c0 8a98 fbc0 b223 a4c0
-5.2758675 -6.30286 -6.6386924 -6.7957883 -5.6561766 -6.8009257 -5.1669164 -5.4536796
-6.757631 -4.8061743 -6.6079855 -7.840583 -6.3969383 -5.6458454 -5.650486 -7.717588
-5.525722 -3.4262714 -8.716123 -8.070677 -7.1374846 -5.273834 -6.738636 -6.2955585
-5.6407485 -6.6261725 -8.515271 -0.57965606 -6.9807343 -6.580252 -6.081191 -5.9441476
-6.45048 -4.6862803 -7.730844 -5.799119 -6.1389375 -7.408042 -6.5020123 -6.046744
-5.651372 -4.9386196 -5.059223 -7.155586 -7.3552775 -6.924709 -6.980582 -4.535483
-5.0637536 -7.2692137 -8.371607 -4.172465 -3.8502183 -6.264981 -6.7200537 -5.4256744
-6.245284 -6.6933937 -7.111663 -7.7041187 -6.8264256 -5.64603 -5.962124 -5.247337
-5.953773 -4.694699 -7.0114965 -6.1577215 -6.300249 -6.607674 -3.201695 -7.377249
-4.4905143 -6.545982 -7.5172677 -5.570069 -6.957141 -5.8150425 -5.6224833 -7.0438766
-6.7969437 -4.090024 -5.889133 -5.8769917 -6.504229 -5.227933 -5.8408003 -5.445777
-7.1802816 -4.9986987 -6.3321185 -1.3821784 -3.1864846 -5.919307 -6.5646334 -6.337307
-3.8973515 -5.2672715 -7.3300548 -5.7727113 -5.8885474 -7.116151 -5.3012605 -4.911486
-5.2655225 -5.5260196 -2.4450238 -4.3284984 -6.029796 -3.4392836 -6.9348764 -7.3305182
-6.3608785 -5.4629693 -8.264652 -6.6115775 -7.1524453 -6.679025 -6.71995 -7.1243224
-6.7945976 -4.7921777 -6.689891 -6.5166097 -5.9514103 -7.1062655 -6.7800503 -1.8178049
-2.29405 -5.1503916 -7.342703 -5.961603 -6.3068585 -5.385631 -6.4093976 -3.9519207
-6.9588537 -3.9236553 -6.592253 -7.7022223 -7.724365 -6.676852 -6.703967 -7.4837747
-7.3038306 -6.1271334 -4.396593 -7.1497326 -4.443286 -1.439648 -6.9407334 -8.146688
-3.9868462 -5.5525107 -5.6142125 -4.810524 -3.8822181 -5.946605 -8.292004 -3.6504707
-7.4111214 -7.061744 -3.083244 -5.1545715 -6.3676133 -5.6152196 -5.593655 -3.9979699
-6.853243 -7.2844043 -4.2284937 -4.328767 -6.5523925 -6.393728 -7.971111 -6.564044
-6.6933765 -6.3634233 -7.4290147 -7.821569 -6.2998424 -4.829402 -6.940759 -6.9474945
-6.0297956 -7.145488 -3.7265322 -5.609353 -1.9286715 -6.3339515 -8.461951 -7.757417
-5.756369 -6.7852526 -6.3902483 -7.035496 -6.2149076 -6.9491653 -5.9850903 -6.3126025
-5.171312 -5.842982 -7.0484138 -5.492326 -5.376237 -7.1471305 -5.1655984 -5.7706103
-6.477605 -7.2170334 -7.0383205 -7.8008795 -5.3118634 -5.0549006 -7.360943 -5.7894325
-5.7692146 -4.9993715 -4.5423794 -6.4380584 -6.5858793 -5.581826 -5.5737557 -7.0707393
-6.3392706 -6.3098536 -6.2485685 -3.9205534 -7.9047246 -8.970068 -5.782836 -5.39209
-4.7328506 -7.1885314 -4.8558373 -6.8404436 -7.7015796 -7.8092623 -5.956912 -6.179952
-4.26778 -4.5041404 -7.3028307 -8.001266 -6.77566 -8.226267 -6.9114594 -4.634649
-5.13369 -5.9104185 -6.1300206 -4.566788 -5.4820848 -3.356062 -7.8623705 -5.1293573

network.1.running_mean f4 [512]
00000000: 386d 02bf 7ee6 a63e a94f 08bf 7b88 793e
00000010: cc93 e43e c46b 82be 101d ac3c 8d6d 123e
00000020: 6467 183e 38c8 683e fcbb 543d 278c 2dbf
00000030: 80b3 94be 46cd e8be 2732 193f 1cbc 56be
00000040: d027 2d3f 9aed ebbd eb22 0ebf a0d1 933c
00000050: 9065 bd3d 9e3c abbe 4057 24bc ee8b 2f3f
00000060: 4225 8abe ba6a 66be 7cb7 e2be 202e 6abe
00000070: 1511 9fbe 48f3 1fbf 9e15 0abe 2987 95bf
00000080: eef8 6b3e d030 02bf e778 a33f d508 d8be
00000090: f151 49be 7438 05bf 8a63 81be 95e9 14bf
000000a0: 72da 5c3e a274 093f 7cde aa3e aa75 013e
000000b0: e8b3 50be 3815 993c 2f82 633e 40e9 a93e
000000c0: f38e 80be 2741 dc3d 3652 04be cb62 db3e
000000d0: 30c9 12bd ba97 43bf 8c93 cd3d eaae 8f3e
000000e0: dc13 17bf 6566 70bf bc30 99be 4610 8b3d
000000f0: 2a73 4b3e 8018 4a3f 8c1d 40be 8d58 373e
00000100: f4ec 94be d403 d1be 7815 3ebf 0680 853d
00000110: c0b7 2dbf 6a0c babd 1c60 a73d c6dc 06bf
00000120: def6 b3be b9f2 833e 70c6 3d3c ccb9 d1bd
00000130: 2f00 35be 5fe5 56bf e829 4fbe 1b63 96bf
00000140: 4089 07bf 643e b9be 2e85 5e3e f666 12bf
00000150: 2cc5 453f 8013 54be 216f 3a3e 365e 7ebe
00000160: bbd5 173e 0c30 32be 86fc d23e f3ad 2abd
00000170: 97b4 8cbe 65f2 0fbf 3f41 503f b8c1 cd3c
00000180: 28e4 1a3f c50f 6dbf c271 f4be fbc2 82be
00000190: b708 eebe f2a7 38bf e957 0fbf 3c48 813e
000001a0: e3dd 88be c834 16be b69b 4f3d 38a9 44bf
000001b0: 00dc de3c 1d39 f0bd 74eb e9be 4890 9f3e
000001c0: c273 f83e 22cc 46bd c8af adbe a7c1 54bf
000001d0: 3ef9 1fbe 1321 32bf c858 89bf 2de7 b43e
000001e0: 6997 083f 90f4 3a3f 8a91 67bf 4c9d fcbe
000001f0: 3cd8 b23e 874d 5cbe 0042 17bd a195 a33d
00000200: b526 1cbe 0d05 87be 5f8b 8bbe 0651 e7bd
00000210: bf65 9a3e aa55 1fbd 2e98 143f 26b2 203e
00000220: ddd1 2fbf 4879 353e 4d77 acbe 260e 5dbe
00000230: f3d1 d43d ac66 423e a047 663b 78e8 533d
00000240: dd48 8c3d 6325 9fbe c6b1 0d3f 00ae bbbe
00000250: 2c01 29bf d4ea 9dbe 1a5b c93d fcf8 aabd
00000260: 90e9 a1bc f745 f73d 680e 8b3e 3841 253f
00000270: 2e0a 47be 49e6 9ebe d4fc d9be 3410 2ebf
00000280: ae44 39bf b653 be3e b0aa 5cbd 1cdd 04bf
00000290: 4c47 54be b5d6 0d3f 83c8 c8be 2ebc 39bf
000002a0: 46f6 8dbe 4f3d 23be 42c3 1e3e a74c 8fbf
000002b0: 7220 bfbe 31ff acbf 9677 bfbe 3c44 d9bd
000002c0: a737 3c3f a82d ba3d 8d98 173e bf35 433f
000002d0: b236 6fbf 405c 393f 62ae c6bc 075e 6f3f
000002e0: 615a 823e 5c31 95be 42b2 0dbf df72 85be
000002f0: d245 8cbe 6bc4 b0be e0b6 acbe b874 33bd
00000300: 659f 033e da43 103f a533 3c3e 45e4 4e3e
00000310: 29b4 3ebf 47e0 8fbf 684b e9be 4130 2e3f
00000320: 357a 9abe 4257 50bf 6b61 103e 5622 4abd
00000330: 5df7 dbbd 2006 2ebc 53e3 673e f67e 333e
00000340: cdb6 0fbf 9819 05bf f2c3 0f3e ce41 f2be
00000350: 4b59 53bd 04d6 f43e 0ee4 9fbe 4ea2 063f
00000360: 94b9 77bf 62f0 b4be fcf2 40bf fc06 b0be
00000370: a3ad 22bf 854b 24bd d063 f3bd 9acc 533e
00000380: 4a6a a0be 18ba a23c 1658 75bf ee0b 93bd
00000390: 1652 72be e596 61be da55 323f de8c 1e3e
000003a0: 28e8 a93e 4ace 23be 9ce2 1fbe ec62 4c3f
000003b0: d3be 90bf 53e3 06bf 7e52 4dbf 56b8 f1be
000003c0: bff9 8ebf f252 f53d 7247 273f a6e3 43bf
000003d0: b0dc 973e 45e1 54bf fa5f d4bd da8d e13d
000003e0: 74ea 6a3f e8a1 fa3d 02ac f53e 8c65 e73e
000003f0: ef84 f93d c0bd 223d 56c8 4dbd 2969 53bf
-0.50947905 0.32597727 -0.5324655 0.2436847 0.4464401 -0.25472844 0.021009952 0.14299603
0.1488319 0.22732627 0.05193709 -0.6779198 -0.29043198 -0.4546911 0.5984215 -0.20970196
0.67638874 -0.11519928 -0.5552203 0.018044293 0.09247887 -0.33444685 -0.010030568 0.6857289
-0.2698155 -0.2250165 -0.44280612 -0.22869158 -0.3106772 -0.6248059 -0.13484809 -1.1681873
0.23044178 -0.5085573 1.2771271 -0.42194238 -0.19660164 -0.52039266 -0.25271255 -0.5816892
0.21567705 0.5369359 0.33372867 0.12642542 -0.20381129 0.018686876 0.2221763 0.33185768
-0.25109062 0.10754614 -0.12921986 0.4284881 -0.0358364 -0.7640339 0.10037908 0.28063136
-0.5901468 -0.9390624 -0.29919994 0.06790213 0.1986815 0.78943634 -0.18761271 0.17904873
-0.2908703 -0.40823233 -0.7425151 0.06518559 -0.67858505 -0.09084399 0.08172628 -0.52680624
-0.35149282 0.2577112 0.011582956 -0.10240516 -0.17675851 -0.8394374 -0.2023083 -1.1748995
-0.529438 -0.36180413 0.21730492 -0.57188356 0.77253985 -0.20710564 0.18206455 -0.24840626
0.14827625 -0.17401141 0.41208285 -0.041669797 -0.2748153 -0.5622924 0.8134956 0.025116786
0.6050439 -0.9260219 -0.4774304 -0.25539383 -0.46491024 -0.72131264 -0.55993515 0.25250423
-0.26731786 -0.14668572 0.050685607 -0.7682071 0.027204514 -0.117296435 -0.4568745 0.31164765
0.48525816 -0.04853452 -0.33923173 -0.8310799 -0.15622422 -0.6958172 -1.0730219 0.35332623
0.53356034 0.7302942 -0.9045645 -0.49338758 0.349306 -0.2151395 -0.036928177 0.07987524
-0.1524914 -0.2637104 -0.2725477 -0.11294751 0.3015575 -0.038900055 0.5804471 0.15692958
-0.686796 0.17722046 -0.3368477 -0.21587428 0.10391607 0.18984479 0.0035137907 0.05173537
0.06849835 -0.3108321 0.55349386 -0.3665619 -0.66017413 -0.30843222 0.09831829 -0.08348271
-0.019764692 0.120738916 0.2715943 0.6455264 -0.19437477 -0.3103507 -0.42575705 -0.67993474
-0.7237042 0.3717324 -0.053873718 -0.51899886 -0.20730323 0.5540574 -0.39215478 -0.72552764
-0.27726954 -0.15941356 0.15504172 -1.1195267 -0.3732944 -1.3515378 -0.37395924 -0.10608718
0.7352242 0.090907395 0.14804287 0.76253885 -0.93442833 0.7240639 -0.024253074 0.9350285
0.2545958 -0.2913922 -0.55350125 -0.26064202 -0.2739702 -0.34524855 -0.33733273 -0.043812484
0.12853773 0.56353533 0.18379076 0.20204265 -0.7449365 -1.1240319 -0.45565343 0.6804238
-0.30171362 -0.81383145 0.14099662 -0.04934915 -0.1074054 -0.0106215775 0.22645311 0.175289
-0.56138307 -0.5199218 0.14039591 -0.4731583 -0.05159883 0.4781953 -0.3122868 0.5259141
-0.96767545 -0.35339648 -0.75370765 -0.3438033 -0.635462 -0.040111084 -0.11884272 0.20683518
-0.31331092 0.019864127 -0.95837533 -0.0718001 -0.23664126 -0.22030218 0.6966225 0.15483424
0.33184934 -0.15996662 -0.15613788 0.7983844 -1.1308235 -0.5269062 -0.80204 -0.4721095
-1.1169966 0.11978711 0.6534339 -0.7651924 0.2966056 -0.83156234 -0.103698686 0.11013384
0.91764 0.122379124 0.47982794 0.45194662 0.12183558 0.03973174 -0.050239883 -0.82582337

network.1.running_var f4 [512]
00000000: 638c 5144 03a7 1a44 648f 5444 c0d1 8144
00000010: f904 7844 121c 8344 853c 6e44 b7bb 2b44
00000020: 6c72 6144 de5b 8944 b89a 9c44 74d4 3e44
00000030: ab00 8b44 2fc1 6144 9e2a 4844 d986 8544
00000040: 47e8 8044 3ca9 8a44 d987 8944 a4aa b444
00000050: 332b 5d44 d7a1 6144 945f 7944 d817 8c44
00000060: 220f 4f44 60c0 6b44 88f7 6f44 6091 9544
00000070: 2e38 2444 ed75 1d44 9b39 4344 4a8e 8444
00000080: d1f6 5e44 17fa 6f44 a269 8444 32ce 4c44
00000090: e84d 7744 358f 6c44 9457 7444 85f1 7444
000000a0: 89c1 3044 77be 8d44 995f 8544 8da3 3144
000000b0: 20fb 4544 8c93 5144 ede5 5d44 1529 5644
000000c0: 78c4 6744 90bd 6444 969c 4d44 bd47 5b44
000000d0: cf9f 8344 bc45 6e44 8ecf 5344 b5e9 4444
000000e0: f299 6344 c85d a944 208b bb44 c590 6a44
000000f0: d9a6 5544 4142 7144 85a4 4d44 ee0f 2244
00000100: d64d 2a44 2e27 8244 c1fc 9f44 8551 5a44
00000110: 0fe5 2844 1ce2 4f44 912d 7a44 02ee 8144
00000120: 111b 6444 fcab 7644 4c1e 6e44 189c 6c44
00000130: 432e 2d44 8918 8644 1965 8f44 719d 9044
00000140: ff0b 7344 b665 6544 79ae 7244 d6c6 2644
00000150: c87c 7f44 618d 8044 0eca 3544 026c 4f44
00000160: 2b1d 7a44 e0f5 6544 7afb 5544 6d0d a344
00000170: 088b 6244 bf03 7044 4074 b144 f5c0 6744
00000180: 4253 8744 1804 9c44 7621 4f44 c505 3644
00000190: 3c8f 7c44 adf6 8244 abc6 3944 af13 4144
000001a0: 883b 7444 6bbd 7944 4772 7044 24a1 7344
000001b0: 24cc 7044 350e 7a44 f849 6f44 9c51 7044
000001c0: 24de 7d44 be7e 6f44 a62b 8244 a637 6d44
000001d0: 50d7 8a44 fede 8044 598d 3e44 7850 7744
000001e0: c891 6544 f3af 4a44 2be2 8544 540c 6b44
000001f0: a521 7444 a006 3244 0940 8744 6a83 5244
00000200: d18e 8644 72f2 6544 1a2b 3044 3260 4144
00000210: 0ac0 8a44 e751 3d44 7f41 7444 b9b5 3744
00000220: 18cc 8744 9bbd 5544 1c14 6144 b85c 3544
00000230: a730 5644 5b17 4944 ad5a 5c44 9017 3944
00000240: cc62 7344 c77a 7644 8c57 7c44 f87d ad44
00000250: 100d 8d44 4d44 8b44 b267 8f44 fea8 5d44
00000260: 68f3 4344 3a54 3544 0a36 1d44 edb2 4644
00000270: 616f 4244 2ec6 6a44 f12d 6c44 5ea8 6a44
00000280: f4a2 a544 9d1a 7844 5e94 6644 f0d6 3044
00000290: b782 4644 99d3 9a44 a62d 7c44 58a3 6c44
000002a0: 5640 8944 3ef2 6b44 7e7f 3a44 e19d 7c44
000002b0: 83fe 8a44 4d81 9144 98f7 7444 247a 3b44
000002c0: ec2c 5944 6336 4e44 7a34 6b44 b86f 8244
000002d0: 2c64 3e44 129a 2444 ae60 8044 6aeb 8c44
000002e0: 8690 6e44 ce40 3b44 aa19 6244 56dd 9d44
000002f0: b5e9 8c44 08d6 7844 4306 6a44 e2a7 7644
00000300: fd23 6244 798d 4644 d162 7644 7c2c 8244
00000310: f4d0 8344 f6a1 8244 e75b 4544 d0c0 8044
00000320: 4202 5044 d42b 5a44 fe36 2444 66b8 8744
00000330: f276 8244 a2c4 9c44 6e4f 8844 6eb0 5044
00000340: dc49 7344 ca15 7d44 3461 5b44 b04a 7f44
00000350: 7cea 7944 625b 8c44 fadb a844 38ee 4644
00000360: f901 6a44 8fe2 7f44 5769 8144 3315 5d44
00000370: 3e28 3d44 7e8f 9344 4fc9 4c44 82f0 6644
00000380: 8eb8 5744 e3c3 5144 96ea 9544 75a0 5f44
00000390: ca65 8344 b928 3344 3d01 7544 5564 4e44
000003a0: 485c 8944 7f2f 9044 4170 9a44 40c4 6444
000003b0: 1bc6 9b44 0cd3 8944 8cbf 8144 5f42 5744
000003c0: 700c 6444 d472 4544 0bcb 3c44 37f6 9944
000003d0: 1128 5044 1cd7 5e44 d67c 3144 46cb 7c44
000003e0: 9c2e 4c44 0b3a 5e44 d592 8b44 40c7 3744
000003f0: 6437 9544 ef5f 6844 fa0f 9044 d7ad 4044
838.19354 618.60956 850.2405 1038.5547 992.0777 1048.8772 952.9456 686.93304
901.78784 1098.8708 1252.835 763.3196 1112.0209 903.0185 800.6659 1068.214
1031.2587 1109.2886 1100.2452 1445.3325 884.675 902.52875 997.4934 1120.7451
828.23645 943.00586 959.8677 1196.543 656.8778 629.8426 780.9001 1060.4465
891.8565 959.90765 1059.301 819.2218 989.2173 946.2376 977.3684 979.77374
707.024 1133.952 1066.9874 710.5555 791.9238 838.3054 887.5926 856.6419
927.0698 914.9619 822.44666 877.1209 1052.994 953.0896 847.24304 787.6517
910.4054 1354.9307 1500.3477 938.262 854.607 965.0352 822.5706 648.2489
681.2162 1041.2244 1279.8986 873.27374 675.57904 831.53296 1000.712 1039.4377
912.4229 986.68726 952.4734 946.43896 692.72284 1072.7667 1147.1593 1156.92
972.18744 917.58923 970.72614 667.1068 1021.9497 1028.4181 727.1571 829.6876
1000.45575 919.8418 855.9293 1304.4196 906.17236 960.05853 1419.6328 927.01495
1082.6018 1248.1279 828.5228 728.09015 1010.23804 1047.7086 743.1042 772.30756
976.9302 998.95966 961.7856 974.5178 963.1897 1000.222 957.15576 961.27515
1015.47095 957.98035 1041.364 948.8695 1110.7285 1030.9685 762.20856 989.2573
918.27783 810.7492 1071.0677 940.1926 976.5257 712.1035 1082.0011 842.05334
1076.463 919.7882 704.67346 773.50305 1110.0012 757.2797 977.0234 734.8394
1086.3779 854.9626 900.3142 725.4487 856.7602 804.3649 881.4168 740.36816
973.5437 985.9184 1009.3679 1387.9365 1128.4082 1114.1344 1147.2405 886.6405
783.8032 725.31604 628.84436 794.7957 777.7403 939.09656 944.71783 938.63074
1325.0923 992.41583 922.31824 707.3584 794.0424 1238.6124 1008.71326 946.55225
1098.0105 943.78503 745.99207 1010.46686 1111.9535 1164.0406 979.86865 749.90845
868.7019 824.8498 940.81995 1043.4912 761.5652 658.40735 1027.0212 1127.3567
954.2582 749.0126 904.401 1262.9167 1127.3033 995.34424 936.09784 986.62317
904.5623 794.2105 985.544 1041.3901 1054.5298 1045.0613 789.436 1030.0254
832.0353 872.6848 656.85925 1085.7625 1043.717 1254.1448 1090.4822 834.7567
973.15405 1012.34045 877.5188 1021.167 999.6638 1122.8557 1350.8743 795.72217
936.0308 1023.54 1035.2919 884.33124 756.6288 1180.4841 819.14545 923.75793
862.88367 839.0607 1199.3308 894.50714 1051.1809 716.6363 980.01935 825.5677
1098.8838 1153.4843 1235.5079 915.0664 1246.1908 1102.5952 1037.9858 861.03705
912.19434 789.7942 755.17255 1231.6942 832.62604 891.3611 709.95056 1011.17615
816.7283 888.9069 1116.5885 735.1133 1193.731 929.49896 1152.4993 770.71625

network.4.weight f4 [256, 512]
00000000: 2fbc 893f 7ec0 1dbf 3550 7ebe e6dc a73f
00000010: 2a19 313f 72b4 c73e 0d50 0440 c944 aa3f
00000020: 96b3 ff3e bb51 a3be 9d94 e03e 282f 5b3e
00000030: 7c56 55bf 9dfc 1ac0 160e 70bd f5e0 d23e
00000040: 7897 fabd cb7b e1bf aff0 863f dd00 53c0
00000050: 842b c73e 80e2 6fc0 7d70 a53e a18c 573e
00000060: 83a4 cbbf 1687 a1bf 2b13 0cc0 adc3 a0bf
00000070: 3b1b 34be b85e c13f 6843 a53e be1a ca3f
00000080: fbe7 ce3f ddf4 5d3f 8521 053d 95ff d93f
00000090: 2606 583f 61c4 203e 93d2 f53d d347 dabe
000000a0: f543 e33f cf3c 20bf 4310 fe3c cb8a 1e40
000000b0: 3cd9 27c0 6055 853d 64d2 d8be d182 37be
000000c0: 334b 8cbf 075c 10bf 1b38 5b3f 64f8 92bf
000000d0: a01b fdbe 92d7 463e 67e8 08bf dbe3 9c3e
000000e0: 92d3 17c0 a415 0dc0 afa9 2bbe c1c0 65bf
000000f0: 1c00 e43e 4a8f 7d3e 228c 3cc0 2119 093e
00000100: 2840 903f 2c7e b53e 60bd 7e3f c4cc 683e
00000110: 1bc4 1540 db03 e2bf 5cfd 2dbf bd0a 123e
00000120: a5f8 40bf 18f5 7a3f cd12 cbbe b0c3 0c40
00000130: 66ab 973f 8628 493f 5549 cbbf 5e07 37be
00000140: 1795 553f 341b 0dc0 35dc ca3d d75e 843f
00000150: 1d4d 0c3e d510 29bf f2f9 7bbe 1fa9 443f
00000160: 4f8a 653f fb59 e9be 63d0 743e 69db 14c0
00000170: c27c 9ebf 4fb6 4cbf e66a 5dbe e37c 213f
00000180: c42e fabf d793 0240 70ff b3bf c182 7cbf
00000190: 3d7b cdbf 68f4 0fbf 8f68 9b3f 3ec3 483f
000001a0: e0f7 613f bae3 2dc0 177d 1ec0 96f7 513f
000001b0: 7cc3 2bbf 734d f7bf 9466 c0be c0a4 d1bf
000001c0: 14ac 803e da89 5abc 6f08 63be 622e 6abf
000001d0: 8b75 5dbc 2692 6d3e 7f31 ed3e 6990 963f
000001e0: 327f 77bf e6b2 aebe aa3e 253f 345a 953f
000001f0: d584 633d 36bd 5dbf de01 253f 1347 123e
00000200: 35ac 07c0 280b 61bf acba 213e 7b46 e13e
00000210: e6bd 9bbf f180 91be d20b be3f 0c2f 503f
00000220: 5e94 82bf 8fb5 39c0 1daf 093e 9aea 4d3f
00000230: 35dc a43e a5b5 343e 1866 afbf 84ee 80bf
00000240: e350 b5be 8bb9 15bf 325e 943e 41dd c1bf
00000250: 8de6 d4bf 3262 bbbd b1a9 00c0 a68d 2f3f
00000260: 7a45 c53d bb39 dd3f 4fca 52bf 7fe6 a7bf
00000270: dd92 92be 751b 3dbf db0d dcbf 9ae5 22c0
00000280: 7501 c03f 9f78 163f f9a9 923f 1a22 4f3f
00000290: b930 a5be d9c2 b73d 7c3e 953c 196f de3f
000002a0: 810a 01c0 85fd bbbf 7a22 983f d9da 69c0
000002b0: 819c 69be c19e 2c3f 0312 73bc 843d e6be
000002c0: 4016 093e 1221 c1bf c130 cabd 43e8 7dbd
000002d0: 98ca 623e c547 6abf 7b04 e63d decc 1d3f
000002e0: 0cba efbe fea8 933e c01e 213f d04f 45c0
000002f0: 9a6e 12c0 e83b d53d 5285 893f 2c89 8ebf
00000300: b87f 16bf c1a4 633f 7d82 b5be e236 313f
00000310: 5b2b 1ac0 2e7a bfbf a0a9 ae3d f09a 1f3f
00000320: 041c 363d 4795 3b3e dd28 833f e670 c2bf
00000330: c13f c03e 475c e23f 999b 493e 4e95 943f
00000340: ac9a 013f a77f 8cbf c282 b23f 590f 09c0
00000350: b8e7 4a3e 6e60 d23e 4b6e 89bf 0385 a8bf
00000360: 4b95 4cbf 7a82 da3e 2716 9cbf 68d5 483f
00000370: 1922 913d fd84 053e 0f2b b43f 9ebb 3f3f
00000380: 6a9c 6fbf 0636 bd3e 4db8 2dbd 8903 22bf
00000390: 5c43 7f3f 40d9 67bf 1ba2 88be b7a0 35bd
000003a0: 16f8 fa3e 5613 04c0 b049 c1bf 1a21 d8bd
000003b0: 7cb1 c03e 3202 c53f 9759 adbe 2d45 c5be
000003c0: 37a4 4bbe 9f02 33c0 cccc e13f 1a57 28c0
000003d0: 4798 c6be 75a7 6dbf 21be 30be 2e6a e53e
000003e0: 1915 03c0 8d09 b43f 0a8a e03f 3130 483e
000003f0: 54b4 003f 6054 153f a973 bcbf ac10 edbf
1.0760554 -0.61621845 -0.24835284 1.3114288 0.6917902 0.39004856 2.067386 1.3302242
0.499417 -0.31898293 0.43863383 0.21404707 -0.8333509 -2.4216683 -0.058607183 0.41187254
-0.122359216 -1.7615904 1.0542201 -3.2969277 0.38900387 -3.7481995 0.32312384 0.2104974
-1.590958 -1.261935 -2.18867 -1.2559716 -0.17588513 1.5107031 0.3227799 1.5789411
1.6164545 0.86701757 0.03250267 1.7031122 0.8438438 0.15699913 0.120030545 -0.42632923
1.7755114 -0.62592787 0.031013614 2.4772213 -2.622634 0.065104246 -0.42348015 -0.17920996
-1.0960449 -0.5639042 0.85632485 -1.1482053 -0.4943514 0.19418171 -0.5347962 0.3064259
-2.3722882 -2.2044458 -0.16763948 -0.89747244 0.44531333 0.24761692 -2.946053 0.13388492
1.1269579 0.35447824 0.99507713 0.22734362 2.3400943 -1.7657427 -0.6796472 0.14261909
-0.753794 0.98030233 -0.3966278 2.1994438 1.1849182 0.7857746 -1.5881754 -0.17873904
0.8343062 -2.2047853 0.099052824 1.0341443 0.13701291 -0.6604131 -0.24607065 0.7682056
0.8966417 -0.45576462 0.23907618 -2.3258917 -1.2381823 -0.7996568 -0.2162281 0.63081187
-1.9545522 2.0402734 -1.4062328 -0.98637015 -1.6053234 -0.5623231 1.2141284 0.78422916
0.8826885 -2.7170243 -2.4763849 0.8201841 -0.6709516 -1.9320511 -0.3757826 -1.6378403
0.25131285 -0.01333853 -0.22171186 -0.91477025 -0.013516794 0.23200282 0.46326825 1.176282
-0.9667846 -0.34120864 0.6454874 1.1668153 0.0555466 -0.8661684 0.64455974 0.14284925
-2.1198857 -0.8790765 0.15793866 0.43999085 -1.2167327 -0.28418687 1.4847357 0.8132179
-1.0201528 -2.9017065 0.13445707 0.804361 0.32199255 0.17647417 -1.3703032 -1.0072789
-0.35413274 -0.5848624 0.28978115 -1.5145646 -1.6632859 -0.09149589 -2.0103571 0.68575513
0.09632392 1.7283243 -0.8233995 -1.3117217 -0.28627673 -0.7387002 -1.7191728 -2.5452638
1.5000445 0.58777803 1.1458122 0.8091141 -0.32263735 0.08972711 0.018218271 1.7377654
-2.016266 -1.4686743 1.1885521 -3.6539824 -0.22813608 0.6742974 -0.014835837 -0.44968808
0.13387394 -1.5088217 -0.0987258 -0.06198908 0.22147596 -0.9151576 0.11231323 0.6164073
-0.4682163 0.28839868 0.62937546 -3.0829964 -2.2880006 0.10411817 1.0743811 -1.1135612
-0.58788633 0.8892327 -0.35451117 0.6922437 -2.4088962 -1.4959161 0.08528447 0.6234579
0.04446031 0.18318664 1.0246845 -1.5190704 0.3754864 1.7684411 0.19688262 1.1608064
0.50626636 -1.0976456 1.3946154 -2.1415617 0.19814956 0.41089195 -1.0736784 -1.3165592
-0.79915303 0.4267767 -1.219426 0.7845063 0.07086582 0.13039012 1.407564 0.74895656
-0.93598044 0.3695528 -0.04241209 -0.63286644 0.9971216 -0.9056587 -0.26686177 -0.044342723
0.490174 -2.0636802 -1.5100613 -0.105531886 0.3763541 1.5391295 -0.33857414 -0.3852934
-0.19886862 -2.797035 1.7640624 -2.6303163 -0.38788053 -0.92833644 -0.17260028 0.4480757
-2.0481627 1.4065415 1.7542126 0.19549634 0.5027516 0.5833187 -1.4722797 -1.8520713

network.4.bias f4 [256]
00000000: 5561 23bd a582 443a 5e58 1fbd 627e 1abd
00000010: 86d2 0cbd d35b c1bc 70d3 4a3c 254d c0bc
00000020: 47bb 9b39 5755 b83c 021a a8bc b649 113d
00000030: b438 2bbc 8e02 98bc a049 703c d1bf 033d
00000040: 361f 943c c559 13bd 03f9 0f3c 9ef4 e2bc
00000050: bbb2 eabc 42b0 323c 8c88 313d df84 1bbd
00000060: 11b6 1e3d a2a1 13bd 8e22 2d3d 8fb6 ccbc
00000070: 01b3 bebc 162c 63bc 6947 20bd ccec fabc
00000080: ce82 d43c eba2 803b 2ccf 203d 131c b93c
00000090: c496 5f3c 8644 3fbc 929e 58ba d79f 11bc
000000a0: 2fd2 4b3c 8f02 eb3c 9a1b 67bc 7c93 273d
000000b0: 2edd cf3c 2cd3 ffbc e301 163d 017d 163d
000000c0: 1738 243b b032 ebb8 e5b7 10bd d595 a23b
000000d0: 4c1c 943c 3d1c 2cbc 03fb 2b3d d762 e4bc
000000e0: a6c8 bcbb a1af dbbc 0601 15bd 41fb 1f3d
000000f0: 33ff cbbb ed1e 433c 7b5d aa3b 2b82 95bc
00000100: 5c69 953b 0ff8 02bd 1236 d3b9 277a efbb
00000110: eb65 fcbc f556 97bc 60ee debc b24b 27bd
00000120: 85f2 4d3c 07ce feba 0ef3 eabc 2bd9 103d
00000130: 6806 22bd 75fd 863c dadd d7bb 8040 df3b
00000140: b787 cbbb 6bbf 1c3b 3e41 123d 7655 1abd
00000150: e426 2fbd 83e6 a1bc 6877 2cbd 5684 dc3b
00000160: 1b68 05bd 8dae b23b 5341 a93b 5548 283d
00000170: 5ad7 21bd 7ea7 03bb 8c36 053d 03de 4a3c
00000180: 06c3 0ebc a563 e43c 9df2 6dbc 1385 18bd
00000190: e561 193d 9939 a73b 6f02 44bb 5e43 0cbb
000001a0: 69f3 81bb 72a5 073d 02fb 11bd 5327 053d
000001b0: eaf0 0d3d 6faa 393c cb84 b43c 772f ca3c
000001c0: 0c28 cfbc a3e9 ce3c 5f94 1dbd 3a9b dcbc
000001d0: 06ed 3c3c 34f6 fb3b 6ec2 223d 1a71 d8bc
000001e0: 884d 2bbb aec8 943c b43d d7bc 4042 ab3b
000001f0: 952b adbc 6795 9dbc fff9 0e3d f875 803c
00000200: f294 fe3c 029f 12bd 95f2 8dbc 0270 b6bc
00000210: 460f 1ebd 976b 1d3c a497 febc 7185 06bd
00000220: 722f 27bd 05b5 253d 45da 28bd e6e9 f13c
00000230: a839 2f3d 5115 1d3d 4891 26bc c90d dbbb
00000240: 63b0 123d 2b0d 5e3c edb1 123d dee9 f93c
00000250: 91dd 92bb 2b53 073d 118a c03c 3d10 033d
00000260: 5519 5e3c 5899 9ebc 9248 633c 8c11 92bc
00000270: bcb3 17bd efc8 1fbb fd96 36bc becc 09bd
00000280: cb89 b93c d017 293d f5c3 0dbd 256e 2e3c
00000290: ae51 11ba 4e32 1d3c 77d4 b0bc 9219 b63c
000002a0: 88c7 a6bc 16c8 58bc 248c 72bc a25e 1b3d
000002b0: e450 a0bc 23d2 c6bc 811a 2ebd 3c6d e83b
000002c0: cc7a 81bc 41e5 4d3c 582e 4cbc aa5b 1fbd
000002d0: c439 a23b 7264 25bd 0e38 1dbd 57af 0bbd
000002e0: 3210 a93c a86b 723a d5ea 03bc 7c2a 273d
000002f0: ea0a 07bd 2206 173d cc09 e03b 9759 8ebc
00000300: 6b0e b73c 0832 333c dfc6 41bb 7fd1 d73c
00000310: f244 9f3b eb48 053c 40e1 fabc 0eaa 30bd
00000320: b9f1 b1bc 3d13 debb b573 b93b eff9 98bc
00000330: 4d1f bcbc 63a7 193d d69f f63c 2228 613b
00000340: 23ce dd3c 4491 773b 3e58 fdbc 5f19 e4bc
00000350: bf67 45bc f8f0 b23c 38b6 9fbc d9f2 003d
00000360: 171a 3b3c 6afa 803c 589b 6abb c114 103d
00000370: 48ee 54bb 72d9 74bc a8b5 2abd 662f f8bb
00000380: 38e2 163d a6ee 1e3d b9f0 e7bc 7faa 1bbd
00000390: a1fa cfbb 0ad9 13bd 365a adbc 6f5b 00bd
000003a0: 2821 71bb 5e7b 34bd 014b 35bc af73 fc3c
000003b0: 189e b2bc f48b f1ba 86a4 d6bc 8a49 d7bc
000003c0: e87e a83a dfff 333d db47 c23c 659c a939
000003d0: ad5f 2e3a ec9f 073d aff0 343c d1d4 fb3c
000003e0: d257 113b 2eef 993b dab5 8c3c f66c 11bc
000003f0: c346 dbbc 1726 013d 87f7 b33c 6cb9 293b
-0.039887745 0.0007496274 -0.038902633 -0.037718184 -0.03438046 -0.023603356 0.012379512 -0.023474285
0.00029703436 0.02250163 -0.020520214 0.035470687 -0.010450531 -0.018555906 0.014665991 0.032165352
0.018081289 -0.035974283 0.008787396 -0.027704533 -0.028649678 0.010906281 0.043343112 -0.037968513
0.03874785 -0.036042817 0.042269282 -0.024989394 -0.023278715 -0.013865491 -0.039130602 -0.030630492
0.025941279 0.0039256713 0.039260074 0.022596395 0.013646785 -0.011674052 -0.0008263375 -0.008888206
0.012440248 0.028687743 -0.014105702 0.040912136 0.025374021 -0.031228624 0.036622893 0.036740307
0.0025057846 -0.000112151145 -0.035331625 0.004961709 0.0180799 -0.010504779 0.04198743 -0.027879162
-0.005761224 -0.026817145 -0.03637793 0.039057974 -0.0062254905 0.011909229 0.005199132 -0.018250545
0.004559679 -0.03197485 -0.00040285342 -0.007308263 -0.030810317 -0.018474082 -0.027213275 -0.040843673
0.012570028 -0.0019440063 -0.02868035 0.035363358 -0.03955689 0.01647828 -0.006587726 0.006813109
-0.006211247 0.0023917805 0.03570675 -0.03767916 -0.0427617 -0.019763237 -0.042106062 0.006729643
-0.032569986 0.005452937 0.005165258 0.041084606 -0.039512016 -0.0020088847 0.032522723 0.012382033
-0.008713489 0.027879545 -0.014523176 -0.037236284 0.037446875 0.0051033017 -0.0029908677 -0.0021402459
-0.0039657843 0.033116765 -0.03563977 0.032508206 0.03465358 0.011332138 0.022035977 0.024680836
-0.02528765 0.025257891 -0.038471576 -0.026929487 0.01153112 0.007689262 0.039736204 -0.026421119
-0.0026138742 0.018162098 -0.02627454 0.0052264035 -0.021138946 -0.01923628 0.034906384 0.015681252
0.031076882 -0.035796173 -0.017327586 -0.022270206 -0.038588785 0.009608171 -0.031078167 -0.032842103
-0.04081673 0.040455837 -0.041223783 0.029530477 0.042779595 0.038350407 -0.010166474 -0.006684993
0.035812747 0.013552944 0.035814214 0.030507024 -0.004481979 0.0330383 0.023503335 0.031997908
0.013555844 -0.01936023 0.013872283 -0.017830633 -0.037036642 -0.002438124 -0.011144397 -0.033642523
0.022648713 0.041282475 -0.034610707 0.010646378 -0.0005543482 0.009594513 -0.021585686 0.02222899
-0.020358816 -0.013231298 -0.01480392 0.037932046 -0.019569822 -0.024270123 -0.042505745 0.0070931
-0.015805624 0.012566865 -0.012462221 -0.038905777 0.004950734 -0.040378995 -0.038383536 -0.034102764
0.020637605 0.00092476094 -0.008051594 0.040812 -0.032969393 0.036871083 0.0068371054 -0.017376704
0.022345742 0.010937221 -0.0029568 0.026345013 0.004860514 0.008135061 -0.030624986 -0.043130927
-0.021721708 -0.0067771957 0.0056595453 -0.018673865 -0.022964144 0.037513148 0.030105513 0.0034356196
0.027075833 0.0037775794 -0.030925866 -0.02784413 -0.012048661 0.021843418 -0.019496068 0.031481598
0.0114197945 0.015744407 -0.0035798158 0.035176042 -0.003249066 -0.014944421 -0.041677147 -0.0075740097
0.036836833 0.03880181 -0.028313028 -0.038004395 -0.006347016 -0.036095656 -0.02116118 -0.031337198
-0.0036793444 -0.044062965 -0.011065246 0.030816881 -0.0218039 -0.001842855 -0.026201498 -0.026280183
0.0012855204 0.04394519 0.023715904 0.00032350715 0.000665183 0.033111498 0.011043712 0.030741127
0.002217759 0.004697702 0.017176557 -0.008876076 -0.02676714 0.031530466 0.021968616 0.0025897874
