models/NeuralNetwork-2_acc-56.57_loss-0.000001.pth (torch, 802127 bytes, 8 tensors)

network.0.weight f4 [512, 63]
0	0xbd5a06fc	-0.053229317
1	0x3de54e19	0.111965366
2	0x3d50d9cd	0.05098896
3	0x3ccb4cc1	0.024816873
4	0x3ddf9642	0.10917331
5	0x3d1de59e	0.03854906
6	0xbd008f34	-0.03138657
7	0xbcbe0615	-0.02319626
8	0xbda788d0	-0.08180392
9	0x3e070ad7	0.13187729
10	0xbcfbaea6	-0.030722927
11	0x3bb00211	0.00537134
12	0xbd3d1321	-0.04616082
13	0xbc15384f	-0.009107663
14	0x3e0adbf4	0.13560468
15	0x3b87a5bc	0.00413963
16	0x3de4dca9	0.111749
17	0x3d602070	0.054718435
18	0x3dd19a11	0.10234464
19	0x3e2824e4	0.16420323
20	0x3e4160d2	0.1888459
21	0xbdf89f77	-0.121397905
22	0x3d5871f5	0.052843053
23	0x3b43204f	0.0029773896
24	0x3dfa179a	0.12211533
25	0xbd799a37	-0.060938086
26	0xbd0a68e9	-0.033791456
27	0xbd9d91d7	-0.07693832
28	0x3d56e8b0	0.052468
29	0xbdd5a6c0	-0.10432196
30	0xbdc5f1cc	-0.0966526
31	0x3cf98d14	0.03046278
32	0x3ca35421	0.019937577
33	0x3e0b527d	0.13605686
34	0x3c690aa9	0.014223733
35	0x3b928b85	0.0044721984
36	0x3d3de30b	0.046359103
37	0x3d1ea094	0.038727358
38	0x3c0e73a3	0.008694562
39	0xbd244029	-0.04010025
40	0x3e2aa0a6	0.16662845
41	0x3da8ee29	0.082485504
42	0x3c93e050	0.018051296
43	0x3def42da	0.11682673
44	0x3d542ab9	0.051798556
45	0xbd186fbd	-0.037215937
46	0x3e57a933	0.21060638
47	0x3df3313a	0.118746236
48	0x3d4cc8da	0.049996234
49	0x3dd28dec	0.10280976
50	0xbd584d2e	-0.05280798
51	0x3e1885b3	0.14894752
52	0xbd35465b	-0.04425655
53	0x3d54c41d	0.05194484
54	0x3e2b9299	0.16755141
55	0x3d8ad007	0.06777959
56	0xbc037fe9	-0.008026102
57	0x3dbc8913	0.09205832
58	0xbd5980c8	-0.05310133
59	0xbd792d01	-0.060833935
60	0xbddbcd43	-0.1073251
61	0xbd9b2d2f	-0.075769775
62	0xbc08bf67	-0.008346415
63	0x3cb7fddf	0.022459922
64	0xbac23ae9	-0.0014818582
65	0xbcda13e1	-0.026620807
66	0xbd9a5ba9	-0.07537014
67	0x3d95ca71	0.07314003
68	0xbb9cd97e	-0.0047866693
69	0x3c9895cc	0.018626116
70	0xbd886627	-0.06660109
71	0x3d656bd5	0.05601104
72	0x3e090a6b	0.1338288
73	0xbcdd9ad1	-0.027051361
74	0x3beeca1a	0.007287276
75	0xbc075ca6	-0.008261835
76	0xbe04d21b	-0.12970774
77	0xbd998b08	-0.07497221
78	0x3da68c12	0.08132185
79	0xbe619216	-0.22028384
80	0x3cc9cb4f	0.024633078
81	0xbb625283	-0.0034534044
82	0x3c79ea57	0.015253625
83	0xbde513e0	-0.111854315
84	0xbda0cd90	-0.07851708
85	0x3d2ab616	0.041677557
86	0x3d2a68f0	0.041603982
87	0x3e219657	0.15780006
88	0x3da1fd33	0.07909622
89	0xbe1b9dce	-0.15196916
90	0x3da2b2d1	0.07944263
91	0x3c987f64	0.018615432
92	0x3e0efa03	0.1396256
93	0xbd7b4dfe	-0.061353676
94	0xbe14bc1e	-0.14524886
95	0xbdd9b30f	-0.10629856
96	0xbdeadc74	-0.11467829
97	0x3d6f33ef	0.058399137
98	0x3daa4a9b	0.08315011
99	0xbdea31c4	-0.11435273
100	0x3dd98a06	0.10622029
101	0x3d965649	0.07340676
102	0x3dd7b6c7	0.10532909
103	0xbe2b0fc4	-0.16705233
104	0xbdf06dd0	-0.11739695
105	0xbe24612f	-0.16052698
106	0xbc2a7bd2	-0.010405498
107	0x3e4decc4	0.2010985
108	0x3e2286ad	0.15871687
109	0xbccc3c06	-0.024930965
110	0x3d45b4a1	0.048267964
111	0xbddd7e8a	-0.10815151
112	0x3ccabdf1	0.024748774
113	0xbd6b157e	-0.057393543
114	0x3d4f17fa	0.050559975
115	0x3bb2419c	0.00543995
116	0x3e3e4557	0.18581139
117	0x3cd90c69	0.026495175
118	0xbe21919b	-0.157782
119	0x3d256c83	0.040386688
120	0xbde67c64	-0.112541944
121	0x3cc8e5a5	0.024523566
122	0x3deddaed	0.116140224
123	0xbdd4002b	-0.103515945
124	0x3cf2495d	0.029575998
125	0xbd69a30a	-0.05704025
126	0xbd80dd79	-0.062922426
127	0xbc9459e2	-0.018109266
128	0x3cde659f	0.027148066
129	0xbd014e76	-0.031568967
130	0x3d3a0d3f	0.04542279
131	0xbe49aeb1	-0.19695546
132	0xbc28c020	-0.010299712
133	0x3ce42857	0.027851267
134	0x3e4a3fc4	0.19750887
135	0xbd988c34	-0.074486166
136	0x3cb46af3	0.022023654
137	0xbe1c79c6	-0.15280828
138	0x3dad0c74	0.08449641
139	0x38e9640e	0.000111289424
140	0x3d4ad2c4	0.049517408
141	0xbcc87f69	-0.024474816
142	0xbe2176b2	-0.15767935
143	0x3d95071b	0.07276746
144	0xbd9a0261	-0.07519985
145	0xbcd464f9	-0.025927054
146	0x3d4b0fe1	0.04957569
147	0x3b75a43c	0.0037481925
148	0x3d943d98	0.072383106
149	0x3dd309cc	0.10304603
150	0x3c436c3e	0.011927662
151	0x3d7790e9	0.06044093
152	0x3ca6f57e	0.020380732
153	0xbe077317	-0.13227497
154	0x3d4ef174	0.050523236
155	0xbcd4e95a	-0.025990177
156	0x3d6c4f3f	0.057692762
157	0x3e186c08	0.1488496
158	0x3bef471f	0.0073021795
159	0xbd9a0e3c	-0.07522246
160	0x3d5b44b2	0.05353231
161	0x3df388cb	0.118913256
162	0x3db23469	0.08701403
163	0xbdb859ae	-0.0900148
164	0x3d7b4ce0	0.06135261
165	0xbc70be6c	-0.014693838
166	0x3d5b523b	0.053545218
167	0x3d36d55f	0.04463708
168	0x3d023391	0.03178746
169	0x3d7ba1c2	0.06143356
170	0xbd3054e2	-0.0430497
171	0x3e322906	0.17398462
172	0x3c8efcde	0.01745456
173	0x3d166c30	0.03672427
174	0x3d488a10	0.04895979
175	0xbe20ea71	-0.15714432
176	0xbd3de522	-0.046361096
177	0x3be9004b	0.0071106306
178	0xbdda52d4	-0.106603295
179	0xbda83e88	-0.08215052
180	0xbe0379d2	-0.1283944
181	0x3dc47787	0.095931105
182	0x3d827062	0.063690916
183	0x3c565a03	0.013082984
184	0xbd4cc5e1	-0.0499934
185	0xbd8e8aa7	-0.069600396
186	0x3dc75fbb	0.09735056
187	0xbafcc420	-0.0019284524
188	0xbd408341	-0.047000173
189	0x3cb7a218	0.02241616
190	0xbc9f9562	-0.019480411
191	0x3d0349d5	0.032052834
192	0x3cad9193	0.02118758
193	0xbca6c2d8	-0.02035658
194	0x3db7ff17	0.089842014
195	0xbd5337c3	-0.05156685
196	0xbd5176fc	-0.051138863
197	0x3c9328bb	0.017963758
198	0x3cc180c1	0.023620965
199	0x3d641901	0.055687908
200	0x3e2d8d1d	0.16948362
201	0xbd358dda	-0.044324733
202	0x3d86a97e	0.06575297
203	0x3cd18a2e	0.025578585
204	0x3c3da8be	0.011575876
205	0xba2fdcc1	-0.0006708615
206	0xbd3cdab2	-0.046107
207	0x3dbc3905	0.09190563
208	0x3d8b0ddf	0.06789755
209	0xbe0649ec	-0.13114136
210	0x3d7af179	0.061265443
211	0x3db2a215	0.08722321
212	0xbe22c8ba	-0.15896884
213	0xbd2c7631	-0.042104904
214	0x3de3ec4b	0.11129054
215	0x3b8c0ab0	0.004273735
216	0xbd26ebd6	-0.040752254
217	0xbda40cc8	-0.0801025
218	0x3cfdadd8	0.030966684
219	0xbd1cd8b0	-0.038292587
220	0xbe0aa13d	-0.1353807
221	0xbbec2a3a	-0.0072071822
222	0x3d5409f1	0.051767293
223	0x3dfd4f34	0.123686224
224	0xbe168b14	-0.14701492
225	0xbcc443b2	-0.02395806
226	0xbd6b7b9c	-0.05749093
227	0xbdc0fc0b	-0.094230734
228	0xbdf29017	-0.11843889
229	0xbd889698	-0.066693485
230	0xbda4a4cb	-0.08039244
231	0xbdc5ae9b	-0.09652444
232	0x3e319741	0.17342855
233	0x3e1aa85b	0.15103285
234	0xbdb71eff	-0.08941459
235	0x3d632f9f	0.055465337
236	0x3e560cd9	0.20903338
237	0x3df16237	0.11786311
238	0xbe088673	-0.13332538
239	0xbd1a4608	-0.037664443
240	0x3d8c6a5d	0.06856225
241	0xbe59cadb	-0.2126879
242	0x3df63292	0.12021364
243	0xbc11e000	-0.008903503
244	0xbdadf381	-0.0849371
245	0x3e077578	0.13228405
246	0x3d2c0d55	0.042004902
247	0xbcd744ac	-0.026277862
248	0x3e259b4c	0.16172522
249	0xbe2996e2	-0.16561463
250	0xbd69f926	-0.057122372
251	0x3e039c88	0.1285268
252	0x3c613d4a	0.013747523
253	0x3d2780a7	0.040894177
254	0xbd370329	-0.044680748
255	0xbe1d4320	-0.15357637

network.0.bias f4 [512]
0	0x3c23d721	0.010000021
1	0xbc3ffa0c	-0.011717331
2	0xbe8c0607	-0.27348348
3	0xbd336ac9	-0.04380301
4	0xbe6d7f4e	-0.23193094
5	0x3ba7d9cd	0.0051223994
6	0xbde1f12e	-0.110323295
7	0xbe31dcab	-0.17369334
8	0xbd8516c0	-0.0649848
9	0xbd8ae9ce	-0.06782876
10	0xbe0d3772	-0.13790682
11	0xbe02f08d	-0.12787075
12	0xbda356fa	-0.07975574
13	0xbe469c92	-0.19395664
14	0x3dabab0f	0.08382236
15	0xbce9522a	-0.028481562
16	0xbdd2228f	-0.10260498
17	0xbdeb4c70	-0.11489189
18	0xbd84d13f	-0.06485223
19	0xbda76690	-0.08173859
20	0xbd6b187d	-0.0573964
21	0xbdba1f78	-0.090880334
22	0xbc03c0ca	-0.00804157
23	0x3d5d8228	0.054079205
24	0xbdd60257	-0.10449665
25	0xbd3de3b8	-0.046359748
26	0xbab031a1	-0.0013442525
27	0x3d6ce297	0.05783328
28	0xbe30ec5b	-0.17277662
29	0x3da17747	0.078840785
30	0xbad14c9d	-0.0015968267
31	0xbe018020	-0.12646532
32	0xbd4c14ee	-0.049824648
33	0xbe0f4203	-0.13990025
34	0xbe113658	-0.14180887
35	0xbaf75771	-0.0018870664
36	0xbe010b0a	-0.12601867
37	0xbe2f3ce9	-0.17113079
38	0xbe5b3a63	-0.21408992
39	0x3cf09871	0.029369565
40	0xba4a87d5	-0.0007725929
41	0xbe4da46a	-0.2008225
42	0xbe641fd3	-0.22277765
43	0xbe298671	-0.16555192
44	0xbdb9fd0b	-0.09081467
45	0xbda7509d	-0.08169673
46	0xbe5adbbf	-0.21372889
47	0xbda9a6cc	-0.08283767
48	0xbe7a9ef7	-0.24474703
49	0xbdb519a3	-0.088427804
50	0xbe38d4e1	-0.18049957
51	0xbe10f63d	-0.14156432
52	0xbe29b742	-0.16573814
53	0xbd629574	-0.05531831
54	0xbdaf1314	-0.08548561
55	0x39904a0e	0.00027520995
56	0xbd86d6ba	-0.065839246
57	0x3d191669	0.037374888
58	0xbd14b39a	-0.036304094
59	0x3d15494b	0.03644685
60	0xbe489730	-0.19588923
61	0xbd6fe693	-0.058569502
62	0xbd32ddac	-0.043668434
63	0xbe2870c5	-0.16449268
64	0x3c61b88f	0.013776912
65	0xbdb1f105	-0.08688549
66	0xbcb36414	-0.021898307
67	0xbe6dfede	-0.23241755
68	0x3cfefded	0.03112694
69	0xbd9be7dd	-0.07612584
70	0x3d64f8c7	0.055901315
71	0xbde2f379	-0.11081595
72	0xbe55c504	-0.20875937
73	0xbd9b6baf	-0.075888984
74	0xbe51e0ab	-0.2049586
75	0xbdf5516c	-0.119784206
76	0xbd697b74	-0.0570025
77	0xbdc82059	-0.09771795
78	0xbe61a6fe	-0.22036359
79	0xbd4b999a	-0.049707033
80	0xbd027ccc	-0.031857297
81	0xbe1c651b	-0.15272944
82	0xbdae9976	-0.08525364
83	0xbdeea52e	-0.11652599
84	0xbd47a3ba	-0.048740126
85	0xbe1290d6	-0.14313063
86	0xbde7841b	-0.11304494
87	0xbde68b21	-0.112570055
88	0xbdc21cc5	-0.094781436
89	0xbe1cf921	-0.1532941
90	0xbd09970c	-0.033591315
91	0x3c911ed6	0.017714899
92	0xbd061823	-0.032737862
93	0xbe168199	-0.14697875
94	0xbe128d49	-0.14311709
95	0xbdb3fca9	-0.087884255
96	0x3b5e7d17	0.003394907
97	0xbd7dfb34	-0.062007144
98	0xbe39b255	-0.18134435
99	0xbd07aef7	-0.033125844
100	0xbd98ea24	-0.07466534
101	0xbd6f75eb	-0.058462065
102	0xbda126e3	-0.07868745
103	0xbe8b8590	-0.27250338
104	0xbe2ea4af	-0.1705501
105	0xbd8c6af5	-0.06856338
106	0x3cb6c12b	0.022308907
107	0xbe0a32c3	-0.13495927
108	0xbdc2c88b	-0.09510907
109	0xbe43ba18	-0.19113958
110	0xbdc5eae0	-0.096639395
111	0xbc68d70c	-0.014211427
112	0xbd886e90	-0.06661713
113	0xbd89da1d	-0.06731055
114	0xbe7837d3	-0.24240045
115	0xbd9fd73e	-0.07804726
116	0x3db556e1	0.088544615
117	0xbe2bd97e	-0.16782185
118	0xbd2cd7ed	-0.04219811
119	0xbe690439	-0.22755517
120	0xbe57d2e9	-0.2107655
121	0xbd575ed6	-0.052580677
122	0xbe66a7e0	-0.22524977
123	0xbe8807de	-0.26568502
124	0x3c2a0b87	0.010378725
125	0xbe3ce13f	-0.184453
126	0xbe632480	-0.22181892
127	0xbc3a0cd4	-0.0113555975
128	0xbe269d30	-0.162709
129	0xbe92be35	-0.2866074
130	0xbd398546	-0.045293115
131	0xbe144524	-0.144795
132	0xbe2b1c0d	-0.1670992
133	0xbe148cc5	-0.14506824
134	0xbd2395fd	-0.03993796
135	0xbe0036fe	-0.12520978
136	0xbd43b490	-0.04777962
137	0x3d629910	0.055321753
138	0xbd84d25e	-0.06485437
139	0xbe13c000	-0.14428711
140	0xbe080843	-0.13284402
141	0xbd3e2a4a	-0.04642705
142	0xbd1adcdc	-0.037808284
143	0x3cfb3c9e	0.030668553
144	0xbe56c80a	-0.20974746
145	0xbd62d750	-0.05538112
146	0xbe01bd9d	-0.12669988
147	0xbd8b699d	-0.068072535
148	0xbd81c1ea	-0.06335814
149	0xbca68175	-0.020325402
150	0xbe2167b6	-0.15762219
151	0xbd142cdb	-0.03617559
152	0xbd890a5f	-0.06691431
153	0x3d004335	0.031314094
154	0xbe6ff24e	-0.23432276
155	0xbdc07b2e	-0.09398495
156	0xbe62a3be	-0.22132775
157	0xbe2effd9	-0.17089786
158	0xbe0f33b2	-0.13984564
159	0xbe3de3e7	-0.18543969
160	0xbe2873ba	-0.16450396
161	0xbe58ad16	-0.21159777
162	0x3ce27cb0	0.027647346
163	0x3d33f8e8	0.043938547
164	0x3bb78f04	0.0056017656
165	0x3d704620	0.058660626
166	0xbdea64ef	-0.11445033
167	0xbe0f1b84	-0.1397534
168	0x3bce2a9b	0.0062917
169	0xbe0d764f	-0.13814662
170	0x3c5adfab	0.013358991
171	0xbd856131	-0.065126784
172	0x3d71d9c6	0.059045576
173	0x3c7b3eb3	0.015334773
174	0xbd7d1d77	-0.061795678
175	0x3c517b8d	0.012785804
176	0xbcc5e2eb	-0.024156054
177	0xbd01f244	-0.031725183
178	0xbdbc930d	-0.09207735
179	0xbe32097c	-0.1738643
180	0xbe38bcef	-0.18040822
181	0x3d21eeef	0.039534505
182	0x3d6a75aa	0.05724112
183	0xbde91b56	-0.11382167
184	0xbdd4aa54	-0.1038405
185	0xbe072f23	-0.13201575
186	0x3c0137da	0.007886851
187	0xbdd150e5	-0.102205075
188	0xbd1b6540	-0.037938356
189	0xbe0e526b	-0.13898627
190	0xbd9f7a60	-0.07787013
191	0xbd9db784	-0.077010185
192	0xbddf0024	-0.10888699
193	0xbd1dc2ef	-0.03851598
194	0xbcc8c083	-0.02450586
195	0xbd3267d4	-0.04355605
196	0xbe4a5969	-0.1976067
197	0xbdde1e31	-0.10845602
198	0xbe7742c6	-0.24146566
199	0xbd0290fc	-0.03187655
200	0xbd0c0d43	-0.034192335
201	0xbb954450	-0.0045552626
202	0xbc46e0b9	-0.012138539
203	0xbe49f22c	-0.19721287
204	0xbe0f9a6c	-0.14023751
205	0xbd4dd553	-0.05025227
206	0xbd9d23d7	-0.076728515
207	0xbdbaf6b3	-0.091290854
208	0xbddb29bf	-0.10701322
209	0xbdb54fd6	-0.08853118
210	0xbda869b1	-0.08223284
211	0xbc711e7f	-0.0147167435
212	0xbe257e25	-0.16161402
213	0xbe4467f3	-0.19180278
214	0xbcae615c	-0.021286659
215	0xbe4c7fbc	-0.19970602
216	0x3bc2b864	0.005942391
217	0x3d953bc1	0.07286788
218	0xbd4e2bab	-0.050334614
219	0xbd58a9fe	-0.052896492
220	0x3d34fe71	0.044187967
221	0xbd9e491e	-0.0772879
222	0xbe836727	-0.25664636
223	0xbe543f0e	-0.20727178
224	0x3d9284d9	0.07154245
225	0xbe4134b3	-0.1886776
226	0xbe2ebbed	-0.17063875
227	0xbe27f605	-0.16402443
228	0xbe69c2ca	-0.22828212
229	0xbe1f94e8	-0.15584147
230	0xbe7422c7	-0.23841392
231	0xbdee4f0a	-0.11636169
232	0xbe21d346	-0.1580325
233	0xbdb7f4ac	-0.08982214
234	0xbe41aace	-0.18912813
235	0xbdaa2b72	-0.08309068
236	0xbe1ca30b	-0.15296571
237	0x3daf134e	0.08548604
238	0xbdf1da6f	-0.11809241
239	0xbc5f2bbd	-0.013621268
240	0xbbe99dd1	-0.007129409
241	0xbd96b039	-0.073578306
242	0xbd3ba3ea	-0.045810618
243	0xbd711e34	-0.058866695
244	0xbe0671a1	-0.13129283
245	0x3d2c7842	0.042106874
246	0x3d4f2aa4	0.050577775
247	0xbd365a17	-0.04451951
248	0x3bd8240e	0.006596095
249	0xbe2013df	-0.1563258
250	0xbdfe0f08	-0.12405211
251	0xbdb84ad1	-0.08998645
252	0xbe0975df	-0.1342387
253	0x3d1e508e	0.03865104
254	0xbceda7bb	-0.029010644
255	0xbda0884a	-0.07838495

network.3.weight f4 [256, 512]
0	0x3d1b9d2b	0.037991684
1	0xbd60a83f	-0.054847952
2	0x3d1853aa	0.037189163
3	0x3d7172fa	0.05894754
4	0xbd9146e3	-0.07093599
5	0x3d1f9025	0.038955826
6	0xbccbfd38	-0.024901018
7	0x3ce97014	0.028495826
8	0xbd209bcd	-0.039211083
9	0xbd3fc627	-0.046819832
10	0x3b227a9f	0.0024792326
11	0x3c8ec3a6	0.017427277
12	0xbb4a4e37	-0.0030869374
13	0x3c1d751d	0.0096104415
14	0x3d8c7e57	0.06860035
15	0x3b411dad	0.002946715
16	0x3cb87f67	0.022521688
17	0xbc9ef0cc	-0.01940193
18	0x3bfedd46	0.0077778427
19	0xbc828866	-0.01593418
20	0x3cc51c52	0.024061356
21	0xbb28d54a	-0.0025761896
22	0x3d5d2128	0.0539867
23	0x3ce8b800	0.02840805
24	0xbd76a153	-0.060212445
25	0x3a37d635	0.00070128153
26	0xbbe3ca8c	-0.0069516357
27	0x3cbe34dd	0.023218567
28	0x3d1424d6	0.036167942
29	0x3d648e7d	0.05579995
30	0xbc82ca97	-0.015965743
31	0x3c02f724	0.007993493
32	0x3d92229e	0.07135509
33	0x3d4a72fb	0.04942606
34	0xbd74be7c	-0.059751973
35	0x3cf5e8e7	0.030018283
36	0x3c3241e1	0.010879965
37	0xbdc50417	-0.09619921
38	0x3d4304ca	0.04761199
39	0x3a136bd7	0.00056236744
40	0xbca9cedc	-0.020728521
41	0x3d1a6119	0.037690256
42	0x3cd71bc9	0.026258366
43	0x3bcc7ab7	0.0062402147
44	0xbd60b6ef	-0.05486196
45	0x3c1206c2	0.008912744
46	0xbdb7d3dd	-0.089759566
47	0xbc10b99f	-0.008833318
48	0x3cab5d44	0.020918496
49	0x3cfe8bb1	0.03107247
50	0x3d9b0c67	0.07570725
51	0x3d59d532	0.053181835
52	0xbd0eb6ab	-0.034842175
53	0xbb52f28f	-0.0032188033
54	0xbd824c35	-0.063621916
55	0xbc9aa825	-0.018879006
56	0x3db185a6	0.086680695
57	0x3cfd2bc7	0.030904664
58	0x3ce730d3	0.028221523
59	0x3d1521e0	0.03640926
60	0x3d1c090f	0.038094576
61	0x3d2cacc9	0.04215697
62	0xbca5d0eb	-0.020241221
63	0xbcfb34c2	-0.030664805
64	0x3d3889b6	0.045053206
65	0xbc386130	-0.01125364
66	0xbc3c7e7b	-0.011504765
67	0x3dc24755	0.09486262
68	0x3b53f830	0.0032343976
69	0xbca402a8	-0.020020798
70	0xbcdd4639	-0.027011024
71	0x3d6dfe9e	0.05810415
72	0x3c2599a6	0.010107433
73	0xbcd56ea7	-0.02605374
74	0xbcbe4d32	-0.023230169
75	0x3cf26875	0.029590825
76	0xbcdaf388	-0.026727453
77	0x3ba62321	0.0050701057
78	0x3cc0c7bc	0.02353274
79	0x3d20e89a	0.039284326
80	0xbdcf164e	-0.10111676
81	0x3c0b03c3	0.008484784
82	0x3d07b7f9	0.033134434
83	0xbd471e9a	-0.04861317
84	0x3cc84f33	0.024451828
85	0x3c2e82fb	0.010651345
86	0x3be653b9	0.0070290235
87	0xbc34f2b2	-0.011044191
88	0x3c8d9a59	0.017285513
89	0x3d12e318	0.035861105
90	0xbc91cb3d	-0.017797107
91	0x3d046a58	0.03232798
92	0xbd0b5936	-0.034020625
93	0x3d3fe631	0.046850387
94	0x3d118617	0.03552827
95	0xbd2846cd	-0.041083146
96	0x3d9446d3	0.07240071
97	0xbc1b09bf	-0.009462773
98	0x3d804204	0.062625915
99	0xbc930741	-0.017947795
100	0xbcb59f5d	-0.022170717
101	0xbdb23a0f	-0.0870248
102	0x3c9d8ad0	0.01923123
103	0xbcb003b4	-0.02148614
104	0xbd074210	-0.033021986
105	0x3bc67a9e	0.0060570976
106	0xbcff7af9	-0.031186568
107	0x3ca04d4b	0.019568106
108	0x3d7fd613	0.062460016
109	0xbd679bb3	-0.05654497
110	0xbd00b3b6	-0.031421386
111	0x3c57864a	0.013154576
112	0xbd72dcaf	-0.05929249
113	0xbd22e94c	-0.03977327
114	0x3bbb8de9	0.005723704
115	0x3d0e56c5	0.03475072
116	0x3d164d72	0.03669495
117	0x3c851fa1	0.016250433
118	0x3cc89993	0.024487292
119	0x3d123742	0.03569723
120	0xbc12b734	-0.008954812
121	0x3d5a95c3	0.05336548
122	0xbde43def	-0.111446254
123	0x3c963b20	0.01833874
124	0xbc2f69e3	-0.010706398
125	0xbc96a540	-0.018389344
126	0x3d63c1b9	0.05560467
127	0x3cb1ab0c	0.021688007
128	0xbc5b3fd5	-0.013381918
129	0xbd11e0b9	-0.035614703
130	0xbda026f7	-0.07819932
131	0x3cc8d153	0.024513876
132	0xbd84e4c8	-0.06488949
133	0x3d8601ac	0.06543288
134	0x3d24c905	0.04023077
135	0x3ba510c3	0.0050373985
136	0xbdd70cf3	-0.10500517
137	0x3c52efed	0.012874586
138	0xbc4ca34e	-0.012490107
139	0xbca0cece	-0.019629862
140	0xbd081f1d	-0.033232797
141	0x3d190e9e	0.037367456
142	0x3ce7d670	0.028300494
143	0x3d86b161	0.06576801
144	0xbd209985	-0.039208908
145	0xbcb33bac	-0.02187904
146	0x3c9cdbd8	0.019147798
147	0x3ce6030f	0.02807763
148	0xbc67f4a4	-0.014157448
149	0xbd05b3da	-0.032642223
150	0x3cd2355f	0.025660215
151	0x3cd13399	0.025537299
152	0xbc8e60ad	-0.017380083
153	0x3d2230b6	0.039597236
154	0x3d3e122e	0.046404056
155	0xbcda16b8	-0.026622161
156	0xbcbdb930	-0.023159593
157	0x3c704b24	0.014666352
158	0x3c6696d1	0.014074043
159	0xbd479d6d	-0.048734117
160	0xbb7fa35a	-0.0039007277
161	0x3d201fef	0.039092954
162	0x3d65bb65	0.056086916
163	0xbb833279	-0.0040038195
164	0x3ca079e5	0.019589374
165	0xbb3f77f9	-0.0029215796
166	0xbdd4bdee	-0.10387789
167	0xbb237263	-0.0024940006
168	0xbcba0bdc	-0.022710733
169	0x3c6ee7f6	0.014581671
170	0xbc04f01d	-0.008113888
171	0x3d82f789	0.0639487
172	0x3c7e72a6	0.015530264
173	0xbd7dd7a5	-0.061973233
174	0x3cdd2282	0.026993994
175	0x3d215154	0.0393842
176	0xbcdb2945	-0.026753077
177	0xbc36a31c	-0.011147287
178	0x3cf9df1b	0.030501893
179	0xbd0b8b44	-0.03406836
180	0x3c913b30	0.017728418
181	0x3be38879	0.006943759
182	0x3cfd7b72	0.030942652
183	0x3d2f2b0d	0.042765666
184	0xbc88e5e4	-0.016711183
185	0xbc48ac42	-0.012248101
186	0x3b33085e	0.002731822
187	0xbb2f5d5c	-0.0026758527
188	0x3d3187dc	0.043342456
189	0x3d5263b3	0.05136461
190	0xbc8144f0	-0.015779942
191	0x3c99841c	0.018739752
192	0x3c443d33	0.011977482
193	0xbd1122e9	-0.035433684
194	0x3cb34b52	0.021886501
195	0x3d3a232d	0.045443702
196	0x3c00ed1f	0.007869034
197	0xbca81024	-0.020515509
198	0x3d45ed04	0.04832174
199	0x3d3e0386	0.04639008
200	0xbb944661	-0.0045249914
201	0xbd003755	-0.03130277
202	0xbd45caa7	-0.048288967
203	0xbd5932d7	-0.053027
204	0xba53fd06	-0.00080867147
205	0x3aa62bf3	0.0012677893
206	0xbc0a28f2	-0.008432614
207	0x3d335fd8	0.043792576
208	0xbab26dc5	-0.0013613036
209	0x3d670695	0.05640276
210	0x3d081875	0.03322645
211	0x3d33250e	0.04373651
212	0xbd37192c	-0.04470174
213	0xbdde3113	-0.10849204
214	0x3d4d72ca	0.0501583
215	0xbc57cf85	-0.013172035
216	0x3c8bf46f	0.017084328
217	0xbcdb87bb	-0.02679812
218	0xbcd56f22	-0.026053969
219	0x3ba3d94e	0.00500027
220	0x3d3036c1	0.043020967
221	0x3cfeb504	0.031092174
222	0x3d1259c3	0.035730135
223	0xbd743114	-0.059617117
224	0xbb0f6c1a	-0.0021884502
225	0x3c799d3d	0.015235242
226	0xbd954b20	-0.072897196
227	0xbd918c40	-0.07106829
228	0xbc7159dc	-0.014730897
229	0x3db75a10	0.08952725
230	0x3c8ac70f	0.016940622
231	0xbd416e66	-0.047224425
232	0x3dae46e4	0.08509615
233	0xbc09dda3	-0.008414659
234	0x3d99403b	0.07482954
235	0xbbf55bdb	-0.0074877567
236	0xbd47cac4	-0.048777357
237	0xbd72c442	-0.059269197
238	0xbd88b40e	-0.06674968
239	0x3a93ed9c	0.0011286023
240	0x3d181467	0.037128832
241	0x3d739641	0.059469465
242	0x3bdda522	0.00676407
243	0xbc0ecc2b	-0.00871567
244	0xbd8f48f9	-0.0699634
245	0xbc3a1ade	-0.011358945
246	0x3b812620	0.0039413124
247	0xbcca5d72	-0.024702761
248	0xbad3847f	-0.0016137509
249	0xbcc61a24	-0.024182387
250	0xbbb780a5	-0.0056000524
251	0x3b1b43dc	0.002369157
252	0x3cd61eaf	0.026137678
253	0xbdb9877c	-0.09059045
254	0x3d01eb12	0.03171832
255	0xbd084ee8	-0.033278376

network.3.bias f4 [256]
0	0xbb369db5	-0.0027864997
1	0x3d21e46a	0.039524473
2	0x3d310989	0.043221984
3	0x3c9aa367	0.018876744
4	0x3d115171	0.03547806
5	0x3d0c8756	0.034308754
6	0x3ca0bbc5	0.019620785
7	0x3b3dde61	0.002897166
8	0xba23285b	-0.000622397
9	0x3d25054e	0.040288262
10	0x3d2e826a	0.04260484
11	0x3c8a5dbb	0.016890397
12	0x3c7ec592	0.015550034
13	0xbd2dece7	-0.042462256
14	0xbd5c51ba	-0.053788878
15	0xbd3f9653	-0.04677422
16	0x3cd64eb3	0.026160574
17	0xba3e42d7	-0.0007257885
18	0x3db67928	0.089098275
19	0x3d0827e3	0.033241164
20	0xbbd92144	-0.00662628
21	0xbd5b1042	-0.0534823
22	0x3d9c1236	0.07620661
23	0x3c5e2277	0.013558022
24	0x3d8b5d55	0.06804911
25	0xbd9a42c2	-0.07532264
26	0xbbb14504	-0.0054098386
27	0xbd758512	-0.05994136
28	0x3bc66473	0.006054455
29	0x3d3b7aeb	0.04577152
30	0x3c786df3	0.015162933
31	0x3cac0ff1	0.021003695
32	0x3d6fc08f	0.058533248
33	0x3d3efa28	0.046625286
34	0x3cbf01fe	0.02331638
35	0x3cb6bbff	0.02230644
36	0x3cc21843	0.02369321
37	0x3d0ee857	0.034889545
38	0x3d36b213	0.04460342
39	0xbd40a40e	-0.047031455
40	0x3d4a414a	0.04937867
41	0xbc6324dc	-0.013863768
42	0x3c957004	0.01824189
43	0x3da5e02e	0.080993995
44	0x3c8dbc58	0.017301723
45	0xbb9386f6	-0.0045021726
46	0xbd650af8	-0.055918664
47	0xbd1c8f50	-0.03822261
48	0x3c147448	0.009060927
49	0x3c3a0954	0.011354763
50	0x3d662fdf	0.056197997
51	0x3c73ff66	0.014892435
52	0xbd0c4f36	-0.03425523
53	0x3d8b5c7d	0.0680475
54	0xbb0d666e	-0.0021575945
55	0x3b51de0c	0.003202322
56	0xbcacf860	-0.021114528
57	0x3c676540	0.014123261
58	0x3caff710	0.021480113
59	0xbd0133d2	-0.03154356
60	0x3c7cd6d4	0.015432078
61	0x3cf27acb	0.029599568
62	0x3d82a984	0.06379989
63	0x3d2c77d3	0.04210646
64	0xbd74721a	-0.05967913
65	0x3ccde42a	0.025133211
66	0xbd5c0487	-0.053715255
67	0x3cc72fa0	0.024314702
68	0x3d3a61fd	0.045503605
69	0x3d2b13ba	0.04176686
70	0x3d5e56ea	0.054282106
71	0x3c769d5a	0.015052164
72	0xbd0fab17	-0.035075273
73	0xbcc35381	-0.023843529
74	0x3a6f96d8	0.0009139604
75	0xbd62732a	-0.05528561
76	0xbca90cf3	-0.020636057
77	0xbd074282	-0.03302241
78	0xbb0e7fdd	-0.0021743693
79	0x3d6cd613	0.057821345
80	0xbb86dfe6	-0.0041160462
81	0x3d929630	0.07157552
82	0xbd141ef5	-0.036162335
83	0xbcb550d8	-0.022133276
84	0x3bbf5aa9	0.005839665
85	0xbd7fcb27	-0.0624496
86	0xbd2c7364	-0.042102233
87	0x3c0a2264	0.008431051
88	0xbcf470fe	-0.029839035
89	0x3c69f566	0.014279699
90	0xbc09b67c	-0.008405324
91	0x3ba23241	0.0049498384
92	0xbce1ab61	-0.02754754
93	0x3bcfb13f	0.006338268
94	0xbafac0f8	-0.0019130995
95	0xbc354870	-0.011064634
96	0x3d37c945	0.04486968
97	0x3cfd1681	0.03089452
98	0x3ccbd67f	0.024882553
99	0xbc2fc936	-0.010729125
100	0xbc9dd269	-0.01926537
101	0x3c76c3f4	0.015061367
102	0x3ce47cc0	0.027891517
103	0x3d2cacf1	0.042157117
104	0x3d4dbe35	0.050230224
105	0x3ce083be	0.02740657
106	0x3d613ee6	0.054991625
107	0x3d78b3ea	0.060718454
108	0x3d0b47a6	0.034003876
109	0xbcd623fe	-0.02614021
110	0x3c0f4d27	0.008746422
111	0x3c56328a	0.013073573
112	0x3d989ad9	0.0745141
113	0xbbcd7627	-0.0062701884
114	0x3d10ad4f	0.03532153
115	0xbd0dd378	-0.0346255
116	0x3ccc2dcd	0.024924183
117	0xbc51df59	-0.012809598
118	0x3d1de9a1	0.038552884
119	0xbd79fb65	-0.061030764
120	0xbc18adac	-0.00931875
121	0x3d108ae1	0.035288695
122	0x3d6de0dd	0.058075774
123	0xbcb61d54	-0.022230782
124	0x3c3836b3	0.01124351
125	0xbbcec140	-0.0063096583
126	0x3d71ebcf	0.059062775
127	0x3d864712	0.06556524
128	0x3d382c32	0.044964023
129	0xbc13233e	-0.00898057
130	0xbd17e454	-0.037082985
131	0xbd6393b7	-0.055560794
132	0xbd3065e1	-0.04306591
133	0xbd6a9942	-0.057275064
134	0x3da2c135	0.079470076
135	0x3dd1c71c	0.10243055
136	0xbc53ee87	-0.012935287
137	0xbce5d7dc	-0.028057031
138	0xbb390fa7	-0.002823809
139	0xbd76bb60	-0.06023729
140	0x3d58c5c3	0.052922975
141	0x3d8bc624	0.06824902
142	0xbd2dc5d9	-0.04242501
143	0x3d0024f7	0.031285252
144	0x3caf8ed9	0.02143042
145	0xbc911a16	-0.017712634
146	0x3d44f597	0.048085775
147	0x3d930334	0.07178345
148	0xbd4575a2	-0.048207887
149	0x3d39a1ef	0.045320448
150	0x3cbaafe1	0.022788944
151	0xbd017689	-0.031607185
152	0x3cbdbd5a	0.023161579
153	0xbd17b416	-0.037036978
154	0xbc823c92	-0.015898023
155	0xbd80734d	-0.06271992
156	0xbbea0029	-0.0071411324
157	0x3c8b0aee	0.016972985
158	0x3c6f9539	0.01462298
159	0xbdba1379	-0.09085745
160	0x3d1544e0	0.036442637
161	0x3c93c2b9	0.018037187
162	0xbc2caeec	-0.0105397515
163	0x3cb193d4	0.021676935
164	0x3c0a06bb	0.008424456
165	0x3d5bf177	0.053697076
166	0x3d97fca3	0.074212335
167	0xbcbdfafc	-0.023190968
168	0xbd390b00	-0.045176506
169	0xbd5326fa	-0.051550843
170	0xbca3ea22	-0.020009104
171	0x3d018e69	0.031629954
172	0x3dd900a5	0.10595826
173	0xbd6cdad2	-0.05782587
174	0x3d415fd2	0.047210522
175	0xbc84be61	-0.016204061
176	0xbc0f6bbc	-0.008753713
177	0xbcaf8d79	-0.021429764
178	0xbcd684d3	-0.026186382
179	0xbd2e1c0f	-0.042507228
180	0xbcec7532	-0.028864477
181	0xbca6efcc	-0.020378016
182	0x3ba09eef	0.004901759
183	0xbcb0d8f3	-0.021587824
184	0xbc3ae7ad	-0.011407775
185	0x3d1be775	0.03806253
186	0x3cbd2ee7	0.023093654
187	0x3d7fe262	0.062471755
188	0x3babb744	0.005240353
189	0x3caa3c8d	0.020780826
190	0xbdaa965b	-0.08329459
191	0x3d6ef64a	0.05834035
192	0x3caba14b	0.020950934
193	0xbcf9f72a	-0.030513365
194	0x3d1cd85f	0.038292285
195	0xbd06c7e2	-0.032905467
196	0x3d0d6857	0.034523334
197	0xbd40e5b7	-0.047094073
198	0xbcb1b203	-0.021691328
199	0x3cc4f224	0.024041243
200	0x3c86d9ca	0.016461272
201	0xbcba164b	-0.022715708
202	0xbce75e43	-0.02824319
203	0x3d59e229	0.0531942
204	0x3d227559	0.039662693
205	0xbcbb05a5	-0.02282984
206	0xbd4cfc52	-0.05004532
207	0x3d1d5eed	0.038420606
208	0x3cb3ab53	0.02193228
209	0x3d6a6879	0.05722854
210	0xbc5b8127	-0.013397492
211	0xbc6818ba	-0.0141660515
212	0xbd494d00	-0.0491457
213	0x3c3d00c7	0.01153583
214	0x3d221e61	0.039579753
215	0x3c2f6453	0.0107050715
216	0xbc5a63c3	-0.013329449
217	0x3d2aea94	0.041727617
218	0x3d9a2094	0.07525745
219	0x3c52d4d1	0.012868122
220	0x3c263dae	0.0101465415
221	0x3d8d0d25	0.06887273
222	0x3dba694d	0.09102116
223	0x3d7cc625	0.061712403
224	0x3d53a353	0.05166943
225	0x3c149af8	0.009070151
226	0xbd7fe331	-0.062472526
227	0xbccd53d6	-0.02506439
228	0xbc1a09b2	-0.009401726
229	0xbcf04ceb	-0.029333552
230	0x3d80c8f6	0.0628833
231	0xbcf72b55	-0.03017203
232	0x3b5411f1	0.0032359327
233	0x3dc51c77	0.0962457
234	0xbd24a624	-0.040197507
235	0xbd8b7416	-0.06809251
236	0x3d9d125c	0.076695174
237	0x3da6651b	0.08124753
238	0x3c51f653	0.012815076
239	0x3d66a5c5	0.056310434
240	0xbd237362	-0.03990496
241	0x3dd03f78	0.10168356
242	0xbccbbb14	-0.02486948
243	0x3d05b4d0	0.03264314
244	0xbd2c7e5a	-0.042112686
245	0x3d2fff51	0.042968098
246	0x3cc6afb6	0.024253707
247	0xbd2323c8	-0.039829046
248	0xbb809e6c	-0.0039251354
249	0xbd99527a	-0.07486434
250	0x3dae12ca	0.084996775
251	0x3dd86498	0.10566062
252	0x3d0ff23d	0.035143126
253	0xbd1014b6	-0.035176
254	0x3c268b2c	0.010165017
255	0xbd680c8a	-0.056652583

network.6.weight f4 [128, 256]
0	0x3d9a1d4e	0.07525121
1	0x3d3241a5	0.043519635
2	0xbdd963b4	-0.1061472
3	0xbb4aa965	-0.003092372
4	0x3d7152c8	0.058916837
5	0xbd885be2	-0.0665815
6	0x3d3ae886	0.045631908
7	0xbd9e2e34	-0.07723656
8	0x3cd5043e	0.026003
9	0x3cc9f093	0.024650848
10	0x3cb87556	0.022516888
11	0x3d476553	0.048680615
12	0x3d3f763b	0.046743613
13	0xbd26fd5e	-0.040768974
14	0xbdd038e4	-0.10167101
15	0x3db8b948	0.090197146
16	0x3e06609e	0.13122794
17	0x3ca6ee1d	0.020377213
18	0xbd8d773f	-0.0690751
19	0xbd75c7ee	-0.06000512
20	0xbd928c53	-0.07155671
21	0xbda589d6	-0.08082931
22	0xbcb7db2f	-0.022443382
23	0x3d387fb6	0.04504367
24	0x3ddbfeb7	0.107419424
25	0x3ce1f006	0.027580272
26	0x3d480ae2	0.048838504
27	0xbd56a478	-0.052402943
28	0xbd7b4ff5	-0.06135555
29	0x3cedec77	0.02904342
30	0x3d76d272	0.06025929
31	0xbcb2507c	-0.021766894
32	0x3d8afedf	0.06786894
33	0xbbcc453e	-0.0062338402
34	0xbd4812d6	-0.04884609
35	0xbcd2e709	-0.025744932
36	0x3dc38184	0.095461875
37	0x3d1fe343	0.039035093
38	0xbd80487c	-0.06263825
39	0xbdf8ccb9	-0.12148423
40	0xbe49ece7	-0.19719277
41	0xbb8bebd3	-0.004270056
42	0x3d58f916	0.05297192
43	0xbe079164	-0.13239056
44	0x3be906e8	0.007111419
45	0xbc013ab4	-0.007887531
46	0xbde24b21	-0.11049486
47	0x3ddbe640	0.10737276
48	0xba3deac7	-0.00072447624
49	0x3daa2483	0.08307745
50	0xbd3603c4	-0.044437185
51	0x3d62828c	0.05530028
52	0x3cd4f078	0.02599357
53	0x3a976a92	0.0011552146
54	0x3d568554	0.052373245
55	0xbd71240e	-0.058872275
56	0xbbf364e5	-0.007427799
57	0x3e174d7c	0.14775652
58	0xbd636afb	-0.055521946
59	0x3e7116e4	0.23543888
60	0x3e063d06	0.13109216
61	0xbd6c1a33	-0.057642173
62	0xbdd6ecaf	-0.104943626
63	0xbcb276be	-0.021785136
64	0x3d9ec368	0.077521145
65	0xbda0f643	-0.07859471
66	0x3cd7addc	0.02632802
67	0x3cd8cbae	0.02646431
68	0xbd40380e	-0.046928458
69	0x3e1a81f9	0.15088643
70	0xbd94b4e9	-0.072610684
71	0xbd938c97	-0.0720455
72	0x3dcf6913	0.10127463
73	0xbc82a104	-0.015945919
74	0x3d1bac92	0.038006373
75	0x3cefcfe0	0.029273927
76	0xbd078272	-0.033083387
77	0x3dbf6858	0.09346074
78	0x3d267bf5	0.04064556
79	0x3dcfb1e8	0.10141355
80	0x3c12c07c	0.008957025
81	0x3bdc5591	0.0067240675
82	0xbd0da502	-0.03458119
83	0x3da61ffe	0.08111571
84	0xbcd5fd54	-0.026121773
85	0xbccb64c5	-0.024828324
86	0x3db4c811	0.08827222
87	0xbd7fbd90	-0.06243664
88	0x3cc3e6ba	0.02391373
89	0xbc876674	-0.016528346
90	0x3e09c12c	0.13452595
91	0xbd8be259	-0.06830282
92	0x3dde5e02	0.10857774
93	0x3be40c23	0.0069594546
94	0x3c028fed	0.007968885
95	0x3df4b226	0.119480416
96	0x3ccfa2a1	0.025346102
97	0x3d837a67	0.06419831
98	0x3ca5f8cf	0.020260243
99	0xbd0c722f	-0.03428858
100	0xbd40a969	-0.047036562
101	0x3c96caeb	0.018407306
102	0x3dffcee4	0.12490633
103	0x3d882d70	0.066492915
104	0xbcca1a09	-0.024670618
105	0x3df6c8b8	0.12050003
106	0x3cbe8e03	0.023261076
107	0xbc530896	-0.012880465
108	0x3c4815ef	0.012212261
109	0x3de536d7	0.111921005
110	0x3cfb5178	0.030678496
111	0xbd7e58a0	-0.062096238
112	0xbd8bd260	-0.06827235
113	0xbd468687	-0.04846814
114	0xbd8360ed	-0.064149715
115	0x3cd10019	0.025512742
116	0xbdfea241	-0.12433291
117	0xbd044df6	-0.03230091
118	0xbd87fdfc	-0.066402406
119	0xbd808c2d	-0.062767364
120	0x3e2c0624	0.16799217
121	0x3d11dc57	0.035610523
122	0xbd6ebce7	-0.05828562
123	0x3d830e82	0.063992515
124	0xbd9fb40b	-0.07798012
125	0xbd3ef7d5	-0.04662307
126	0xbd249ff8	-0.04019162
127	0x3dcc891c	0.09987089
128	0x3e1bf57a	0.1523036
129	0xbd6f1fba	-0.058379866
130	0xbbb23d3c	-0.0054394286
131	0xbc5d32d9	-0.013500893
132	0x3d34c7bc	0.044135794
133	0xbcb3b57c	-0.021937124
134	0x3cd79ea9	0.026320772
135	0x3d747b88	0.05968812
136	0xbd0f461e	-0.03497898
137	0xbce1f9b2	-0.027584884
138	0x3cbe35dd	0.023219043
139	0x3ac0a800	0.0014698505
140	0x3c135710	0.008992925
141	0xbdd5f5fe	-0.1044731
142	0x3d3ae4ba	0.045628287
143	0x3d762e14	0.060102537
144	0xba72a165	-0.0009255617
145	0xbd815443	-0.063149
146	0x3d98848d	0.07447157
147	0x3d15f1c7	0.03660753
148	0x3d5a0afd	0.053233135
149	0xbd5eda76	-0.05440756
150	0xbde8cb81	-0.1136694
151	0xbd912985	-0.07087997
152	0xbd4be560	-0.049779296
153	0x3cb79f54	0.02241484
154	0xbcad53cd	-0.021158123
155	0x3e0cdeb9	0.13756837
156	0xbcd92340	-0.026506066
157	0x3c6c31fd	0.014416215
158	0xbdf505c4	-0.1196399
159	0x3d97fc14	0.07421127
160	0x3ccbd72b	0.024882874
161	0x3d903ab3	0.07042446
162	0xba0e9f69	-0.0005440624
163	0x3adcf5ee	0.0016857961
164	0xbbfb02c3	-0.0076602413
165	0xbd948804	-0.072525054
166	0xbdfe27d3	-0.124099396
167	0xbda1068a	-0.07862575
168	0x3da9c2ce	0.08289109
169	0x3dd5770d	0.10423098
170	0xbd63a4f6	-0.05557724
171	0x3bdc4f69	0.0067233336
172	0xbd330a7f	-0.04371118
173	0x3e019aa0	0.12656641
174	0x3dd08005	0.10180668
175	0x3cf94457	0.030428095
176	0x3d33cdc9	0.043897424
177	0x3ccdfa20	0.025143683
178	0x3ca3a7df	0.019977508
179	0xbc4d3187	-0.012524015
180	0x3d7aec40	0.06126046
181	0x3d8126a7	0.063062005
182	0xbdb92fe1	-0.09042335
183	0xbd8e89be	-0.06959866
184	0x3de94d09	0.113916464
185	0x3c8abe68	0.016936496
186	0x3daee686	0.085400626
187	0xbd962b06	-0.07332425
188	0xbe0913fa	-0.13386527
189	0x3de5d349	0.1122194
190	0x3e21dced	0.15806933
191	0xbe0625f4	-0.13100415
192	0xbd0b0890	-0.033943713
193	0xbde73471	-0.11289299
194	0x3d9ed9eb	0.07756408
195	0x3d773f66	0.060363196
196	0x3d0295cb	0.031881135
197	0xbd4ce1b0	-0.05001992
198	0xbd925254	-0.07144609
199	0xbd5edd54	-0.054410294
200	0x3deb5dad	0.114924766
201	0x3ca8ad43	0.02059043
202	0x3d807dc4	0.06273988
203	0xbc9528e2	-0.018207971
204	0x3d304d79	0.043042634
205	0x3d4d96bd	0.050192583
206	0xbd6250ca	-0.055252828
207	0xbd84fd8a	-0.06493671
208	0x3db109ed	0.08644471
209	0x3e1d4e4a	0.15361896
210	0xbdf3cbaf	-0.11904084
211	0xbda9ebd2	-0.08296932
212	0xbd8422e6	-0.06451969
213	0x3d3e2bca	0.04642848
214	0xbdbe5782	-0.092940345
215	0xbd1883d7	-0.037235107
216	0x3c807eef	0.015685527
217	0x3d0e29c3	0.034707796
218	0xbd882101	-0.0664692
219	0x3d3f1e44	0.046659723
220	0xbcf6ff1d	-0.030150944
221	0xbc489d02	-0.012244465
222	0xbdd1eac7	-0.10249858
223	0x3e091908	0.13388455
224	0x3cd19bb5	0.025586942
225	0x3e290e6e	0.1650941
226	0xbd6991a2	-0.057023652
227	0xbd4734f5	-0.048634488
228	0x3d49044a	0.049076356
229	0xbd74390d	-0.05962472
230	0xbda0604e	-0.07830869
231	0xbd500a72	-0.05079121
232	0xbbe04758	-0.0068444423
233	0x3d81a8a9	0.063309975
234	0xbcca4b28	-0.02469404
235	0xbd9a3370	-0.07529342
236	0x3d00b0a6	0.031418465
237	0xbde2f092	-0.110810414
238	0x3ce6ebc2	0.02818859
239	0xbdb4f2e4	-0.0883539
240	0x3e168e54	0.14702731
241	0x3d245be9	0.040126715
242	0x3d3dc364	0.046328917
243	0x3cc1a455	0.02363793
244	0x3d8e829b	0.06958505
245	0xbcd0b502	-0.025476936
246	0xbbabd5d3	-0.0052439957
247	0x3d640e0a	0.05567745
248	0xbc7ab08f	-0.015300884
249	0x3c5b889d	0.01339927
250	0xbbe50f30	-0.006990336
251	0x3da83cdc	0.08214733
252	0xbc1ae1c6	-0.009453243
253	0x3d1e2307	0.038607623
254	0xbb2a21a8	-0.0025960002
255	0x3bcc5dba	0.006236759

network.6.bias f4 [128]
0	0xbc7c7d82	-0.015410783
1	0x3de1031c	0.10986921
2	0xbd1339d7	-0.035943832
3	0x3d55673b	0.0521004
4	0x3d07d9af	0.033166584
5	0x3db4cbdc	0.088279456
6	0xbcaa91ef	-0.02082154
7	0x3c9cc4bd	0.01913678
8	0x3d279cb5	0.04092093
9	0x3c82796c	0.01592704
10	0x3d643bcf	0.0557211
11	0x3d9ac557	0.07557171
12	0x3da5aae1	0.08089233
13	0x3e00d439	0.12580957
14	0x3d625e65	0.055265803
15	0xbd0245c8	-0.03180483
16	0x3c5069e6	0.012720561
17	0xbd41c9c8	-0.047311574
18	0x3d8b6be3	0.06807687
19	0x3db55d86	0.08855729
20	0x3dbe49d6	0.09291427
21	0x3c882663	0.016619867
22	0x3b5dfa2d	0.003387104
23	0x3e0da5aa	0.13832727
24	0xbc381dae	-0.011237545
25	0x3d8f0a19	0.06984348
26	0x3e3ae218	0.1825031
27	0xbcb246de	-0.021762308
28	0xbc8b6297	-0.017014785
29	0x3d8cc6e7	0.06873875
30	0x3d41e429	0.04733673
31	0xbbd340da	-0.00644694
32	0x3cfeb20c	0.031090759
33	0x3d38fb61	0.04516161
34	0x3e00b63a	0.12569514
35	0xbbff9909	-0.0078002256
36	0x3da9a05b	0.082825385
37	0x3dc287b5	0.0949854
38	0x3dd4b8c2	0.10386802
39	0x3bcfea9e	0.006345107
40	0x3d21b547	0.03947952
41	0x3c21edca	0.0098833535
42	0x3d3abcb3	0.045590114
43	0x3d8efc13	0.06981673
44	0x3d734b15	0.059397776
45	0x3d57fd73	0.052731942
46	0xbd11f5d7	-0.03563484
47	0x3b277003	0.0025548942
48	0xbd3d0c67	-0.046154406
49	0x3c811e6d	0.015761578
50	0x3df3c1a0	0.119021654
51	0xbbabaf87	-0.0052394303
52	0xbd21bb84	-0.03948547
53	0xbb7fbec4	-0.0039023617
54	0xbc556ac4	-0.013025943
55	0xbd16aa72	-0.036783643
56	0x3d6a4972	0.05719895
57	0x3db7f5fe	0.08982466
58	0x3bbc337e	0.005743443
59	0x3dd93968	0.106066525
60	0xbd4f964b	-0.05068044
61	0x3db2d303	0.087316535
62	0xbc056eaa	-0.00814406
63	0x3d4463ee	0.047946863
64	0x3d2e79db	0.04259668
65	0xbb87fb3e	-0.0041498234
66	0x3cdc7d46	0.026915204
67	0x3c4ffa45	0.012693946
68	0x3d6880d8	0.0567635
69	0xbd2013a9	-0.03908125
70	0xb894d61a	-7.0970695e-05
71	0xbcb3f8f2	-0.021969292
72	0x3d880f71	0.0664357
73	0x3bcbb3d7	0.006216507
74	0x3df06e13	0.11739745
75	0x3cb1c219	0.021698998
76	0x3d79de40	0.06100297
77	0x3d6f780c	0.058464095
78	0x3c801969	0.015637117
79	0x3d85e63c	0.06538054
80	0xbcadcc97	-0.02121572
81	0x3daf2a13	0.08552947
82	0x3b2f0393	0.0026705011
83	0x3dde683c	0.10859725
84	0xbccceb59	-0.025014566
85	0xbca33066	-0.01992054
86	0xbb3386c4	-0.002739356
87	0x3d4da9a7	0.05021062
88	0x3cac0ee8	0.021003202
89	0x3d51272e	0.051062755
90	0xbce779de	-0.028256353
91	0x3cf6234c	0.030046128
92	0xbd84342f	-0.06455266
93	0xbc1b60ca	-0.0094835255
94	0xbd15b51c	-0.036549672
95	0xbca53c53	-0.020170366
96	0x3dade597	0.084910564
97	0x3da5eed8	0.081021965
98	0x3c547ead	0.012969655
99	0x3b00b478	0.0019638818
100	0x3cc155bb	0.02360045
101	0x3e06b3a2	0.13154462
102	0x3d5c7798	0.05382499
103	0x3dbfdb4d	0.09368
104	0x3de5c282	0.1121874
105	0x3c26b895	0.010175844
106	0x3cb6ebb4	0.022329189
107	0xbc80bdd6	-0.01571552
108	0xbd55e66d	-0.052221704
109	0x3c8e3b48	0.017362252
110	0x3c727c56	0.014800152
111	0xbc701fa1	-0.014655978
112	0x3d602b9d	0.054729093
113	0x3d8182a7	0.06323748
114	0x3a8b2d51	0.0010618364
115	0x3d4af6b4	0.04955168
116	0x3d854c85	0.065087356
117	0x3ddc1ef7	0.107480936
118	0x3c6660eb	0.014061193
119	0x3c903f1f	0.017608223
120	0x3d8f3144	0.069918185
121	0x3ced4a24	0.028966017
122	0x3d5f1359	0.05446181
123	0xbcf7c81b	-0.030246785
124	0x3d44e25d	0.04806744
125	0x3d7a710b	0.061142962
126	0x3cf4e057	0.02989213
127	0x3dcd12ef	0.10013377

network.9.weight f4 [21, 128]
0	0x3db4b67b	0.08823868
1	0x3d0d62e8	0.034518152
2	0xbe350d31	-0.17680813
3	0xbb96c163	-0.00460069
4	0xbd8525ce	-0.06501351
5	0xbdc409bd	-0.0957217
6	0xbe2a8796	-0.16653284
7	0xbdaf2143	-0.08551266
8	0x3dbfcea8	0.093655884
9	0x3de660d8	0.1124894
10	0x3d45eee2	0.04832352
11	0xbc577f90	-0.013152972
12	0x3ce42eb7	0.027854307
13	0xbd9b0dff	-0.07571029
14	0xbdc196e1	-0.09452606
15	0xbe45498b	-0.19266336
16	0x3da0ac5c	0.07845375
17	0xbd74fa64	-0.059809104
18	0xbe364496	-0.17799601
19	0x3d45c6a5	0.048285145
20	0x3c90dac9	0.01768245
21	0xbb527418	-0.0032112654
22	0x3de08174	0.10962191
23	0x3be3f05e	0.0069561442
24	0xbe5b33eb	-0.21406524
25	0xbeae35ae	-0.3402533
26	0xbdf00aae	-0.11720787
27	0x3d3d3f47	0.046202924
28	0x3db64cca	0.08901365
29	0x3dbdffec	0.09277329
30	0x3d58242d	0.052768875
31	0xbe87c479	-0.26517084
32	0xbd2f75e5	-0.042837042
33	0xbe70bc1b	-0.23509257
34	0xbd201832	-0.039085574
35	0x3db21882	0.08696081
36	0x3da07ec3	0.07836678
37	0xbbaf6cdc	-0.005353553
38	0xbdaa70fb	-0.083223306
39	0x3b9fb6c2	0.0048740814
40	0xbd4d9f78	-0.05020091
41	0x3df0414e	0.11731206
42	0xbe57c663	-0.21071772
43	0x3be8ebb5	0.0071081766
44	0xbe777cb5	-0.24168666
45	0x3dcb5f4d	0.099302866
46	0x3dcefdbc	0.1010699
47	0x3cc676ed	0.02422663
48	0x3d564cd2	0.052319355
49	0xbc1ed8a4	-0.009695206
50	0xbdcbdcd9	-0.09954233
51	0xbe4cc52b	-0.19997089
52	0xbbe04c18	-0.0068450086
53	0xbe5b13a8	-0.21394217
54	0x3d96c5ea	0.07361968
55	0x3d9f7274	0.07785502
56	0x3ce6e981	0.028187515
57	0x3d851e3c	0.064999074
58	0xbe4727d8	-0.19448793
59	0xbe07f25c	-0.13276047
60	0xbd176ebd	-0.036970843
61	0xbdcc6d49	-0.09981782
62	0xbe4b281b	-0.19839518
63	0xbdacc6ab	-0.084363304
64	0x3dc0d7da	0.094161704
65	0x3e67a94f	0.2262318
66	0xbe4e5539	-0.20149697
67	0x3d7ed225	0.06221213
68	0xbdc55fa5	-0.09637383
69	0x3da4dce0	0.08049941
70	0x3e11364c	0.14180869
71	0xbc9e8e05	-0.01935483
72	0xbe37eff9	-0.17962636
73	0x3d6fc0d9	0.058533523
74	0x3d8f3042	0.06991626
75	0xbdb663e0	-0.089057684
76	0x3d597bd4	0.053096607
77	0x3e569785	0.20956238
78	0xbde47e88	-0.111569464
79	0xbe79e53a	-0.24403849
80	0xbd63fe04	-0.05566217
81	0x3b8757f0	0.004130356
82	0x3da832b8	0.08212799
83	0x3d1cb4d1	0.038258377
84	0xbd788619	-0.06067476
85	0x3cf79536	0.030222517
86	0x3d72749f	0.05919325
87	0x3d8e1efd	0.06939504
88	0x3dede39e	0.1161568
89	0xbd85b38d	-0.06528387
90	0xbe4b637b	-0.19862168
91	0x3d023ad2	0.031794377
92	0x3c5b7902	0.01339555
93	0xbdebe8af	-0.1151899
94	0xbe0eb082	-0.1393452
95	0x3df014df	0.11722731
96	0x3d91cc49	0.071190424
97	0xbe4b5d56	-0.19859824
98	0x3de74a89	0.11293513
99	0x3d8ade44	0.06780675
100	0x3e00f860	0.12594748
101	0xbe50402e	-0.20336983
102	0x3dbea7db	0.0930936
103	0x3d3b7093	0.045761656
104	0x3d82accb	0.06380614
105	0x3de29e24	0.11065319
106	0xbd75fd04	-0.060055748
107	0xbe131ac0	-0.14365673
108	0xbe491c89	-0.19639792
109	0x3df4cb05	0.119527854
110	0xbe1f55ad	-0.15560026
111	0xbe1d8fea	-0.1538693
112	0x3cf83ba0	0.030301869
113	0x3ce4b3b3	0.027917719
114	0x3d9ec4c0	0.07752371
115	0x3cdfd52a	0.027323324
116	0x3d193c31	0.03741092
117	0xbe63b9c4	-0.22238833
118	0xbde8c428	-0.11365539
119	0xbd3d2d7f	-0.046185967
120	0x3daa263d	0.083080746
121	0xbd9557e7	-0.07292157
122	0x3d7ff78d	0.062491942
123	0x3db9cc5d	0.09072182
124	0x3de34487	0.11097055
125	0x3d2fd27f	0.042925354
126	0xbe3e0baa	-0.18559137
127	0xbda68579	-0.08130927
128	0xbe709d22	-0.23497441
129	0x3d9e5d73	0.07732668
130	0x3db6128d	0.08890257
131	0x3daf34bd	0.08554981
132	0xbd200ae4	-0.039072886
133	0xbe3c5587	-0.18392001
134	0xbd6e782a	-0.058220066
135	0x3df462ee	0.11932932
136	0x3da8fcda	0.082513526
137	0x3d79d712	0.060996123
138	0xbe746881	-0.2386799
139	0x3d8bdb9a	0.06828995
140	0x3d1f6c57	0.03892168
141	0x3e05059d	0.12990423
142	0x3dada007	0.084777884
143	0x3e0e6d19	0.13908805
144	0x3df3a6d3	0.118970536
145	0x3c801bb2	0.015638206
146	0x3b6c93ff	0.0036098955
147	0x3d2c5ded	0.042081762
148	0x3dd918be	0.10600422
149	0x3d7b8197	0.061402883
150	0xbe2bd1e1	-0.16779281
151	0x3d2a5aab	0.041590374
152	0xbda3ce17	-0.07998293
153	0xbdf622b2	-0.12018336
154	0x3db140b8	0.08654922
155	0xbe274d4d	-0.16338082
156	0xbe6526ee	-0.22378132
157	0xbe6098ff	-0.21933363
158	0xbe4658a2	-0.19369748
159	0xbdadac5f	-0.08480143
160	0x3d9840a0	0.07434201
161	0xbaae5fb8	-0.0013303673
162	0xbbce5733	-0.006297016
163	0x3de96d1c	0.11397764
164	0x3e09c914	0.13455611
165	0x3db60cc4	0.088891536
166	0x3c4cdd20	0.012503892
167	0xbdfcf4dd	-0.123513915
168	0x3dd2b39a	0.102881625
169	0x3dda6e11	0.10665525
170	0xbe26cf03	-0.16289906
171	0xbc404ab4	-0.011736561
172	0xbdc0374e	-0.093855485
173	0xbc3b72a7	-0.0114409095
174	0xbe1858c1	-0.14877607
175	0x3ca2c6ce	0.019870188
176	0xbd16d802	-0.036827095
177	0xbdec2644	-0.11530736
178	0x3d839b84	0.064261466
179	0x3e1e316b	0.15448539
180	0xbbc6a7d8	-0.006062489
181	0xbe306c6e	-0.17228863
182	0xbe5314ba	-0.20613375
183	0xbd799953	-0.060937237
184	0x3de6b55c	0.1126506
185	0xbe0547d4	-0.13015682
186	0xbe310fec	-0.1729123
187	0x3d730780	0.059333324
188	0xbd6bcfe0	-0.057571292
189	0x3d01e3d7	0.031711426
190	0xbdeca341	-0.11554576
191	0x3dea2f63	0.114348195
192	0x3e127581	0.14302637
193	0x3dfaf38a	0.12253483
194	0xbe28abda	-0.16471806
195	0xbde3fb11	-0.111318715
196	0xbcb4f574	-0.022089697
197	0x3dc1bcf5	0.09459869
198	0xbdbd6bbe	-0.09249066
199	0xbe3001dc	-0.1718821
200	0xbe39be8f	-0.18139099
201	0xbc3eef02	-0.011653664
202	0x3df58210	0.11987698
203	0x3e13ddd0	0.14440084
204	0xbd47f1e9	-0.048814688
205	0xbdd1d62b	-0.102459274
206	0xbe35ff0f	-0.17773078
207	0xbc9eaeac	-0.0193704
208	0x3d8324f0	0.0640353
209	0x3dac17db	0.084029876
210	0xbe22b4c3	-0.15889268
211	0xbe2b4479	-0.16725339
212	0x3ce7d0bc	0.028297774
213	0x3e035f8a	0.12829414
214	0xbe373c05	-0.1789399
215	0x3e04fb09	0.12986387
216	0xbdda4525	-0.106577195
217	0xbd5181de	-0.05114924
218	0xbdd348d5	-0.10316626
219	0xbd819d1b	-0.063287936
220	0xbdba6438	-0.091011465
221	0x3df45721	0.11930681
222	0xbeb30ae2	-0.3496924
223	0xbe204fdf	-0.15655468
224	0x3d447596	0.0479637
225	0xbd699fc3	-0.057037126
226	0x3e1a0075	0.15039237
227	0xbdaf4345	-0.085577525
228	0x3e1c296a	0.15250173
229	0x3e17f795	0.14840539
230	0x3df187e3	0.117934965
231	0x3d7d9ed7	0.06191906
232	0x3d09891f	0.033578034
233	0xbe7d3ade	-0.24729487
234	0xbd296142	-0.041352518
235	0xbc38ca3b	-0.011278684
236	0x3d966d8f	0.073451154
237	0xbe10b736	-0.1413239
238	0x3dca0383	0.09863951
239	0x3c919a52	0.017773781
240	0xba45abbc	-0.0007540544
241	0x3d852e39	0.06502957
242	0xbd6a3ef0	-0.057188928
243	0xbe0921be	-0.13391778
244	0xbe75f69b	-0.24019854
245	0x3d8d3381	0.06894589
246	0xbd3b96ff	-0.045798298
247	0xbe950fac	-0.2911352
248	0xbda00d7a	-0.078150705
249	0xbd1d3cab	-0.038387936
250	0xbdb90fd6	-0.090362236
251	0xbd204b5e	-0.039134376
252	0x3d1004e2	0.035160907
253	0xbc8cfc5b	-0.017210176
254	0x3bfcb93a	0.0077125104
255	0x3e1a4970	0.15067077

network.9.bias f4 [21]
0	0xbcb6c988	-0.022312894
1	0xbc973e82	-0.018462423
2	0xbc26a6a6	-0.010171568
3	0x3d516563	0.05112208
4	0x3db3be29	0.087765045
5	0x3c29edb9	0.010371619
6	0xbda6094a	-0.081072405
7	0xbdc0b769	-0.09409983
8	0xbd4be5c4	-0.04977967
9	0xbc4bf73d	-0.012449083
10	0x3c6ac89d	0.0143300565
11	0xbcefbe11	-0.029265435
12	0x3b624151	0.0034523795
13	0x3dd3a9d9	0.1033513
14	0x3d4cf234	0.05003567
15	0x3ae45722	0.0017420987
16	0x3b8b5a6e	0.0042527234
17	0xbd634691	-0.05548722
18	0xba96cb76	-0.0011504728
19	0x3d9d8e09	0.07693107
20	0xbced124c	-0.028939389
