models/NeuralNetwork-2_acc-60.48_loss-0.000004.pth (torch, 780096 bytes, 20 tensors)

network.0.weight f4 [512, 43]
0	0x3eea15e9	0.4571984
1	0xbe1d9252	-0.15387848
2	0xbdbe1dd3	-0.09283032
3	0x3e21c8ef	0.15799306
4	0xbecfe2a8	-0.40602612
5	0xbeb973fc	-0.36221302
6	0x3e9f08ab	0.310613
7	0x3f399738	0.72496367
8	0xbe58e618	-0.21181524
9	0x3f5f0402	0.8711549
10	0x3eff8050	0.49902582
11	0xbf720127	-0.9453301
12	0xbfca6f91	-1.5815297
13	0x3f3f460b	0.7471625
14	0x3f9f35b7	1.2438267
15	0x3ea4c9cd	0.32185212
16	0x3f988b13	1.1917442
17	0x3ff3f384	1.905869
18	0xbf895b8d	-1.0731064
19	0xc09a3949	-4.819493
20	0xbf7b8a70	-0.98258114
21	0x3fcd23c5	1.6026541
22	0xc074ddb9	-3.8260329
23	0xbea18e78	-0.31554008
24	0xc00cbfa9	-2.199198
25	0xbf4d67e5	-0.80236655
26	0x406d78a8	3.7104893
27	0xbfd77fd9	-1.6835891
28	0x3e1598db	0.14609091
29	0xbcc7973b	-0.024364104
30	0xbe8e3e0c	-0.27781713
31	0x3eaa23f3	0.33230552
32	0xbf1f6676	-0.6226572
33	0x406927e3	3.6430595
34	0x3dda6c2a	0.10665162
35	0xbc252134	-0.010078717
36	0x402de7ec	2.7172804
37	0x3e5633f2	0.20918253
38	0xbfa0ed0e	-1.2572343
39	0x403d4282	2.9571843
40	0xbe047dcb	-0.12938611
41	0x3fe77a2b	1.8084158
42	0x3dc7730a	0.09738739
43	0xbf5e8872	-0.8692695
44	0xbf47c7d2	-0.78039277
45	0xbe0ff1c7	-0.14057074
46	0xbf4c5cea	-0.79829276
47	0xbfa57cd9	-1.2928725
48	0xbbc866ba	-0.0061157616
49	0xbe1bdf1f	-0.15221833
50	0xbe12520a	-0.14289108
51	0x3d7c4c5e	0.061596267
52	0x3f5183ca	0.8184172
53	0x3ee2921a	0.44252092
54	0xbf2874b2	-0.6580306
55	0x4089e386	4.309024
56	0xbfd2e54b	-1.6476225
57	0xbeba3452	-0.36368042
58	0xc02c55ea	-2.6927438
59	0x407419a0	3.814064
60	0x3de53d09	0.11193282
61	0x3f8f37a0	1.118885
62	0xbf0937d7	-0.5360083
63	0x3fb99623	1.4498943
64	0xbfce1992	-1.6101553
65	0x3f286f8d	0.65795213
66	0x3e6662c6	0.22498617
67	0x3f9ee98f	1.2415026
68	0xbf8ec8ee	-1.1155069
69	0xbdcbcb27	-0.099508576
70	0xbf492467	-0.7857117
71	0x3eaf85b6	0.342817
72	0xbe196dec	-0.14983338
73	0xbfd284b2	-1.6446745
74	0x3fe03a5a	1.7517807
75	0xbfff0a1c	-1.992496
76	0x3e14cad1	0.14530493
77	0xc024aafb	-2.5729358
78	0x4007a8bc	2.1196737
79	0xbf63029f	-0.88675874
80	0x3e289798	0.16464078
81	0xbececd05	-0.40390792
82	0xbfa012ff	-1.2505797
83	0xbd5d9444	-0.054096475
84	0xc035943b	-2.8371723
85	0xc0354a4f	-2.8326604
86	0xbe8199cd	-0.25312653
87	0xbf1ac8dc	-0.6046274
88	0x401fbe19	2.4959776
89	0x3df07836	0.117416784
90	0xc0904045	-4.5078454
91	0xbffa9137	-1.9575566
92	0xbfd5edb6	-1.6713169
93	0x3f4c3549	0.79768807
94	0xbeb17d3f	-0.34665868
95	0x3ec9427e	0.39308542
96	0xbdde53c4	-0.10855821
97	0x3f8bb008	1.0913095
98	0x3fbd7a45	1.4802939
99	0xbfc05ed0	-1.5028934
100	0xbfb654b8	-1.4244604
101	0xc041834b	-3.0236385
102	0xbfe8565c	-1.8151355
103	0x3f3f561b	0.7474076
104	0xbe83fe4b	-0.25779948
105	0x3f536879	0.8258129
106	0x3f357840	0.7088661
107	0xbf05bf13	-0.5224468
108	0xbe83aa00	-0.25715637
109	0xbfb73cd6	-1.4315441
110	0xbfe7ec38	-1.8118963
111	0x3f922b14	1.1419396
112	0x3f984724	1.189671
113	0xbf53d786	-0.8275074
114	0xbf543ed6	-0.8290838
115	0x3eb78a37	0.35847637
116	0xbed948fc	-0.42438495
117	0xbd2a7ba6	-0.041621827
118	0x3ee72b46	0.45150203
119	0x3f761dab	0.9613902
120	0xbf2846c4	-0.6573298
121	0xbe2dff7e	-0.16991994
122	0x3fae0648	1.3595667
123	0xbe455b47	-0.19273101
124	0xbf149646	-0.580418
125	0x3d6a14e3	0.057148825
126	0xbf1f90ba	-0.6233021
127	0xbdfee958	-0.124468505
128	0x3f1f33e0	0.6218853
129	0xbf95bc1c	-1.1698031
130	0x3e11beff	0.14233015
131	0xbd509afc	-0.050929055
132	0xbf8594b0	-1.0436001
133	0xbbd324c6	-0.0064435927
134	0x4073ec6e	3.8113055
135	0xc0320ba9	-2.7819617
136	0xbfbed1f6	-1.4907825
137	0x4004de0c	2.0760527
138	0x3faa6f7e	1.3315275
139	0xc03011a1	-2.751076
140	0xbee9721b	-0.45594868
141	0x3fea9cdf	1.8329123
142	0x3fc8c53d	1.5685192
143	0x3fa40329	1.2813464
144	0xbe34a289	-0.17640127
145	0x3eb7522f	0.3580489
146	0xbfc28f13	-1.5199913
147	0x3fc9a6bc	1.5754008
148	0xbf1117b5	-0.566768
149	0xbee5515a	-0.4478863
150	0x3faf1dc6	1.3680961
151	0xbea95a07	-0.33076498
152	0x3f9abf88	1.2089701
153	0x3ddb27b9	0.10700936
154	0x3f4ac8ec	0.7921283
155	0x3f156930	0.5836363
156	0xbf90e3b3	-1.1319488
157	0xbefce2a6	-0.4939167
158	0x3f369a0e	0.7132882
159	0x3ef9ac89	0.48764446
160	0x3f6fd046	0.93677175
161	0x3f556fa6	0.83373487
162	0x3ef59f75	0.4797322
163	0x3df4810f	0.119386785
164	0xbfd356eb	-1.65109
165	0x3fcfd515	1.6236902
166	0xbfee5c3f	-1.8621901
167	0xbe66fc06	-0.22557077
168	0xbfa82de6	-1.3139007
169	0x3fabaeba	1.3412697
170	0xbd6d0b0c	-0.057871863
171	0x4001e92d	2.029857
172	0xbd629989	-0.055322204
173	0x3d7ce3c4	0.06174065
174	0x3ff5d905	1.9206854
175	0x3f0002ae	0.5000409
176	0xbee7d284	-0.45277798
177	0xbf896a64	-1.0735593
178	0xbd3a1319	-0.04542837
179	0x3f280919	0.6563888
180	0xbfd4da44	-1.6629109
181	0x3d047b3e	0.032344095
182	0x3e269197	0.16266476
183	0xbf854f86	-1.0414894
184	0x3c6f02ba	0.014588052
185	0xbf7f1bb1	-0.9965163
186	0xbe2dce2a	-0.16973177
187	0xc04ab5ad	-3.1673386
188	0xbd2a84db	-0.041630607
189	0x4013ae5d	2.3075173
190	0xbfc68b6a	-1.5511296
191	0x3e5ac945	0.2136584
192	0x3f37a587	0.7173695
193	0x3ef5ccb5	0.48007742
194	0x3e48e5fd	0.19618984
195	0x3f4bbffc	0.7958982
196	0xc0ecd71c	-7.4012585
197	0xbfca004c	-1.5781341
198	0xbe5b26cd	-0.2140152
199	0xbfefbad0	-1.8728886
200	0xbfd8e9bd	-1.6946331
201	0x3f02c6ba	0.5108448
202	0xbf490367	-0.78520817
203	0x3e5cc5d5	0.21559842
204	0x3f8f0dd9	1.1176101
205	0x3e33d609	0.17562117
206	0x3eea4a10	0.4575963
207	0xbd0fc2fe	-0.03509807
208	0x3d818a3f	0.063251965
209	0xbf4dfc3b	-0.80463
210	0x3f29127c	0.6604383
211	0xbf2b9178	-0.6701884
212	0x3e7495aa	0.23885217
213	0x3d2c5d3a	0.042081095
214	0xc046da9f	-3.1070936
215	0xbfa36a34	-1.2766786
216	0x3e9c113c	0.304819
217	0x3e198e26	0.14995632
218	0xbf10ee0f	-0.5661325
219	0x3ec4a325	0.3840572
220	0xc09a13df	-4.8149257
221	0x40018ba5	2.0241482
222	0xbfeadd25	-1.8348738
223	0x3f1766c2	0.5914117
224	0xbfa2825a	-1.269603
225	0x4016a217	2.3536432
226	0x3fc28d76	1.519942
227	0xbdfdc2d1	-0.12390674
228	0xbfe41275	-1.7818133
229	0x4022a476	2.541288
230	0x3f419fdd	0.75634557
231	0xbf93637d	-1.1514736
232	0x3f135440	0.5755043
233	0x3f4974fe	0.7869414
234	0xbf99afac	-1.2006736
235	0x3f9cbc89	1.2245036
236	0x3fb261e6	1.3936126
237	0x3ef2200d	0.47290078
238	0x3f75ab34	0.9596436
239	0x3dc1baa6	0.094594285
240	0x3eb857c3	0.36004457
241	0x3fa7fe3b	1.312446
242	0xbe8c9d3e	-0.27463716
243	0xbee99b67	-0.45626375
244	0x3fe6bf9b	1.8027223
245	0x3f7a20d6	0.97706354
246	0x3eff347b	0.49844727
247	0xbf97d4c0	-1.1861801
248	0x3eca0091	0.39453557
249	0x3ff0e92e	1.8821161
250	0x3f3a61b6	0.72805345
251	0x3f9b77c4	1.2145925
252	0xc007cf9c	-2.1220465
253	0x3fb6ea4c	1.4290252
254	0xbfa7c1d9	-1.3106033
255	0xbf8de029	-1.1084033

network.0.bias f4 [512]
0	0x3de4ed21	0.11178041
1	0x3d7295f6	0.059225045
2	0xbe06c526	-0.13161144
3	0x3dd530c8	0.10409695
4	0xbe17897e	-0.14798543
5	0x3df08d56	0.11745708
6	0xbce5207e	-0.027969595
7	0xbdef9535	-0.11698381
8	0xbda1fe7c	-0.07909867
9	0xbd65a889	-0.05606893
10	0x3c18793b	0.009306247
11	0xbde7e68b	-0.113232695
12	0x3dedd5cf	0.116130464
13	0xbd836180	-0.06415081
14	0xbd1aae7e	-0.037764065
15	0xbe0d3f76	-0.1379374
16	0x3dfd25eb	0.12360748
17	0x3daa9954	0.08330026
18	0x3e1b33ea	0.15156522
19	0xbdb7dc37	-0.089775495
20	0xbbc145db	-0.00589822
21	0xb98e7f3f	-0.00027179156
22	0xbc7cf0a5	-0.0154382335
23	0xbd0b094d	-0.033944417
24	0xbdae3dfb	-0.085079156
25	0x3e17c946	0.14822873
26	0xbcf0928c	-0.029366754
27	0x3df46604	0.119335204
28	0xbd9e9a79	-0.07744307
29	0xbe14113f	-0.14459704
30	0xbdba2973	-0.09089937
31	0xbde8c019	-0.11364765
32	0x3d9f52c7	0.077794604
33	0xbdca197b	-0.09868141
34	0x3dd43e10	0.103634
35	0x3cc9a2e0	0.024613798
36	0xbdc741d5	-0.09729353
37	0xbdbb8cba	-0.09157701
38	0xbe18539f	-0.14875649
39	0xbda4dd88	-0.08050066
40	0x3e03b37b	0.12861435
41	0xbdb2e0a0	-0.0873425
42	0xbb4fd657	-0.003171345
43	0xbe08e979	-0.13370313
44	0xbdca9de0	-0.098933935
45	0xbe03aa5b	-0.12857954
46	0xbda06f7a	-0.078337625
47	0xbe1134b8	-0.14180267
48	0xbd0607d2	-0.0327223
49	0xbe191bf9	-0.14952077
50	0x3c9ac401	0.01889229
51	0xbdff208c	-0.1245738
52	0x3dfc9c93	0.12334552
53	0xbe171cb8	-0.14757049
54	0x3dc4626d	0.09589086
55	0x3ceb7917	0.028744264
56	0x3d96dea2	0.073666826
57	0xbdb5ad89	-0.0887099
58	0xbd377e9b	-0.044798475
59	0xbe04f430	-0.12983775
60	0xbdde2f60	-0.1084888
61	0xbd0135bf	-0.031545397
62	0xbe112318	-0.14173543
63	0xbe0dac99	-0.13835372
64	0x3d1949ce	0.0374239
65	0xbd8ca888	-0.06868082
66	0xbdf4bbe8	-0.11949903
67	0xbdc7c50a	-0.09754379
68	0x3e103e97	0.14086376
69	0x3ddd8232	0.108158484
70	0x3e0abab7	0.13547789
71	0xbe0f039a	-0.13966218
72	0xbd4ad2b7	-0.04951736
73	0x3db170c5	0.08664087
74	0x3cf34364	0.02969522
75	0xbe0d21b9	-0.13782395
76	0x3e168460	0.14698935
77	0x3d07f9f2	0.03319735
78	0x3ce464cf	0.0278801
79	0x3c84dc38	0.01621829
80	0x3e112f37	0.14178167
81	0xbacfb42b	-0.0015846541
82	0x3d4a2957	0.04935583
83	0xbd71a4cb	-0.05899505
84	0x3c71abfb	0.014750476
85	0x3e084807	0.13308726
86	0x3d3916dd	0.04518782
87	0xbe0a8042	-0.13525489
88	0xbdae8f4d	-0.08523426
89	0x3d4a7308	0.04942611
90	0x3cba72ea	0.022759873
91	0xbdf96035	-0.12176553
92	0x3e0d5626	0.13802394
93	0xbe0e5853	-0.1390088
94	0x3c8cf345	0.017205844
95	0x3decd807	0.115646414
96	0xbde6d91a	-0.112718776
97	0xbcfbad63	-0.030722326
98	0xbde648c0	-0.11244345
99	0xbd2d3303	-0.042284977
100	0x3e0bbec2	0.13646987
101	0xbdf83bb5	-0.12120763
102	0x3cda14f7	0.026621325
103	0x3e14aa47	0.1451808
104	0x3d0a6d59	0.03379569
105	0x3d1e803d	0.038696516
106	0x3cafb1e6	0.021447133
107	0x3b7da5af	0.0038703491
108	0xbce8e25c	-0.028428249
109	0xbdccb810	-0.09996045
110	0x3ca16811	0.019702943
111	0xbd5be445	-0.05368449
112	0x3c3cf3e9	0.011532762
113	0x3e117c81	0.1420765
114	0xbd144404	-0.036197677
115	0xbdf07c22	-0.117424265
116	0x3d918e93	0.07107272
117	0xbceba287	-0.028764023
118	0xbc56ecc0	-0.013117969
119	0xbdb39fbe	-0.08770703
120	0xbdfcf38a	-0.12351139
121	0x3dbb803d	0.09155319
122	0x3ccbda72	0.024884436
123	0x3d1e743f	0.03868508
124	0xbd6499af	-0.055810627
125	0x3d3b4dbf	0.04572844
126	0x3bf314d3	0.007418254
127	0x3d133863	0.035942446
128	0x3ce21288	0.027596727
129	0x3d865414	0.065590054
130	0xbdd295c3	-0.10282471
131	0xbde65226	-0.11246137
132	0xbe101318	-0.14069784
133	0x3dccee47	0.10006385
134	0xbdd5a265	-0.10431365
135	0x3d6200c4	0.05517651
136	0x3dd280cc	0.10278472
137	0x3d5d6d32	0.054059215
138	0xbbb947c4	-0.005654307
139	0xbddd9dee	-0.10821138
140	0x3d0f4924	0.03498186
141	0x3e0b4c7f	0.136034
142	0xbda992a3	-0.08279922
143	0xbde733d4	-0.11289182
144	0x3e15aa6d	0.14615794
145	0xbe164e71	-0.1467836
146	0x3dfeb1ea	0.12436278
147	0x3e06b03c	0.13153166
148	0xbe0832e6	-0.13300666
149	0xbbf53add	-0.0074838237
150	0x3d076a13	0.033060145
151	0xbe122cf5	-0.14274962
152	0xbd01ab98	-0.031657785
153	0x3ce54a15	0.027989427
154	0x3cb91a85	0.022595653
155	0x3dee9e2e	0.11651264
156	0x3dac7661	0.084210165
157	0x3e023d5c	0.12718719
158	0xbdf2ac64	-0.11849287
159	0xbd8c839e	-0.068610415
160	0xbd9eeb35	-0.07759706
161	0x3d8be4e1	0.068307646
162	0x3d4919c3	0.049096834
163	0xbd7db3a0	-0.061938882
164	0x3df7b6c8	0.1209541
165	0xbd58759d	-0.05284654
166	0xbcf98f2b	-0.030463776
167	0x3dc9bca9	0.09850437
168	0x3e1131aa	0.14179102
169	0xbdbe70ab	-0.092988335
170	0xbe0c185b	-0.13681166
171	0x3de4dc4d	0.111748315
172	0x3dc0fe99	0.09423561
173	0xbd1d24df	-0.03836524
174	0x3e11dbf2	0.14244059
175	0xbe0923eb	-0.13392608
176	0xbdcc3d80	-0.09972668
177	0xbdc922d6	-0.098210976
178	0x3ca45ea7	0.020064665
179	0xbde662dc	-0.11249325
180	0x3dd0701e	0.10177635
181	0xbd32529a	-0.043535806
182	0xbd69cb7b	-0.05707882
183	0xbd6d0585	-0.057866592
184	0x3dc11850	0.09428465
185	0xbc37a823	-0.0112095205
186	0xbdf8926a	-0.12137301
187	0xbd9a2275	-0.075261034
188	0x3cf95916	0.030437987
189	0xbe0596d5	-0.13045819
190	0x3d61ae29	0.055097733
191	0xbdcf21ef	-0.10113894
192	0xbd66caec	-0.056345865
193	0xbdb5f15f	-0.088839285
194	0xbcb7ba7b	-0.022427788
195	0x3d064aa1	0.032786015
196	0x3bd02884	0.006352486
197	0x3e09b036	0.13446125
198	0x3db9a429	0.09064514
199	0x3e14ab82	0.1451855
200	0x3dfedab0	0.12444055
201	0xbe186978	-0.14883983
202	0x3e12a800	0.143219
203	0xbcb9929e	-0.02265292
204	0x3d2fcd94	0.042920664
205	0x3c224c73	0.009905922
206	0xbd49f3d4	-0.0493048
207	0x3cba07dd	0.022708828
208	0x3de894a5	0.11356477
209	0xbdca898e	-0.09889518
210	0x3d98369d	0.07432292
211	0xbc1e96da	-0.0096795205
212	0xbe0ddf55	-0.13854726
213	0xbc6769dc	-0.01412436
214	0x3db3d7b5	0.08781377
215	0x3e01e1a4	0.12683731
216	0x3d93f9cd	0.0722538
217	0x3e0bf84e	0.1366894
218	0xbba0abd2	-0.004903295
219	0xbd8d3b03	-0.06896021
220	0xbd06db3c	-0.032923922
221	0x3df2b393	0.11850657
222	0xbdfece9d	-0.12441752
223	0xbdc4fc2e	-0.09618412
224	0xbe07482c	-0.13211125
225	0x3de52a82	0.11189748
226	0x3dc4df04	0.09612849
227	0xbdef86f1	-0.1169566
228	0xbd6db297	-0.058031645
229	0x3d5afacc	0.053461835
230	0x3c3be7a6	0.0114688035
231	0x3e1462b6	0.1449078
232	0x3e110e95	0.14165719
233	0x3d586e09	0.052839313
234	0x3ddcccce	0.10781251
235	0xbdff8b28	-0.12477714
236	0x3d150e9e	0.036390893
237	0x3df2f158	0.11862439
238	0x3e1bb78e	0.1520674
239	0xbda36b90	-0.079795
240	0x3cf61675	0.030040005
241	0x3ca8c006	0.020599376
242	0x3c88b66a	0.016688544
243	0x3e108eec	0.1411702
244	0x3e1b1768	0.15145648
245	0xbd56f74b	-0.05248193
246	0xbde50158	-0.11181897
247	0xbda1118d	-0.07864676
248	0x3d35197b	0.044213753
249	0x3d7577c6	0.059928678
250	0x3ca32ad8	0.01991789
251	0xbd848106	-0.06469922
252	0x3e0fcbf2	0.14042643
253	0x3b04fb93	0.0020291551
254	0x3ddc6b52	0.10762657
255	0x3dccf8ed	0.10008416

network.1.weight f4 [512]
0	0x413c2c2e	11.760786
1	0x41584969	13.517922
2	0x413a43dc	11.641567
3	0x413f8f10	11.972427
4	0x414e85d6	12.907675
5	0x4138b949	11.545236
6	0x41417080	12.089966
7	0x4145dc84	12.366337
8	0x4131891a	11.095972
9	0x414b3508	12.700447
10	0x41362a0f	11.385268
11	0x4135e3b2	11.36809
12	0x414a3aab	12.639323
13	0x4137bc4d	11.483472
14	0x413b563e	11.708555
15	0x4148ccd7	12.55001
16	0x412826e1	10.509492
17	0x414c3105	12.761968
18	0x412367ec	10.212872
19	0x414e11af	12.879317
20	0x41385be5	11.522435
21	0x4128b0b3	10.543139
22	0x413f8905	11.970952
23	0x414c4a01	12.768067
24	0x4143458e	12.204481
25	0x413b95f6	11.724112
26	0x41344163	11.265964
27	0x413e9784	11.911991
28	0x414b4fa1	12.706941
29	0x41349e2b	11.288615
30	0x413762e8	11.461647
31	0x414be8a2	12.744295
32	0x413d7e7d	11.843381
33	0x4143c03d	12.234433
34	0x414a908e	12.660292
35	0x4143c35c	12.235195
36	0x41475475	12.458119
37	0x413792cf	11.473342
38	0x414f7444	12.965885
39	0x413a999e	11.662504
40	0x41582435	13.50884
41	0x413b8759	11.720544
42	0x4122741c	10.153347
43	0x413ddc7c	11.866329
44	0x4150093c	13.0022545
45	0x4145934d	12.348462
46	0x414f9961	12.974946
47	0x4131f866	11.123144
48	0x41406ffe	12.027342
49	0x41549d2f	13.288375
50	0x4140d746	12.052557
51	0x41433320	12.199982
52	0x41447e2d	12.280805
53	0x414275cc	12.153759
54	0x414d951f	12.8489065
55	0x41516c56	13.088949
56	0x413651c6	11.394964
57	0x412c557b	10.770869
58	0x41326b59	11.151208
59	0x4140cd31	12.050096
60	0x4157d289	13.4889
61	0x4141cfb9	12.113214
62	0x415a083e	13.627012
63	0x414cd6c5	12.802434
64	0x41361083	11.379031
65	0x41501fc0	13.007751
66	0x413687fc	11.408199
67	0x4159d896	13.615377
68	0x413810a8	11.504066
69	0x41449ea1	12.288728
70	0x413ad944	11.678043
71	0x412c7104	10.777592
72	0x413be6e1	11.743867
73	0x413a5151	11.644853
74	0x4138f570	11.559921
75	0x4145b797	12.357322
76	0x4140279f	12.009673
77	0x414bf664	12.747654
78	0x413b6636	11.712454
79	0x41480c48	12.502998
80	0x412ca175	10.789418
81	0x414ada92	12.678362
82	0x4141901a	12.097681
83	0x414c14a6	12.755041
84	0x4140a643	12.040591
85	0x41481abd	12.506528
86	0x413afd07	11.686774
87	0x414c8f66	12.785009
88	0x414f2b1c	12.948025
89	0x4157e4c7	13.493354
90	0x41435c75	12.2100725
91	0x41394c7f	11.581176
92	0x414145b9	12.079522
93	0x412dcb62	10.862154
94	0x414eb891	12.92006
95	0x413ab894	11.670063
96	0x41458103	12.343997
97	0x414084a5	12.032384
98	0x414fa69a	12.978174
99	0x412f1b4a	10.944162
100	0x41435b7d	12.209836
101	0x4148f826	12.560583
102	0x415033bc	13.01263
103	0x41321671	11.130479
104	0x4149eb03	12.619876
105	0x414811af	12.504317
106	0x41476f43	12.4646635
107	0x414bfe0d	12.749524
108	0x4150ece8	13.057838
109	0x412a81c7	10.656684
110	0x4146918d	12.410535
111	0x4142fd44	12.186832
112	0x413f2ffe	11.949217
113	0x41285a8b	10.522105
114	0x414a1023	12.62894
115	0x412d8fca	10.847605
116	0x4148aabe	12.541685
117	0x413275fc	11.153805
118	0x414d7f21	12.843537
119	0x414571e0	12.3403015
120	0x4142dc3d	12.178769
121	0x41338ff5	11.222646
122	0x412d70c8	10.8400345
123	0x412c3224	10.762241
124	0x4146a7d5	12.415975
125	0x413b0a06	11.689947
126	0x41375deb	11.460429
127	0x4145f86d	12.373151
128	0x4134a796	11.290915
129	0x41504100	13.015869
130	0x41632ffe	14.199217
131	0x41420273	12.125598
132	0x413d3d46	11.827459
133	0x412bb002	10.730471
134	0x4141101f	12.066436
135	0x4151a7e7	13.103492
136	0x41514f82	13.081911
137	0x4143b7e6	12.232397
138	0x41476b8a	12.463755
139	0x414e48a4	12.892735
140	0x415840f3	13.515857
141	0x412b90eb	10.72288
142	0x4141fd47	12.124335
143	0x4135a96a	11.353861
144	0x415b70a6	13.715002
145	0x414fa882	12.97864
146	0x413a7079	11.652459
147	0x41240af9	10.252679
148	0x4130d949	11.053048
149	0x41334e13	11.206561
150	0x4140d269	12.05137
151	0x415e3f3a	13.890436
152	0x4144fcc6	12.311712
153	0x415b019d	13.687894
154	0x4145ab5a	12.354334
155	0x412eb03b	10.918025
156	0x413fc9df	11.986785
157	0x4142ec7e	12.182737
158	0x415101b8	13.06292
159	0x4153ffdd	13.249967
160	0x413ee429	11.930703
161	0x414735db	12.450648
162	0x413632d5	11.38741
163	0x413ade56	11.679281
164	0x41504525	13.016881
165	0x4148adb3	12.542407
166	0x41260e4f	10.378493
167	0x413bc40e	11.735365
168	0x41435987	12.209357
169	0x414fabe1	12.979463
170	0x41324270	11.14122
171	0x4149b2d5	12.60616
172	0x415631dd	13.387174
173	0x412fb87b	10.982539
174	0x41287e55	10.530843
175	0x4133c1d2	11.234819
176	0x4137ae1c	11.480007
177	0x413f22fd	11.946042
178	0x41468b4e	12.40901
179	0x41521dd8	13.132286
180	0x413aef47	11.683417
181	0x4139a34f	11.60237
182	0x414eb571	12.919297
183	0x4131d0d4	11.113483
184	0x413f302b	11.94926
185	0x414658f2	12.396715
186	0x415000f1	13.00023
187	0x413f1674	11.942982
188	0x414b38ea	12.701395
189	0x4140cdf5	12.0502825
190	0x414c1e84	12.75745
191	0x414d3c12	12.827166
192	0x414cd2ba	12.801447
193	0x413d0299	11.813134
194	0x4136ffed	11.437482
195	0x41381804	11.505863
196	0x41349611	11.286637
197	0x41321c11	11.131852
198	0x41382b4e	11.510572
199	0x412e89ef	10.908675
200	0x413923f6	11.57128
201	0x4145edfd	12.370603
202	0x414bde40	12.74176
203	0x4144e4c7	12.305854
204	0x414410e2	12.254122
205	0x415b6a82	13.713503
206	0x41502007	13.007819
207	0x414ee6c4	12.931339
208	0x4146922f	12.410689
209	0x4141c949	12.111642
210	0x4135ddaa	11.366617
211	0x4141c8a2	12.111483
212	0x414e19cd	12.881299
213	0x4150103b	13.0039625
214	0x41605807	14.021491
215	0x41498b71	12.596543
216	0x4147b84d	12.482495
217	0x41353224	11.324741
218	0x41605a01	14.021974
219	0x4138a81e	11.541044
220	0x4128f7cb	10.560496
221	0x413719c6	11.443792
222	0x414d404d	12.828198
223	0x41620237	14.125541
224	0x41599d71	13.600938
225	0x41372f27	11.449012
226	0x415080d4	13.031452
227	0x413299e0	11.162567
228	0x41599c58	13.60067
229	0x414da169	12.851907
230	0x414f902b	12.972697
231	0x41432aee	12.197981
232	0x4157c7b7	13.4862585
233	0x4139965c	11.599209
234	0x41377e3f	11.468322
235	0x41447606	12.278814
236	0x4141aa1b	12.10403
237	0x4156c6fd	13.423581
238	0x4142f971	12.185899
239	0x412c5b81	10.77234
240	0x41411e68	12.069923
241	0x412e0e08	10.878426
242	0x4148a35c	12.539883
243	0x413ebf09	11.921639
244	0x414aa6f7	12.665763
245	0x413a44e0	11.641815
246	0x41574925	13.455358
247	0x413596ca	11.349314
248	0x4143775f	12.216643
249	0x415aca38	13.67437
250	0x415f89a8	13.9711075
251	0x412a368e	10.638319
252	0x4147abdf	12.479461
253	0x4135046e	11.313581
254	0x4158ac4b	13.542064
255	0x413f5b6d	11.959821

network.1.bias f4 [512]
0	0xc0bb4775	-5.852473
1	0xc103aeb1	-8.230149
2	0xbfdd2a68	-1.7278566
3	0xc110942c	-9.036175
4	0xc0d324aa	-6.5982256
5	0xc1133c97	-9.202292
6	0xc0d456e8	-6.6356087
7	0xc0f819e2	-7.7531595
8	0xc11c6f11	-9.777116
9	0xc0b41e88	-5.628727
10	0xc0cd4cc0	-6.415619
11	0xc102d64a	-8.177317
12	0xc0a88f1e	-5.2674704
13	0xc1050465	-8.313573
14	0xc0d031de	-6.5060873
15	0xc02233ce	-2.534412
16	0xc0bd9722	-5.924699
17	0xc1117d06	-9.093023
18	0xc1053fb4	-8.3280525
19	0xc10544a6	-8.32926
20	0xc093e2ce	-4.621436
21	0xc108cf51	-8.550614
22	0xc11069b9	-9.025811
23	0xc0e6c484	-7.2114887
24	0xbfdba71f	-1.7160376
25	0xc0ace01e	-5.402358
26	0xc0d2f2f8	-6.5921593
27	0xc10e0886	-8.877081
28	0xc0d4413f	-6.6329646
29	0xbfe4a6c1	-1.7863389
30	0xc0f451fb	-7.6350074
31	0xc10e6622	-8.899935
32	0xc0ebdab2	-7.370446
33	0xc1011c98	-8.069481
34	0xc0937bf6	-4.608882
35	0xc0fd7485	-7.9204736
36	0xc1069d8e	-8.4134655
37	0xc0d60bee	-6.6889563
38	0xc0bfdbec	-5.995596
39	0xc0a280e0	-5.078232
40	0xc0c5909b	-6.173902
41	0xc0c2faea	-6.093129
42	0xc0ac73f3	-5.389154
43	0xc0c975b5	-6.2956185
44	0xc0c0b9da	-6.022687
45	0xc093ecc2	-4.622651
46	0xc0cb8777	-6.360286
47	0xc10ee8d2	-8.931841
48	0xc0cb658a	-6.356145
49	0xc0d7d945	-6.745272
50	0xc081649c	-4.0435314
51	0xc093b0e3	-4.6153426
52	0xc0aeabc5	-5.458468
53	0xc0c0bb38	-6.022854
54	0xc0e38018	-7.1093864
55	0xc0f65bd3	-7.698709
56	0xc0f1166a	-7.533986
57	0xc105e087	-8.367316
58	0xc0fe5c04	-7.9487324
59	0xc0c8bcfb	-6.273069
60	0xc0f9a2b1	-7.80111
61	0xc0e8f756	-7.2801924
62	0xc09de1e4	-4.9338245
63	0xc0c468a8	-6.1377754
64	0xc0e9b2f1	-7.3030934
65	0xc0e36e5e	-7.1072226
66	0xc08070cc	-4.013769
67	0xc0f7d01e	-7.744155
68	0xc0df1a76	-6.97198
69	0xc0b56ca9	-5.669514
70	0xc0d63c8d	-6.6948915
71	0xc0e3dad1	-7.120461
72	0xc0ea5209	-7.322514
73	0xc0d97a60	-6.7961884
74	0xc0d54c4a	-6.6655626
75	0xc0dfaa3a	-6.9895296
76	0xc0c014a3	-6.002519
77	0xc0c4b2d5	-6.14683
78	0xc102ba7f	-8.170531
79	0xc0fc4520	-7.883438
80	0xc0c62c0b	-6.1928763
81	0xc0f1dd44	-7.55826
82	0xc0c6afac	-6.2089443
83	0xc1166632	-9.39995
84	0xc0f6a313	-7.7074065
85	0xc081d115	-4.0567727
86	0xc0eb8380	-7.3598022
87	0xc110d91e	-9.053007
88	0xc0e3fcb5	-7.124598
89	0xc114d170	-9.301132
90	0xc0e7ed4f	-7.2477183
91	0xc0b7cbfb	-5.74365
92	0xc08ddddc	-4.4333324
93	0xc10fb0bb	-8.980647
94	0xc0f36d13	-7.6070647
95	0xc0eac2c2	-7.336274
96	0xc0cfe8a4	-6.4971485
97	0xc0b6b566	-5.7096434
98	0xc104488a	-8.26771
99	0xc0b59d3b	-5.675443
100	0xc0e49a9d	-7.1438737
101	0xc0ff9076	-7.9863844
102	0xc09f6916	-4.981578
103	0xc0aa4bc2	-5.321748
104	0xc0ae3f8f	-5.4452586
105	0xc0b225e4	-5.5671253
106	0xc0916651	-4.54374
107	0xc0ce50ac	-6.4473476
108	0xc100bb7a	-8.045771
109	0xc11637c6	-9.388617
110	0xc0dda86c	-6.9268093
111	0xc0c56302	-6.168336
112	0xc0ea421c	-7.32057
113	0xc0cd3b31	-6.4134755
114	0xc0e5aed7	-7.1775928
115	0xc1175341	-9.457826
116	0xc0f19859	-7.549847
117	0xc0d5c542	-6.6803293
118	0xc0d13d69	-6.5387464
119	0xc0a42c4b	-5.130407
120	0xc0c2a03b	-6.0820594
121	0xc0d7a162	-6.73845
122	0xc0764403	-3.847901
123	0xc0d7054c	-6.7193966
124	0xc0f1ebd5	-7.560038
125	0xc104faef	-8.311263
126	0xc0cb57e6	-6.35448
127	0xc102b9db	-8.170375
128	0xc1064bbf	-8.393493
129	0xc0da0c64	-6.8140125
130	0xc0db4098	-6.851635
131	0xc0f1a650	-7.551552
132	0xc0ca0d25	-6.3141046
133	0xc0b96e9a	-5.794751
134	0xc0f6d05e	-7.7129354
135	0xc1010a23	-8.064975
136	0xc0f45a5a	-7.6360292
137	0xc1118a0b	-9.096202
138	0xc0e17df1	-7.0466237
139	0xc0e6b88c	-7.2100277
140	0xc1041563	-8.255221
141	0xc0e7fd39	-7.249661
142	0xc103aea6	-8.230139
143	0xc10a9cef	-8.663314
144	0xc0d67999	-6.7023435
145	0xc0be5199	-5.9474607
146	0xc0cbc9e7	-6.3683963
147	0xc0bbe9cc	-5.8722897
148	0xc0d1e784	-6.559511
149	0xc0d777f9	-6.733395
150	0xc0fb3e31	-7.8513417
151	0xc1107cb0	-9.030441
152	0xc0e4ffdd	-7.1562333
153	0xc0ac5c18	-5.386242
154	0xc1012e63	-8.073825
155	0xc0727199	-3.7881835
156	0xc0ce91f4	-6.4553165
157	0xc0f59b8d	-7.675238
158	0xc00305d3	-2.0472305
159	0xc0e2eafa	-7.0911837
160	0xc0ffd97b	-7.995298
161	0xc0a41c62	-5.1284647
162	0xc1134bbc	-9.20599
163	0xc103392c	-8.201458
164	0xc09cfdb2	-4.9059687
165	0xc0ff8ed2	-7.986184
166	0xc102804c	-8.1563225
167	0xc01f2a57	-2.4869592
168	0xc0eb0876	-7.344783
169	0xc10529f2	-8.322741
170	0xc10d28d1	-8.822465
171	0xc108f332	-8.559374
172	0xc1111e0a	-9.069834
173	0xc0ddc5a2	-6.930375
174	0xc081d6fa	-4.0574923
175	0xc094a268	-4.644825
176	0xc0de2f22	-6.9432535
177	0xc0b3bebf	-5.6170344
178	0xc0c8840c	-6.266119
179	0xc09e7245	-4.951449
180	0xc03fd8cd	-2.9976075
181	0xc0a19132	-5.048974
182	0xc1019aee	-8.100325
183	0xc058167a	-3.3763719
184	0xc0c09b36	-6.0189466
185	0xc107cefa	-8.488031
186	0xc0968431	-4.7036366
187	0xc0d085ff	-6.516357
188	0xc0cb773d	-6.3583055
189	0xc0d719b8	-6.7218895
190	0xc0f000cd	-7.5000978
191	0xc10641c2	-8.391054
192	0xc0afe1c5	-5.4963098
193	0xc10be24f	-8.742751
194	0xc0b21892	-5.5654993
195	0xc0cce4e8	-6.4029427
196	0xc10138ca	-8.0763645
197	0xc10c7d05	-8.780522
198	0xc09b6d4a	-4.857091
199	0xc0fd2494	-7.910715
200	0xc0f7a1eb	-7.7385154
201	0xc0e3ad75	-7.114924
202	0xc0baf8d7	-5.842876
203	0xc0de71a4	-6.951372
204	0xc0b4c640	-5.6492004
205	0xc101d2ae	-8.113935
206	0xc0a34a63	-5.1028304
207	0xc0e8a0c3	-7.269624
208	0xc0f6f10d	-7.716925
209	0xc0d1f935	-6.561671
210	0xc0f9e29f	-7.8089137
211	0xc0d98e84	-6.798647
212	0xc0c1cbec	-6.056143
213	0xc102bfd7	-8.171836
214	0xc102e5e1	-8.181123
215	0xc1010a27	-8.064979
216	0xc0fa39f0	-7.8195724
217	0xc0cc2efe	-6.3807364
218	0xc0a0c6e9	-5.024281
219	0xc0fbd8bb	-7.8702064
220	0xc10cf750	-8.810379
221	0xc0f111a7	-7.533405
222	0xc0ee4e2f	-7.447044
223	0xc0b0f699	-5.5301023
224	0xc0e2ab54	-7.083414
225	0xc01c5f8d	-2.443332
226	0xc08a04cd	-4.313086
227	0xc0ea2769	-7.317311
228	0xc0f3b691	-7.616036
229	0xc0c217a0	-6.065384
230	0xc0cc4e73	-6.3845763
231	0xc1018aaa	-8.096354
232	0xc0b4d852	-5.6514063
233	0xc0158785	-2.3363965
234	0xc09c7e67	-4.89043
235	0xc0e0083f	-7.0010066
236	0xc0cd8236	-6.422145
237	0xc0c19e69	-6.050587
238	0xc0b68ea1	-5.7049108
239	0xc0c26055	-6.0742593
240	0xc0fca58e	-7.8952093
241	0xc0dbfd22	-6.87465
242	0xc0889220	-4.2678375
243	0xc039f60b	-2.9056423
244	0xc105ad0b	-8.354747
245	0xc0dfc927	-6.9933047
246	0xc0ba3fce	-5.8202887
247	0xc08ce5e7	-4.4030643
248	0xc0ec00cf	-7.3750987
249	0xc0c7d41a	-6.2446413
250	0xc0c70f5e	-6.220626
251	0xc102566a	-8.146097
252	0xc101b47c	-8.106564
253	0xc111fec2	-9.124697
254	0xc0e4184d	-7.1279664
255	0xc0ff96bc	-7.98715

network.1.running_mean f4 [512]
0	0x3dfaa47c	0.12238404
1	0x3e86bd04	0.26316082
2	0x3dc62168	0.096743405
3	0xbe92cf41	-0.28673747
4	0x3e22bee9	0.15893139
5	0xbed3eb86	-0.41390628
6	0xbf083c0b	-0.5321662
7	0xbd3c23b8	-0.0459325
8	0x3f0c3722	0.54771626
9	0xbeff97e9	-0.49920586
10	0x3f3b6718	0.73204184
11	0xbe5f1fbd	-0.21789451
12	0x3f284f9f	0.6574649
13	0x3ec7e752	0.3904367
14	0x3ee56734	0.448053
15	0xbf0c7017	-0.54858536
16	0x3ce5ec50	0.028066784
17	0xbec849dc	-0.3911885
18	0x3fae9d96	1.3641841
19	0xbf4fd6bd	-0.8118704
20	0x3e7a9ced	0.24473925
21	0x3f37578f	0.7161798
22	0xbf235d94	-0.63814664
23	0x3fadca68	1.3577394
24	0xbf9761b2	-1.1826689
25	0x3fc4ffbe	1.5390546
26	0x3e2647bf	0.16238306
27	0xbe06505a	-0.13116589
28	0x3f701e1c	0.93795943
29	0xbf07889a	-0.5294281
30	0xbef06bf7	-0.4695737
31	0xbf788f43	-0.970936
32	0x3f0c13c4	0.5471766
33	0xbea9d5c4	-0.33170903
34	0xbeb682b5	-0.35646597
35	0x3e82655c	0.25467956
36	0xbea55354	-0.32290137
37	0x3f8ce7aa	1.1008198
38	0xbea48448	-0.32132173
39	0xbe913d1e	-0.2836694
40	0xbe2aec26	-0.16691646
41	0xbf56c512	-0.83894455
42	0x3eddfaf2	0.4335552
43	0xbf20ce79	-0.6281505
44	0xbdd8bbe8	-0.10582715
45	0xbf5e3115	-0.86793643
46	0xbfb64174	-1.4238725
47	0xbf8c221a	-1.0947907
48	0xbf8722d7	-1.0557507
49	0x3e9f534a	0.31118232
50	0x3e47e679	0.19521512
51	0xbd7fd31a	-0.06245718
52	0x3f767b7c	0.9628217
53	0x3c683bb0	0.014174387
54	0x3f3fe203	0.7495424
55	0xbf831b23	-1.0242656
56	0xbf4ccc1c	-0.79998946
57	0x3f004af6	0.5011438
58	0x3e0ed9ce	0.13950273
59	0xbfa82176	-1.3135211
60	0x3e8d6812	0.27618462
61	0xbe1ed380	-0.15510368
62	0xbf2a049c	-0.66413283
63	0x3f7b5099	0.9816986
64	0xbe3ed740	-0.18636799
65	0x3ee01083	0.43762597
66	0xbcecbc80	-0.028898478
67	0xbf81819c	-1.0117679
68	0x3f2678b0	0.65027905
69	0x3d5d55d4	0.05403693
70	0xbf1aa68f	-0.604104
71	0xba90f800	-0.0011060238
72	0xbf20db8c	-0.62835
73	0x3e09911d	0.13434263
74	0xbe45358d	-0.19258709
75	0xbea065b9	-0.31327608
76	0x3c8cf088	0.017204538
77	0xbf821557	-1.0162762
78	0xbdb852d0	-0.0900017
79	0xbe862797	-0.2620208
80	0x3f4ed348	0.8079114
81	0xbfad569e	-1.3542058
82	0x3ee189f4	0.44050562
83	0x3d857284	0.06515983
84	0x3f4d0b62	0.80095494
85	0xbf374476	-0.7158884
86	0xbed90e7a	-0.42393857
87	0xbf10d6b4	-0.5657761
88	0xbf5a766b	-0.8533694
89	0xbef85972	-0.4850574
90	0xbf94384a	-1.1579678
91	0x3e0e4bf6	0.13896164
92	0x3ef451e6	0.47718734
93	0xbdfa58b5	-0.12223951
94	0xbeb2d27a	-0.34926206
95	0x3f21052e	0.6289853
96	0xbf4e3c78	-0.8056102
97	0xbed124b5	-0.40848318
98	0xbe399a09	-0.18125166
99	0xbe084ee4	-0.13311344
100	0xbeb601dc	-0.35548294
101	0xbe845478	-0.25845695
102	0xbeb16106	-0.34644336
103	0xba2d8480	-0.00066191703
104	0xbf40101c	-0.7502458
105	0x3eff414e	0.4985451
106	0xbe5904b5	-0.21193202
107	0x3cd3ee50	0.025870472
108	0xbe8ecbb4	-0.27889788
109	0xbf024697	-0.5088896
110	0x3dc1125f	0.09427332
111	0xbf2697bb	-0.6507527
112	0x3f31f046	0.69507253
113	0x3ba17600	0.004927397
114	0x3e3bded2	0.18346718
115	0xbf3c91d5	-0.7366002
116	0xbf48605c	-0.7827203
117	0x3aff1380	0.0019460768
118	0x3f97557d	1.1822964
119	0x3d99fd92	0.07519068
120	0x3f96568c	1.1745162
121	0x3f87f3c4	1.0621266
122	0xbef4851d	-0.47757807
123	0x3e1546bc	0.14577764
124	0xbeaa761a	-0.3329323
125	0xbf5787f7	-0.8419184
126	0x3f481fb4	0.78173375
127	0xbe4db8e2	-0.20090058
128	0xbed4fdd3	-0.41599903
129	0xbf3c22ac	-0.73490405
130	0xbf504e3b	-0.8136937
131	0x3efd90bb	0.49524483
132	0xbf980dc4	-1.1879201
133	0x3f52b839	0.8231235
134	0xbea5943e	-0.32339662
135	0xbebbe094	-0.36694777
136	0xbdf10b8a	-0.11769779
137	0xbe2a9781	-0.16659357
138	0x3f195b1c	0.59904647
139	0xbe570876	-0.20999321
140	0x3e3141df	0.17310284
141	0xbeacd754	-0.33758032
142	0x3e988757	0.29790756
143	0xbf3444f5	-0.7041772
144	0x3f23fefd	0.64060956
145	0x3f8042a0	1.0020332
146	0xbf0e3dac	-0.55562854
147	0x3f79386c	0.9735172
148	0xbf0eabbd	-0.557308
149	0xbb914460	-0.0044331998
150	0x3d4dcdc8	0.050245076
151	0x3eab52d2	0.33461624
152	0xbe4c19c2	-0.19931701
153	0xbf43d13c	-0.7649114
154	0x3f590750	0.84776783
155	0xbe835f52	-0.2565866
156	0x3e09acfe	0.13444898
157	0x3ee53256	0.44764966
158	0xbed043bd	-0.4067668
159	0xbead904c	-0.33899152
160	0xbecf2eb8	-0.4046533
161	0xbf34d548	-0.7063794
162	0xbf39863d	-0.72470456
163	0x3f4c19ca	0.7972685
164	0xbe369841	-0.17831518
165	0x3d3f7ea2	0.046751626
166	0xbe81795f	-0.2528791
167	0x3e9e293a	0.30890828
168	0xbe93204d	-0.2873558
169	0xbe78d6ec	-0.24300736
170	0xbf23bbf0	-0.63958645
171	0xbecc55fc	-0.3990935
172	0xbf988f71	-1.1918775
173	0x3cbec5a0	0.023287594
174	0x3f18f858	0.5975394
175	0xbe781fa0	-0.24230814
176	0xbf069646	-0.5257305
177	0xbf1e8c74	-0.61933064
178	0x3f814f75	1.0102373
179	0x3ed2076d	0.4102129
180	0x3da65eb4	0.08123532
181	0xbf87da67	-1.0613526
182	0xbebe4715	-0.37163606
183	0x3e5eb1a9	0.2174746
184	0xbe0a5743	-0.1350985
185	0xbf2490a3	-0.642832
186	0xbdd60f37	-0.10452121
187	0xbf146e7c	-0.57981086
188	0xbf39c67b	-0.7256848
189	0x3f0e4034	0.55566716
190	0x3f2ca2f8	0.6743617
191	0xbfcf2ea6	-1.6186111
192	0x3f85c5b6	1.0450962
193	0x3f88cf36	1.0688236
194	0x3f8d78c2	1.1052477
195	0x3e1349ac	0.14383572
196	0x3c8aacc0	0.016928077
197	0xbf127002	-0.5720216
198	0x3e78ac8a	0.24284568
199	0x3dc553b7	0.09635108
200	0xbff2c85a	-1.8967392
201	0xbf519982	-0.8187486
202	0x3efb9110	0.4913411
203	0xbf297d0c	-0.6620643
204	0xbed17cd0	-0.40915537
205	0x3f25d21a	0.64773715
206	0x3d277384	0.04088165
207	0x3ebe559a	0.37174684
208	0xbe1e7bb4	-0.15476876
209	0xbda6f4d5	-0.08152167
210	0xbda4d3ae	-0.08048187
211	0xbd2d8c34	-0.042370036
212	0xbf32df8a	-0.69872344
213	0x3f28065a	0.6563469
214	0xbeecd581	-0.4625664
215	0x3c66f8a0	0.014097363
216	0x3f000d87	0.5002064
217	0xbe2f1a1e	-0.17099807
218	0x3dd62eb8	0.1045813
219	0xbf53c274	-0.82718587
220	0x3f74ddee	0.9565114
221	0xbd0585e4	-0.03259839
222	0x3f8ff918	1.1247892
223	0x3cbbbb24	0.022916384
224	0xbf48d48a	-0.7844931
225	0x3f3edf52	0.7455951
226	0x3e9874e2	0.29776675
227	0x3d1b498a	0.03791193
228	0xbf5ecb81	-0.8702927
229	0x3eaea6a2	0.34111506
230	0xbec6dd9e	-0.38840955
231	0x3df3ba98	0.11900824
232	0xbe956432	-0.29178005
233	0x3e17490a	0.14773956
234	0xbdc98064	-0.09838942
235	0xbf57be13	-0.84274405
236	0xbf853516	-1.0406826
237	0xbf96c023	-1.1777385
238	0x3d44fbe9	0.048091803
239	0x3ef9b144	0.48768055
240	0x3f37491e	0.7159594
241	0xbf942ce0	-1.1576195
242	0x3dae2974	0.08504
243	0xbe14c7f6	-0.14529404
244	0xbe621756	-0.22079214
245	0x3edc54d0	0.43033457
246	0x3d8c5494	0.068520695
247	0xbfbf7a34	-1.4959168
248	0xbe5518ec	-0.20810288
249	0xbf0862a4	-0.53275514
250	0xbd10f83c	-0.035392985
251	0x3f3223d0	0.69585896
252	0xbf97a326	-1.1846664
253	0xbd2eba54	-0.042658165
254	0xbf41f9a9	-0.75771576
255	0xbd7dd350	-0.0619691

network.1.running_var f4 [512]
0	0x445fa55a	894.5836
1	0x447bf45b	1007.81805
2	0x44bb39cc	1497.8062
3	0x4499ca21	1230.3165
4	0x44746534	977.5813
5	0x44ad8588	1388.1729
6	0x447da825	1014.62726
7	0x44928008	1172.001
8	0x448d3abf	1129.8358
9	0x44a4212a	1313.0364
10	0x448a6035	1107.0065
11	0x44aead3e	1397.4138
12	0x448d7848	1131.7588
13	0x447496b9	978.35504
14	0x4471c676	967.10095
15	0x4493ca46	1182.321
16	0x44afd718	1406.7217
17	0x445c028c	880.0398
18	0x44832e9d	1049.4567
19	0x4453d670	847.3506
20	0x4484f35b	1063.6049
21	0x447b4304	1005.0471
22	0x448c3b66	1121.8562
23	0x44969354	1204.604
24	0x44969191	1204.549
25	0x447a8312	1002.048
26	0x448985f5	1100.1862
27	0x444ab147	810.76996
28	0x44a2b169	1301.5441
29	0x448c912e	1124.5369
30	0x4495e3a7	1199.1141
31	0x44936c73	1179.389
32	0x4478f834	995.8782
33	0x44757ba9	981.9322
34	0x4499d2a9	1230.5831
35	0x446e7254	953.7864
36	0x44aefa3f	1399.8202
37	0x44611380	900.3047
38	0x44717928	965.89307
39	0x446db7ae	950.87
40	0x448af73f	1111.7264
41	0x445aea55	875.66144
42	0x4497fa01	1215.8126
43	0x4487fe5c	1087.9487
44	0x44afaa75	1405.3268
45	0x447fe857	1023.6303
46	0x443c5e62	753.47473
47	0x44734907	973.14105
48	0x44819a88	1036.8291
49	0x445c2a27	880.6586
50	0x448a8e4f	1108.4471
51	0x4479aa51	998.6612
52	0x4492b20f	1173.5643
53	0x44815797	1034.7372
54	0x44a3b68c	1309.7046
55	0x448f7601	1147.6876
56	0x44835397	1050.6122
57	0x449fecc2	1279.3987
58	0x44507711	833.8604
59	0x447314a6	972.32263
60	0x449bcce2	1246.4026
61	0x4489a285	1101.0787
62	0x446a9e19	938.4703
63	0x44b66ccc	1459.3999
64	0x4483e430	1055.1309
65	0x4497f2f1	1215.5919
66	0x4495c540	1198.1641
67	0x447311cd	972.27814
68	0x449e53dc	1266.6206
69	0x4491f072	1167.5139
70	0x4465978f	918.3681
71	0x445e3527	888.8305
72	0x44844f78	1058.4834
73	0x448494ef	1060.6542
74	0x4490a302	1157.094
75	0x448c0d46	1120.4148
76	0x4487136f	1080.6073
77	0x446986a9	934.10406
78	0x44860e32	1072.4436
79	0x44447d38	785.95654
80	0x448a8aae	1108.3337
81	0x44aaa85b	1365.2611
82	0x448f9cc1	1148.8986
83	0x44ad910f	1388.5331
84	0x448ebed7	1141.9637
85	0x449fd187	1278.5477
86	0x44a37956	1307.7917
87	0x44b59b5a	1452.8547
88	0x4486ac6b	1077.3881
89	0x44bc03a9	1504.1144
90	0x448e8d08	1140.4072
91	0x4497f5f1	1215.6857
92	0x446cdabe	947.41785
93	0x444d4cba	821.19885
94	0x448b7be9	1115.8722
95	0x4480c4a3	1030.1449
96	0x447abc53	1002.94257
97	0x44ae7cef	1395.9042
98	0x44981652	1216.6975
99	0x4471f134	967.7688
100	0x447f5f53	1021.48944
101	0x4466b498	922.8218
102	0x44a71876	1336.7644
103	0x4488d7f7	1094.7489
104	0x448797cb	1084.7435
105	0x4473408f	973.0087
106	0x44864b14	1074.3462
107	0x448c6a66	1123.325
108	0x44a7b2ab	1341.5834
109	0x4477ff1e	991.9862
110	0x4494a2b0	1189.084
111	0x448e44d6	1138.1511
112	0x446f46ed	957.1082
113	0x44717147	965.76996
114	0x44a35bb2	1306.8655
115	0x44753263	980.7873
116	0x44a1310d	1289.5328
117	0x4460732e	897.7997
118	0x4486ab31	1077.3497
119	0x445bad1e	878.70496
120	0x44e25e0b	1810.9388
121	0x4473bad2	974.91907
122	0x4480e638	1031.1943
123	0x44714ad8	965.16943
124	0x4466f986	923.8988
125	0x449b17f3	1240.7484
126	0x44854bac	1066.3647
127	0x44b63082	1457.5159
128	0x44a1175f	1288.7303
129	0x4484401f	1058.0038
130	0x44986bdb	1219.3705
131	0x449496ee	1188.7166
132	0x448712f3	1080.5922
133	0x4463eabc	911.6677
134	0x4488825c	1092.0737
135	0x44b2330e	1425.5955
136	0x449bf94b	1247.7904
137	0x449a1050	1232.5098
138	0x44b042bf	1410.0858
139	0x448ed188	1142.5479
140	0x4481bbad	1037.8649
141	0x4484a8ed	1061.2789
142	0x449e4322	1266.0979
143	0x4488f946	1095.7898
144	0x446cf26e	947.78796
145	0x448a07ce	1104.2439
146	0x44a4d4e2	1318.6526
147	0x446fab1f	958.67377
148	0x448ea94d	1141.2906
149	0x4491fe92	1167.9553
150	0x4486b7e9	1077.7472
151	0x4465b364	918.803
152	0x44a4eaf4	1319.3423
153	0x44cd775a	1643.7297
154	0x447e8096	1018.00916
155	0x44bb5efd	1498.9684
156	0x448264f5	1043.1549
157	0x4470ab72	962.67883
158	0x449a0c6a	1232.388
159	0x4485a46e	1069.1384
160	0x446f787b	957.8825
161	0x4487f85f	1087.7616
162	0x4481f507	1039.6571
163	0x4446a9ec	794.655
164	0x4488a056	1093.0105
165	0x44907126	1155.5359
166	0x44bbe93a	1503.2883
167	0x44a2372e	1297.7244
168	0x448926c1	1097.211
169	0x44a07cd0	1283.9004
170	0x445a9445	874.3167
171	0x44c269cd	1555.3063
172	0x449c7270	1251.5762
173	0x447e2170	1016.52246
174	0x4496eca4	1207.395
175	0x44915c06	1162.8757
176	0x44e9d48c	1870.6421
177	0x44696255	933.53644
178	0x4487c996	1086.2996
179	0x448b2354	1113.104
180	0x44a8de32	1350.9436
181	0x4492a744	1173.227
182	0x44ab135a	1368.6047
183	0x44a90ebd	1352.4606
184	0x4488fcfb	1095.9056
185	0x44830f60	1048.4805
186	0x449ad0ad	1238.5211
187	0x44a05d39	1282.9132
188	0x44ad366f	1385.701
189	0x44815ca2	1034.8948
190	0x44557f7a	853.9918
191	0x44823548	1041.665
192	0x449ead9a	1269.425
193	0x447bbf9f	1006.9941
194	0x448b1a57	1112.8231
195	0x4478ee44	995.7229
196	0x44c030a8	1537.5205
197	0x44977c58	1211.8857
198	0x4450258f	832.58685
199	0x449e6a6e	1267.3259
200	0x4465adef	918.7177
201	0x44568fcd	858.2469
202	0x449a958d	1236.6735
203	0x446eb343	954.80096
204	0x44800642	1024.1956
205	0x4493d6ce	1182.7126
206	0x44682dfb	928.71844
207	0x44696140	933.51953
208	0x446fbd32	958.9562
209	0x448bf8f9	1119.7804
210	0x4463275a	908.61487
211	0x448f2fa2	1145.4885
212	0x4458f295	867.79034
213	0x446d1f19	948.4859
214	0x4482997b	1044.7963
215	0x4462a78c	906.6179
216	0x4444fe0b	787.9694
217	0x4470965f	962.34955
218	0x447e7a0b	1017.9069
219	0x44975b9d	1210.8629
220	0x44656c78	917.6948
221	0x44a470ba	1315.5227
222	0x4489ab9c	1101.3628
223	0x449cb8f7	1253.7802
224	0x448d6652	1131.1975
225	0x44928083	1172.016
226	0x448a3f6b	1105.9818
227	0x4462564e	905.3485
228	0x4492233e	1169.1013
229	0x44ad1834	1384.7563
230	0x448958f6	1098.78
231	0x44927d11	1171.9083
232	0x4499ec2f	1231.3807
233	0x449d8e43	1260.4457
234	0x4489b7c4	1101.7427
235	0x44a8dcbe	1350.8982
236	0x448d9d08	1132.9072
237	0x448a0e32	1104.4436
238	0x446534a5	916.8226
239	0x448021cb	1025.056
240	0x44647c06	913.93787
241	0x44c00478	1536.1396
242	0x447dc7b4	1015.12036
243	0x44862c5d	1073.3864
244	0x44a7961b	1340.6908
245	0x44b24feb	1426.4974
246	0x449a2ed9	1233.464
247	0x445addb8	875.46436
248	0x4477f822	991.8771
249	0x4486046f	1072.1385
250	0x44bdaae7	1517.3407
251	0x447ec983	1019.1486
252	0x447d1301	1012.29694
253	0x44605243	897.28534
254	0x445ba2d0	878.54395
255	0x4478c09e	995.00964

network.4.weight f4 [256, 512]
0	0x3eab68d9	0.3347843
1	0x3fb9a61c	1.4503818
2	0x3efa6565	0.48905483
3	0x3fd0620d	1.6279923
4	0xbdb73683	-0.08945944
5	0x401e0af0	2.4694176
6	0xbfbca454	-1.4737649
7	0x3f0501e1	0.5195599
8	0x40422ebd	3.0341027
9	0x40020688	2.0316486
10	0xbf81149a	-1.0084412
11	0x3f9384d3	1.152491
12	0x3eb0491e	0.34430784
13	0xbf7b31fc	-0.98123145
14	0x3da1ad27	0.07894354
15	0xbffdfb84	-1.9842381
16	0x3f9bba86	1.2166297
17	0x3e3f08c4	0.18655688
18	0xc056b43a	-3.3547502
19	0x3fa2cec1	1.2719346
20	0xbf49419c	-0.78615737
21	0xbf1d4609	-0.6143499
22	0xbf626d45	-0.8844798
23	0x3fe58b5a	1.7933152
24	0x3e60306d	0.21893473
25	0xbfccfc36	-1.6014469
26	0x3f5ad1c8	0.8547635
27	0x3ec44116	0.38330907
28	0xbe596fe7	-0.21234094
29	0xbdd3361f	-0.10313057
30	0x401253dd	2.2863686
31	0xc0190e36	-2.3914924
32	0x4014e9e7	2.3267763
33	0xc0015a5c	-2.02114
34	0x3f4f21bc	0.8091085
35	0xbf2de624	-0.6792929
36	0x40036703	2.0531623
37	0xbfa7e9ea	-1.311826
38	0xbd6b3e10	-0.057432234
39	0xbf785d7b	-0.9701764
40	0x3fa44103	1.283234
41	0xbff65c2e	-1.9246881
42	0x3f4a84f1	0.791091
43	0x3f5549ca	0.8331572
44	0x3ec480d5	0.3837954
45	0x3f0dced1	0.553937
46	0xc00d5527	-2.2083223
47	0xc0148305	-2.3204968
48	0xc010e8ff	-2.264221
49	0xbe677970	-0.22604918
50	0xbe5eb819	-0.21749915
51	0xbe7e0568	-0.2480675
52	0xbde03a28	-0.109485924
53	0xc056e093	-3.357457
54	0xbe9b5721	-0.30339912
55	0xbff82031	-1.9384824
56	0xbf848b95	-1.0355097
57	0xbf7d7570	-0.9900732
58	0xbfc1c842	-1.5139239
59	0xbf649ff5	-0.89306575
60	0x3ff7dac0	1.9363632
61	0x401ad73c	2.4193869
62	0x3cb17766	0.021663379
63	0x3f8b42fb	1.0879816
64	0x401b0262	2.4220204
65	0x3fdaf935	1.7107302
66	0xc03475b4	-2.819684
67	0xbe2ed3d3	-0.17072992
68	0x3e596b5b	0.21232359
69	0xc02069ec	-2.506465
70	0x3eca4ee6	0.3951332
71	0xbf08c351	-0.5342303
72	0x3eff9db5	0.49925008
73	0x3f866f77	1.0502766
74	0xbf9703ef	-1.1798075
75	0xbe482085	-0.19543655
76	0xbf89405f	-1.072277
77	0xbf492d31	-0.7858458
78	0xbf83b271	-1.0288831
79	0xbd806027	-0.062683396
80	0xc0012ff2	-2.0185513
81	0x3f0f26b0	0.5591841
82	0x3f273feb	0.65331906
83	0xbf0aef43	-0.54271334
84	0xbf8004eb	-1.0001501
85	0x3d598653	0.053106617
86	0x40060faa	2.094706
87	0xbf322ec8	-0.6960263
88	0x3f550dfd	0.8322447
89	0x4021b061	2.5263903
90	0x3ef95a2d	0.4870161
91	0xbf7b87b3	-0.98253936
92	0xc061e723	-3.5297325
93	0xbf53cd2c	-0.8273494
94	0xbf19af38	-0.6003299
95	0x3f2cace7	0.6745133
96	0xbdc60787	-0.096694045
97	0x3e8c84f4	0.27445185
98	0xbf7377e8	-0.9510484
99	0x3e052a94	0.13004524
100	0x3e7ef44b	0.24897878
101	0xbfc39f34	-1.528296
102	0xc00e48e3	-2.2231987
103	0xbf957d5f	-1.1678885
104	0xbc2dd7dc	-0.010610547
105	0xbee058c6	-0.4381773
106	0xbfcc1593	-1.5944084
107	0x4003391b	2.0503604
108	0x3f26842c	0.6504543
109	0x3e6cacc5	0.23112781
110	0x3fd2aa9b	1.6458315
111	0x3f2fa79e	0.6861514
112	0xbfaca941	-1.3489152
113	0xbc09495a	-0.008379305
114	0x3f6f6dde	0.9352702
115	0x3df8ea15	0.121540226
116	0x3dd1a121	0.10235811
117	0xbfd98177	-1.6992635
118	0xbff5c4e7	-1.9200715
119	0xbd2f6c52	-0.04282791
120	0x3faea0e2	1.3642848
121	0xbf91e938	-1.1399298
122	0xbfa4e052	-1.2880957
123	0xc003af63	-2.0575798
124	0xbfd2d54f	-1.6471347
125	0x3ead2f97	0.3382537
126	0x3f33b56f	0.7019872
127	0x4028cf5e	2.6376567
128	0x3e39956f	0.1812341
129	0xbea0ac52	-0.3138147
130	0xbf8c4c31	-1.0960752
131	0xbf986789	-1.1906596
132	0x3fdc2ac6	1.7200553
133	0x3ef41b1a	0.47676927
134	0xbf9e4efc	-1.2367854
135	0x3ced0e7e	0.028937574
136	0x3faa4fd0	1.3305607
137	0x3f5a0e99	0.85178524
138	0x3f513078	0.8171458
139	0x3f1fd0bc	0.6242788
140	0xbec7aed7	-0.3900058
141	0xbe5ff4bd	-0.21870704
142	0xbe0b491b	-0.13602106
143	0x3f9cccaf	1.2249964
144	0xbf5b6611	-0.85702616
145	0xbfddefd2	-1.7338812
146	0x401209d7	2.2818506
147	0x3de67067	0.11251908
148	0x3f891e17	1.0712308
149	0xbe780d0c	-0.24223727
150	0x3ef34a88	0.475178
151	0xbf3f4f53	-0.74730414
152	0x3f358be7	0.709166
153	0xc025fd24	-2.5935755
154	0xbfa09a73	-1.2547134
155	0x3e4b1616	0.19832644
156	0xbf9e9e5e	-1.239208
157	0xbede2441	-0.43387035
158	0x3dce8842	0.10084583
159	0xbfa92983	-1.3215793
160	0xc02ca82a	-2.697764
161	0x3f9db7db	1.2321733
162	0x3f18c255	0.5967153
163	0xbfdcceaa	-1.7250569
164	0x3ebaf3f5	0.3651425
165	0xbd077d2a	-0.03307835
166	0xbaa910dc	-0.0012898701
167	0xbf473960	-0.7782192
168	0x3ec93bfc	0.39303577
169	0x3fa2e90c	1.272737
170	0xbf181695	-0.5940946
171	0x404cfb8b	3.202853
172	0x3e5d281a	0.21597329
173	0xbf4540cf	-0.77052015
174	0x3f56e152	0.8393756
175	0xbd5f5b80	-0.05453062
176	0x3f454fb5	0.7707475
177	0x3f1aec98	0.60517263
178	0x3f837721	1.027073
179	0x3e2bc546	0.16774473
180	0xbf31916b	-0.69362515
181	0x3f25eec5	0.6481746
182	0x40141505	2.313783
183	0x3f0813c3	0.53155154
184	0xbed00f43	-0.40636644
185	0x3f90ce9c	1.1313052
186	0x3f1b9391	0.60772043
187	0x400b8430	2.179943
188	0x3ef28535	0.47367254
189	0xbe82cbe5	-0.25546184
190	0xc0039bbb	-2.05638
191	0xc0150724	-2.3285608
192	0xbd354a4f	-0.04426032
193	0xbfe08476	-1.7540424
194	0xbd02b1c6	-0.03190782
195	0xbec93cd3	-0.39304218
196	0x3e197921	0.14987613
197	0xbf39d9cd	-0.7259796
198	0xbf2c444b	-0.67291707
199	0xbe450db4	-0.19243509
200	0xbfe1065f	-1.7580069
201	0x3dfbff88	0.12304598
202	0x3fd358f2	1.6511519
203	0xbedb97a3	-0.42889127
204	0x3f1616c2	0.58628476
205	0x3f138886	0.57630193
206	0x3e28ef3b	0.16497509
207	0x3f608401	0.8770142
208	0xbdafb4a6	-0.08579378
209	0x3f206273	0.6265022
210	0xbf1f9067	-0.62329715
211	0xbf69e2e9	-0.9136186
212	0x3f51b4a7	0.8191628
213	0xbf7a99e4	-0.9789107
214	0x3f4138c5	0.7547725
215	0xbf1bedc5	-0.6090968
216	0xbe259281	-0.16169168
217	0x40117350	2.272663
218	0x3eed3099	0.4632614
219	0x402ca809	2.697756
220	0xbb339f3e	-0.0027408148
221	0xbeff4778	-0.49859214
222	0xc03f83bf	-2.9924161
223	0x3e91c550	0.2847085
224	0xbeb419f6	-0.35176057
225	0x3f382cde	0.7194346
226	0xbd40f196	-0.047105394
227	0x3f5fdf3a	0.8744999
228	0x3e0fb1b1	0.14032628
229	0x407e3f88	3.9726276
230	0xbff591f9	-1.9185172
231	0xbf0b07a0	-0.5430851
232	0x3f00b169	0.50270706
233	0x3f8c88c7	1.0979241
234	0x3fc07ccb	1.5038084
235	0x405833df	3.378166
236	0x3fd837dd	1.6892048
237	0x3fbcaf62	1.4741023
238	0x40103a42	2.2535558
239	0xbf8760c9	-1.0576411
240	0xbd775785	-0.0603862
241	0x3fb7b3c6	1.4351737
242	0xbf18f434	-0.59747624
243	0xc016e7d2	-2.3578992
244	0x400a21c2	2.1583104
245	0x3fee0a3c	1.8596873
246	0x3ebbb7ce	0.3666367
247	0xbfbdcb1d	-1.482761
248	0x3efc98b8	0.49335265
249	0x3f51517c	0.8176496
250	0xbfb60399	-1.4219848
251	0xc000cf80	-2.0126648
252	0x3e8872df	0.2665014
253	0xc0144fbb	-2.3173664
254	0xc060712d	-3.5069077
255	0x3f8e30fc	1.1108699
