models/NeuralNetwork-2_acc-54.95_loss-0.000002.pth (torch, 893391 bytes, 8 tensors)

network.0.weight f4 [423, 141]
-0.00033902645 0.018398618 -0.03851153 0.019390007 0.030519778 -0.09981666 0.03427101 0.038344517
-0.012055533 -0.034093536 -0.016246175 -0.123136476 -0.010109239 -0.014049965 -0.06807517 0.050459687
0.013283203 0.018239487 0.06328734 -0.05950673 0.042679492 -0.049009964 -0.062343746 -0.02714756
-0.023072159 0.042488735 0.0070073535 -0.052197278 0.013532279 -0.24529038 -0.09877653 0.071969315
0.06404504 0.029366579 -0.03420366 0.043845173 0.049190555 -0.065496124 -0.047181983 -0.016943427
-0.1041513 0.04375274 -0.006057839 0.031880338 -0.044169046 0.06321031 0.06706804 0.08056038
-0.06552533 0.0870205 0.05172378 0.03135465 -0.08932172 -0.0411454 -0.031567268 0.112826206
-0.049069744 0.10857139 0.01326968 0.011463652 -0.080759056 0.048725504 0.020403849 -0.1208327
-0.07410526 0.0011897356 0.10433594 0.054548007 -0.07239487 0.036017474 0.06878417 -0.040434647
-0.033661295 -0.008473063 -0.07071951 0.023069832 0.10604715 0.0038377633 0.017507756 0.029405419
0.05148243 -0.08682479 0.03211812 -0.0735945 0.015968582 -0.092333235 0.11049338 -0.02866666
-0.0025002607 -0.029052012 -0.05240252 0.11620291 -0.12015538 -0.029557155 -0.0037149987 -0.027193708
0.16397648 -0.05803922 -0.044748124 -0.037780173 0.059861995 0.033198114 0.012614474 -0.040492546
0.012548536 -0.09674281 0.023694409 0.011207589 0.011723095 -0.060325157 -0.0035850056 -0.067632094
0.13476253 0.03929652 -0.056283683 0.08589272 -0.016634388 0.11590874 -0.05622215 0.051268503
0.042776965 -0.019728212 -0.08971051 -0.0224622 -0.042783663 -0.08772841 0.023180444 -0.070936464
-0.074147716 0.09990722 0.009761368 0.04694413 -0.0028259382 0.04210663 0.08153757 -0.06490966
0.13512406 0.025864754 -0.019927034 0.010099707 -0.034205254 0.024615407 0.007949029 0.016018763
-0.0154144885 0.037448272 -0.034343913 -0.047204386 0.0097051095 0.014054253 0.013924319 -0.036709417
-0.053291764 -0.051153418 0.0020417995 -0.005923315 0.16154385 -0.060898352 0.0021405178 0.012477022
0.08895647 -0.070322 -0.103122 0.009025813 -0.09826175 0.115812324 0.0043953257 0.05030488
0.072865844 -0.0086675035 -0.14298049 -0.075405605 0.07611832 0.013463755 0.1661616 0.051502917
-0.0031235414 -0.009656578 -0.012241088 -0.041056663 0.10380771 0.01670329 -0.060993653 -0.0536161
0.03307117 -0.03449597 0.013686162 -0.06628795 -0.025036806 0.18416785 0.003277019 0.00011199776
0.10167669 -0.054644614 -0.051560793 0.0054052 0.10571887 -0.03385637 0.117196396 0.018501442
0.23361717 -0.054233808 -0.029796386 0.08197566 0.030357748 -0.058310866 0.051509634 0.14383942
-0.0042311577 0.10472536 0.0937097 -0.0662076 0.022102585 0.072738305 0.08886609 -0.07202119
0.0178215 0.009641133 0.034838773 0.06031968 0.0407815 0.06761757 0.058134355 -0.01926616
-0.050550062 0.040943544 -0.02639 0.0673076 0.007542888 0.04663875 -0.03050328 0.01946911
0.023928743 -0.013582483 -0.059911128 -0.004563582 0.08261981 -0.081285305 -0.033761326 0.018893234
-0.034919195 -0.033401545 -0.034911186 0.082972944 -0.07584203 -0.043025013 0.06803354 -0.084782206
-0.05108449 -0.16528477 0.026083456 0.011593337 0.048243362 -0.0037976152 0.09497476 -0.05745229
00000000: 5cbf b1b9 b3b8 963c 44be 1dbd cbd7 9e3c
00000010: 9d04 fa3c ad6c ccbd c25f 0c3d 240f 1d3d
00000020: 9284 45bc aaa5 0bbd b316 85bc fa2e fcbd
00000030: 39a1 25bc d331 66bc ff6a 8bbd d1ae 4e3d
00000040: cba1 593c fa6a 953c cb9c 813d 54bd 73bd
00000050: b1d0 2e3d acbe 48bd 285c 7fbd 8f64 debc
00000060: d301 bdbc ab08 2e3d f19d e53b d0cc 55bd
00000070: 7eb6 5d3c 672d 7bbe 594b cabd a664 933d
00000080: 0c2a 833d 2e92 f03c 2319 0cbd ff96 333d
00000090: 097c 493d d522 86bd e541 41bd f1cc 8abc
000000a0: 474d d5bd 1336 333d d680 c6bb f594 023d
000000b0: 9aea 34bd 6874 813d f85a 893d d7fc a43d
000000c0: 2532 86bd ce37 b23d 50dc 533d bc6d 003d
000000d0: 4eee b6bd 1488 28bd ae4c 01bd 6d11 e73d
000000e0: 5bfd 48bd ad5a de3d 1269 593c 0bd2 3b3c
000000f0: 0165 a5bd 6594 473d f925 a73c 2277 f7bd
00000100: 80c4 97bd e7f0 9b3a 15ae d53d bb6d 5f3d
00000110: c343 94bd 0f87 133d b7de 8c3d cd9e 25bd
00000120: 6de0 09bd 9ad2 0abc 64d5 90bd f2fc bc3c
00000130: 402f d93d fc82 7b3b 6d6c 8f3c a2e3 f03c
00000140: 3edf 523d 32d1 b1bd 4a8e 033d b7b8 96bd
00000150: 8bd0 823c 3519 bdbd 5a4a e23d 58d6 eabc
00000160: 6adb 23bb 7cfe edbc 06a4 56bd cbfb ed3d
00000170: 0614 f6bd d921 f2bc 5677 73bb 57c5 debc
00000180: 73e9 273e 88ba 6dbd cf49 37bd 62bf 1abd
00000190: da31 753d bffa 073d f0ac 4e3c 83db 25bd
000001a0: 6098 4d3c 1821 c6bd c71a c23c 09a0 373c
000001b0: 3912 403c 8317 77bd 6af2 6abb b282 8abd
000001c0: 30ff 093e 63f5 203d b889 66bd 86e8 af3d
000001d0: d744 88bc 9061 ed3d 3249 66bd ecfe 513d
000001e0: e636 2f3d 0f9d a1bc 25ba b7bd a602 b8bc
000001f0: ec3d 2fbd f4aa b3bd eae4 bd3c 2347 91bd
00000200: c2da 97bd 289c cc3d 25ee 1f3c 7d48 403d
00000210: 6033 39bb 0078 2c3d 2bfd a63d 5bef 84bd
00000220: f65d 0a3e 52e2 d33c 053e a3bc 3e79 253c
00000230: cf1a 0cbd 40a6 c93c a53c 023c c839 833c
00000240: 0d8d 7cbc 5c63 193d 34ac 0cbd 6359 41bd
00000250: 2e02 1f3c cf43 663c d422 643c 9d5c 16bd
00000260: 7748 5abd 3f86 51bd b6cf 053b 5e18 c2bb
00000270: c06b 253e 8d70 79bd ee47 0c3b 6c6c 4c3c
00000280: cf2e b63d fb04 90bd a131 d3bd 01e1 133c
00000290: 753d c9bd 032f ed3d aa06 903b 7d0c 4e3d
000002a0: b03a 953d 2502 0ebc 7a69 12be 416e 9abd
000002b0: ece3 9b3d 1597 5c3c 4426 2a3e b9f4 523d
000002c0: 54b4 4cbb a036 1ebc d88e 48bc 082b 28bd
000002d0: 2399 d43d 57d5 883c 7bd4 79bd 8e9c 5bbd
000002e0: a375 073d a54b 0dbd ed3b 603c fac1 87bd
000002f0: fd19 cdbc 7f96 3c3e 41c3 563b 57e0 ea38
00000300: de3b d03d 08d3 5fbd 6931 53bd 1b1e b13b
00000310: 2383 d83d faac 0abd aa04 f03d 5690 973c
00000320: 5739 6f3e 4524 5ebd 8d17 f4bc dbe2 a73d
00000330: d0b0 f83c 60d7 6ebd c4fb 523d a44a 133e
00000340: 86a5 8abb 407a d63d dfea bf3d da97 87bd
00000350: 7b10 b53c d2f7 943d 6dff b53d d87f 93bd
00000360: 65fe 913c d8f5 1d3c 1ab3 0e3d c511 773d
00000370: 810a 273d 157b 8a3d 4a1e 6e3d 11d4 9dbc
00000380: 950d 4fbd 6bb4 273d d72f d8bc 91d8 893d
00000390: 552a f73b 4608 3f3d 04e2 f9bc af7d 9f3c
000003a0: 3606 c43c 1089 5ebc 5f65 75bd 1a8a 95bb
000003b0: 9334 a93d e978 a6bd 5149 0abd fcc5 9a3c
000003c0: 6e07 0fbd 0fd0 08bd 08ff 0ebd b8ed a93d
000003d0: 1153 9bbd ff3a 30bd 2b55 8b3d 4ba2 adbd
000003e0: f83d 51bd 6940 29be f9ac d53c fbf1 3d3c
000003f0: d59a 453d 69e1 78bb 2182 c23d 1853 6bbd

network.0.bias f4 [423]
-0.16667354 -0.08746955 -0.16502716 -0.1937506 -0.1970389 -0.35210425 -0.13357793 -0.285293
-0.16184425 -0.17376837 -0.25864518 -0.20439935 -0.092535675 -0.2409925 -0.09242833 -0.12708716
-0.14870173 -0.19950062 -0.26310265 -0.30572215 -0.13430095 -0.25053534 -0.19005704 -0.16260415
-0.19002454 -0.21579559 -0.31875795 -0.05573913 -0.09487836 -0.21888785 -0.104866885 -0.074559815
-0.2348373 -0.19012423 -0.09305268 -0.117865235 -0.07666935 -0.14794551 -0.20796235 -0.18142967
-0.17079355 -0.14590976 -0.18895185 -0.15444629 -0.15226075 -0.27288407 -0.21796352 -0.1355258
-0.14926015 -0.1307714 -0.11587618 -0.20861176 -0.18434589 -0.121983856 -0.1866976 -0.075634
-0.17785452 -0.18241572 -0.15840225 -0.26390472 -0.1829418 -0.20128933 -0.17045058 -0.11433096
-0.047844846 -0.2601104 -0.23179278 -0.21107204 -0.18977143 -0.15224493 -0.15846732 -0.22358333
-0.24639662 -0.27811158 -0.20748805 -0.09227483 -0.053811535 -0.16281094 -0.16205825 -0.062340237
-0.13096224 -0.1610491 -0.064721994 -0.16151333 -0.093793064 -0.29046416 -0.15845926 -0.19528344
-0.14891225 -0.1930335 -0.12394165 -0.14472051 -0.18462434 -0.15384164 -0.1847266 -0.06851089
-0.20868658 -0.1307658 -0.1667061 -0.120894395 -0.16552342 -0.17131731 -0.104440704 -0.17857164
-0.15093264 -0.17125389 -0.19419089 -0.16555075 -0.08589707 -0.11533155 -0.19798657 -0.18126306
-0.1004933 -0.11638821 -0.13601202 -0.17239924 -0.19142158 -0.108509615 -0.1106031 -0.14527342
-0.27604237 -0.22428149 -0.29075494 -0.24122423 -0.1587428 -0.210957 -0.22046466 -0.26937717
-0.17781596 -0.22486664 -0.13781005 -0.22978121 -0.2738278 -0.15525448 -0.22811405 -0.20828322
-0.14102766 -0.21113685 -0.29349586 -0.15803246 -0.09936756 -0.14972673 -0.24817815 -0.100390494
-0.15858316 -0.1859154 -0.13237236 -0.19233319 -0.23411481 -0.20054412 -0.06668733 -0.13744365
-0.14477544 -0.14613695 -0.11270794 -0.21042182 -0.05084427 -0.14172645 -0.18716654 -0.10623108
-0.12464068 -0.22862048 -0.25166425 -0.21198905 -0.07548774 -0.048519418 -0.2077539 -0.3527081
-0.26158586 -0.11672768 -0.08674214 -0.15499377 -0.108359 -0.14639157 -0.14071447 -0.29158297
-0.18402594 -0.07418867 -0.14952663 -0.14906064 -0.071960516 -0.11938351 -0.30335608 -0.14083733
-0.066638686 -0.21810937 -0.07676322 -0.091599256 -0.25440666 -0.24532537 -0.25784197 -0.24708673
-0.19362974 -0.21659933 -0.17350143 -0.016169373 -0.15772124 -0.24135546 -0.22386253 -0.105071284
-0.23925607 -0.076853625 -0.2784368 -0.28143588 -0.2166307 -0.17229176 -0.1708865 -0.2107525
-0.07866928 -0.10804897 -0.27169397 -0.2903401 -0.1874638 -0.23580156 -0.09820581 -0.24244072
-0.11324081 -0.15466437 -0.19700137 -0.15562986 -0.08374308 -0.22478487 -0.22737274 -0.19772911
-0.20542002 -0.19370237 -0.21149302 -0.07819459 -0.15550515 -0.15963458 -0.15587382 -0.15171921
-0.20548849 -0.12061334 -0.11350314 -0.1836896 -0.3280861 -0.07801491 -0.13775735 -0.31589735
-0.21532135 -0.16042504 -0.2574215 -0.16012469 -0.022011224 -0.16816805 -0.19623946 -0.28837278
-0.12394061 -0.19887128 -0.29218537 -0.26057732 -0.15209498 -0.16625114 -0.15934548 -0.28976932
00000000: 78ac 2abe 3c23 b3bd e1fc 28be 8f66 46be
00000010: 91c4 49be 0247 b4be a7c8 08be ed11 92be
00000020: 80ba 25be 56f0 31be 246d 84be 104e 51be
00000030: 5883 bdbd bdc6 76be 104b bdbd 2323 02be
00000040: 4445 18be e449 4cbe 64b5 86be 9d87 9cbe
00000050: 3086 09be 2b46 80be 509e 42be b481 26be
00000060: cb95 42be 85f9 5cbe 3e34 a3be b74e 64bd
00000070: 964f c2bd 2324 60be 73c4 d6bd d1b2 98bd
00000080: 3079 70be edaf 42be 6792 bebd 5463 f1bd
00000090: d204 9dbd 077f 17be 15f4 54be b3c8 39be
000000a0: 81e4 2ebe 5e69 15be 987c 41be 2b27 1ebe
000000b0: 3eea 1bbe 76b7 8bbe d431 5fbe 46c7 0abe
000000c0: a7d7 18be f0e8 05be 7e50 edbd 529e 55be
000000d0: 2bc5 3cbe acd2 f9bd a82d 3fbe 00e6 9abd
000000e0: 7f1f 36be 30cb 3abe 3334 22be 851e 87be
000000f0: 1855 3bbe ca1e 4ebe 998a 2ebe 5a26 eabd
00000100: f5f8 43bd 312d 85be 165b 6dbe 4523 58be
00000110: 7153 42be 18e6 1bbe 4245 22be 07f3 64be
00000120: 654f 7cbe a464 8ebe bf77 54be 96fa bcbd
00000130: 7c69 5cbd e9b7 26be 99f2 25be 7a58 7fbd
00000140: f71a 06be 0eea 24be f78c 84bd c063 25be
00000150: 9416 c0bd b8b7 94be 2543 22be 62f8 47be
00000160: 747c 18be 93aa 45be 1fd5 fdbd 9d31 14be
00000170: 2a0e 3dbe aa88 1dbe f828 3dbe 704f 8cbd
00000180: efb1 55be 78e7 05be 01b5 2abe 7b97 f7bd
00000190: f97e 29be ce6d 2fbe 02e5 d5bd 7cdb 36be
000001a0: 168e 1abe 2e5d 2fbe fad9 46be 2386 29be
000001b0: ceea afbd f332 ecbd febc 4abe 069d 39be
000001c0: 6ecf cdbd f15c eebd bc46 0bbe 6d89 30be
000001d0: 0504 44be 4a3a debd e183 e2bd 8ec2 14be
000001e0: 6d55 8dbe 0caa 65be d5dd 94be 7c03 77be
000001f0: 798d 22be 1d05 58be 7dc1 61be ceeb 89be
00000200: 6315 36be 7143 66be 141e 0dbe c44b 6bbe
00000210: 2833 8cbe 08fb 1ebe bb96 69be 3248 55be
00000220: 8e69 10be 4234 58be 1745 96be 43d3 21be
00000230: 3881 cbbd f751 19be 6a22 7ebe 8899 cdbd
00000240: a063 22be 9b60 3ebe 9f8c 07be fef2 44be
00000250: cbbb 6fbe 705b 4dbe 5e93 88bd 07be 0cbe
00000260: 0340 14be eda4 15be 6cd3 e6bd d178 57be
00000270: 1542 50bd bd20 11be 96a8 3fbe ae8f d9bd
00000280: 9d43 ffbd 7d1b 6abe 23da 80be a813 59be
00000290: 5199 9abd 4cbc 46bd 70bd 54be 2896 b4be
000002a0: 95ee 85be ec0e efbd dda5 b1bd b0b6 1ebe
000002b0: 53eb ddbd ace7 15be 7417 10be 5d4a 95be
000002c0: 4c71 3cbe 3bf0 97bd 821d 19be 5aa3 18be
000002d0: 0960 93bd 577f f4bd 7d51 9bbe a937 10be
000002e0: dd79 88bd 1058 5fbe 0936 9dbd 6498 bbbd
000002f0: 9741 82be 9336 7bbe dd03 84be 4e04 7dbe
00000300: e046 46be 37cc 5dbe 5caa 31be a275 84bc
00000310: ad81 21be e325 77be 383c 65be 9d2f d7bd
00000320: 8bff 74be 6f65 9dbd 458f 8ebe 5d18 90be
00000330: 70d4 5dbe 406d 30be dffc 2ebe 81cf 57be
00000340: 5c1d a1bd c748 ddbd 791b 8bbe 75a7 94be
00000350: 83f6 3fbe f775 71be 2120 c9bd 6142 78be
00000360: ccea e7bd 5660 1ebe baba 49be 6f5d 1fbe
00000370: 7e81 abbd 012e 66be 66d4 68be 8079 4abe
00000380: a059 52be ea59 46be a091 58be 7c24 a0bd
00000390: be3c 1fbe 3f77 23be 639d 1fbe 485c 1bbe
000003a0: 936b 52be 2004 f7bd 5674 e8bd 2019 3cbe
000003b0: e7fa a7be 48c6 9fbd 4310 0dbe 4cbd a1be
000003c0: 337d 5cbe 7646 24be c0cc 83be baf7 23be
000003d0: e250 b4bc 3f34 2cbe fff2 48be 99a5 93be
000003e0: 93d4 fdbd eaa4 4bbe 5299 95be 646a 85be
000003f0: c9be 1bbe bd3d 2abe 762b 23be a55c 94be

network.3.weight f4 [282, 423]
-0.059016105 0.0010844927 0.03661749 -0.025805019 -0.023206599 0.009453954 0.06416093 0.047244117
0.039700553 -0.031082517 0.06356653 0.037504803 -0.041060902 0.037341498 -0.032017663 -0.030479105
-0.009406143 0.02637656 -0.090886824 0.009827398 0.018471466 0.025520973 0.00872536 0.0056779655
0.044387463 0.036962043 0.0033642799 0.07278418 -0.08393708 -0.055633754 0.06321356 0.012931486
-0.012054247 0.03101852 -0.0006040445 -0.00466889 0.001776874 0.0368955 0.025960395 -0.008780093
0.013244565 0.04946844 -0.02453476 0.0934416 -0.044312 -0.07420847 -0.040201623 -0.032965016
0.044557948 0.00074445346 -0.021643851 -0.007726488 0.031027142 0.037161518 0.018363701 -0.030175047
0.021452436 -0.10964152 0.045610666 0.13441107 -0.04723002 0.010775222 0.010250626 -0.0673938
-0.06311268 0.007146163 -0.062905796 -0.020830534 -0.018546622 -0.061886083 -0.02498102 0.09047923
0.017585723 0.009248775 -0.013914274 0.00091512245 -0.06905031 -0.008393613 -0.003115409 -0.0020522552
-0.055779718 0.050624467 0.0206507 -0.10932562 -0.010448692 0.020522691 -0.025343014 0.02677091
-0.037729613 0.010804207 0.021371672 0.0903022 -0.00040263543 -0.016269583 -0.026033062 -0.011606615
-0.027489554 -0.07015972 0.056342088 -0.013377925 -0.013411266 -0.0120215975 0.028748756 0.028736709
-0.0057984306 0.032318927 -0.012858934 -0.014756017 -0.016702296 0.027358958 0.056395836 -0.034829956
-0.045810044 -0.07797309 0.048967794 0.04667722 0.039925266 -0.016309505 0.009766902 -0.020577325
-0.030126708 0.015533912 -0.022654543 0.021244625 -0.013432313 -0.0455084 0.040694293 0.07255226
0.017424913 -0.009129741 -0.007059984 0.04317231 -0.103894725 -0.042102892 -0.04337959 0.017413424
0.0012906366 -0.08154124 -0.04527451 0.0073131947 0.014233262 -0.021434104 -0.04767675 0.08611207
-0.060002845 -0.0023628923 -0.0031006995 -0.06934769 -0.052429743 0.064733446 -0.09233959 0.04281739
0.005079572 0.021124419 -0.008588581 -0.056798764 -0.034687195 -0.09560407 -0.001330841 -0.046616577
-0.05331628 0.006921526 -0.0070733037 0.025996484 -0.11236038 0.06933584 -0.067309745 0.031042013
0.012894444 -0.035471402 0.018923001 0.00043935145 -0.030454699 0.01580185 -0.023106176 0.09842411
-0.051181786 0.018706696 -0.02511826 -0.021786693 0.023763822 0.08290672 0.1260891 0.0028208252
-0.05559631 0.010520913 0.06840075 -0.027458947 -0.011090958 -0.029714456 -0.0026027563 -0.00030480215
-0.03874658 0.04905187 -0.015527689 0.0028551423 -0.07945192 -0.082481086 -0.08260495 0.05733041
0.033367313 0.0292117 0.025386712 -0.049778458 0.04102028 0.027296523 0.02879351 -0.01616149
-0.066949874 -0.020685604 0.0015031564 -0.09479286 -0.0065027103 6.5412336e-05 0.05231686 -0.0303649
0.036992904 0.042992923 0.08879096 -0.0057700877 0.045463305 0.052455146 -0.023328304 0.10680824
-0.042483825 -0.029292844 0.024802499 0.07485328 -0.0036027783 0.06403251 0.0053210338 -0.06497584
0.08301847 0.02867896 -0.0023261239 0.07323749 0.04695416 0.043019768 0.04093752 0.033252403
-0.10897011 -0.047427453 -0.06897723 0.016439382 0.056512576 0.07346131 0.046518486 0.029634178
0.0055215964 0.024470715 -0.03081655 -0.0908686 0.008138534 0.013948192 0.054800287 -0.002356047
00000000: dfba 71bd 8925 8e3a 39fc 153d 0c65 d3bc
00000010: c41b bebc c2e4 1a3c ce66 833d 0c83 413d
00000020: 0c9d 223d c3a0 febc 2b2f 823d a39e 193d
00000030: 7a2f 28bd 66f3 183d f424 03bd 51af f9bc
00000040: 391c 1abc a813 d83c df22 babd 1803 213c
00000050: 7951 973c 5c11 d13c d0f4 0e3c 3a0e ba3b
00000060: a1cf 353d 8365 173d 407b 5c3b df0f 953d
00000070: 34e7 abbd 38e0 63bd 1c76 813d 95de 533c
00000080: 2d7f 45bc 8d1a fe3c bd58 1eba 7dfd 98bb
00000090: ffe5 e83a bc1f 173d e5aa d43c 61da 0fbc
000000a0: bbff 583c 6b9f 4a3d 1ffd c8bc 4f5e bf3d
000000b0: 8080 35bd 9cfa 97bd 75aa 24bd 5306 07bd
000000c0: 6582 363d 6d27 433a 724e b1bc 7b2e fdbb
000000d0: a22c fe3c ad36 183d 796f 963c a931 f7bc
000000e0: 05bd af3c bc8b e0bd 40d2 3a3d 0ea3 093e
000000f0: 4474 41bd 8f8a 303c 3ef2 273c c305 8abd
00000100: 3941 81bd 5c2a ea3b c1d4 80bd cca4 aabc
00000110: 16ef 97bc 437c 7dbd ffa4 ccbc 2d4d b93d
00000120: ef0f 903c 2d88 173c b2f8 63bc d4e4 6f3a
00000130: 406a 8dbd 5d85 09bc e42b 4cbb 217f 06bb
00000140: 4679 64bd 9a5b 4f3d a82b a93c 1ce6 dfbd
00000150: fe30 2bbc 341f a83c 279c cfbc ab4e db3c
00000160: 5e8a 1abd 2104 313c a513 af3c 5cf0 b83d
00000170: d018 d3b9 ca47 85bc 4a43 d5bc ac29 3ebc
00000180: c631 e1bc e6af 8fbd f6c6 663d 162f 5bbc
00000190: edba 5bbc 3cf6 44bc 8382 eb3c 3f69 eb3c
000001a0: c300 bebb da60 043d 47ae 52bc 39c3 71bc
000001b0: 41d3 88bc e51f e03c 52ff 663d dba9 0ebd
000001c0: 50a3 3bbd 5bb0 9fbd 7492 483d 9d30 3f3d
000001d0: ad88 233d 839b 85bc 5b05 203c c791 a8bc
000001e0: 49cc f6bc f381 7e3c 0596 b9bc 3509 ae3c
000001f0: 3413 5cbc 0467 3abd 0faf 263d 4796 943d
00000200: b1be 8e3c e994 15bc 7057 e7bb 73d5 303d
00000210: c2c6 d4bd 1574 2cbd ccae 31bd 99a6 8e3c
00000220: 942a a93a 18ff a6bd c471 39bd 86a3 ef3b
00000230: a132 693c 9396 afbc b248 43bd 865b b03d
00000240: 8bc5 75bd c1da 1abb 1b35 4bbb 2906 8ebd
00000250: 92c0 56bd f892 843d 8a1c bdbd 4a61 2f3d
00000260: 8a72 a63b 1e0d ad3c 1fb7 0cbc d2a5 68bd
00000270: 2914 0ebd 11cc c3bd 9d6f aeba 06f1 3ebd
00000280: 2c62 5abd f8cd e23b 2cc7 e7bb 94f6 d43c
00000290: 331d e6bd f3ff 8d3d b1d9 89bd d24b fe3c
000002a0: 3843 533c 764a 11bd 6904 9b3c c158 e639
000002b0: 227c f9bc e272 813c 2a49 bdbc 9492 c93d
000002c0: fea3 51bd c93e 993c cfc4 cdbc 027a b2bc
000002d0: 59ac c23c 00cb a93d 801d 013e 98dd 383b
000002e0: f5b8 63bd e85f 2c3c b115 8c3d 96f1 e0bc
000002f0: d9b6 35bc bb6b f3bc 0193 2abb dacd 9fb9
00000300: bcb4 1ebd 9dea 483d d967 7ebc 571d 3b3b
00000310: b0b7 a2bd d8eb a8bd c92c a9bd 4bd3 6a3d
00000320: 2aac 083d 604d ef3c cbf7 cf3c 7fe4 4bbd
00000330: e204 283d f59c df3c 5ee0 eb3c 1a65 84bc
00000340: 041d 89bd db74 a9bc 8f05 c53a c222 c2bd
00000350: b014 d5bb fb2d 8938 344a 563d d0bf f8bc
00000360: df85 173d 5919 303d 09d8 b53d 0113 bdbb
00000370: bb37 3a3d 35db 563d 001b bfbc 47be da3d
00000380: 8503 2ebd 8cf7 efbc 9c2e cb3c ad4c 993d
00000390: 971c 6cbb 7a23 833d 115c ae3b 0e12 85bd
000003a0: 9605 aa3d 23f0 ea3c e271 18bb 8afd 953d
000003b0: 0153 403d 7f35 303d 1aae 273d ac33 083d
000003c0: b92b dfbd 4a43 42bd ef43 8dbd e2ab 863c
000003d0: bb79 673d e272 963d 2b8a 3e3d 60c3 f23c
000003e0: 82ee b43b cf76 c83c fd72 fcbc 5119 babd
000003f0: 7c57 053c f586 643c 4476 603d e967 1abb

network.3.bias f4 [282]
0.03234428 0.041106556 -0.025331626 0.026245292 0.01636889 0.028685518 -0.048433963 -0.043494247
0.060179997 0.051416602 -0.039858054 -0.023155311 0.051665537 -0.016846417 0.018182931 0.038089205
-0.046275925 0.029590039 0.091133624 0.013767855 -0.031142747 0.010372564 0.0116657205 -0.04088128
0.023132233 -0.030825779 0.007237932 -0.001510053 0.016743692 0.01984645 -0.007458174 0.00079727743
0.04325899 0.029938476 -0.00032162663 -0.0032761286 0.08029308 0.0069218697 0.0064197206 -0.016170062
-0.018098751 0.023244172 0.06276375 0.07798299 -0.027596992 -0.005968241 -0.014890633 0.043106798
0.04487519 0.040804464 -0.011483866 0.01883732 0.026517186 0.05549943 0.018588183 0.048597015
0.053325333 0.03467467 0.060942344 -0.01590454 0.011584035 0.026945043 -0.020388942 0.015453885
-0.039652407 -0.007789015 0.035310317 0.01471119 0.01142476 0.0054438515 -0.025373518 0.016503429
0.014278785 -0.03787252 0.047707587 0.071614005 0.07521537 -0.05697022 0.0052824127 0.0001409129
0.057578932 0.0058643934 0.094015636 -0.005670454 -0.0379108 -0.08464903 0.021997876 0.014177589
-0.035670493 0.028052986 -0.04798677 -0.03656099 0.0067838077 0.040649675 0.012542463 -0.04607239
0.072960846 -0.01661387 0.001671312 -0.044702128 -0.061908264 0.09617727 0.031350505 0.0529996
0.0062846607 0.0470391 0.031738713 0.04761028 -0.039505254 0.023744341 -0.012562349 0.03701357
0.043403126 -0.015225419 0.022116078 0.0043678833 0.04886461 -0.044844776 0.05566675 0.007304814
0.048852347 0.006027289 0.0032550497 0.013093326 0.0022808702 0.019018892 -0.059633866 -0.011887599
-0.01159031 0.02253352 0.0073325294 0.044743106 0.029482704 -0.048725467 0.0042731883 0.060088247
0.040212862 -0.048908353 0.03829223 0.08989022 0.0012940142 0.00966858 0.06446871 0.033686493
-0.04259235 -0.013892184 -0.038433466 -0.00053276686 0.11327767 0.010494325 0.0918121 -0.024020733
0.057501376 0.0117867505 0.049986396 -0.020817695 0.08343211 0.010195392 0.06533022 0.094777934
0.0998244 -0.015279476 0.039690495 0.022770355 0.06254797 0.0011281323 0.084931545 -0.046120822
-0.025849544 -0.077731185 -0.020719906 -0.018205622 0.028785821 -0.032469127 0.05909577 -0.011794367
0.031269442 0.0059975213 0.00480872 -0.07149628 -0.07042857 -0.008424088 0.06632183 0.06037602
0.033054262 -0.07846919 -0.0341992 0.0054835584 -0.013023681 0.07651841 0.01768799 0.013684292
-0.019322464 -0.030839652 0.028844643 0.03747208 -0.031256493 -0.011470321 -0.011694002 0.066407494
0.019007241 -0.010512676 0.03132735 0.06799047 -0.0659806 -0.030528476 0.03576756 0.03207222
0.0064755906 -0.015030687 0.008665264 -0.016521309 -0.029085852 -0.031147378 -0.051436685 -0.006733838
0.07910724 0.0106585855 -0.055220246 0.06008925 -0.043815423 0.037615016 0.018994184 0.049074113
-0.0026973346 0.038378444 0.054742113 0.0037250193 0.05296348 0.02703257 -0.029376468 -0.0021685741
-0.015659217 0.100460716 -0.045447506 -0.017031731 0.0038325922 -0.0019743303 -0.025224129 0.05817125
0.005372077 0.018404428 -0.046516024 0.047807384 0.04103762 0.023501582 -0.006450134 -0.065747045
0.033997465 -0.040452812 0.030792762 -0.0019864198 0.061249156 0.060780022 -0.010313016 0.0067189657
00000000: 707b 043d 595f 283d 4584 cfbc 5e00 d73c
00000010: 0d18 863c e4fd ea3c b162 46bd 0627 32bd
00000020: 4d7f 763d 379a 523d 3342 23bd 35b0 bdbc
00000030: 3e9f 533d 7f01 8abc 5ff4 943c 6d03 1c3d
00000040: d38b 3dbd cf66 f23c 44a4 ba3d 9292 613c
00000050: 131f ffbc b0f1 293c 9421 3f3c 2173 27bd
00000060: cf7f bd3c 5886 fcbc 2d2c ed3b f9ec c5ba
00000070: 112a 893c 0695 a23c b363 f4bb 6200 513a
00000080: 5730 313d 8941 f53c ff9f a8b9 51b4 56bb
00000090: b370 a43d dad0 e23b 855c d23b 1477 84bc
000000a0: d543 94bc 906a be3c 488a 803d 8cb5 9f3d
000000b0: 1613 e2bc 3c91 c3bb d7f7 73bc c190 303d
000000c0: 0ccf 373d 9522 273d d326 3cbc b950 9a3c
000000d0: 923a d93c 5f53 633d 3f46 983c aa0d 473d
000000e0: aa6b 5a3d 0707 0e3d ae9e 793d 3d4a 82bc
000000f0: f7ca 3d3c dabb dc3c b606 a7bc 4b32 7d3c
00000100: 906a 22bd fe3a ffbb 8da1 103d 3407 713c
00000110: eb2e 3b3c 5662 b23b 20dc cfbc 3332 873c
00000120: 91f1 693c 3720 1bbd 0869 433d 5daa 923d
00000130: 840a 9a3d 9b59 69bd 1718 ad3b 05c2 1339
00000140: e3d7 6b3d 192a c03b 458b c03d 37cf b9bb
00000150: 5b48 1bbd 785c adbd e434 b43c 1e49 683c
00000160: 391b 12bd 60cf e53c c68d 44bd fac0 15bd
00000170: b44a de3b 4680 263d e77e 4d3c 67b6 3cbd
00000180: 7f6c 953d d019 88bc ed0f db3a 9419 37bd
00000190: 8593 7dbd 97f8 c43d 6369 003d 1c16 593d
000001a0: 8eef cd3b 12ac 403d 7400 023d ff02 433d
000001b0: 43d0 21bd 7e83 c23c 50d2 4dbc 8b9b 173d
000001c0: 7ac7 313d 0974 79bc c72c b53c 7620 8f3b
000001d0: 4226 483d 28af 37bd d102 643d 395d ef3b
000001e0: 6619 483d 9180 c53b ac52 553b 6485 563c
000001f0: a77a 153b 82cd 9b3c a442 74bd 34c4 42bc
00000200: 49e5 3dbc 3798 b83c b745 f03b 8c44 373d
00000210: b685 f13c 5b94 47bd 1a06 8c3b 181f 763d
00000220: 3eb6 243d 2054 48bd 50d8 1c3d 5d18 b83d
00000230: e99b a93a f768 1e3c 2c08 843d d9fa 093d
00000240: 5175 2ebd 0b9c 63bc 696c 1dbd 61a9 0bba
00000250: 20fe e73d 64f0 2b3c fb07 bc3d 21c7 c4bc
00000260: 9086 6b3d 371d 413c 89be 4c3d df89 aabc
00000270: 74de aa3d 930a 273c dacb 853d ef1a c23d
00000280: bc70 cc3d c456 7abc 8092 223d e588 ba3c
00000290: 2619 803d d7dd 933a 97f0 ad3d 30e9 3cbd
000002a0: 6cc2 d3bc 8731 9fbd cbbc a9bc f523 95bc
000002b0: 3ed0 eb3c 59fe 04bd 680e 723d 293d 41bc
000002c0: 6314 003d db86 c43b 7892 9d3b a46c 92bd
000002d0: db3c 90bd 3005 0abc bdd3 873d d84c 773d
000002e0: e863 073d 74b4 a0bd 7614 0cbd 6caf b33b
000002f0: 4761 55bc afb5 9c3d 67e6 903c 1534 603c
00000300: 254a 9ebc 70a3 fcbc 9a4b ec3c 537c 193d
00000310: cf06 00bd 03ee 3bbc 3398 3fbc a700 883d
00000320: 13b5 9b3c 5c3d 2cbc 1b51 003d 963e 8b3d
00000330: d620 87bd db16 fabc 0181 123d 295e 033d
00000340: 3131 d43b 4543 76bc c0f8 0d3c b257 87bc
00000350: 7445 eebc c928 ffbc 46af 52bd 87a7 dcbb
00000360: fa02 a23d 59a1 2e3c a02e 62bd 2520 763d
00000370: cd77 33bd 3412 1a3d b199 9b3c f001 493d
00000380: c4c5 30bb b732 1d3d 4439 603d 741f 743b
00000390: 3cf0 583d 6973 dd3c eba6 f0bc a31e 0ebb
000003a0: c247 80bc 59be cd3d 2a27 3abd 2186 8bbc
000003b0: 3a2c 7b3b c463 01bb d5a2 cebc fa44 6e3d
000003c0: 4008 b03b e2c4 963c 9687 3ebd add1 433d
000003d0: 1017 283d 6486 c03c a55b d3bb 63a6 86bd
000003e0: ed40 0b3d d9b1 25bd 1a41 fc3c 982e 02bb
000003f0: 65e0 7a3d 79f4 783d edf7 28bc c52a dc3b

network.6.weight f4 [141, 282]
0.02153417 -0.039051857 0.06481414 0.02423252 0.11166101 0.033788692 -0.11164042 0.1197136
-0.020479329 -0.048110973 0.0884063 -0.02492344 -0.07417798 0.008242914 0.08749139 0.015128054
0.035813484 -0.14519201 -0.068492904 -0.009795576 0.097176984 0.003884689 0.13850208 0.023561163
-0.057444897 0.17756225 -0.044407554 0.13399057 0.075252056 0.08634309 0.12911768 -0.07537885
0.046346027 -0.04789618 0.18691415 -0.06798138 0.01329482 0.0585053 0.018720083 -0.069629915
-0.049730305 -0.03865927 -0.15021025 -0.03527023 0.015937153 0.06416498 -0.007434054 0.11255555
0.054793604 -0.050216597 0.07267088 0.07321213 0.089218356 0.038299717 -0.078880295 0.0037123517
-0.0055598053 0.016647015 -0.08908377 -0.007930598 0.09901806 -0.060949948 0.008837422 0.029569473
-0.025978683 -0.021784578 -0.20228136 -0.00828988 0.08757948 0.014189861 0.04714198 -0.03799906
-0.014634588 -0.09899032 -0.1822989 -0.009337147 -0.062460195 -0.092825405 0.0077095507 0.07124133
0.14632651 -0.08003421 -0.024063693 0.08121668 0.033163868 0.090692 0.09412124 0.11064402
0.09110648 0.06717823 -0.015117691 0.095653854 0.07412623 -0.024601258 -0.0140975565 0.07104794
-0.1265407 0.06049867 -0.015902514 0.11867386 0.10069683 0.06809367 0.076860234 -0.057454214
0.06730702 -0.093420886 -0.070422314 0.01989836 -0.061918173 0.10020405 0.07492283 0.04926247
0.06444266 0.066385016 0.03020778 0.1059078 0.14034283 0.09177336 -0.030463664 0.029202104
-0.046161596 0.04488418 -0.009317756 0.00047689406 0.08347399 -0.029504536 0.07164597 -0.06611431
0.0683177 0.023216922 0.014328126 -0.0855817 -0.007202566 0.09016143 0.03732985 0.0054576937
-0.006341216 0.044241127 0.116355635 -0.1813779 0.015273549 0.0067255474 -0.06804824 -0.03493528
0.15806745 -0.0019829287 -0.006478697 0.035232466 -0.0861642 0.103037715 -0.031344227 0.029855948
0.03266548 -0.043216206 -0.021432467 0.0024378863 0.0240161 -0.067083396 0.010212937 -0.10044822
0.10644411 0.10573187 0.017689707 0.13124911 -0.03900241 -0.009857144 -0.11747159 -0.031433888
-0.0016923279 -0.035708006 -0.034823056 0.08070754 0.028015697 0.045985498 -0.030511994 -0.027326416
0.0056349654 -0.16353773 0.011801474 0.12591682 -0.0023670192 0.037044756 0.165695 -0.081412256
0.008841656 0.03355159 -0.0017625777 -0.0048058997 0.049580034 -0.051542103 0.049670573 -0.09480871
0.062193193 -0.09789556 -0.074549116 0.048348542 0.010201552 0.077316724 -0.14197719 -0.136616
0.082891 0.06611725 0.11183265 -0.04428509 0.12493849 0.0062328624 -0.05069656 0.0028965364
0.0007828609 -0.030059455 0.1328315 -0.12989572 0.017876089 0.0004226257 -0.02166483 -0.11626976
-0.10998675 -0.034368232 0.02441136 -0.010266203 0.045749713 0.11297156 0.04055382 -0.0022373695
0.11630279 -0.13291666 0.061072487 -0.012027184 -0.013250382 -0.022285819 0.029574651 -0.018461179
0.12863873 -0.056076735 0.06447466 -0.124851495 -0.0063464246 0.08507244 -0.073708385 -0.014925146
-0.075693645 0.046389334 0.037570596 -0.019185068 -0.04048873 -0.07143994 -0.028321054 0.13046676
-0.04447047 0.15541749 0.07115048 0.0777677 -0.09429584 0.01778026 0.06395836 0.104502834
00000000: 6d68 b03c d7f4 1fbd 47bd 843d 4783 c63c
00000010: 87ae e43d 0366 0a3d bca3 e4bd 672c f53d
00000020: 44c4 a7bc 0310 45bd 5d0e b53d 3e2c ccbc
00000030: a0ea 97bd 4a0d 073c b02e b33d a8db 773c
00000040: 29b1 123d 37ad 14be 0246 8cbd a07d 20bc
00000050: ba04 c73d 4496 7e3b 7dd3 0d3e 5703 c13c
00000060: 574b 6bbd e1d2 353e b2e4 35bd d334 093e
00000070: c01d 9a3d a5d4 b03d 6d37 043e 3a60 9abd
00000080: 55d5 3d3d c92e 44bd 6c66 3f3e d239 8bbd
00000090: 84d2 593c 41a3 6f3d dc5a 993c 219a 8ebd
000000a0: 01b2 4bbd 2f59 1ebd b7d0 19be 8477 10bd
000000b0: a28e 823c ee68 833d 5d99 f3bb 8683 e63d
000000c0: 426f 603d ebaf 4dbd 78d4 943d 3ef0 953d
000000d0: 1db8 b63d 2ae0 1c3d fe8b a1bd ed4a 733b
000000e0: 072f b6bb 525f 883c 8d71 b6bd 57ef 01bc
000000f0: fbc9 ca3d a7a6 79bd d6ca 103c ae3b f23c
00000100: 3fd1 d4bc 9275 b2bc d822 4fbe 47d2 07bc
00000110: df5c b33d 977c 683c f317 413d e7a4 1bbd
00000120: e9c5 6fbc 70bb cabd 90ac 3abe d5fa 18bc
00000130: 43d6 7fbd 3f1b bebd 66a0 fc3b f9e6 913d
00000140: 9ed6 153e fae8 a3bd 3921 c5bc ee54 a63d
00000150: d6d6 073d babc b93d a3c2 c03d 5599 e23d
00000160: 0996 ba3d bd94 893d 31b0 77bc 2be6 c33d
00000170: 7ecf 973d 9488 c9bc 70f9 66bc 9581 913d
00000180: e393 01be 74cd 773d fd45 82bc 480b f33d
00000190: 243a ce3d b274 8b3d e668 9d3d 1c55 6bbd
000001a0: 43d8 893d 7353 bfbd 9339 90bd e301 a33c
000001b0: e99d 7dbd c837 cd3d 2471 993d 72c7 493d
000001c0: 83fa 833d def4 873d 4e76 f73c 30e6 d83d
000001d0: 08b6 0f3e acf3 bb3d ef8e f9bc 4039 ef3c
000001e0: f113 3dbd 79d8 373d 80a9 18bc a307 fa39
000001f0: 69f4 aa3d 7fb3 f1bc 1fbb 923d f066 87bd
00000200: 26ea 8b3d 6a31 be3c 84c0 6a3c 7545 afbd
00000210: 8103 ecbb 8ea6 b83d 2fe7 183d 74d6 b23b
00000220: fac9 cfbb 2f36 353d dd4b ee3d 21bb 39be
00000230: e83d 7a3c fb61 dc3b e05c 8bbd 4c18 0fbd
00000240: 6fdc 213e 06f4 01bb 404b d4bb eb4f 103d
00000250: db76 b0bd 7005 d33d ce62 00bd 7694 f43c
00000260: 3dcc 053d 7a03 31bd 2493 afbc f2c4 1f3b
00000270: 6abd c43c 0563 89bd 2a54 273c ccb7 cdbd
00000280: 5fff d93d f389 d83d 01ea 903c 2b66 063e
00000290: fec0 1fbd dc7f 21bc f294 f0bd d2c0 00bd
000002a0: 1ad1 ddba 8f42 12bd 9fa2 0ebd ff49 a53d
000002b0: 2d81 e53c 4a5b 3c3d 4af4 f9bc a6db dfbc
000002c0: 84a5 b83b 6f76 27be f85a 413c 57f0 003e
000002d0: fe1f 1bbb 3ebc 173d f3ab 293e 78bb a6bd
000002e0: 98dc 103c 646d 093d 4b06 e7ba cf7a 9dbb
000002f0: 6f14 4b3d d01d 53bd 5f73 4b3d 122b c2bd
00000300: 4abe 7e3d 787d c8bd 35ad 98bd 1f09 463d
00000310: 6924 273c 3b58 9e3d 7862 11be 11e5 0bbe
00000320: c2c2 a93d 7b68 873d 8408 e53d 4864 35bd
00000330: c0df ff3d 0a3d cc3b 32a7 4fbd d1d3 3d3b
00000340: e838 4d3a 3f3f f6bc fb04 083e 6203 05be
00000350: e070 923c dc93 dd39 717a b1bc d71e eebd
00000360: bc40 e1bd b4c5 0cbd 55fa c73c 9433 28bc
00000370: 0d64 3b3d a25d e73d c31b 263d d5a0 12bb
00000380: 2830 ee3d 4e1b 08be 2527 7a3d aa0d 45bc
00000390: 2118 59bc c090 b6bc 8a46 f23c e63b 97bc
000003a0: dfb9 033e b8b0 65bd 4a0b 843d 24b2 ffbd
000003b0: abf5 cfbb 763a ae3d 6cf4 96bd 9988 74bc
000003c0: 4505 9bbd be02 3e3d a0e3 193d 012a 9dbc
000003d0: 83d7 25bd 1a4f 92bd 8e01 e8bc 1499 053e
000003e0: ab26 36bd c325 1f3e 58b7 913d ac44 9f3d
000003f0: 2d1e c1bd e8a7 913c 9afc 823d 9505 d63d

network.6.bias f4 [141]
0.045882214 -0.03499228 0.03601498 -0.035287924 0.0025282283 0.061559655 0.024747172 -0.03032955
0.044374455 0.029699158 0.08158113 0.056825984 -0.041914474 0.023568247 0.0064678323 -0.041328777
0.11206728 0.021515938 0.0210055 0.0882958 -0.0133161545 0.029566815 0.0559623 0.09250033
-0.03612609 -0.0061109364 0.03101171 -0.027521992 -0.07084589 0.112620905 0.089664064 0.054905586
0.02280116 0.10378603 0.025931774 0.11440492 -0.016368063 0.050222166 0.08518801 0.040799722
0.059890043 0.049735505 -0.046748854 -0.014548264 0.0028711136 0.028628241 0.010114934 -0.0012206745
-0.01752322 -0.0057188366 -0.04222767 0.07263755 0.04082069 0.015887473 -0.023645876 0.041247156
0.061986342 0.088156946 -0.07804267 0.11464165 0.00936634 -0.002495221 0.047818743 0.05889081
0.02037538 -0.003750984 0.04169264 0.0013297062 0.027930815 0.05424891 0.09440718 -0.006582079
-0.05718377 0.066230096 -0.0022623793 0.04389767 0.09486887 0.036414623 0.05828633 0.04013534
0.08167494 0.14983407 0.12405415 0.07642517 0.085393675 0.0482659 -0.03771867 -0.0068501933
0.033402286 0.02391606 0.0072226715 0.064552255 0.08073929 0.01781569 0.11371888 0.0023870019
0.009858754 0.013456235 0.021281835 0.08046744 0.027942948 0.042247366 0.061101507 0.057132002
0.059297632 0.101218164 -0.011960717 0.05148314 -0.030215845 0.03156204 0.07612137 0.01982978
0.0038905803 -0.005839362 0.0014085387 0.05736604 0.051833134 0.032602817 0.017735329 0.025802733
0.05032916 0.073993005 0.10448577 0.021515729 0.10866378 0.09773707 -0.07125953 0.10473285
0.010318161 0.0016930032 0.048555657 0.028902305 -0.046797737 0.025250517 0.116008334 0.09268496
-0.0316047 -0.0527347 -0.01407933 0.0556532 0.022448586
00000000: fdee 3b3d 1154 0fbd 7284 133d 128a 10bd
00000010: a2b0 253b fa25 7c3d 95ba ca3c ad75 f8bc
00000020: fdc1 353d a64b f33c 0214 a73d 5dc2 683d
00000030: 83ae 2bbd 3212 c13c 1cf0 d33b 5d48 29bd
00000040: 8883 e53d 3142 b03c ba13 ac3c 6ed4 b43d
00000050: 002c 5abc 1b36 f23c ba38 653d d070 bd3d
00000060: f3f8 13bd 403e c8bb 450c fe3c cd75 e1bc
00000070: a617 91bd caa5 e63d cba1 b73d aee4 603d
00000080: 80c9 ba3c c58d d43d df6e d43c 204d ea3d
00000090: 5116 86bc c2b5 4d3d 0d77 ae3d 9c1d 273d
000000a0: 434f 753d 75b7 4b3d ba7b 3fbd d85b 6ebc
000000b0: 4b29 3c3b c685 ea3c 1cb9 253c 0aff 9fba
000000c0: db8c 8fbc 1465 bbbb ecf6 2cbd ffc2 943d
000000d0: 9933 273d 7226 823c ffb4 c1bc c7f2 283d
000000e0: 64e5 7d3d a18b b43d d6d4 9fbd 3ec9 ea3d
000000f0: 4775 193c dd86 23bb 96dd 433d 7d37 713d
00000100: 45ea a63c 12d3 75bb e7c5 2a3d 8949 ae3a
00000110: 2acf e43c 1b34 5e3d 8d58 c13d 7bae d7bb
00000120: 8739 6abd a5a3 873d 6d44 14bb 0bce 333d
00000130: 9c4a c23d 8027 153d a6bd 6e3d f464 243d
00000140: 3145 a73d 1a6e 193e 1a10 fe3d cd84 9c3d
00000150: e1e2 ae3d 77b2 453d e47e 1abd 9677 e0bb
00000160: d6d0 083d 9deb c33c 29ac ec3b f933 843d
00000170: a45a a53d 36f2 913c 72e5 e83d 3f6f 1c3b
00000180: 9d86 213c 8a77 5c3c 3e57 ae3c 1dcc a43d
00000190: 9ce8 e43c 930b 2d3d 9345 7a3d 3f03 6a3d
000001a0: 13e2 723d 784b cf3d e2f6 43bc fcdf 523d
000001b0: 3887 f7bc 3347 013d 85e5 9b3d 1072 a23c
000001c0: 1bf9 7e3b 1e58 bfbb b79e b83a a7f8 6a3d
000001d0: fb4e 543d 888a 053d ae49 913c 4160 d33c
000001e0: f325 4e3d a589 973d a3fc d53d c141 b03c
000001f0: 1e8b de3d 5f2a c83d 84f0 91bd 2d7e d63d
00000200: 810d 293c c3e7 dd3a 4ce2 463d 87c4 ec3c
00000210: fcae 3fbd 2cda ce3c c795 ed3d 9dd1 bd3d
00000220: ee73 01bd 5700 58bd fdac 66bc 9cf4 633d
00000230: 19e6 b73c

network.9.weight f4 [21, 141]
0.12600338 0.11663816 -0.27447063 -0.115990296 0.0981919 0.069456585 0.10641774 0.12852444
-0.14982179 0.10153394 -0.03087791 0.0108576 -0.12370653 0.008026339 -0.16279529 0.026181636
-0.08393143 0.032393508 0.17171068 0.038983718 -0.23664263 -0.13625237 -0.09881681 0.10582048
-0.1628886 -0.14531521 -0.15075177 0.12816119 0.13628872 0.019195478 -0.0022450176 -0.05081609
-0.082678184 -0.023521012 -0.05937601 0.06866178 -0.31005558 0.055612337 0.0913579 0.037584137
-0.062425803 -0.08303334 0.10739189 -0.17523345 -0.25225836 0.07320473 0.039738763 0.0808926
-0.27825332 -0.27733067 -0.1469657 -0.3329447 -0.058378045 0.11254279 -0.21582526 -0.08214567
-0.025764419 -0.014348428 -0.25302967 0.08674352 -0.08343762 0.08185766 -0.12748551 0.011273935
0.106210455 0.09620319 -0.1875662 -0.16773719 0.03363402 -0.2712485 0.10420437 -0.18582636
-0.20231193 -0.15131412 0.09377563 -0.22229086 -0.20160902 0.13970618 0.049467187 0.08214447
0.07879944 0.03202941 0.052737128 0.014880017 -0.014986174 0.11029048 -0.20989725 -0.0056692767
-0.18677312 0.24432825 0.09151772 -0.032440986 0.10230698 0.120718256 -0.1504491 -0.22299443
0.020921173 0.13447769 0.09103605 0.06565103 -0.20275706 -0.09333285 -0.057601433 0.055989802
0.14793092 0.041562494 0.07890732 -0.28427622 0.002955874 -0.08732733 0.08111859 0.05109343
-0.1515618 -0.2243936 0.07110461 -0.16874582 -0.26396334 0.0655115 0.0005310662 -0.2492773
0.068775445 0.12460788 0.127244 0.09831019 0.10418499 -0.14325687 -0.2152716 -0.20875005
0.0027618844 0.045812476 -0.23417997 -0.2872274 0.041664682 0.023351468 0.036809046 0.096664235
-0.09925316 -0.0017568646 0.06652661 0.050358817 0.0021544644 -0.2846252 0.08580873 -0.19049492
-0.15391795 -0.18118712 -0.17989203 0.09194084 -0.22173409 0.050406966 0.06875804 0.06997353
0.09059975 -0.07688859 -0.06844981 0.038286477 -0.054548725 0.12103826 0.030374939 0.070999324
0.08033303 0.08768743 -0.10017243 0.07349048 -0.2511298 -0.21167298 -0.22367518 -0.010812693
-0.22506973 -0.24584529 0.1002687 -0.06155515 0.1551165 0.060523003 0.01569642 0.07527857
0.089078076 0.012921867 0.080227755 0.08372936 0.06509089 0.14865935 0.023784867 -0.20061935
-0.21360336 0.09539927 0.08274132 0.0785433 -0.016539123 -0.36953995 -0.04997508 -0.14004306
0.0554522 -0.045757324 -0.2700422 -0.18534414 0.10030956 0.008075343 0.061732348 -0.18001072
0.068731 -0.11748926 -0.17002262 -0.2017117 -0.054424375 -0.09597021 0.06800671 -0.15969917
-0.14500524 -0.19120039 -0.08834003 0.07774331 0.11575166 -0.26578853 0.09876986 -0.14636965
-0.03353049 -0.1398957 -0.0032916497 -0.039765596 -0.24364093 -0.08734678 0.09932187 0.1363112
0.06358598 0.09058069 0.11982709 0.10839169 -0.31770703 -0.024537962 -0.1773991 0.12236468
0.109989755 0.050605923 -0.10134084 0.02169432 -0.057618305 -0.1917853 -0.11927028 0.087313786
-0.009699979 0.15278478 -0.1741102 -0.05798795 0.094665036 -0.059268855 0.1037032 -0.06591678
-0.17633308 -0.07672694 -0.26765963 0.0031696977 -0.019697793 0.08900912 0.10039819 0.09981573
00000000: 0807 013e fddf ee3d 6a87 8cbe 528c edbd
00000010: d618 c93d 413f 8e3d 8bf1 d93d e99b 033e
00000020: e26a 19be 07f1 cf3d acf3 fcbc 13e4 313c
00000030: d959 fdbd e880 033c cfb3 26be df7a d63c
00000040: 3ee4 abbd 0eaf 043d edd4 2f3e 64ad 1f3d
00000050: 7252 72be be85 0bbe 7860 cabd 68b8 d83d
00000060: 45cc 26be 83cd 14be ac5e 1abe b03c 033e
00000070: 458f 0b3e d63f 9d3c 2521 13bb 8824 50bd
00000080: 2e53 a9bd 23af c0bc 4234 73bd 8c9e 8c3d
00000090: 9bbf 9ebe c3c9 633d da19 bb3d d3f1 193d
000000a0: 33b2 7fbd 620d aabd 47f0 db3d 6670 33be
000000b0: 0228 81be 5dec 953d 1dc5 223d 05ab a53d
000000c0: 3877 8ebe 49fe 8dbe 2d7e 16be ba77 aabe
000000d0: d11d 6fbd d67c e63d 4c01 5dbe fd3b a8bd
000000e0: e70f d3bc ab15 6bbc 1b8d 81be 96a6 b13d
000000f0: 58e1 aabd fda4 a73d 908b 02be 50b6 383c
00000100: de84 d93d 2e06 c53d 5b11 40be 4cc3 2bbe
00000110: d3c3 093d 15e1 8abe 1a69 d53d 4449 3ebe
00000120: dc2a 4fbe 17f2 1abe 700d c03d 37a0 63be
00000130: 9872 4ebe 230f 0f3e 1b9e 4a3d 5c3b a83d
00000140: 9a61 a13d 4531 033d e302 583d 51cb 733c
00000150: 9288 75bc fadf e13d 4eef 56be 57c5 b9bb
00000160: 7441 3fbe 2f31 7a3e a46d bb3d d7e0 04bd
00000170: 5286 d13d 223b f73d 540f 1abe a758 64be
00000180: e162 ab3c 85b4 093e 1c71 ba3d 0c74 863d
00000190: 8c9f 4fbe 4b25 bfbd 7bef 6bbd 9055 653d
000001a0: 347b 173e 6f3d 2a3d 299a a13d a78c 91be
000001b0: 56b7 413b acd8 b2bd 8121 a63d 5847 513d
000001c0: 0433 1bbe 70c7 65be 4b9f 913d b4cb 2cbe
000001d0: 3426 87be e52a 863d 4037 0b3a 8c42 7fbe
000001e0: 24da 8c3d 6b32 ff3d 404c 023e da56 c93d
000001f0: f15e d53d eeb1 12be 2970 5cbe 93c2 55be
00000200: bb00 353b dda5 3b3d e0cc 6fbe 780f 93be
00000210: 96a8 2a3d 944b bf3c 15c5 163d e6f7 c53d
00000220: 3e45 cbbd 9846 e6ba 1a3f 883d 0c45 4e3d
00000230: ea31 0d3b 65ba 91be 7dbc af3d 1a11 43be
00000240: ab9c 1dbe 1e89 39be 9e35 38be 7b4b bc3d
00000250: 430e 63be 8977 4e3d 04d1 8c3d 484e 8f3d
00000260: 5d8c b93d c477 9dbd 6a2f 8cbd 48d2 1c3d
00000270: 7c6e 5fbd e8e2 f73d ddd4 f83c 1868 913d
00000280: a585 a43d 7895 b33d 3427 cdbd 2d82 963d
00000290: 1694 80be cdc0 58be 1b0b 65be b927 31bc
000002a0: ae78 66be debe 7bbe ad59 cd3d 4121 7cbd
000002b0: dcd6 1e3e f8e6 773d c795 803c a72b 9a3d
000002c0: 916e b63d 3db6 533c 734e a43d 4c7a ab3d
000002d0: 5f4e 853d 283a 183e 7bd8 c23c 296f 4dbe
000002e0: d7ba 5abe b160 c33d 4874 a93d 4fdb a03d
000002f0: 0e7d 87bc 5734 bdbe abb2 4cbd 7367 0fbe
00000300: d921 633d 086c 3bbd f942 8abe dbca 3dbe
00000310: 196f cd3d 724e 043c 0fdb 7c3d bb54 38be
00000320: d7c2 8c3d 369e f0bd 691a 2ebe 838d 4ebe
00000330: 18ec 5ebd 088c c4bd 1a47 8b3d 2e88 23be
00000340: 417c 14be 09ca 43be 9eeb b4bd e237 9f3d
00000350: 350f ed3d 6f15 88be da47 ca3d ede1 15be
00000360: 4457 09bd d240 0fbe b8b8 57bb 40e1 22bd
00000370: 027d 79be dee2 b2bd 4469 cb3d 2a95 0b3e
00000380: 5e39 823d 5e82 b93d e867 f53d 76fc dd3d
00000390: 7faa a2be d603 c9bc 1ca8 35be 559a fa3d
000003a0: 4f42 e13d 2848 4f3d c98b cfbd 49b8 b13c
000003b0: 2c01 6cbd 5e63 44be fa43 f4bd 92d1 b23d
000003c0: a9ec 1ebc 9d73 1c3e f249 32be c684 6dbd
000003d0: bedf c13d e6c3 72bd 5862 d43d 60ff 86bd
000003e0: a990 34be 0423 9dbd af0a 89be b4ba 4f3b
000003f0: 445d a1bc 6a4a b63d 919d cd3d 306c cc3d

network.9.bias f4 [21]
-0.0024200936 0.022357784 0.057951715 0.038021572 0.046654835 -0.04215087 0.05184826 -0.09118052
-0.108555906 0.1042099 0.07710772 0.064188465 -0.0743709 0.08647953 0.030368565 -0.038679842
-0.048544616 -0.057141073 -0.107263 -0.043408126 -0.1130866
00000000: 6f9a 1ebb ac27 b73c c75e 6d3d 82bc 1b3d
00000010: 2419 3f3d 64a6 2cbd d75e 543d dabc babd
00000020: 8f52 debd 006c d53d a7ea 9d3d 3e75 833d
00000030: c54f 98bd 2e1c b13d 7fc7 f83c c16e 1ebd
00000040: b8d6 46bd c20c 6abd b4ac dbbd b8cc 31bd
00000050: f399 e7bd
