models/NeuralNetwork-1_acc-55.33_loss-0.000002.pth (torch, 893391 bytes, 8 tensors)

network.0.weight f4 [423, 141]
00000000: 920a 9bbc 1933 883d e82c f43c 37a2 a63d
00000010: 4123 633c 2d67 d4bc 9681 57bd 04c3 1bbc
00000020: 51e5 ef3c 5731 b33d 9dee a73d f363 ec3d
00000030: e0de b13d bf9f 8e3d 7ee1 d93c be2a 1a3e
00000040: c559 c7bd 559d 96bb 275d d0bb fb06 30bc
00000050: 114e 063d 9137 b73d 1678 a6bd a7d2 5ebd
00000060: 8904 36bd 2d33 a63b 67be eb3d 09b4 b83c
00000070: 738d 1bbe 5ead 47bc 83e9 57bd 640e 9ebd
00000080: dd25 153d a5c8 b03c b9bf 383c d059 bc3c
00000090: 4f19 b439 29f7 11bc 5a27 243d 0851 87bd
000000a0: 141b fd3d bfe0 423d 1627 1b3d 03f3 fc3d
000000b0: cecf 8abd 47fa 613d 050b 9439 3e70 96bd
000000c0: 9e70 4a3d 9460 883d 7a70 e53d f6db 873b
000000d0: 3d5f 543d 4a38 c13b 4b8a 573d a6f7 073e
000000e0: ccff 9b3d 9df3 803c c1c4 c3bc 9c69 143d
000000f0: e2b3 673d 1b6f 953c a2c5 0cbd ddb1 813d
00000100: 4919 9a3d d866 37bd 7ff3 423d 5725 b23c
00000110: 07bb c8bd 14de 0cbe f316 b93b 547b 03be
00000120: ef65 15be 57ec ebbc 472e 0fbd 608f a4bc
00000130: ad1f a63c 4596 f4bc c656 2fbd 9d63 a83d
00000140: 88f9 93bd 9e58 443c fd65 9c3d 24ef 25be
00000150: 33bf efbc 4f70 f23d cc72 e23d bad9 8b3d
00000160: 3c15 a63d f317 973d 5c4e 87bd ffb7 87bd
00000170: 2d3b f63d 52f2 6f3d 55c3 553d f8f0 96bd
00000180: f900 823d c813 fbbb 3257 233d e34d 383d
00000190: b3cf 36bd 4c6b a53b dedd 2b3d 2fd8 043d
000001a0: b78b f3bd c9ef 4e3d b12b 90bd b365 043d
000001b0: ebca 943d fa19 213e 64e1 f23c 9b11 84bd
000001c0: db43 04bd b420 d8bb 6875 3cbd 9665 9b3d
000001d0: c459 53bd c368 0b3d 87b4 e6bd 0244 f73d
000001e0: 87ec 6abd 73fc 6b3c 1d80 1e3d 3b58 4d3c
000001f0: 6337 603d 8e18 133e aea6 a7bd 3f0a e53c
00000200: 0fd4 a5bd 4f80 dd3c 64d7 39bc 2783 9bbd
00000210: 4cc6 b13c b70b 823d 8903 673d ddbe 4e3d
00000220: 5ca9 bdbc b1c7 803c b0d1 0f3d 2398 51bd
00000230: 686d 5f3e 02e8 6039 3131 3abd 4355 983d
00000240: 25af bcbc 2a10 a7bd ab82 743c b284 153c
00000250: ad37 8fbc 5f73 2cbc d1db 0d3c 77c4 a33b
00000260: d415 ba3d e3a2 c3b9 11f7 6c3d 576a 2a3d
00000270: cb63 1f3e fc0f 86be 6082 8fbc 34c6 9dbd
00000280: bbb4 78bd f26c 0abd ffcf 8e3d a178 1fbd
00000290: b2c0 8bbd 1759 273d 4e96 e73c 5ab1 cabc
000002a0: 6cb0 dfbd e41c 49bc 2234 10bd 4457 e43b
000002b0: 0412 a2bd b76b 81bd 4d37 943c 7a70 543d
000002c0: 2085 e3bc 7674 993c 05b6 67bd 0643 8d3c
000002d0: 09b9 73bd 6ad5 06bb 0a53 bdbd 665f 3bbc
000002e0: 0dd7 bebd 3b25 4a3c 14f5 af3c bdd8 0dbd
000002f0: 2ef2 433c 43e7 debd 2c6f 52bd ab6f a7bd
00000300: 4a32 c0bb 08c4 c3bb 33bd e2bd b7ef 913b
00000310: 4ae9 ec3d 4e7f d73c 5d31 9cbd 9d7c 3bbc
00000320: 0699 603d 717e 2fbd 4377 413d 0383 823d
00000330: d9e1 cdbc 46b9 8ebc 7edc a23d 3f9b b4ba
00000340: 9f19 903d 4b71 93bd 6440 363c f7a1 39bd
00000350: 4901 43bc 67c8 60bc c290 23bd 65f3 0bbd
00000360: 55c9 b7bd 49e8 b73d 3908 96bc 71e4 f5ba
00000370: 56bc 69bd d945 e33c 4464 0fbd 6b04 8bbc
00000380: ff5a 4f3d 7b99 9abc 88b4 52bd 0daf 70bd
00000390: 1f4a f4bb 4bf1 aabd bce8 55bd 32a1 5d3c
000003a0: 0255 0e3d c933 ea3c a73b f93c c909 9bbd
000003b0: af62 063e 209d 133d 5d70 d3bd 5924 353c
000003c0: c64c cb3d 0e01 83bc 28d6 abba 11bd dbbd
000003d0: 4aaf f1bc f359 a7bd 95ff a63d d412 cdbc
000003e0: eb56 963d 4f18 903d b492 b1bd bc85 8cbd
000003f0: ef58 77bd c9b6 d03c 67b1 013d c954 b9bc
-0.018925939 0.06650371 0.02980657 0.08136409 0.013863386 -0.025928104 -0.052613817 -0.009506945
0.029284151 0.08749645 0.08199809 0.11542501 0.08685088 0.06964063 0.02659678 0.15055367
-0.09733919 -0.004596392 -0.006358761 -0.010743852 0.032789294 0.08946145 -0.08128373 -0.054400112
-0.04443792 0.0050720186 0.11510926 0.022546785 -0.15190677 -0.01218733 -0.05271293 -0.077175885
0.036413062 0.02158005 0.011276179 0.022992045 0.00034351132 -0.008909025 0.04007659 -0.06607252
0.1235868 0.047577616 0.037879072 0.12351038 -0.06777917 0.055170324 0.0002823697 -0.07345627
0.049423806 0.06659046 0.11203094 0.0041460944 0.05184864 0.0058966028 0.05262212 0.13278064
0.07617149 0.015741164 -0.02389753 0.03623353 0.056568034 0.018241456 -0.034368165 0.06332753
0.07524354 -0.044775814 0.047595497 0.02174632 -0.09801298 -0.13756591 0.0056484877 -0.12840015
-0.14589666 -0.028799219 -0.034956243 -0.020087898 0.020278776 -0.02985681 -0.042807363 0.08222125
-0.07225329 0.011984019 0.0763664 -0.16204506 -0.029265976 0.118378274 0.11057052 0.068286374
0.08109519 0.07377615 -0.06606743 -0.06626891 0.12023006 0.058580704 0.052188236 -0.0737018
0.06347842 -0.00766227 0.039878078 0.044996154 -0.04463167 0.005048191 0.041959636 0.03243273
-0.11891883 0.050521646 -0.070395835 0.03232355 0.07265266 0.15732566 0.02964849 -0.064486705
-0.032291275 -0.0065956954 -0.046010405 0.07587735 -0.05159928 0.034035455 -0.112649016 0.12073518
-0.057354476 0.01440345 0.038696397 0.012533243 0.05474032 0.14364836 -0.081860885 0.027958987
-0.080970876 0.027038721 -0.011342857 -0.07593375 0.021701 0.06349891 0.056399856 0.05047499
-0.023152046 0.01572022 0.035112083 -0.05117048 0.21819079 0.00021448734 -0.04545707 0.074381374
-0.023032734 -0.0815738 0.014923732 0.009125875 -0.017482603 -0.0105255535 0.008658365 0.0049977857
0.09086195 -0.00037314658 0.05785281 0.04160532 0.15565412 -0.2618407 -0.017518222 -0.0770382
-0.060719233 -0.033795305 0.06973266 -0.0389334 -0.06823863 0.040856447 0.028269913 -0.024742771
-0.10922322 -0.0122749545 -0.035205968 0.0069684107 -0.079135925 -0.06319373 0.018092776 0.05186508
-0.02777344 0.01873229 -0.05657007 0.017243873 -0.059502635 -0.0020573982 -0.09244354 -0.011436319
-0.093183614 0.012337978 0.021479167 -0.034630526 0.011959596 -0.108839534 -0.051375553 -0.08175596
-0.00586537 -0.0059742965 -0.11071243 0.004453625 0.11567934 0.02630582 -0.07626603 -0.011443284
0.054833435 -0.042845193 0.047232877 0.06372645 -0.025132107 -0.01742233 0.07952212 -0.0013779177
0.07036137 -0.07199343 0.01112375 -0.045320477 -0.011902162 -0.013719655 -0.039932974 -0.034167666
-0.08973948 0.08979852 -0.018314468 -0.0018760097 -0.057064377 0.027743267 -0.03500773 -0.01696988
0.05062389 -0.018872013 -0.0514417 -0.05876069 -0.007455125 -0.08346804 -0.052223906 0.0135272015
0.03474904 0.028589146 0.030423952 -0.07570226 0.13123582 0.036038518 -0.10324166 0.011056029
0.09926753 -0.015991714 -0.0013110088 -0.10729421 -0.02950253 -0.08171453 0.08154217 -0.025033392
0.07340797 0.070358865 -0.086705595 -0.06861445 -0.060387548 0.025477784 0.031663325 -0.022623437

network.0.bias f4 [423]
00000000: 4c28 a7be 57d7 8ebe 4638 54be b264 69be
00000010: a86b 88be 052e 54be e6b2 b6be 199b 8ebe
00000020: 1102 b6be d5e9 ecbd ed37 90be cfdf 4cbe
00000030: 01a7 21be 812a 17be c1d2 5dbd ac98 84be
00000040: fa08 70be 21f3 1cbe c49a 2cbe c0ed 8ebe
00000050: 1f08 a3be 75d0 20be 09de c7bd 7a9d 47be
00000060: 2273 a8be fef9 85be cc27 75be 6176 72be
00000070: 2d00 55be c3b3 0fbe 9122 70be 31c2 b5be
00000080: f15b 2dbe 0438 60be a556 81be 409d 95be
00000090: 0e07 a4be a89e b5be 5dec 77be ce7c 8fbe
000000a0: d443 9cbe 4dcd 1dbe 4df4 6fbe e81a 43be
000000b0: 7964 51be 1522 5dbe 6253 67be 9b68 5bbe
000000c0: decd 8abe 01a3 abbe 8536 79be 8982 54be
000000d0: ad91 69be 696f 73be 20c8 96be 7a7a 8bbe
000000e0: 50df 0bbe ff3c 50be 3a1f 9abe eb76 1ebe
000000f0: 1f50 48be 6b2c 1ebe caac 70be 5da1 f3bd
00000100: 0930 a2be c517 4ebe d56c bbbe 5b9f 8fbe
00000110: 60c7 62be 5ae3 80be ee7c 98be 9121 d2be
00000120: 0b86 7abe 88b5 45be 3b74 30be 5c47 7abe
00000130: a34e 2fbe 0b14 43be 1e01 b9bd 69e7 9ebe
00000140: 1696 87be b383 58be 4e62 4dbe c52b 81bd
00000150: 26a0 57be f48b 68be 7d13 31be 0ff1 afbe
00000160: 3bf3 83be c404 88be d8fd 5dbe b807 bcbe
00000170: 7cd9 43be 6b5c 7dbe a96d 89be be38 88be
00000180: e8ce 1fbe 07ae acbe c614 38be a829 3cbe
00000190: 4608 7bbe 7af2 06be dc72 c7be cd1d e0be
000001a0: 2b5d 84be e8cc f7bd 8ce5 93be 10ef 63be
000001b0: 362b 30be e613 b8bd 262a f5bd aa1c b1be
000001c0: 7fe0 81be f040 4dbe cd83 7fbe c4c6 65be
000001d0: 53d9 5cbe c222 99be 820f 24be 0594 a1be
000001e0: e5a5 8ebe 8300 6cbe cae5 6ebe 0b74 18be
000001f0: 1870 14be 72ae 4fbe 13a3 19be 4cc5 6bbe
00000200: f64a 57be df2c 51be c03f 29be cc52 98be
00000210: 4158 57be 671f 84be 380f 6cbe 9348 eebd
00000220: 8049 1fbe 4967 88be 42ec 78be 8c1d 1ebe
00000230: 381b 67be b358 2dbe 64db aebe 4e4d a8be
00000240: c77f 19be 7015 3abe 8652 85be 714a 95be
00000250: a7d1 12be 5286 13be e3df 91be 9ca1 49be
00000260: 146a a1be c6b7 17be 208a b2be 87fc 18be
00000270: 6fcf 31be 6020 8fbe 8789 33be 5bf7 41be
00000280: bb1a 79be 10f5 53be 5e54 92be 536d a2be
00000290: d366 e3bd 22d4 73be 5d78 2dbe 3129 6dbe
000002a0: e91f d6bd 4c6c 76be 413a 93be b146 62be
000002b0: 87f5 62be 668b b5be 13f4 9dbe e005 5fbe
000002c0: 11c4 7bbe 2c63 22be ed2c 75be 3bb6 53be
000002d0: 08ac c0be 9ffe 87be e8da a2be 0424 5bbe
000002e0: edf3 21be 9ea2 65be fc13 0bbe 0afe cabe
000002f0: 5c22 59be 79ae 52bd ab4c 15be db8c 8bbe
00000300: 8efb 5fbe bfb6 80be 0e00 d6bd 3c0c fbbd
00000310: 1d4b 74be 5dfe 9abe 1eb9 84be 0cb2 49be
00000320: 91f2 53be 6865 49be e161 bbbe e559 78be
00000330: 0212 6abe 18d7 3abe 6a53 5ebe 56a0 9abe
00000340: d948 69be edde 8ebe 730d 94be a266 6bbe
00000350: e5e7 7ebe 981d 31be 2a39 4fbe ff97 4fbe
00000360: a371 45be f2e6 43be c31f 68be 97c5 92be
00000370: 92fb 10be 6d2d 5cbe 4787 0fbe 8d4e 94be
00000380: 78e9 1bbe 5645 95be e678 06be 8664 2abe
00000390: 08f4 b7bd 8b6f 59be 2531 7fbe 2556 97be
000003a0: bf77 93be 1ec0 f5bd c76e 40be 8bb1 81be
000003b0: 59a3 86be 3595 85be 81be 5abe b45d 6dbe
000003c0: aa7d 42be f73f 1abe 33a5 86be 778a 3dbe
000003d0: fbb4 13be 7439 b5be 7623 75be d41d 01be
000003e0: 9aeb 77be 964a b3be 7644 2abe 63e5 76be
000003f0: 6495 32be f61c 69be 95f3 a1bd 0ee6 6ebe
-0.32647932 -0.27898666 -0.20724592 -0.22792318 -0.26644635 -0.2072068 -0.35683364 -0.27852705
-0.35548452 -0.115680374 -0.28167668 -0.20007251 -0.15786363 -0.14762308 -0.05415607 -0.2589773
-0.23440924 -0.15327121 -0.16855913 -0.27915764 -0.31842133 -0.1570452 -0.09759147 -0.19493666
-0.3290034 -0.2616729 -0.23940963 -0.2367797 -0.20800848 -0.14033417 -0.23450686 -0.3549972
-0.16929604 -0.21896368 -0.25261417 -0.29221535 -0.32036632 -0.35472608 -0.24211259 -0.28024906
-0.305205 -0.15410347 -0.23433037 -0.19053233 -0.20448484 -0.21595033 -0.22590402 -0.21426623
-0.2711019 -0.335228 -0.24337204 -0.2075292 -0.22809477 -0.23772968 -0.29449558 -0.2724188
-0.13659406 -0.20335768 -0.3010195 -0.15475051 -0.19561814 -0.15446632 -0.23503414 -0.11896012
-0.31677273 -0.20126255 -0.3660647 -0.28051266 -0.22146368 -0.25173455 -0.29782814 -0.41041234
-0.24465196 -0.1930753 -0.17231838 -0.24441284 -0.17119841 -0.19050615 -0.09033416 -0.31035927
-0.26481694 -0.2114399 -0.20057032 -0.063071765 -0.21057186 -0.22709638 -0.1729259 -0.343636
-0.25771508 -0.26566136 -0.21678865 -0.3672464 -0.19125932 -0.24742286 -0.26841477 -0.2660579
-0.15606272 -0.33726522 -0.17976674 -0.18375266 -0.24514875 -0.13178435 -0.38954818 -0.43772736
-0.25852332 -0.1209963 -0.28886068 -0.22259164 -0.17203984 -0.0898817 -0.1197093 -0.3459218
-0.2536659 -0.20044303 -0.24952622 -0.22439104 -0.21567278 -0.2990933 -0.16021541 -0.31558242
-0.27860942 -0.2304707 -0.23329845 -0.14888017 -0.14495885 -0.2028139 -0.15003614 -0.23024482
-0.21024689 -0.20427273 -0.16528225 -0.2975067 -0.2102976 -0.25805208 -0.2305268 -0.11634936
-0.15555382 -0.266413 -0.24308875 -0.15440959 -0.22568977 -0.16928367 -0.34151757 -0.3287148
-0.1499015 -0.1817224 -0.26039523 -0.29158357 -0.14337789 -0.14406708 -0.28491125 -0.19690555
-0.31526244 -0.14816198 -0.34871006 -0.14940082 -0.17364286 -0.27954388 -0.17532931 -0.18942015
-0.24326603 -0.20698953 -0.28579992 -0.31724033 -0.111035965 -0.23811391 -0.16940446 -0.23160245
-0.10455305 -0.2406475 -0.28755382 -0.22097279 -0.22163974 -0.35457915 -0.30850276 -0.21779585
-0.24586512 -0.15858144 -0.23942919 -0.20674984 -0.3763125 -0.26561448 -0.31807637 -0.21400458
-0.15815707 -0.22425315 -0.13581842 -0.3964694 -0.21204513 -0.05143592 -0.14580028 -0.27255902
-0.21873304 -0.25139424 -0.10449229 -0.12258193 -0.23856778 -0.3027219 -0.25922483 -0.19696826
-0.20698 -0.1966759 -0.36598113 -0.24253042 -0.22858432 -0.18246114 -0.21711507 -0.30200452
-0.22781695 -0.27904454 -0.2891651 -0.2298837 -0.24893148 -0.17296445 -0.2023665 -0.20272826
-0.1928163 -0.19131067 -0.22668366 -0.28666374 -0.14158466 -0.21501704 -0.14016448 -0.2896618
-0.1522578 -0.29154462 -0.13132057 -0.16639909 -0.08982092 -0.21233957 -0.24921091 -0.2955791
-0.28802297 -0.11999534 -0.18792258 -0.25330767 -0.262965 -0.26090398 -0.21361734 -0.23180276
-0.1899325 -0.15063463 -0.26297912 -0.18509851 -0.14424507 -0.35395396 -0.23939309 -0.12609035
-0.24210969 -0.35017842 -0.16627678 -0.24110942 -0.174398 -0.22764954 -0.07907788 -0.23329946

network.3.weight f4 [282, 423]
00000000: 8eef 983d 590c 02bc 5858 17bd 7bd1 e83c
00000010: 4482 06bd 709b 86bb cec5 7f3d c64e 9abd
00000020: 8838 ac3d f918 0bbd b978 50bd 7de7 053d
00000030: ce4b fa3c 8bb7 4dbd 1a71 c7bd 006c 40bc
00000040: f49e 6b3b 3baf ba3b ec96 8fbc 5fe4 11bd
00000050: af83 21bd 2386 52bd f94f 313d 6a75 d73b
00000060: dd13 983d 02c3 85bd d0e0 e03c bc66 00bb
00000070: 2122 16bc 73c6 7e3c 6a8e f6bc f9f2 263d
00000080: 6503 02bd 457d 803d ac5a fcbc bcfe a2bc
00000090: a395 813d 9ca5 3b3d 71d7 9abd c864 e5bc
000000a0: 99e7 c0bc 346e 323c f905 523d 81f5 503d
000000b0: 5ace 383b 6bdf 4bbd e990 593c 221f 08bc
000000c0: 720c 993d 0ca4 8b3d 366b b63d d9f2 ef3c
000000d0: d10b 83bc cd29 b2bc d8eb 04bd 0639 c93b
000000e0: df43 cabc 50b9 b5bd 8e2c 7abd e1ef ed3d
000000f0: dcd8 1bbd 116a 6bbd 1350 993d 52a9 913d
00000100: 7be6 2ebc ba54 76bd 1582 2dbc a692 e63b
00000110: 0271 933d d39a 393d 852b bf3d 27e8 a03c
00000120: 96ba 273d db4e c2bc 2c19 afbc 4594 83bb
00000130: 9b16 6dba fc2f 413c 6db3 063d 89cd 03be
00000140: 825f 82bc cce6 923d 19fa 633d 443d 79bc
00000150: b999 98bd cc04 833d 216d 94bd b3f0 bbbd
00000160: 4adf 5fbd ad5f 403d 1393 d83b 36c6 753d
00000170: ddb6 2fbd 76d6 56bd c954 13bc bbf5 9bbc
00000180: c5f8 5fbc 1837 0b3d eaa5 2a3d 9d81 e5bd
00000190: 60a6 48bd 4ec3 10bd 7335 8a3d f850 11bd
000001a0: 80d2 983d 01f4 a43c 9e40 6e3d 422a f43d
000001b0: bf4a b7bd c189 35bd 90cf 0fbc 5e1e a5bc
000001c0: 123d 0b3d 5f9c 853c d6fa c8bd 19ec 4e3d
000001d0: 0385 10bd 7650 853d f82c e43c 1685 00be
000001e0: 26e1 983d 9cdc b53b 490d 643d 5146 3b3d
000001f0: 3fd4 5b3b 3a91 d03b 88e5 b8bd 7591 2e3c
00000200: eecb b6bc e246 0f3d 7619 cabd 9446 b0bb
00000210: 6919 893c fa2f 9abc 6ac4 a0ba c32e a6bc
00000220: fd6b 29bd b68b 38bd 38e4 13bd e0eb 8ebd
00000230: 01c0 ee3c f6b8 f23a b110 e53d f2e6 bd3d
00000240: 1c07 0fbd c170 86bb e621 d5bc cbf8 23bc
00000250: 5d31 ab3c fbd4 d9bc 5964 ca3c af07 f7bd
00000260: 0d2e 963c d34a 183b 1145 a03c 49ba 313d
00000270: fda1 16bd 1cca 73bd 25b1 813c d2af 8e3d
00000280: 92db 633c 760d cd3c 3664 f7bc 2dd6 62bc
00000290: f688 b33d ebb9 c03c 2cba bfbc 2472 db3c
000002a0: c77f bf3c 31ce 763d 7bc2 e6bc 2061 9c3d
000002b0: 854c 93bd 9c1e b03d 202c bcbd bbb6 d03c
000002c0: fab7 86bd bb6a 23bc 1269 56bd 79db 43bc
000002d0: dc60 043c a28b 213d 4cf1 333d 91a6 38bd
000002e0: 6048 20bc bca6 b0bc f59f a23d c786 76bc
000002f0: f0de 15bd b585 1ebc 38e7 b93b 7d22 433d
00000300: ce62 d03c 535d 14bd bc61 303c 0c10 d23a
00000310: 1f51 2f3c 0039 42bc 6256 6e3d 6f7c 833d
00000320: 8fcb 30bd 7694 bf3d e45a 90bc e48a f73d
00000330: 3d37 ecbb fe25 67bd c0ea 713d 216d 233d
00000340: 8a71 91bd 31ac f13c ea17 2c3d a5ba 363c
00000350: af56 47bc 6561 9f3d 6a53 423c b35b 85b9
00000360: c557 7ebd 1795 363c 735c 8e39 51df 4bbd
00000370: 5ab3 aabc 331e 1dbd 697d 3cbd f439 463c
00000380: 9cc8 bbbc bb6c 8ebd 97be 3d3a fc10 103d
00000390: 0388 4b3d 946b 923d 39cd bf3c bf46 603c
000003a0: 5bb1 a7bb c4b1 a9bd 52d2 f5bb f7d9 213d
000003b0: decb 32bd 791f 55bc 28be ff3c cb61 713d
000003c0: ff4e 18bd 6ce0 923c edd6 d33d 75f7 5abd
000003d0: 55a8 25bd 2e6c 3d3d 99e5 75bd 03d1 3a3c
000003e0: eac4 efbd 026d c9bc 4a0a a13c b523 d2bb
000003f0: 59ba efbc 89c9 a33c e55f c63c 5562 2f3c
0.074675664 -0.007937514 -0.036949486 0.0284202 -0.032839075 -0.004107885 0.0624445 -0.07534556
0.0840922 -0.033959363 -0.05089638 0.032691468 0.030553725 -0.05022387 -0.09738369 -0.011744499
0.0035952898 0.0056971586 -0.01752802 -0.035618182 -0.039432224 -0.051397454 0.04328916 0.006575276
0.074256636 -0.065313354 0.027450949 -0.0019592484 -0.00916341 0.015550244 -0.030097205 0.04075906
-0.03174152 0.06273893 -0.030804954 -0.019896857 0.06327369 0.045812234 -0.075606234 -0.028002158
-0.023547934 0.010890532 0.051275227 0.05101538 0.0028199167 -0.049773615 0.013279178 -0.008308204
0.07473077 0.06818399 0.089071676 0.029290603 -0.015996845 -0.021748448 -0.03245148 0.006140831
-0.024690567 -0.08873236 -0.061077647 0.11618019 -0.03804861 -0.0574742 0.07485976 0.071123734
-0.010675068 -0.060139395 -0.010590096 0.007036525 0.07199289 0.045313668 0.093344726 0.019641949
0.040949427 -0.023719242 -0.021374308 -0.004015478 -0.0009044201 0.0117912255 0.032885958 -0.12871374
-0.015914682 0.07172927 0.055658434 -0.015212361 -0.07451195 0.06397399 -0.07247377 -0.09176769
-0.054656304 0.046966244 0.0066093295 0.06000348 -0.042899 -0.05245062 -0.008992382 -0.019038072
-0.013670151 0.03398809 0.041662134 -0.112063624 -0.048986793 -0.035342507 0.06748476 -0.03547761
0.07462025 0.020135881 0.058167093 0.119221225 -0.089498036 -0.044320825 -0.008777514 -0.020156082
0.033993788 0.016309915 -0.09813468 0.05051813 -0.0352831 0.06509487 0.027853474 -0.12550768
0.07464819 0.0055499803 0.055676732 0.045721356 0.0033543257 0.0063649686 -0.090281546 0.010654797
-0.022314038 0.03497971 -0.098681375 -0.0053795073 0.01673575 -0.018821705 -0.0012265567 -0.02028597
-0.04136275 -0.045055114 -0.03610632 -0.06978583 0.029144289 0.0018518257 0.11184824 0.09272565
-0.03491889 -0.004102797 -0.02601714 -0.010008047 0.020897562 -0.026590815 0.024706053 -0.120620124
0.018332506 0.0023237958 0.019564183 0.043390546 -0.036775578 -0.05951892 0.01583154 0.06967129
0.01390733 0.025030833 -0.030199151 -0.013845009 0.087663576 0.023526153 -0.023404203 0.026787825
0.023376359 0.060255233 -0.028168907 0.076357126 -0.07192329 0.08599588 -0.09188104 0.025477758
-0.065780595 -0.009974177 -0.052346297 -0.011954182 0.008079734 0.039439805 0.04393129 -0.045080725
-0.009782881 -0.02156388 0.07940666 -0.015046782 -0.036589563 -0.009675433 0.0056733154 0.047640312
0.025437739 -0.036221813 0.010765489 0.0016026511 0.010700493 -0.01185441 0.05818785 0.06420218
-0.04316288 0.093544886 -0.017621465 0.12087038 -0.0072087334 -0.056432717 0.059061766 0.039898995
-0.07101734 0.029501053 0.042014994 0.011152898 -0.012166663 0.077822484 0.011860708 -0.00025436058
-0.062095422 0.011143944 0.0002715323 -0.049773518 -0.020837475 -0.03835888 -0.046018038 0.012098778
-0.022922806 -0.069543324 0.0007238178 0.035172448 0.049690258 0.07149425 0.023413287 0.013688742
-0.005117578 -0.08285859 -0.007501879 0.039514508 -0.043651454 -0.013007992 0.031218603 0.058931153
-0.03718471 0.017929278 0.10343728 -0.05345865 -0.040443737 0.046245746 -0.060033415 0.011402371
-0.1170748 -0.024588112 0.019658227 -0.006412948 -0.029263662 0.01999356 0.024215648 0.0107045965

network.3.bias f4 [282]
00000000: ac79 1ebd fa0b 8a3d bdbe 163c b1ff 1e3a
00000010: cde8 fcbc 2be1 09bd 7ed7 4fbd 1cad 04bd
00000020: a74a 723b 2fb6 aebc 0419 f33d 0a6d b03b
00000030: 146b 193d a04c 53bb 9ff6 fe3c aad5 a1bd
00000040: c789 9fbd f9ac 753d bd98 823c f65d 533c
00000050: e4aa 0a3d c0fd 1a3c 1d12 92bc 37aa 73bb
00000060: 4c59 de3c e91f 3a3c 44f1 5f3d e392 5f3d
00000070: 0021 dcbb 70e9 b3bc fd62 85bc fd78 35bd
00000080: 1c1a ddbb 008e 0abd b16a c43d 3156 133d
00000090: 9ec1 a1bc b662 913c 5b51 523c 908e b53d
000000a0: 426f b4bd 0165 c8bb 0d0b b03d 7166 353d
000000b0: 7aa7 2abd 837a 4f3d 2f38 953d 15d9 22bd
000000c0: 08e5 063d b012 383c c883 b93b da8a 2b3d
000000d0: bbe8 1c3d c31c 1ebd d955 b33c 498f 953d
000000e0: 6f8e 4abc c5ec 33bd fd01 b83d f129 a83b
000000f0: 3898 91bd 4a7c 553d 25a4 093d 39c8 d53c
00000100: 15e2 ae39 68bb b8bc 7f93 753d bafe 713d
00000110: bcd8 763d e669 263c 3f54 39bd bbc0 e13b
00000120: 3fba 9d3b 22ec 953c 1846 193d 654a d0bc
00000130: b161 93bd 0e3e 223a a3e4 013d b822 643c
00000140: da3f ec3c 8862 b33b 796d c2bc 4653 b83c
00000150: 4056 f03b e123 15bc 7c22 d53d 63b9 593d
00000160: 7ddd 2e3c b498 9abd 3d13 9fbd 032f 7f3d
00000170: def6 b9bc c55a b53c 5483 103d 4988 53bc
00000180: 523e ca3c e232 4dbb a3ed 083d 5943 4a3d
00000190: 8647 a3bc 0f31 8437 ff28 7b3c 4787 f83c
000001a0: 7cc1 e03c 8447 e93c cffb 37bd 1f9f 9cbc
000001b0: f762 033c 58c5 9c3b 345e 093c 6962 0e3d
000001c0: 5622 073d 5ddc b73d 09a4 c83c b1ef 7e3d
000001d0: 66d7 15bd 166b 453d f11a 823c a309 20bd
000001e0: 56d4 3d3c 4976 46bb 4ee2 aa39 de0a f9bb
000001f0: 825e ef3c 1ba7 3dbc b566 a33c 54cb ae3c
00000200: 528f 873d 4516 833d a34a 0cbd 75dd 4dbd
00000210: 4897 84bd b215 993d ef90 233c e28a 613d
00000220: 778f 82bd 8c8e 10bb 7447 c7bc 822b 213d
00000230: e73a 9b3d fc50 0c3d 7a2d a73b 3661 cc3c
00000240: de86 193d 1439 0f3d cd93 6e3d d64c 9a3c
00000250: bf81 b73d 3110 9abc 2a86 f93c 3fd0 a83d
00000260: dd4a 4b3c 9ea2 343d 979f a5bc 8fc6 67bc
00000270: a641 9e3c b62c 703c 9e60 423d d205 643d
00000280: dadb 743d 2558 b03d 9dd3 973d 39b6 c5bb
00000290: e13b 553c 4a37 47bb c7ee 4d3d 0352 b03d
000002a0: 1ccd 82bc 2641 6c3c 6463 8f3d 1cfb 1f3d
000002b0: 7a65 203d 2b4f 88bc 6450 b83d a7d1 2b3d
000002c0: 6240 66bb d589 133d 8117 6c3d be0c 873d
000002d0: d202 413d 1662 fabc ebea 0e3c d167 b3bd
000002e0: 45d8 37bd 4862 133c bf90 263b 28cf 9d3c
000002f0: ecaf 323d b5b6 10bc 0c61 92bd f317 cdbc
00000300: 250b 56bd 55ac 073d d9c7 bb3d 5b91 8f3c
00000310: bff8 d73c 8652 b4bb b779 243d 2237 03bc
00000320: d344 ba3d b23b d73c 3bc2 e23c a373 593d
00000330: ef40 3f3c 2b5d 653d cfd4 ee3c 88be 35bb
00000340: 3acc 18bd c557 1fba 7644 da3b 10bf bcbd
00000350: 161c bb3d a5d1 2bbc b3c5 973d 6917 9f3d
00000360: 6180 46bd 1922 743c f1bc 033d 9001 01bd
00000370: 4e29 6dbd 8147 623d 809b a23d 488d 7abc
00000380: 711e 363d b4c2 a4bc f7fe 393d 623f 0abd
00000390: aa4a 50bc 7789 a93c 9aab a23c 58ff 833d
000003a0: 07d8 313c 139c 873d d66f 5b3d dcfe 583d
000003b0: 3b31 b03d 46fa 93bd 927c 7a3d 1d18 953a
000003c0: 0ce0 243c bf86 c6bd 1644 d6ba f381 28bb
000003d0: 7157 0cbc 544b 983d 3317 843d 668f 87bd
000003e0: 7f5b 183c 04da 85bd db3e 14bd e50c 363c
000003f0: 62e0 26bd def1 93bd fbac e13c 0963 69bd
-0.038690254 0.067405656 0.009200749 0.00060653227 -0.030872727 -0.033662003 -0.05074262 -0.032391652
0.0036970766 -0.021327106 0.11870006 0.005384092 0.037455633 -0.0032241717 0.031123457 -0.07902081
-0.07789951 0.059979413 0.015941972 0.01290082 0.03385438 0.009459913 -0.017830903 -0.0037180313
0.02714219 0.011360147 0.05467345 0.05458344 -0.006717801 -0.021961898 -0.016282553 -0.044304837
-0.0067474972 -0.033826828 0.09590662 0.03597087 -0.019745644 0.017747264 0.0128367795 0.08865082
-0.08810283 -0.006115556 0.08595858 0.04428715 -0.041663624 0.050653946 0.07286107 -0.039757807
0.032933265 0.011234924 0.0056614615 0.041880466 0.038307887 -0.038601648 0.021891521 0.0730272
-0.01236306 -0.043926973 0.08984754 0.005131953 -0.071091115 0.052120484 0.033603806 0.02609645
0.0003335631 -0.0225503 0.059955116 0.059080817 0.060265288 0.010157084 -0.04524636 0.0068894303
0.004813462 0.018301073 0.037420362 -0.0254261 -0.071963675 0.00061890564 0.031712186 0.013924293
0.02883904 0.0054743923 -0.023733841 0.022500645 0.0073345006 -0.0091027925 0.10406968 0.053155314
0.010672924 -0.07548657 -0.07767341 0.062300693 -0.022700723 0.022138009 0.035281494 -0.012910911
0.02468792 -0.0031310846 0.033429753 0.049380634 -0.019931566 1.575847e-05 0.015329598 0.030337943
0.02743601 0.028476484 -0.044917878 -0.019118844 0.0080192005 0.0047842674 0.008384276 0.03476182
0.03299173 0.08977578 0.02449228 0.062240306 -0.036582373 0.04819783 0.015881987 -0.03907169
0.011586269 -0.0030282906 0.00032593537 -0.0076001724 0.02921987 -0.011575486 0.019946435 0.021337189
0.06619133 0.06400732 -0.034250867 -0.050260026 -0.06474167 0.07474841 0.009983285 0.05506409
-0.0637502 -0.002205762 -0.024326064 0.039348133 0.07579594 0.03425692 0.005101857 0.024948698
0.037482135 0.034966543 0.058246423 0.018835466 0.08960294 -0.018806549 0.030459482 0.08242845
0.0124079855 0.044100396 -0.0202177 -0.014146461 0.019318413 0.014659097 0.047455423 0.055669613
0.05977998 0.08610562 0.07413409 -0.0060336855 0.0130147645 -0.0030397945 0.050276544 0.086093925
-0.015966944 0.0144198295 0.07001379 0.039057836 0.039159276 -0.016639313 0.08999708 0.041947987
-0.003513359 0.03602012 0.057639603 0.06594227 0.04712183 -0.03056435 0.008723001 -0.08760036
-0.044883985 0.0089956 0.0025415865 0.019263819 0.043624803 -0.008832623 -0.071474165 -0.025035834
-0.052256722 0.033123333 0.09168977 0.017525366 0.026363729 -0.0055030016 0.04015514 -0.00800875
0.090951584 0.026273582 0.027680507 0.053088795 0.011673196 0.055997055 0.02915421 -0.0027731974
-0.03730414 -0.00060784473 0.006660993 -0.0921613 0.09136216 -0.010486995 0.07410755 0.07768137
-0.048462275 0.014900708 0.03216261 -0.03149563 -0.05790072 0.055243973 0.079398155 -0.015292473
0.044462625 -0.020112373 0.04540917 -0.033751853 -0.012713114 0.020695431 0.019857217 0.06445187
0.010854728 0.06621566 0.053573452 0.052977428 0.0860314 -0.0722547 0.061153956 0.0011374984
0.010063183 -0.096936695 -0.0016347195 -0.0025712221 -0.0085657695 0.07436243 0.064497374 -0.06619148
0.009299158 -0.06535724 -0.036192756 0.011111473 -0.040741332 -0.07223867 0.027548304 -0.056979213

network.6.weight f4 [141, 282]
00000000: 02fb 25be e49e 34be d79d 26bd 5df1 e0bb
00000010: 3f85 bfbd 7901 babc 0bf1 85bd 3361 debc
00000020: 6ebc 123c 13d0 74bd 9f9d 6f3d df09 19b8
00000030: 79b4 af3c 754c 373c 7f8b 843d d105 063d
00000040: 590a 0ebd c855 cb3d 274f 693d eb9e 133d
00000050: e9e0 61bd 8636 263d 2813 3f3d a552 94bd
00000060: 4820 383e 0738 0a3e 7385 323d 2216 dbbc
00000070: 02b4 903a ee21 abbd 76dd 063c c421 bc3c
00000080: f4d3 083e 46d9 a9b8 37e7 353d 9d52 893d
00000090: 8e3b d93d e5a0 9abd 46a1 183e b2c3 9b3c
000000a0: bf6f 833d cdcb 053d f5c9 fdbd 4525 e4bc
000000b0: b9dd 8b3d f03e d53d a7c2 4fbd fc1d 703c
000000c0: 5dd7 03be c80f 0a3c 2466 b8bd 38ee a6bc
000000d0: cc62 6b3d 581b d4bc b4cb bfbd 9200 5ebb
000000e0: c800 aabd a0de bf3d 0509 36be e6e6 8c3d
000000f0: 27d2 3f3e 7a55 e53d baa2 b03a 6b4a a83c
00000100: c633 fcbb ebe5 9b3e 0d92 7c3d 96a7 02be
00000110: 3a25 f93d a7e7 73bc 06ab bc3d c99b 96bd
00000120: 7e5a d33d 0661 9fbd 9086 a7bd 69b0 94bd
00000130: 63b1 5c3d bac9 17bd 15c4 dfbd e119 0bbd
00000140: 4454 883c ad50 7a3c f850 313d 664d 803d
00000150: 54fb 2a3d f116 41bd f67b 54be cf46 62bd
00000160: dc3b ef3d f222 353d 53e2 04bd 7e03 c6bd
00000170: 32fd cd3d 60fe a8bc 41fd fd3b 0d19 bb3d
00000180: 8165 8bbd 2140 ad3d 76c1 343c 56a6 1dbe
00000190: 7a96 1c3e 3271 7a3b 19be 003e c488 a0bd
000001a0: 92d9 06bd 03ac 953d 15f4 153e ee79 163d
000001b0: 0fc6 523d b4a1 5e3d 73e5 da3c b34d 22bd
000001c0: 00ee 00bd bd6b 99bc 9761 f5bd 9703 ce3b
000001d0: 8023 52bc 3bcc 5d3e 7256 be3c 4e1d 513c
000001e0: 1d14 4fbd ad40 5b3d c8ce 8abc f077 383c
000001f0: 3eea 3cbd 9256 a43d 1756 393e fdc7 2cbe
00000200: bce8 08bc 937b e13c 6e84 eebd 5663 d13d
00000210: 7435 013d b79e a93c 8bb5 ba3c ad78 4d3d
00000220: 722d 793d 4271 483c 3a2f 8bbd 891a f1bd
00000230: aab4 c6bc d880 203d 437c b0bd f291 533b
00000240: 06ca 4d3d c791 e23d c85f 91bd b6ef 64bd
00000250: 6645 b63d 7806 673c 79b3 983d e539 493c
00000260: 1a13 b83d 1b21 4ebe 289c e83c c7ad 913d
00000270: 552b bb3c 0805 8bbd 9241 fd3c 534d 8fbd
00000280: 5c6f 50bd 6132 bfbd 57a6 80bd 0165 313e
00000290: dec0 4c3e 0e66 86bc 8f2d 10be 8c31 763c
000002a0: d33c d2bc 05f8 20bb 232b 46bc b1e9 1c3d
000002b0: 2c14 773d fdeb aa3d fb78 abbd f68e 743d
000002c0: 92e8 863d 6c7c eabc 10cc 9a3d c1a4 ba3d
000002d0: 4bfe 0bbe 6bb3 4bbd dee7 c43d 69d9 103a
000002e0: a788 383d a650 8c3c 2caa b73d 66cd 553b
000002f0: 5b5c f33b def5 bdbc 1f1d 703c 07bf 8ab8
00000300: 57cc d83d eaf2 b2bc 3191 a0bd fc4a 2dbd
00000310: e6eb fa3b f840 9cbb b678 a33b 856f 023e
00000320: 844a 023d 728f 793c 5b84 6abd ad1d aabd
00000330: 8f03 00bc e848 50bc cd66 1b3e 6eb9 433e
00000340: d2bd 2c3e 9e25 0cbe 8951 01bd 19b9 08ba
00000350: 20ea 2dbc e230 79bd b194 77bd 70a4 f13d
00000360: a6ce d8bc a1ce b4bc 44f3 83bd 71d9 eebd
00000370: ca04 0b3e 83a4 083d 3293 a93d 95bd e03d
00000380: 1222 b6bc 1770 c53d 0552 cc3c e537 833d
00000390: 3b37 233c 8749 053c 6809 453d 8578 37be
000003a0: 67aa db3d 0e74 01be 8583 193e fe18 553e
000003b0: 0173 423d c4e9 8a3e 4981 643d dd3d 04bc
000003c0: e012 45be 7e5b 923d 14f2 143d 9d01 4e3c
000003d0: fe7c b13d fcb4 13bd c737 b23c 3957 a13d
000003e0: 3017 97bc 4919 bd3d 3eb1 c2bd c271 0bbd
000003f0: d6ab b43d 577a 6bbc 29b2 ca3d 8a3a 2d3e
-0.16209033 -0.17638737 -0.04067787 -0.0068647102 -0.093515866 -0.02270578 -0.06540116 -0.027145958
0.008956058 -0.059768748 0.05849993 -3.6487236e-05 0.02144836 0.011187662 0.06471919 0.03272039
-0.034677837 0.09928471 0.05696025 0.036040228 -0.05514613 0.04057934 0.04664913 -0.07242326
0.17981064 0.13497935 0.0435843 -0.026743952 0.0011039975 -0.08356081 0.008231511 0.02296532
0.13362104 -8.099018e-05 0.044409957 0.0670521 0.10607062 -0.075502194 0.14905271 0.019014213
0.06417798 0.032665063 -0.12392036 -0.027849803 0.068293996 0.10412395 -0.050722744 0.014655586
-0.12875123 0.008426614 -0.09003857 -0.020377263 0.057467267 -0.025891945 -0.09365025 -0.0033874852
-0.0830093 0.09368634 -0.17776878 0.06879978 0.1873251 0.11197944 0.0013476231 0.020543298
-0.0076966016 0.3044885 0.061662722 -0.12759241 0.121653035 -0.014886773 0.09212308 -0.073539324
0.103199944 -0.077821776 -0.08179963 -0.0726021 0.053880107 -0.037057616 -0.109260716 -0.033960227
0.016641743 0.015278024 0.04329011 0.062647626 0.04174359 -0.04714102 -0.20750412 -0.05524331
0.11681339 0.04422278 -0.032442402 -0.09668635 0.10058059 -0.020629108 0.0077511375 0.091356374
-0.0680647 0.08459497 0.011032453 -0.15395483 0.15291777 0.0038214442 0.12572517 -0.07838586
-0.032922335 0.07308199 0.14643891 0.036737375 0.051458415 0.05435343 0.026720738 -0.03962488
-0.031476974 -0.018728131 -0.119815044 0.006287049 -0.012825847 0.21659939 0.02323458 0.012763334
-0.05055629 0.053528477 -0.016944304 0.011259064 -0.04612183 0.080243245 0.18099247 -0.16873164
-0.008356269 0.027524745 -0.11646353 0.10224025 0.031545117 0.020705564 0.022791645 0.050163914
0.060834356 0.012234034 -0.06796117 -0.11772639 -0.02425607 0.039185375 -0.08617451 0.0032283035
0.050241493 0.11062961 -0.07098347 -0.05589267 0.088999555 0.014100663 0.07456107 0.01228187
0.08988018 -0.20129816 0.028394774 0.071132235 0.02284781 -0.06788069 0.030915055 -0.0699717
-0.05088745 -0.09335781 -0.06281727 0.17323686 0.19995448 -0.016406085 -0.14079879 0.015026461
-0.025663769 -0.0024561894 -0.0120952455 0.038308803 0.06032197 0.083457924 -0.083726846 0.05970665
0.06587328 -0.028623782 0.07558453 0.091134556 -0.13671224 -0.049731653 0.09614538 0.00055255607
0.045052197 0.0171283 0.089680046 0.0032623648 0.007426781 -0.023188528 0.0146553805 -6.6159344e-05
0.1058585 -0.021844346 -0.07840193 -0.04230784 0.007657516 -0.004768487 0.004988755 0.12737854
0.031809345 0.015231954 -0.05725513 -0.083064415 -0.007813348 -0.012712695 0.15175934 0.19113705
0.16869286 -0.13686225 -0.0315719 -0.000521557 -0.010614902 -0.060837634 -0.060444538 0.11798942
-0.026465725 -0.022071185 -0.064428836 -0.116625674 0.13576046 0.033360016 0.082800284 0.1097366
-0.022233043 0.0964052 0.024941454 0.064071454 0.009961898 0.008135206 0.048104674 -0.17917068
0.10725861 -0.12641928 0.14991577 0.20810315 0.047472958 0.27131474 0.05578736 -0.00807139
-0.19245481 0.07146357 0.036363676 0.012573627 0.086664185 -0.036061272 0.021755112 0.078779645
-0.018443674 0.092333384 -0.095064625 -0.034044035 0.088218376 -0.01437243 0.098972626 0.16916862

network.6.bias f4 [141]
00000000: 9c49 433d 9462 ddbb e2a2 463d 5e2d 6c3c
00000010: 5f5d d93d 7a57 cd3c fa2b c13c f7a3 00bb
00000020: 300a 9e3d 7e3f e33c 7e3d 1f3c b095 b9bc
00000030: f29f 8e3d 71ab c43d 26c5 2abd a166 183d
00000040: 4065 2e3d 042f 1f3c c1e6 cf3c dadb 9ebc
00000050: 8601 02bc dab0 c13d 028f e03c 51be afbb
00000060: 3b7a 1d3c d5fa 973d ee63 bc3b 1a14 a23d
00000070: 54fa 693d 8b18 35ba 2570 253d 9123 2c3d
00000080: 2e27 e13d 6de8 d3bc 6a51 c6bc 8bba bf3c
00000090: 5628 7a3d b812 bb3d 0092 823d efba 0d3d
000000a0: b020 99bc db5c 5e3d 0def 86bc c0f7 e9bc
000000b0: c04e 323d 5153 423d 942c 023e ba55 b53b
000000c0: d5ac 2bbd 619b b8bb 0a94 e9bc 143e 40bc
000000d0: 4c9a 3b3d 2a5f 203d bc0b 8fbc 46f4 c03c
000000e0: ec05 2a3d f5cb c93d 88f1 e13d 5ad6 60bd
000000f0: d8aa 3b3d 0292 aa3d 6d2f 9d3d 6e44 e83d
00000100: 60a8 d43d 89fb bf3d 22cd 0a3d 8aad 313d
00000110: d7a9 473c 5a14 cbbc 56e3 26ba 5821 6ebc
00000120: 2944 283d 97f9 b43d 02d9 1d3d 2506 b73d
00000130: 53b9 783d a4ff b33c ee06 053c 20be ee3c
00000140: 2a84 023e 8588 7e3d a6ca ad3c 3ff0 d13d
00000150: 0acd 6d3d 5307 0d3d 1337 01bc b200 db3d
00000160: e446 d93d 4bb1 1bbd 3c22 3b3d e7b5 7b3d
00000170: 9abf 683d b554 1f3c d4c8 763d 743b 383d
00000180: 431a a63c 8520 1e3d 953f da3d 89e6 953d
00000190: ac2c 0abd 0123 8b3c 844c d03d dd2e 29bd
000001a0: 70e5 993a 9000 243d 931a 933d fb1b c13d
000001b0: 92bf 933d aec5 333d a49e 8d3d 61df c6bc
000001c0: 49cc 1f3d ffb1 3d3d 092b e13d 6cf5 d83c
000001d0: 63da 68bd d88c 823d 04e5 19bd 06b2 60bc
000001e0: d6f8 043d 030f 173e ada1 063e 3aca 9f3d
000001f0: 68b7 2abd 29d3 f23b 98be 163d ba67 083e
00000200: 5b87 aa3d c644 2b3d 0a56 aabc 9a87 d93c
00000210: c32c 24bc 5aa4 163e c8c5 063d c013 21bc
00000220: a103 853d 9a02 ce3c 4453 c8bc 6aa2 893d
00000230: 6422 ce3d
0.04767762 -0.006756136 0.04849518 0.014415113 0.10613512 0.025066126 0.02358054 -0.001962898
0.07716787 0.027740236 0.009719251 -0.022654384 0.06964101 0.09603012 -0.04169192 0.03720725
0.04257703 0.009715799 0.025378587 -0.019391943 -0.0079349335 0.0945756 0.027411941 -0.0053632637
0.009611662 0.07420889 0.0057492172 0.0791399 0.057123497 -0.0006908259 0.040390152 0.042026106
0.10993801 -0.025867665 -0.024208743 0.02340438 0.061073624 0.0913443 0.063755035 0.034602102
-0.018692344 0.054287773 -0.01647141 -0.02856052 0.043532133 0.047442738 0.12712318 0.005533901
-0.041912872 -0.005633757 -0.028512973 -0.011733551 0.045801446 0.039153256 -0.01746165 0.023553979
0.041509554 0.09853355 0.110323966 -0.05489192 0.045817226 0.0832863 0.076750614 0.11341177
0.103836775 0.093741484 0.033887036 0.04337839 0.012186489 -0.024789978 -0.0006366273 -0.014534317
0.041080628 0.08836668 0.038537033 0.08936719 0.060723614 0.021972485 0.008119328 0.029143393
0.12745729 0.062141914 0.021214794 0.102509014 0.05805687 0.034430813 -0.007886666 0.10693492
0.106092244 -0.038010877 0.045686945 0.061452772 0.05682335 0.009724786 0.06025012 0.044978574
0.020276194 0.03860523 0.106566586 0.07319362 -0.03373401 0.016984465 0.10170844 -0.041304458
0.0011741351 0.0400396 0.07182803 0.09429165 0.072142735 0.043889694 0.06915024 -0.024276437
0.03901318 0.04631233 0.109945364 0.026484214 -0.056848895 0.0637452 -0.037571922 -0.013714319
0.03246387 0.1475182 0.13147612 0.078022435 -0.041678816 0.007410426 0.036802858 0.13320819
0.08326598 0.041813634 -0.02079298 0.026553918 -0.010020438 0.14711133 0.032903463 -0.009831369
0.06494833 0.025147725 -0.024453767 0.06720431 0.10065153

network.9.weight f4 [21, 141]
00000000: 48d1 313a 57ff 9c3d 23ae e03c 556a 993d
00000010: e708 9ebb 8ae2 f83d c593 65be 9eee 18be
00000020: 32eb 2b3d 571e a8be f69f d83c f4d2 92bd
00000030: 25fa 55be 0aa7 003e a23d 5a3c 1cd8 d3bd
00000040: 37b4 2cbe 0c7c ce3d a032 27bd 18b4 14ba
00000050: 9f57 103e 2f71 813d c876 ec3d e29c 16be
00000060: fe3f 063e 440b 35bd cffc d83d bb42 03be
00000070: e488 e73d d037 9f3d b33f a1be b4af 243d
00000080: 5f2d 7abe 5d75 033e 15e1 60be 87c0 65be
00000090: fd8c 04be 05ef 053e 9e47 153d e1cd 7bbc
000000a0: e9af 0f3e 41a1 dbbc ae8f c13d 2d76 b8be
000000b0: 658c bb3d 3184 1d3e ce22 7abc 4422 803e
000000c0: a297 063e a517 0ebd 0c61 d93d 2e2e f8bd
000000d0: 2e76 a03d 4efd d33d edee 2dbe 3e37 c0bd
000000e0: fa72 adbd a925 bcbe b66b dc3d 03af 053e
000000f0: 8cac ec3d 37ff b23d f507 d13d 0d67 e43d
00000100: cb82 283b 68d9 383d 84f5 03bd 49ae dfbe
00000110: ed3a d33d 62ca eb3d c779 0abd dc78 be3c
00000120: 1c53 2dbe a6c1 ea3d 52bd 2ebe 7396 b83d
00000130: c170 143e 9ded 57bd 57d3 843d b55d 463d
00000140: fbd2 79be 090d a9be 3c68 22be 48a6 5f3d
00000150: cc3f fabc 64d5 093d 634a 163d 6220 073e
00000160: ebd3 453e 5a11 0fbe dec6 24be 9f55 10be
00000170: 43db 28bd 08f8 50be ffa3 1cbe 59bf 0abd
00000180: d8de e83d 4931 033d 59f5 9cbd b592 36be
00000190: fca1 8cbe 090d 93be f713 90be 5dc4 453d
000001a0: 8d58 f33d 7621 f63d 98d5 573d 6b91 f43b
000001b0: 2955 c2bc 6c05 54be 68d3 e73d d980 fdbd
000001c0: 52b4 30be 95f7 4abe 0788 27be 2e99 a9be
000001d0: db8f 593d 196f ab3b 622b 013e b620 9ebe
000001e0: 0feb 3e3d 0e82 a8bc 9880 01be 8914 95bd
000001f0: 4600 7b3d 3746 443d c256 82be 029e a2bd
00000200: fd8e 75bd c922 2fbe b288 bf3d 2abb 89be
00000210: 593d 73bb b439 a2bc 42a4 8a3d 6788 cdbd
00000220: 980c 583d 5302 70bb a356 10bc 86ba 3dbe
00000230: 7fbf ec3d 3917 a3be 7f28 19be d591 543d
00000240: 6a58 763d a000 443c 6836 3f3d 9bb1 22be
00000250: f394 e93d 0c3b 9a3d 69d5 a03d f034 313d
00000260: 57fe f03d 475e f93d ca2e d7bd 1fb7 5b3a
00000270: f6ed bbbc 9f81 87bd 9904 16be bf99 8bbe
00000280: 69d7 8ebe c8fb 84be ca64 53be 6208 0dbe
00000290: 142d 8c3d ca3a d53d e61f 873d 19d1 63bd
000002a0: 6a4a 2dbe 5bf2 ad3d 2268 98bc a233 1c3c
000002b0: 86b5 bf3d 35eb 00be e996 86bd b437 a83c
000002c0: 2aec 0a3e 19f9 84bd 9cde 1b3e 331b 173d
000002d0: 0ff7 54be 34f2 0abe 00ae 123e 7a3b 8bbe
000002e0: 5dc2 eebd 8129 9a3c ff1e 31be 1791 d53d
000002f0: 9ab2 56be b8aa 8b3d 1b30 68be 783d 273d
00000300: ec36 3abe e8dc 883d ad2a b33d 53f5 a4bd
00000310: c51e 093e f11e c03d 934b 9d3d 218e 253d
00000320: a5de 3cbd a784 63bd cbf3 b43d d11f 10be
00000330: d047 f03b 8bbd e43d d6a9 793d c887 0c3d
00000340: d59d 143d ff8c 8dbe aff6 733d 08e5 5abe
00000350: c87c 003e 8f80 8c3d f28d 78be 0f9d f1bd
00000360: 12d6 583d 20f1 6bbd 16ec e43d 73b6 f33d
00000370: afdd c6bd c8cb d83d 37f4 aebd 7a2b 13be
00000380: 95b9 4d3d 71e7 1bbe b8d0 5dbd 903a 9fbe
00000390: d91f a2be e226 a73d 0107 713c 36da dc3d
000003a0: 93f8 c93d 7ee5 9bbe 89ae 26be ceda 4539
000003b0: 4f63 92be ae59 0abe 335b e5bb f5bf b83d
000003c0: 550f ebbd 850f c3bc cf15 5abd 9c17 02be
000003d0: b204 a6be efbb 2cbe 12cc 013c 94d2 80be
000003e0: 5165 893d 9328 d43d 73df 383e 973e 173e
000003f0: 1c26 adbe 2b3e 903d 6e6d 173d 2155 233e
0.00067831995 0.0766589 0.027426785 0.07490984 -0.0048228386 0.12152584 -0.22419651 -0.14934775
0.041972347 -0.32835647 0.026443463 -0.07169142 -0.20896204 0.1256372 0.0133203585 -0.10343954
-0.16865622 0.10082254 -0.040819764 -0.0005672588 0.14095925 0.06320416 0.11546093 -0.14708284
0.13110349 -0.044200197 0.105950944 -0.12818424 0.11305407 0.07774317 -0.3149391 0.040206626
-0.2443137 0.1283774 -0.21960862 -0.22436725 -0.12944408 0.1307946 0.036445253 -0.01536891
0.14031948 -0.02681029 0.09451233 -0.3602766 0.091576375 0.15382458 -0.015267087 0.25026143
0.13143781 -0.034690518 0.10614213 -0.12118183 0.07835041 0.103510484 -0.16985674 -0.093855366
-0.08469196 -0.36747482 0.10762732 0.13055043 0.11556348 0.087400846 0.10206596 0.11152468
0.0025712724 0.04512921 -0.032216564 -0.43687657 0.103139736 0.11513211 -0.033807542 0.02325099
-0.16926235 0.11462717 -0.17064407 0.09013071 0.14496137 -0.05271684 0.064856224 0.04842921
-0.24396889 -0.33017758 -0.15860075 0.054601938 -0.030547999 0.03365077 0.036692034 0.13195947
0.19319122 -0.13971463 -0.16091487 -0.14095162 -0.04122473 -0.20407116 -0.15296935 -0.03387389
0.11370629 0.032029424 -0.07663984 -0.17829402 -0.27467334 -0.28720883 -0.28140232 0.04828297
0.11882124 0.12018101 0.052693933 0.0074636242 -0.023722248 -0.20705193 0.113196194 -0.12378091
-0.17256287 -0.19821008 -0.16360484 -0.3312468 0.053115707 0.0052317497 0.12614205 -0.3088433
0.046610888 -0.020569827 -0.12646711 -0.072793074 0.061279558 0.047918525 -0.25456816 -0.07940294
-0.059950817 -0.17103113 0.093522444 -0.26900607 -0.0037115423 -0.019802906 0.06769611 -0.10035782
0.052746385 -0.003662248 -0.008809718 -0.18528184 0.115599625 -0.31853655 -0.14956854 0.05189689
0.060142912 0.01196304 0.046682745 -0.15888064 0.11405363 0.075307935 0.07853205 0.043263376
0.117672615 0.12176185 -0.10506971 0.0008381474 -0.022940617 -0.0661652 -0.14650191 -0.27265736
-0.2789872 -0.25973344 -0.20643917 -0.13772729 0.068445355 0.10411604 0.06597881 -0.055619333
-0.16922918 0.08493491 -0.018604342 0.009533795 0.09360795 -0.12589724 -0.065717526 0.020534374
0.13566652 -0.06492824 0.15221637 0.036891174 -0.2079737 -0.13568956 0.14324188 -0.27193815
-0.116581656 0.018818619 -0.1729698 0.10428064 -0.20966569 0.068196714 -0.22674601 0.040830106
-0.18185014 0.066827595 0.08748374 -0.080546044 0.13390644 0.093809016 0.0768043 0.040418748
-0.046110768 -0.05554643 0.08835562 -0.14074637 0.0073327795 0.11168965 0.060952984 0.03430918
0.036283333 -0.27646634 0.059561428 -0.21376431 0.125476 0.06860458 -0.24272898 -0.11797535
0.05293853 -0.057603 0.11177842 0.11900034 -0.097102515 0.10585743 -0.08542674 -0.14372054
0.050225813 -0.15225007 -0.054154128 -0.31099367 -0.31664923 0.08161713 0.0147111425 0.10783808
0.09861865 -0.30448526 -0.16277517 0.00018868895 -0.2859139 -0.13510773 -0.006999397 0.09020988
-0.11477534 -0.023811111 -0.053243455 -0.12704319 -0.32425457 -0.16868566 0.007922189 -0.25160658
0.06708778 0.103593014 0.18053989 0.1476997 -0.33818138 0.070431076 0.036969595 0.15950443

network.9.bias f4 [21]
00000000: 3abd 013d 1039 c63d df13 d9bb b654 143e
00000010: 512c b23c c20b c43d d11b 85bd c9ac ec3c
00000020: a268 e1bc 1579 493d c66a bb3c 0730 8cbd
00000030: c8b0 aabd e231 00bc 3aae f33c 1daa a43c
00000040: 07c3 3abc e2c7 0fbd 9f20 e83b 6bfb 433d
00000050: 070e dbbc
0.0316746 0.096788526 -0.0066246833 0.1448544 0.021749647 0.09572555 -0.06499446 0.028890984
-0.027515713 0.04918774 0.022878062 -0.06845098 -0.083344996 -0.007824393 0.029746164 0.020100648
-0.011399037 -0.035102732 0.007083967 0.047847193 -0.026740087
